models/Others/model_PGNN_10000_1e-3_1.pt (torch, 127233 bytes, 12 tensors)

l1.weight f4 [189, 9]
0	0xbd0c6c42	-0.03428293
1	0x3da7b1ec	0.08188233
2	0x3e3870dc	0.18011802
3	0x3f94d532	1.1627562
4	0xbf0ddc7b	-0.5541455
5	0x3ee92a5e	0.45540136
6	0xbf23a695	-0.6392606
7	0xbe6b1f74	-0.22961217
8	0xbee62eae	-0.4495749
9	0xbc4e70fd	-0.012600181
10	0x3faa1f30	1.3290768
11	0xbfc3bb83	-1.5291599
12	0x3e5a535c	0.21320862
13	0xbfc64855	-1.5490824
14	0xbf1172a0	-0.5681553
15	0xbf2785c2	-0.65438473
16	0xbe8867a2	-0.26641566
17	0x3f0cf0fc	0.5505521
18	0xbfd6cd90	-1.6781483
19	0x3ece886b	0.40338454
20	0x3eaee38c	0.3415798
21	0x3d8eec47	0.0697866
22	0x3e962f7e	0.2933311
23	0x3edb4c9d	0.4283189
24	0x3ef71e38	0.48265243
25	0xbde2ed74	-0.11080447
26	0xbc2b9cbd	-0.010474381
27	0x3debf22c	0.115208
28	0x3f0a89cd	0.5411652
29	0x3ed2b204	0.4115144
30	0xbfc233f2	-1.5172102
31	0xbf000df6	-0.500213
32	0xbf3a82b1	-0.7285567
33	0x3e8b00b9	0.2714899
34	0xbf1ab4e0	-0.60432243
35	0xbf51fcc0	-0.8202629
36	0x3df3c94f	0.11903631
37	0x3dbf35e4	0.09336451
38	0xbf978bd6	-1.183955
39	0x3e5f0d39	0.21782388
40	0x3ec080bd	0.3759822
41	0xbf3ddb62	-0.74162877
42	0xbf71d5ad	-0.9446667
43	0xbe9bc13d	-0.30420867
44	0x3e9c7dfe	0.30564874
45	0x3e37d24f	0.1795132
46	0xbf643020	-0.8913593
47	0x3c40ce9c	0.0117680095
48	0xbf53996e	-0.8265599
49	0x3fab6047	1.3388757
50	0x3f0f9921	0.5609303
51	0xbdd1b897	-0.10240286
52	0xbcd4ac01	-0.025960924
53	0xbf323b22	-0.6962148
54	0xb9ba1c9c	-0.00035498
55	0xbe1542e6	-0.14576301
56	0x3f79573f	0.9739875
57	0xbfdba608	-1.7160044
58	0xbfd07ef3	-1.6288742
59	0x3fa21e59	1.2665511
60	0x3f1be3bd	0.60894376
61	0xbf30c12d	-0.6904476
62	0xbdc49cd1	-0.09600223
63	0xbe208565	-0.15675886
64	0x3e5a4d01	0.21318437
65	0x3e779ccd	0.24180909
66	0xbfd9eb09	-1.7024852
67	0x3d78ef24	0.060774937
68	0xbf2a3218	-0.66482687
69	0x3dea4936	0.11439745
70	0xbd52cdd6	-0.05146583
71	0xbe7c8c52	-0.24662903
72	0x3d81fe4e	0.06347333
73	0xbdce716a	-0.10080226
74	0xbf7b51d5	-0.9817174
75	0xbfa77ac3	-1.3084339
76	0xbe14950d	-0.14509983
77	0xc0086598	-2.1312008
78	0x3fa3e664	1.2804685
79	0x3ea5b745	0.32366386
80	0xbe1e6fa6	-0.15472278
81	0x3dbe0430	0.092781425
82	0xbd83b3b0	-0.06430757
83	0x3d8ba38f	0.06818306
84	0xbfe718fc	-1.80545
85	0x3f95e9d8	1.1711988
86	0x3ea885ed	0.32914677
87	0x3ef40c53	0.47665653
88	0x3e92b2ff	0.28652188
89	0xbf3a176f	-0.72692007
90	0x3e7ac226	0.24488124
91	0x3d259d61	0.04043329
92	0x3f197cc1	0.59955984
93	0x3e0f4e08	0.1399461
94	0xbeb2058d	-0.3476986
95	0xbe0815ae	-0.1328952
96	0x3f79ee40	0.97629166
97	0xbf83b3bd	-1.0289227
98	0xbfb1fb68	-1.3904848
99	0x3b923c4d	0.004462755
100	0x3f282fd5	0.65697986
101	0xbfc68e12	-1.5512106
102	0xbe1c19d5	-0.15244229
103	0x3f345b5e	0.70451915
104	0x3ed2507c	0.4107703
105	0x3f5073b7	0.81426567
106	0x3fcecb10	1.615572
107	0x403e992f	2.9780996
108	0x3f73b836	0.9520296
109	0x3e4062b0	0.18787646
110	0xbc80a295	-0.015702525
111	0x3f9818a1	1.1882516
112	0xbe768ad9	-0.24076404
113	0xbf84a725	-1.0363508
114	0x3d47a4a4	0.048740998
115	0xbea7b253	-0.32753238
116	0xbd91ad3d	-0.07113121
117	0xbc464856	-0.012102207
118	0x3f10c933	0.56557006
119	0xbf23ccb8	-0.6398425
120	0xbf7d40a9	-0.9892679
121	0x3f6de3b7	0.9292559
122	0xc018ba24	-2.3863611
123	0x3e34b55f	0.17647313
124	0xbf24b8ed	-0.64344674
125	0x3f9a9faf	1.2079982
126	0x3cdcd06b	0.02695485
127	0xbf565361	-0.83720976
128	0xbed90b99	-0.4239166
129	0xbf9b5232	-1.2134459
130	0x3f8aab36	1.08335
131	0x3f604212	0.87600815
132	0xbee70fd0	-0.4512925
133	0x3f04ad45	0.5182689
134	0x3db3bd12	0.08776297
135	0x3f5957f8	0.84899855
136	0xbeee01e6	-0.46485823
137	0x3df230d5	0.1182572
138	0x3d9afb37	0.07567447
139	0x3db9a1ec	0.09064087
140	0xbdfc7ab0	-0.12328088
141	0xbf296295	-0.6616605
142	0x3e5246aa	0.20534769
143	0xbdba1ad5	-0.09087149
144	0xbc7f7944	-0.015592877
145	0xbf9717c7	-1.1804131
146	0xbe8a4fdb	-0.2701405
147	0xbf90c52e	-1.1310174
148	0xbfbd5caf	-1.479391
149	0x3f802a90	1.0012989
150	0xbde93fdc	-0.11389133
151	0x3f6cf970	0.9256811
152	0x3f9a0281	1.2032014
153	0xbc695810	-0.014242187
154	0xbe9a247f	-0.3010597
155	0xbf801f29	-1.0009509
156	0xbe40652e	-0.18788597
157	0x3efd52f4	0.4947735
158	0xbf008ea7	-0.5021767
159	0xbf1f51e7	-0.6223435
160	0x3d91d8e7	0.07121449
161	0x3ea6365f	0.32463357
162	0x3d8508c6	0.06495814
163	0xbe38ae37	-0.18035208
164	0xbe47336d	-0.19453211
165	0x3f9f759a	1.2457764
166	0xbe448b67	-0.19193803
167	0xbf872a02	-1.0559695
168	0xbe89e393	-0.26931438
169	0x3e52ea07	0.20597087
170	0x3cf917ed	0.030406917
171	0x3a8e2a36	0.001084632
172	0x3e67b447	0.22627364
173	0x3dd3527f	0.10318469
174	0xbefdd698	-0.49577785
175	0xbf08c64b	-0.5342757
176	0x3fb07c9b	1.3788027
177	0x3f904d8d	1.1273667
178	0xbf98799c	-1.1912112
179	0xbf9e3225	-1.2359053
180	0xbdc15206	-0.09439473
181	0xbe5f4421	-0.21803333
182	0x3d7a2068	0.06106606
183	0x3fb0272d	1.3761955
184	0xbe5b3f5a	-0.21410885
185	0xbf1f2fed	-0.62182504
186	0x3f7cc9ab	0.9874522
187	0xbe8d52cd	-0.27602234
188	0xbd419e57	-0.047270145
189	0x3dd82468	0.10553819
190	0xbf0f14d0	-0.5589113
191	0xbe9f7f76	-0.31151932
192	0x3f96ef89	1.179185
193	0xbebd91a3	-0.37025174
194	0x3ee134a4	0.43985474
195	0x3f34ad38	0.7057681
196	0xbf6a82d3	-0.9160587
197	0xbf9c2596	-1.219897
198	0x3e8f5b27	0.2799923
199	0xbea2870d	-0.3174366
200	0xbec9d8da	-0.39423257
201	0xbddabf3f	-0.106810085
202	0xbe6e7648	-0.23287308
203	0xbe68ea6f	-0.2274568
204	0xbf2c831c	-0.6738756
205	0x3d8d80ba	0.06909318
206	0x3ecbe491	0.3982282
207	0x3e304223	0.17212729
208	0xbe7c61f4	-0.24646741
209	0xbdc6c22a	-0.097050026
210	0x3fafcfbc	1.373527
211	0x3d5c4090	0.05377251
212	0xbefa8658	-0.4893062
213	0x3f24f05f	0.6442928
214	0xbf0d8138	-0.552753
215	0x3b78c02e	0.0037956345
216	0xbcf71988	-0.030163541
217	0x3ee094e5	0.43863598
218	0xbe9843e3	-0.29739293
219	0x3e6e979e	0.23300025
220	0xbe7db93b	-0.24777691
221	0xbf0b0c45	-0.54315597
222	0xbe91b45a	-0.2845791
223	0xbc55fbd5	-0.01306053
224	0xbfd4e00e	-1.6630876
225	0x3da665bb	0.08124872
226	0x3e5bb2b7	0.21454893
227	0xbf0e4db2	-0.55587304
228	0x3f4e8f00	0.8068695
229	0xbf9a684a	-1.2063076
230	0xbf2f393f	-0.68446726
231	0x3eed9222	0.46400553
232	0xbeb474d2	-0.35245377
233	0xbf49dca1	-0.7885228
234	0xbe96d79a	-0.29461366
235	0xbe760120	-0.24023867
236	0xbe4f3cdb	-0.20238058
237	0xbf9db8aa	-1.232198
238	0xbec4917a	-0.3839224
239	0xbef093a3	-0.46987638
240	0x3eab9240	0.33510017
241	0x3ebb7e27	0.36619684
242	0x3f5d73e9	0.8650499
243	0x3f0758eb	0.52870053
244	0xbef7e56c	-0.48417222
245	0x3e5600de	0.20898768
246	0xbf22ef02	-0.63645947
247	0x3e9869d6	0.29768246
248	0xbd536f09	-0.051619563
249	0xbe4c75da	-0.19966832
250	0xbdb4aa0a	-0.08821495
251	0xbf2c4198	-0.6728759
252	0x3de84318	0.11340922
253	0x3f1645b0	0.58700085
254	0xc005f035	-2.092786
255	0xbeb5958b	-0.35465655

l1.bias f4 [189]
0	0xbf5f8c8d	-0.8732384
1	0x3fe07dc9	1.7538387
2	0x3e9e45e6	0.30912703
3	0x3f06e5bb	0.5269429
4	0x3c345dd2	0.011008697
5	0xbd53d9e9	-0.051721487
6	0x3f35e360	0.7105007
7	0x3f602a69	0.8756471
8	0x3f041ee4	0.51609635
9	0xbd62ddbe	-0.05538725
10	0xbec42bf4	-0.38314784
11	0xbe901452	-0.28140503
12	0x3e3affe8	0.18261683
13	0x3effb49a	0.49942476
14	0xbe574cc0	-0.21025372
15	0xbefb9d15	-0.49143282
16	0x3edfaff7	0.43688938
17	0x3e2c4f5f	0.16827153
18	0xbe1eb7ef	-0.15499853
19	0x3fb42bb9	1.4075843
20	0xbf48e787	-0.7847828
21	0xbe7c211b	-0.24622004
22	0xbe973f48	-0.29540467
23	0xbefa292c	-0.48859537
24	0xbe7937c0	-0.24337673
25	0x3e40cf65	0.18829115
26	0x3f039208	0.513947
27	0xbb9df5a0	-0.0048205405
28	0xbd8b95f1	-0.068157084
29	0xbec8d171	-0.3922229
30	0xbd5171d5	-0.05113395
31	0x3c49bca1	0.012313039
32	0x3fca7b5c	1.5818896
33	0x3fde272e	1.7355707
34	0xbe855952	-0.26044708
35	0x3f7f2743	0.99669284
36	0xbe8cd746	-0.2750799
37	0xbe208f32	-0.15679625
38	0x3f41a716	0.7564558
39	0x3ee920c5	0.45532814
40	0x3febaf73	1.8412918
41	0x3d70c19d	0.058778394
42	0xbdfb4225	-0.122684754
43	0x3f3db816	0.7410902
44	0xbe26ae3f	-0.16277407
45	0xbf246d94	-0.642297
46	0x3e1f4c24	0.15556389
47	0x3fc8e975	1.5696245
48	0xbe9a47d2	-0.3013292
49	0x3e540994	0.20706779
50	0x3f4b47c0	0.79406357
51	0xbf83b958	-1.0290937
52	0x3f1dfb3d	0.61711484
53	0xbf00e4bb	-0.50349015
54	0xbfe0620c	-1.7529922
55	0xbf1b269d	-0.60605794
56	0x3f9c835a	1.2227585
57	0xbeb0e83d	-0.34552184
58	0xbe2263e4	-0.15858418
59	0x3f87bd37	1.0604619
60	0xbf08becb	-0.53416127
61	0xbe2de089	-0.16980185
62	0xbd9638f2	-0.0733508
63	0xbe694877	-0.2278155
64	0xbfc585a5	-1.543141
65	0xbd75b372	-0.059985586
66	0xbe24b361	-0.16084053
67	0x3ebe60aa	0.37183124
68	0x3f1b0b4d	0.6056412
69	0xbe9e4b96	-0.30917042
70	0xbee65a3e	-0.44990724
71	0x3e2c2fb7	0.16815077
72	0xbed35503	-0.41275796
73	0xbe1256b8	-0.14290893
74	0xbeaf4bc5	-0.34237495
75	0xbf00ece2	-0.50361454
76	0xbef14395	-0.47121873
77	0x3f2e7e84	0.681618
78	0x3f13a00a	0.57666075
79	0x3faa1c57	1.3289899
80	0x3fa1af8f	1.2631701
81	0xbea33f63	-0.31884298
82	0xbe0bc27e	-0.13648412
83	0x3f9b9a3b	1.2156442
84	0x3e23d6d2	0.15999916
85	0x3f0a5882	0.540413
86	0x3f18dc80	0.59711456
87	0x3e27f0d4	0.16400462
88	0x3efc0172	0.49219853
89	0x3e65c88f	0.22439788
90	0xbf0b95a5	-0.54525214
91	0xbebd2df3	-0.3694912
92	0xbf808f1e	-1.0043676
93	0x3fa91a17	1.3211087
94	0xbde723c2	-0.11286117
95	0x3ee73d26	0.4516384
96	0x3f0a4a9a	0.5402008
97	0x3f2e23f3	0.68023604
98	0xbf201659	-0.625341
99	0x3dc9fff8	0.09863275
100	0xbeaf3dc1	-0.34226802
101	0x3d55dd03	0.052212726
102	0x3e3594bc	0.17732519
103	0xbe392572	-0.1808069
104	0x3edbbc9d	0.42917338
105	0x3dfe1857	0.12406986
106	0x3e42c10f	0.19018959
107	0x3e28e0c9	0.16491999
108	0x3fa774ee	1.3082559
109	0xbf5682ad	-0.83793145
110	0x3f02cae4	0.51090837
111	0x3f8c0a64	1.0940671
112	0xbed98492	-0.42483956
113	0xbf78298d	-0.969384
114	0x3ec477d4	0.38372672
115	0x3f6821aa	0.9067637
116	0x3f007777	0.5018229
117	0x3d21ccf8	0.039502114
118	0x3e044d2c	0.12920064
119	0xbee3a2d7	-0.44460174
120	0xbc62cde6	-0.013843035
121	0x3d745675	0.059652764
122	0x3d441af8	0.047877282
123	0x3f14c418	0.58111715
124	0x3d121e60	0.0356735
125	0x3e365b8d	0.17808361
126	0x3f5ab1db	0.85427636
127	0xbfa3a58d	-1.2784897
128	0xbf33c294	-0.7021878
129	0x3f31ed1c	0.69502425
130	0x3e67df8b	0.22643869
131	0xbeb915eb	-0.36149535
132	0x3e517b1c	0.20457119
133	0x3fb6eeda	1.4291642
134	0xbec9551f	-0.39322755
135	0x3e86ed19	0.26352766
136	0xbda9baa5	-0.08287553
137	0x3f21253b	0.62947434
138	0x3dbfffb4	0.093749434
139	0x3de27e6d	0.1105927
140	0x3d6fea62	0.058573134
141	0xbdd082e7	-0.10181218
142	0xbf87c2fe	-1.0606382
143	0x3eaef9e9	0.3417504
144	0x3f0e0a5b	0.5548455
145	0x3f0b1a33	0.5433685
146	0xbf7510e3	-0.9572889
147	0xbeefaaed	-0.46810094
148	0x3cc773f3	0.024347281
149	0xbf841ed4	-1.0321908
150	0x3f8a8f15	1.0824915
151	0x3f904a12	1.1272604
152	0xbe15ba7d	-0.14621921
153	0x3fa93c34	1.3221498
154	0x3f0be60f	0.54647917
155	0x3f03ad3e	0.5143622
156	0x3e54516f	0.2073419
157	0xbdffb2f0	-0.124853015
158	0xbea09f5f	-0.3137159
159	0x3e82bbff	0.25534055
160	0x3fd704f0	1.6798382
161	0xbee61d35	-0.44944158
162	0xbea49f31	-0.32152703
163	0xbfaf97cd	-1.3718201
164	0xbf006f7c	-0.5017011
165	0x3f0497c1	0.5179406
166	0xbf05a7d5	-0.52209216
167	0x3f31e299	0.69486386
168	0x3fb5073f	1.4142836
169	0xbeee8b98	-0.46590877
170	0x3f36f13e	0.71461856
171	0x3e89970f	0.2687306
172	0x3db066f6	0.08613388
173	0xbe481b1f	-0.19541596
174	0xbe7d925b	-0.24762861
175	0x3dbd8187	0.09253221
176	0x3dacff40	0.084471226
177	0xbee824d6	-0.45340604
178	0x3f45ea96	0.77311075
179	0xbeb067ee	-0.34454292
180	0xbf717545	-0.94319564
181	0xbe35012b	-0.17676227
182	0xbecc2948	-0.39875245
183	0x3f8f8169	1.1211368
184	0x3f33694a	0.70082533
185	0x3f805e19	1.0028716
186	0xbfb2b4f0	-1.3961468
187	0x3f447ee5	0.76756126
188	0x3f079860	0.5296688

l2.weight f4 [119, 189]
0	0x3e45013f	0.19238757
1	0x3eb3efa2	0.35143763
2	0xbc427b99	-0.011870288
3	0x3f3c8eca	0.7365538
4	0xbe42cceb	-0.19023483
5	0xbec6059a	-0.3867615
6	0x3e90c18b	0.28272662
7	0xbe08ed55	-0.13371785
8	0xbec7ff47	-0.3906195
9	0xbe0b32fa	-0.13593665
10	0x3e07c511	0.13258769
11	0xbe7f8666	-0.24953613
12	0xbb2d0a07	-0.0026403682
13	0xbedf7ad2	-0.43648392
14	0xbf308ce6	-0.68964994
15	0x3bef70b5	0.007307137
16	0x3e9e6f71	0.30944398
17	0xbe8ae793	-0.27129802
18	0xbc8e75ec	-0.017390214
19	0xbe6bc4df	-0.23024319
20	0x3cc0b4b0	0.023523659
21	0xbd8f1b50	-0.06987631
22	0xbdb6b3b1	-0.08920992
23	0xbd0adb46	-0.03390052
24	0xbe59e7c8	-0.21279824
25	0x3c97a7dd	0.01851266
26	0x3dca9a47	0.09892707
27	0xbe4ae183	-0.19812588
28	0xbf4e2ad9	-0.8053413
29	0x3d1cb101	0.03825474
30	0xbe282aed	-0.16422625
31	0xbe537b01	-0.20652391
32	0x3eceae67	0.40367433
33	0x3ed6d77b	0.41961274
34	0x3ed1aa62	0.40950304
35	0x3e5abe8d	0.21361752
36	0xbdbb0267	-0.091313176
37	0xbd12f4ea	-0.0358781
38	0x3c22b416	0.009930631
39	0x3f519628	0.81869745
40	0xbf395182	-0.72389996
41	0x3d4b888a	0.04969076
42	0x3d2498f0	0.040184915
43	0x3db7ecdc	0.08980724
44	0xbe42ec56	-0.19035468
45	0x3e5e4725	0.21706827
46	0x3d5338b9	0.051567767
47	0x3f19643a	0.5991856
48	0x3db98a6f	0.09059607
49	0x3deff013	0.117157124
50	0x3cb35f8b	0.021896144
51	0x3e910cfb	0.28330216
52	0x3d30381f	0.04302227
53	0x3d4f18aa	0.05056063
54	0xbc3b8a3c	-0.011446532
55	0x3e205158	0.1565603
56	0xbe0d6141	-0.1380663
57	0xbdcfc5b0	-0.10145128
58	0xbe68c32d	-0.22730704
59	0xbd4af46d	-0.04954951
60	0xbd0db0dc	-0.034592494
61	0xbd5aef5d	-0.05345093
62	0xbdd0fdba	-0.102046445
63	0x3e53a010	0.20666528
64	0x3dcfbf66	0.10143928
65	0xbe02d41f	-0.1277623
66	0xbce60949	-0.0280806
67	0xbdd26cc0	-0.10274649
68	0xbf0ffde9	-0.5624681
69	0xbe786834	-0.242585
70	0xbdc71818	-0.097213924
71	0xbc2d4923	-0.010576519
72	0x3d42fb69	0.047603045
73	0xbe7c5ed5	-0.2464555
74	0x3d3e9b18	0.046534628
75	0x39aef279	0.00033368522
76	0x3e042969	0.12906422
77	0x3ec28d56	0.37998456
78	0x3ced0bc6	0.028936278
79	0x3e19cbf0	0.15019202
80	0xbc3ea3b6	-0.011635711
81	0xbe6d9bb6	-0.2320393
82	0xbed69b3c	-0.4191531
83	0x3e425fb1	0.18981816
84	0x39c10a8a	0.0003681968
85	0xbdcad1fd	-0.09903333
86	0x3f65fd9d	0.8984011
87	0x3c688273	0.014191258
88	0xbdae7bd3	-0.08519711
89	0xbe009668	-0.12557375
90	0x3ea310ce	0.31848758
91	0x3b1fe054	0.0024395185
92	0x3d846e60	0.06466365
93	0x3d0f069c	0.034918413
94	0xbf2d51ff	-0.6770324
95	0x3d33c01f	0.043884393
96	0x3f466330	0.774951
97	0xbf108e12	-0.5646678
98	0x3e935ae2	0.28780276
99	0x3d7c8ae9	0.061655913
100	0xbd014c38	-0.03156683
101	0xbd71366a	-0.058889784
102	0xbd850fe7	-0.06497174
103	0x3c16ac5f	0.00919637
104	0xbcc57615	-0.024104157
105	0x3e841fd8	0.25805545
106	0xbe5817ec	-0.21102875
107	0xbc431727	-0.011907375
108	0xbe8ee2b9	-0.2790735
109	0x3e7cf2bc	0.24701971
110	0xbe33c85e	-0.17556903
111	0xbfa19160	-1.262249
112	0xbd30f0af	-0.043198284
113	0x3e188cea	0.14897504
114	0x3f20bd11	0.6278849
115	0xbe3b99e5	-0.18320425
116	0xbd64bcde	-0.05584418
117	0xbc88ed5e	-0.016714748
118	0xbe0693c0	-0.131423
119	0xbd9f23ce	-0.07770501
120	0x3d1002a2	0.03515876
121	0xbce585e8	-0.028017953
122	0xbd7f08ac	-0.06226413
123	0xbc98f5c5	-0.01867188
124	0xbdf25180	-0.11831951
125	0xbd6819dd	-0.05666529
126	0x3e36b6ad	0.17843123
127	0x3e403ae9	0.18772472
128	0x3ed22082	0.41040426
129	0xbca1ad5c	-0.019735985
130	0xbe9aadb0	-0.30210638
131	0x3daf9d03	0.085748695
132	0xbe6086f9	-0.21926488
133	0xbda1101c	-0.07864401
134	0x3e8f083b	0.27935967
135	0xbca0061b	-0.019534161
136	0xbd36fe3b	-0.044676047
137	0x3d86c6a4	0.065808564
138	0x3e373fb3	0.17895393
139	0xbe237124	-0.15961128
140	0x3d346617	0.044042673
141	0xbd6bb4bb	-0.057545405
142	0x3ebd8423	0.37014875
143	0x3e833f5d	0.2563428
144	0x3e3631f7	0.17792498
145	0x3cfc93e9	0.030832248
146	0x3ec786f4	0.3897015
147	0x3da47fd3	0.08032193
148	0xbd2f63d6	-0.04281982
149	0x3de54480	0.11194706
150	0xbf52e7f8	-0.82385206
151	0xbf382ddb	-0.7194497
152	0xbe0fbb33	-0.14036255
153	0x3e7c436e	0.24635097
154	0xbcbefa3d	-0.023312682
155	0x3ee23be5	0.4418632
156	0x3eacd177	0.3375356
157	0x3d186531	0.03720588
158	0x3d91b0fc	0.07113835
159	0x3ce2d6ac	0.027690254
160	0xbf30cf3f	-0.6906623
161	0xbf5d945d	-0.8655451
162	0xbf085f1b	-0.5327012
163	0x3dab79d9	0.0837285
164	0xbe461576	-0.19344124
165	0xbe8f5661	-0.2799559
166	0x3ea0da7c	0.3141669
167	0xbd1ccbc2	-0.038280256
168	0xbf154c1a	-0.58319247
169	0xbd8df017	-0.06930559
170	0xbd59cddf	-0.05317485
171	0xbd12b242	-0.03581453
172	0xbd35321a	-0.044237234
173	0x3dff61ac	0.12469801
174	0x3a02ba16	0.00049868354
175	0x3e567a2f	0.20945047
176	0xbdbb2cba	-0.0913939
177	0xbd6ecfff	-0.05830383
178	0xbc9effd8	-0.019409105
179	0xbc890cc2	-0.016729716
180	0x3e950eec	0.29112947
181	0xbd969223	-0.07352092
182	0xbdaee636	-0.08540003
183	0x3edeeae4	0.43538582
184	0xbc24be63	-0.010055157
185	0x3e17bbac	0.14817685
186	0x3d264a1d	0.040598024
187	0xbda23297	-0.079198055
188	0xbed41366	-0.4142105
189	0x3e08f341	0.13374044
190	0xbd7c3b00	-0.061579704
191	0xc00672ba	-2.1007524
192	0x3e76d3fe	0.24104306
193	0xbebfadbd	-0.3743724
194	0x3d95c907	0.073137335
195	0x3edfc63e	0.43705934
196	0x3e864b3b	0.2622927
197	0x3dc5ea8a	0.096638754
198	0x3e879463	0.26480398
199	0xbe857edf	-0.26073357
200	0x3eb87452	0.36026245
201	0xbda96bad	-0.08272491
202	0xbd88aedd	-0.066739775
203	0x3e3a93e5	0.1822048
204	0xbf28b5d4	-0.6590245
205	0x3eb2d6e7	0.34929582
206	0xbe44ba50	-0.19211698
207	0x3ea562f1	0.3230205
208	0x3ebde00c	0.37084997
209	0x3ea14e29	0.31504944
210	0x3e032f33	0.12810974
211	0xbefe3264	-0.4964782
212	0x3e7b2496	0.24525675
213	0xbe65b218	-0.22431219
214	0x3db8607f	0.0900278
215	0x3e893d61	0.2680464
216	0xbe4702f5	-0.19434722
217	0x3de051d5	0.10953108
218	0xbe846fdd	-0.25866595
219	0xbed501f8	-0.41603065
220	0x3e89cb81	0.26913074
221	0x3e29302d	0.16522284
222	0xbda8d149	-0.08243043
223	0x3e65a8ef	0.22427724
224	0x3e8364b2	0.25662762
225	0x3e073d8b	0.1320707
226	0x3d99ce87	0.07510095
227	0x3e9073c5	0.28213325
228	0x3e6cccaf	0.23124956
229	0x3ede6d34	0.4344269
230	0xbf731113	-0.9494793
231	0xbf0507b5	-0.51964885
232	0x3ecf7c40	0.40524483
233	0x3ec3e321	0.38259223
234	0x3e191e15	0.14952882
235	0xbf99f5c2	-1.2028124
236	0x3eac2b70	0.3362689
237	0x3ed0cf4a	0.4078315
238	0xbefd5bdb	-0.49484143
239	0x3ee913d2	0.45522934
240	0x3e291649	0.16512407
241	0x3e91065f	0.28325173
242	0xbeb121e1	-0.3459616
243	0x3e2fb009	0.17156996
244	0x3e7397db	0.23788397
245	0x3ec69ab7	0.38789913
246	0x3e803d23	0.25046644
247	0x3ea0f426	0.3143627
248	0x3e12b0a3	0.14325194
249	0x3ea9cac3	0.33162507
250	0x3e30bb57	0.17258964
251	0x3e4c5f2c	0.1995818
252	0x3e4a3294	0.19745857
253	0x3ea43864	0.32074273
254	0x3e7d660d	0.2474596
255	0xbf655d88	-0.8959584

l2.bias f4 [119]
0	0xbf4ba775	-0.79552394
1	0x3ee4a620	0.44657993
2	0x3f2f4447	0.6846356
3	0x3f08c351	0.5342303
4	0x3f1c1887	0.60974926
5	0x3dcfa80c	0.10139474
6	0xbf848be7	-1.0355195
7	0x3f88c9e1	1.0686609
8	0x3eeb0aef	0.4590678
9	0x3ebab300	0.3646469
10	0xbe52ae45	-0.20574291
11	0xbd2faa73	-0.042887162
12	0x3e072ce9	0.13200726
13	0x3ee9cddb	0.45664868
14	0xbe875ff3	-0.2644039
15	0x3f98d2da	1.1939347
16	0x3eae5ee1	0.34056762
17	0x3f02738e	0.5095757
18	0xbe83ab36	-0.2571656
19	0xbf4f1393	-0.8088924
20	0xbe7652ac	-0.24054974
21	0xbf5fa2d1	-0.87357813
22	0xbf58a70e	-0.84629905
23	0xbda31a06	-0.07963948
24	0xbf60f72c	-0.87877154
25	0x3f80ac50	1.0052586
26	0xbe3bb995	-0.18332513
27	0x3c8ab630	0.016932577
28	0x3f0f5765	0.5599273
29	0xbda82232	-0.08209647
30	0x3e664d6c	0.22490472
31	0xbf9f2999	-1.243457
32	0x3e8056c6	0.25066203
33	0xbebc3f80	-0.36767197
34	0x3f4428fd	0.76625043
35	0x3ecc9a12	0.39961296
36	0x3ee81c51	0.45334104
37	0x3ea29b7a	0.31759244
38	0xbf3e388c	-0.74305034
39	0xbd9dc9cc	-0.07704505
40	0xbf47a1ce	-0.7798127
41	0x3f3ca1c5	0.7368434
42	0xbe1cd8fd	-0.1531715
43	0xbee13fed	-0.43994084
44	0xbf4a038b	-0.78911656
45	0xbe5ba73b	-0.21450512
46	0xbf4700f9	-0.7773586
47	0xbf51785a	-0.81824267
48	0x3eae12f1	0.33998826
49	0x3f4571cf	0.77126783
50	0xbf055b71	-0.52092654
51	0xbf1b020e	-0.6055001
52	0x3ea365c8	0.3191359
53	0x3f8576e7	1.0426911
54	0xbf1af2ba	-0.6052662
55	0x3e9b438c	0.30324972
56	0xbf03f89e	-0.51551235
57	0x3f126156	0.5717977
58	0xbd80d9ac	-0.062915176
59	0xbe4477ce	-0.19186327
60	0x3f920d48	1.1410303
61	0x3f91a093	1.1377128
62	0xbf4b2d1a	-0.79365695
63	0x3f42a471	0.7603217
64	0xbe3bc804	-0.18338019
65	0xbf1ae8cf	-0.6051149
66	0x3f6f7bf9	0.9354854
67	0x3ec1178b	0.37713274
68	0x3eca27f7	0.39483616
69	0xbf86969d	-1.0514714
70	0x3e88cd13	0.2671896
71	0xbf3eea3d	-0.7457617
72	0x3fa08126	1.2539413
73	0x3f0a5206	0.5403141
74	0xbe4f396e	-0.20236751
75	0x3e96f917	0.29486915
76	0xbf268930	-0.6505308
77	0x3ef01b95	0.46896043
78	0xbc42ff8f	-0.01190175
79	0x3ea8e489	0.32986858
80	0x3ec2ee16	0.3807227
81	0x3dfed6a0	0.1244328
82	0xbf0ce9f2	-0.5504447
83	0x3e9e1997	0.30878899
84	0x3ef11636	0.47087258
85	0x3f311cd0	0.6918459
86	0x3f3e2966	0.7428192
87	0xbd61fb8d	-0.05517154
88	0xbf751bbe	-0.95745456
89	0x3f4602cd	0.77348024
90	0xbdffb616	-0.12485902
91	0xbf9c5bd6	-1.2215526
92	0x3f580281	0.8437882
93	0x3e835a26	0.25654715
94	0xbf930e9f	-1.1488837
95	0xbdeea700	-0.116529465
96	0x3ee8bfc2	0.454588
97	0xbe8e3b5e	-0.2777967
98	0xbe6732cd	-0.22577973
99	0x3f21c03f	0.6318397
100	0xbe90138a	-0.28139907
101	0x3fa6c59d	1.3029057
102	0x3eee2762	0.46514422
103	0xbf8076e5	-1.0036284
104	0xbd95fab5	-0.07323209
105	0x3e8103df	0.25198266
106	0xbf7079ff	-0.9393615
107	0xbf973a85	-1.1814734
108	0x3efd32a4	0.49452698
109	0x3ee18909	0.44049862
110	0x3d4aa5a0	0.04947436
111	0x3eb5019e	0.35352796
112	0xbdeb42ce	-0.11487351
113	0x3f260a88	0.6485982
114	0xbe9cc15a	-0.30616266
115	0x3faf30ca	1.3686764
116	0x3eb5d9c5	0.35517707
117	0x3e89b9a6	0.2689945
118	0x3e2c3ea8	0.16820776

l3.weight f4 [9, 119]
0	0xbd44d098	-0.048050493
1	0xbd641a4a	-0.055689134
2	0x3cb37a51	0.021908911
3	0x3d7b2d97	0.061322775
4	0x3e79a671	0.24379899
5	0xbb1bae95	-0.0023755182
6	0x3e4dcf56	0.20098624
7	0x3d9711d9	0.07376451
8	0x3db82bb3	0.0899271
9	0xbd4384b2	-0.04773397
10	0x3bf2e96c	0.00741308
11	0x3cd662d2	0.026170168
12	0xbe00d52d	-0.1258132
13	0xbc68728c	-0.014187466
14	0xbdb5a418	-0.08869189
15	0x3d23ac92	0.039959498
16	0xb9820a74	-0.0002480332
17	0xbd99cf54	-0.07510248
18	0x3e67dc27	0.22642575
19	0x37180dc0	9.063107e-06
20	0x3c9dbdff	0.019255636
21	0x3bd0d63a	0.006373194
22	0xbde6726a	-0.112522915
23	0x3b12c1fb	0.0022393453
24	0x3b756e0b	0.0037449624
25	0xbd3197f8	-0.04335782
26	0x3d9d511e	0.076814875
27	0xbcb8dd1a	-0.022566367
28	0xbd8b912d	-0.068147995
29	0xbbb868ac	-0.0056277122
30	0x3c80a6e8	0.015704587
31	0xbba06c7a	-0.004895744
32	0x3e02084f	0.12698482
33	0x3d1cc2ba	0.038271643
34	0x3d4b00a6	0.049561165
35	0x3abe1dc1	0.0014504717
36	0x3d52dc55	0.051479656
37	0x3e2c4b2f	0.16825555
38	0xbbafd809	-0.0053663296
39	0xbbb688be	-0.0055705
40	0xbeb1b574	-0.3470875
41	0x3cc0376d	0.02346393
42	0x3af5c8f5	0.0018751906
43	0x3e460594	0.19338065
44	0xbd8647fa	-0.06556697
45	0x3d280c09	0.041027103
46	0xbdb97299	-0.09055061
47	0x3dcca03c	0.099915
48	0x3e18dde1	0.1492839
49	0x3cf001aa	0.029297668
50	0x3c694331	0.014237211
51	0x3d53498c	0.05158381
52	0xbd8df126	-0.06930761
53	0x3d2bdb61	0.041957263
54	0x3e37bcb7	0.17943083
55	0xbcdca98a	-0.026936311
56	0x3e75db57	0.24009453
57	0x3d201ef2	0.03909201
58	0xbd06d1a8	-0.032914788
59	0x3c9de34d	0.019273425
60	0x3d62a7f0	0.05533594
61	0xbe829d90	-0.25510836
62	0x3c43bfc9	0.011947581
63	0xbc90ce06	-0.017676365
64	0xbd4bdc2e	-0.049770527
65	0x3d9ea7f1	0.07746876
66	0x3d7f8949	0.062386785
67	0xbdc7857d	-0.09742258
68	0x3d324d77	0.043530907
69	0x3d648df6	0.055799447
70	0xbc41a98b	-0.011820207
71	0x3e52e2b9	0.205943
72	0x3d830da6	0.063990876
73	0xbe283c48	-0.16429245
74	0x3ad29e95	0.001606899
75	0x3ccb4cf5	0.02481697
76	0xbca85908	-0.020550266
77	0xbca95a05	-0.020672807
78	0xbbaa3774	-0.005194599
79	0xbca6ff84	-0.020385511
80	0xbc3fb16c	-0.0117000155
81	0x3d0dddee	0.034635477
82	0xbd60ae9e	-0.054854028
83	0x3d690cdf	0.05689704
84	0xbd136e51	-0.035993878
85	0x3e2e27e3	0.17007403
86	0x3b96ed2a	0.004605909
87	0xbd01084e	-0.03150206
88	0xbd8e7422	-0.06955744
89	0x3c1e26be	0.009652792
90	0x3e61e819	0.22061194
91	0xbdece9ce	-0.11568032
92	0x3e1abcf0	0.15111136
93	0x3a8cfc8e	0.001075642
94	0x3bb5f15c	0.005552454
95	0x3da35360	0.07974887
96	0xbbcb3e68	-0.0062025078
97	0xbdcc655f	-0.099802725
98	0xbe0aa2f9	-0.13538732
99	0xbdcf3f25	-0.10119466
100	0xbe072816	-0.13198885
101	0x3ccd50f6	0.02506302
102	0x3e1406be	0.14455697
103	0x3be1eaa4	0.0068944264
104	0x3c90aeda	0.0176615
105	0xbcad88af	-0.02118334
106	0x3c0c9972	0.008581506
107	0xbd8166ee	-0.063184604
108	0xbd9c89dd	-0.07643483
109	0xbc355054	-0.011066515
110	0x3d231f2f	0.03982466
111	0xbde4d3f6	-0.11173241
112	0xbe338cb3	-0.17534141
113	0x3dd208bc	0.10255572
114	0xbbabb701	-0.0052403216
115	0x3d9729ee	0.07381044
116	0xbdb879dc	-0.09007618
117	0x3dbad272	0.091221705
118	0x3d6b5d31	0.05746192
119	0x3c5e6642	0.013574185
120	0xbd11857a	-0.035527684
121	0x3d8508bc	0.064958066
122	0x3d14b23f	0.0363028
123	0x3e4367f2	0.1908262
124	0x3da904c4	0.08252862
125	0x3e6264f0	0.22108817
126	0x3d918e57	0.07107227
127	0xbdd29c90	-0.10283768
128	0xbd2121da	-0.039338924
129	0xbdc54daf	-0.096339576
130	0x3d222c62	0.039593108
131	0xbd96113b	-0.07327505
132	0xbd0e62c7	-0.03476217
133	0xbabbadd2	-0.001431877
134	0x3d2ece49	0.042677198
135	0x3d358195	0.044313032
136	0xbb2eeccf	-0.0026691442
137	0xbcb38a65	-0.021916578
138	0x3cb37884	0.021908052
139	0x3d1b5ede	0.03793227
140	0x3d8fa3b6	0.07013647
141	0xbd4e9481	-0.050434593
142	0x3cc66b77	0.024221165
143	0x3d30139d	0.042987455
144	0xbdddb200	-0.108249664
145	0x3dedc160	0.11609149
146	0x3d47bbb3	0.04876299
147	0xbcc62e4c	-0.024191998
148	0x3d95175b	0.07279845
149	0xbe0815e8	-0.13289607
150	0xbca515a8	-0.020151928
151	0xbc889f0e	-0.016677406
152	0x3cd11376	0.025521975
153	0x3d37a166	0.044831656
154	0xbce9b1a9	-0.028527098
155	0x3d970573	0.07374086
156	0x3e4f62e5	0.20252569
157	0xbd99c33e	-0.075079426
158	0x3c9c3fcd	0.019073391
159	0xbecb3f8f	-0.3969693
160	0xbabcb4b3	-0.0014397114
161	0x3d2076e0	0.039175868
162	0x3e5c525d	0.21515794
163	0xbd145d5b	-0.036221843
164	0x3e5c5eb5	0.21520503
165	0xbcd3c8ae	-0.025852527
166	0xbdc4595e	-0.09587358
167	0x3dc9cb04	0.09853175
168	0xbc9d91cc	-0.01923456
169	0xbc49e0ff	-0.01232171
170	0xbd57daf9	-0.052699063
171	0xbccf7b35	-0.025327304
172	0x3cf8c1ad	0.03036579
173	0x3e2c7582	0.168417
174	0xbde08656	-0.109631225
175	0x3e83cf72	0.25744206
176	0xbd409436	-0.047016345
177	0x3d260880	0.04053545
178	0xbbfdfc15	-0.007750998
179	0x3d1e7fca	0.038696088
180	0xbe1db146	-0.15399656
181	0x3d6826a6	0.056677483
182	0x3d2b23f4	0.041782334
183	0xbd4e5d95	-0.050382216
184	0x3e6d469e	0.2317147
185	0x3d828b51	0.06374229
186	0x3bb14f97	0.005411099
187	0x3dd9d7c2	0.10636856
188	0xbccfc07d	-0.02536034
189	0x3c5a8110	0.013336435
190	0x3e4d369e	0.20040366
191	0x3e2159d1	0.15756918
192	0xbdb2deee	-0.08733927
193	0x3db86789	0.09004123
194	0xbb86bea3	-0.004112081
195	0xbc491cee	-0.012274964
196	0x3c8c3e96	0.017119687
197	0x3d7429c0	0.05961013
198	0xbba26c57	-0.004956763
199	0x3ea7ba76	0.32759446
200	0x3d9ecf5a	0.07754393
201	0xbd890932	-0.06691207
202	0x3d130412	0.035892554
203	0xbc9ab7ee	-0.018886533
204	0x3e31efff	0.17376707
205	0xbd53db8b	-0.051723044
206	0xbd9a2344	-0.07526258
207	0xbdbae7e5	-0.091262616
208	0xbb4aedad	-0.003096442
209	0x3e4c51fc	0.1995315
210	0x3d9b9f58	0.07598752
211	0x3dfebb22	0.124380365
212	0x3e25093a	0.16116801
213	0x3df7d6c1	0.12101508
214	0xbcb4984a	-0.022045273
215	0xbc8a5b42	-0.016889218
216	0x3d9f6fd2	0.07785
217	0x3ac11308	0.0014730403
218	0xbe040d68	-0.12895739
219	0xbe080774	-0.13284093
220	0xbbd60c58	-0.006532233
221	0x3e1343bf	0.14381312
222	0xbd681cd3	-0.056668114
223	0xbdb0567a	-0.08610244
224	0x3d002ccb	0.031292718
225	0x3c56151a	0.013066554
226	0xbe2b3cb1	-0.1672237
227	0xbd99c25d	-0.07507775
228	0xbd8c4ada	-0.06850214
229	0x3d969bca	0.07353933
230	0xbe3d0043	-0.18457131
231	0x3e2d5a8d	0.16929074
232	0xbd71a8f1	-0.058999006
233	0xbcad1808	-0.021129623
234	0x3d6430d6	0.055710636
235	0x3d9ff4fa	0.078103974
236	0xbd292456	-0.04129442
237	0xbc9b7844	-0.018978246
238	0x3ca08b54	0.019597687
239	0xbd8b3cd3	-0.06798711
240	0xbd804686	-0.06263451
241	0x3db17efe	0.086668
242	0x3e66a7b4	0.22524911
243	0xbd4526d3	-0.04813273
244	0x3e67dc2d	0.22642584
245	0x3de1ef83	0.11032011
246	0xbd33297b	-0.04374073
247	0x3d96d7ce	0.0736538
248	0x3c417abc	0.011809047
249	0x3e08edcb	0.13371961
250	0xbd7c09d3	-0.061532807
251	0x3da5f29e	0.08102916
252	0x3d1180da	0.035523273
253	0x3d2a951d	0.04164611
254	0x3ce3da42	0.027814034
255	0xbd78cc7d	-0.06074189

l3.bias f4 [9]
0	0x3ed7d0a5	0.4215137
1	0x3dfe64b7	0.124215536
2	0xbf19331d	-0.5984362
3	0x3eecbc85	0.4623758
4	0x3e3b326a	0.1828095
5	0xbf20738b	-0.62676305
6	0x3fa6816f	1.300825
7	0xbe5ef2b5	-0.21772273
8	0x3d9183c3	0.0710521

l4.weight f4 [53, 9]
0	0x3eb01cb9	0.34396914
1	0xbea1d2ef	-0.31606242
2	0xbcb5b4c2	-0.022180919
3	0x3f5419c2	0.82851803
4	0xbef17c6c	-0.4716524
5	0x3e0b6844	0.13613993
6	0xbd459ea7	-0.048247006
7	0x3e6378f4	0.22214109
8	0x3ea0032f	0.3125243
9	0x3e30c521	0.17262699
10	0x3e81ccad	0.25351468
11	0xbec1239e	-0.37722486
12	0x3e4900f0	0.19629264
13	0x3f0485ce	0.5176667
14	0xbe443b7f	-0.19163321
15	0x3ea6cd00	0.32578278
16	0x3eb021b5	0.34400716
17	0x3f3f99c5	0.7484401
18	0xbeb76846	-0.35821742
19	0x3dd5b93c	0.10435721
20	0x3e8f5c7a	0.28000242
21	0x3e9c3e51	0.30516294
22	0x3eb25359	0.34829214
23	0xbf0537a5	-0.5203803
24	0x3e34cf28	0.17657149
25	0x3e628dc3	0.2212439
26	0x3f2577e0	0.6463604
27	0x3edd94bf	0.43277547
28	0xbe632ae0	-0.22184324
29	0xbe3895a7	-0.18025838
30	0x3ea76b53	0.3269907
31	0xbe6271b9	-0.22113694
32	0xbdaf7a1c	-0.085682124
33	0x3f18ef97	0.59740585
34	0x3f06a457	0.5259451
35	0x3f80726d	1.003492
36	0xbef22d56	-0.47300214
37	0x3ee86584	0.4538995
38	0x3daffd44	0.085932285
39	0xbdca7680	-0.09885883
40	0x3f3c9e93	0.73679465
41	0xbd2f1031	-0.04274005
42	0xbdc7570f	-0.09733402
43	0x3f331e3c	0.6996801
44	0x3edb36e6	0.42815322
45	0xbd9e61f3	-0.07733526
46	0x3e588699	0.21145095
47	0xbe240b80	-0.16020012
48	0xbf16d60f	-0.5892038
49	0x3e7187e5	0.23586996
50	0x3e25eeb5	0.16204341
51	0xbf6cfdd5	-0.92574817
52	0x3ed6d9e5	0.41963115
53	0x3f4b09d9	0.793119
54	0x3e080dc5	0.13286503
55	0xbed5b406	-0.4173891
56	0x3eb4d526	0.3531887
57	0xbe28ae8c	-0.16472834
58	0x3ec2b0c1	0.38025478
59	0x3f2fc5c5	0.6866115
60	0x3e1463ff	0.1449127
61	0x3f05d788	0.52282
62	0x3f8833d7	1.064082
63	0x3d761db5	0.060086925
64	0xbedd5a2d	-0.4323286
65	0x3ec86115	0.39136568
66	0xbf225b5a	-0.6342064
67	0xbdb69b63	-0.089163564
68	0x3f213440	0.6297035
69	0x3ca56508	0.020189777
70	0x3ef067e3	0.4695426
71	0x3fb29181	1.3950654
72	0x3ebf0d8c	0.37315023
73	0xbe9893fa	-0.29800397
74	0xbd1e367d	-0.038626183
75	0x3f1d1d4d	0.61372834
76	0xbf01ffc3	-0.50780886
77	0xbe12f0e2	-0.14349702
78	0x3ea420b9	0.32056215
79	0x3e0cdabf	0.1375532
80	0x3ecdbdfc	0.4018401
81	0x3ed97eaf	0.42479464
82	0x3dc8f1e9	0.09811766
83	0xbef44d6b	-0.47715315
84	0x3f2823f3	0.65679854
85	0xbe4751dc	-0.1946482
86	0xbf022b36	-0.50847185
87	0xbd8b9c6c	-0.068169445
88	0x3ed8d0e8	0.42346883
89	0x3f9c7201	1.2222291
90	0xbeacede4	-0.33775246
91	0x3dc11f28	0.09429771
92	0x3ea09064	0.3136016
93	0xbebc72e8	-0.36806417
94	0x3f3b1510	0.73079014
95	0xbecacbc4	-0.39608586
96	0xbfddbf70	-1.7324047
97	0x3f355d91	0.70845896
98	0x3fd69e80	1.676712
99	0xbeb2bf22	-0.34911448
100	0x3e425ef7	0.18981539
101	0x3e3808d8	0.17972124
102	0xbd39cebf	-0.045363184
103	0x3ec456b0	0.38347387
104	0xbe7ae61a	-0.2450184
105	0xbdde0dfc	-0.10842511
106	0x3ef9d05c	0.48791778
107	0x4006043a	2.094008
108	0xbdfde2d7	-0.12396782
109	0x3e992382	0.29909903
110	0xbe1b4794	-0.15164024
111	0x3ebd8589	0.37015942
112	0xbf01a733	-0.5064575
113	0x3dfc4995	0.12318722
114	0x3ea0b09c	0.31384742
115	0x3fa8c6d8	1.3185682
116	0x3f9e8365	1.2383848
117	0x3ed29ffd	0.41137686
118	0x3d8b8545	0.068125285
119	0xbee32361	-0.4436293
120	0x3ea8416c	0.32862413
121	0xbd405b0e	-0.046961837
122	0xbe1d46bb	-0.15359013
123	0xbf239554	-0.6389973
124	0x3f83960e	1.0280168
125	0x3fcd5385	1.6041113
126	0xbe903251	-0.28163388
127	0x3e7694c6	0.2408019
128	0x3da836f4	0.082136065
129	0xbeae280d	-0.3401493
130	0x3efd10e7	0.49426958
131	0xbeb525b4	-0.35380328
132	0xbe3dd103	-0.18536763
133	0x3ec4fff7	0.38476536
134	0x3f3f2ef3	0.74681014
135	0xbc956a18	-0.018239066
136	0x3d43a357	0.047763195
137	0xbb18c5b9	-0.0023311211
138	0xbf25ed1c	-0.64814925
139	0x3f6f2a8a	0.93424284
140	0xbe062911	-0.13101603
141	0x3d0bb401	0.034107212
142	0xbff4c512	-1.9122641
143	0x3db471c1	0.08810759
144	0xbeb0aca1	-0.34506705
145	0x3e2a6bf3	0.16642742
146	0x3e41fe38	0.18944633
147	0x3e97e694	0.29668105
148	0x3e46eb65	0.19425733
149	0xbf1d15e3	-0.6136152
150	0xc061d8f9	-3.528868
151	0xc0015ae0	-2.0211716
152	0x3fb7aca8	1.4349566
153	0x3e57b1bb	0.21063893
154	0x3d3166c0	0.04331088
155	0xbe7b227d	-0.24524875
156	0xbe7ca644	-0.246728
157	0x3d03d1e2	0.03218258
158	0x3ee25d83	0.4421197
159	0x3f19d515	0.6009076
160	0x3d6caaf4	0.05778022
161	0x3ec8fd9a	0.39255983
162	0x3e835355	0.25649515
163	0x3dbcace5	0.092126645
164	0xbeab67d5	-0.33477655
165	0x3e4ad0b6	0.1980618
166	0x3f012adc	0.50456023
167	0xbdc2d1ca	-0.0951267
168	0xbdf46c50	-0.119347215
169	0x3f3b0879	0.73059803
170	0x3f30a817	0.69006485
171	0xbe432ce0	-0.19060087
172	0x3f4ac2d4	0.79203534
173	0xbfb59b7b	-1.4188074
174	0x3ecf8a0f	0.40535018
175	0x3f430f87	0.7619557
176	0xbf245566	-0.6419281
177	0xbdabc1d7	-0.083865814
178	0x3e35766b	0.17720954
179	0x3f9928c2	1.1965563
180	0xbea0102c	-0.31262338
181	0xbd5fa12a	-0.054597057
182	0x3eda3031	0.42614892
183	0xbe328313	-0.17432813
184	0x3edd4db4	0.43223345
185	0xbd526fe1	-0.051376227
186	0xbe62336e	-0.22089931
187	0x3d3c9880	0.046043873
188	0x3fbc1f78	1.4697104
189	0xbdcc0d6f	-0.099635
190	0xbe193286	-0.1496068
191	0x3ec6ef23	0.38854322
192	0xbf13b73e	-0.5770148
193	0xbd900483	-0.070321105
194	0xbe9f9cff	-0.31174466
195	0x3e820067	0.25390932
196	0xbf818948	-1.012002
197	0x3f166657	0.5874991
198	0x3e88b144	0.26697743
199	0xbe1d52a7	-0.1536356
200	0xbe23188e	-0.15927336
201	0x3f420516	0.7578901
202	0xbe0af88f	-0.1357138
203	0xbf013f2f	-0.50487036
204	0xbd89c103	-0.06726267
205	0x3e79982d	0.24374457
206	0x3ef742ec	0.48293245
207	0xbda71b17	-0.08159464
208	0x3ed36989	0.41291454
209	0xbe8bef9b	-0.27331242
210	0x3ec2baab	0.3803304
211	0x3f402e65	0.7507079
212	0xbf325df9	-0.6967464
213	0x3ea1828e	0.31544918
214	0x3efbec62	0.49203783
215	0x3f7c0b51	0.9845477
216	0x3c4e8d37	0.01260691
217	0xbeacebc3	-0.33773622
218	0x3eccb70d	0.39983407
219	0xbf38bd98	-0.721643
220	0xbc97c375	-0.018525818
221	0x3f2ccb2c	0.67497516
222	0xbd81c9e7	-0.06337338
223	0x3ec2f8e4	0.38080513
224	0x3f81ed53	1.0150551
225	0x3ce00ecf	0.027350811
226	0x3ecd6ccd	0.4012207
227	0xbe9bd970	-0.3043933
228	0x3ec13340	0.37734413
229	0x3ea6cfa5	0.32580295
230	0xbf0ed8cc	-0.55799556
231	0xbf5c1f72	-0.8598548
232	0xbeffc3e3	-0.49954137
233	0x3f76541a	0.9622208
234	0xbd160875	-0.03662916
235	0xbe94bdfe	-0.29051203
236	0x3e540e91	0.20708682
237	0xbed67926	-0.41889304
238	0x3bb92499	0.0056501147
239	0x3e97d8a7	0.2965748
240	0xbdada88d	-0.08479414
241	0x3f020b6d	0.50798684
242	0x3f90aa86	1.130204
243	0x3e57df88	0.21081364
244	0xbe2390c6	-0.15973195
245	0xbd3c344f	-0.045948323
246	0xbf0c45e4	-0.54794145
247	0x3ed86642	0.42265517
248	0x3caf4f7d	0.021400208
249	0xc0376ef2	-2.8661466
250	0xbfb3594b	-1.4011625
251	0x3f77764a	0.9666487
252	0xbe4cbaea	-0.19993177
253	0xbe85dead	-0.2614645
254	0x3f0a13f0	0.5393667
255	0xbea5662d	-0.32304516

l4.bias f4 [53]
0	0x405499e5	3.321893
1	0x4080c204	4.0236835
2	0x402b4076	2.6758094
3	0x40670a21	3.6099932
4	0x403453d6	2.817617
5	0x407aaf03	3.9169319
6	0x40567652	3.3509717
7	0x4045e15e	3.0918803
8	0x4037ce7c	2.8719778
9	0x40494a07	3.1451433
10	0x403c0440	2.9377594
11	0x404449d7	3.0670068
12	0x3e96a8ab	0.29425558
13	0x3e7c4b78	0.24638164
14	0x4086a728	4.207905
15	0x40a61c72	5.1909723
16	0x405cab9f	3.447975
17	0x408c720f	4.388923
18	0x4088462f	4.2585673
19	0x3dde66c0	0.10859442
20	0x40334538	2.8010998
21	0x402e8604	2.7269297
22	0x408c7f26	4.390521
23	0x4077b04e	3.8701358
24	0x407659e2	3.849236
25	0x403f828a	2.9923425
26	0x406ebef7	3.7304056
27	0x40972ae5	4.723986
28	0x4004e41c	2.0764227
29	0x3fc1823a	1.5117867
30	0x406579bf	3.5855558
31	0x401d0271	2.453274
32	0xbf207eb9	-0.62693363
33	0x407347b7	3.8012521
34	0x4084ed4d	4.1539674
35	0xc0015935	-2.0210698
36	0x38ff912e	0.00012186389
37	0x3fa80852	1.3127539
38	0x40510bda	3.2663484
39	0x406862be	3.6310267
40	0x407e12b1	3.9698908
41	0x408a1054	4.314493
42	0xc01a499d	-2.410743
43	0xc01f053e	-2.484695
44	0x40696580	3.64682
45	0x408531ac	4.1623135
46	0x407758d9	3.8647978
47	0xbfe4c25f	-1.7871817
48	0x3fc42dbf	1.5326461
49	0x403202e7	2.7814271
50	0x405d6e33	3.459851
51	0xbbfee5d1	-0.007778861
52	0x40889269	4.2678723

l5.weight f4 [85, 53]
0	0x3f0cabbd	0.5494955
1	0x3e305467	0.17219697
2	0xbecbfbe5	-0.39840618
3	0x3e95c4a3	0.29251584
4	0xbf743a7f	-0.9540176
5	0x3ec6b0b3	0.38806686
6	0xbd93b892	-0.07212938
7	0xbcf1aacf	-0.029500393
8	0x3f03e1d1	0.51516443
9	0x3ef1fc7a	0.47262937
10	0xbde62215	-0.112369694
11	0xbe6e3f08	-0.23266232
12	0xbe9eebd6	-0.31039304
13	0x3e0ab6a5	0.13546236
14	0xbec331ea	-0.3812402
15	0x3e3c4214	0.18384582
16	0x3eda4066	0.42627257
17	0x3e3d42eb	0.18482558
18	0x3dc764eb	0.097360454
19	0x3f2d4880	0.6768875
20	0xbdc7fbc7	-0.097648196
21	0x3de78e35	0.11306421
22	0x3ee8e864	0.454898
23	0xbc2cda20	-0.010550052
24	0xbe49eeb5	-0.19719966
25	0x3d3b3d0f	0.045712527
26	0xbe67b54b	-0.22627752
27	0x3f1bf4f4	0.60920644
28	0xbee0388f	-0.4379315
29	0x3e620860	0.22073507
30	0x3d9a0e0c	0.075222105
31	0x3ec99019	0.3936775
32	0xbee705ca	-0.45121604
33	0x3c555fe1	0.013023348
34	0x3e58904d	0.21148796
35	0xbe167838	-0.14694297
36	0xbe5d2b06	-0.21598443
37	0x3d056ce1	0.03257454
38	0x3eb04367	0.34426424
39	0x3dcf23fc	0.10114285
40	0xbd187425	-0.03722014
41	0x3f0a641b	0.54059
42	0x3d0b4cc4	0.034008756
43	0x3ee64755	0.44976297
44	0xbf08843c	-0.53326774
45	0x3da3c8da	0.07997294
46	0x3e3449cb	0.17606275
47	0x3f11f092	0.57007706
48	0x3d2ff3b3	0.04295702
49	0x3d8e0691	0.06934846
50	0x3e97c45c	0.29641998
51	0x3f324f22	0.69652
52	0xbbd1dc8f	-0.0064044665
53	0x3e85b922	0.26117808
54	0x3f813394	1.0093865
55	0xbd929803	-0.071579
56	0x3f246398	0.6421447
57	0xbbb788ce	-0.005601025
58	0x3e84ac1f	0.25912568
59	0xbe4065b8	-0.18788803
60	0xbe2e28ef	-0.17007802
61	0x3e8510a0	0.25989246
62	0x3f841989	1.0320293
63	0xbde07d82	-0.10961439
64	0x3dcb0623	0.0991328
65	0xbf707273	-0.93924636
66	0x3e733b4a	0.23753086
67	0x3e0252c6	0.12726888
68	0x3ecddcc3	0.4020749
69	0x3f00ea02	0.5035707
70	0x3e154a43	0.1457911
71	0x3f205048	0.626225
72	0xbef11c1b	-0.47091755
73	0xbdd9e28e	-0.10638915
74	0xbd733667	-0.059378054
75	0x3e5a93dc	0.21345466
76	0x3f614943	0.88002414
77	0xbe46617f	-0.1937313
78	0x3f220681	0.63291174
79	0x3ee4bdac	0.44675958
80	0x3f8119de	1.0086019
81	0xbe61644f	-0.22010921
82	0x3e10050c	0.14064425
83	0x3f37a46b	0.71735257
84	0xbd85d316	-0.06534402
85	0xbf5dd7b0	-0.8665724
86	0x3eb20be8	0.3477471
87	0x3f1e041d	0.61725026
88	0xbe3c0762	-0.18362191
89	0xbf36b26a	-0.7136599
90	0x3da82529	0.08210213
91	0x3eec0615	0.4609839
92	0x3da8067b	0.08204361
93	0x3fa2f56b	1.2731146
94	0x3f3ba738	0.7330203
95	0xbf2915aa	-0.6604868
96	0xbf7f3c58	-0.9970145
97	0x3beae1b8	0.007168021
98	0x3ee876eb	0.45403227
99	0x3e75e0b7	0.24011503
100	0xbef4eb0e	-0.47835582
101	0x3d4f8319	0.050662134
102	0x3d999539	0.07499165
103	0x3f2f8a17	0.68570083
104	0xbe4e6ac1	-0.20157911
105	0x3ef29d9e	0.47385877
106	0x3e56d712	0.2098048
107	0x3f834d32	1.0257933
108	0xbc741370	-0.014897212
109	0x3f2b6ee3	0.66966075
110	0xbdbbca15	-0.091694035
111	0x3f080696	0.5313505
112	0xbe119733	-0.14217834
113	0xbe0d2900	-0.13785172
114	0x3e972bcc	0.29525602
115	0x3f5031b7	0.8132586
116	0x3dad8561	0.08472706
117	0x3ba4ec2d	0.005033037
118	0xbf7a1e9e	-0.9770297
119	0x3ea73313	0.32656154
120	0x3e70636c	0.23475426
121	0x3f2be0f2	0.67140114
122	0x3ee21b1f	0.44161317
123	0x3d924264	0.07141569
124	0x3f154aa6	0.5831703
125	0xbf42d167	-0.7610077
126	0xbe81671f	-0.25273988
127	0xbda686d5	-0.08131186
128	0x3e2dc6d0	0.16970372
129	0x3f4d3171	0.80153567
130	0xbd9d96d5	-0.076947846
131	0x3f10e95e	0.5660609
132	0x3f1947fc	0.59875464
133	0x3f85e1b3	1.0459503
134	0xbe21e73b	-0.15810864
135	0x3cf7b7c5	0.030238995
136	0x3f1c26bb	0.609966
137	0x3df75693	0.120770596
138	0xbf88aa8d	-1.0677048
139	0x3f1f0a45	0.62125045
140	0x3f10e995	0.5660642
141	0xbe19824e	-0.14991114
142	0xbf478a55	-0.7794545
143	0x3dc8e0c6	0.09808497
144	0x3f3dbaf7	0.7411341
145	0x3e1359b5	0.1438969
146	0x3fa66d92	1.3002188
147	0x3f30f7f6	0.6912836
148	0xbf441c51	-0.7660571
149	0xbf5e948e	-0.86945426
150	0xbe2007fd	-0.15628047
151	0x3f0e947b	0.55695313
152	0x3eacf510	0.33780718
153	0xbf34f8ab	-0.7069194
154	0xbd7c92cb	-0.06166343
155	0x3c8af060	0.016960323
156	0x3f264c45	0.6496013
157	0xbd314e1a	-0.043287374
158	0x3efc4b49	0.49276188
159	0x3d46d2ab	0.048540752
160	0x3f166978	0.5875468
161	0xbe470a3b	-0.19437496
162	0x3f698caf	0.9123029
163	0xbf037ce5	-0.5136245
164	0x3ea299e0	0.31758022
165	0x3eb8adda	0.36070138
166	0x3e33de61	0.175653
167	0x3e4e9aa6	0.20176181
168	0x3f2a87b5	0.6661332
169	0x3e020f9e	0.1270127
170	0xbe2af58a	-0.16695228
171	0xbf86ce25	-1.053166
172	0x3e4627fa	0.19351187
173	0x3c95a8d3	0.018268978
174	0x3f1b024c	0.6055038
175	0x3ddb486c	0.10707173
176	0x3daadc74	0.08342829
177	0x3ea71078	0.32629752
178	0xbf475ee8	-0.7787919
179	0xbe5c8b64	-0.21537548
180	0x3ddc78e2	0.10765244
181	0x3db0e74b	0.08637866
182	0x3f16505e	0.5871638
183	0x3e70722a	0.2348105
184	0x3e4b2c53	0.19841127
185	0x3f3de424	0.7417624
186	0x3f3f7591	0.7478877
187	0xbd23c346	-0.03998115
188	0x3db8568d	0.09000883
189	0x3ea871aa	0.3289922
190	0x3cdb47e7	0.026767684
191	0xbf5d8d8d	-0.86544114
192	0x3ee80fea	0.4532464
193	0x3f1a5071	0.60278994
194	0xbeb45d37	-0.35227367
195	0xbf441a01	-0.7660218
196	0xbd8694ad	-0.065713264
197	0x3e07ab03	0.1324883
198	0x3d9bcc66	0.07607345
199	0x3f158ca9	0.58417755
200	0x3f4562d1	0.77103907
201	0xbf461808	-0.7738042
202	0xbf2be79d	-0.6715029
203	0xbe227f44	-0.1586886
204	0x3f01e5a5	0.50741035
205	0x3e677f32	0.22607115
206	0xbecd8146	-0.4013769
207	0xbdd43964	-0.10362509
208	0x3e1bbcad	0.15208693
209	0x3f47482d	0.77844507
210	0x3d1b7e01	0.037961964
211	0x3eedc4af	0.4643912
212	0xbddce2f2	-0.10785474
213	0x3f245096	0.64185464
214	0xbe7360e2	-0.23767427
215	0x3f3f4894	0.7472012
216	0xbde78200	-0.113040924
217	0x3f1c3483	0.61017627
218	0x3f18dba9	0.59710175
219	0x3ecd0361	0.4004164
220	0x3e077006	0.13226327
221	0x3ec8c128	0.39209867
222	0x3dac2d4e	0.08407079
223	0x3e3df3f4	0.18550092
224	0xbf82d0db	-1.0219988
225	0xbd04b20e	-0.03239637
226	0x3dca74e7	0.098855786
227	0x3fa58dbf	1.2933882
228	0xbe9559dd	-0.29170123
229	0x3e201046	0.15631208
230	0x3f254bc6	0.64568746
231	0xbf7db7c7	-0.99108547
232	0x3e12910d	0.14313145
233	0x3d4b64ba	0.049656607
234	0xbd61de7c	-0.05514382
235	0x3ed46b5a	0.41488153
236	0x3f2e3b4f	0.6805925
237	0x3cf937e1	0.030422153
238	0x3f835902	1.0261538
239	0x3f610d33	0.87910765
240	0x3d01cbeb	0.031688612
241	0x3d9a6f8c	0.07540807
242	0x3ee8185f	0.45331094
243	0x3b64a3b8	0.0034887623
244	0xbf8b6491	-1.0890065
245	0x3f3d1638	0.7386203
246	0x3f4d82f1	0.80277926
247	0xbe010d7e	-0.12602803
248	0xbf79ce8d	-0.97580796
249	0xbe0400fb	-0.12890999
250	0x3d714df8	0.058912247
251	0x3d37a060	0.04483068
252	0x3f3a0a19	0.7267166
253	0x3f460e18	0.77365255
254	0xbf85d599	-1.045581
255	0xbf25b49d	-0.6472872

l5.bias f4 [85]
0	0x3f8508ff	1.039337
1	0x4051850e	3.273746
2	0x40723c29	3.784922
3	0x402b1bd9	2.6735747
4	0x406f4513	3.738591
5	0x40250e96	2.5790153
6	0x40236ea6	2.5536284
7	0x4083124b	4.095983
8	0xc091af0c	-4.552618
9	0x3f8bacaf	1.0912074
10	0x4050b9f0	3.2613487
11	0x3fee84fb	1.8634332
12	0x3d9f67b6	0.07783453
13	0x403c3e79	2.941313
14	0x406e653f	3.7249296
15	0xbf80dc32	-1.0067198
16	0x4012014c	2.2813292
17	0x4048f655	3.140035
18	0x405ed9cd	3.4820435
19	0x3f8f915d	1.1216236
20	0x4075dbe8	3.841547
21	0x3eabe725	0.33574787
22	0x40772448	3.8615894
23	0x40368425	2.8518155
24	0x405c9334	3.4464846
25	0x3ff8f014	1.9448266
26	0xc02f286b	-2.736842
27	0x40349609	2.8216574
28	0xbf4ac093	-0.79200095
29	0x3f91d330	1.1392574
30	0xc00e8e07	-2.2274187
31	0x4021cbdd	2.5280678
32	0x404ee473	3.2326934
33	0x405c887c	3.4458303
34	0x3fc3b89a	1.5290711
35	0xbffcbbc2	-1.9744799
36	0xc0d01e4b	-6.503698
37	0x401979e6	2.398065
38	0x3fe8e9e5	1.8196379
39	0x4082cbf9	4.087399
40	0x407516ec	3.829524
41	0x401aa696	2.4164176
42	0x404174c1	3.022751
43	0x4074ea9b	3.8268192
44	0xc086628d	-4.19953
45	0x406ed5b4	3.7317934
46	0x3f6f1725	0.9339469
47	0x404647dc	3.098136
48	0x4009ebfc	2.1550283
49	0x40687d3a	3.6326432
50	0x403485b0	2.8206596
51	0x406ee9de	3.7330241
52	0x40275ca9	2.6150305
53	0xc04738ef	-3.11285
54	0x4023e42d	2.5608017
55	0x3fe85f9c	1.8154178
56	0x405026c2	3.2523656
57	0x40070739	2.1098158
58	0x406ead3c	3.7293234
59	0x3fa5c15a	1.2949631
60	0x3fe5bda4	1.7948499
61	0x3f742fef	0.9538564
62	0x406fdff4	3.748044
63	0x3f579180	0.8420639
64	0x401a8dde	2.414909
65	0x4013e0ca	2.310595
66	0x40144ee6	2.3173156
67	0xc0162cac	-2.3464766
68	0x403ba4b5	2.931928
69	0xbe25325d	-0.16132493
70	0x3ffa49c1	1.9553758
71	0xbea6a194	-0.3254515
72	0x3dfc8e6d	0.12331853
73	0xbf91c965	-1.1389586
74	0x404744e1	3.113579
75	0x407f5a33	3.9898803
76	0x4023caa2	2.5592427
77	0x401ef74d	2.483844
78	0xbfacd6c1	-1.3503038
79	0x402bb7cb	2.6830928
80	0x401d1001	2.4541018
81	0x3fb44998	1.4084959
82	0x407650bb	3.8486774
83	0x40796bee	3.8972125
84	0x400ea7f5	2.2290013
