models/Others/model_PGNN_1_1e-3.pt (torch, 127233 bytes, 12 tensors)

l1.weight f4 [189, 9]
-0.0049566412 0.590248 0.77957904 0.4030422 -2.1736405 1.2024829 0.105067015 0.43098083
0.23789151 0.00017594539 1.3186361 -1.073489 -0.088107325 -0.5555635 -0.96149933 0.14633724
-0.7185976 0.22668463 -0.0052493024 -0.23429908 0.43492004 -0.3845983 -0.28346965 0.06273136
0.4341565 -1.4747226 -0.6175439 0.011943822 0.2683776 1.8467042 -0.69489205 0.12952723
0.9388972 -0.079750076 0.036720213 -0.20312858 0.016540457 0.70254755 0.47500518 0.43836144
0.2802758 -0.6901814 -1.035676 -1.062924 -0.62176836 0.031310968 -1.6064111 -0.009696028
-0.5645885 -0.118197 -0.45125395 0.37578446 0.4163001 -0.17950015 -0.0046808086 -0.9263786
-0.8497432 -0.053684365 -0.5912131 0.77646464 -0.035816796 -0.29339907 0.6105576 -0.0017482912
-0.7694051 -0.3110759 -0.065226674 -0.4423652 -1.0695053 -0.39508945 0.1293526 -0.004557593
0.006638703 -0.6348518 -0.9746088 -0.23377885 -0.42582294 -0.7323705 0.5664572 0.6590713
0.040199358 -0.0016414501 0.08081388 1.6984823 -0.80186206 1.3170431 0.76545 0.15461104
1.2575842 -0.3641636 0.004168678 -0.08309635 1.4620312 0.71635914 -0.66346353 -0.71855533
0.31783772 -0.13652922 -0.4009029 0.0015941442 0.5264483 -0.95827556 -0.10197594 0.30459872
-0.24548957 0.074707255 0.7250715 0.23649067 0.005845557 0.027879057 -0.7402 0.1246176
1.3356364 0.05406266 0.4293482 -1.1568518 -0.03476687 0.00076149387 0.3075744 -0.2280149
-0.076252885 1.7324709 -1.60881 0.28204066 -0.5695493 0.45281485 0.016323285 -0.538456
-0.5962944 -0.60699445 -0.38366902 -1.3094835 0.65935636 -0.057697773 0.27068645 -0.011833315
0.80501306 0.577151 -0.13635047 -0.09263098 -0.12246439 -1.5781829 -1.3331257 -0.39212328
-8.866201e-05 -0.7039661 -0.6652106 -0.12193103 0.7772826 -0.2683478 -0.5382109 -0.41870797
0.16436207 -0.0015495981 0.17830235 -0.42669967 0.19004561 1.0639886 -1.2285684 0.1486177
-1.3052014 0.1083224 0.0019671053 0.49758512 -0.43401146 0.119755164 -0.17891741 -1.8146753
0.4260223 0.044407874 0.18446971 -0.0054048123 0.1817689 -0.7705251 -0.31749287 -0.1836423
1.6983497 0.006680582 -0.5511046 0.36822537 0.0073276297 -0.2691586 0.3918541 0.55511224
-1.9409493 1.205174 0.6963941 -0.18793447 0.313507 0.010507694 -1.0952187 -0.6554507
0.14160398 0.50372696 1.1258414 0.86091 0.6640995 0.21705112 0.0014296254 0.33566934
1.0328242 0.24700402 -2.0245705 -0.711161 -0.21125358 -0.030992705 0.091809176 0.026116058
-0.96407676 -0.23057882 0.2571673 0.908483 0.0946259 1.9776487 0.39081693 0.924045
0.00044163282 -0.58808476 0.3230636 0.2618597 -1.2930793 0.78459775 -0.27360305 0.28361395
-0.8077232 0.0048333486 0.8485132 -1.2298189 0.13544528 -0.75570834 -0.8233764 0.3578801
0.28444672 -0.104720004 0.015257887 -0.9787995 -0.76915526 -0.79491246 0.51609546 -0.3581452
-0.7437926 -0.14674297 -0.1014971 0.0058855824 -0.9770411 1.3988093 -0.2673435 -0.202231
-0.14219324 -0.4479145 -0.46361655 -0.7423138 0.016024727 1.2557296 -1.0856017 -0.3670583
00000000: 526b a2bb 7e1a 173f 7e92 473f 8c5b ce3e
00000010: ed1c 0bc0 f6ea 993f 602d d73d 85a9 dc3e
00000020: d599 733e fb7d 3839 11c9 a83f 1668 89bf
00000030: 9d71 b4bd 6939 0ebf d224 76bf 6ed9 153e
00000040: 03f6 37bf 0420 683e 5702 acbb 19ec 6fbe
00000050: d7ad de3e 12ea c4be ef22 91be 4d79 803d
00000060: c349 de3e b6c3 bcbf 5b17 1ebf 05b0 433c
00000070: ca68 893e ce60 ec3f 72e4 31bf c9a2 043e
00000080: 915b 703f 0254 a3bd ef67 163d f000 50be
00000090: da7f 873c 28da 333f e133 f33e e970 e03e
000000a0: 4f80 8f3e baaf 30bf 0891 84bf e50d 88bf
000000b0: 362c 1fbf ee3f 003d e19e cdbf 17dc 1ebc
000000c0: df88 10bf 4511 f2bd c20a e7be d266 c03e
000000d0: 4925 d53e e3ce 37be 7861 99bb 2627 6dbf
000000e0: c588 59bf 23e4 5bbd be59 17bf 63c6 463f
000000f0: a2b4 12bd 6738 96be 814d 1c3f eb26 e5ba
00000100: bcf7 44bf 5745 9fbe 9095 85bd b17d e2be
00000110: 8de5 88bf 2a49 cabe 0275 043e dc57 95bb
00000120: 7a89 d93b a685 22bf f67f 79bf b963 6fbe
00000130: 7705 dabe a27c 3bbf 5703 113f e6b8 283f
00000140: 15a8 243d ed25 d7ba bf81 a53d de67 d93f
00000150: d546 4dbf de94 a83f 88f4 433f 5b52 1e3e
00000160: 85f8 a03f a773 babe 6899 883b 6b2e aabd
00000170: d723 bb3f 5063 373f bfd8 29bf 3ef3 37bf
00000180: a0bb a23e 51ce 0bbe 2543 cdbe 9af2 d03a
00000190: 51c5 063f 8c51 75bf c3d8 d0bd 5df4 9b3e
000001a0: 9e61 7bbe 1e00 993d 499e 393f 9c2a 723e
000001b0: 168c bf3b 9f62 e43c bf7d 3dbf 8337 ff3d
000001c0: 22f6 aa3f cf70 5d3d 87d3 db3e b813 94bf
000001d0: b567 0ebd fd9e 473a 647a 9d3e bd7c 69be
000001e0: 792a 9cbd 9bc1 dd3f 7ced cdbf a267 903e
000001f0: fccd 11bf 59d7 e73e 69b8 853c 41d8 09bf
00000200: c0a6 18bf fd63 1bbf 4470 c4be 289d a7bf
00000210: 94cb 283f 8054 6cbd 6a97 8a3e 85e0 41bc
00000220: 5615 4e3f 2bc0 133f 759f 0bbe 50b5 bdbd
00000230: 9cce fabd e601 cabf dda3 aabf 62c4 c8be
00000240: 0ef0 b9b8 1f37 34bf 3e4b 2abf fab6 f9bd
00000250: fefb 463f e264 89be 31c8 09bf e460 d6be
00000260: 884e 283e e21b cbba e494 363e 6178 dabe
00000270: 519b 423e c730 883f bb41 9dbf 3d2f 183e
00000280: d710 a7bf 22d8 dd3d 8dea 003b 7ac3 fe3e
00000290: c036 debe 3242 f53d 2036 37be 4847 e8bf
000002a0: 981f da3e 08e5 353d a1e5 3c3e da1a b1bb
000002b0: a021 3a3e 2241 45bf 6d8e a2be ba0c 3cbe
000002c0: 8663 d93f c9e8 da3b 3115 0dbf 0988 bc3e
000002d0: 9d1c f03b 28cf 89be 1aa1 c83e d61b 0e3f
000002e0: 0771 f8bf 2443 9a3f e246 323f e571 40be
000002f0: fd83 a03e 7728 2c3c 2030 8cbf 9ecb 27bf
00000300: a200 113e 40f4 003f 921b 903f 9964 5c3f
00000310: 6d02 2a3f a642 5e3e 4562 bb3a dadc ab3e
00000320: 9533 843f 9fee 7c3e 9092 01c0 a60e 36bf
00000330: dc52 58be 6ae4 fdbc 7306 bc3d 58f1 d53c
00000340: bccd 76bf db1c 6cbe 6fab 833e 5892 683f
00000350: 39cb c13d 9823 fd3f 2819 c83e 378e 6c3f
00000360: f48a e739 b98c 16bf 9868 a53e 7912 863e
00000370: 9f83 a5bf 66db 483f b315 8cbe d935 913e
00000380: f3c6 4ebf 1161 9e3b 2938 593f b56a 9dbf
00000390: 2bb2 0a3e 1a76 41bf ccc8 52bf 0f3c b73e
000003a0: 00a3 913e 7177 d6bd 37fc 793c 9b92 7abf
000003b0: 5ce7 44bf 627f 4bbf d51e 043f cf5e b7be
000003c0: 3169 3ebf ca43 16be b6dd cfbd d8db c03b
000003d0: 5e1f 7abf 2f0c b33f 3fe1 88be a515 4fbe
000003e0: 1b9b 11be 0d55 e5be 265f edbe 4708 3ebf
000003f0: 4a46 833c bfbb a03f fff4 8abf 11ef bbbe

l1.bias f4 [189]
-0.2184453 0.5321749 -0.43708202 0.08388983 0.07336519 0.17549658 0.47884837 0.5149258
0.044206884 -0.17770457 -0.45319754 0.5708306 0.09280968 0.45937368 0.10776023 0.06868244
-0.05207722 0.5304972 0.4405643 0.60630107 -0.060235567 0.061568193 0.443083 -0.22305875
-0.30036822 0.3729187 -0.18897949 -0.036713433 -0.028324308 -0.10970585 -0.27126178 0.30915657
0.6105577 0.23948388 -0.0046303463 0.21109423 0.06377615 0.007653672 -0.48656744 -0.20857356
0.7738276 0.057817593 -0.3579398 -0.00639978 0.5512557 0.35460895 0.18512383 0.22956786
-0.12181854 0.40267944 0.2167185 0.20809563 0.050770793 -0.21163064 -0.4435004 0.374254
0.24559985 0.17758417 -0.13740155 0.5061497 -0.22892144 -0.035118643 0.67771775 -0.08066196
-0.040943112 0.520812 -0.069665134 0.13812542 0.37565485 0.36064622 -0.67908925 0.14677534
-0.33979064 0.017509418 -0.0099934805 0.31414902 0.12521727 0.30909386 0.06313438 0.17033787
0.2606866 0.074574955 0.047560968 0.5804835 0.40123543 0.42154455 0.72857344 -0.24640912
-0.083000354 0.44248396 0.28556988 -0.508463 0.06949024 -0.41444722 0.16294365 -0.14918247
-0.39288536 0.44281435 -0.17808431 0.07808755 -0.077357665 0.08135015 0.60135925 0.09175179
-0.06965038 -0.23161681 -0.14302483 0.44939166 0.30987775 0.12760429 0.037980046 0.15283744
-0.5340879 -0.35843396 0.11031575 0.15130351 0.19065948 0.6729856 0.51113755 -0.41725037
0.07294149 -0.4210488 -0.14461665 0.24895453 0.03388732 0.26295364 0.39768255 0.13511708
0.32418025 0.5783644 -0.0512595 -0.026844181 0.34136602 0.40002903 0.08984004 0.058822628
0.45157042 -0.31322628 -0.12007862 0.1237762 -0.34021842 0.16613187 -0.08179908 -0.17919637
0.250156 -0.03041539 0.20376384 0.09031098 0.3433022 -0.28967953 0.24268734 0.646386
0.23695372 0.13357829 -0.018996796 -0.28062364 0.44048542 0.1111968 0.16521724 0.1687602
0.6240134 0.037859917 0.0075865877 -0.44095662 -0.3772501 0.5196637 0.47902715 0.28468794
0.6298018 -0.283137 0.27338666 0.8331389 0.0626321 0.21323605 0.6669924 0.32228538
0.051434953 -0.39618894 0.4861237 -0.28871074 0.34543905 -0.24171795 -0.43936846 0.11678358
0.25235486 0.3649261 -0.3647538 -0.35927415 0.13848743
00000000: 20b0 5fbe 9d3c 083f 37c9 dfbe 6ece ab3d
00000010: 7d40 963d 60b5 333e 9d2b f53e 2dd2 033f
00000020: 4712 353d 30f8 35be 8209 e8be f421 123f
00000030: 0013 be3d 0733 eb3e 65b1 dc3d 61a9 8c3d
00000040: ec4e 55bd aace 073f a591 e13e 8c36 1b3f
00000050: 92b9 76bd ee2e 7c3d c6db e23e 8369 64be
00000060: ddc9 99be 33ef be3e d783 41be d360 16bd
00000070: 6108 e8bc 76ad e0bd d3e2 8abe c549 9e3e
00000080: 824d 1c3f 433b 753e 29ba 97bb 1629 583e
00000090: 129d 823d a7cb fa3b 5e1f f9be 4f94 55be
000000a0: 9119 463f 24d2 6c3d e343 b7be 3fb5 d1bb
000000b0: 181f 0d3f 4e8f b53e 1a91 3d3e d613 6b3e
000000c0: 007c f9bd 002c ce3e 74eb 5d3e 0517 553e
000000d0: 09f5 4f3d b4b5 58be 7c12 e3be 389e bf3e
000000e0: 877e 7b3e a0d8 353e feb2 0cbe 0793 013f
000000f0: 626a 6abe 91d8 0fbd e97e 2d3f 1932 a5bd
00000100: f7b3 27bd ef53 053f 98ac 8ebd c070 0d3e
00000110: d555 c03e 9fa6 b83e cbd8 2dbf 464c 163e
00000120: 0af9 adbe e96f 8f3c b2bb 23bc 24d8 a03e
00000130: f538 003e 8d41 9e3e 994c 813d 0d6d 2e3e
00000140: b778 853e c1ba 983d 4acf 423d 919a 143f
00000150: bb6e cd3e b0d4 d73e ca83 3a3f ac52 7cbe
00000160: 17fc a9bd 428d e23e 3736 923e a22a 02bf
00000170: e650 8e3d 6d32 d4be b3da 263e 4ac3 18be
00000180: 4528 c9be 90b8 e23e bc5b 36be 5eec 9f3d
00000190: b26d 9ebd e89a a63d aef2 193f 5de8 bb3d
000001a0: dca4 8ebd f52c 6dbe 1a75 12be aa16 e63e
000001b0: 4ca8 9e3e b3aa 023e f790 1b3d 6b81 1c3e
000001c0: fcb9 08bf a884 b7be 39ed e13d 4fef 1a3e
000001d0: 3d3c 433e c948 2c3f e9d9 023f d7a1 d5be
000001e0: 5962 953d b593 d7be 6316 14be f0ed 7e3e
000001f0: 6ecd 0a3d dca1 863e 0c9d cb3e 225c 0a3e
00000200: f4fa a53e b00f 143f 7bf5 51bd 54e8 dbbc
00000210: 87c7 ae3e 9bd0 cc3e 0efe b73d ffef 703d
00000220: 3d34 e73e 325f a0be c8eb f5bd 607e fd3d
00000230: 1c31 aebe 791e 2a3e 4786 a7bd 417f 37be
00000240: 7214 803e b229 f9bc 78a7 503e f7f4 b83d
00000250: 4ec5 af3e e050 94be 0883 783e 8e79 253f
00000260: ffa3 723e bfc8 083e 2b9f 9bbc e7ad 8fbe
00000270: 4e87 e13e 26bb e33d b52e 293e 79cf 2c3e
00000280: 58bf 1f3f 0013 1b3d e998 f83b 11c5 e1be
00000290: ed26 c1be ae08 053f 0c43 f53e 9ec2 913e
000002a0: b13a 213f 55f7 90be 56f9 8b3e 9748 553f
000002b0: 4245 803d 8d5a 5a3e 04c0 2a3f 9702 a53e
000002c0: 75ad 523d 47d9 cabe 35e5 f83e e5d1 93be
000002d0: 63dd b03e e984 77be e7f4 e0be 3b2c ef3d
000002e0: a834 813e 98d7 ba3e 03c1 babe c8f2 b7be
000002f0: a6cf 0d3e

l2.weight f4 [119, 189]
0.11729445 0.071203 0.005298173 -0.15829536 0.054744218 -0.04283252 0.11496245 -0.10845227
0.016277222 -0.3636584 0.028806418 0.08243276 0.046791192 0.26613778 -0.02292442 0.26556626
0.023694985 0.1246086 0.08916446 0.28081244 0.01585127 0.0011026661 -0.04994185 0.17736378
0.07265634 0.09225136 0.037338756 -0.06928207 0.10913303 0.05630597 -0.08812379 -0.08579857
0.08075866 0.019082619 0.26688713 0.01915656 0.04284325 -0.054134343 -0.006258792 -0.13912013
0.010726598 0.46381903 0.19806667 -0.34585914 -0.07698439 -0.33427513 0.04881403 0.41477343
0.034792554 0.12454342 -0.064561926 0.20917049 0.20352174 -0.0060367375 0.061040014 0.27813846
0.14328454 -0.19276045 -0.060304638 -0.047774263 0.44276202 -0.12562943 0.049690124 0.25916234
0.06479726 -0.014467106 0.04004203 0.21666558 -0.21486926 0.3284714 -0.03471176 -0.0073589277
0.06407081 -0.06712007 0.20267685 0.2024895 -0.0039656446 0.20454694 0.27824694 0.058014926
0.053117823 0.115331024 -0.33682606 -0.020540101 -0.047301766 0.002252609 0.00844575 0.089050494
0.023182489 0.20999302 0.20990798 0.006082136 0.06964514 -0.069167316 0.026706964 0.12483508
0.055154413 0.31909874 -0.036754306 0.108464286 0.06370474 0.06854284 0.049695875 -0.29315993
0.07836217 -0.0053174226 -0.019252276 -0.042713452 -0.044976816 0.33677754 0.23627645 0.23452537
0.05012228 0.0962582 0.1004422 -0.13078903 0.099340476 0.009440645 -0.07997535 -0.00017399286
0.1539742 0.0487528 0.09376657 0.034603667 0.26442683 -0.15257865 0.35245475 0.38908288
-0.018926099 0.17945021 0.33090112 0.021291308 -0.05007451 0.0058210813 -0.0913454 0.06922636
0.09573669 -0.0031849137 -0.11034684 -0.31983173 0.24723074 0.11326859 -0.0910059 0.006680655
-0.0003956472 0.1496963 -0.11606602 0.028835008 -0.034748215 0.030434454 -0.15472046 0.103665926
-0.3057831 -0.05010882 0.3537797 0.24826126 -0.21138768 0.18254784 0.6929271 0.0040201712
-0.00044213518 0.09378577 0.011775698 0.20985779 -0.025781203 0.012206802 0.03769448 0.025984185
0.093334146 -0.045357518 0.108859874 0.047022086 0.0010730784 0.037463434 0.046102226 0.13405149
-0.23720773 0.026292084 -0.042383574 0.06353116 0.10475721 -0.10015875 -0.039846584 0.074646406
0.06947311 -0.04501595 -0.015399568 -0.07628561 -0.011815586 -0.06831359 -0.05313213 0.005027909
-0.1866282 -0.025834955 0.04695565 0.16194546 0.08790986 0.14006342 -0.11656502 -0.0104789585
0.29904056 0.0483379 -0.012311111 0.00460648 0.012816216 0.09224005 0.06890017 0.07771106
0.20621213 -0.10357572 0.13042201 -0.13974407 -0.042052824 -0.04281415 -0.043794036 0.063901156
0.016567543 0.030223584 0.013537123 -0.046328455 0.115217306 0.14807299 -0.062131867 0.27803677
0.009794191 0.09071441 -0.14061362 -0.019454876 -0.29856402 0.25515518 -0.017587561 -0.027122382
-0.14572263 0.30565858 0.3532822 0.068543114 -0.07901351 0.12491246 0.0068320003 0.31903082
0.25045654 -0.38323328 -0.04139114 0.045173623 0.3355406 0.09835031 0.030925551 0.087097004
0.12465332 -0.10029217 -0.04888548 0.047753546 0.06690097 0.12835006 0.030260962 -0.1427432
00000000: 1338 f03d e1d2 913d 4c9c ad3b 2e18 22be
00000010: 793b 603d 2771 2fbd 6f71 eb3d 391c debd
00000020: cf57 853c 6f31 babe 70fb eb3c 82d2 a83d
00000030: 1fa8 3f3d 3643 883e fecb bbbc 4df8 873e
00000040: fc1b c23c cb32 ff3d db9b b63d a6c6 8f3e
00000050: 86da 813c 5687 903a d38f 4cbd da9e 353e
00000060: d9cc 943d 48ee bc3d 86f0 183d c2e3 8dbd
00000070: 2381 df3d 17a1 663d 3f7a b4bd 29b7 afbd
00000080: cc64 a53d 2753 9c3c 6ea5 883e 38ee 9c3c
00000090: 677c 2f3d f9bb 5dbd 8d16 cdbb 8275 0ebe
000000a0: 9dbe 2f3c b079 ed3e fdd1 4a3e 7314 b1be
000000b0: fea9 9dbd 1c26 abbe 38f1 473d 2f5d d43e
000000c0: a382 0e3d 9f10 ff3d 0b39 84bd ca30 563e
000000d0: 0168 503e d3cf c5bb 1805 7a3d 2a68 8e3e
000000e0: 2fb9 123e ff62 45be ff01 77bd f2ae 43bd
000000f0: b4b1 e23e 00a5 00be df87 4b3d edb0 843e
00000100: 6db4 843d 7107 6dbc 1d03 243d 95dd 5d3e
00000110: b006 5cbe 672d a83e eb2d 0ebd 2923 f1bb
00000120: 8f37 833d 3f76 89bd 858a 4f3e 6859 4f3e
00000130: 3df2 81bb c174 513e 6276 8e3e 0fa1 6d3d
00000140: 1392 593d ac32 ec3d 7774 acbe b743 a8bc
00000150: 7fbf 41bd 82a0 133b 0b60 0a3c 1b60 b63d
00000160: 34e9 bd3c 6908 573e 1ef2 563e a84c c73b
00000170: 1ca2 8e3d 98a7 8dbd 90c8 da3c 89a9 ff3d
00000180: 98e9 613d e960 a33e af8b 16bd 8622 de3d
00000190: a177 823d 3060 8c3d e78d 4b3d 0f19 96be
000001a0: 587c a03d c63d aebb f3b6 9dbc 4df4 2ebd
000001b0: 9c39 38bd 1b6e ac3e 74f2 713e 6b27 703e
000001c0: 054d 4d3d 0523 c53d a4b4 cd3d 8fed 05be
000001d0: 0573 cb3d efac 1a3c 1eca a3bd da71 36b9
000001e0: 6aab 1d3e 04b1 473d b008 c03d 93bc 0d3d
000001f0: f462 873e 943d 1cbe f374 b43e df35 c73e
00000200: e80a 9bbc ccc1 373e df6b a93e 1c6b ae3c
00000210: ee1a 4dbd c5be be3b 4c13 bbbd 8dc6 8d3d
00000220: 9911 c43d fcb9 50bb 86fd e1bd fcc0 a3be
00000230: 0e2a 7d3e 5df9 e73d 4d61 babd 65e9 da3b
00000240: de6e cfb9 fd49 193e 06b4 edbd 6537 ec3c
00000250: 2554 0ebd ad51 f93c 0a6f 1ebe cd4e d43d
00000260: 9a8f 9cbe e83e 4dbd 9d22 b53e 3338 7e3e
00000270: 0376 58be d2ed 3a3e ac63 313f a4bb 833b
00000280: 61ce e7b9 c112 c03d dbee 403c f6e4 563e
00000290: 1a33 d3bc 0aff 473c 8765 1a3d c9dc d43c
000002a0: f925 bf3d cec8 39bd edf1 de3d 3b9a 403d
000002b0: 89a6 8c3a 4273 193d b0d5 3c3d cb44 093e
000002c0: 95e6 72be 7f62 d73c 669a 2dbd a01c 823d
000002d0: f38a d63d 0820 cdbd 2c36 23bd 37e0 983d
000002e0: eb47 8e3d a562 38bd 784e 7cbc a13b 9cbd
000002f0: 2996 41bc ffe7 8bbd 14a1 59bd 28c1 a43b
00000300: 761b 3fbe d4a3 d3bc 9154 403d 08d5 253e
00000310: 160a b43d c96c 0f3e a4b9 eebd f0af 2bbc
00000320: d81b 993e f6fd 453d 8bb4 49bc f4f1 963b
00000330: 1bfb 513c 5ae8 bc3d 881b 8d3d fa26 9f3d
00000340: 4629 533e 821f d4bd 598d 053e 1219 0fbe
00000350: 953f 2cbd e45d 2fbd 6061 33bd 9cde 823d
00000360: a8b8 873c 7397 f73c cfca 5d3c e8c2 3dbd
00000370: 0df7 eb3d 72a0 173e fc7d 7ebd d65a 8e3e
00000380: d177 203c 7ac8 b93d 04fd 0fbe d55f 9fbc
00000390: 62dd 98be b3a3 823e ca13 90bc c22f debc
000003a0: 5038 15be 487f 9c3e 68e1 b43e 5560 8c3d
000003b0: d6d1 a1bd 1bd2 ff3d f9de df3b 0258 a33e
000003c0: d73b 803e 2737 c4be c289 29bd fa07 393d
000003d0: facb ab3e e36b c93d 9557 fd3c ea5f b23d
000003e0: 3d4a ff3d fb65 cdbd 243c 48bd 3999 433d
000003f0: 6003 893d 336e 033e d6e5 f73c 462b 12be

l2.bias f4 [119]
-0.06574224 0.3039838 0.069225386 0.16554408 0.21163943 0.2207685 0.09430218 0.34112653
0.18248603 0.2573514 0.36151463 0.1411717 0.17479785 0.139631 0.3019428 0.1531435
0.070073925 0.025330521 -0.043940503 0.023468174 0.26348385 0.32199332 0.06451256 0.101668544
0.15804315 0.3128176 -0.01714995 0.18392088 -5.1535386e-05 0.100720964 0.24902731 -0.43813226
0.26230264 0.22215305 0.28766173 0.30288735 0.0785428 0.10374393 0.20574269 0.3284649
0.046724357 -0.04278142 0.2299753 0.22067492 0.0858098 0.260396 -0.12045111 0.20007382
0.28087625 0.33549923 0.23845732 0.018791676 0.20558697 -0.3726239 -0.036704045 0.19435433
0.18776847 0.28156313 0.113023885 0.19737191 0.086349234 0.46596846 -0.054506138 -0.16184771
0.065477096 0.32615086 0.28763467 0.13757396 0.14829655 0.2972964 -0.033168573 0.15849803
0.1771312 0.18657513 0.32273516 0.19434632 0.29309264 0.12146763 0.08362867 0.07508068
0.18214743 0.09734745 0.16466966 0.16302745 0.034373425 0.35437495 0.16397724 0.34350327
-0.07608557 0.12708484 0.10313602 0.14452769 0.11964813 0.3084108 -0.13710251 -0.10387286
-0.1431032 0.2636985 0.19593884 0.24478152 0.35483617 0.064489305 0.15527369 0.25308305
0.2044099 0.26295948 0.3013015 -0.044929575 0.23069964 0.1193928 0.24136738 0.17162777
0.16345824 0.11900718 0.18653628 0.06294668 0.19480146 -0.09245596 0.106617324
00000000: dea3 86bd c4a3 9b3e 0ac6 8d3d 6384 293e
00000010: 02b8 583e 2311 623e 8021 c13d 23a8 ae3e
00000020: 9edd 3a3e 90c3 833e 7218 b93e 508f 103e
00000030: 35fe 323e 6efb 0e3e 3f98 9a3e a6d1 1c3e
00000040: eb82 8f3d f481 cf3c f5fa 33bd 5440 c03c
00000050: 5be7 863e 4fdc a43e 291f 843d 9937 d03d
00000060: 10d6 213e a129 a03e 0d7e 8cbc c155 3c3e
00000070: b327 58b8 cb46 ce3d 0401 7f3e df52 e0be
00000080: 884c 863e 177c 633e 6648 933e 0d14 9b3e
00000090: 0cdb a03d b377 d43d 36ae 523e 8d2c a83e
000000a0: 0a62 3f3d 923b 2fbd a57e 6b3e 9bf8 613e
000000b0: 0cbd af3d a052 853e 12af f6bd 27e0 4c3e
000000c0: 03cf 8f3e 8ec6 ab3e 282e 743e 00f1 993c
000000d0: 6485 523e 8fc8 bebe fb56 16bd d204 473e
000000e0: 6146 403e 0b29 903e 1179 e73d dd1b 4a3e
000000f0: ded7 b03d 6b93 ee3e d441 5fbd 68bb 25be
00000100: db18 863d 3ffd a63e da44 933e 30e0 0c3e
00000110: 0ddb 173e 3c37 983e c5db 07bd 4f4d 223e
00000120: e261 353e 8d0d 3f3e 8b3d a53e b902 473e
00000130: 3d10 963e 05c4 f83d 8245 ab3d e6c3 993d
00000140: db84 3a3e 1a5e c73d 2a9f 283e abf0 263e
00000150: 26cb 0c3d a270 b53e a6e9 273e a9df af3e
00000160: c0d2 9bbd 8722 023e fa38 d33d 11ff 133e
00000170: 140a f53d 05e8 9d3e 9a64 0cbe 4bbb d4bd
00000180: a589 12be 7d03 873e 31a4 483e 02a8 7a3e
00000190: 16ad b53e f812 843d 1100 1f3e 1a94 813e
000001a0: d450 513e a0a2 863e 3144 9a3e 1308 38bd
000001b0: 873c 6c3e 3684 f43d 0329 773e 31bf 2f3e
000001c0: 9961 273e 09ba f33d 5e03 3f3e 30ea 803d
000001d0: 097a 473e 8d59 bdbd 2f5a da3d

l3.weight f4 [9, 119]
-0.14355896 0.18712679 0.29131508 0.0064886617 0.027076904 -0.39264268 0.116581894 0.11865013
0.06116645 -0.17454486 -0.014216624 0.034839407 0.105019845 -0.0039583137 -0.15376043 -0.024036359
0.38750955 -0.36342272 0.40390733 -0.07249782 -0.099936984 -0.09323277 0.26002997 0.13032052
0.1465289 -0.32838514 -0.25683978 0.10486911 0.014508674 -0.052287646 -0.3930503 -0.17076379
0.6956856 0.25730345 0.15442353 0.12483778 0.17108911 -0.69308805 0.10906523 0.2767553
0.08599312 0.05718559 0.05553566 0.16308081 -1.104265 -0.13790247 0.92812514 -0.0013125057
0.08896472 0.24411084 -0.00015520454 0.13626021 0.025028352 -0.81541514 0.03089951 0.09952345
0.16993006 0.1437709 0.37500563 -0.06939291 0.10906537 0.15590307 0.24523422 0.25438598
0.16878502 -0.032731604 0.070662394 -0.21431796 -0.027751368 -0.047312155 0.07941619 -0.7193279
0.24406104 -0.7792459 0.12036364 0.2173804 0.1733917 0.32896137 0.04084379 -0.1721683
-0.09738316 0.20611033 -0.0014605618 0.064395174 0.03189193 0.30946705 0.1473327 -0.08142602
0.053776428 0.14196965 0.26035655 -0.08772069 0.009808147 0.11490162 -0.0483768 0.028571406
0.04022126 -0.15000954 0.39602107 0.14137177 0.13779165 0.04298364 0.13968556 -0.00978138
0.008251074 0.2573879 0.12171076 0.09902011 -0.55779034 -0.32885298 0.1811238 0.06514563
0.2523342 0.116829775 -0.053080577 0.00122638 0.08371323 0.2807852 -0.14663622 0.04459147
0.0724475 0.025399156 0.20388374 -0.07146351 0.31526324 0.17942907 0.5515677 0.2793439
0.11956586 0.14997052 0.16628407 0.25340578 0.016659793 0.4479462 -0.006857833 0.47188917
-0.7593662 -0.05615008 0.16342704 -0.043577656 0.008594983 -0.32221714 -0.1366122 -0.026676228
0.15183869 0.0067726476 0.98457897 0.03683544 -0.12303379 0.28838283 -0.2698742 -0.22948852
-0.028535554 0.022137588 -0.054038335 0.4043661 0.62687445 0.08300179 0.29444793 -0.790855
0.079076976 -0.0025242667 -0.15799214 0.74451023 -0.30474734 -0.5016947 0.1166911 -0.06716992
0.11754664 -0.10395109 -0.1215845 0.033827513 -0.5127424 -0.0044059786 -0.031731218 0.21766344
0.15297773 0.07556214 0.2052464 -0.07242914 0.6716669 -0.22296321 0.32964364 -0.38706794
0.11915769 0.04123033 -0.19091645 -0.16207841 0.097491466 -0.055335857 0.66438687 0.17763826
0.33140615 0.0623884 0.06187009 0.037050057 -0.1358058 0.089091145 -0.13542363 0.36251232
0.048944 -0.11184045 -0.75748724 -0.08444271 0.16350107 0.07388076 -0.07279418 -0.16061452
0.35095936 -0.044470597 0.31864637 -0.0600563 0.22432125 0.0396573 -0.4563281 -0.5483069
0.042193383 -0.04549865 0.26766604 0.10781217 -0.18387116 0.18713148 -0.11683399 -0.010641992
-0.092743926 -0.07807136 0.100043885 0.5113872 0.45586416 -0.04417656 0.24512197 0.24726425
-0.20488697 -0.00635748 0.050285373 0.10391758 -0.16777943 -0.021316646 0.1897138 0.21850549
-0.23824243 -0.054528415 0.16114171 0.26170424 0.11602929 0.041672338 -0.010930627 0.2550807
-0.02096977 0.049872518 -0.118404716 -0.17545508 0.18897167 0.17627546 -0.137051 -0.12219863
00000000: 1f01 13be 2a9e 3f3e 4027 953e d79e d43b
00000010: 62d0 dd3c 7608 c9be 7dc2 ee3d d7fe f23d
00000020: ac89 7a3d e3bb 32be d8ec 68bc c4b3 0e3d
00000030: a514 d73d beb4 81bb 6073 1dbe e6e7 c4bc
00000040: a767 c63e 8b12 babe f1cc ce3e bd79 94bd
00000050: c3ab ccbd d3f0 bebd a622 853e be72 053e
00000060: ac0b 163e 1922 a8be 8180 83be 9ec5 d63d
00000070: cab5 6d3c 922b 56bd e43d c9be b4dc 2ebe
00000080: 7418 323f 47bd 833e 3421 1e3e f3aa ff3d
00000090: fc31 2f3e 386e 31bf 975d df3d dfb2 8d3e
000000a0: 291d b03d 703b 6a3d 5c79 633d a8fe 263e
000000b0: 8e58 8dbf 4e36 0dbe 9c99 6d3f 6208 acba
000000c0: 2333 b63d 31f8 793e 67be 22b9 cc87 0b3e
000000d0: 4208 cd3c 0cbf 50bf f820 fd3c f3d2 cb3d
000000e0: 2502 2e3e ae38 133e bd00 c03e df1d 8ebd
000000f0: aa5d df3d 0ea5 1f3e ae1e 7b3e e13e 823e
00000100: fbd5 2c3e 9311 06bd 72b7 903d 2b76 5bbe
00000110: d656 e3bc 64ca 41bd f5a4 a23d e025 38bf
00000120: 23eb 793e a97c 47bf 3681 f63d f898 5e3e
00000130: 988d 313e a06d a83e d14b 273d e34c 30be
00000140: d270 c7bd 960e 533e 5270 bfba 9ee1 833d
00000150: 1da1 023d 7772 9e3e 62de 163e afc2 a6bd
00000160: ac44 5c3d 7e60 113e 744d 853e e8a6 b3bd
00000170: 5ab2 203c 8a51 eb3d c026 46bd 950e ea3c
00000180: 0cbf 243d 1a9c 19be 46c3 ca3e c3c3 103e
00000190: 4119 0d3e 9d0f 303d bb09 0f3e 1542 20bc
000001a0: 832f 073c 59c8 833e 7e43 f93d 0ecb ca3d
000001b0: 59cb 0ebf 6b5f a8be 8478 393e 126b 853d
000001c0: f331 813e 7344 ef3d 056b 59bd 7cbe a03a
000001d0: d871 ab3d 14c3 8f3e ce27 16be 8ca5 363d
000001e0: 5b5f 943d e411 d03c e6c6 503e 765b 92bd
000001f0: 2f6a a13e 41bc 373e 8a33 0d3f 2a06 8f3e
00000200: f2de f43d df91 193e 5f46 2a3e 67be 813e
00000210: 1e7a 883c 3459 e53e acb7 e0bb 759b f13e
00000220: d365 42bf a0fd 65bd 6b59 273e 7c7e 32bd
00000230: f9d1 0c3c a5f9 a4be 12e4 0bbe 1b88 dabc
00000240: 9a7b 1b3e 16ed dd3b 5e0d 7c3f c2e0 163d
00000250: 24f9 fbbd eaa6 933e f32c 8abe 0aff 6abe
00000260: 65c3 e9bc e359 b53c 4d57 5dbd 1309 cf3e
00000270: d87a 203f d8fc a93d e1c1 963e 7975 4abf
00000280: 1cf3 a13d 2b6e 25bb b1c8 21be 3998 3e3f
00000290: d807 9cbe 106f 00bf befb ee3d 6290 89bd
000002a0: 4bbc f03d 4fe4 d4bd 4b01 f9bd b88e 0a3d
000002b0: 1643 03bf 0760 90bb 98f8 01bd 2ae3 5e3e
000002c0: 32a6 1c3e 53c0 9a3d 1d2c 523e bb55 94bd
000002d0: 5df2 2b3f 7850 64be 0dc7 a83e c52d c6be
000002e0: f208 f43d 22e1 283d 9a7f 43be e2f7 25be
000002f0: 9ba9 c73d daa7 62bd 4215 2a3f cee6 353e
00000300: 11ae a93e fb8a 7f3d 7e6b 7d3d cdc1 173d
00000310: ad10 0bbe 6b75 b63d 7eac 0abe 379b b93e
00000320: 8179 483d 9b0c e5bd afea 41bf 4df0 acbd
00000330: d36c 273e cc4e 973d 1d15 95bd 2278 24be
00000340: f2b0 b33e cd26 36bd 9e25 a33e 98fd 75bd
00000350: 78b4 653e b16f 223d d6a3 e9be d75d 0cbf
00000360: f8d2 2c3d cb5c 3abd 860b 893e a1cc dc3d
00000370: b948 3cbe 659f 3f3e a946 efbd c05b 2ebc
00000380: 87f0 bdbd e1e3 9fbd cfe3 cc3d 46ea 023f
00000390: 0767 e93e 7bf2 34bd 4101 7b3e d732 7d3e
000003a0: e4cd 51be 6852 d0bb 09f8 4d3d bdd2 d43d
000003b0: 5fce 2bbe 3fa0 aebc 5644 423e e7bf 5f3e
000003c0: d3f5 73be 3059 5fbd 5502 253e 19fe 853e
000003d0: c4a0 ed3d 9db0 2a3d 5f16 33bc f099 823e
000003e0: ccc8 abbc 2047 4c3d 2c7e f2bd 7faa 33be
000003f0: ca81 413e 8e81 343e 1957 0cbe 4643 fabd

l3.bias f4 [9]
0.18157259 0.36181584 0.23262256 0.0652343 0.031401552 0.08493854 0.32674548 0.1975687
0.121283986
00000000: 2aee 393e ed3f b93e 9c34 6e3e 9099 853d
00000010: ea9e 003d 42f4 ad3d 2f4b a73e 734f 4a3e
00000020: bd63 f83d

l4.weight f4 [53, 9]
0.46896875 0.29352632 0.24905914 0.48378137 -0.03719934 -0.34620085 -0.40114975 0.15260528
0.45197195 0.351691 0.6877472 -0.20400903 -0.22590491 -0.15040483 0.27925953 0.034152042
-0.57140267 -0.20197044 -0.057695452 0.3745069 0.40040293 0.1769163 0.13668546 -0.21301056
0.16828005 0.4595556 0.12011414 0.17458747 -0.056144685 -0.34397328 0.2793776 -0.610403
-0.14858864 0.93116164 -0.03170421 -0.2468967 -0.27536145 0.5315594 0.6057454 -0.008880722
0.5832628 0.3666631 -0.35516015 0.45724133 -0.1451777 0.17453039 0.63001126 0.20495811
-0.41554278 -0.5266358 0.40295452 -0.2628371 -0.042401973 -0.55770695 0.18942514 -0.31150383
0.5985186 0.40062374 0.27870265 0.9386284 0.074579194 0.43260118 -0.098084375 0.2767491
-0.22794017 0.4418609 0.016005015 0.17249067 0.81819963 0.34043103 0.62736106 -0.16299823
0.6336229 -0.04695484 -0.005640712 0.69922775 -0.044182003 -1.6440543e-05 0.54946876 0.04244954
-0.14369541 0.5621137 0.23244724 -0.26742047 0.5068024 -0.17046723 -0.11178394 0.09219907
-0.12765484 0.3522558 -0.16417594 0.503477 0.6941331 -0.13492838 0.3785678 -0.15763912
-0.20524321 0.46669418 0.5196406 -0.23459752 0.41464487 0.5087942 -0.2625977 0.19357356
0.10357175 0.08566939 0.47000694 0.33980885 0.2411768 0.27983811 0.039422326 -0.27346125
-0.48115247 0.7919683 0.26192224 0.32020175 -0.61081636 0.6233298 -0.15725245 -0.22838667
0.53256744 0.25477564 0.51314956 0.3165124 0.27775955 -0.00629126 -0.13230869 0.365407
0.47582802 0.11975436 0.5409199 0.07181871 -0.25074118 0.3708538 0.016012793 0.30227783
0.3125423 0.15922864 -0.09098791 0.5274355 -0.19323666 -0.16878992 -0.14063813 0.47533745
-0.010860808 0.30638912 0.1171961 0.56742346 -0.13974047 -0.2095589 0.4478422 0.0009327552
0.036148902 0.44948062 0.46401212 0.21835098 0.3592424 0.19619404 0.5009302 0.2913816
0.07072432 0.20273107 0.2908715 -0.06379989 0.101024844 0.43378252 0.28787652 0.8001717
-0.087624185 0.47580886 -0.46893921 -0.44973716 0.31984863 0.17452864 -0.06493194 0.3922486
-0.08915492 -0.029128194 -0.18385108 -0.13672969 -0.1657818 0.21051022 0.6496382 0.19756423
0.6267924 0.114679985 -0.23033148 0.18668397 0.20288396 0.056509964 0.44764072 0.7069783
-0.32490888 0.23375346 -0.014607363 -0.028887054 -0.08308325 0.36965922 0.30569372 0.17654514
0.17927514 0.44945392 0.35945097 -0.27319282 -0.3740308 0.26396945 0.277101 0.09191694
0.3472071 -0.22811225 0.3838191 0.44673508 -0.1945409 0.4091184 0.109949894 0.22236657
0.17811298 -0.26312682 0.55238444 0.04215891 0.06695778 1.0300304 0.16017878 0.52013886
0.009969934 -0.0010564111 0.6627932 -0.18087548 -0.28207406 -0.08264302 -0.4095069 -0.33117262
-1.1976095 0.39208812 0.028232599 0.28540397 0.4226127 -0.0031891137 0.17438506 -0.25434828
0.05823811 0.15821435 0.54221404 0.2654377 -0.13977264 0.02424384 0.4583358 0.5519227
0.1354229 -0.23961388 0.008936946 0.5547736 -0.1537985 -0.0774717 0.39141124 -0.7347628
00000000: ac1c f03e 1549 963e 5c09 7f3e 31b2 f73e
00000010: 565e 18bd 3d41 b1be 8063 cdbe 8f44 1c3e
00000020: de68 e73e d810 b43e 3310 303f bee7 50be
00000030: 9e53 67be b903 1abe 1bfb 8e3e 03e3 0b3d
00000040: 7247 12bf 57d1 4ebe 1152 6cbd 5ebf bf3e
00000050: 9d01 cd3e 8c29 353e 46f7 0b3e 711f 5abe
00000060: 9b51 2c3e df4a eb3e 67fe f53d 0fc7 323e
00000070: f8f7 65bd 441d b0be 950a 8f3e 5f43 1cbf
00000080: 9f27 18be 9c60 6e3f 46dc 01bd 7dd2 7cbe
00000090: 2dfc 8cbe 4714 083f 2112 1b3f 7380 11bc
000000a0: b650 153f 44bb bb3e 8dd7 b5be 891b ea3e
000000b0: 77a9 14be 18b8 323e 6b48 213f 8ae0 513e
000000c0: 06c2 d4be 9bd1 06bf 0e50 ce3e 9692 86be
000000d0: b1ad 2dbd e2c5 0ebf aaf8 413e 6e7d 9fbe
000000e0: 8438 193f 8e1e cd3e 1db2 8e3e f349 703f
000000f0: fabc 983d e77d dd3e 76e0 c8bd 0fb2 8d3e
00000100: 2669 69be 983b e23e f31c 833c 65a1 303e
00000110: 8875 513f fa4c ae3e bc9a 203f 02e9 26be
00000120: 1c35 223f b853 40bd b9d5 b8bb 9700 333f
00000130: 30f8 34bd cce9 89b7 fca9 0c3f 92df 2d3d
00000140: e424 13be afe6 0f3f a606 6e3e 56eb 88be
00000150: cdbd 013f f68e 2ebe faee e4bd ded2 bc3d
00000160: f3b7 02be df5a b43e bd1d 28be dee3 003f
00000170: b5b2 313f aa2a 0abe a4d3 c13e 266c 21be
00000180: 472b 52be 8af2 ee3e 2b07 053f 553a 70be
00000190: 554c d43e 5640 023f 3573 86be 2638 463e
000001a0: 6d1d d43d 6f73 af3d c0a4 f03e 6dfb ad3e
000001b0: 0df7 763e f146 8f3e 4e79 213d 1d03 8cbe
000001c0: 9e59 f6be 6fbe 4a3f ac1a 863e 7cf1 a33e
000001d0: 765e 1cbf 8b92 1f3f c906 21be 32de 69be
000001e0: 5756 083f f471 823e c55d 033f ea0d a23e
000001f0: 8036 8e3e ea26 cebb ee7b 07be a016 bb3e
00000200: bb9f f33e c641 f53d ba79 0a3f b015 933d
00000210: 2661 80be 8de0 bd3e 432d 833c 29c4 9a3e
00000220: 8b05 a03e d50c 233e df57 babd 0306 073f
00000230: d5df 45be 44d7 2cbe 7103 10be 6e5f f33e
00000240: 88f1 31bc 09df 9c3e 8204 f03d aa42 113f
00000250: 2018 0fbe 9c96 56be 934b e53e 2484 743a
00000260: df10 143d 5322 e63e ff92 ed3e 6697 5f3e
00000270: 9fee b73e 17e7 483e f63c 003f f82f 953e
00000280: ead7 903d bc98 4f3e 1ced 943e 84a9 82bd
00000290: 1de6 ce3d be18 de3e 8d64 933e 0dd8 4c3f
000002a0: 4f74 b3bd 389d f33e cd18 f0be f343 e6be
000002b0: 33c3 a33e a3b7 323e 09fb 84bd cfd4 c83e
000002c0: db96 b6bd 409e eebc 7543 3cbe de02 0cbe
000002d0: b4c2 29be fe8f 573e b04e 263f 474e 4a3e
000002e0: 7775 203f 57dd ea3d 04dc 6bbe 152a 3f3e
000002f0: d0c0 4f3e fe76 673d 2a31 e53e 88fc 343f
00000300: 755a a6be 115d 6f3e b953 6fbc 8ba4 ecbc
00000310: 8d27 aabd f943 bd3e e383 9c3e 40c8 343e
00000320: e793 373e d31e e63e f509 b83e eedf 8bbe
00000330: f780 bfbe 0127 873e 2fe0 8d3e f33e bc3d
00000340: 21c5 b13e 4296 69be f083 c43e 76ba e43e
00000350: bb35 47be f877 d13e 692d e13d 10b4 633e
00000360: 4063 363e 8fb8 86be 1169 0d3f d2ae 2c3d
00000370: 2921 893d 09d8 833f e805 243e d227 053f
00000380: ef58 233c 4677 8aba d1ac 293f 6c37 39be
00000390: 036c 90be be40 a9bd e3aa d1be 758f a9be
000003a0: 454b 99bf c6bf c83e 0d48 e73c 7820 923e
000003b0: b160 d83e 7300 51bb ff91 323e f039 82be
000003c0: 168b 6e3d f102 223e 8ace 0a3f 73e7 873e
000003d0: 8f20 0fbe 049b c63c fdaa ea3e ce4a 0d3f
000003e0: 4dac 0a3e 575d 75be 456c 123c a505 0e3f
000003f0: 5b7d 1dbe 7ca9 9ebd 0e67 c83e 6a19 3cbf

l4.bias f4 [53]
0.2694623 1.1844757 0.5141449 0.54929715 0.14685681 0.6178709 0.15858865 0.4637845
0.32061496 0.11097984 0.33171952 0.26676366 1.0244994 0.056080274 0.44122013 0.37145412
0.5632558 0.5162043 0.46235424 0.622363 0.059861846 0.40421665 0.062498186 0.6680865
0.28604987 0.56846565 0.50620985 0.57587254 0.82487994 0.2172992 1.1677867 0.18441692
0.03772103 0.0023816673 1.2665457 0.5694692 0.6241363 0.019135915 0.59540176 0.56615114
0.8981898 0.49143872 0.5005108 0.40690768 5.6992685e-06 0.5169906 0.47512472 0.36508304
0.07215048 0.45033005 0.018100662 0.48976058 0.42284018
00000000: f6f6 893e e69c 973f 009f 033f bd9e 0c3f
00000010: a261 163e ca2c 1e3f 1065 223e 2975 ed3e
00000020: a527 a43e 6649 e33d 24d7 a93e 3f95 883e
00000030: cc22 833f 6eb4 653d 9be7 e13e 3c2f be3e
00000040: 8831 103f f725 043f b2b9 ec3e 2e53 1f3f
00000050: b231 753d 7cf5 ce3e 19fe 7f3d b807 2b3f
00000060: 2175 923e f786 113f f896 013f 626c 133f
00000070: 552b 533f ae83 5e3e 097a 953f cad7 3c3e
00000080: 5e81 1a3d bf15 1c3b 2b1e a23f bcc8 113f
00000090: 66c7 1f3f ecc2 9c3c 406c 183f 48ef 103f
000000a0: c4ef 653f db9d fb3e 7a21 003f 3456 d03e
000000b0: 583c bf36 7f59 043f 8c43 f33e 2aec ba3e
000000c0: a1c3 933d a991 e63e d747 943c e6c1 fa3e
000000d0: 827e d83e

l5.weight f4 [85, 53]
-0.35406202 0.5350876 -0.1115779 -0.41563973 -0.034455042 1.026925 -0.013990825 0.28853932
0.101765595 -0.09607255 -0.13174005 0.047087245 0.68072784 0.045416728 0.028200632 -0.2907359
-0.015048425 0.041568045 0.032551985 -0.23568417 0.045301948 0.07308824 -0.34221908 -0.08260627
0.14159642 0.054466292 -0.32919356 -0.17586581 1.2006801 0.21635017 0.18524766 0.15592776
0.032228258 -0.081609465 0.88208854 0.46621197 -0.10404526 -0.31317586 0.9330226 -0.062257573
0.26911634 0.14785871 -0.1506241 0.108614184 -0.041611742 0.01982456 -0.025064558 0.1902243
0.0005111195 -0.032984618 -0.023734443 0.0899585 -0.16140874 0.3651679 0.1983583 0.08241306
0.78876257 0.010405355 -1.1776937 -0.21506612 0.06565672 0.45183885 0.55942535 -0.042239908
0.127646 -0.94041127 0.2758023 0.1532401 0.14971639 0.357499 0.23947608 -0.075844646
0.10012922 0.1714875 0.041115534 0.36689296 0.2952928 -0.207701 0.3698346 0.20677349
0.20731789 -0.9448777 0.1754929 0.47111467 0.097747795 -0.0265916 0.15513302 -0.045493975
-0.42280626 0.4658833 0.24833082 -0.2956979 0.11801927 0.32340333 0.39566767 0.39382085
-0.07323355 0.14263692 0.23333 0.28827432 0.32407796 0.34348074 0.27584288 0.28937873
0.079232514 0.50241834 0.33852884 0.44752118 0.16153178 0.65505064 -0.11094644 -0.6377127
-0.29898924 0.05161369 0.43369383 0.326612 0.16615899 0.08271547 -0.7684179 0.29355282
0.22105443 0.30708966 0.3638157 0.15686989 -0.26660603 0.06799132 -0.0022007918 0.07516277
0.3018178 0.20090275 -0.27477047 0.540195 0.39481667 0.17043771 -0.8089995 0.051528297
0.57924396 0.25590184 -0.016626488 0.33007377 -0.2049562 -0.37112448 0.51388365 0.277266
0.40299895 0.17703922 0.5927452 0.23584692 0.41470292 0.03638061 0.009263738 0.2113408
0.38357532 0.116377965 0.22886185 0.17992084 0.12375602 0.2119418 0.42301172 0.19512078
-0.45916712 0.16040307 0.36197782 0.04929097 -1.0410563 0.058863398 0.16690317 0.16286361
0.2666397 0.34412065 0.0373229 -0.6048784 0.21958333 0.2935612 0.14217447 0.2078465
0.1466401 -0.064549096 0.43212765 0.2253056 0.22019288 0.22601227 0.2661399 -0.04478714
0.44792777 0.25944135 0.19604626 0.12069785 0.097304195 -0.46743622 0.08039367 0.20072487
0.09510084 -1.4467381 0.046883106 0.25114468 0.096996956 -0.16046496 0.16484068 0.23329657
0.25346753 0.25197095 0.2873253 0.20401713 0.21644351 0.17303088 0.14644028 0.039352622
0.2037721 0.21880321 0.19742164 0.15417853 0.029049706 -0.5866014 -0.039167065 0.6592926
-0.031287458 -0.51602846 0.4965805 0.60718405 0.60113424 0.13249986 -0.30170053 0.10659182
0.77300537 0.34874225 0.080423996 0.09460358 0.0072908523 0.21069147 0.62457275 -0.5439691
0.175425 -0.11019946 0.14165147 0.116243094 0.4067164 -0.24758612 -0.18960649 0.24522258
0.4447513 0.18803705 -0.10098726 0.2777698 -0.24699664 0.4870923 0.7219191 0.59204096
0.18279126 -0.062273502 -0.7560416 0.11370174 -0.49788827 0.5788136 0.12801966 0.26725963
00000000: 9e47 b5be 80fb 083f f482 e4bd bbce d4be
00000010: bb20 0dbd 4772 833f c639 65bc 6dbb 933e
00000020: 7b6a d03d afc1 c4bd dde6 06be 8ede 403d
00000030: 2e44 2e3f e406 3a3d 0305 e73c 56db 94be
00000040: ab8d 76bc 4143 2a3d 3b55 053d 3157 71be
00000050: 898e 393d 4aaf 953d 5737 afbe 7a2d a9bd
00000060: a7fe 103e 0c18 5f3d 0f8c a8be 2b16 34be
00000070: e3af 993f e68a 5d3e 90b1 3d3e 87ab 1f3e
00000080: c701 043d dd22 a7bd 8ed0 613f 56b3 ee3e
00000090: ae15 d5bd 9658 a0be 92da 6e3f cc01 7fbd
000000a0: 9ec9 893e 4668 173e 343d 1abe 1d71 de3d
000000b0: 1371 2abd 1e67 a23c 3054 cdbc 29ca 423e
000000c0: a6fc 053a e11a 07bd bc6e c2bc 293c b83d
000000d0: 5548 25be 49f7 ba3e 701e 4b3e 2ec8 a83d
000000e0: 58ec 493f 397b 2a3c abbe 96bf 4b3a 5cbe
000000f0: 0877 863d 6c57 e73e 8036 0f3f c103 2dbd
00000100: a2b5 023e cbbe 70bf f635 8d3e f9ea 1c3e
00000110: 414f 193e 1c0a b73e 3839 753e 7054 9bbd
00000120: 8c10 cd3d 6b9a 2f3e c368 283d 65d9 bb3e
00000130: 9e30 973e 92af 54be f65a bd3e 6ebc 533e
00000140: 244b 543e 81e3 71bf 69b4 333e f135 f13e
00000150: ff2f c83d a1d6 d9bc 31db 1e3e e457 3abd
00000160: 107a d8be 4288 ee3e 6f4a 7e3e b765 97be
00000170: 16b4 f13d 1f95 a53e f494 ca3e e3a2 c93e
00000180: 79fb 95bd 6a0f 123e 0fee 6e3e b198 933e
00000190: 8ced a53e b5dc af3e 473b 8d3e 7329 943e
000001a0: a844 a23d 7d9e 003f a753 ad3e 7f21 e53e
000001b0: 9668 253e 66b1 273f e337 e3bd 2441 23bf
000001c0: 1e15 99be e068 533d 1e0d de3e b039 a73e
000001d0: 9525 2a3e ba66 a93d 09b7 44bf 8e4c 963e
000001e0: 185c 623e db3a 9d3e 0d46 ba3e 80a2 203e
000001f0: 9680 88be 083f 8b3d 293b 10bb f0ee 993d
00000200: dd87 9a3e 73b9 4d3e b7ae 8cbe 384a 0a3f
00000210: 6925 ca3e 3987 2e3e 971a 4fbf 560f 533d
00000220: 5549 143f 9105 833e 4634 88bc 6eff a83e
00000230: 0ae0 51be 0704 bebe e18d 033f cff5 8d3e
00000240: e155 ce3e c549 353e 26be 173f db81 713e
00000250: f153 d43e d603 153d efc6 173c b969 583e
00000260: fc63 c43e 9257 ee3d c35a 6a3e 2b3d 383e
00000270: cc73 fd3d 4507 593e fe94 d83e becd 473e
00000280: f417 ebbe b440 243e 2855 b93e 54e5 493d
00000290: 5541 85bf bf1a 713d aae8 2a3e b8c5 263e
000002a0: 0085 883e 9530 b03e e6df 183d 50d9 1abf
000002b0: 74da 603e a74d 963e 2f96 113e b7d5 543e
000002c0: d328 163e 5132 84bd d63f dd3e 83b6 663e
000002d0: 3e7a 613e c36f 673e 7d43 883e b872 37bd
000002e0: ca56 e53e 7fd5 843e 5ac0 483e 6f30 f73d
000002f0: 6c47 c73d cd53 efbe 70a5 a43d d28a 4d3e
00000300: 3bc4 c23d b72e b9bf 8008 403d 0996 803e
00000310: 57a6 c63d ed50 24be ffcb 283e 4ce5 6e3e
00000320: 7fc6 813e 5602 813e 4d1c 933e dee9 503e
00000330: 5ea3 5d3e 022f 313e 71f4 153e 3730 213d
00000340: a2a9 503e f30d 603e e628 4a3e fae0 1d3e
00000350: a6f9 ed3c 822b 16bf a56d 20bd 66c7 283f
00000360: 4727 00bd 711a 04bf cd3f fe3e 6a70 1b3f
00000370: efe3 193f 0bae 073e 7e78 9abe d04c da3d
00000380: aee3 453f 588e b23e 56b5 a43d 86bf c13d
00000390: 1ae8 ee3b 81bf 573e 00e4 1f3f 8f41 0bbf
000003a0: 9ca2 333e 41b0 e1bd 150d 113e dc10 ee3d
000003b0: 223d d03e 3787 7dbe 3428 42be a11b 7b3e
000003c0: 71b6 e33e c98c 403e 69d2 cebd d837 8e3e
000003d0: b0ec 7cbe 2964 f93e b1cf 383f ff8f 173f
000003e0: a22d 3b3e 8012 7fbd f18b 41bf 75dc e83d
000003f0: 36eb febe 212d 143f 9617 033e 41d6 883e

l5.bias f4 [85]
0.36600655 0.3308471 0.6074445 -0.011487324 0.37301314 0.31730005 0.12310182 0.47267964
-0.03985154 -0.08670687 0.3118346 -0.24113949 0.01725893 0.1985929 -0.010355097 0.1700681
0.23673342 0.35886988 0.2663512 0.094509386 0.5615513 0.043972045 0.46889347 0.095636204
0.37670472 0.29640493 -0.030295638 0.6361302 0.04363389 -0.07717008 -0.07479916 0.012616264
0.15727374 0.041827008 0.20598488 0.37313157 0.03191852 0.20199677 0.034241647 0.76977074
0.45518208 0.14390975 0.3104836 0.38988435 -0.1889646 0.44743723 0.005892065 0.3505423
-0.23432344 -0.16054802 0.36473787 0.3753847 -0.037519865 0.24377419 0.3902345 -0.033019792
0.23765671 0.43804383 0.40013155 -0.3500024 0.24644716 0.39895555 0.35302892 0.016011298
-0.051609658 0.12082321 0.33973375 0.19995213 0.5165355 -0.09138033 0.01948265 0.3259206
0.34542277 1.0330248 0.33835468 0.04317347 0.090826295 0.054887082 0.08682886 0.07774543
0.23775963 0.8402293 0.49550062 0.40439674 0.10989321
00000000: 3665 bb3e cb64 a93e 7c81 1b3f 5435 3cbc
00000010: 94fb be3e 2775 a23e cf1c fc3d 1103 f23e
00000020: 5e3b 23bd 5f93 b1bd c9a8 9f3e 45ed 76be
00000030: 9962 8d3c f05b 4b3e 6da8 29bc 5526 2e3e
00000040: 3f6a 723e cbbd b73e 2f5f 883e 238e c13d
00000050: d3c1 0f3f 081c 343d ce12 f03e eadc c33d
00000060: 71df c03e 63c2 973e 8f2e f8bc 6ed9 223f
00000070: 73b9 323d 590b 9ebd 4d30 99bd 72b4 4e3c
00000080: 5e0c 213e cc52 2b3d b3ed 523e 1a0b bf3e
00000090: febc 023d 3ed8 4e3e f840 0c3d b20f 453f
000000a0: a00d e93e 145d 133e b5f7 9e3e ec9e c73e
000000b0: f07f 41be 7e16 e53e 3912 c13b 487a b33e
000000c0: 7cf2 6fbe b366 24be ecbe ba3e 6c32 c03e
000000d0: 6eae 19bd f19f 793e d1cc c73e c33f 07bd
000000e0: 485c 733e 4847 e03e 0bde cc3e 8433 b3be
000000f0: a55c 7c3e e743 cc3e 35c0 b43e 202a 833c
00000100: a664 53bd 2972 f73d 95f1 ad3e 40c0 4c3e
00000110: ac3b 043f 9c25 bbbd 149a 9f3c 11df a63e
00000120: 41db b03e 283a 843f d33c ad3e aad6 303d
00000130: 2303 ba3d 47d1 603d 54d3 b13d ff38 9f3d
00000140: 4377 733e 4419 573f 42b2 fd3e 170d cf3e
00000150: b10f e13d

l6.weight f4 [3, 85]
0.49263853 -0.3188037 -0.25521776 -0.21141592 -0.36902046 0.6471036 -0.27337 -0.52673507
0.79636383 0.49473408 -0.19703881 -0.06672306 0.6365313 -0.27949378 -0.151846 0.5410728
-0.30605996 -0.25464866 -0.39142764 0.06495102 -0.34148574 0.5280622 -0.27203503 -0.19363326
-0.29072207 -0.5020879 0.683408 1.3507702 -0.53455085 0.499504 0.39172488 -0.18021695
0.04892024 -0.14047003 -0.096310884 0.19188042 0.38689867 -0.22263803 -0.20143564 -0.50169885
-0.3171888 -1.3707347 -0.6802597 -0.20894015 0.3927838 -0.321355 0.44981587 -0.3347476
0.05768265 -0.021502428 -0.21991073 -0.37531954 0.031106792 -0.44904792 -0.5038562 -0.30577147
-0.27911344 -0.6445428 -0.38428277 0.123557255 0.5079628 -0.3007586 -0.22215775 0.4968862
-0.17801249 0.019051647 -0.28506818 -0.24828534 0.7114191 0.44732442 -0.3098921 -0.12353781
-0.36909276 2.1820593 -0.073443204 0.46024722 -0.27129042 -0.09339583 -0.12071337 -0.11752402
-0.7556204 0.5954304 -0.3349035 0.04303235 0.05569221 0.69067305 -0.2466768 -0.2897623
-0.32573983 0.20769976 0.6688897 0.25534186 0.27196288 -0.00635991 -0.18767175 -0.3482892
-0.22922097 -0.10078483 -0.067912206 -0.23412794 0.11654277 0.15253699 -0.3218727 -0.09837632
0.18898182 -0.04776505 -0.38078076 -0.29453567 -0.19660126 -0.3410236 1.0455256 -0.07987228
-0.24859028 0.07777303 -0.46648976 -0.0764342 0.12406547 -0.4783384 -0.19772048 1.2445573
-0.6083998 -0.35211822 -0.1750804 0.025114834 0.14124092 -0.011481965 0.48240986 0.5453038
-0.30335027 0.021710355 -0.22502097 -0.07751182 0.09037826 -0.40413386 -0.16563359 -0.35896283
0.07790583 -0.40103477 0.1974879 -0.019742966 -0.9719937 -0.2985035 0.33564422 -0.07028397
-0.32783583 0.15155119 0.78044987 -0.24776608 -0.27225652 -0.059374984 -0.45703903 0.086001046
1.4594122 0.6124099 -0.15779224 0.15709308 1.5306495 0.7973648 1.7264202 -0.48667586
-0.4215598 -0.20099263 -0.4300012 0.1792717 -0.25288156 0.41330552 0.76544166 0.19218658
-0.509227 -0.5270991 -0.49146688 0.10947238 0.19741653 -0.16935496 -0.28726372 -0.42683914
-0.40887213 0.35200876 -0.6513364 -0.28605837 -0.008893343 -0.29607248 -0.57637215 -0.18973044
-0.23787494 -0.7740228 -0.3535774 0.0757489 -0.2514663 -0.44192934 -0.03189781 -0.7878908
0.13812071 -0.28880048 0.029252172 -0.12635018 -0.6472869 0.89465284 1.0491707 0.026487386
-0.27093518 -0.3846339 0.10375903 -0.33001018 0.08642806 0.41525322 0.08739895 -0.26999518
-0.37446886 -0.071936555 -0.23049058 0.825104 0.7588537 0.1413131 -0.28495374 -0.015224352
-0.84416384 -0.28486228 -0.19017623 -0.21659228 -0.021333126 -0.29764846 -0.17640394 0.3208305
1.1149158 0.5845844 -0.106803335 0.41494092 -0.1529532 -0.21365343 -0.43566743 0.06358516
-0.026494456 -0.044667035 -0.35274658 0.006143555 -0.33534747 -0.94626623 -1.1465348 -0.22876899
0.25928113 1.3867564 0.3638811 1.813898 0.15736867 0.09564398 -0.2216082 0.04471972
0.25985733 -0.2513322 0.64292926 1.4257805 -0.23394904 0.2642428 0.09034259
00000000: 1e3b fc3e 3d3a a3be e7ab 82be 6a7d 58be
00000010: 40f0 bcbe 95a8 253f 27f7 8bbe 1cd8 06bf
00000020: 80de 4b3f c94d fd3e 8bc4 49be 1aa6 88bd
00000030: b7f3 223f cf19 8fbe 857d 1bbe bf83 0a3f
00000040: e4b3 9cbe 4f61 82be 3469 c8be 0a05 853d
00000050: 38d7 aebe 162f 073f 2d48 8bbe cc47 46be
00000060: 86d9 94be d588 00bf d4f3 2e3f 0ae6 ac3f
00000070: 53d8 08bf fdbe ff3e 2a90 c83e cb8a 38be
00000080: 9760 483d 60d7 0fbe a43e c5bd 4d7c 443e
00000090: 9517 c63e 39fb 63be 2545 4ebe 566f 00bf
000000a0: 9266 a2be 3c74 afbf 8025 2ebf 68f4 55be
000000b0: f51a c93e a488 a4be 444e e63e 0a64 abbe
000000c0: a444 6c3d dc25 b0bc 4730 61be e229 c0be
000000d0: acd3 fe3c 9ce9 e5be b8fc 00bf 148e 9cbe
000000e0: f5e7 8ebe c200 25bf b6c0 c4be 960b fd3d
000000f0: da09 023f 08fd 99be 527d 63be de67 fe3e
00000100: e848 36be 3312 9c3c 75f4 91be 833e 7ebe
00000110: 901f 363f b507 e53e 2daa 9ebe 6401 fdbd
00000120: baf9 bcbe dca6 0b40 6469 96bd 86a5 eb3e
00000130: 94e6 8abe 5046 bfbd 9238 f7bd 6fb0 f0bd
00000140: 5770 41bf 206e 183f 7978 abbe b042 303d
00000150: 841d 643d f3cf 303f d898 7cbe b95b 94be
00000160: 5fc7 a6be 3faf 543e 5b3c 2b3f 2bbc 823e
00000170: b83e 8b3e cb66 d0bb 062d 40be f652 b2be
00000180: e7b8 6abe 4768 cebd 8e15 8bbd 3cbf 6fbe
00000190: faad ee3d a832 1c3e 80cc a4be 8679 c9bd
000001a0: 7384 413e 49a5 43bd b2f5 c2be 61cd 96be
000001b0: d751 49be a59a aebe c8d3 853f 1494 a3bd
000001c0: 738e 7ebe 7747 9f3d bfd7 eebe 8989 9cbd
000001d0: 0a16 fe3d c5e8 f4be 3d77 4abe a74d 9f3f
000001e0: 17c0 1bbf d748 b4be 4748 33be a0bd cd3c
000001f0: 76a1 103e da1e 3cbc 6dfe f63e 0899 0b3f
00000200: ba50 9bbe ead9 b13c e66b 66be 84be 9ebd
00000210: 3d18 b93d a2ea cebe da9b 29be fac9 b7be
00000220: 188d 9f3d 6e54 cdbe 453a 4a3e 00bc a1bc
00000230: 94d4 78bf 73d5 98be 8fd9 ab3e 0bf1 8fbd
00000240: 19da a7be 3c30 1b3e 90cb 473f 64b6 7dbe
00000250: 3565 8bbe 2f33 73bd 0501 eabe 5121 b03d
00000260: 05ce ba3f e5c6 1c3f 4a94 21be 02dd 203e
00000270: 53ec c33f 1920 4c3f 56fb dc3f 942d f9be
00000280: b0d6 d7be 03d1 4dbe 1e29 dcbe 0093 373e
00000290: b179 81be c89c d33e fcf3 433f 8fcc 443e
000002a0: b35c 02bf f7ef 06bf 8ca1 fbbe 0e33 e03d
000002b0: 8f27 4a3e 636b 2dbe 3b14 93be a98a dabe
000002c0: b057 d1be 7e3a b43e fbbd 26bf 3e76 92be
000002d0: 62b5 11bc d096 97be 208d 13bf b248 42be
000002e0: 7d95 73be 5c26 46bf 1908 b5be 3d22 9b3d
000002f0: 31c0 80be 9044 e2be 47a7 02bd 36b3 49bf
00000300: 846f 0d3e a8dd 93be 40a2 ef3c f161 01be
00000310: 98b4 25bf f807 653f 3a4b 863f 13fc d83c
00000320: 04b8 8abe bcee c4be 9d7f d43d 18f7 a8be
00000330: 3201 b13d 129c d43e 38fe b23d cf3c 8abe
00000340: 62ba bfbe 7953 93bd b905 6cbe 043a 533f
00000350: 3c44 423f 62b4 103e 75e5 91be 8f6f 79bc
00000360: 1f1b 58bf 78d9 91be 8fbd 42be 5eca 5dbe
00000370: cfc2 aebc 6165 98be 3ca3 34be e543 a43e
00000380: 90b5 8e3f 53a7 153f b5bb dabd 2373 d43e
00000390: c39f 1cbe f7c7 5abe cd0f dfbe f038 823d
000003a0: e70a d9bc c8f4 36bd 339b b4be e04f c93b
000003b0: aab2 abbe 813e 72bf a7c1 92bf 6b42 6abe
000003c0: 7fc0 843e 3c81 b13f a04e ba3e cf2d e83f
000003d0: 4125 213e fee0 c33d 43ed 62be 062c 373d
000003e0: 050c 853e 9dae 80be 0397 243f fa7f b63f
000003f0: 5690 6fbe d54a 873e 8905 b93d

l6.bias f4 [3]
-0.49943116 0.033133056 0.2657218
00000000: 71b5 ffbe 87b6 073d b00c 883e
