models/Others/model_PGNN_100_1e-2.pt (torch, 127233 bytes, 12 tensors)

l1.weight f4 [189, 9]
0	0xbda55a5a	-0.08073874
1	0x3db02e7f	0.086026184
2	0x3f63827e	0.8887099
3	0x3f38faf0	0.722579
4	0xbfb75833	-1.4323791
5	0x3f07e199	0.5307861
6	0xbeb1824d	-0.34669724
7	0x3b83475a	0.0040063085
8	0xbae7a684	-0.0017673527
9	0xbc87f66e	-0.016596999
10	0x3f2d3a02	0.6766664
11	0xbf90368a	-1.1266644
12	0xbef3ac76	-0.47592515
13	0xbf1faa89	-0.6236959
14	0xbf6c504f	-0.9231004
15	0xbd10b42a	-0.035328068
16	0xbf30f010	-0.69116306
17	0xbe05422b	-0.13013522
18	0xbe9520f7	-0.29126713
19	0x3e94a75f	0.29033944
20	0x3f85f175	1.0464312
21	0xbe489a62	-0.19590142
22	0x3e07886b	0.13235633
23	0x3e1646ef	0.14675497
24	0x3eba6d92	0.3641172
25	0xbed7f8f7	-0.42182133
26	0xbe460fc0	-0.19341946
27	0x3c23057e	0.00995004
28	0xbd730659	-0.059332225
29	0x3fcf9ff7	1.6220692
30	0xbf1c5d76	-0.6108011
31	0xbef16d97	-0.47153923
32	0x3d39cd03	0.04536153
33	0xbead57e8	-0.3385613
34	0xbea12973	-0.31476936
35	0xbf1a8479	-0.6035839
36	0xbac5cd33	-0.0015091061
37	0x3eb56ade	0.35433096
38	0xbf72bb86	-0.9481739
39	0xbd86f049	-0.065887995
40	0x3f173b77	0.5907511
41	0xbf6f65ca	-0.9351469
42	0xbe6ad155	-0.22931416
43	0xbf6faa69	-0.936194
44	0xbe27b0d5	-0.1637605
45	0xbb753e2e	-0.0037421095
46	0x3f383d05	0.7196811
47	0x3ee07b8f	0.43844268
48	0xbe89244c	-0.26785505
49	0xbe3bbe35	-0.18334277
50	0x3f1e8b86	0.61931646
51	0xbfaf0c5b	-1.3675646
52	0xbfb759f1	-1.4324323
53	0xbeecb81f	-0.46234223
54	0xb9ba6b61	-0.00035556688
55	0xbf3596d2	-0.7093326
56	0xbf04f38c	-0.51934123
57	0xbe850700	-0.25981903
58	0xbfc4354e	-1.5328767
59	0x3fa2f44f	1.2730807
60	0x3da70ae6	0.081563756
61	0xbe8a9b9a	-0.2707184
62	0x3f57c81b	0.8428971
63	0xbc74d22a	-0.014942685
64	0xbf5d8272	-0.8652717
65	0xbf5facca	-0.8737303
66	0xbe7efd6b	-0.24901359
67	0x3f2aab3a	0.6666752
68	0xbfacdaad	-1.3504235
69	0xbe9ec907	-0.31012747
70	0xbcf4575c	-0.029826812
71	0x3e4e8f03	0.20171742
72	0x3bbcb099	0.005758357
73	0xbf2bed46	-0.67158926
74	0xbf7e1019	-0.99243313
75	0xbe83b657	-0.25725052
76	0xbf1229a8	-0.5709481
77	0xbf542a09	-0.8287664
78	0x3f3937ae	0.72350585
79	0x3ef56906	0.4793169
80	0xbd09a39e	-0.033603303
81	0x3c579396	0.013157746
82	0xbf08aefb	-0.53392
83	0x3fa36c83	1.276749
84	0xbf386f98	-0.7204528
85	0x3f67b7ef	0.90515035
86	0x3e03c949	0.12869753
87	0x3e67e5e2	0.22646287
88	0x3ead390d	0.3383259
89	0xbf18ca69	-0.59683853
90	0x3df85ba4	0.12126854
91	0xbe8b6b64	-0.2723037
92	0x3f97730f	1.1831988
93	0x3f3d4e9c	0.73948073
94	0xbd9921a6	-0.07477121
95	0xbe52afa7	-0.20574819
96	0x3e728c9b	0.23686449
97	0xbf15dfd7	-0.5854468
98	0xbf1f03c0	-0.621151
99	0xb9202530	-0.00015272642
100	0x3f0cc9b3	0.5499527
101	0xbf850d17	-1.039462
102	0xbe0ccbe9	-0.1374966
103	0x3d7e27be	0.06204962
104	0xbe3acae5	-0.1824146
105	0x3de5eb0a	0.11226471
106	0x3f5adaa6	0.8548988
107	0x3ec4733a	0.3836916
108	0x3ae698d6	0.0017593156
109	0x3f32bf74	0.69823384
110	0xbf9a8817	-1.2072781
111	0x3ebf3446	0.3734457
112	0x3f12dfc2	0.5737268
113	0xbdac0a85	-0.08400444
114	0xbf4e67e1	-0.80627257
115	0xbf560f52	-0.83617127
116	0xbd111027	-0.035415795
117	0xbb87ca4b	-0.0041439882
118	0x3d6457d4	0.055747822
119	0xbf4ebbe0	-0.80755424
120	0x3ada015e	0.0016632488
121	0x3f078f6c	0.5295322
122	0xbf9f94d6	-1.2467296
123	0x3d9a0320	0.07520127
124	0xbf588451	-0.845769
125	0x3eb1ae17	0.34703133
126	0x3ce9e14f	0.028549818
127	0xbf0c9a62	-0.5492307
128	0xbeedd678	-0.4645269
129	0xbf874027	-1.0566453
130	0xbde47573	-0.11155214
131	0xbfe6748f	-1.8004321
132	0x3f7bc23d	0.9834326
133	0xbed9d59e	-0.4254579
134	0x3f0bea28	0.5465417
135	0xbbd2eff8	-0.006437298
136	0xbedf8182	-0.43653494
137	0xbf2c2ee2	-0.6725904
138	0x3e8c95fb	0.27458176
139	0xbf1d96fa	-0.61558497
140	0xbec9ebdd	-0.39437762
141	0xbf6c9986	-0.9242176
142	0x3dc3691d	0.09541533
143	0xbedd0f55	-0.4317576
144	0xbc0f6e4b	-0.008754323
145	0xbe711900	-0.23544693
146	0xbf8dcf08	-1.1078806
147	0xbe99de7a	-0.3005255
148	0x3fcf616c	1.6201606
149	0x3da66e9a	0.08126564
150	0xbe8b1e54	-0.27171576
151	0x3dca08df	0.09864973
152	0x3f1f97b9	0.62340885
153	0x3ba3d705	0.0049999976
154	0xbe60bbeb	-0.21946685
155	0xbf5936e8	-0.84849405
156	0xbd539247	-0.051653173
157	0xbf43f66e	-0.76547897
158	0xbf5a0626	-0.8516563
159	0xbecdbfb7	-0.4018533
160	0xbec80bbb	-0.3907145
161	0x3e8d3797	0.27581474
162	0x395a87a3	0.00020840629
163	0x3e7a47aa	0.244414
164	0xbf239541	-0.6389962
165	0x3d59aff6	0.053146325
166	0xbfb037a9	-1.3766986
167	0xbd130486	-0.035892986
168	0x3da1ad6a	0.07894404
169	0x3f64be6d	0.89353067
170	0x3f038359	0.51372296
171	0xbc4aa60f	-0.012368693
172	0x3f4250de	0.75904644
173	0x3e9f3a5d	0.31099215
174	0xbefb820a	-0.4912265
175	0x3e6542b3	0.22388725
176	0x3fd7ee4b	1.6869596
177	0x3ea9a942	0.33136946
178	0xbfb67b34	-1.4256349
179	0xbe65ed9b	-0.2245392
180	0xbd84e89b	-0.064896785
181	0x3ea3d6f2	0.31999928
182	0x3f1d02c3	0.6133234
183	0x3f1539f9	0.58291584
184	0xbfe8316c	-1.8140082
185	0xbef18560	-0.4717207
186	0x3e2ab767	0.16671525
187	0xbe34ec7e	-0.1766834
188	0xbe59e1a2	-0.21277478
189	0x3c3ecf39	0.011646085
190	0xbf86035e	-1.0469778
191	0xbf381531	-0.71907336
192	0x3eda2b5b	0.42611203
193	0xbdc09dce	-0.09405099
194	0x3f8f02bd	1.1172711
195	0x3f41dca3	0.7572729
196	0x3ec9fe6a	0.39451915
197	0x3cb330b1	0.021873804
198	0x3ca5a371	0.020219536
199	0x3f99bcf3	1.2010788
200	0x3f005dd6	0.5014318
201	0xbe6458e4	-0.22299534
202	0xbf1cfbe4	-0.61321855
203	0x3e550ae3	0.20804934
204	0xbfe7f3c9	-1.8121272
205	0xbf9ec89c	-1.2404971
206	0xbf360f06	-0.71116674
207	0x3cfdb536	0.030970197
208	0xbed12f4f	-0.40856406
209	0xbd8a4c2a	-0.067528084
210	0x3faed0be	1.3657453
211	0x3ea599c4	0.32343876
212	0x3e871fb8	0.26391387
213	0x3f356976	0.70864046
214	0xbf075d41	-0.5287667
215	0x3f89ba1d	1.0759922
216	0xbc4acd58	-0.012378059
217	0xbd8c551c	-0.06852171
218	0x3f1aad0c	0.604203
219	0x3e86e889	0.26349285
220	0xbfd9f81d	-1.7028843
221	0xbed58a0c	-0.41706884
222	0xbf0ef13f	-0.5583686
223	0x3e09191d	0.13388486
224	0xbf270c90	-0.65253544
225	0xba02af4c	-0.0004985228
226	0x3f6831b5	0.90700847
227	0xbf8231c8	-1.0171442
228	0x3dce8b41	0.10085154
229	0xbf939d54	-1.1532388
230	0xbe769904	-0.24081808
231	0x3e591a56	0.21201453
232	0x3f03820a	0.513703
233	0x3de39528	0.11112434
234	0xbd1fe667	-0.03903809
235	0xbf88a19c	-1.0674319
236	0xbfb2f213	-1.3980125
237	0xbf733f16	-0.95018137
238	0x3f1f98b9	0.6234241
239	0x3ec1cb24	0.37850296
240	0xbe939351	-0.2882333
241	0xbebcd272	-0.36879307
242	0x3f12e581	0.57381445
243	0x3e2e67ce	0.17031786
244	0xbe52edab	-0.20598476
245	0x3f89ab0a	1.0755322
246	0xbf40ecda	-0.75361407
247	0xbe9e0267	-0.30861208
248	0xbcf5ea52	-0.03001896
249	0x3dc94572	0.09827699
250	0xbe0e1c8f	-0.13878082
251	0xbf3ccd7f	-0.7375106
252	0x3b3d4b91	0.0028884152
253	0x3e94b5e7	0.2904503
254	0xbf22bb0f	-0.6356668
255	0xbeb7f64b	-0.35930094

l1.bias f4 [189]
0	0xbf1b4c30	-0.6066313
1	0x3e8820a4	0.26587403
2	0xbec3d694	-0.38249648
3	0x3c3e42e7	0.01161263
4	0x3ebb36d5	0.3656527
5	0x3e8ca334	0.27468264
6	0x3f216197	0.63039535
7	0x3ecd0bde	0.40048116
8	0x3d727e99	0.059202764
9	0xbea31fb5	-0.31860128
10	0xbf364661	-0.7120114
11	0x3f1f6014	0.6225598
12	0xbe26dcf0	-0.16295218
13	0x3e971ed6	0.29515713
14	0x3ea97853	0.33099613
15	0xbe6c42bb	-0.2307233
16	0xbe433c8c	-0.19066066
17	0x3ea965fe	0.33085626
18	0x3efdc03c	0.49560726
19	0x3f077b45	0.5292247
20	0xbe2da3b9	-0.16956986
21	0xbd8d2e89	-0.068936415
22	0xbe397f3d	-0.18114944
23	0xbf13da60	-0.5775509
24	0xbdd7df27	-0.1054061
25	0x3f06b4b4	0.5261948
26	0xbecc4b04	-0.39900982
27	0xbe3b194b	-0.18271367
28	0x3e8400f3	0.25781974
29	0xbe6c0c08	-0.23051465
30	0x3dc02dae	0.09383713
31	0x3df026f9	0.117261834
32	0x3f24ba05	0.64346343
33	0x3e08f17e	0.13373372
34	0xbcb6f2b9	-0.022332536
35	0x3e27b00f	0.16375755
36	0x3ccf5400	0.025308609
37	0xbef24532	-0.47318417
38	0xbef9664d	-0.48710862
39	0xbeae6d28	-0.34067655
40	0x3f601648	0.87534
41	0x3ea5c734	0.32378542
42	0xbf01f35b	-0.50761956
43	0x3e0ba79e	0.1363816
44	0x3f1a735a	0.6033226
45	0x3ea46f04	0.32115948
46	0x3e948e67	0.29014894
47	0x3d9eb7f7	0.07749932
48	0xbd8e160d	-0.069377996
49	0xbf214815	-0.63000613
50	0x3e168303	0.14698415
51	0x3e8fb243	0.2806569
52	0xbe244d1a	-0.16045037
53	0xbf20aa74	-0.6276009
54	0xbf25c738	-0.6475711
55	0x3ecccc2d	0.39999524
56	0x3da12ea3	0.078702234
57	0xbdbe15e4	-0.09281519
58	0xbda04219	-0.07825107
59	0x3ec36cef	0.38169047
60	0xbed7b758	-0.42132068
61	0x3ee8bea9	0.45457962
62	0xbe0b17f9	-0.13583364
63	0xbea85a74	-0.3288151
64	0x3c9b4aa4	0.01895649
65	0xbbfa4181	-0.007637203
66	0xbef38931	-0.47565606
67	0x3e034683	0.12819867
68	0xbd8e084f	-0.069351785
69	0x3ebf9ed9	0.3742588
70	0xbf30d1bf	-0.6907005
71	0xbe6048e6	-0.21902809
72	0xbe8c19e0	-0.2736349
73	0x3ee44500	0.44583893
74	0xbe83efdc	-0.25768936
75	0x3e365f05	0.17809685
76	0x3e990d89	0.2989314
77	0x3ef84e2d	0.48497143
78	0x3c470afe	0.012148617
79	0xbe6be2c6	-0.23035726
80	0x3e1131ff	0.14179228
81	0xbe84b9c5	-0.2592298
82	0xbd0fca6a	-0.035105146
83	0x3eb3d53e	0.35123628
84	0x3e86a37c	0.26296604
85	0x3ed8255e	0.4221601
86	0x3f3ae2be	0.7300223
87	0xbe18b1d1	-0.14911582
88	0xbd7c1732	-0.06154556
89	0x3d6bd61b	0.057577234
90	0x3edb4a45	0.428301
91	0xbf28141d	-0.6565569
92	0x3d5aba54	0.053400353
93	0xbf367783	-0.7127611
94	0x3e892adb	0.2679051
95	0xbe97cf39	-0.29650286
96	0xbddb3124	-0.10702732
97	0x3f0c51fb	0.5481259
98	0xbee23ace	-0.4418549
99	0x3df4f507	0.11960798
100	0xbd1ea33e	-0.0387299
101	0x3ea956bf	0.33073995
102	0x3dc60002	0.0966797
103	0xbe3be4f5	-0.18349059
104	0xbec02d33	-0.37534484
105	0xbe890fb4	-0.26769793
106	0xbd987887	-0.07444864
107	0x3e482a7c	0.19547457
108	0x3e7c9c5f	0.24669026
109	0x3e979826	0.29608268
110	0x3c620084	0.013794068
111	0x3e9159b2	0.28388745
112	0xbea25f2b	-0.31713232
113	0xbeaddb48	-0.3395636
114	0x3e87c43a	0.26516896
115	0x3d607e08	0.054807693
116	0x3eca184c	0.39471662
117	0x3ea69bef	0.32540843
118	0x3ea017b2	0.31268078
119	0xbf0c0a7b	-0.5470349
120	0x3c395869	0.0113125825
121	0xbef3371f	-0.47502992
122	0xbe9c2a46	-0.30501002
123	0x3e9bacba	0.30405217
124	0xbdf7b01a	-0.120941356
125	0x3ebdb072	0.3704868
126	0x3e5a13d4	0.21296626
127	0x3e52bbfb	0.20579521
128	0x3eb0415d	0.34424868
129	0x3ec7fcd1	0.3906007
130	0xbdc93b20	-0.0982573
131	0xbe8f0302	-0.27931982
132	0x3e1f355a	0.15547696
133	0xbd6622b8	-0.056185454
134	0x3e3af08b	0.18255822
135	0x3dc7d5a0	0.097575426
136	0xbd88c3d9	-0.0667798
137	0xbe8a1ee9	-0.26976708
138	0xbec24590	-0.37943697
139	0xbe048133	-0.1293991
140	0x3d6eba50	0.05828315
141	0xbd94c247	-0.07263618
142	0xbd8cb221	-0.06869913
143	0x3a21e230	0.0006175367
144	0x3ea0ef3c	0.3143252
145	0xbc491ab1	-0.01227443
146	0x3e5c1f66	0.21496353
147	0xbf0e1369	-0.5549837
148	0x3d8baca9	0.06820042
149	0xbf053579	-0.5203472
150	0x3efdd840	0.49579048
151	0x3f42d260	0.76102257
152	0xbb762adf	-0.0037562174
153	0x3ed12aae	0.40852875
154	0x3e905a91	0.28194097
155	0xbeb92f68	-0.3616898
156	0x3ee4e6dc	0.44707382
157	0xbd9b1bc6	-0.07573657
158	0xbea0eb4e	-0.31429523
159	0xbeb002d9	-0.34377173
160	0x3f3e5562	0.74349034
161	0x3d81866a	0.063244656
162	0xbd444708	-0.047919303
163	0xbf01f506	-0.507645
164	0xbea36cfc	-0.31919086
165	0x3f101c8c	0.5629356
166	0x3f0f8c24	0.5607321
167	0x3ebd9126	0.37024802
168	0x3f1c3703	0.6102144
169	0xbf103065	-0.56323844
170	0x3eabc6d9	0.33550146
171	0x3efef2c1	0.49794582
172	0xbea2831f	-0.31740662
173	0xbd8f562a	-0.06998856
174	0xbe024a0f	-0.12723564
175	0xbe30a548	-0.1725055
176	0x3dc21d32	0.09478225
177	0xbf3ddca3	-0.7416479
178	0x3efc2673	0.49248084
179	0x3ea64c4f	0.32480094
180	0x3e999570	0.29996824
181	0xbed1e6fd	-0.40996543
182	0xbf03e969	-0.5152803
183	0xbe64e240	-0.22351933
184	0x3e4cafff	0.19989012
185	0x3f21d84f	0.63220686
186	0xbf06722f	-0.5251798
187	0xbf01d36c	-0.5071323
188	0x3e2d8a54	0.16947299

l2.weight f4 [119, 189]
0	0x3ced422f	0.028962223
1	0xbc006a83	-0.007837894
2	0x3cf2f491	0.029657634
3	0xbde59ab0	-0.11211145
4	0xbdd736dc	-0.105085105
5	0xbeccfe64	-0.40037835
6	0xbf00edde	-0.50362957
7	0xbe1cc9fc	-0.15311426
8	0xbd646e94	-0.055769518
9	0xbbf63377	-0.0075134593
10	0x3d9b7d72	0.07592286
11	0x3eae7253	0.34071597
12	0x3d36ba0e	0.04461103
13	0xbda76011	-0.0817262
14	0xbe4ca617	-0.19985233
15	0xbda58864	-0.08082655
16	0x3dd5c335	0.104376234
17	0xbde75834	-0.1129612
18	0x3d710bcb	0.058849137
19	0xbe5729e0	-0.21012068
20	0xbda482cc	-0.0803276
21	0x3cc0b165	0.023522088
22	0xbe4e1d77	-0.20128427
23	0x3dff4f0e	0.1246625
24	0x3d401b0a	0.046900786
25	0x3ddf86f9	0.10914416
26	0x3e133cb4	0.14378625
27	0x3c0ce35f	0.008599131
28	0xbde2d0d9	-0.11074991
29	0x3c3b1caf	0.011420413
30	0xbba92829	-0.005162258
31	0xbd95fff5	-0.073242106
32	0xbe381ab1	-0.17978932
33	0xbdb67a58	-0.08910054
34	0xbdd86b7c	-0.10567376
35	0x3e15a0cb	0.14612119
36	0xbe5a781b	-0.21334879
37	0x3c97b5ac	0.018519245
38	0x3c850345	0.01623691
39	0xbe1072eb	-0.14106338
40	0xbe8b6725	-0.2722713
41	0xbe2c8d4e	-0.16850778
42	0x3b9f3bf0	0.00485944
43	0x3e665eac	0.22497052
44	0x3e24acd8	0.1608156
45	0x3eedd73a	0.46453267
46	0x3e1b6b34	0.15177613
47	0x3eaa8c48	0.3331015
48	0xbdb9940c	-0.09061441
49	0x3de5b3b1	0.11215914
50	0x3e5f49c6	0.21805486
51	0x3ea7bce6	0.32761306
52	0x3d11d972	0.035607763
53	0x3c4007cb	0.011720608
54	0xbcbe14b4	-0.023203231
55	0x3e82405d	0.2543973
56	0xbda1168d	-0.07865629
57	0xbd30def7	-0.043181386
58	0xbdf2d4e6	-0.118570134
59	0xbd80bd2e	-0.06286083
60	0xbd7a7432	-0.06114597
61	0xbe377c0e	-0.17918417
62	0xbe8438b6	-0.25824517
63	0x3d4e0c6c	0.050304815
64	0x3f03accc	0.5143554
65	0x3ccd4eea	0.025062043
66	0x3d20574f	0.039145764
67	0x3e94a8dd	0.29035082
68	0xbc25d1d5	-0.010120829
69	0x3e477c17	0.1948093
70	0xbd53d321	-0.05171502
71	0xbde31686	-0.110882804
72	0x3de43258	0.11142415
73	0xbc133a86	-0.008986121
74	0xbcdede07	-0.02720548
75	0x3df52758	0.11970395
76	0x3c22147d	0.00989258
77	0x3d9b2659	0.075756736
78	0xbe808d68	-0.25107884
79	0x3dd2f09b	0.10299798
80	0x3d6b681c	0.057472333
81	0xbca13cf6	-0.019682389
82	0x3eadaf35	0.33922735
83	0x3dc935bd	0.09824703
84	0xbea3657a	-0.31913358
85	0xbcff9680	-0.031199694
86	0xbe847df3	-0.25877342
87	0xbc01cd93	-0.007922548
88	0xbdaefa24	-0.08543804
89	0x3cc3cac5	0.023900399
90	0x3bc1f279	0.0059187976
91	0x3d9945f4	0.074840456
92	0x3ec25c86	0.37961215
93	0xbcd205bc	-0.0256375
94	0xbe452d2f	-0.19255517
95	0x3d8b784c	0.06810054
96	0x3e86cf06	0.2632982
97	0x3da2a6c9	0.07941968
98	0x3dea4507	0.11438947
99	0x3da1d00e	0.079010114
100	0x3d04ad2f	0.032391723
101	0xbf05193a	-0.5199162
102	0x3bf27532	0.0073992247
103	0xbf03e0cb	-0.5151488
104	0x3b64460a	0.0034831786
105	0xbd091618	-0.033468336
106	0xbd7c1090	-0.061539233
107	0x3cb2cd49	0.021826403
108	0xbdf2d87c	-0.11857697
109	0xbe6749b4	-0.2258671
110	0x3e525a56	0.20542273
111	0xbe6c887d	-0.23098941
112	0x3b9e0e7d	0.0048235045
113	0x3c36f9b8	0.011167936
114	0x3bc8e541	0.006130845
115	0x3cbce741	0.02305949
116	0xbe37c11c	-0.17944759
117	0xbe1fa0b4	-0.15588647
118	0xbc886263	-0.016648477
119	0x3d823b64	0.06358984
120	0x3dd322b9	0.10309357
121	0x3e3f93f7	0.18708788
122	0xbd806b32	-0.06270446
123	0x3d992cb0	0.074792266
124	0x3d045730	0.03230971
125	0xbea712a4	-0.3263141
126	0xbd002916	-0.031289183
127	0x3e1ca6d5	0.15298016
128	0x3dfaee1b	0.12252446
129	0xbe167dcf	-0.1469643
130	0x3d6fb898	0.05852565
131	0xbda108d1	-0.0786301
132	0x3b889f0a	0.0041693496
133	0x3d5de189	0.054170165
134	0x3db23a50	0.087025285
135	0x3dfb36ce	0.122663125
136	0x3db64647	0.08900123
137	0x3d0c1bcc	0.034206197
138	0x3c543195	0.012951274
139	0xbd9295fb	-0.07157513
140	0x3e5008fe	0.2031593
141	0xbcd7a5a5	-0.026324103
142	0x3ddb4c71	0.107079394
143	0x3def2471	0.116768725
144	0xbeb20c04	-0.34774792
145	0x3b917eea	0.004440178
146	0x3c99cac5	0.018773446
147	0x3dc9edc6	0.09859805
148	0xbdb03833	-0.08604469
149	0x3cea630c	0.028611682
150	0x3e907e15	0.28221193
151	0x3d2e0e57	0.042494144
152	0xbc8abab0	-0.016934723
153	0xbe4d2714	-0.20034438
154	0xbe2e8c28	-0.17045653
155	0x3da50966	0.08058433
156	0xbe2cf1ec	-0.16889161
157	0x3dd183b0	0.102301955
158	0x3de4ad11	0.11165822
159	0xbbc7157d	-0.0060755596
160	0xbed808d8	-0.42194247
161	0x3eb493c7	0.35268995
162	0xbdbb20c0	-0.09137106
163	0x3d212fad	0.039352108
164	0xbde0989d	-0.10966609
165	0xbdcae639	-0.09907193
166	0x3cbc46a2	0.0229829
167	0x3dd4cec8	0.10391003
168	0xbe534998	-0.20633543
169	0xbd867f8b	-0.06567296
170	0x3e75664b	0.23964803
171	0x3dc959f5	0.09831611
172	0x3da86181	0.082217224
173	0x3db1e997	0.08687132
174	0xbc2fa0be	-0.010719476
175	0x3dd17a2b	0.1022838
176	0x3ed2528b	0.410786
177	0x3d620786	0.055182956
178	0x3e300cff	0.17192458
179	0xbe901080	-0.28137589
180	0x3e4a09e1	0.19730331
181	0xbd0aaeca	-0.033858098
182	0xbceddf47	-0.029037131
183	0x3cdb5efb	0.026778689
184	0xbd3c98d9	-0.046044204
185	0xbe1e7ba4	-0.15476853
186	0x3dda6932	0.10664596
187	0xbdff3501	-0.124612816
188	0x3ea46ddf	0.32115075
189	0x3d79f431	0.061023895
190	0xbe19afdd	-0.15008493
191	0xbc852a3f	-0.016255496
192	0xbecd1e10	-0.40061998
193	0xbdc2c01b	-0.095092975
194	0xbe1d6063	-0.153688
195	0xbefcef81	-0.49401477
196	0xbe85354c	-0.26017225
197	0xbe566fce	-0.20941088
198	0xbe42076f	-0.18948148
199	0xbca4dd94	-0.020125188
200	0x3e8951c8	0.26820207
201	0x3d5ca9f3	0.053873014
202	0xbe5dd306	-0.2166253
203	0xbe1c92d7	-0.1529039
204	0xbddd76cf	-0.108136766
205	0xbd54b029	-0.051925812
206	0xbe49ad2f	-0.1969497
207	0xbc9cb729	-0.019130306
208	0xbd88c82a	-0.06678803
209	0x3bb741f1	0.0055925776
210	0x3e345a23	0.1761251
211	0x3ee4eee4	0.4471351
212	0x3d29e410	0.041477263
213	0x3b5647b9	0.0032696559
214	0x3cbf3848	0.023342267
215	0xbe2107ba	-0.15725604
216	0xbdebe0fc	-0.11517522
217	0xbd195856	-0.03743776
218	0xbde783dc	-0.11304447
219	0xbd85cf1e	-0.06533645
220	0xbe4424f8	-0.19154727
221	0xbeaf6d89	-0.34263256
222	0xbcf236b8	-0.029567108
223	0xbdb56f15	-0.08859078
224	0xbde587df	-0.11207556
225	0xbe4660ff	-0.19372939
226	0xbcd4b7d7	-0.025966568
227	0xbd5c13a1	-0.053729657
228	0xbd6409a1	-0.055673245
229	0xbeaaf364	-0.33388817
230	0xbe496370	-0.19666839
231	0xbd25d090	-0.040482104
232	0xbedc5214	-0.4303137
233	0xbe073d24	-0.13206917
234	0xbdc86f9b	-0.09786912
235	0x3d57bbb9	0.05266926
236	0xbeed42fb	-0.46340165
237	0xbcdc1f98	-0.026870534
238	0xbd7fcb87	-0.06244996
239	0xbec495af	-0.3839545
240	0x3e8eb9e2	0.27876192
241	0xbdd6864e	-0.10474835
242	0xbdc848a5	-0.09779481
243	0x3e25e66e	0.16201183
244	0x3e37fffa	0.17968741
245	0xbe39ed9e	-0.1815705
246	0xb9e6aea6	-0.00043999142
247	0xbd59124d	-0.05299597
248	0xbd0ec222	-0.03485311
249	0x3e0316cf	0.1280167
250	0xbeb87786	-0.3602869
251	0x3ea6a241	0.32545665
252	0x3edcf570	0.43156004
253	0x3e864d37	0.26230785
254	0xbe74d45b	-0.23909132
255	0xbe248328	-0.16065657

l2.bias f4 [119]
0	0xbdddd764	-0.10832098
1	0xbd9d2952	-0.07673897
2	0xbe31b33b	-0.17353527
3	0x3e1667a2	0.1468797
4	0xbe00b7d0	-0.12570119
5	0x3d6d7ad5	0.05797847
6	0xbe02b651	-0.1276486
7	0x3dd24c50	0.10268462
8	0x3ddb07c6	0.10694842
9	0x3e1a83f5	0.150894
10	0x3d94c723	0.07264545
11	0x3e1a7eaa	0.15087381
12	0xbd879bd7	-0.06621521
13	0x3ebd902e	0.37024063
14	0x3dad84c8	0.08472592
15	0xbcdeca06	-0.027195942
16	0x3d9b3f9b	0.07580491
17	0x3e86fe6b	0.2636598
18	0xbdadd6c4	-0.08488229
19	0xbbdb6aa7	-0.0066960636
20	0xbda96d9a	-0.08272858
21	0x3e99646a	0.29959422
22	0xbe841644	-0.25798237
23	0x3e4d3b68	0.20042193
24	0x3e0346c3	0.12819962
25	0x3e9e694f	0.3093972
26	0x3e6e1f6b	0.23254173
27	0x3e19a369	0.15003742
28	0xbdf2ee4f	-0.1186186
29	0x3eaee979	0.341625
30	0x3dd82d81	0.10555554
31	0x3dddc3a1	0.10828329
32	0xbe51ba38	-0.20481193
33	0xbd6f035e	-0.05835282
34	0x3e1ac247	0.15113173
35	0x3e5bc2bc	0.21461004
36	0x3e6430e3	0.22284274
37	0xbde05178	-0.10953039
38	0x3e1fbdfc	0.15599817
39	0x3e490cb3	0.1963375
40	0xbe9fe473	-0.3122898
41	0x3e80680d	0.25079384
42	0x3cf23292	0.02956513
43	0xbdfb6a7f	-0.12276172
44	0xbe0b219f	-0.13587044
45	0xbde45c14	-0.11150375
46	0x3dc6c360	0.097052336
47	0xbd8bd790	-0.06828225
48	0x3ee0c4d1	0.4390016
49	0x3e950f3f	0.29113194
50	0x3d002a59	0.031290386
51	0xbdcbf303	-0.0995846
52	0x3e292f08	0.16521847
53	0x3f0de31f	0.55424684
54	0xbe29edeb	-0.16594665
55	0x3c11cdf8	0.008899204
56	0xbe5ab8ad	-0.2135951
57	0x3e11e724	0.1424833
58	0x3e236802	0.15957645
59	0xbca3059b	-0.019900134
60	0x3e4fff9a	0.20312348
61	0x3ebdfcfc	0.37107074
62	0xbe3ebcf3	-0.18626766
63	0x3e618a4b	0.22025411
64	0x3c8825fb	0.016619673
65	0x3dab0414	0.08350387
66	0x3e01bd18	0.1266979
67	0x3d99b4e4	0.07505205
68	0x3c03a344	0.008034531
69	0x3e18c066	0.14917144
70	0x3dab0c17	0.08351915
71	0xbe178706	-0.14797601
72	0x3ea0fdfe	0.3144378
73	0x3e2a0259	0.16602458
74	0x3f019ca5	0.50629646
75	0x3d038fd2	0.03211958
76	0xbe5a43ac	-0.21314877
77	0x3d3bd0ce	0.04585343
78	0xbd0e1341	-0.03468633
79	0x3e2a0129	0.16602005
80	0x3e300e30	0.17192912
81	0xbe17ddee	-0.14830753
82	0x3d9575d0	0.072978616
83	0x3e315fd7	0.17321716
84	0x3e4e85c8	0.20168221
85	0x3df20331	0.11817015
86	0x3e4c1ab5	0.19932063
87	0x3e48f0ae	0.19623062
88	0xbe1a742c	-0.15083379
89	0x3ec15b2e	0.37764877
90	0xbde017d9	-0.109420486
91	0xbcb8d4c1	-0.022562386
92	0x3da9c779	0.082899995
93	0x3db130e9	0.08651907
94	0xbe2531c1	-0.16132261
95	0xbe8ccbe8	-0.27499318
96	0x3eac167e	0.3361091
97	0x3e4298a8	0.19003546
98	0x3e26ba94	0.16282111
99	0x3e6efa03	0.2333756
100	0x3e84dd2d	0.25949994
101	0xbd99856b	-0.074961506
102	0xbcb5c865	-0.022190282
103	0x3d4acc0a	0.049510993
104	0x3c878871	0.016544553
105	0x3d80a38a	0.062811926
106	0xbd85b8ca	-0.06529386
107	0x3e675580	0.2259121
108	0x3e823721	0.25432685
109	0x3d0a6a21	0.03379262
110	0x3d6e696a	0.058206
111	0x3e5cf515	0.21577866
112	0xbd693e53	-0.056944203
113	0x3d7b6d25	0.061383385
114	0xbb026785	-0.0019898128
115	0x3e17ef7d	0.14837451
116	0x3e04cef2	0.12969568
117	0x3e1e6294	0.15467292
118	0x3e35532d	0.1770751

l3.weight f4 [9, 119]
0	0x3e0b216b	0.13586967
1	0xbe80fa10	-0.25190783
2	0xbf942a15	-1.1575342
3	0x3f026fc8	0.50951815
4	0x3e9ee6dc	0.31035507
5	0x3d21ce6f	0.03950351
6	0x3e7a24da	0.2442812
7	0x3eddc14a	0.4331153
8	0xbe66b77b	-0.2253093
9	0x3e292789	0.16518988
10	0x3e2804ce	0.16408083
11	0x3d8187d9	0.06324739
12	0x3e51ca7b	0.20487396
13	0x3da1c376	0.07898609
14	0x3e3ccdbe	0.1843786
15	0xbf0480f5	-0.5175927
16	0xbedfc13a	-0.43702108
17	0xbf53a562	-0.8267423
18	0x3e9583d7	0.29202148
19	0x3e5449c9	0.20731272
20	0x3de8d3ae	0.113685
21	0x3baa0d8a	0.0051896023
22	0x3e2e8ccf	0.17045902
23	0x3e40f8e7	0.18844949
24	0xbda91e8a	-0.08257778
25	0x3e404017	0.18774448
26	0xbe12ad34	-0.14323884
27	0xbde48d11	-0.11159719
28	0x3e03b0b2	0.12860373
29	0x3df2994f	0.118456475
30	0x3e2a2dc0	0.16619015
31	0x3e82cdab	0.25547537
32	0x3f8d64d6	1.1046398
33	0xbee32c8a	-0.44369918
34	0x3f1f16a9	0.6214395
35	0x3e86b3a5	0.26308933
36	0x3e069531	0.1314285
37	0x3e2c7ba3	0.16844039
38	0xbe5102b0	-0.20411181
39	0x3e92cf79	0.28673914
40	0x3e5537ee	0.20822117
41	0x3e853091	0.26013616
42	0x3e5d72fa	0.21625891
43	0x3e84df37	0.2595155
44	0x3e1b9895	0.15194924
45	0x3e6ff431	0.23432995
46	0xbdfa3766	-0.12217598
47	0x3e591019	0.21197547
48	0x3e29abd1	0.16569449
49	0x3e5a8317	0.2133907
50	0x3cd604f9	0.026125418
51	0x3e7e9d4b	0.2486469
52	0xbe59e983	-0.21280484
53	0xbf7d93e3	-0.9905378
54	0x3e845dfd	0.25852957
55	0xbeeef01a	-0.46667558
56	0x3e8fd6ef	0.2809367
57	0x3e8fec5a	0.2811001
58	0x3e673da3	0.22582106
59	0x3e8451b3	0.25843582
60	0x3e44d2d9	0.19221057
61	0x3e9bdb99	0.30440977
62	0xbe44b286	-0.19208726
63	0xbecd7782	-0.4013024
64	0x3f2dd31e	0.67900264
65	0x3e8edd47	0.27903196
66	0xbec06ea5	-0.37584415
67	0x3db64418	0.088997066
68	0x3ecef442	0.4042073
69	0x3e412a99	0.18863906
70	0xbe1d7f6a	-0.15380636
71	0x3e9796a0	0.29607105
72	0x3e47d5df	0.19515179
73	0x3e50894b	0.20364873
74	0xbf642f81	-0.89134985
75	0x3ea5bded	0.32371464
76	0xbe7de0bf	-0.24792765
77	0x3e46d761	0.19418098
78	0x3dde6584	0.10859206
79	0xbd92f10e	-0.07174884
80	0x3e44f4c5	0.19233997
81	0x3e73a9a1	0.23795177
82	0xbe45a007	-0.19299327
83	0xbf62ce4f	-0.8859605
84	0x3e3c1aaa	0.18369547
85	0x3e2c8042	0.16845801
86	0x3e786015	0.24255402
87	0xbe86245e	-0.2619962
88	0x3e545c61	0.20738365
89	0x3d46318c	0.048387095
90	0x3e9d6dcb	0.30747828
91	0x3e308b7c	0.17240709
92	0x3e4e072f	0.20119928
93	0x3e797f37	0.24364935
94	0x3e02359d	0.12715764
95	0x3e0610e3	0.1309238
96	0xbe430855	-0.19046147
97	0x3e018462	0.12648156
98	0x3e8a45b9	0.2700632
99	0xbd49543f	-0.04915261
100	0x3cd4138b	0.025888225
101	0xbeb4bd59	-0.3530071
102	0x3e946952	0.28986603
103	0xbf01e0dc	-0.50733733
104	0xbe41b877	-0.18918024
105	0x3e5f05d5	0.21779568
106	0x3e827249	0.25477818
107	0xbe8f7087	-0.2801554
108	0xbd2990f6	-0.04139801
109	0x3e5f105a	0.21783581
110	0xbf6b3d9e	-0.91890895
111	0x3e988237	0.29786846
112	0x3e8b2b23	0.27181348
113	0x3e844843	0.2583638
114	0x3e67c2f0	0.22632957
115	0xbf882e1b	-1.063907
116	0x3e8a6bfc	0.2703551
117	0x3e45f6a7	0.19332372
118	0xbea77cf0	-0.32712507
119	0x3e8edd3a	0.27903157
120	0xbd1078eb	-0.035271566
121	0xbe4a33fd	-0.19746394
122	0xbf7d07b2	-0.9883987
123	0x3e5ace89	0.2136785
124	0x3e010c7c	0.12602419
125	0x3e89569e	0.26823896
126	0xbf0b0f76	-0.54320467
127	0x3e09bfb4	0.13452035
128	0x3e549d05	0.20763023
129	0x3eb53b1a	0.35396653
130	0x3d8665a8	0.06562358
131	0x3e5aae55	0.21355565
132	0x3da0b653	0.078472756
133	0x3e5a62aa	0.213267
134	0xbf32eca1	-0.6989232
135	0x3e9494d2	0.2901979
136	0x3d14b493	0.03630502
137	0x3e7d0e63	0.2471252
138	0x3ec8ae47	0.39195463
139	0x3e405e7f	0.18786047
140	0x3d84f359	0.064917274
141	0xbd363610	-0.04448515
142	0x3e8d2281	0.27565387
143	0xbe4a0fae	-0.19732544
144	0x3e8d0345	0.27541557
145	0x3f54c693	0.831155
146	0xbdbdf817	-0.09275835
147	0x3f7a09d7	0.97671264
148	0xbc73c870	-0.014879331
149	0x3e936552	0.2878824
150	0x3e9c5f0b	0.30541262
151	0x3e8c0dd9	0.27354315
152	0xbc512f4e	-0.012767626
153	0xbf0875ea	-0.5330492
154	0x3dd41e0e	0.10357295
155	0x3d08b856	0.03337892
156	0x3e8cbe71	0.27489045
157	0xbe34bdd1	-0.17650534
158	0x3e4e9b09	0.20176329
159	0x3e6dba86	0.23215684
160	0x3e377498	0.1791557
161	0x3e377730	0.1791656
162	0x3e8f171d	0.27947322
163	0x3e628730	0.22121882
164	0x3e90b3da	0.28262216
165	0x3f8a01fb	1.0781854
166	0x3e5a6bda	0.21330205
167	0xbd8213d6	-0.0635144
168	0x3cc0f97d	0.023556465
169	0xbd670fac	-0.05641143
170	0x3e4e9591	0.20174243
171	0xbe6c2e8f	-0.23064636
172	0xbf827003	-1.0190433
173	0x3e6ffa06	0.2343522
174	0x3f3bc03b	0.73340195
175	0x3e988440	0.297884
176	0x3e2f2475	0.17103751
177	0x3e6514d5	0.22371228
178	0x3ea63b66	0.32467192
179	0x3e33ee01	0.1757126
180	0x3da8a60e	0.082347974
181	0xbf207538	-0.6267886
182	0xbeafad00	-0.34311676
183	0xbe8171ed	-0.2528223
184	0x3e85f01f	0.2615976
185	0xbe96473b	-0.2935122
186	0x3cff9261	0.031197729
187	0x3b464639	0.0030254258
188	0x3e53f1cc	0.20697707
189	0xbe7890ad	-0.2427394
190	0x3e82cebb	0.25548348
191	0x3e96be3f	0.2944202
192	0x3e5c6fe9	0.21527065
193	0xbf658d20	-0.89668465
194	0x3db33c88	0.0875178
195	0x3dc6d3dc	0.09708378
196	0x3e5cc739	0.21560372
197	0x3eb4d3cd	0.3531784
198	0xbcb097d5	-0.021556774
199	0x3e592f9b	0.21209566
200	0x3e6ac3b5	0.22926219
201	0xbe3ff30a	-0.18745056
202	0x3e63b367	0.22236405
203	0x3e5f1de5	0.21788748
204	0x3e64b528	0.2233473
205	0x3e56b2f7	0.20966707
206	0x3e259f2f	0.16174005
207	0x3e141441	0.14460851
208	0x3d9ab43f	0.075539105
209	0x3e582200	0.2110672
210	0x3e8aa0f0	0.2707591
211	0x3e1281df	0.14307354
212	0x3e7a3c1d	0.24436994
213	0x3e98e355	0.2986094
214	0x3e05074a	0.12991062
215	0x3d5abc87	0.05340245
216	0x3e9403b6	0.2890908
217	0x3e98ec73	0.29867896
218	0x3d150a79	0.03638694
219	0xbe75ce12	-0.24004391
220	0xbeea1dc8	-0.45725846
221	0x3e852b90	0.26009798
222	0x3de20aef	0.11037242
223	0xbe4365c3	-0.19081788
224	0x3e2c91ff	0.16852568
225	0x3e1d3273	0.15351276
226	0xbedce93c	-0.43146694
227	0xbc34dad6	-0.011038503
228	0x3e4ca646	0.19985303
229	0xbc3589f2	-0.011080252
230	0x3e85ce6e	0.26134056
231	0x3e59898d	0.21243878
232	0x3df352e2	0.11881043
233	0x3e7d8a3b	0.24759762
234	0x3f76f973	0.9647438
235	0x3e960fd2	0.29308945
236	0x3e5bf71c	0.21480983
237	0xbec988fb	-0.3936232
238	0x3e455c2e	0.19273445
239	0x3eb6a2b3	0.35671005
240	0x3f11b79e	0.569208
241	0x3d897798	0.06712264
242	0x3e912187	0.28345892
243	0x3c96974c	0.01838269
244	0x3e911ec8	0.28343797
245	0xbe446d58	-0.19182336
246	0x3d054f77	0.032546487
247	0x3e60fc31	0.21971203
248	0xbccd3159	-0.025047945
249	0x3e203191	0.15643908
250	0x3e59b7ad	0.21261473
251	0xbaa6ad27	-0.0012716398
252	0x3e6711a1	0.22565319
253	0x3f09bc04	0.53802514
254	0xbe4459e6	-0.19174919
255	0x3ef0041d	0.46878138

l3.bias f4 [9]
0	0x3ea39888	0.3195231
1	0x3e819451	0.2530847
2	0x3d5a0446	0.05322673
3	0x3e616d9a	0.22014466
4	0x3e7a4dda	0.2444376
5	0x3eea94f7	0.45816776
6	0x3f0d40a8	0.5517678
7	0x3edf9748	0.43670106
8	0x3e8e1b6f	0.27755305

l4.weight f4 [53, 9]
0	0x3e6e6110	0.23279214
1	0xbc9964f9	-0.018724905
2	0xbda7ff9a	-0.08203049
3	0x3fa5f71d	1.2966038
4	0xbf22af6a	-0.6354891
5	0xbeedb2ce	-0.4642548
6	0xbd372e67	-0.044721987
7	0x3ff89004	1.941895
8	0x3e3dd15a	0.18536893
9	0x3d642264	0.05569686
10	0x3e8e2348	0.27761292
11	0xbe9b4d55	-0.30332437
12	0xbd978673	-0.07398691
13	0x3f430736	0.7618288
14	0x3e8ccdf7	0.2750089
15	0x3e221a8b	0.15830438
16	0x3eaa7e94	0.33299696
17	0x3f40e293	0.75345725
18	0xbe52c922	-0.20584539
19	0x3d7c91f7	0.06166264
20	0x3e421991	0.18955065
21	0xbcc93f84	-0.02456642
22	0xbe3f4216	-0.18677554
23	0xbe15bb0b	-0.14622132
24	0xbda2b9b0	-0.07945573
25	0x3fef462e	1.8693292
26	0x3e7b9801	0.24569704
27	0x3e842265	0.2580749
28	0xbdd79454	-0.10526338
29	0xbe02a486	-0.12758073
30	0x3e8f0947	0.27936766
31	0x3dd8ff22	0.10595538
32	0x3e1f5608	0.15560162
33	0x3e5516a9	0.20809425
34	0x3faea61a	1.364444
35	0x3eb14139	0.34620073
36	0xbeafa5dd	-0.3430623
37	0x3e826755	0.2546946
38	0x3e09debe	0.13463876
39	0xbea1fd81	-0.3163872
40	0x3f94ddfd	1.1630245
41	0x3e6e0255	0.23243077
42	0xbeb90d6f	-0.36143062
43	0x3f075fed	0.52880746
44	0x3f8f58e3	1.1199001
45	0x3c503f3b	0.012710388
46	0x3e91c47f	0.28470227
47	0x3bd5d4aa	0.0065255957
48	0x3e6fabdd	0.23405404
49	0xbe58fd95	-0.21190484
50	0x3e8e849c	0.27835548
51	0x3f583f68	0.8447175
52	0xbf82d935	-1.0222536
53	0xbf859865	-1.0437132
54	0xbd189bf4	-0.037258103
55	0xbea19bf1	-0.31564286
56	0x3ecb1bc9	0.39669636
57	0x3e62a18b	0.22131936
58	0x3f29f305	0.66386443
59	0x3f030605	0.5118106
60	0xbdbe531a	-0.09293194
61	0x3f6304d5	0.8867925
62	0x3f2c843a	0.6738926
63	0x39c25a9e	0.00037070079
64	0xbe9967e9	-0.2996209
65	0x3eac1923	0.33612928
66	0xbe087f49	-0.13329805
67	0x3eea3e33	0.4575058
68	0x3f2e086f	0.6798162
69	0x3e2bc220	0.16773272
70	0x3fa88b95	1.3167597
71	0x3e7bb59e	0.24581
72	0x3e688116	0.22705492
73	0xbe31d059	-0.17364635
74	0x3cd04f1f	0.025428353
75	0x3f73d5f6	0.95248353
76	0xbea67314	-0.32509673
77	0x3e5ab90c	0.21359652
78	0x3dbf8e87	0.09353357
79	0x3fe8e10e	1.8193681
80	0xbe5e0c9b	-0.21684496
81	0x3eac7104	0.33679974
82	0x3defcb56	0.11708705
83	0xbec89682	-0.39177328
84	0x3ee0927d	0.43861762
85	0x3dd8335e	0.105566725
86	0x3d909be2	0.07060982
87	0x3deece3b	0.11660429
88	0x3ef7f9c8	0.48432755
89	0x3f247b29	0.6425043
90	0xbea57aa3	-0.32320127
91	0x3d3b313e	0.045701258
92	0x3eb5372e	0.3539366
93	0xbd16d51e	-0.03682434
94	0x3ee85166	0.45374602
95	0x3bc06bc2	0.0058722207
96	0xbeb664c1	-0.35623744
97	0x3f94ab7c	1.1614833
98	0x3f5e4cb4	0.8683579
99	0xbe93f1c7	-0.288954
100	0x3dc460ed	0.095887996
101	0x3e5ef7e8	0.21774256
102	0xbe92c064	-0.28662407
103	0x3eea8a32	0.4580856
104	0x3e5051e0	0.20343733
105	0x3c11e7d9	0.008905374
106	0x3f9a3d80	1.2050018
107	0x3f8042eb	1.0020422
108	0x3e7928b6	0.24331936
109	0x3da45909	0.080247946
110	0xbe6868e8	-0.22696269
111	0xbb950a9c	-0.004548384
112	0xbe96f3e8	-0.2948296
113	0x3d08e200	0.033418655
114	0x3f6e3c96	0.93061197
115	0xbed63831	-0.41839746
116	0xbf6880a7	-0.9082131
117	0x3eba70eb	0.36414275
118	0xbd027b68	-0.03185597
119	0xbe992995	-0.29914537
120	0x3e499de6	0.1968914
121	0x3ee4e103	0.4470292
122	0x3f0cf365	0.5505889
123	0xbd71a3b5	-0.058994014
124	0x3f952609	1.1652232
125	0x3efa5998	0.4889648
126	0xbe5f7547	-0.21822082
127	0x3e2ddb0d	0.16978092
128	0x3da7708c	0.081757635
129	0xbea4439b	-0.3208283
130	0x3f778bb4	0.96697545
131	0x3d32dacb	0.04366569
132	0xbec98a3d	-0.3936328
133	0x3f27ccf2	0.65547097
134	0x3f7ebdd1	0.99508387
135	0x3d0d59e9	0.034509573
136	0x3e17ff51	0.14843489
137	0xbd871310	-0.06595433
138	0xbe807492	-0.25088936
139	0x3fa78fae	1.3090723
140	0x3dc6c023	0.09704616
141	0x3ca0ea32	0.019642923
142	0xbf725921	-0.9466725
143	0x3fa51e47	1.2899865
144	0xbeba4361	-0.3637953
145	0x3e175811	0.14779688
146	0x3e704092	0.23462132
147	0x3ee7a52f	0.45243213
148	0x3f0af6e7	0.54282993
149	0x3dbeda37	0.09318965
150	0x3e1f4711	0.15554453
151	0x3e970aed	0.29500523
152	0x3f556757	0.8336081
153	0x3dc139f7	0.09434884
154	0x3df0a2cd	0.11749802
155	0xbe42ef88	-0.19036686
156	0x3eb7180f	0.35760543
157	0xbdba7400	-0.091041565
158	0x3ed7948e	0.42105526
159	0x3e1fdf6b	0.15612571
160	0x3f9eea9d	1.2415348
161	0x3db9f9e6	0.090808675
162	0x3e262ef8	0.16228855
163	0x3db517eb	0.088424526
164	0xbe6132ec	-0.21992081
165	0xbcd768e9	-0.026295142
166	0x3f20350c	0.62580943
167	0x3e9001f1	0.2812648
168	0xbe574719	-0.21023215
169	0x3f9d6b10	1.2298298
170	0x3f22eaae	0.6363934
171	0xbe31510f	-0.17316078
172	0x3e107dd7	0.14110504
173	0x3dfeb5ba	0.12437005
174	0x3f5caf30	0.86204815
175	0x3f8b2e7e	1.0873563
176	0x3f1033f0	0.5632925
177	0xbdbb37c4	-0.09141496
178	0xbf17901f	-0.59204286
179	0x3f17810e	0.59181297
180	0xbe8e1082	-0.2774697
181	0xbbf2c928	-0.0074092336
182	0x3eacbf4c	0.33739698
183	0xbdbd1e0c	-0.092342466
184	0x3f8583f9	1.04309
185	0x3e8e24ed	0.27762547
186	0xbe9114db	-0.28336224
187	0x3e83494e	0.25641865
188	0x3f80a5ff	1.0050658
189	0xbe3766d1	-0.17910315
190	0xbd6db0b2	-0.058029838
191	0x3eab37b4	0.33440936
192	0x3d6c3513	0.057667803
193	0x3e9450aa	0.28967792
194	0x3e335dc4	0.17516237
195	0x3e99ccab	0.30038962
196	0xbd637751	-0.05553371
197	0x3f24e734	0.6441529
198	0x3e12e734	0.1434601
199	0xbce16000	-0.027511597
200	0xbd756250	-0.05990821
201	0x3e9d6634	0.30742037
202	0x3cdf1fed	0.027236903
203	0x3cbbb898	0.02291517
204	0xbf0f5092	-0.55982316
205	0x3ff099ee	1.8796976
206	0x3e87eb11	0.2654653
207	0xbe294f39	-0.16534127
208	0x3eca0f2d	0.39464703
209	0xbe51fedc	-0.20507377
210	0x3d6b261e	0.0574094
211	0x3f7b6d55	0.982137
212	0xbdb049ea	-0.08607848
213	0x3e016b70	0.1263864
214	0x3ef6447f	0.48099133
215	0x3f94a87f	1.1613921
216	0xbe00332a	-0.12519518
217	0xbec000a5	-0.37500492
218	0x3eeed0d0	0.46643686
219	0xbf31de8e	-0.69480217
220	0xbfa713a2	-1.3052866
221	0x3f01277d	0.5045088
222	0x3d28da64	0.0412239
223	0x3f838232	1.0274107
224	0xbed341a8	-0.4126103
225	0x3c7ae7b6	0.015314033
226	0x3eb7bbe7	0.35885546
227	0xbea21f0b	-0.3166431
228	0x3e1eb9a5	0.15500505
229	0x3ecad6bb	0.3961695
230	0xbdd4bc8d	-0.10387526
231	0xbd30888e	-0.04309898
232	0xbe27a244	-0.16370493
233	0x3f875767	1.0573548
234	0xbe51c485	-0.20485123
235	0xbd1e34d6	-0.038624607
236	0x3e9548bc	0.29157054
237	0xbde4dc13	-0.11174788
238	0x3f0734b3	0.5281479
239	0x3a5272fb	0.00080279977
240	0xbdcdb16c	-0.10043606
241	0x3f3c4500	0.73542786
242	0x3f80c1f9	1.0059196
243	0x3e1ceaab	0.15323894
244	0xbd9cc6e3	-0.07655122
245	0xbc34c257	-0.011032662
246	0xbe764533	-0.24049835
247	0x3f4d0913	0.8009197
248	0x3dd88554	0.10572305
249	0xbe3741d8	-0.17896211
250	0x3f05307b	0.520271
251	0x3fa6178a	1.2975934
252	0xbe4221f3	-0.18958263
253	0xbe5a4d79	-0.21318616
254	0x3efe11fd	0.496231
255	0xbd2d618c	-0.042329356

l4.bias f4 [53]
0	0xbf6f74f1	-0.93537813
1	0x3fb1aa2f	1.3880061
2	0x3f727f65	0.9472564
3	0x3f8fbc17	1.1229275
4	0x3f90cd11	1.1312581
5	0xbf6d7d86	-0.9276966
6	0x3f420fe6	0.7580551
7	0x3f4ae8ba	0.7926136
8	0xbdaa370f	-0.08311283
9	0x3ee87046	0.45398158
10	0x3f2794c8	0.654614
11	0x3f85766c	1.0426764
12	0xbddaa10b	-0.10675248
13	0x3f27d237	0.6555514
14	0x3fb701d7	1.4297436
15	0x3f5ee005	0.87060577
16	0x3f9471e6	1.1597259
17	0x3f128524	0.57234406
18	0x3fc0294e	1.5012605
19	0xbeda9d79	-0.42698267
20	0x3f416954	0.7555134
21	0x3d90e974	0.07075778
22	0x3e95fba1	0.2929354
23	0x3fbc3a63	1.4705318
24	0xbde69a0f	-0.11259853
25	0x3f72a8e2	0.94788945
26	0x3f97a8f3	1.1848434
27	0x3fc6d92e	1.5535028
28	0x3e29643a	0.1654214
29	0xbec2259f	-0.37919328
30	0x3f660c1f	0.89862245
31	0x3dcf5cbb	0.10125109
32	0x3ece1297	0.40248558
33	0x3e479125	0.19488962
34	0x3fc3636a	1.5264714
35	0xbe2c594d	-0.1683094
36	0x3f1e29fe	0.61782825
37	0xbf504f75	-0.8137124
38	0x3f331439	0.6995273
39	0x3e9364ff	0.2878799
40	0x3faf16ea	1.3678868
41	0x3f77d181	0.9680405
42	0x3fbc257f	1.4698943
43	0xbe5efb27	-0.21775495
44	0x3ecfd780	0.405941
45	0x3fcbfacf	1.5935916
46	0x3ec28ed2	0.37999588
47	0x3f6b038f	0.91802305
48	0x3f40616e	0.75148666
49	0x3f46d7f1	0.7767325
50	0x3f8c7121	1.0972024
51	0x3f1177ad	0.56823236
52	0x3e800b7b	0.2500876

l5.weight f4 [85, 53]
0	0x3ee814c6	0.4532835
1	0x3eb281ee	0.34864753
2	0xbc07ed14	-0.00829627
3	0x3f43aabe	0.76432407
4	0xbeb79a10	-0.35859728
5	0x3ddf2e4c	0.10897502
6	0xbeaf88dd	-0.34284106
7	0x3d513362	0.051074393
8	0x3f03f963	0.5155241
9	0x3f445d1a	0.7670456
10	0xbe833f12	-0.25634056
11	0xbdf52055	-0.119690575
12	0x3ee00260	0.43751812
13	0x3f226e6b	0.63449734
14	0xbd79fd0f	-0.06103235
15	0xbe8be5b3	-0.27323684
16	0xbd4e1b28	-0.050318867
17	0x3d8c71cc	0.068576425
18	0x3e9ac0ea	0.30225307
19	0xbe60c4b2	-0.21950033
20	0xbeca13f1	-0.3946834
21	0x3c007311	0.007839934
22	0x3d8d2704	0.06892207
23	0x3e8f9cfa	0.2804945
24	0x3f0f065e	0.5586909
25	0x3df7a40b	0.120918356
26	0xbeccd15b	-0.40003476
27	0xbdccdf8c	-0.10003576
28	0xbe25581f	-0.16146897
29	0x3eda8ba5	0.42684665
30	0x3ef35ab8	0.4753015
31	0x3ea77b4d	0.3271126
32	0xbda912a4	-0.082555085
33	0x3f4d54fc	0.802078
34	0x3e5fcc8e	0.21855375
35	0xbe87936b	-0.26479658
36	0x3ee78a33	0.45222625
37	0xbd88964b	-0.06669291
38	0x3dfec276	0.12439434
39	0x3d9b2a1e	0.075763926
40	0x3e1a86ce	0.15090486
41	0x3f19d104	0.6008456
42	0x3e50e3cb	0.20399396
43	0x3eca8cb8	0.39560485
44	0xbe31342a	-0.17305055
45	0x3e072e9a	0.13201371
46	0x3dd34853	0.10316529
47	0x3f21f33c	0.6326177
48	0x3e024211	0.12720515
49	0xbd987336	-0.0744385
50	0x3ed76d81	0.42075732
51	0x3e2ba65b	0.16762678
52	0x3e19b47c	0.15010256
53	0xbcb03793	-0.021510875
54	0x3f902baf	1.1263331
55	0xbca29946	-0.019848477
56	0x3eab32c6	0.33437175
57	0x3e8eaaf1	0.27864793
58	0xbe61cf95	-0.22051843
59	0xbe991273	-0.29896888
60	0xbe850632	-0.2598129
61	0xbd28445b	-0.041080814
62	0x3f680e9d	0.906473
63	0xbe02a798	-0.12759244
64	0x3e1a7be0	0.15086317
65	0xbcc7dc7b	-0.024397125
66	0x3ef11d59	0.47092703
67	0x3e95604c	0.2917503
68	0x3e2030d2	0.15643623
69	0x3c810146	0.015747678
70	0x3e2bf0f3	0.16791134
71	0x3f35a416	0.709535
72	0xbe57474b	-0.2102329
73	0x3b716deb	0.0036839198
74	0xbd885eca	-0.066587046
75	0x3e20aed9	0.15691699
76	0x3f7e998b	0.9945304
77	0xbf210e58	-0.6291251
78	0x3f2d33e9	0.67657334
79	0xbd701ef3	-0.058623265
80	0x3e9a00e9	0.3007882
81	0xbec0632f	-0.3757567
82	0x3db30a92	0.087422505
83	0x3f32e632	0.698825
84	0xbe6087b4	-0.21926767
85	0xbea2c9f6	-0.3179471
86	0xbccb20e3	-0.024795955
87	0x3efa3cce	0.48874515
88	0xbeb96197	-0.36207268
89	0x3c9ab34a	0.01888432
90	0xbbe3a451	-0.0069470783
91	0x3f0c4f3d	0.5480841
92	0xbca40de7	-0.02002616
93	0x3f9ad819	1.2097198
94	0x3efe386e	0.49652427
95	0x3eca04fa	0.39456922
96	0xbf44b11a	-0.76832736
97	0x3dc838e9	0.0977648
98	0x3eb0d429	0.34536865
99	0x3dfb37f4	0.122665316
100	0x3ed04685	0.40678802
101	0x3cab362f	0.02089986
102	0xbd382b05	-0.0449629
103	0x3f23c8e9	0.6397844
104	0xbdb56ae5	-0.08858279
105	0xbf4d3c04	-0.801697
106	0x3b1a82e2	0.0023576547
107	0x3f9742e8	1.1817293
108	0x3cafc006	0.021453869
109	0x3ecbbc98	0.39792323
110	0x3d8080e7	0.06274586
111	0xbc04bc13	-0.008101481
112	0xbee57065	-0.44812313
113	0xbeb1e3e0	-0.34744167
114	0x3d68933b	0.056781035
115	0x3f50a32c	0.8149898
116	0xbd7420e6	-0.059601687
117	0xbcff1d30	-0.031141847
118	0x3e6184eb	0.2202336
119	0x3f14150f	0.5784463
120	0x3e964f5a	0.29357415
121	0x3e80e1bc	0.25172222
122	0xbd6bce60	-0.05756986
123	0x3dc95056	0.09829776
124	0x3f1d81b3	0.6152603
125	0xbeb15f16	-0.34642857
126	0xbe9b0ed5	-0.30284753
127	0xbdfe28c0	-0.12410116
128	0x3df678cf	0.12034761
129	0x3f6d4b58	0.9269309
130	0xbed84134	-0.42237246
131	0x3f28cd40	0.65938187
132	0xbd7b2e10	-0.061323225
133	0x3e818c4e	0.25302356
134	0xbecf83ce	-0.40530246
135	0x3b95f959	0.0045768437
136	0x3f3c4e26	0.73556745
137	0xbcc96147	-0.024582518
138	0xbe833747	-0.2562811
139	0x3e79501b	0.24346964
140	0x3eab1c23	0.33419904
141	0xbeaab56d	-0.33341542
142	0x3e5b8adb	0.21439688
143	0x3ca80981	0.020512344
144	0x3f559204	0.8342593
145	0x3d18b905	0.037285823
146	0x3fa43166	1.2827575
147	0x3eda78ac	0.4267019
148	0x3ecf51a7	0.40491983
149	0xbf203b4c	-0.6259048
150	0xbdd5fd99	-0.104487605
151	0x3e9a4df8	0.3013761
152	0x3e80ed11	0.25180867
153	0x3e8322d0	0.25612497
154	0xbe10dc89	-0.14146627
155	0xbe1f4191	-0.15552355
156	0x3f0947fb	0.5362546
157	0x3d441df0	0.047880113
158	0xbf49653b	-0.7867009
159	0x3dce98c5	0.10087732
160	0x3edc5e7e	0.43040842
161	0x3e0fa7c4	0.14028841
162	0x3f1e0c8c	0.61737895
163	0xbd78b1fa	-0.060716607
164	0xbe6fdc8c	-0.23423976
165	0x3e896900	0.2683792
166	0x3e9480b2	0.29004437
167	0x3e045ac3	0.12925248
168	0x3edceaa3	0.43147764
169	0x3e79426c	0.24341744
170	0x3e096dee	0.13420841
171	0xbe5c70dc	-0.21527427
172	0x3ed38b9c	0.4131745
173	0x3e84f7aa	0.25970203
174	0xbdf81690	-0.121136785
175	0x3d383601	0.044973377
176	0x3d9e891f	0.077409975
177	0x3ec54597	0.38529655
178	0xbf25dd5c	-0.6479089
179	0xbb7a5dd3	-0.0038202896
180	0x3d0e1982	0.034692295
181	0x3ddcb68e	0.10777007
182	0x3f0c91c8	0.54909945
183	0xbeb6eafd	-0.35726157
184	0x3e60d85a	0.21957532
185	0x3eaa1f7f	0.33227155
186	0x3e683afa	0.22678748
187	0x3dd199c6	0.10234408
188	0x3deb1103	0.11477854
189	0x3dd1bbc7	0.10240894
190	0x3ceec617	0.029147191
191	0xbf83f187	-1.0308083
192	0x3ed65dff	0.41868588
193	0x3ec8e9dd	0.39240924
194	0xbf79d3ce	-0.97588813
195	0x3c8faf94	0.017539777
196	0xbe0d3bc8	-0.13792336
197	0x3d6336b7	0.055472102
198	0x3e0ce755	0.13760121
199	0x3eb0575f	0.3444166
200	0x3ee42a76	0.44563645
201	0x3ecfb133	0.4056488
202	0xbf493469	-0.78595597
203	0x3d187953	0.03722508
204	0x3ed7eb0e	0.4217152
205	0x3daf15f6	0.085491106
206	0x3e8f85e7	0.28031847
207	0x3c9872ff	0.018609522
208	0x3d570baf	0.052501377
209	0x3f241164	0.64089036
210	0x3daf5567	0.08561211
211	0x3b4d512e	0.0031328904
212	0xbe9197ae	-0.28436035
213	0x3ef83094	0.48474562
214	0x3d9ddec7	0.07708507
215	0x3e44fdfe	0.19237515
216	0x3eae54f8	0.340492
217	0xbe967ea7	-0.29393503
218	0x3f14e728	0.58165216
219	0x3ee39467	0.4444916
220	0xbd6010c9	-0.054703508
221	0xbe0d7a20	-0.13816118
222	0x3e9355aa	0.28776294
223	0x3f1509b0	0.58217907
224	0xbf09bdf7	-0.5380549
225	0xbdc83e16	-0.09777467
226	0x3ec16e8e	0.3777966
227	0x3ec4dbee	0.38449043
228	0x3e645ddb	0.22301428
229	0x3d1e0388	0.038577586
230	0x3ef8f8bf	0.48627278
231	0xbe928f03	-0.28624734
232	0x3f153620	0.58285713
233	0x3df8eaf4	0.12154189
234	0x3cba8bed	0.0227718
235	0x3f189ffb	0.5961911
236	0xbf77c621	-0.96786696
237	0x3e513230	0.20429301
238	0x3f6f5c1b	0.93499917
239	0x3ebcfaf3	0.3691021
240	0x3e2bc113	0.1677287
241	0xbe04136e	-0.12898037
242	0x3ada0f66	0.0016636669
243	0xbda4a993	-0.08040156
244	0xbf711852	-0.94177735
245	0xbe974c8e	-0.29550594
246	0x3f060d6c	0.5236423
247	0xbe636604	-0.22206885
248	0xbe0ff2ee	-0.14057514
249	0xbdc973ff	-0.098365776
250	0x3e316153	0.17322282
251	0xbd087a98	-0.03332004
252	0x3f042fa9	0.51635224
253	0x3e61c4c9	0.22047724
254	0x3e456da0	0.192801
255	0xbf8d1585	-1.1022192

l5.bias f4 [85]
0	0xbec0a571	-0.37626222
1	0x3f5a36c0	0.8523979
2	0x3f6fd300	0.93681335
3	0x3f2a136f	0.66435903
4	0x3facce0c	1.350038
5	0xbea723bd	-0.32644454
6	0x3ed5bf25	0.41747394
7	0x3fbc2f94	1.470202
8	0xbf0db672	-0.55356514
9	0x3f3b7e86	0.73239934
10	0x3f50fbb8	0.8163409
11	0xbe02062c	-0.12697667
12	0x3e2c5411	0.16828944
13	0x3f147a1f	0.5799884
14	0x3f764e86	0.9621357
15	0x3d152b9d	0.036418546
16	0x3ed0c368	0.40774083
17	0x3f66d771	0.9017249
18	0x3f88c774	1.0685868
19	0xbe135093	-0.14386205
20	0x3fa93e74	1.3222184
21	0xbcf3855b	-0.029726675
22	0x3f7fa861	0.998663
23	0x3f1d665e	0.61484325
24	0x3f91bc79	1.1385642
25	0xbe930113	-0.28711757
26	0xbcc90211	-0.024537118
27	0x3f927ac2	1.1443713
28	0x3f3cbb2d	0.7372311
29	0xbdcef364	-0.10105017
30	0xbea7a64a	-0.32744056
31	0x3e5d94b5	0.21638758
32	0x3f305da2	0.6889287
33	0x3f1ab54a	0.60432875
34	0x3e23145d	0.15925737
35	0x3f8fb52b	1.1227163
36	0x3ef2255d	0.4729413
37	0x3ef9cecd	0.4879059
38	0x3d5f7a49	0.05455998
39	0x3fd6c27c	1.6778102
40	0x3fb755d9	1.4323074
41	0x3f443769	0.7664705
42	0xbf1e44fd	-0.6182402
43	0x3f7f3075	0.99683315
44	0xbe83d317	-0.25746986
45	0x3f99aab0	1.2005215
46	0x3e840129	0.25782135
47	0x3f25cbe1	0.6476422
48	0x3c1a3c12	0.009413736
49	0x3ddd29df	0.10799002
50	0x3f741c0c	0.95355296
51	0x3f732842	0.94983304
52	0x3dff8cc2	0.12478019
53	0xbf729d5b	-0.94771355
54	0x3ecb61f4	0.3972317
55	0xbde70f21	-0.112821825
56	0x3f659066	0.8967346
57	0x3ee3b5d4	0.4447466
58	0x3fa3f5fa	1.2809441
59	0xbeff9584	-0.4991876
60	0x3ebf2526	0.3733303
61	0x3e164063	0.14672999
62	0x3fa7364b	1.3063444
63	0xbce5b8f5	-0.028042296
64	0x3e164270	0.14673781
65	0x3e8cd062	0.27502733
66	0x3ef50e03	0.47862253
67	0xbe4bd8f8	-0.19906986
68	0x3ea4116a	0.32044536
69	0xbe155d28	-0.14586318
70	0xbefd262a	-0.4944318
71	0xbf4b5ff2	-0.79443276
72	0x3f072d5c	0.5280359
73	0x3dd08dc6	0.10183291
74	0x3f40b258	0.7527213
75	0x3fbe5ace	1.4871461
76	0x3edf4da2	0.43613917
77	0x3ec36abe	0.38167375
78	0x3e219fa6	0.15783557
79	0x3e8e5793	0.2780119
80	0xbee6a44b	-0.4504722
81	0x3def27ee	0.11677538
82	0x3f807f9e	1.0038946
83	0x3f487409	0.78302056
84	0x3e8f0718	0.279351
