models/Others/model_PGNN_100_1e-3.pt (torch, 127233 bytes, 12 tensors)

l1.weight f4 [189, 9]
0	0xb8d63709	-0.00010214566
1	0x3e321dee	0.1739423
2	0x3f8e7649	1.1129848
3	0x3e8d3ef4	0.27587092
4	0xc01a0ac6	-2.4069076
5	0x3f9a4a62	1.205395
6	0xbe667eac	-0.22509259
7	0x3f1812d8	0.59403753
8	0x3e33f6ce	0.17574617
9	0xbc19274f	-0.009347751
10	0x3f7e1721	0.9925404
11	0xbf716470	-0.9429388
12	0xbe6ecd90	-0.23320603
13	0xbf88d531	-1.0690061
14	0xbf848563	-1.0353206
15	0x3dca069a	0.098645404
16	0xbe1c0209	-0.15235151
17	0x3e22bceb	0.15892379
18	0xbbfe7cdf	-0.0077663506
19	0x3eeed2d5	0.46645227
20	0x3f2cc555	0.67488605
21	0xbeafef6e	-0.34362358
22	0xbeaf8c98	-0.34286952
23	0x3e207236	0.15668568
24	0x3f405a01	0.75137335
25	0xbfc7c7f1	-1.5607892
26	0xbf6b8f14	-0.92015195
27	0xb9cc69de	-0.0003898879
28	0x3eb67e75	0.35643354
29	0x3fd1cfd5	1.639155
30	0xbf7719a6	-0.9652351
31	0xbd89d9ad	-0.067309715
32	0xbe48ab85	-0.1959668
33	0xbd7b6f54	-0.061385468
34	0xbeabd976	-0.33564347
35	0xbf0bf40c	-0.5466926
36	0x3b1aba77	0.0023609677
37	0x3ddaae47	0.10677772
38	0xbf9d5c4b	-1.229379
39	0xbde7dc46	-0.11321311
40	0x3bf3c5a5	0.0074393325
41	0xbeea245d	-0.45730868
42	0xbf35c632	-0.7100555
43	0xbf9cfcfa	-1.2264702
44	0xbeb2996f	-0.34882686
45	0x3cabe930	0.020985216
46	0xbfab09d0	-1.336237
47	0xbdc08399	-0.094001
48	0xbf33493e	-0.70033634
49	0xbe8ef33b	-0.27919945
50	0xbf533e35	-0.82516795
51	0xbd8ee800	-0.06977844
52	0x3ebf0064	0.37304986
53	0xbec01bf0	-0.37521315
54	0xbb83816e	-0.004013232
55	0xbf489b4e	-0.78361976
56	0xbee3a56f	-0.44462153
57	0xbdaef948	-0.085436404
58	0xbf29b866	-0.66296995
59	0x3f3c000a	0.7343756
60	0x3d14a72d	0.036292244
61	0xbf5dec64	-0.8668883
62	0x3ed79e9d	0.421132
63	0xbadc204d	-0.0016794294
64	0xbf4d042f	-0.8008451
65	0xbec1a69d	-0.37822428
66	0xbb55f8e3	-0.0032649569
67	0xbec33823	-0.38128766
68	0xbf546944	-0.8297312
69	0xbdb81caf	-0.08989846
70	0x3f1a5b40	0.60295486
71	0xbe93321a	-0.28749162
72	0x3aadf064	0.0013270495
73	0xbea263a1	-0.31716636
74	0xbf6b64d2	-0.91950715
75	0xbe197fd6	-0.14990172
76	0xbf020c43	-0.5079996
77	0xbf2df43f	-0.67950815
78	0x3f4dce61	0.80393034
79	0x3f6b2e09	0.9186712
80	0x3c89d551	0.01682535
81	0xb9358362	-0.00017310449
82	0x3e09e551	0.13466384
83	0x3fc791e8	1.5591402
84	0xbf03b996	-0.51455057
85	0x3fb88388	1.441514
86	0x3e644174	0.22290593
87	0x3ebf0533	0.37308654
88	0x3f4fba4c	0.8114364
89	0xbeecce48	-0.4625113
90	0x3d24f92e	0.0402767
91	0xbdfd1e1a	-0.12359257
92	0x3fa45c50	1.2840672
93	0x3ed91da4	0.42405427
94	0xbebe47c9	-0.37164143
95	0xbf03f7fe	-0.5155028
96	0x3e31ab9b	0.17350619
97	0xbf35a6d7	-0.709577
98	0xbf00ca84	-0.50309014
99	0xba3dc0b9	-0.0007238496
100	0x3ee7ecf9	0.45297983
101	0xbf711106	-0.941666
102	0xbe14aec5	-0.14519794
103	0x3e26072f	0.16213678
104	0xbe8a42d4	-0.2700411
105	0xbca0561c	-0.01957231
106	0x3f1df46b	0.6170108
107	0x3e7e023e	0.24805543
108	0x3a78ef57	0.00094961136
109	0x3f12ecd8	0.57392645
110	0xbf960aea	-1.1722081
111	0x3f06fb3e	0.52727115
112	0xbda48d34	-0.08034745
113	0xbdfdf19e	-0.123996004
114	0xbf41c22d	-0.75686914
115	0xbfb38a65	-1.402661
116	0xbd4f2530	-0.050572574
117	0xbaab8dd7	-0.0013088536
118	0x3e1c0310	0.15235543
119	0xbf073731	-0.5281859
120	0xbc91ddd6	-0.017805975
121	0x3f5d5921	0.86464125
122	0xbfa8e354	-1.3194375
123	0x3e71e78f	0.23623489
124	0xbf45343b	-0.7703282
125	0x3e9cec37	0.30648968
126	0x39b3aaf0	0.000342689
127	0x3ee2125b	0.4415463
128	0xbeeece52	-0.46641785
129	0xbf1d09a1	-0.6134282
130	0x3ed3c8f7	0.41364262
131	0xbfbba6db	-1.4660295
132	0xbdeff4c1	-0.11716605
133	0xbf74c1bb	-0.9560811
134	0x3e9294fe	0.28629297
135	0x38e47312	0.00010893321
136	0x3e9d71e0	0.30750942
137	0xbe76d196	-0.24103388
138	0x3e184532	0.14870146
139	0xbef8df9b	-0.48608097
140	0x3f09e68f	0.5386743
141	0xbfe17f9d	-1.761707
142	0xbea9a5a8	-0.33134198
143	0xbf118a71	-0.5685187
144	0xbbd184fc	-0.006394027
145	0xbf3f5145	-0.7473338
146	0xbf80c6ac	-1.006063
147	0xbeac8311	-0.33693746
148	0x3f542298	0.82865286
149	0x3d34c157	0.044129696
150	0xbe8f9956	-0.28046674
151	0xbea66548	-0.32499146
152	0x3e3340c3	0.17505173
153	0xbae607c9	-0.0017549928
154	0xbef1481f	-0.47125337
155	0xbf8cf4b9	-1.1012183
156	0xbdc87298	-0.09787482
157	0x3f072759	0.52794415
158	0xbe7b2e03	-0.24529271
159	0xbd4052e6	-0.046954058
160	0xbf884e4b	-1.0648893
161	0x3e18c1ba	0.14917651
162	0xb9879e76	-0.0002586727
163	0x3ea6f60e	0.326096
164	0xbf47c417	-0.78033584
165	0xb9a0df30	-0.00030683866
166	0xbe05ecbe	-0.13078591
167	0xbfa309f0	-1.2737408
168	0xbe05e951	-0.13077284
169	0x3e69916f	0.22809385
170	0x3da9bd7a	0.08288093
171	0xbb98f516	-0.0046678884
172	0x3e021ade	0.12705562
173	0xbe4a812a	-0.19775835
174	0xbe32bf01	-0.17455675
175	0xbf51c5cb	-0.81942433
176	0x3fed70ab	1.8550009
177	0x3d8d21a3	0.06891181
178	0xbf6576ff	-0.896347
179	0x3d21da1b	0.039514642
180	0x3a1c4a31	0.0005961983
181	0x3f5dde14	0.8666699
182	0xbf400bbc	-0.75017905
183	0x3e9081b1	0.28223947
184	0xbf08c721	-0.53428847
185	0x3d7409a2	0.0595795
186	0x3f44125d	0.7659052
187	0xbf96bd96	-1.1776607
188	0x3d00208d	0.031281043
189	0x3bdfd92f	0.00683131
190	0xbf16170e	-0.5862893
191	0x3f1a9294	0.6037991
192	0x3f08809a	0.5332123
193	0xbeb222f7	-0.347923
194	0x3fa126b9	1.2589942
195	0x3f899719	1.0749236
196	0xbe23f337	-0.16010748
197	0xbe3ff243	-0.1874476
198	0xbb32882e	-0.0027241814
199	0xbf2695a3	-0.6507208
200	0xbee3c76f	-0.44488093
201	0x3ba77299	0.0051100967
202	0xbfa01b06	-1.2508247
203	0x3f163c28	0.5868554
204	0xbed529ea	-0.4163354
205	0xbe8f4f37	-0.27990124
206	0x3ebe960f	0.3722386
207	0x3c733ad0	0.014845565
208	0xbf3df207	-0.7419743
209	0xbebccd4f	-0.36875388
210	0x3e17acc1	0.14811994
211	0x3f522a0e	0.8209542
212	0xbd965742	-0.07340862
213	0x3fe7c832	1.810797
214	0xbd5b2be8	-0.05350867
215	0x3f7c0573	0.98445815
216	0xbc2af9b6	-0.010435512
217	0xbdb17cf2	-0.086664096
218	0x3f29b93e	0.6629828
219	0x3e8edb15	0.2790152
220	0xbef1b377	-0.47207233
221	0xbfb7e78d	-1.4367539
222	0xbee94e57	-0.4556758
223	0xbea28332	-0.3174072
224	0xbf96ff08	-1.1796579
225	0xbb1ab14d	-0.0023604215
226	0x3f228b6c	0.6349399
227	0xbf90a272	-1.1299574
228	0x3d0ef301	0.034899715
229	0xbf67c2c3	-0.9053156
230	0x3cef7096	0.02922849
231	0x3e319675	0.17342551
232	0x3f539aa5	0.82657844
233	0x3e049fa6	0.12951526
234	0xbbe233cf	-0.0069031487
235	0xbfac59e1	-1.3464929
236	0xbf3de7fa	-0.74182093
237	0xbec0127e	-0.37514108
238	0x3ed7cb46	0.42147273
239	0x3f4a3184	0.78981805
240	0xbed26100	-0.4108963
241	0x39bdd3f9	0.0003620682
242	0x3e9f39dc	0.3109883
243	0x3b80ca45	0.0039303624
244	0xbf91374c	-1.1345
245	0x3f38de5a	0.7221428
246	0xbe6c29ed	-0.23062868
247	0x3ec932c2	0.39296538
248	0x3f243fcc	0.64159846
249	0xbed90f43	-0.42394456
250	0xbf44048a	-0.76569426
251	0xbf60658f	-0.87654966
252	0x3ae1e54b	0.0017234472
253	0x3d801e38	0.06255764
254	0xbed4df1d	-0.41576472
255	0xbeba3853	-0.36371097

l1.bias f4 [189]
0	0xbe4e40ce	-0.20141909
1	0x3ec8cc21	0.39218238
2	0xbeb494e6	-0.3526985
3	0xbd3e6b38	-0.04648897
4	0x3cf43d0c	0.029814266
5	0x3df7c9d0	0.120990396
6	0x3f031743	0.5120737
7	0x3ef6e632	0.482225
8	0x3d1f4252	0.038881607
9	0xbe8667e8	-0.2625115
10	0xbf1cc6b6	-0.6124071
11	0x3ee0aef9	0.43883494
12	0xbdecaa2c	-0.11555895
13	0x3eb3dede	0.35130972
14	0x3e3a48d9	0.18191852
15	0xbe7ed65e	-0.24886462
16	0xbe0774d4	-0.1322816
17	0x3e8ccf4f	0.27501914
18	0x3ea1b8c2	0.31586272
19	0x3f043340	0.516407
20	0xbd610bfe	-0.054943077
21	0xbd887528	-0.06662971
22	0x3ed12170	0.40845823
23	0xbe182cd7	-0.14860855
24	0xbe8153c1	-0.25259212
25	0x3eb10b16	0.3457877
26	0xbe04feff	-0.12987898
27	0xbe192b0b	-0.14957826
28	0xbd24665c	-0.04013668
29	0x3e86dd60	0.2634077
30	0xbe4537cb	-0.19259565
31	0x3e68da03	0.22739415
32	0x3efc1175	0.4923207
33	0x3d9cebf7	0.07662194
34	0xbd335ecb	-0.043791573
35	0xbcc86d5f	-0.024466215
36	0xbe5fb679	-0.21846952
37	0xbe9dbec2	-0.308096
38	0xbec2e6d4	-0.38066733
39	0xbea19d15	-0.31565157
40	0x3f3a8945	0.72865707
41	0x3d9826de	0.07429288
42	0xbf02a212	-0.5102855
43	0x3d615643	0.055013906
44	0x3eeb4670	0.45952177
45	0x3e2a932c	0.16657704
46	0x3d704cd7	0.05866703
47	0xbe2d2154	-0.16907245
48	0xbdd19165	-0.1023281
49	0x3e55bffc	0.20874017
50	0x3de7a511	0.11310781
51	0x3de0a7c9	0.109695025
52	0xbd478f3e	-0.04872059
53	0xbf0b1949	-0.5433546
54	0xbf0a9e67	-0.5414795
55	0x3e8ab53c	0.27091396
56	0x3e1571d5	0.14594205
57	0xbe968f2f	-0.29406115
58	0xbe9b78c0	-0.30365562
59	0x3f4c6247	0.7983746
60	0xbeabe646	-0.33574122
61	0xbdb5f992	-0.088854924
62	0xbdc1e833	-0.094681166
63	0xbe335e1c	-0.17516369
64	0xbd9bd33c	-0.07608649
65	0x3e359bb9	0.17735185
66	0xbe60bc5a	-0.2194685
67	0x3cdbd839	0.026836501
68	0x3ed7df0d	0.42162362
69	0x3e7ff6b1	0.24996449
70	0xbf1622e5	-0.58646995
71	0xbe98fae5	-0.29878917
72	0xbe6f254b	-0.2335407
73	0xbd801926	-0.06254797
74	0x3dcb2d17	0.099207096
75	0x3e27ef40	0.1639986
76	0x3e31ef19	0.17376365
77	0x3ee18f8d	0.44054833
78	0xbd3eb0b3	-0.046555232
79	0x3ed8c49a	0.42337495
80	0x3e11a651	0.14223601
81	0xbdd7161e	-0.105022654
82	0xbc73234b	-0.0148399575
83	0x3ebc7ffb	0.3681639
84	0x3e47f72c	0.19527882
85	0x3e479289	0.19489492
86	0x3f40b639	0.7527805
87	0xbe0d3774	-0.13790685
88	0x3e109fd7	0.14123474
89	0x3ce231ae	0.02761158
90	0x3e82a2ea	0.2551492
91	0xbef34dde	-0.47520345
92	0x3c12b19c	0.008953478
93	0xbed499d9	-0.41523626
94	0x3c5ac2ac	0.013352077
95	0xbdb2772f	-0.08714139
96	0xbe888fc5	-0.26672187
97	0x3ee17332	0.440332
98	0xbeb50248	-0.35353303
99	0x3e0d3a39	0.13791741
100	0xbc2d6268	-0.010582544
101	0x3eba7bc5	0.36422554
102	0x3e99c91d	0.3003625
103	0xbe9f5d8e	-0.31126064
104	0xbd2079f5	-0.039178807
105	0x3bbaadb6	0.0056969775
106	0xbdfb8a17	-0.12282198
107	0x3f36a0c9	0.7133909
108	0x3e3a4e79	0.18193997
109	0x3e0ea4ef	0.13930105
110	0xbd82a926	-0.06379919
111	0x3dd4cbe4	0.103904516
112	0xbe9a37f6	-0.3012082
113	0xbe9a40f5	-0.30127683
114	0x3dfaa361	0.12238193
115	0x3e973daa	0.29539233
116	0x3e65c8ad	0.22439833
117	0x3ed0cbb7	0.40780422
118	0x3ea6514b	0.32483897
119	0xbeed6fcb	-0.46374354
120	0xbd2da2c8	-0.04239157
121	0xbf1aae2f	-0.60422033
122	0x3dea1790	0.114302754
123	0x3e94a466	0.29031676
124	0xbd5139d0	-0.051080525
125	0x3da8da8c	0.082448095
126	0x3e07c1c6	0.13257512
127	0x3d83e4db	0.06440135
128	0x3e8098dc	0.25116622
129	0x3e637f1b	0.22216456
130	0xbd85827c	-0.065190285
131	0xbefff223	-0.49989423
132	0x3e3effc5	0.18652256
133	0x3eadee43	0.33970842
134	0xbc1b53b8	-0.009480409
135	0xbd8c2b1c	-0.0684416
136	0x3d8b5120	0.06802583
137	0xbedf2ed5	-0.43590418
138	0xbeb582b5	-0.35451284
139	0xbe826870	-0.25470304
140	0xbf152323	-0.5825674
141	0x3cbac755	0.022800127
142	0xbc5e6abb	-0.013575251
143	0x3e52cb53	0.20585375
144	0x3e33435d	0.17506166
145	0xbdcd4c28	-0.10024291
146	0xb9cefc1f	-0.00039479227
147	0xbecf6c00	-0.40512085
148	0xbe2cbd67	-0.16869126
149	0xbefb64f4	-0.4910046
150	0x3e861e23	0.26194867
151	0x3f0ca0f8	0.5493312
152	0x3e53f2aa	0.20698038
153	0xbd28aa1f	-0.041177865
154	0x3d9d526a	0.07681735
155	0xbe912408	-0.28347802
156	0x3e77e362	0.24207833
157	0x3d98edf9	0.07467265
158	0xbdc160a6	-0.09442262
159	0xbea45bd9	-0.32101324
160	0x3f148fd6	0.58031976
161	0xbd499e4a	-0.04922322
162	0xbdfca55c	-0.12336227
163	0xbe830475	-0.25589338
164	0xbe86382f	-0.2621474
165	0x3ee75811	0.45184377
166	0x3ec35286	0.38148898
167	0x3ea694bc	0.3253535
168	0x3f135656	0.57553613
169	0xbee85c0e	-0.45382732
170	0x3e47c858	0.19510019
171	0x3f0afef6	0.5429529
172	0xbe76a15b	-0.2408499
173	0x3d1a6a80	0.037699223
174	0x3eaf9c81	0.3429909
175	0xbdc2f5f7	-0.0951957
176	0xbda23a9a	-0.079213336
177	0xbee351fe	-0.44398493
178	0x3ea51085	0.32239166
179	0xbecb2fd6	-0.39684933
180	0x3e2c5f89	0.16833319
181	0xbf1159ae	-0.56777465
182	0xbf101ab9	-0.56290776
183	0xbcbfcc15	-0.023412744
184	0x3eb2a727	0.34893152
185	0x3eee5179	0.46546534
186	0xbef7b8a4	-0.48383057
187	0xbee36bbe	-0.44418138
188	0x3dfc6b27	0.12325125

l2.weight f4 [119, 189]
0	0x3d6be24c	0.05758886
1	0xbd4ce199	-0.050019834
2	0x3d0fe82a	0.03513352
3	0xbe0a61a9	-0.13513817
4	0x3b67e13d	0.0035382055
5	0xbdab12e5	-0.08353213
6	0x3eac1cc9	0.3361571
7	0xbdaede78	-0.08538526
8	0xbe2622bd	-0.16224189
9	0xbe78f996	-0.2431396
10	0x3a1c0483	0.00059516
11	0x3d153915	0.03643139
12	0x3c65bebb	0.0140225245
13	0x3e363138	0.17792213
14	0xbd99cae8	-0.075094044
15	0x3d95e9fc	0.073200196
16	0x3d27bcdc	0.040951595
17	0x3d6ef4c9	0.058338914
18	0x3c0c0bb9	0.008547717
19	0x3ee59585	0.44840637
20	0x3dc14b23	0.09438159
21	0xbd9536ae	-0.0728582
22	0x3e74ff80	0.2392559
23	0xbe1b14a8	-0.15144598
24	0x3c4d1500	0.012517214
25	0x3cfdad79	0.030966507
26	0x3d96a488	0.073556006
27	0xbc85b795	-0.01632289
28	0x3c597f30	0.013274953
29	0x3d80c26f	0.06287085
30	0xbe0df98f	-0.1386473
31	0xbd6aa6f5	-0.05728813
32	0x3e9893fe	0.2980041
33	0x3bc2841b	0.0059361584
34	0x3ec6325a	0.3871029
35	0xbd4e2716	-0.050330244
36	0x3c7f1dd8	0.01557108
37	0xbd6bcd92	-0.057569094
38	0xbdbea087	-0.09307962
39	0x3ae49093	0.0017438106
40	0x3e5eac86	0.217455
41	0x3d83f65d	0.064434744
42	0xbd8e0a02	-0.069355026
43	0xbe1159ae	-0.14194366
44	0x3e729083	0.2368794
45	0x3d7eff9a	0.06225548
46	0x3bbba6a3	0.0057266518
47	0xbd9b9864	-0.075974256
48	0x3b001df9	0.0019549115
49	0x3e052c91	0.13005282
50	0x3ef44378	0.47707725
51	0x3e19a9bf	0.15006159
52	0xbe15db07	-0.14634334
53	0x3d202924	0.039101735
54	0xbdc59020	-0.0964663
55	0x3e6cbaf5	0.23118193
56	0x3e172fb6	0.14764294
57	0xbd43bab1	-0.047785465
58	0x3d668fb5	0.056289393
59	0x3d45251b	0.04813109
60	0xbdc90fdc	-0.09817478
61	0xbe0171ae	-0.12641022
62	0x3d04dc58	0.0324367
63	0xbd2bf354	-0.041980103
64	0x3b849fa7	0.0040473524
65	0x3d42ac53	0.047527622
66	0x3d0e210b	0.03469948
67	0x3e0bcc3b	0.13652126
68	0xbeb148a4	-0.34625733
69	0x3e72ec4f	0.23722957
70	0xbdf4ccbe	-0.11953114
71	0xbd9223ff	-0.07135772
72	0xbcc46a6d	-0.023976529
73	0xbe730fd2	-0.23736504
74	0x3dae4a6b	0.08510288
75	0x3e7f806e	0.24951336
76	0x3c4499f5	0.011999597
77	0x3e65cef7	0.22442232
78	0xbec41cb8	-0.3830316
79	0x3d347fe9	0.044067297
80	0x3ec125b4	0.37724078
81	0x3dcb5001	0.09927369
82	0xbd65929e	-0.05604803
83	0x3d54e8da	0.051979877
84	0x3ccc751d	0.024958188
85	0xbdc6728d	-0.096898176
86	0xbd68f3e2	-0.05687321
87	0xbc324c15	-0.010882397
88	0x3dab93c8	0.083777964
89	0xbd611e16	-0.054960333
90	0x3d974b4d	0.07387409
91	0xbd1047ce	-0.03522473
92	0xbc882f56	-0.016624134
93	0xbe5a3b89	-0.21311773
94	0xbbefa930	-0.00731387
95	0xbcfd7542	-0.030939702
96	0xbd62bf45	-0.05535819
97	0x3e9d9b07	0.3078234
98	0xbd26c162	-0.040711768
99	0x3d10faa5	0.035395283
100	0xbd17555f	-0.03694665
101	0xbd0a5d15	-0.033780176
102	0x3d96222a	0.07330735
103	0xbe1af9d4	-0.15134364
104	0xbd593624	-0.05303015
105	0xbe5d72ce	-0.21625826
106	0xbdda5d90	-0.10662377
107	0x3d5cf0de	0.053940646
108	0xbe11e3ff	-0.1424713
109	0x3eb9d1e8	0.36292958
110	0x3e57e586	0.2108365
111	0x3eb7f9ea	0.35932857
112	0x3cb907ac	0.022586666
113	0x3d06fecd	0.03295784
114	0xbe0b10ba	-0.135806
115	0xbe16bed6	-0.14721236
116	0x3e5c2818	0.2149967
117	0x3cf1d86b	0.029522141
118	0xbd209d52	-0.039212532
119	0xbbcf5441	-0.0063271825
120	0x3d8f6b71	0.07002915
121	0xbe3b45cb	-0.18288343
122	0x3e9ac7a0	0.30230427
123	0xbcbaf6c5	-0.022822747
124	0x3e332d0b	0.17497651
125	0x3d01b6d0	0.031668484
126	0x3d633ba2	0.055476792
127	0x3e3a2b4c	0.18180579
128	0x3e45a261	0.19300224
129	0x3df49936	0.11943285
130	0x3eba420c	0.36378515
131	0x3cbeff47	0.023315085
132	0xbca8c116	-0.020599883
133	0xbd8f0578	-0.06983465
134	0x3ccb8985	0.024845848
135	0x3d2990b4	0.041397765
136	0xbc943e24	-0.018096037
137	0xbd89dac6	-0.06731181
138	0xbdb13bef	-0.086540096
139	0xbe47707a	-0.194765
140	0x3b5e2dcc	0.0033901809
141	0x3e0d2683	0.13784222
142	0xbd306658	-0.043066353
143	0x3d443819	0.04790506
144	0x3e1c8996	0.1528686
145	0x3d057e07	0.032590892
146	0xbe0daada	-0.13834706
147	0xbbd1fc21	-0.00640823
148	0xbbb73732	-0.0055912966
149	0xbc39a7e3	-0.011331531
150	0xbd80f8a7	-0.06297427
151	0x3e47735a	0.19477597
152	0xbe3d7d91	-0.18504931
153	0xbd6257cc	-0.05525951
154	0x3e7b72e7	0.2455555
155	0xbc8e0e68	-0.017340854
156	0xbd5e60d7	-0.054291572
157	0x3e1a0f35	0.15044864
158	0x3e51a76e	0.20474026
159	0xbd054067	-0.032532122
160	0x3d81f8df	0.063462965
161	0xbd0e99d8	-0.034814686
162	0x3d1c6faa	0.03819243
163	0x3e0a1c4b	0.13487355
164	0xbdd62337	-0.104559354
165	0xbd9e8a35	-0.07741205
166	0x3e993686	0.2992441
167	0x3d329f8e	0.043609194
168	0x3e33f104	0.17572409
169	0xbe00d220	-0.12580156
170	0x3e7beb01	0.24601366
171	0x3e00fb0c	0.12595767
172	0xbd3317b0	-0.043723762
173	0xbb013af8	-0.0019718986
174	0xbca4b9d0	-0.020108134
175	0x3d259b15	0.0404311
176	0x3d5faec9	0.054610047
177	0x3c6ce2ec	0.014458399
178	0x3dd3eae2	0.10347535
179	0x3d7bbf21	0.06146157
180	0x3e08e697	0.13369213
181	0xbe0d839c	-0.13819736
182	0xbd84ef27	-0.06490927
183	0xbd246ec9	-0.040144715
184	0x3d3220c2	0.04348827
185	0xbe8ac99a	-0.27106935
186	0xbdadc6b6	-0.08485167
187	0xbdf5e92e	-0.12007366
188	0x3db45b50	0.08806479
189	0x3d074e2e	0.033033542
190	0xbe352960	-0.17691565
191	0xbdc8b719	-0.09800548
192	0xbec92e2b	-0.39293036
193	0xbe1c2751	-0.15249373
194	0xbe1a7274	-0.15082723
195	0xbe839175	-0.25696912
196	0xbe72aa9c	-0.23697895
197	0xbc9f620e	-0.019455936
198	0xbbc42f35	-0.005987073
199	0x3bdd609b	0.006755901
200	0x3e2ebc36	0.17063984
201	0xbcd15a2c	-0.025555693
202	0xbe4b4d18	-0.19853628
203	0xbea4b9d7	-0.32173035
204	0xbdfd586f	-0.12370383
205	0xbd9f6e20	-0.077846766
206	0xbe6443e8	-0.22291529
207	0xbe0d48ce	-0.13797304
208	0x3d188ab7	0.037241664
209	0xbc391097	-0.011295459
210	0x3e9b8a3d	0.30378905
211	0xbebc6ea5	-0.36803165
212	0x3e039dc1	0.12853147
213	0xbe1f8d38	-0.15581214
214	0xbd28eb5a	-0.041240074
215	0xbdc0d34e	-0.09415303
216	0xbdff1f5c	-0.12457153
217	0xbcc769f1	-0.024342509
218	0xbeb9b021	-0.36267188
219	0xbcea80b3	-0.028625822
220	0xbdcdcd31	-0.10048903
221	0xbeae676b	-0.34063277
222	0x3a5531da	0.00081327336
223	0xbdb37a01	-0.08763505
224	0xbdce6dc7	-0.10079532
225	0x3d937559	0.07200117
226	0x3cb88c02	0.022527698
227	0xbc96fb74	-0.018430449
228	0xbe86047b	-0.26175293
229	0xbe672a4c	-0.22574729
230	0xbd651a06	-0.05593302
231	0xbd9b59ae	-0.075854644
232	0xbc86031f	-0.01635891
233	0xbe0f12fb	-0.13972084
234	0x3b1fc757	0.002438029
235	0x3c4768e0	0.012171
236	0x3d297676	0.04137274
237	0x3e6c17b6	0.2305592
238	0xbe0af711	-0.13570811
239	0xbec6ad42	-0.3880406
240	0x3e0221f9	0.12708272
241	0xbd335e89	-0.043791328
242	0xbdc1416f	-0.094363086
243	0x3e486379	0.19569196
244	0x3e44910f	0.1919596
245	0xbc624dd6	-0.013812503
246	0xbdb7eb2c	-0.08980402
247	0x3deba06e	0.11505209
248	0xbe87b0e6	-0.2650215
249	0x3e25243d	0.16127105
250	0xbea9626f	-0.3308291
251	0x3e69b23a	0.22821894
252	0x3eafe5eb	0.343551
253	0x3e8d06f8	0.2754438
254	0xbeb07beb	-0.34469542
255	0xbe17650b	-0.14784639

l2.bias f4 [119]
0	0x3e40ac22	0.18815663
1	0xbcb43f90	-0.022002965
2	0xbda47ae9	-0.08031256
3	0x3d5d8e7a	0.054090954
4	0x3d96b989	0.07359607
5	0x3e32cce0	0.17460966
6	0xbe7fe7f1	-0.24990822
7	0x3db4119b	0.087924205
8	0x3cfe3074	0.031028964
9	0x3e430ea4	0.19048554
10	0x3e91b912	0.2846151
11	0xbe1f76a8	-0.15572608
12	0xbc425f4a	-0.011863539
13	0x3e1dae5c	0.15398544
14	0x3de51048	0.11184746
15	0x3989c628	0.00026278314
16	0x3caf1ed9	0.021377014
17	0x3de08998	0.10963744
18	0x3d61cc9a	0.055126764
19	0x3d4f7b17	0.050654497
20	0x3da73b90	0.081656575
21	0x3e21cc73	0.15800647
22	0x3e055e43	0.13024239
23	0x3e0302e7	0.12794076
24	0x3dc30a58	0.09523457
25	0x3e55e205	0.20887001
26	0x3df30b4e	0.118673906
27	0x3ddc6a56	0.107624695
28	0x3cab9384	0.020944364
29	0x3d363701	0.04448605
30	0x3e0e0155	0.13867696
31	0x3d1e0ef1	0.038588468
32	0x3d293947	0.04131439
33	0x3c94ac38	0.018148527
34	0x3e2a6588	0.16640294
35	0x3d3b74b6	0.0457656
36	0xbda6bc75	-0.08141414
37	0xbd54f5c4	-0.051992193
38	0x3e3209c9	0.17386545
39	0x3e7dfeaf	0.24804185
40	0x3dd59f22	0.10430743
41	0xbdd3cc0a	-0.10341652
42	0x3e0e6203	0.13904576
43	0x3e083780	0.13302422
44	0x3e02799f	0.12741707
45	0x3e60eb63	0.21964793
46	0x3d8204a0	0.063485384
47	0x3d63754c	0.055531785
48	0x3eb283ca	0.34866172
49	0x3c9d0ca5	0.019171068
50	0x3e257e63	0.16161494
51	0xbd201f15	-0.039092142
52	0xbd187882	-0.0372243
53	0xbd25b4f6	-0.04045578
54	0xbdebbf89	-0.11511142
55	0xbdcad85f	-0.09904551
56	0xbe1038ff	-0.14084242
57	0x3e3bba38	0.18332756
58	0x3e192575	0.14955695
59	0x3dc1c883	0.09462073
60	0x3d92f70b	0.07176026
61	0x3e639211	0.22223689
62	0xbcc8544c	-0.024454258
63	0x3d4e6e6b	0.05039827
64	0x3e6efd83	0.23338895
65	0x3e03cb32	0.12870482
66	0x3db1c1fc	0.08679578
67	0x3db0c46b	0.08631214
68	0xbbe47386	-0.0069717793
69	0x3c7a63f3	0.015282619
70	0x3d8d7482	0.06906988
71	0x3df48bc5	0.119407214
72	0x3df224be	0.11823414
73	0x3d85c708	0.06532103
74	0x3e3776d8	0.17916429
75	0x3d6a78ac	0.057243988
76	0xbe79a6cb	-0.24380033
77	0x3d37eda9	0.044904385
78	0x3dd4b228	0.10385543
79	0x3dc41416	0.095741436
80	0x3d4b606c	0.049652502
81	0x3dc2c966	0.0951107
82	0x3dc9f6b7	0.0986151
83	0x3d7cd700	0.061728477
84	0x3e44a4d8	0.19203508
85	0x3e69bba8	0.22825491
86	0x3cdbf37c	0.0268495
87	0x3ec87431	0.39151147
88	0x3bb5288d	0.0055285157
89	0x3d708d5c	0.05872856
90	0xbd7dfded	-0.06200974
91	0x3de4f4a4	0.11179474
92	0x3cf5e4dc	0.030016355
93	0x3de86749	0.11347825
94	0x3da90bf6	0.082542345
95	0xbcd810df	-0.026375232
96	0xbb96af63	-0.0045985444
97	0x3e3cef10	0.1845057
98	0x3e87c1d0	0.26515055
99	0x3d7259a5	0.059167523
100	0x3e3ccaf3	0.18436794
101	0x3ccbc288	0.024873033
102	0xbe20d48f	-0.15706085
103	0x3d863ecc	0.06554946
104	0xbd8d9b0d	-0.06914339
105	0x3de3b8c1	0.111192234
106	0xbd368c20	-0.044567227
107	0x3e3866ec	0.18008012
108	0x3dc46b02	0.095907226
109	0x3ca10cf1	0.019659491
110	0x3e111f89	0.14172186
111	0xbdbf08a4	-0.0932782
112	0x3e076a3c	0.13224119
113	0x3d24ea1f	0.040262338
114	0x3e889518	0.2667625
115	0x3dd02179	0.101626344
116	0x3dbb2080	0.09137058
117	0x3e03057e	0.12795064
118	0xbd7efbe6	-0.062251948

l3.weight f4 [9, 119]
0	0xbdf07551	-0.11741126
1	0x3de3806c	0.11108479
2	0xbef02a31	-0.4690719
3	0xbb6608ff	-0.0035100577
4	0x3e3c2766	0.18374404
5	0x3e07a248	0.13245499
6	0x3e5682d5	0.20948346
7	0x3cdbf0ac	0.02684816
8	0xbe49b0c7	-0.19696341
9	0xbed2200a	-0.4104007
10	0x3e35caff	0.17753218
11	0x3eda4b85	0.42635742
12	0xbe9c4b01	-0.30525973
13	0x3d9c18b5	0.076219
14	0xbef4c78b	-0.4780849
15	0x3ea05e36	0.31321877
16	0x3e553818	0.2082218
17	0xbd0827bb	-0.033241015
18	0x3e3c2055	0.18371709
19	0x3dce2816	0.100662395
20	0xbd4ac654	-0.049505547
21	0xbe31c95d	-0.1736197
22	0xbe68ab80	-0.22721672
23	0xbd9b7796	-0.075911686
24	0x3bf39f59	0.007434767
25	0xbe87ecd8	-0.26547885
26	0x3e2c5df7	0.1683272
27	0x3d935386	0.07193665
28	0xbe246934	-0.16055757
29	0x3db36359	0.087591834
30	0xbe450314	-0.19239455
31	0xbdbbed12	-0.09176077
32	0x3e1956fe	0.14974591
33	0x3b17adee	0.0023144442
34	0x3ec8573a	0.3912905
35	0x3e5fe447	0.21864425
36	0xbfc148bf	-1.5100325
37	0xbd51d9c5	-0.05123307
38	0xbe93d552	-0.28873688
39	0x3e5d8680	0.21633339
40	0xbe850f6c	-0.25988328
41	0xbd91ddff	-0.071224205
42	0xbd67db3c	-0.056605563
43	0x3e2e0c80	0.16996956
44	0xbdebd7c5	-0.11515764
45	0x3d1591ac	0.036515877
46	0xbd86a555	-0.06574503
47	0x3eb9e218	0.36305308
48	0xbe52ec09	-0.20597853
49	0x3e8920c4	0.2678281
50	0x3e0b73f4	0.13618451
51	0x3e093bfe	0.13401791
52	0x3d64605c	0.055755958
53	0xbeb41dde	-0.35179037
54	0x3e557366	0.20844802
55	0xbcb58613	-0.022158658
56	0x3e8b8dce	0.27256626
57	0x3e05814c	0.13037604
58	0x3dd68f33	0.10476532
59	0x3dc41078	0.09573454
60	0xbccdbf37	-0.025115592
61	0xbe1d8847	-0.15384017
62	0xbd00784a	-0.031364717
63	0x3e478028	0.19482481
64	0x3e75b944	0.23996454
65	0x3e3128f1	0.17300774
66	0xbe58af4d	-0.21160622
67	0xbda3f2da	-0.08005305
68	0x3e504ca7	0.2034174
69	0x3c17e560	0.009270996
70	0xbc8c0226	-0.017090868
71	0x3e3e1946	0.18564329
72	0x3b565ce0	0.0032709166
73	0xbdb091db	-0.0862157
74	0x3e88448a	0.2661479
75	0x3ea47d4f	0.32126853
76	0x3d9f2c4a	0.07772119
77	0x3ddab33a	0.10678716
78	0xbe94864d	-0.29008713
79	0x3de2b989	0.11070544
80	0xbd1be0e1	-0.038056258
81	0xbdd31e41	-0.10308505
82	0xbd9a52cf	-0.07535326
83	0xbda7d316	-0.08194558
84	0x3c9ece47	0.01938547
85	0xbd48683d	-0.048927534
86	0xbe8153db	-0.2525929
87	0xbeb6e17c	-0.35718906
88	0x3d8b36e9	0.06797583
89	0xbe48504f	-0.19561885
90	0x3e7e4fb6	0.24835095
91	0xbe44c9bf	-0.19217585
92	0x3e09ed8e	0.13469526
93	0x3e411132	0.18854216
94	0xbde49ad8	-0.111623466
95	0x3dcbd9b8	0.09953636
96	0x3e438c82	0.19096568
97	0xbeabf1b9	-0.33582857
98	0xbd5f0ad0	-0.05445367
99	0x3d083999	0.033258054
100	0x3e6805e8	0.22658503
101	0xbe2f9e91	-0.17150332
102	0x3ebc82fe	0.3681869
103	0xbccd9d84	-0.025099523
104	0xbf103a10	-0.56338596
105	0x3e08d129	0.13361038
106	0x3e034bf6	0.12821946
107	0xbccf514e	-0.025307324
108	0xbc532a87	-0.012888557
109	0x3e62e8d2	0.22159126
110	0x3ea2a59a	0.3176697
111	0x3e26209a	0.16223374
112	0xbe44f110	-0.19232583
113	0x3e0f7389	0.14008917
114	0x3d894d25	0.06704167
115	0x3e709299	0.23493423
116	0x3d66bd3e	0.05633282
117	0xbe601605	-0.218834
118	0xbbcababe	-0.006186812
119	0x3d477b70	0.048701704
120	0xbe30ac81	-0.17253305
121	0xbe2cc05a	-0.16870251
122	0xbe8350ad	-0.25647488
123	0x3e30bc85	0.17259414
124	0x3e227651	0.15865447
125	0x3e66d7f2	0.22543314
126	0xbd13d74b	-0.03609399
127	0xbea95fa6	-0.33080786
128	0x3d16cf13	0.036818575
129	0x3e3e8e5b	0.18608992
130	0x3f3fa01a	0.7485367
131	0xbe414157	-0.18872581
132	0x3df41fae	0.11920105
133	0x3f069b4d	0.5258072
134	0xbea73f5a	-0.3266552
135	0xbdaea4c3	-0.085275196
136	0xbf0cc6bf	-0.5499076
137	0x3d9b38e5	0.07579211
138	0x3d13e1ab	0.036103886
139	0x3e086b08	0.13322079
140	0xbe25c41a	-0.16188088
141	0x3e53910e	0.20660803
142	0x3d37c357	0.044864025
143	0xbef4f636	-0.47844094
144	0x3ea703a0	0.32619953
145	0x3f00615d	0.50148565
146	0x3e554a05	0.20829017
147	0x3e1ea317	0.15491901
148	0x3d85cafc	0.06532857
149	0x3e09119b	0.13385622
150	0x3f0511f0	0.51980495
151	0x3c59d5cc	0.013295602
152	0xbc0f7158	-0.008755051
153	0x3e885c25	0.266328
154	0x3dff5117	0.124666385
155	0x3ec1e39e	0.3786897
156	0x3ef5ff3e	0.48046297
157	0xbe8395fe	-0.25700372
158	0x3e34877c	0.17629808
159	0x3e1a551f	0.15071534
160	0xbd6cc398	-0.05780372
161	0x3e2729a2	0.16324475
162	0xbcdee5ed	-0.027209247
163	0xbdbef791	-0.09324563
164	0x3c794f9a	0.015216732
165	0xbdbf8939	-0.09352345
166	0xbc9bee39	-0.019034492
167	0xbe8cef44	-0.27526295
168	0xbd399a55	-0.045313198
169	0x3dd6b567	0.104838185
170	0x3d1a2692	0.03763444
171	0xbdfe6346	-0.12421279
172	0xbe4c7a99	-0.19968642
173	0x3e37d0a3	0.17950682
174	0xbee377f6	-0.4442746
175	0x3e6df773	0.23238926
176	0x3e3715b7	0.17879377
177	0x3de20487	0.1103602
178	0x3c6a2be4	0.014292691
179	0x3e6c766e	0.23092052
180	0x3d8a9984	0.06767562
181	0xbe044cba	-0.12919894
182	0x3ef09cda	0.46994668
183	0x3ea5d6cb	0.32390437
184	0x3d9a3a73	0.075306796
185	0xbebb747c	-0.36612308
186	0xbdbbace9	-0.09163839
187	0x3dd49bf0	0.10381305
188	0xbe250b94	-0.16117698
189	0xbe0bcb55	-0.13651784
190	0x3e1ea00f	0.15490745
191	0x3daf7cdf	0.08568739
192	0x3d5d8eea	0.05409137
193	0x3be5bc60	0.0070109814
194	0xbdc02ab2	-0.093831435
195	0xbf5553d1	-0.8333102
196	0x3e23f57f	0.16011618
197	0x3e4a25a4	0.19740921
198	0x3e3a03dd	0.18165536
199	0x3e08df5c	0.13366455
200	0x3cd86ac7	0.026418103
201	0xbe8fc45b	-0.28079495
202	0xba6d8422	-0.0009060522
203	0x3d267ac3	0.04064442
204	0x3e1eff5a	0.15527096
205	0xbe9706ff	-0.29497525
206	0xbe7099f0	-0.23496222
207	0xbcae1f34	-0.021255113
208	0x3ef10cb4	0.47080004
209	0x3e24d2ed	0.16096087
210	0x3e380ef7	0.17974459
211	0x3e1df9a9	0.15427269
212	0x3e874766	0.2642166
213	0x3e1d65f0	0.15370917
214	0x3d482075	0.04885908
215	0x3e5656f7	0.20931612
216	0x3e570c54	0.21000797
217	0x3e66fa48	0.22556412
218	0x3dd209ef	0.10255801
219	0xbeca3e71	-0.39500764
220	0xbe12d6ec	-0.14339799
221	0x3dc9525f	0.09830164
222	0xbe7d9493	-0.24763708
223	0x3db7b8f9	0.089708276
224	0x3d1273af	0.035754856
225	0xbce1b28d	-0.02755096
226	0x3eb199cb	0.34687647
227	0x3dd28027	0.10278349
228	0x3e16dca5	0.14732607
229	0x3ed91383	0.423977
230	0xbd03a8d8	-0.032143444
231	0x3e5a4ea5	0.21319063
232	0x3d6f35ce	0.05840092
233	0x3df7a771	0.12092484
234	0x3edefadb	0.43550763
235	0x3d831acf	0.06401598
236	0xbe05d532	-0.13069609
237	0x3e92432d	0.28566876
238	0xbcd61a23	-0.02613551
239	0x3da70324	0.08154896
240	0x3eb84088	0.35986733
241	0x3e55c17e	0.20874593
242	0x3e78e187	0.24304782
243	0xbca2e944	-0.01988662
244	0x3e6ccb47	0.23124419
245	0x3ebf8033	0.37402496
246	0x3e89aa6b	0.2688783
247	0x3d697628	0.05699745
248	0x3c939dfb	0.018019667
249	0xbf12307a	-0.5710522
250	0x3ed0b8db	0.40766034
251	0x3dd9484a	0.10609491
252	0x3f01e4bc	0.50739646
253	0xbc80467b	-0.015658608
254	0x3c68ad74	0.014201511
255	0xbc0f7ee1	-0.008758278

l3.bias f4 [9]
0	0x3e123c06	0.1428071
1	0x3e9b4dd3	0.30332813
2	0x3e4924aa	0.19642892
3	0x3d87868f	0.06617462
4	0x3e7daa66	0.24772033
5	0x3e6050b2	0.21905783
6	0x3e2fb720	0.171597
7	0x3e72adcd	0.23699112
8	0x3e155c7c	0.14586061

l4.weight f4 [53, 9]
0	0x3e5cb580	0.21553612
1	0x3eddb569	0.43302467
2	0x3dddd53d	0.108316876
3	0x3ee493cd	0.44644013
4	0x3fa6e5e4	1.3038907
5	0x3f21762e	0.6307095
6	0xbf9f2d15	-1.2435633
7	0x3f059ca0	0.52192116
8	0x3f87fcdb	1.062404
9	0x3e9cbc69	0.30612496
10	0x3f017498	0.5056853
11	0xbee737b5	-0.4515969
12	0x3f34c463	0.7061216
13	0x3f174bfa	0.59100306
14	0x3f012ffb	0.5046384
15	0x3ebe8782	0.3721276
16	0x3e393695	0.18087228
17	0x3edb4683	0.42827234
18	0xbe792bf1	-0.24333169
19	0x3ec45f07	0.3835375
20	0x3e00aa47	0.12564956
21	0x3eb0586d	0.34442464
22	0x3fb2d0df	1.3969992
23	0x3f558e4d	0.8342026
24	0xbf3a24d9	-0.72712475
25	0x3f6e8ec2	0.9318658
26	0x3f529ea8	0.8227334
27	0x3f1fe75d	0.6246241
28	0x3d3d568d	0.04622512
29	0xbd0cb352	-0.0343507
30	0x3f822bee	1.0169656
31	0xbea022f6	-0.31276673
32	0x3e7946d2	0.24343422
33	0x3fc1f940	1.515419
34	0x3ee8eae1	0.45491698
35	0x3e890c90	0.26767397
36	0xbeb09b9a	-0.34493715
37	0x3f1c3dcb	0.6103179
38	0x3dfc38d6	0.12315528
39	0x3e5311be	0.20612237
40	0x3feb761d	1.839542
41	0x3f795f29	0.9741083
42	0xbf83a4cb	-1.0284666
43	0x3f2b0393	0.6680233
44	0x3f1dc0b4	0.61622167
45	0x3d659dbe	0.056058638
46	0x3f5f4480	0.872139
47	0x3ddfa9cf	0.1092106
48	0xbeb416ba	-0.3517359
49	0x3dc91f5a	0.09820433
50	0x3de09199	0.109652705
51	0x3ea56f11	0.323113
52	0xbf0062ab	-0.50150555
53	0xbf09eafd	-0.5387419
54	0x3e0feca0	0.14055109
55	0xbea6b147	-0.32557127
56	0x3f47819b	0.7793214
57	0x3eb9d43b	0.36294731
58	0x3ec8b683	0.39201745
59	0x3f708d6f	0.9396581
60	0x3e484979	0.19559278
61	0x3f36743c	0.7127111
62	0x3eb9d821	0.36297706
63	0x3e50319e	0.20331427
64	0xbe831c5b	-0.2560757
65	0x3f23a04d	0.63916475
66	0xbcebe153	-0.028793966
67	0x3ea7cef8	0.32775092
68	0x3f840007	1.0312508
69	0x3ed3e1fa	0.41383344
70	0x3f7db441	0.9910317
71	0x3e7f27a7	0.2491747
72	0x3f176814	0.59143186
73	0x3e1cde77	0.15319239
74	0x3d758f1d	0.059950937
75	0x3f81fa3c	1.015449
76	0x3db62c10	0.08895123
77	0x3ec750f7	0.3892896
78	0x3f26f35e	0.652151
79	0x3ecd105a	0.40051538
80	0x3eadc7bd	0.3394145
81	0x3f1b0e6f	0.605689
82	0x3ebe2f9d	0.371457
83	0xbec939bb	-0.39301857
84	0x3f769a30	0.9632902
85	0x3e43b237	0.19110952
86	0x3e78ca8e	0.24296018
87	0x3e6a4334	0.22877198
88	0x3e564057	0.20922981
89	0x3f32665b	0.6968743
90	0xbeacd197	-0.33753654
91	0x3ea5b986	0.32368106
92	0x3f1c10a1	0.60962874
93	0xbe874c3e	-0.26425356
94	0x3f9c0e70	1.2191906
95	0x3f02e99c	0.5113771
96	0xbf424cf5	-0.7589868
97	0x3f33a78b	0.70177525
98	0x3f4ff739	0.81236607
99	0xbe9dd641	-0.30827525
100	0x3e99a8e7	0.30011675
101	0x3e103445	0.14082439
102	0x3d1c3078	0.03813216
103	0x3fa48e19	1.2855865
104	0x3f80eed1	1.0072881
105	0xbf0cff79	-0.5507732
106	0x3f6eff02	0.9335786
107	0x3f8b8556	1.0900066
108	0x3d47c5b7	0.04877254
109	0x3ef6069e	0.48051924
110	0xbefaf090	-0.4901166
111	0xbfc0fd49	-1.5077296
112	0xbf83e134	-1.0303102
113	0xbf154edf	-0.5832347
114	0xbd723a66	-0.059137724
115	0xbfb4ad43	-1.4115375
116	0xbfdac6e8	-1.7091951
117	0x3f2720eb	0.65284604
118	0x3de0637e	0.10956477
119	0xbeb5b253	-0.35487613
120	0x3f7afaba	0.9803883
121	0x3ef22fb7	0.4730203
122	0x3f449739	0.7679325
123	0x3ec41467	0.38296816
124	0x3f0f457d	0.55965406
125	0x3f2060e7	0.6264786
126	0xbe77f903	-0.24216084
127	0x3ef474f9	0.47745493
128	0xbcede60c	-0.029040359
129	0x3ead64bc	0.33865917
130	0x3fe228b9	1.7668678
131	0x3f6410ce	0.8908814
132	0xbf608e16	-0.87716806
133	0x3f24d01c	0.6438005
134	0x3f453fe2	0.770506
135	0x3d97a623	0.07404735
136	0x3ef34a11	0.47517446
137	0xbcfb7f2c	-0.030700289
138	0xbd17d427	-0.03706756
139	0x3feea382	1.8643649
140	0x3f490c17	0.7853407
141	0xbf7bfc59	-0.98431927
142	0x3e5c02da	0.21485463
143	0x3f8cd87f	1.1003569
144	0x3d898d93	0.06716456
145	0x3f054f95	0.5207456
146	0x3e924ea0	0.2857561
147	0x3f631571	0.8870459
148	0xbed15763	-0.40886983
149	0xbd77f199	-0.06053314
150	0x3fe522de	1.7901266
151	0x3e2a8d64	0.16655499
152	0xbde98b5f	-0.11403536
153	0x3e7a4791	0.24441363
154	0x3ed1d96a	0.40986186
155	0xbe839da0	-0.25706196
156	0x3f2efcc2	0.6835443
157	0x3f9b2a8a	1.2122357
158	0x3f9284f7	1.1446828
159	0xbec91d01	-0.3927994
160	0x3eeb1327	0.4591305
161	0x3f837c21	1.0272256
162	0x3eb4efcd	0.35339203
163	0x3e88f3c3	0.26748475
164	0xbec713cf	-0.388823
165	0x3f7d8357	0.99028534
166	0x3f56edc6	0.83956563
167	0x3f4155f6	0.7552179
168	0xbe1ad713	-0.15121107
169	0x3f2b81e8	0.66995096
170	0x3f0d9d6f	0.5531835
171	0xbebfc07f	-0.3745155
172	0x3f2ac0b2	0.6670028
173	0xbe77dbf2	-0.24204996
174	0xbf2bf1bb	-0.67165726
175	0x3e2510e2	0.16119722
176	0xbd5bc10f	-0.053650912
177	0x3eef814a	0.46778327
178	0xbf5f4f6e	-0.87230575
179	0xbf63d928	-0.8900323
180	0xbe9d85bc	-0.30766094
181	0x3df1180f	0.11772167
182	0x3ee066d1	0.43828443
183	0x3e69d107	0.22833644
184	0x3fbd27f6	1.477782
185	0x3f5b64fe	0.85700977
186	0xbf339958	-0.7015586
187	0x3ef90535	0.48636785
188	0x3f449013	0.7678234
189	0xbd992e2b	-0.07479509
190	0x3ec4f335	0.38466802
191	0x3f22fa5c	0.6366327
192	0xbeea2fe7	-0.45739672
193	0x3f977d5e	1.1835134
194	0x3f1e8510	0.6192179
195	0xbf2023b2	-0.62554467
196	0x3e0a7d18	0.13524282
197	0x3f393a08	0.72354174
198	0x3dc65cb1	0.09685648
199	0x3e95cf1d	0.29259577
200	0xbc72e7eb	-0.014825801
201	0x3f0dbb5f	0.5536403
202	0x3fcaf7ed	1.5856911
203	0x3f57103b	0.8400914
204	0xbf7b4aae	-0.9816083
205	0x3f3c2876	0.7349924
206	0x3f79655e	0.974203
207	0x3da0512d	0.07827983
208	0x3f129f66	0.5727447
209	0xbec342a2	-0.38136774
210	0x3f50c7e1	0.8155499
211	0x3f442883	0.76624316
212	0x3d95e659	0.07319326
213	0x3f15ac80	0.5846634
214	0x3e8cc1e1	0.27491668
215	0x3f1b4145	0.6064647
216	0x3d5401bc	0.051759467
217	0xbe7843b8	-0.24244583
218	0x3f547c1c	0.83001876
219	0xbd424516	-0.047429167
220	0x3e1ae8aa	0.15127817
221	0x3f76d728	0.9642205
222	0x3e8f3c7e	0.2797584
223	0x3f43ed32	0.76533806
224	0x3edd8b29	0.43270233
225	0x3e0ed9b5	0.13950236
226	0x3f2199f3	0.6312553
227	0xbee258ea	-0.4420846
228	0x3ee1b083	0.4407998
229	0x3f426216	0.7593092
230	0x3ea16d4e	0.31528705
231	0xbecd58d3	-0.4010683
232	0x3e3f0bff	0.1865692
233	0x3f79fe32	0.97653496
234	0xbe7a8b05	-0.24467094
235	0x3de634a8	0.11240512
236	0x3eb2d8c2	0.34930998
237	0x3d84372f	0.06455838
238	0x3f920cda	1.1410172
239	0x3f389c7f	0.72113794
240	0xbf0e2814	-0.55529904
241	0x3f236801	0.6383057
242	0x3f811ac0	1.0086288
243	0x3eaf7d82	0.34275442
244	0xbe226be5	-0.15861471
245	0xbd8a8366	-0.067633435
246	0x3f658804	0.8966067
247	0x3f497899	0.7869964
248	0x3f7224cb	0.9458739
249	0x3ce28af7	0.027654154
250	0x3f19da8b	0.60099095
251	0x3f908044	1.1289144
252	0xbd9c0b7e	-0.076193795
253	0x3d94db0c	0.072683424
254	0x3f70919d	0.9397219
255	0xbee3d0a0	-0.44495106

l4.bias f4 [53]
0	0x3ef940ef	0.48682353
1	0x3f01b988	0.50673723
2	0x3f4afc8e	0.7929162
3	0x3ea0c6af	0.31401584
4	0x3f1d387f	0.6141433
5	0x3f3c78a5	0.7362159
6	0x3e832233	0.2561203
7	0x3f0c5a8a	0.5482565
8	0xbd2b9445	-0.041889448
9	0x3d5b2209	0.053499255
10	0x3f2557df	0.64587206
11	0x3f2687d0	0.65050983
12	0x3f65ad54	0.897176
13	0x3c4d6c4f	0.01253803
14	0x3f51ebd6	0.8200048
15	0x3f234497	0.63776535
16	0x3eda368b	0.42619738
17	0x3ef62b8b	0.48080096
18	0x3f1752c8	0.5911069
19	0x3fb94ab5	1.4475924
20	0x3edbf3aa	0.42959338
21	0x3f317c2c	0.69330096
22	0x3ecafd7f	0.39646527
23	0x3f14ed10	0.5817423
24	0x3eaa672e	0.33281845
25	0x3f399388	0.7249074
26	0x3f2327c3	0.63732547
27	0x3f37c146	0.71779287
28	0x3eed8383	0.46389398
29	0x3de764f9	0.11298556
30	0x3f04fc2d	0.5194729
31	0xbaa16f99	-0.0012316584
32	0x3f054ec3	0.52073306
33	0x3d44601c	0.04794322
34	0x3f2da1c8	0.67824984
35	0x3fc91b4d	1.5711457
36	0x3f00beb2	0.5029098
37	0x3e312f78	0.17303264
38	0x3f18b6f3	0.5965416
39	0x3f4f4f09	0.80979973
40	0x3f17c596	0.5928587
41	0x3ed37b99	0.41305235
42	0x3f120072	0.5703193
43	0x3f74df10	0.95652866
44	0x3e91cc5e	0.28476232
45	0x3f512631	0.816989
46	0x3ec0093d	0.37507048
47	0x3ea47a8d	0.3212475
48	0x3e06e33c	0.1317262
49	0x3eca542b	0.3951734
50	0x3e5219f0	0.20517707
51	0x3f200a34	0.6251557
52	0x3e221319	0.15827598

l5.weight f4 [85, 53]
0	0x3cea83e7	0.028627349
1	0x3e84b8bc	0.2592219
2	0x3dffb68f	0.12485992
3	0xbe1df654	-0.15425998
4	0x3e727571	0.23677613
5	0x3f26981e	0.6507586
6	0xbebe9968	-0.37226415
7	0x3c3c226f	0.011482819
8	0x3e07b056	0.1325086
9	0x3e39d931	0.18149258
10	0x3e91bc6b	0.28464064
11	0x3e53cea4	0.20684296
12	0x3fce85bd	1.6134564
13	0xbd0d693f	-0.0345242
14	0x3eae7450	0.34073114
15	0x3e26f556	0.16304526
16	0x3ea501e7	0.32228014
17	0x3dc90f19	0.09817333
18	0x3d599daf	0.053128894
19	0x3fe36d0f	1.7767657
20	0x3e757662	0.2397094
21	0x3e84d9df	0.25947472
22	0x3a6237d9	0.0008629538
23	0x3ef7f7b3	0.48431167
24	0xbe607433	-0.21919326
25	0x3e93faf7	0.28902408
26	0x3d6646e4	0.05621995
27	0xbe34987a	-0.1763629
28	0x3cbaeddc	0.022818498
29	0x3e5f80ae	0.21826431
30	0x3deafe17	0.11474245
31	0xbc39989b	-0.011327888
32	0x3ecfaa9c	0.40559852
33	0xbedcb2fb	-0.431053
34	0x3e1c7481	0.15278818
35	0x3f8dafc6	1.1069267
36	0x3cde5102	0.027138237
37	0x3da6e1d6	0.081485435
38	0x3f3ad351	0.72978693
39	0xbd1b284c	-0.037880227
40	0x3e77bda4	0.24193436
41	0x3c021227	0.007938898
42	0xbe2ce47e	-0.16884038
43	0xbe0cda67	-0.13755189
44	0x3e2f1d2c	0.17100972
45	0x3c920b60	0.01782769
46	0x3da6a955	0.08137766
47	0xbde63515	-0.11240593
48	0xba23d23d	-0.00062492845
49	0xbe2d51dd	-0.1692576
50	0xbe7ae564	-0.24501568
51	0x3deaab22	0.11458422
52	0xbe0a2c59	-0.1349348
53	0x3e6ca142	0.2310839
54	0x3f2432f1	0.6414023
55	0x3da0ac86	0.07845406
56	0x3e6fbc55	0.23411687
57	0x3e8177d3	0.2528673
58	0xbeaacd02	-0.33359534
59	0xbe960089	-0.29297283
60	0xbd6bfe83	-0.05761577
61	0x3e49d94a	0.19711795
62	0x3f317c3e	0.69330204
63	0xbe651546	-0.22371396
64	0x3e78a6b9	0.2428235
65	0x3d85bc08	0.06530005
66	0x3f19eb55	0.60124713
67	0x3eb99cf0	0.36252546
68	0x3e4523b2	0.19251898
69	0x3d616754	0.055030182
70	0x3ed3973a	0.41326314
71	0x3f2d1924	0.67616487
72	0xbf091544	-0.53548074
73	0x3d9ebf01	0.07751275
74	0xbe05c33e	-0.1306276
75	0x3ec43e47	0.38328764
76	0x3f024f55	0.509023
77	0xbec421a4	-0.38306916
78	0x3f1d619f	0.6147708
79	0xbd350951	-0.044198338
80	0x3ecdadc5	0.40171638
81	0xbec42020	-0.3830576
82	0x3eb2e2d6	0.34938687
83	0x3ef408c8	0.4766295
84	0xbdc44097	-0.09582632
85	0x3ebd67ce	0.3699326
86	0x3e789c10	0.24278283
87	0x3f02d278	0.511024
88	0xbfc8e871	-1.5695935
89	0x3ed24016	0.4106452
90	0x3e342970	0.17593932
91	0xbd9a1a42	-0.075245395
92	0x3dd9862d	0.10621295
93	0x3f1c02f4	0.60942006
94	0x3f139c5e	0.5766047
95	0x3efc6d6c	0.49302232
96	0xbfb01b49	-1.3758327
97	0x3dcba8f1	0.099443324
98	0x3ebdeefb	0.3709639
99	0x3eba2e02	0.36363226
100	0x3f007514	0.5017865
101	0x3e4f4efd	0.20244975
102	0x3c70e284	0.014702443
103	0x3f1c992c	0.6117122
104	0x3dd2a079	0.10284514
105	0x3d91c0ba	0.07116838
106	0x3e2b1736	0.16708073
107	0x3f1f42cd	0.62211305
108	0x3dc31dbe	0.09527157
109	0x3eb2278e	0.34795803
110	0x3c14c7d9	0.0090808505
111	0xbe571f81	-0.21008112
112	0xbea601eb	-0.32423338
113	0xbd164aad	-0.03669231
114	0x3e94bc34	0.29049838
115	0x3efcaa9e	0.4934892
116	0xbe04b681	-0.12960245
117	0x3da95c57	0.082695656
118	0x3dc79f2c	0.097471565
119	0x3f2c3a7d	0.67276746
120	0x3ea9422b	0.33058295
121	0x3e7d8b75	0.2476023
122	0x3dfcdfee	0.12347399
123	0x3e95f744	0.2929021
124	0x3f07da92	0.53067887
125	0xbf3e9880	-0.74451447
126	0xbe371c8d	-0.17881985
127	0xbe53c531	-0.20680691
128	0x3e8cbde2	0.2748862
129	0x3ed43420	0.41446018
130	0xbecae208	-0.39625573
131	0x3f04d4a2	0.5188695
132	0x3cd4cca8	0.025976494
133	0x3eb6cc40	0.35702705
134	0xbeacca5e	-0.33748144
135	0x3e53125d	0.20612474
136	0x3ee595da	0.4484089
137	0x3e02cac3	0.1277266
138	0x3e5fb0e0	0.21844816
139	0x3efe53e1	0.4967337
140	0x3ead9c63	0.33908376
141	0xbfb05b9f	-1.377796
142	0x3f134aec	0.57536197
143	0x3e1e1270	0.15436721
144	0x3e4ff422	0.20307973
145	0x3dee753d	0.11643455
146	0x3f1ddbf5	0.6166375
147	0x3f086e66	0.53293455
148	0x3f17e549	0.59334236
149	0xbfa7fd8a	-1.3124249
150	0xbe08ebd1	-0.13371207
151	0x3ea5b1ef	0.32362315
152	0x3eece8d7	0.46271393
153	0x3edcbafa	0.43111402
154	0x3dcb14d6	0.099160835
155	0xbd814a76	-0.063130304
156	0x3ef1edff	0.4725189
157	0x3e565da6	0.20934162
158	0x3d9f49e3	0.07777765
159	0x3e902111	0.28150228
160	0x3ea03001	0.31286624
161	0x3ec5667f	0.3855476
162	0xbe62cd14	-0.22148544
163	0x3ee9e09b	0.45679173
164	0xbe95cd05	-0.2925798
165	0x3d71ff53	0.059081387
166	0x3dea99da	0.11455126
167	0x3cacd5ad	0.021097982
168	0x3ea1e172	0.31617314
169	0x3ed56ee6	0.4168617
170	0x3ecdb727	0.40178797
171	0xbebdeed8	-0.37096286
172	0x3ec81f4e	0.39086384
173	0x3f40b42b	0.75274915
174	0x3ef91fb6	0.48657006
175	0xbe04cc9b	-0.12968676
176	0x3ec4a3b9	0.3840616
177	0x3ee66309	0.44997433
178	0xbf2a4fc4	-0.6652796
179	0x3eeba587	0.46024725
180	0x3e6beb1e	0.23038909
181	0x3f0418d0	0.5160036
182	0x3ee9492d	0.4556364
183	0xbe07c1f5	-0.13257582
184	0x3f27daf8	0.65568495
185	0x3edfa4c4	0.43680394
186	0x3ef89039	0.48547533
187	0xbd569d43	-0.05239607
188	0x3e93d606	0.28874224
189	0xbe25469c	-0.16140217
190	0xbde20484	-0.110360175
191	0x3d8fbc67	0.07018357
192	0x3d1861f3	0.037202787
193	0x3f12bae4	0.5731642
194	0xc0092236	-2.142713
195	0x3d8c3847	0.068466716
196	0x3e52fee5	0.20605047
197	0xbe00315a	-0.12518826
198	0x3e9ca044	0.30591023
199	0x3e472b46	0.19450101
200	0x3e398e5d	0.18120714
201	0x3e1bff7f	0.15234183
202	0xbefcfec7	-0.4941313
203	0x3ebf8c0c	0.37411535
204	0x3f167000	0.5876465
205	0x3e80630e	0.25075573
206	0xbd8e3c53	-0.069451
207	0xbc50875c	-0.012727585
208	0x3db84459	0.08997411
209	0x3f05ca5f	0.5226192
210	0x3eb04622	0.34428507
211	0xbe429432	-0.19001845
212	0x3dadc8fa	0.08485599
213	0x3ebe42b0	0.37160254
214	0x3d4488c5	0.047981996
215	0x3ec8bd44	0.39206898
216	0x3d329a59	0.04360423
217	0xbf7d0cbe	-0.9884757
218	0x3e77d858	0.24203622
219	0x3ec4374e	0.38323444
220	0x3e934069	0.2876008
221	0x3e92edcd	0.28697053
222	0xbdb0486e	-0.08607565
223	0x3eb56273	0.35426673
224	0xbfb10f37	-1.3832768
225	0x3eb73c68	0.35788274
226	0x3e375cad	0.17906447
227	0x3e8b42d6	0.2719943
228	0xbdabac3b	-0.0838246
229	0x3e911c88	0.2834208
230	0x3f1b571b	0.6067979
231	0xbfec4b3a	-1.8460457
232	0x3e8bf419	0.2733467
233	0x3cc978b6	0.024593692
234	0x3e5ce1c7	0.21570502
235	0x3e765253	0.24054842
236	0x3e02cf78	0.12774456
237	0x3e68498b	0.22684304
238	0x3ea1ef4e	0.31627887
239	0x3f0e4d22	0.55586445
240	0xbd796609	-0.060888324
241	0x3e5f2732	0.21792296
242	0x3ea2890b	0.3174518
243	0x3e38c187	0.18042575
244	0xbf4f4f35	-0.80980235
245	0x3f2d7daf	0.677699
246	0x3ed5a03a	0.41723806
247	0xbfea54bd	-1.830711
248	0x3efd3bcd	0.49459687
249	0x3ca81f32	0.020522688
250	0xbf6bdee7	-0.92136997
251	0x3e295e79	0.16539945
252	0x3e6351dd	0.22199197
253	0x3f21cc39	0.63202244
254	0x3f0794a8	0.52961206
255	0xbe364fa8	-0.17803824

l5.bias f4 [85]
0	0x3f1bafdf	0.60815233
1	0xbde90d77	-0.11379521
2	0x3e0aadf6	0.13542923
3	0xbdf29c1e	-0.11846183
4	0x3dc4d6e8	0.096113026
5	0x3e80a0a9	0.25122574
6	0x3d34ce23	0.0441419
7	0x3e532c83	0.20622449
8	0x3e98e1c3	0.29859743
9	0x3c3a6410	0.011376396
10	0x3d9d98b3	0.07695141
11	0xbdbdb5a3	-0.0926316
12	0x3e8fd08f	0.28088805
13	0xbcc34ee1	-0.023841323
14	0x3abdd971	0.0014484358
15	0x3ea7f24d	0.32802048
16	0x3dd11331	0.102087386
17	0xbad90b13	-0.0016559087
18	0xba593f5e	-0.00082873355
19	0x3ee685f1	0.45024064
20	0x3dc20445	0.094734706
21	0x3ee391c0	0.44447136
22	0x3c4af11c	0.0123865865
23	0x3de1fda2	0.11034705
24	0x3d3ee937	0.04660913
25	0x3f84c45b	1.0372423
26	0x3ed8225f	0.42213723
27	0x3f209d1e	0.6273974
28	0x3ec251c8	0.3795302
29	0x3d08a4af	0.03336018
30	0x3e985d22	0.29758555
31	0x3d37ab43	0.044841062
32	0x3c614b16	0.013750812
33	0x3da591ac	0.08084425
34	0x3e838ea9	0.2569478
35	0x3f2980aa	0.6621195
36	0x3e52ab29	0.20573105
37	0x3e0f9aa8	0.1402384
38	0x3cfd35bf	0.030909417
39	0x3ec98f14	0.39366972
40	0x3e4dd84e	0.20102045
41	0x3ee0bbbd	0.43893233
42	0x3f0f7f10	0.56053257
43	0x3b1e0133	0.0024109602
44	0x3e40a9e5	0.1881481
45	0x3df082c6	0.11743693
46	0x3eab6c0c	0.3348087
47	0x3e1c380c	0.15255755
48	0xbdd73fbd	-0.10510204
49	0xb976ef0a	-0.00023549437
50	0x3e0409ea	0.12894407
51	0x3e1d9081	0.15387155
52	0x3e0a1a9a	0.1348671
53	0x3e99b4ec	0.30020845
54	0x3eea4765	0.45757595
55	0x3e441c73	0.19151478
56	0x3cddff03	0.027099138
57	0x3eaedaa7	0.34151193
58	0x3d5840b7	0.052796092
59	0xbd90e163	-0.07074239
60	0x3fab32ad	1.337484
61	0x3e8a79e7	0.2704613
62	0x3e29a680	0.16567421
63	0x3f2c606c	0.6733463
64	0xbd1c34ae	-0.038136177
65	0x3ddc677e	0.10761927
66	0x3e5f9309	0.21833433
67	0x3f10dea3	0.56589717
68	0x3f06d730	0.526721
69	0x3e47589c	0.19467396
70	0x3eead2bd	0.45863906
71	0x3eafd93b	0.3434542
72	0x3ea78c0f	0.32724044
73	0x3f21a21f	0.63138
74	0xbb067698	-0.0020517465
75	0xbd02c660	-0.031927466
76	0x3c757330	0.014981076
77	0xbdd1f8ee	-0.10252558
78	0x3ec1992d	0.37812176
79	0x3dc52f13	0.09628119
80	0x3edef3d0	0.4354539
81	0x3f26c054	0.6513722
82	0x3e3e5fc3	0.18591218
83	0x3d88583f	0.066574566
84	0xba8b2330	-0.0010615345
