models/Others/model_ReLU_PGNN.pt (torch, 127233 bytes, 12 tensors)

l1.weight f4 [189, 9]
00000000: 5ad5 b23a 1918 093f c180 363f 5817 573f
00000010: 38d3 f2bf 6b84 5f3f eff4 0dbf 1f58 e33e
00000020: f579 8e3d f8eb 753b b080 0940 bb43 c7bf
00000030: 6433 ffbd 65dc 0ac0 078d 1fc0 de9f 2cbe
00000040: ad3d 29be 4ffa a23e 5c3b 1abc 90ec 843f
00000050: 6e75 a63e 0e0a f1bc c906 383e 0978 0e3e
00000060: da69 893f a7fa 68bf d573 e8be ffa4 1e3c
00000070: 1b2a aa3f d0d7 0d40 7e56 0abf e9c1 98bd
00000080: 1d2a 9ebe 395a 093d 6a57 a5bf dd58 bcbf
00000090: d6dd 933b 888d 0cbe 6828 7cbf 7cc8 f63d
000000a0: f77c 69bd 0f60 073c 8ed5 a2be cf11 2bbf
000000b0: 28a9 bcbe 010e 193c 6338 23c0 1f9b 443d
000000c0: e10c 4dbf fd81 133e 2ce7 7ebf a8e7 b6be
000000d0: c8a9 a63e ac04 7fbe 8b6e 343a 8a5e 3c3e
000000e0: 4a25 533f a58c 8ebf ffe4 c8be 9351 1a40
000000f0: d91e 1cbf b9b6 19bf b176 9a3e 62cd b93a
00000100: c2d0 393e 7f96 c13f da77 c63d e14c acbe
00000110: 5d62 07be aed4 b83f 6cc6 c7bf 1dba 92bf
00000120: e29c 953b 57be a5bf 86ae aa3f b1e1 33bf
00000130: 8234 00c0 a22b 1cc0 e8fc 4b3f a571 b13f
00000140: 6830 05c0 4698 8139 6fe7 993e 1649 613f
00000150: 317f a3be 7de1 833f 80df af3f e2d3 3cbf
00000160: 2d56 d43f d4d9 e9be 5487 6a39 4753 8ebe
00000170: 22dd 0540 7e04 083f e7b6 10bf b967 2c3f
00000180: 8f1c 343f 41bd 28bf 9a2b 6cbe d7a7 06bb
00000190: 6caf 243e 6c1d ffbf 3394 05bd f5a8 ae3d
000001a0: c2d5 ed3b d8f2 98be f7c0 193f 945d 513f
000001b0: 64be 08bb ab9a 823e 949f 15bd 5af7 a83c
000001c0: 4581 123c 098c 95be bd19 05bf 9371 02be
000001d0: c1cd 32be 100e 26b9 efb4 a3be 299a fbba
000001e0: d176 0dbd 7dcf 3840 50a5 29c0 f41f 28bd
000001f0: 3260 bfbe f75c 89bd 4803 c93b 4f92 2a3d
00000200: 945a b8bd d678 8fbf d953 3fbf d70c 6cc0
00000210: 814c 593e d04d fc3e d72b a9bd dec5 ff3b
00000220: 2009 acbe 31d3 9b3e 3af6 303d 8935 12bd
00000230: f8c6 6dbe 6440 04bf e485 52bd ee7e 0cbf
00000240: aa2c baba 7f3a 0ec0 3d92 1fc0 1987 8c3d
00000250: 788b ff3f dd31 0cc0 88c4 1b3f ab18 de3e
00000260: 1ecc 7e3f 635e d83c 7906 d73e de3a 0dc0
00000270: 3a29 22bf d825 0e3f a4da 44c0 b12f ea3e
00000280: ef8c 00c0 d852 0c3f 6d6f 80bb c256 cd3e
00000290: 01de f93e 73a0 553f b786 cdbf f64f 9fc0
000002a0: bce4 d43d 877e 1abf 56c2 a1bc 08a1 9fbb
000002b0: 6dd0 f2be 7857 07bf 105d 98bd d55f fcbe
000002c0: da6e af3f c437 cdbe 1027 dfbf 7df7 033e
000002d0: 0ff9 0a3c cdb5 34bf e2a9 983f 1528 753f
000002e0: d408 56c0 de85 64bf f09e 1e3f bec7 c3be
000002f0: 759a 3cbf 60fa 95bb 79ed 09bf a5f1 713b
00000300: 09f3 1a3f 03f7 183f 70b6 c53f 5b64 6c3f
00000310: a2ac aabf a1d4 f4be 2726 fb3b 5130 d63f
00000320: 2613 df3f ba5e b83d 48a5 78be 9b46 5abf
00000330: d250 24c0 45f4 6abf e719 8abe 99a4 f53b
00000340: 4b47 02bf 4610 1fbe 2d86 183f 7984 4a3f
00000350: 21d6 873f dfdc a43f a882 99be a47b 393f
00000360: da75 953a e695 6b3e 919b 2c3f 4061 c33e
00000370: 1d0d 0740 344d 5fc0 3515 a0be b139 34be
00000380: fd05 85be 9c0c 373b b6e1 59bf 1370 a2bd
00000390: ad8a 88bd ed90 91c0 bd37 1940 e172 893e
000003a0: 0642 333e d0da 0cbe 404c 51bb 1ec2 373e
000003b0: f280 663f 378c 373d 0e20 2ebf 3735 c03f
000003c0: 2a5d a83f a4e9 1dc0 740b 993e 0b60 8bbb
000003d0: 7391 c2bf 9195 99be 2caa 83be bbfe a23e
000003e0: 2455 4a40 1e10 3cbf 26c2 8b3e 33ea 36bf
000003f0: 8709 e03b 64a0 eb3f 6256 883f 9760 13bf
0.0013643906 0.53552395 0.7129021 0.84019995 -1.8970709 0.8731143 -0.55451864 0.4440317
0.06956855 0.0037524682 2.1484795 -1.5567545 -0.12460974 -2.1697018 -2.4929826 -0.1685786
-0.16527434 0.31831595 -0.009413566 1.0384693 0.32511467 -0.02942374 0.17971338 0.13912977
1.0735428 -0.91007465 -0.45400873 0.009682893 1.32941 2.2162971 -0.54038227 -0.074588604
-0.30891505 0.03353331 -1.2917302 -1.4714619 0.004512529 -0.13725865 -0.98499155 0.12049958
-0.05700394 0.008262648 -0.31803554 -0.6682405 -0.36847806 0.009341718 -2.5503166 0.047999498
-0.80097777 0.14405055 -0.9957149 -0.35723615 0.32551408 -0.24904126 0.0006882927 0.18395439
0.82478774 -1.1136671 -0.3923721 2.411229 -0.6098457 -0.6004444 0.3016868 0.0014175589
0.18146041 1.5124053 0.096908286 -0.33652404 -0.13221116 1.4439905 -1.5607429 -1.1463047
0.004565821 -1.2948712 1.333451 -0.7026625 -2.0032048 -2.4401631 0.7968278 1.3862807
-2.0810795 0.0002471825 0.30059382 0.88002145 -0.31932977 1.0303189 1.3740082 -0.7376081
1.6588799 -0.45674002 0.00022366393 -0.2779791 2.0916219 0.53131855 -0.56529087 0.6734577
0.70356077 -0.6591378 -0.23063508 -0.0020546818 0.16082543 -1.9930854 -0.032612037 0.0852832
0.007258148 -0.29872775 0.60060066 0.81783414 -0.0020865435 0.25508627 -0.03652914 0.020625759
0.008941953 -0.292084 -0.519924 -0.12738638 -0.17461301 -0.00015836232 -0.3197398 -0.0019195724
-0.03453714 2.887664 -2.6507149 -0.041046098 -0.3737808 -0.06707185 0.0061344244 0.041643437
-0.090016514 -1.1208751 -0.74737316 -3.6882837 0.2122059 0.49278116 -0.08260315 0.00780557
-0.33600712 0.30434564 0.04320357 -0.035695586 -0.23220432 -0.5166075 -0.05139722 -0.5488118
-0.0014203985 -2.2223203 -2.4933007 0.06861705 1.9964437 -2.1905434 0.6084676 0.43378195
0.9953021 0.026412195 0.41997126 -2.206718 -0.63344157 0.55526495 -3.0758448 0.4573951
-2.008602 0.5481391 -0.003919533 0.40105253 0.48802188 0.8344795 -1.6056737 -4.978511
0.1039519 -0.60349315 -0.019745987 -0.0048714913 -0.4742464 -0.5286784 -0.07439625 -0.49291864
1.3705704 -0.40081608 -1.7433796 0.12887378 0.008482232 -0.70589906 1.1926844 0.95764285
-3.3442888 -0.89266765 0.6196127 -0.3823833 -0.7367318 -0.004576966 -0.5387798 0.0036917713
0.6052709 0.5975191 1.54463 0.9234063 -1.3333933 -0.47818473 0.00766446 1.6733495
1.7427719 0.09002443 -0.242818 -0.85263985 -2.5674329 -0.91778976 -0.26972887 0.007496428
-0.50890034 -0.15533552 0.59579736 0.7910839 1.0612222 1.2879905 -0.29982495 0.72454286
0.001140292 0.230064 0.67424875 0.38160133 2.1101754 -3.489087 -0.3126618 -0.17600133
-0.2598113 0.00279311 -0.8511003 -0.07931533 -0.06667075 -4.548941 2.394027 0.26845458
0.17505655 -0.13755345 -0.0031936318 0.17945144 0.90040505 0.044811454 -0.6801766 1.501624
1.3153431 -2.4673853 0.2989155 -0.0042533926 -1.5200638 -0.29996923 -0.25715768 0.3183497
3.1614466 -0.7346209 0.2729656 -0.7145111 0.0068370732 1.8408322 1.0651362 -0.5756926

l1.bias f4 [189]
00000000: f4ff d3bf d2bf a13f b106 92bf 2a8b 80bf
00000010: 7226 353e 9ee6 723f 319c 65bf 1679 d23e
00000020: bae7 bfbd 0fe3 babf e861 bebf 5c45 923f
00000030: d813 d93d faac cfbd ba1e 823f 86e1 39bf
00000040: bc00 a73e 4c40 323e 7e2a 973e a9e1 8f3f
00000050: 1eef 66bf 257b e0bf f148 d8bd 24f5 debf
00000060: 5aa4 9abd 56ba 56bc 68fa 80bf 1f9e 9fbe
00000070: 44d9 96bf 7fa3 babe dbfe eebf 3379 46be
00000080: 412d 113f 15e3 e7be 5d21 d63c 8910 90be
00000090: 01a9 6ebf e858 1bbf cf60 70bf d384 78bf
000000a0: f90d 0540 464c 883f 250a 80bf 50ba 94bf
000000b0: 97e1 bd3f 30b0 3d3f 6350 b83e 8e97 40bf
000000c0: 0f49 b3bf a538 a93e bbb6 41bf 4a82 ca3e
000000d0: 4e0e 34bf b818 79be 0db2 e4bf b203 8f3f
000000e0: b603 f83e 2cc7 b0be d990 f9bf f263 483f
000000f0: 252b f5bf acb6 80bd 9991 013f 5e13 1cbf
00000100: 0845 28bf 1985 173e 6d96 e8bf fe91 b6bf
00000110: 1687 acbc 5cd6 d93e 783c aabf 55d4 1ebf
00000120: 5050 c9be f08e 07bd 84e2 61bf 2778 b2bd
00000130: 0140 8e3f 6716 923f c30e 83bf 59ed 363f
00000140: 05a6 6a3e de15 b7bf feb0 00c0 6628 a73f
00000150: 1549 a53f be99 be3f 5463 0e3f 6492 eabe
00000160: d334 93bf 20dd eb3e d004 fd3e 9b43 fabe
00000170: 3716 983e 14ad d73e cb5c 373e e564 2cbf
00000180: b9c0 a2be da24 a33f f816 cabf 2123 0a3f
00000190: 37c6 cb3e 9142 cf3f 0ff1 7c3e 6a5e 2ebf
000001a0: c785 d8bf d4fb d1be 0f08 7bbf a627 de3c
000001b0: c6c7 883e 0fcb 843e 7302 1dbd a884 75bf
000001c0: a136 44bf db92 86bf 8c76 c13e 1df2 cfbb
000001d0: 4d5a 9f3f bfb6 893f b78d 563f eb47 01c0
000001e0: 8010 39bf 1381 d0bf cce1 0abf 7a1d 753e
000001f0: df40 60bf bfc8 b4bd 9a3d 893e 25e4 af3e
00000200: 63d7 0a3f 4129 d93f e2d4 5ebf cb63 32bf
00000210: b3cc 4b3f 9f1d e43e 9164 36bd 18f5 a93e
00000220: 699c 043b d744 a9bf b1d8 97bf 71c1 85bf
00000230: c929 4dbf c7de 06bf 023f 3fbd 99f3 0bbf
00000240: 6978 9ebf bb54 7abe ee98 3b3f 851e ccbc
00000250: 8c6f 7cbf be66 9cbf 7aff bfbd 5af6 f53f
00000260: b56b 4bbe 8d09 ef3e c001 02bf c493 4cbf
00000270: fba5 c93f 672b 2ebf dd3c 47be 554b 25bf
00000280: 2a31 273f bd5d dfbd e81c 73bf 9b93 bdbf
00000290: 85dc 77bf 7f03 213f 5a5b 8f3d 395a 093f
000002a0: 35e2 8b3f 2dd6 02c0 0da2 653f ac3d 953f
000002b0: a30b 153f 9dfc af3e 4af5 773e 523f 893f
000002c0: c096 c7bf a0c2 80bf 6909 143f 9054 17bf
000002d0: 6bf2 b33e dc7f 92bf a017 dfbd 7a88 bc3f
000002e0: 678d 1dbe cd44 233f e2bf f7bf ebe3 85bf
000002f0: c5d1 873d
-1.6562486 1.2636664 -1.1408292 -1.004247 0.17690447 0.94883144 -0.89691454 0.41108006
-0.0937037 -1.4600543 -1.4873629 1.1427417 0.10599488 -0.101404145 1.0165627 -0.72609746
0.32617748 0.1740734 0.29524606 1.1240741 -0.90208614 -1.7537581 -0.105607875 -1.7418561
-0.07550879 -0.013105949 -1.0076418 -0.31175324 -1.1785054 -0.36452863 -1.8671526 -0.19382171
0.56709677 -0.45290437 0.026138956 -0.28137615 -0.9322663 -0.60682535 -0.9389772 -0.97077674
2.0789778 1.0648277 -1.0003096 -1.1619358 1.483447 0.74096966 0.3599883 -0.75231254
-1.4006671 0.3305103 -0.7566945 0.39552528 -0.7033433 -0.24325836 -1.7866837 1.1173003
0.4844033 -0.34526956 -1.9497329 0.78277504 -1.9153792 -0.06284842 0.5061279 -0.6096705
-0.65730333 0.14796866 -1.8170906 -1.4263303 -0.021060508 0.42546356 -1.3299704 -0.6204274
-0.39319086 -0.0330953 -0.8823626 -0.087143235 1.1113282 1.1413087 -1.023888 0.71455914
0.22914894 -1.4303548 -2.0108027 1.3059204 1.2912928 1.4890668 0.5562031 -0.45814812
-1.1500496 0.46067142 0.49417734 -0.48879704 0.2970445 0.42124236 0.17906491 -0.6734145
-0.3178766 1.2745621 -1.578826 0.5395985 0.39799663 1.619219 0.24701332 -0.68112814
-1.6915826 -0.41012442 -0.9805917 0.027118515 0.26714915 0.2593617 -0.038332414 -0.9590554
-0.7664586 -1.0513567 0.37785757 -0.006346001 1.2449433 1.0758895 0.8380999 -2.0200145
-0.722908 -1.628939 -0.5425079 0.23937026 -0.87598985 -0.08827352 0.2680481 0.34353748
0.54234904 1.6965715 -0.87043583 -0.6968352 0.7960922 0.4455385 -0.0445295 0.33194804
0.002023483 -1.3224133 -1.1863004 -1.0449659 -0.80141884 -0.5268368 -0.04669095 -0.54668576
-1.2380496 -0.24446385 0.7328023 -0.024916897 -0.9860771 -1.2218854 -0.093749 1.9215806
-0.19865306 0.46686974 -0.5078392 -0.7991297 1.5753778 -0.68034977 -0.19456811 -0.6456807
0.65309393 -0.10906551 -0.9496598 -1.4810671 -0.9682086 0.6289596 0.06999846 0.53653294
1.0928408 -2.0443223 0.89700395 1.1659446 0.5822088 0.34372416 0.24214664 1.0722449
-1.559288 -1.0059395 0.5782686 -0.5911341 0.35145888 -1.144527 -0.10893178 1.4729149
-0.15385972 0.63776857 -1.9355433 -1.046018 0.06631807

l2.weight f4 [119, 189]
00000000: 916c 94be c996 6d3e 127e 02bf 24d2 ad3e
00000010: 8596 c43b 5dea cd3d 60e7 183e 0a7a 923d
00000020: 2abf 733f 1ec1 a73d 4750 73be c7cf eb3d
00000030: 56e4 c63d 8d29 213f 24e0 44bd 82d1 003d
00000040: ce94 8fbe cf0b b6be 4a6b adbe 20fc ca3c
00000050: 046e 74bf 438a 3abf 7077 1b3f c437 3b3d
00000060: 4d59 b83e d27f 45bf 2de3 0cbe 52bc 413d
00000070: 57f8 cd3e e206 a63e 6895 01bf 6500 8f3e
00000080: 0d67 40bd 8964 57bf 29d8 64be b3a0 293e
00000090: aec0 bdbe fe9d 2c3e 9e36 efbe 3885 593e
000000a0: cb18 3e3e df46 91be 67ba bfbe be99 803b
000000b0: 95b4 853e aaba 3dbb 794a c13d 3ed4 86bd
000000c0: 8b6f 58bd 5e76 7fbd ad67 023f 9b71 4ebd
000000d0: 8b72 533e 9832 a1bd 018e c13d d5f5 8a3e
000000e0: 577a e03d 2008 14bf db26 7cbe 74c3 96bf
000000f0: 36a0 9dbe 0166 713d 90d7 cd3c 4052 303e
00000100: 66e6 7cbd 2ee0 6e3d f288 18bf 95a5 3e3e
00000110: 15bf 7c3d 2179 3c3e c7e7 75be 17c6 0fbe
00000120: 3729 01be 4bf6 1b3c ece6 19be 2fb6 183e
00000130: 89ed c4be b90f 09be a90a 2fbe 56ce 653e
00000140: 47df 1c3c 345e 8cbd b083 9cbe 264e 433e
00000150: 77db 113f 8cf1 62bd e5ce ca3d 04e9 d2be
00000160: ffcd 213d d5fb 11bd b0f7 fe3d 85ce 043e
00000170: ebff 483c 6329 393e 5182 7c3d b1fb 9cbd
00000180: b4e9 1fbe 9985 323d 8cac f5be a7df 0c3e
00000190: 1d2f 1b3e 61ae a13e 231e 8ebd 6bbd 51be
000001a0: fe03 f0be fe2b 8bbd ae1f 8e3e 06bf 123e
000001b0: 5ac9 cbbd 78f3 fa3e 2aa3 1e3f f274 4ebe
000001c0: 5fab 5abd aa97 86bb 49d1 21bf 2c4c a3bc
000001d0: f0ef e6bd 1fd4 1b3d a974 413e 4edb 603d
000001e0: 6eee cebd cd90 f7be a11d c03d 4f0c d1bd
000001f0: de3b df3a 3e5d 02bf 5082 dc3d f928 8c3d
00000200: 6ff2 353d c2c6 d6bd 776e 1fbe 6249 34be
00000210: e2e7 4cbe 26b5 dd3a 3054 85bd 0931 4e3c
00000220: 4d62 583c 75cb 763e 0173 32be 0590 2c3e
00000230: ec6d fa3e 89b0 b93d 5ef3 813d 1b57 033e
00000240: 6a56 25be 4866 a6bc 1fb3 d03b 4f8e 99bd
00000250: b50f eabe 5371 f2be 8333 b5bd 0d1d 553d
00000260: 059c dc3d 5620 c8bd 4aaf 8bbe 77ef dfbe
00000270: 64e0 a2be f701 b7bc 1494 c0bc c8a7 333e
00000280: 0aba b1bb a441 013d 7160 ecbe c8f6 8dbd
00000290: 8dee 51be 19b6 b33a 0257 5cbf f176 923d
000002a0: e9f7 a53d a6c4 e6be 503a c33e 6953 a53e
000002b0: 3cd0 403c 67e2 993b aad0 83bd 8a9f 1c3e
000002c0: 301a 153d 42d0 aebe a60a 623c 57b1 3d3e
000002d0: 0b10 703e f2d2 803f e937 1fbe e705 693e
000002e0: 7897 943e 04a4 bfbd 33dd 5ebd 043c d53d
000002f0: dee4 ccba 29f8 8f3e 5ef5 15bf 2e35 78be
00000300: 9b55 383e 4339 0abd 51b6 0a3e ac4b c63d
00000310: 43e8 56be 63f6 c6bd 819c b43e 4892 08be
00000320: a5d9 1d3e 494f 19bc e010 91bd bcca 813d
00000330: 43e1 153d 5061 953e 086d 13be 8db3 f83e
00000340: 383e 95bd ba66 e0be f78d 213e 9fe6 113e
00000350: 3eee 10be 0204 09be 93c6 39be c572 55bc
00000360: dc91 7b3c 829e 89be 2a5a e4be 0cf3 f13d
00000370: 8ad5 44be 9cbb ecbc 06b2 10be 4600 aebe
00000380: 77c0 c83d 3c5f 863e 7c9f ff39 9057 873d
00000390: 403f 7b3e 92b4 cebc e9e9 d5bd 12fd 693d
000003a0: a9fc acbd bc0b 8e3d 0e03 32bd 8c9e 32be
000003b0: d470 8dbe 92d8 c0bb 60cb 773c 246d 00be
000003c0: 5107 843c d8fe 9abd a133 8dbe e6d8 873e
000003d0: 83a2 083e b670 cc3c df65 b6bd 52a5 d73c
000003e0: 09ef 573e 25e7 763e 66c9 2e3e c0d9 26be
000003f0: 3edf bb3d 9c8b c3bd 92da 87bd 8705 473e
-0.2898908 0.23202051 -0.5097362 0.33949387 0.0059993886 0.10054467 0.14932013 0.07152183
0.9521357 0.08191131 -0.23761092 0.1151424 0.097115204 0.62954026 -0.04806532 0.031449802
-0.28043216 -0.35555884 -0.33870918 0.024778426 -0.9548037 -0.7286722 0.6072912 0.04570748
0.3600563 -0.77148163 -0.13758536 0.047298737 0.4022853 0.32427126 -0.506186 0.27929989
-0.046973277 -0.8413778 -0.22348084 0.16565208 -0.37061065 0.16857144 -0.46721357 0.21242225
0.18564145 -0.28374383 -0.374469 0.0039245775 0.26114336 -0.0028950372 0.09438033 -0.06583451
-0.05284075 -0.062368743 0.50939447 -0.05040131 0.20649163 -0.07870978 0.09450913 0.2714068
0.109608345 -0.578249 -0.24624197 -1.1778398 -0.30786294 0.05893517 0.025127202 0.17218876
-0.061743163 0.058319263 -0.5958396 0.18617852 0.061705668 0.18405582 -0.24014197 -0.14040409
-0.12613378 0.00951917 -0.15029496 0.14913248 -0.38462475 -0.13384904 -0.1709391 0.22441992
0.009574718 -0.06853905 -0.3056922 0.1907278 0.569755 -0.05540614 0.09902743 -0.41193402
0.039503094 -0.035640556 0.124495864 0.12969406 0.012268047 0.18082194 0.061647717 -0.07665194
-0.15616494 0.04358444 -0.47983205 0.13757192 0.15154691 0.31578353 -0.06939342 -0.20482413
-0.46878046 -0.067955 0.27758545 0.14330682 -0.09950514 0.49013877 0.6196772 -0.20161799
-0.05338609 -0.0041074352 -0.6320997 -0.019933783 -0.11276233 0.03804409 0.18892159 0.054896645
-0.101040706 -0.48352662 0.09380651 -0.10207426 0.0017031392 -0.50923526 0.10767043 0.068437524
0.044420656 -0.10487129 -0.15569483 -0.17606118 -0.20010331 0.0016914948 -0.06510198 0.012584933
0.0132070305 0.2410105 -0.17426683 0.16851814 0.4891199 0.090668745 0.06345247 0.12826197
-0.16146246 -0.020312443 0.006369009 -0.07497846 -0.4571511 -0.47352085 -0.08847716 0.052029658
0.10771946 -0.097717926 -0.27282172 -0.43737385 -0.3181182 -0.022339804 -0.02350811 0.17544472
-0.005423789 0.03155674 -0.4616733 -0.069318354 -0.20501156 0.0013710886 -0.86070263 0.071515925
0.08103926 -0.45071906 0.38130426 0.322902 0.011768397 0.0046961787 -0.06436284 0.15295234
0.036401927 -0.34143263 0.013796484 0.18524681 0.2344362 1.0064375 -0.15548672 0.22756158
0.2902181 -0.093574554 -0.05441017 0.10411838 -0.0015632173 0.2811902 -0.58577526 -0.24239036
0.18001406 -0.033746015 0.1354611 0.09682402 -0.20987038 -0.09714963 0.35275653 -0.13337052
0.15415056 -0.009357282 -0.07083297 0.06337497 0.03659178 0.29175806 -0.14397061 0.48574486
-0.07287258 -0.43828374 0.15776812 0.14248131 -0.14153382 -0.13380435 -0.18142156 -0.0130278515
0.0153546 -0.26878744 -0.4460004 0.11813936 -0.19222084 -0.028898053 -0.1413041 -0.33984584
0.09802335 0.26244533 0.00048756215 0.06608498 0.24535847 -0.025232587 -0.104450054 0.057126112
-0.084466286 0.06935832 -0.043459944 -0.17443293 -0.27625144 -0.005885192 0.015124172 -0.12541634
0.01611677 -0.07568139 -0.27578452 0.26532668 0.13343243 0.024956089 -0.08906149 0.026323948
0.21087278 0.24111612 0.17069015 -0.16294003 0.091734394 -0.09548113 -0.06633486 0.19435702

l2.bias f4 [119]
00000000: 7635 843d 745c 57be 954c abbd 4d63 70bd
00000010: 9303 b7be f727 e9bc d168 473e 5de6 83bd
00000020: f59f 03bd ca1a 313e 6d2a 5f3f d05b 40bd
00000030: 90b3 55bd 9410 6bbd 62e9 f43c 2ecc 92bd
00000040: d886 9bbd df81 9cbb 9469 4abe a32c 12be
00000050: f7c2 e1be c2b8 c43c 511b b63d 7ab6 063e
00000060: 36c5 b7bd 8b16 813e 0907 9dbd 8a0f a7bd
00000070: ed65 83bd e47c 9fbd ec66 efbd 4fee cbbd
00000080: ff8d 5b3f 2662 04be 0ecd 6bbc 0caf ea3e
00000090: 23ed 76bd bedb a9be 7f38 dbbd bac4 48bc
000000a0: 0ee7 2c3f 574a 563f 3349 babd 25cf 0d3f
000000b0: a856 cebc 80e7 913e 6688 a4bd c69c 353f
000000c0: 213d d23c 95cb ee3c 679c cf3e f361 0b3f
000000d0: 74b0 aebd d7c7 9abc 77a5 05be 50ca a7bd
000000e0: dbb1 c93d ca8d b1be dbb7 fa3e f2c9 023f
000000f0: 1d3a 1d3e ed26 9abc 0fa5 77bd 590d a1be
00000100: 5f78 ce3e 088a fc3e f4ee 91bd cc0d b6bd
00000110: 6b5c fbbe 062b 90be acbd 0fbc 7d09 f2bb
00000120: a888 ca3e 29d1 e6bd f49f 62bf 4b8e 50bd
00000130: 121e 8bbb 567f c03d 39ae 26be f99f 4fbd
00000140: c322 a13c cb69 82bd ce59 86bd 38ac a8bd
00000150: bb26 113f 04fa 4bbe b4dd 063f d9ca 273f
00000160: 83d5 83be 9f19 6cbd 2fd3 803e d1f5 57bd
00000170: b470 e63e 7c06 c63e 5ef9 67be 1e15 9b3e
00000180: a902 a2bd 4980 a9be 7f5f 103f 5d39 c2bd
00000190: f3de 90bb bee2 4fbd 2079 3a3f 101f 8bbd
000001a0: cd8f 58bd 3471 363f a26b a73e 1cbb 843c
000001b0: e8f7 b53e 182a 973e 6797 d63c 1c7a 163e
000001c0: 6e8d b93e a569 073f ce35 dd3e 940d 843b
000001d0: 4163 afbd 764d 173f beb8 4abf
0.06455509 -0.21031362 -0.08364216 -0.05868845 -0.35744914 -0.02846144 0.19473578 -0.06440423
-0.03213497 0.17295375 0.8717411 -0.04696256 -0.052173197 -0.057388857 0.029896442 -0.071678504
-0.07594079 -0.004776224 -0.19766837 -0.1427484 -0.4409406 0.02401388 0.08891929 0.13155547
-0.08973162 0.2521251 -0.076673575 -0.08157261 -0.06415925 -0.07787493 -0.11689553 -0.09957563
0.85763544 -0.12928066 -0.014392151 0.45836675 -0.060284745 -0.33175462 -0.10704135 -0.0122539345
0.6754006 0.83707184 -0.09095993 0.553942 -0.025187805 0.28496933 -0.080338284 0.7094234
0.025663914 0.02914981 0.40549013 0.54446334 -0.085297495 -0.01889412 -0.13051401 -0.08192885
0.09848376 -0.3467849 0.48968396 0.51089394 0.153542 -0.01881739 -0.060460147 -0.31455496
0.4032621 0.4932406 -0.07125655 -0.0888935 -0.49093947 -0.28157824 -0.008773249 -0.007386385
0.39557385 -0.11270363 -0.8852532 -0.05091695 -0.004245528 0.093992874 -0.16277398 -0.05068967
0.019669896 -0.06367835 -0.06560098 -0.08235973 0.56699723 -0.19919592 0.5268204 0.65543896
-0.25748834 -0.05764162 0.2516112 -0.052724663 0.4500786 0.38676822 -0.2265372 0.3028955
-0.07910664 -0.33105686 0.56395715 -0.094835974 -0.004421109 -0.050753348 0.7284107 -0.06793034
-0.052871514 0.71266484 0.32699305 0.016202502 0.355407 0.29524302 0.026195241 0.14695019
0.36240715 0.52895576 0.43205112 0.004029939 -0.08563853 0.5910257 -0.79188144

l3.weight f4 [9, 119]
00000000: 790f a4bd abf8 83be d98d e33c 259c 7ebd
00000010: 72a2 713e 68c9 61bd 09c5 883e aa1e bc3c
00000020: 976d 33bd 7c5c 103d c649 5d3e 96f3 bf3c
00000030: ee3d 993c 1d72 00bd 69ac 18bd dab7 a3bd
00000040: a48d 34bd 390e 61bd c052 5abe f43a 3d3e
00000050: 1680 36be 1162 93bc 1114 b8bc a60c 9dbb
00000060: d061 293d 8742 1f3e 3076 4dbd 079d 82bd
00000070: 168a 07bc 18be 46bd a8d4 1cbe ea47 98ba
00000080: e1d2 9a3e 5a60 c63d 0445 333d 42fc 863e
00000090: 27e9 273c 49be 25be f6a4 5abd b4e3 403d
000000a0: 4f77 ca3e 2a7b 723e 07cc 423e b96e 083f
000000b0: 59a6 77bd 5504 be3e 022d 89bd 0a61 5e3e
000000c0: de4d 663c 22ed 9a3d fec5 7ebd 7d4f ff3e
000000d0: ae77 3ebd 0abc bdbd 29d4 de3e c4a4 8abc
000000e0: c9f1 253f 48b8 2b3d a6eb fc3d ab18 a73e
000000f0: c0ad 513d 4d05 433e b4ce 7bbc fc79 58be
00000100: 4742 1e3e afa4 7d3e 39d2 72bd d0f6 743b
00000110: 8b70 e3bc ca00 14bd d0b7 a5b9 f6e3 c53d
00000120: 6ca6 dd3d 8510 31be 0e8f af3d 52d4 713d
00000130: 0684 b23b 6af7 f2bc 53fb da3d 2877 15bd
00000140: 0ff2 47be 85ee b43c 0447 97bd f167 76bc
00000150: 1194 a03e 95d3 8dbe 0060 8abc 526d 683c
00000160: a737 563d 3e5a e1bc 3553 083d 319e c5bc
00000170: b4f6 c13e 41bc a53e 282d e23e ac27 543e
00000180: c0e6 3d3d c08f 173e fdf1 f23e 9fb6 fcbd
00000190: 3614 61bd 99eb 94bd 2918 92be 71e4 09bd
000001a0: b7ba 3bbd b585 ddbd 1c3d bbbd 7a9a 9ebd
000001b0: 4c83 b2bd 960f dc3d caef 513d 0058 ab3c
000001c0: 8b11 003f 2b02 23bd 6dc5 1c3f d4d1 60bd
000001d0: b94f 823c 3aef 4abf 93d5 14be 8453 a13c
000001e0: 34f1 efbd 70e7 9abd 1fbb 78ba 3c70 093e
000001f0: 2281 af3d d409 993e 7373 c1bd 7412 6c3d
00000200: 5617 48be 342c ae3e e4e4 af3d 48e7 883c
00000210: ee4f 103d 61c3 2439 333a 4ebd a4f0 45bd
00000220: 170c 17b9 d841 e2bd c9f9 743e 5058 573e
00000230: 56f1 c43d 4fec 8c3d 4ef5 a63d d34e 24bd
00000240: 492e f03d 0d38 bf3d 2c85 e23c 0b18 3d3d
00000250: ea5a 7dbd f299 97be 3dc8 bebc e16a 0e3e
00000260: 1a56 8bbd e37e a7bd 840c 71bd f0ba 9f3d
00000270: 4239 ffbd 054f 82bd 22a2 8c3c 41b9 1f3e
00000280: 8b06 1b3e 4948 563e d19d f53e 7348 71bc
00000290: fd67 e83e b7af cf3c fe3a 813d 714a afbd
000002a0: ddfb 02bd f89f ac3c 2003 d83e e08a 17bd
000002b0: 3dc2 12bd 98ec 423e 4f2f 15bd f776 233f
000002c0: efe0 973d 6de5 f23c 1fa8 8c3e cfaa 97bd
000002d0: 275c 163d a2d8 90bd 7e11 4cbe 1f1f ff3d
000002e0: d432 0d3e adcc 88bd ef68 203c f8fd 073e
000002f0: bbfe 633d 8df5 3f3d a60c 613d a96c ca3d
00000300: f9f6 83be c07d 9a3e 0220 debc 9549 28bd
00000310: 8432 c4bd 4338 fd3d 6b48 093d c186 5cbd
00000320: 0d71 7b3d 7a0c aabb 2276 213c 1401 9a3e
00000330: fb1d 183e c757 38bd 4bb7 0abe 74c8 0c3e
00000340: f15a 70bd 2498 853e 69cc 7f3d ad63 3e3e
00000350: a6b1 023f 843c 233f f832 af3d d567 503c
00000360: 4d35 e23e fa31 783e 6384 4f3e 90d8 bbbb
00000370: 41d1 06bc 76e1 85be 3e8d 9fbd 148d 17bd
00000380: 7ca3 e13c 4cae 8abd 5c79 f63c 6eec e43d
00000390: e59f e03d 4e0d 57bd 89db 6cbd ec30 f63e
000003a0: ac73 34bd 9d63 103f db79 a83d 2a4b 9c3d
000003b0: 1dd7 6dbf a88e ca3d 7e74 3a3b af08 c8bd
000003c0: a6f9 75bd d637 94bc 190d 8f3e 734a 37bd
000003d0: 5c60 bb3e dbb1 583d 0f34 36bd 7125 8fbe
000003e0: f5e9 2d3e 49d2 28bd 94e7 21bd 1172 1ebd
000003f0: d72c 703c 4bbd 13bd 1042 c9bb f844 3abd
-0.08010764 -0.25775656 0.0277776 -0.06216063 0.23597124 -0.055123717 0.26712826 0.02296384
-0.043805685 0.03524445 0.21610174 0.02343158 0.018706288 -0.031358827 -0.0372738 -0.07994051
-0.04408039 -0.054945204 -0.21320629 0.1847952 -0.17822298 -0.017991098 -0.022470506 -0.0047927676
0.041353047 0.15552722 -0.05016154 -0.06377607 -0.008272668 -0.04852113 -0.15315497 -0.0011618112
0.30239013 0.09686346 0.04376699 0.26364332 0.010248459 -0.1618587 -0.053379975 0.047092155
0.3954415 0.23679796 0.19023143 0.5329395 -0.060461376 0.3711268 -0.06698038 0.21716705
0.014056651 0.07564761 -0.06220054 0.49865332 -0.046500854 -0.09264381 0.4352124 -0.01692427
0.6482206 0.04192379 0.12349634 0.32636008 0.05119109 0.19044991 -0.015369106 -0.21140283
0.1545497 0.24769853 -0.059282515 0.0037378557 -0.027763626 -0.036133565 -0.00031608203 0.09662621
0.10822758 -0.17291458 0.085722074 0.059040375 0.0054478673 -0.029658992 0.106924675 -0.03649059
-0.19525932 0.022086391 -0.07386592 -0.01503943 0.31362966 -0.27700487 -0.01689148 0.01418622
0.052299168 -0.027508851 0.033282477 -0.024123283 0.37883532 0.3237019 0.44175076 0.20718259
0.04636264 0.1480093 0.47450247 -0.1233952 -0.054950915 -0.07271499 -0.28534058 -0.033665124
-0.045832362 -0.10816518 -0.09142515 -0.07744308 -0.08716449 0.1074516 0.05125407 0.020915985
0.5002677 -0.03979699 0.6123875 -0.054887608 0.015907155 -0.7927128 -0.14534597 0.019693144
-0.11715928 -0.075636744 -0.00094883324 0.1342172 0.08569552 0.2989031 -0.09445848 0.057634786
-0.19540152 0.340181 0.08588579 0.016711846 0.035232477 0.00015713043 -0.05034847 -0.048325196
-0.00014404986 -0.11047715 0.2392341 0.21029782 0.09616344 0.0688101 0.08152257 -0.040114235
0.11727578 0.09336863 0.027651392 0.046165507 -0.06185428 -0.29609638 -0.02328884 0.13907959
-0.06803532 -0.081784986 -0.058849826 0.077993274 -0.12462093 -0.06362728 0.017167155 0.15598013
0.15139215 0.20926012 0.47971967 -0.014726746 0.45391837 0.025352342 0.0631008 -0.085591204
-0.031978477 0.021072373 0.42189884 -0.036997676 -0.03582977 0.19035566 -0.03642207 0.638534
0.074159496 0.029650414 0.27472016 -0.07405626 0.036708977 -0.070725694 -0.19928548 0.12457108
0.1378892 -0.06679664 0.009790643 0.13280475 0.05566285 0.046865035 0.054943703 0.098840065
-0.25774363 0.30174065 -0.027114872 -0.0410858 -0.095799476 0.12364247 0.03351633 -0.05383945
0.06138711 -0.0051894756 0.009854825 0.30078948 0.14855187 -0.045005586 -0.13546483 0.13748342
-0.05868048 0.26092637 0.0624508 0.18592711 0.5105232 0.63764215 0.085546434 0.012720068
0.4418129 0.24237815 0.20265345 -0.0057326034 -0.008228601 -0.26148576 -0.07790612 -0.036999777
0.027543776 -0.06771526 0.030087166 0.11177908 0.109679975 -0.052502923 -0.057826553 0.480842
-0.044055626 0.56402 0.08226367 0.07631524 -0.9290636 0.09890491 0.0028450782 -0.09767281
-0.060052536 -0.01809303 0.2793968 -0.044748735 0.36596954 0.05290399 -0.04448324 -0.27958253
0.16983779 -0.04121617 -0.03952749 -0.038683 0.014659128 -0.036069196 -0.0061419085 -0.04547593

l3.bias f4 [9]
00000000: a266 573f f7fc d43e 467d 933e 0ec3 3b3f
00000010: b49a 84be 057d 27be aef8 133f 66ee 1b3f
00000020: 7b89 6a3e
0.8414098 0.41599247 0.28806514 0.73344505 -0.2589928 -0.16356285 0.5780133 0.6091064
0.22904007

l4.weight f4 [53, 9]
00000000: 50c4 c43e e3d1 f5bc f7b1 473d efea 0540
00000010: 605d aa3c 912c 81bf 7471 85bd 9f43 8d3e
00000020: 0a87 603f 9a30 2a3f da63 563f 637c 42bf
00000030: 1ee9 2c3d 5255 0f3f 9983 2c3f cd9c 713f
00000040: 3a0e c03e e9e4 81be 417f a1be c606 8f3e
00000050: 39ee b63e d46a 963f b7f2 223f f9eb 45bf
00000060: 2346 c33e 512d 103f f2d4 623f bfd6 303f
00000070: 7d3c adbd cfcd f9be 86f4 d03f ca73 d83d
00000080: 279a 123d 8200 cf3e 2526 b83e 75ec 8b3d
00000090: 710c 01bf 9f23 aa3e 34a6 e93e b73f 683f
000000a0: 9ee4 973f 1be4 38be 708c 303e c824 063f
000000b0: bbf9 453f 261f 17be ec22 ca3d 7c96 e1bd
000000c0: 67cb 9dbe 3f6a 9ebe f052 a5bc ba83 81be
000000d0: e31e 82be 986e a1be 7180 413e e3a1 fdbe
000000e0: b37d 943f 1463 f33e 3432 353f be6d df3f
000000f0: c5e0 5f3e a354 343e 8969 6b3d 0242 163e
00000100: 1e4f ffbe 4b43 1f3f 81e9 c83f 84af d43e
00000110: f08d 393e 9535 c03e 7424 353f 4564 143f
00000120: 3ad5 e03e 40b8 69be b4a2 cf3a 15e7 1640
00000130: 7bad 223e e7f2 23bf 003a 113f fffb 5c3e
00000140: 624a c83e 931f 833f 29d9 603f 99eb 30bf
00000150: 0db3 cb3e 1703 d63e d830 ca3c 911b 4a3f
00000160: c0f6 a53e 3d62 aa3e 54b9 02bf ff10 843e
00000170: bada 3d3f c6a8 ce3e b0e6 843f d8bf c5be
00000180: d34b 3b3e 9906 043f 40f4 9d3f 1504 bfbe
00000190: 4473 2c3e ce2f df3e 6806 783f d3f4 323f
000001a0: 0685 94be d8f7 fe3e d5f6 1b3f 031a 983f
000001b0: 02ad 363f f9a6 233c 5fe2 61be a944 a9bd
000001c0: 9bff 353e fd6e c03f 7126 203f 5b6c 0e3f
000001d0: ab28 42be ec41 2e3f 0e15 b0be 9a2e 83be
000001e0: a411 2040 2ab5 84bd 3947 84bb 1b5f 043f
000001f0: cb95 2e3f 4491 053f 755f 5ebe 95d3 2a3e
00000200: 2a1e 503e 6ccf bf3f 567f 2e3f 022b 13bf
00000210: c267 f73c d0f5 d63e 5cd1 3e3f d882 62bd
00000220: 6dba a23e 08a8 00be 1aa1 1b3f 2350 933f
00000230: 175f 12bf 214f 623e eceb 953d 1bf8 943f
00000240: df10 eabe a407 bf3e ea5f 993e d4eb a13f
00000250: 1b71 ef3e 274c 43bf 2a48 fd3e 0a89 3a3e
00000260: 9203 513f dda4 ed3e 0edb 41be 84e6 db3b
00000270: 9867 1d40 468f cfbe dbac a33d e7eb 283f
00000280: 1a9f e33e ce82 1e3f 11cb 4e3f 208c 433f
00000290: d6b8 4ebf 3ff9 e53e a899 053f ccd8 cc3e
000002a0: 5b6d 023f f586 233f 947e 9abe 1223 adbe
000002b0: c60e 3a3f 6b95 923e 137e 2cbf a7d7 ad3f
000002c0: 161f 763f 06cd 853f ac23 193f 7562 1e3f
000002d0: 5728 b8be cb52 3abd 5ca6 2b3f 9068 9f3f
000002e0: ae1f 763f 7439 b9be cd99 453d 62b7 e63d
000002f0: f4ec 683f 4e47 d3bd 916f e5bc 48ff 113f
00000300: cfc7 843f 6762 103f f390 c1be 7056 f13e
00000310: 83bf e4bd 93ae 863f 15e9 373e daf0 71bd
00000320: d2bf 0c3d 0115 f53f e9fb b73e 6c5d 6fbf
00000330: ae1f 44be fe31 be3e cea6 363f 7e9b 8cbe
00000340: 1bc8 1f3f 0e7f 42be 19b5 833f efe7 803f
00000350: f6a0 34bf 401f 253f 200f fd3e 6ae4 873f
00000360: 3c1d 073e 1fb9 e2be 0aed 913f ccb6 213e
00000370: 9724 d63e 8246 0340 6bf4 983e 06ad 9e3e
00000380: 570e 243e dce8 4bbc 9e19 1f3f 7146 a4be
00000390: f3b2 2e3f 4951 c33e 2e51 35bf 7aa4 613e
000003a0: 932a 933e 14be 953f 998b 18bf 05ec 523e
000003b0: 3f59 903e c57f 27bf 048c 0a40 29fb 8d3e
000003c0: a302 d2bc f2cc 2cc0 62d0 623f 060e 0a3f
000003d0: 7ea8 a5be d258 17be e165 3f3f 1821 fe3e
000003e0: c9c0 7e3f 1411 c1bc 73fa 47be fe85 75be
000003f0: 4b48 66be 38f6 16be 4bea 393f e081 723f
0.38431025 -0.030007308 0.048753705 2.0924642 0.020796478 -1.0091726 -0.0651578 0.27590653
0.87706053 0.6648041 0.8374611 -0.7597105 0.042214505 0.55989563 0.673883 0.94379884
0.37510854 -0.25369957 -0.315424 0.27934855 0.35728624 1.1751351 0.63651603 -0.7731319
0.38139448 0.5631915 0.8860618 0.69077677 -0.08458803 -0.48789832 1.6324623 0.1056896
0.035791542 0.40430075 0.35966602 0.0683221 -0.5040961 0.33230302 0.45634615 0.9072222
1.1866643 -0.18055765 0.17241073 0.52399874 0.77334183 -0.14757976 0.09869942 -0.11015031
-0.30819246 -0.30940434 -0.02018115 -0.25295812 -0.2541419 -0.3152969 0.18896653 -0.49537572
1.160086 0.47536528 0.7077973 1.7455366 0.21863087 0.17610411 0.057473693 0.14673617
-0.4986505 0.62212056 1.569626 0.41540158 0.18120551 0.3754088 0.7075875 0.579655
0.4391268 -0.22824192 0.0015841336 2.3578541 0.1588649 -0.64042515 0.56729126 0.21580504
0.3911925 1.0244011 0.8783136 -0.69109493 0.39785042 0.41799232 0.024681494 0.78948313
0.32414818 0.33278075 -0.5106404 0.25794217 0.74161875 0.4036314 1.03829 -0.38622928
0.18290643 0.5157257 1.2340164 -0.37307802 0.16840845 0.4359116 0.96884775 0.6990482
-0.2900774 0.49798465 0.6092351 1.1882938 0.7135774 0.00998854 -0.2205901 -0.08265049
0.17773287 1.5033871 0.62558657 0.5563409 -0.18960826 0.6806934 -0.34391063 -0.25621492
2.5010767 -0.06479867 -0.0040368107 0.5170762 0.68197316 0.5217478 -0.21716101 0.16682275
0.20324007 1.4985175 0.6816305 -0.574875 0.030200843 0.41984415 0.7453821 -0.055300564
0.31782857 -0.12564099 0.60792696 1.1508831 -0.57176346 0.22100498 0.07320389 1.1638216
-0.45715997 0.37310517 0.2995599 1.2650094 0.4676598 -0.76288074 0.4946912 0.18216339
0.8164607 0.46414843 -0.18931219 0.006710829 2.4594479 -0.40538996 0.07991954 0.6598496
0.44457322 0.6191834 0.80778605 0.7638569 -0.8075079 0.44916722 0.52187586 0.40009153
0.50948113 0.63877803 -0.30174696 -0.3381582 0.7267879 0.28629622 -0.67379874 1.3581437
0.96141183 1.0453193 0.59820056 0.61868984 -0.35968277 -0.045489114 0.6705072 1.2453785
0.9614209 -0.36176646 0.04824238 0.11265446 0.9098656 -0.10316335 -0.0280073 0.57030153
1.0373477 0.5640015 -0.378059 0.4713626 -0.111693405 1.0522026 0.17960007 -0.059067585
0.03436262 1.9147035 0.3593438 -0.93501925 -0.1915271 0.37147516 0.71348274 -0.2746238
0.6241471 -0.1899378 1.0289642 1.007078 -0.70558107 0.6450081 0.49425602 1.0616581
0.13194746 -0.4428186 1.1400464 0.15792388 0.4182479 2.0511785 0.29873976 0.3099138
0.16021095 -0.012445655 0.62148464 -0.32084993 0.68241805 0.38147953 -0.70826995 0.22035399
0.2874342 1.1698632 -0.5958801 0.20597847 0.2819309 -0.65429336 2.1647959 0.27730682
-0.025636023 -2.7000089 0.88599217 0.5392765 -0.32355112 -0.14779976 0.7476483 0.49634624
0.99512917 -0.023567714 -0.19529133 -0.23976895 -0.22488515 -0.14742362 0.7262313 0.94729424

l4.bias f4 [53]
00000000: 8cc3 ee3f 5a0d d03e 7cf4 0240 5d4f 953f
00000010: 1f1f c23f 8eab 87be c53f 163d 572c 0440
00000020: 43b8 e53f 4eee f83d 1f61 b23f 12d1 ee3f
00000030: 6a57 22be 86bf cf3f a5f7 0940 8cb6 c53f
00000040: 38d0 fe3f 9211 fb3f bea1 113f f9e1 62be
00000050: 2df2 bf3f ea00 e53f e443 e73f 6f88 ed3f
00000060: aa7c d33d 6b6b c83f bd7b 22bf 1f3e 543f
00000070: a333 db3f 225e d33f b8ba 0140 8748 d93f
00000080: ca78 dcbe 9640 893e 85e5 e2be bbbf b73e
00000090: 9af3 8d3e 0ba0 b33f 03a1 54be a5f9 0340
000000a0: 1589 023f efaf a43e 28b2 bf3f 411b 033f
000000b0: 8f92 8c3f 4b7a 6b3e 0902 f43f 446e cb3e
000000c0: a330 de3f d0f9 ec3f 5243 6f3d b4b4 0e40
000000d0: 4b59 ff3f
1.8653426 0.40635186 2.0461721 1.1664845 1.5165747 -0.26498073 0.03668191 2.0652063
1.7946857 0.12154828 1.3935889 1.8657553 -0.15853658 1.6230323 2.15574 1.5446334
1.9907293 1.9614737 0.56887424 -0.22156514 1.4995781 1.7890904 1.8067594 1.8557261
0.10326512 1.5657781 -0.6347006 0.8290729 1.7125133 1.6513102 2.0270214 1.6975259
-0.43060905 0.26807088 -0.44315735 0.35888466 0.27724916 1.4033216 -0.20764546 2.062112
0.5099042 0.32165477 1.4976244 0.5121346 1.0982226 0.2299587 1.9063121 0.39732563
1.7358593 1.8513737 0.05841381 2.2297792 1.9949125

l5.weight f4 [85, 53]
00000000: 56a8 bbbd e107 82bd 4932 aebd c0ce 0dbd
00000010: f2b4 fabd d849 79bc 6f62 04be 88f6 f13d
00000020: 7a2d ec3d 3c9e 7a3d 35d8 913d 00a0 aebb
00000030: 5e2c cfbc 114d 21bd e373 963c 0e03 b8bd
00000040: 4a43 9b3d e742 6dbd 1a99 d8bd 6afb f8bc
00000050: c092 b63d 6ab9 893d c968 01be ad5e a23d
00000060: 8cd1 9ebb 0df0 97bd 68b9 8cbd 4225 9cbd
00000070: 2109 c3bc fd50 e83d 4510 c3bd c447 ae3d
00000080: 7994 c0bd a65d ffbd dbe1 0f3d 02cd d4bc
00000090: f780 bb3d b682 c7bd d886 813d 25e4 f7bd
000000a0: 77ba ffbd 952e e33d 2f8c 4bbd 6894 843d
000000b0: 29bc 9dbd 95ca 513d 9118 a4bd eaf0 af3d
000000c0: da34 393c 3aac 54bd 7891 8cbd ca45 7b3d
000000d0: faa0 283d afe0 0a3f 8b6d 153f 9011 fb3e
000000e0: 491e 0f3f 5517 093f d5e1 9cbd b97d 7fbf
000000f0: 5733 ae3e 4edb 223f 75ea 3e3f 1c60 983e
00000100: 3666 1e3f eb89 d6be 33ba 343f f08d 2a3f
00000110: 675a e53e 0147 513f ac0b 053f ba0b 353f
00000120: 79ff 533e dc86 e83e 7f71 973e 3dbe 2b3f
00000130: f6dc 8d3f f47a 9abf eb2f 6f3f 6710 633f
00000140: d8b8 adbe 8c71 ad3e c1ce f63e 317e 873f
00000150: 3a20 893e 2fc3 b7bf 3b15 24bf bef1 953d
00000160: 07c2 873e 9ba5 073f 2939 df3e 6482 dbbd
00000170: 9aeb 9a3e 20e1 3d3f 4406 d0bd 7c12 e33f
00000180: 0e8e 62bf 4b54 d63e 4875 6a3e 9f60 213f
00000190: f72f cfbe 0068 0e3f 502f a53e a1c9 21bf
000001a0: b851 9c3e 0d29 473f edc5 073f 4b0f 203f
000001b0: f5ee 0f3f c33a 0f3f c10e c83e 24d7 553d
000001c0: 65c1 82bf 20b5 b53e 296d 363f 0cb3 183f
000001d0: 8c66 e73e da8a 063f a47c 6fbe e08b 483f
000001e0: 559b 3a3f 4a50 193f e7be 533f 1638 e43e
000001f0: ddd0 213f b0d4 a13d eafb 8a3e e4f7 883e
00000200: c306 233f a38c 843f a886 a1bf bb19 683f
00000210: 6105 883f 7047 babe e3fd c33e c0c9 c13e
00000220: 8f0d 7c3f 5067 f03e d0dc aabf 9574 b1be
00000230: 2062 63bc e0f7 9d3e 88f6 2d3f abf1 ee3e
00000240: bdaf 033e 3013 ba3e 341d 4a3f f15e 07be
00000250: a5a9 e93f 2ac0 4abf 5b32 843e 4e73 a53e
00000260: c73d 3f3f d0e5 06bf e41e e43e 8b5e 803e
00000270: eecb 3bbf 556e e63e 3822 323f 67a2 dd3e
00000280: c338 4ebe 3ca7 f33e 7313 153f 64de 713e
00000290: 808a 7dbb 68bb 71be d409 183f 6fb7 2b3f
000002a0: fa8f fc3c 7843 e83e a20e b83e 2e38 fbbe
000002b0: c7a6 493f 266d 233f 7ca1 6f3e aae5 303f
000002c0: dab7 f23e b43c d5bd 3ea1 ffbe 6108 e33e
000002d0: f702 b53e f4a5 0c3f 3249 493f 8379 d1be
000002e0: 781a 143f b10d ef3e f2d1 e7bd 7929 ff3e
000002f0: 0339 d33e e7ad 123f 1c56 fd3e c4f4 33bf
00000300: ef43 c7be 56ef 09bf 1a10 eabe 9e55 0e3f
00000310: 3d44 803e f496 783d 1d3b d63e b196 24be
00000320: a60f 53be fe42 3b3f 93b7 bebc 579f 8b3e
00000330: 39b0 e5be 2b57 113f 5d96 02bd 6bfc d03e
00000340: 47d6 ea3e 4598 0bbe fc80 f43e 73a2 3e3f
00000350: 7df7 bcbd bf1b 293d a2e5 15be 2101 b7bd
00000360: b6a3 9dbd d8c5 aebc 8c46 80bd 9b2a d73d
00000370: a389 623d 4ab1 a9bd ea5e 10be 8814 e63d
00000380: 6c22 f7bc 5b96 09be c5a1 c4bc 4f70 de3d
00000390: 63cf 16be fd63 a63b 7085 e63d d567 edbd
000003a0: cf32 cb3d 228e c33c 0951 49bd 0858 e3bb
000003b0: ccd0 03be c168 113d 9a31 a23d b407 fcbd
000003c0: c4b5 37bd 633e 92bd af86 e33d d3ad cabd
000003d0: 604d 12be 2402 acbc bf44 81bc 84a9 583d
000003e0: 28f8 b7bd e0f7 07be d2d4 b3bd ff80 77bd
000003f0: cf3c ce3d 5187 cc3c 71b2 18be 0717 a5bd
-0.09162967 -0.06349159 -0.08505685 -0.034621 -0.12241544 -0.01521536 -0.12928174 0.118146
0.115321115 0.06118606 0.07121316 -0.005329132 -0.02528971 -0.039380137 0.018365806 -0.08984958
0.07581194 -0.05792513 -0.10576077 -0.030393321 0.08914709 0.06724818 -0.12637629 0.07928214
-0.0048467573 -0.07418833 -0.06871301 -0.07624294 -0.023808064 0.11343572 -0.095245875 0.08509782
-0.09403319 -0.12469034 0.035127502 -0.025976662 0.091554575 -0.09741728 0.063245475 -0.12104062
-0.12486737 0.11092869 -0.049694236 0.06473619 -0.07701904 0.051218588 -0.08012498 0.085908726
0.011304105 -0.05192206 -0.068636835 0.061345853 0.041169144 0.5424909 0.58370274 0.49036837
0.55905586 0.53551227 -0.076602615 -0.9980121 0.34023544 0.6361588 0.74576503 0.29760826
0.6187471 -0.41902098 0.7059662 0.6662283 0.44795534 0.8174897 0.51970935 0.7072102
0.20702924 0.4541539 0.29578778 0.67087156 1.1083057 -1.2068772 0.9343249 0.88696903
-0.33930087 0.33875692 0.48204616 1.0585386 0.267824 -1.435644 -0.64094895 0.07321499
0.2651522 0.5298707 0.43598297 -0.107182294 0.30257875 0.7417164 -0.10157445 1.7740016
-0.8849801 0.41861185 0.22896302 0.6303806 -0.40466282 0.5562744 0.3226266 -0.63198286
0.30531096 0.77797014 0.53036386 0.62523335 0.56223994 0.5594904 0.39073756 0.052207127
-1.0215269 0.3548975 0.71260315 0.59648204 0.45195425 0.5255562 -0.2338739 0.7833843
0.7289327 0.59888136 0.8271317 0.4457404 0.63209325 0.07901895 0.2714532 0.26751626
0.6368219 1.0355419 -1.2619219 0.9066426 1.0626642 -0.36382627 0.38279638 0.37849236
0.9845819 0.4695382 -1.3348637 -0.34659258 -0.013878375 0.30853176 0.679543 0.46668753
0.12860008 0.36342764 0.7895081 -0.13219811 1.8254896 -0.7919947 0.25819668 0.32314533
0.7470364 -0.52694416 0.44554818 0.2507213 -0.73358047 0.45006052 0.69583464 0.43287966
-0.2013884 0.47588527 0.582328 0.23619992 -0.0038687289 -0.23606646 0.59389997 0.6707677
0.030830372 0.45363975 0.35948664 -0.490663 0.7877011 0.6383842 0.23401445 0.6910044
0.47405893 -0.10411969 -0.49927706 0.4434233 0.35353824 0.54940724 0.7862731 -0.4091302
0.5785289 0.46690133 -0.11319341 0.4983633 0.41254434 0.57296604 0.4947976 -0.7029536
-0.38919017 -0.5388082 -0.4571541 0.5559939 0.25052062 0.060690835 0.41841975 -0.16073109
-0.20611438 0.73149097 -0.023280894 0.27270004 -0.4486101 0.5677363 -0.03188168 0.4081758
0.45866606 -0.13632305 0.47754657 0.7446663 -0.09226892 0.041286226 -0.14638379 -0.08935762
-0.07697241 -0.021334574 -0.06263456 0.10506173 0.05530704 -0.08285768 -0.14098707 0.11234385
-0.03016778 -0.13436262 -0.024002919 0.10861265 -0.14727549 0.0050778375 0.1125592 -0.1159207
0.099218 0.023871485 -0.049149547 -0.0069379844 -0.12872618 0.03550029 0.07919617 -0.12306157
-0.04485108 -0.071408056 0.11109673 -0.098964356 -0.14287329 -0.020997114 -0.015779851 0.052896038
-0.08982879 -0.1327815 -0.08780827 -0.060425755 0.10070192 0.024966868 -0.1491182 -0.08061033

l5.bias f4 [85]
00000000: 059d be3d e5d9 953f d7b0 ba3f c817 d03f
00000010: b0bf d6bd a977 96bc 9658 a33f 45d5 5b3e
00000020: d645 18bd faae 9fbd bbde c83f 7d9a c13f
00000030: 3f97 adbe dc1a b73f 5dad 00be bfcf f63d
00000040: de3e ac3f 2857 ab3f e2b5 cdbd cd79 873e
00000050: 57ad bdbc 9da0 28be e789 5dbd b34a ea3f
00000060: 48be 863c 1cc1 91bc 1720 833e 0351 883d
00000070: 0dd1 d1bd dfcb 3940 d6ea 85be 5d13 ac3f
00000080: 44e2 48bd 142a 6c3c 8d3c b5bd 6951 af3d
00000090: 3471 dabd 7420 ec3f 09eb c13f e9b3 cf3f
000000a0: 34d6 f23d 4171 c5bd 5de4 24bf de61 8fbd
000000b0: dfaa 053c de86 c63f 4396 04be 2db3 c03f
000000c0: b4ef ba3f 8e00 d93f b81c cb3f 303a 6dbc
000000d0: 5e05 d93f c10e 4a3d 379a cebd 5c1a 593d
000000e0: 1b6c cc3f b5ef afbc b7e8 94bd 7a83 af3f
000000f0: 2e7c d93d 1251 b03d 342c c63f 2cca 3cbd
00000100: b187 a93f 6543 b93f 8d55 c43f 27e8 ddbd
00000110: 7586 9c3e ae7b 0ebe 7f0e f1bd a985 89ba
00000120: bc84 96bc 1ab0 e73d afc2 aa3f 2919 dcbc
00000130: f191 e13f 82a2 a13f f367 ee3c ec33 eb3f
00000140: 1646 babd 80d1 bd3d fd27 c33f 6e05 533d
00000150: 06bc 9e3f
0.09307293 1.1707121 1.4585217 1.6257257 -0.1048578 -0.018367605 1.2761409 0.21468075
-0.037175976 -0.07797046 1.5692972 1.5125271 -0.33904454 1.4305072 -0.12566133 0.12051343
1.3456686 1.3385973 -0.10044457 0.26460114 -0.023153944 -0.16467519 -0.054086592 1.8304046
0.016448155 -0.017792277 0.2561042 0.06656077 -0.102449514 2.9030683 -0.26155728 1.3443409
-0.04904391 0.014414329 -0.0884944 0.0856045 -0.10666123 1.8447404 1.5149852 1.6226779
0.11857262 -0.09640742 -0.64410955 -0.070010886 0.008158415 1.5509908 -0.12947945 1.505468
1.4604402 1.6953294 1.5868139 -0.014479205 1.6954763 0.049330477 -0.10088008 0.053003654
1.5970491 -0.021476606 -0.07270949 1.3711998 0.106193885 0.08609213 1.548224 -0.046091244
1.3244535 1.4473692 1.5338608 -0.10835295 0.30571333 -0.13914368 -0.11770343 -0.0010492104
-0.01837384 0.113128856 1.3340663 -0.026867466 1.7622663 1.2627718 0.029102301 1.837522
-0.09095399 0.092684746 1.5246578 0.05151885 1.240113

l6.weight f4 [3, 85]
00000000: cb02 143d 59b3 c9be 8a8f cabe 6533 2abf
00000010: dd18 7abd 7e82 23bc 801a 54bf f887 503f
00000020: 5d06 bfbd d3e5 963d 5c0d b7be 1a82 bfbe
00000030: 86c2 cc3f 27d3 4fbf 184d fcbc f542 0e3e
00000040: a81d 4fbf 3987 c5be e4be babd d578 35be
00000050: 5b15 563f 13bd 893f 8ac4 f2bc 69de 1cbf
00000060: 2787 c6bd 7a95 28bd e3dc 93bd 16b4 713d
00000070: 37cd 53bd ac06 a83f a144 8f3f 15cc 2ebf
00000080: 1839 083c 91d9 9bbc 60ef 633c cee1 013d
00000090: e357 edbe bb4b 29bf 4099 1ebf 20de 8cbf
000000a0: 7e80 22bc 655c d2bb 7d33 21bb fc10 e9bc
000000b0: e8ca 403f e565 43bf 5bca b73d 0172 6abf
000000c0: d352 67be 79a7 05bf 9992 f6be 1e9c 4dbd
000000d0: e331 a6be 668b 643f 0032 71bd f583 36bd
000000e0: f5e3 0ebf 515b f5bd 8e26 9cbd f462 52be
000000f0: d0bb fe3b 603e 203d 3b32 3fbf f005 723d
00000100: 5d09 3ebf f79e 18be 9091 4cbf e117 8e3f
00000110: fddd 443f 354e b13d 9232 f8bb 2f21 0fbf
00000120: 55f1 833d faa3 0d3e bfd7 7cbe ed82 b73b
00000130: 6e04 2dbf d261 75be 283a 6a3d b9b8 1dbf
00000140: f77f 88bc ce9a 773d 04cd 6cbf 8f86 ca3c
00000150: d450 b2bd 1d8f d7bc b143 47bf 12d9 4ebf
00000160: 65a5 13bf 508a 983c 5d54 1e3d f3d4 b33e
00000170: a442 0fbf c8c8 a73f 3cdd 80bc 2123 77bf
00000180: 55c3 11bf 3fb4 b2bf 8822 6d3d 3a37 0fbd
00000190: d435 283f 5e35 b03e 0549 57bf 67dc 92bd
000001a0: 6829 883f 7e17 99be e23f 95be b4a4 25bd
000001b0: db7d f5be 7bb6 cebd a18d ac3d b422 263f
000001c0: 9119 363d b46e 4cbc 49d9 223f 0e96 e8be
000001d0: 5f2f 1a3e 3a8e 5cbd 1803 1cbe b9ff b63d
000001e0: c00b d8bd d7f4 b63f 4809 9cbe 2619 69bd
000001f0: 3ff0 523e 7f10 94bb 4d44 9d3d e55e 403f
00000200: f061 dabc 0c1a ffbd 303b 92be f294 473d
00000210: 6cd5 9c3e 8643 67bf cbbc dabe ad95 4ebf
00000220: 7a9f 083d c2a2 3abf 40bb 89bf 2a05 cb3d
00000230: 9771 6ebd e279 41bf 40cf ab3d beb6 34bd
00000240: 6283 1cbf 7452 583d de1b 393d f04b 23be
00000250: 04ba 6dbd d557 0a3e bc4d 83bf dccc 813e
00000260: 60ad c9be 2e6a fdbc 4693 8f3c 5069 353d
00000270: 7443 853f 1ef2 c63d 5af7 75bd 4c0d 80bf
00000280: e107 42bd bf7d e8be 533c 7cbf f528 1a3d
00000290: 1bf3 c7be 101a d33c a40a 7cbd 65cd 673e
000002a0: 46e6 2abd ca0e 8bbf 3050 ae3d 5fb7 ff3e
000002b0: 3ea5 043f 9d46 6bbe 20b1 2ebd 2546 9f3d
000002c0: 859e 4cbf 2ed2 1bbf eeb7 8dbf 89c8 6e3d
000002d0: 6089 123e c9e5 36bf 988d 833f c295 b5bd
000002e0: b87a 99bd 13a8 8dbf 807f 4abf 4a39 cf3e
000002f0: aaeb b8bd fe36 83bf 0df8 47bf 3c48 57bf
00000300: 0f9c cf3d 7071 0fbf 2f30 a5bb ad09 b63d
00000310: 2936 87bf 2618 ad3d 9ca9 723d 370a 4940
00000320: 51c4 1cbf 2b88 54bf bc85 8e3c c74d 9dbd
00000330: 11d4 c03d 09a1 b93d 904f eb3f aa9b 0cbf
00000340: 09f6 5fbf b2fa 903e 4470 32bd e30d 8a3d
00000350: 6587 8b3f 8e6a 653d f817 53bf 066f 9a3e
00000360: c24c 463d 8eb0 0cbf 65d9 cbbe c1c9 eabe
00000370: 9c8a 4d3e 14fb b1bd eb6b 28bf 89cc 2f3f
00000380: a4cf 5d3d 4a4d 5a3d 5305 e13c 4a87 913d
00000390: ca9f 32bd 9273 3bbf 42a6 193c 2c59 2abd
000003a0: 468c 3d3e 8a5d ff3c 017a 49bf 066f 79bd
000003b0: 6b88 38bf 9639 48bf 3a09 90bf 6772 0cbc
000003c0: 82b3 153d c2e3 793f ea85 91bd 52e6 573d
000003d0: 67a3 e03e 23e5 803d 607c ecbe 81a2 133e
000003e0: 4e62 f5bc 732f 0dbf d3d0 bd3d ba6e c13d
000003f0: 79f6 323d 1d08 e53c 2f26 2e3e
0.036135476 -0.39394644 -0.39562637 -0.6648467 -0.061058868 -0.009979842 -0.82852936 0.8145747
-0.093273856 0.07368054 -0.3575238 -0.37403947 1.5996864 -0.8118157 -0.03079848 0.1389273
-0.80904627 -0.3857973 -0.09118441 -0.17721875 0.83626336 1.0760826 -0.029634733 -0.6127687
-0.09693747 -0.041158177 -0.07219865 0.059009634 -0.05170938 1.3127036 1.1192819 -0.68280154
0.008314393 -0.019024642 0.013912052 0.031709485 -0.46356115 -0.6613118 -0.6195259 -1.1005287
-0.00991833 -0.0064197057 -0.002459734 -0.028450482 0.7530961 -0.76327354 0.08974143 -0.91580206
-0.22590189 -0.5220867 -0.4815872 -0.050197713 -0.32459936 0.89275205 -0.058885574 -0.044559438
-0.55816585 -0.11980308 -0.07624541 -0.2054556 0.007773854 0.039121985 -0.7468602 0.059087694
-0.7423304 -0.1490439 -0.7990961 1.1101037 0.7690123 0.08657495 -0.007574388 -0.5591001
0.06442515 0.13832083 -0.24691676 0.0056003244 -0.67584884 -0.23963097 0.05718437 -0.6160999
-0.01666258 0.060450368 -0.9250033 0.024722366 -0.08706823 -0.026313359 -0.77837664 -0.80799973
-0.5767425 0.01862064 0.038654674 0.35123405 -0.5596106 1.3108149 -0.015730493 -0.9653798
-0.5693868 -1.3961257 0.05789426 -0.034964778 0.65707135 0.34415716 -0.84095794 -0.07170945
1.0637636 -0.29900736 -0.291503 -0.040440276 -0.47947583 -0.10093399 0.08425451 0.648967
0.044457976 -0.012477566 0.636128 -0.45426983 0.15057133 -0.053846575 -0.15235555 0.08935494
-0.10549116 1.4293469 -0.3047583 -0.05690875 0.20599459 -0.004518568 0.07679043 0.751448
-0.026658028 -0.1245614 -0.2856078 0.04872603 0.30631578 -0.9033741 -0.42722163 -0.8069714
0.033355214 -0.729046 -1.0760269 0.09913094 -0.058213796 -0.75576603 0.08389139 -0.04411959
-0.61137974 0.05281301 0.04519259 -0.15946937 -0.058038726 0.13510068 -1.0258098 0.25351608
-0.39390087 -0.03093442 0.01752628 0.044289887 1.041121 0.09714149 -0.060050346 -1.0004058
-0.047370795 -0.45408437 -0.9852955 0.037636716 -0.39052662 0.025769264 -0.061533585 0.22636946
-0.041723512 -1.0863888 0.08511388 0.4994459 0.5181464 -0.22976156 -0.04264939 0.07777051
-0.7992938 -0.60867584 -1.1071756 0.058296714 0.14310217 -0.71444374 1.0277586 -0.08866455
-0.0749411 -1.1066917 -0.791008 0.40473396 -0.09029324 -1.0251157 -0.7811287 -0.84094596
0.10137188 -0.56032467 -0.0050411443 0.08888564 -1.0563403 0.084518716 0.059243783 3.1412485
-0.61237055 -0.83020276 0.017397754 -0.076808505 0.094154485 0.09063918 1.8383656 -0.54925025
-0.87484795 0.28316265 -0.043564096 0.0674093 1.0900694 0.05600982 -0.8245845 0.3016283
0.048413046 -0.549569 -0.39814296 -0.4585705 0.20072407 -0.086904675 -0.6578967 0.6867147
0.0541531 0.053296365 0.02746836 0.071058825 -0.043609418 -0.7322322 0.009378018 -0.041588947
0.18510541 0.031172533 -0.7870179 -0.060896896 -0.7208316 -0.7821287 -1.1252816 -0.0085721975
0.036548145 0.97613156 -0.0710562 0.052709885 0.43874666 0.06293704 -0.4618864 0.14417459
-0.029954102 -0.55150527 0.09268346 0.094449475 0.043692086 0.02795797 0.17006753

l6.bias f4 [3]
00000000: 8c82 9fbf 610f 50bf 811c 94bd
-1.2461715 -0.81273466 -0.07231999
