models/Others/model_PGNN_10_1e-1.pt (torch, 127233 bytes, 12 tensors)

l1.weight f4 [189, 9]
00000000: 58a5 a4be c9dd 723f ca1b 383f a7d0 873f
00000010: 5cea 483e 82a5 6a3f 10ea c23d 64f2 34bf
00000020: f28f c6bf dda5 9bbe c5d6 403d 66b9 13bf
00000030: 8dc2 0abf 0515 20bf 91f9 50bf a46d 473e
00000040: c1dd 133f 7abc ca3f db43 e4be fd9b 0f3f
00000050: fa3b 763f b4da 9c3e aa76 d03e b9eb d33e
00000060: 0312 ea3e bc1c 6ebf 28bf eebf 1e09 9c3c
00000070: 8499 9b3f 6067 103f a86e 92be 3295 293f
00000080: 5cc4 003f 8907 913f 5bd9 78bf 5263 c9bf
00000090: 3501 923e 7b1c 7c3f c373 75bb c6c3 353e
000000a0: db36 123f b19f bd3d d98b 2f3f 5cc7 a0bf
000000b0: c549 d8bf b4da a73e 1a60 2a3f b26c 163f
000000c0: ea77 05bf 6d9e 823f 86d7 1f3f 7b14 8d3f
000000d0: d431 59bf ee12 c6bf 9b9f 6c3e 2ee5 82bf
000000e0: 1f12 e2bc 6dc7 0abf 447a b8be caf6 743e
000000f0: 426f 79bf b62b ad3f 2fb6 1a40 cded 85be
00000100: 0119 cdbf 11a3 8f3d a66f a7bf 1801 15bf
00000110: 3524 d7bf a467 103e 9f98 b93f 042c c43f
00000120: 2c40 753e ebad 81bf 4d02 653f c735 98bf
00000130: 0596 5f3e 3391 c93e e59f 20bf 05e0 0840
00000140: deac aa3f caa1 f63d 9994 483f 780c 323f
00000150: 0c9c 3abf e850 aa3f 2a12 913f e729 b03f
00000160: b67a c7be 92b2 c4bf 8463 a73e acc8 e03e
00000170: 3d2a 853f 6e7e 3c3f 6b8e e53d 464f 1ebe
00000180: 2478 883f c615 81bf 6cdd f2bf 3df8 763c
00000190: 01e5 323f fe14 65bf ff58 13bb 6ff3 113f
000001a0: 4c35 9e3e 0260 ff3e ff25 0f40 6f9a 6440
000001b0: 6318 e23e 972d b43f 938d 81bf 5173 473f
000001c0: d017 3a3e bd0a b7be 2678 2e3f bb54 dbbf
000001d0: c920 83bf 00ed 68be 9107 b2be 8939 93bf
000001e0: 293d a0be 5852 f3bd 624c 3cbf db77 ce3d
000001f0: 7b99 253f 0e67 1340 57ab 9d3e f184 d3be
00000200: e523 53be 3777 0dbf 85c0 3bbe 7271 e4be
00000210: 66ab bdbe cd77 e03f e4ad 2440 4b98 e13e
00000220: 6eb8 f33d 9ef1 e03e 6442 133f 6fcc ca3e
00000230: 50a1 d5bd 1cba ab3e 69f6 89bf 58e5 0fc0
00000240: 1d33 86be 12e8 1ebf 1819 5ebf 549b c6be
00000250: 49bb dcbd b138 a7be 8e04 01be 14db 7a3f
00000260: 648d 1740 fd27 b73e 3e18 02bf 5f81 953e
00000270: 788b 903e b616 c8be 88b5 27bf 8a80 61bf
00000280: 4b85 9b3f 5195 eb3f 4616 7e3e 030f 40be
00000290: 8789 1abf de35 933e ec58 9bbe ddee 2bbf
000002a0: 71fb 40bf c082 a33f 45e3 0e40 b127 3a3e
000002b0: c86c b3bd cda6 07bf 24d9 1fbf 73b8 b5be
000002c0: cd62 dd3d 0770 f9be c9bc 993f 3b39 1740
000002d0: 269c 96be 7fd4 423f 7ca1 3d3e bd5d 853f
000002e0: d46d a93e 4d83 283f 6abb 013f c85b 69bf
000002f0: 32f6 b1bf 97c5 6c3e 2f42 5abf b2d7 d2bd
00000300: 941a 033d 1d70 e9be 224a 3ebe 9355 24bf
00000310: 8589 a53f 3cfe 0140 3693 b33e 6045 8f3e
00000320: 54d0 853e d122 b63e 2f29 203e a757 b23c
00000330: 7971 243f 6e53 91bf 50f5 dfbf 6f48 693e
00000340: a7e9 36bf c170 e3bd 0f1c b13e bf99 8bbe
00000350: 9f4a 4abf 91f3 c6be 1921 8c3f bbdb 1b40
00000360: a8b2 a6be 79c0 8b3f 0064 ce3e 498c 353f
00000370: 12be 303f fff4 193f 67ec 2f3e d8f1 f7be
00000380: ae38 ddbf c119 8b3e ea76 79be 66a4 59bf
00000390: fc0c 953e 5cef 8cbf 94cc 67bf 4cfb 49bf
000003a0: 4204 bb3f 023d 0140 a978 b9be a489 b3bf
000003b0: 9f7c 6f3e 4893 b3bf 0681 edbe 4147 5fbf
000003c0: 76ec 483e 1078 b73f 8286 f33f 2929 e13e
000003d0: 0aff 923e 0250 523f 1ba4 e9be 5e7e 603f
000003e0: 5d14 2b3f 5a79 453f 2f4e 6cbf 0a0d 06c0
000003f0: b403 ef3e df0e 1c3f 1da7 95be 84fa 16c0
-0.32157397 0.9486967 0.719174 1.0610551 0.19620651 0.91658795 0.095173 -0.7068236
-1.5512679 -0.3039998 0.04707982 -0.5770477 -0.5420311 -0.62532073 -0.8163081 0.19475418
0.57760245 1.5838768 -0.4458302 0.56097394 0.96185267 0.30635607 0.40715533 0.4139078
0.45716867 -0.93012595 -1.8652086 0.019047316 1.2156224 0.5640774 -0.2860005 0.6624328
0.5029962 1.1330425 -0.9720666 -1.5733435 0.28516546 0.9848096 -0.0037453033 0.17750463
0.5711495 0.09258974 0.68572766 -1.256084 -1.6897513 0.32784045 0.6655289 0.58759606
-0.521361 1.0204598 0.6243824 1.1021875 -0.84841657 -1.5474527 0.2310776 -1.022619
-0.027596531 -0.5421055 -0.3603078 0.23922268 -0.9743539 1.3528965 2.4173696 -0.2615799
-1.6023256 0.07013524 -1.3080947 -0.58204794 -1.6807925 0.14102036 1.4499701 1.5325933
0.23950261 -1.01312 0.89456636 -1.1891412 0.21834572 0.3936859 -0.6274398 2.138673
1.3334005 0.120425776 0.7835174 0.69550276 -0.7289436 1.3305941 1.1333668 1.3762788
-0.3896081 -1.5366995 0.32693112 0.439031 1.0403515 0.73630416 0.11208805 -0.15459928
1.0661664 -1.008477 -1.8973823 0.015073833 0.6988068 -0.89485157 -0.0022483466 0.57012075
0.30900037 0.49877936 2.236694 3.5719259 0.4415923 1.4076413 -1.012133 0.77910334
0.18173146 -0.3575038 0.6815208 -1.7135233 -1.024438 -0.22746658 -0.34771398 -1.1501933
-0.31296661 -0.1188094 -0.7355405 0.10081454 0.6468732 2.303165 0.30794784 -0.41312364
-0.20619161 -0.5526003 -0.18335159 -0.44617802 -0.3704483 1.753656 2.5731134 0.44061503
0.119004115 0.4393434 0.5752318 0.39609095 -0.104311585 0.33540428 -1.0778323 -2.248373
-0.2621087 -0.6207286 -0.8675704 -0.3879038 -0.10777909 -0.3266044 -0.12599394 0.97990537
2.3680048 0.35772696 -0.5081824 0.29200265 0.28231406 -0.39079827 -0.6551137 -0.8808676
1.2150053 1.8404943 0.24813184 -0.18755727 -0.603661 0.28752035 -0.3034128 -0.6716135
-0.7538367 1.2774277 2.2326214 0.18179204 -0.08760983 -0.5298889 -0.62440705 -0.35492286
0.108098604 -0.48718283 1.2010738 2.362868 -0.29416007 0.76105493 0.18518633 1.0419232
0.33091605 0.6582535 0.50676596 -0.9115567 -1.3903258 0.2312225 -0.8525724 -0.10295047
0.03200777 -0.45593348 -0.18582967 -0.64193076 1.2932593 2.0311422 0.3507325 0.27982616
0.26135504 0.35573438 0.1564071 0.021770312 0.64235646 -1.1353586 -1.7496738 0.22781537
-0.71450275 -0.111054905 0.3459172 -0.27265736 -0.7902011 -0.388577 1.0947601 2.4352863
-0.3255818 1.0918113 0.4031067 0.70917183 0.69040024 0.6013946 0.17180024 -0.484267
-1.7282922 0.27168086 -0.24361768 -0.8501648 0.2911147 -1.1010547 -0.90546536 -0.78899074
1.4610674 2.0193486 -0.3622487 -1.402638 0.23387383 -1.4029322 -0.463875 -0.872181
0.19621453 1.4333515 1.9025424 0.43976715 0.28710204 0.8215333 -0.45633015 0.8769282
0.66827947 0.7713829 -0.923068 -2.0945458 0.46682513 0.6096019 -0.2922906 -2.3590403

l1.bias f4 [189]
00000000: 138d 943f 53eb c1bf eade b43f 91d4 0a40
00000010: 480d e73f a9f1 e53f b725 bcbf 9b97 e4bf
00000020: e2cf d0bf 5ab3 cf3f cbcd 8b3f bbcd 29bf
00000030: f949 d63f a046 d8bf 815c 9ebf 24a3 8a3f
00000040: 0d9f dfbf 6fda a9bf 84e9 b0bf 29cb 7cbf
00000050: 91c2 bb3f 8385 d6bf 113e ae3f 75ba ecbf
00000060: 75bf d13f f400 ccbf d677 e8bf aeaa cc3f
00000070: 06ef 8abf b588 dbbf 028c ec3f 8e14 bdbf
00000080: d038 e1bf 294b fa3f 8a7b c8bf f447 ccbf
00000090: 9c40 e4bf 8218 dd3f 6d0c f83f 363a ee3f
000000a0: 9cec 8bbf bc7d e13f 4e9c c63f 8d67 2740
000000b0: c296 26bf c3b3 a8bf 9038 ec3f 1864 e2bf
000000c0: d825 04c0 21a5 ff3f 457a 00c0 fd5e 68bf
000000d0: fcef 0a40 f1f3 8d3f 3bc1 a63f 68f2 a0bf
000000e0: d530 dbbf 40e5 fbbf 5386 02c0 e456 c3bf
000000f0: 266d 01c0 a1a0 fabf 7312 dfbf 06ad bfbf
00000100: a294 9bbf b4e6 cdbf ad17 ac3f 188e d7bf
00000110: 70b7 93bf 9b03 48bf 43b4 803f 1e33 ca3f
00000120: e384 923f 71b7 efbf ad38 be3f 251f b4bf
00000130: f85f d2bf 1bda a2bf c211 bbbf 8852 0540
00000140: 538b b5bf 5f40 0940 2c4c 00c0 cf39 ccbf
00000150: 9b14 b5bf f6ec 773e 6a8e 6dbf fe27 f5bf
00000160: 6f07 e63f 7467 a0bf a5b4 51bf 09f9 8c3f
00000170: 205e a6bf 1280 df3f c9c5 fe3f 2bac 0e40
00000180: f2d7 f3bf 81b4 3dbf 800e ecbf 9f14 d03f
00000190: c0cf cabf 6508 dcbf 189d e13f 473a 0240
000001a0: b8cf d13f f195 ebbf fa2f d53f bd68 c33f
000001b0: fcff a5bf b0c0 76bf d147 a0bf 1b75 e1bf
000001c0: 3b15 a03f 6783 f7bf f4cd e83f 764f b4bf
000001d0: 0b15 7cbf 94a1 ec3f 40aa a3bf 74dd a23f
000001e0: 224f cd3f 96aa a93f 2390 b83f 4dd2 18bf
000001f0: de17 dc3f 5eeb cb3f c7c5 99bf 4912 75bf
00000200: c211 4bbf 0020 6fbf 3632 cdbf 62b2 bb3f
00000210: aae0 b0bf 5376 96bf cc2a 8cbf bd88 a1bf
00000220: 3efe c93f 1cdc c43f 5fcc c23f 30dd e83f
00000230: 0b30 b93f 5792 b23f 8014 ffbf 8001 cabf
00000240: ba33 cdbf c55a fc3f 9d11 d6bf 5ec2 e4bf
00000250: 664d cd3f 9ed5 b03f 0f76 f7bf f3da 80bf
00000260: 8cee ddbf d9a3 d63f 766f dcbf 55f2 ee3f
00000270: a3ea ccbf 52f0 edbf 0e80 02c0 db74 e13f
00000280: 9de2 ff3f fb5a 94bf bba9 d63f ad4c 8f3f
00000290: 38ff 833f 4d0d 95bf 6396 97bf a2e2 c1bf
000002a0: 0fb8 81bf 89ed cf3f f18e a5bf 9904 b4bf
000002b0: ee5c af3f c492 c6bf 86a1 d23f 47fa 0540
000002c0: 4013 e7bf 96bc a03f 93bf 41bf b6e0 ab3f
000002d0: bf6c 62bf 7440 b53f cd25 b33f 5a00 0d40
000002e0: b62b dc3f bd52 2d40 c2d4 0cc0 7021 ba3f
000002f0: 30e8 a0bf
1.1605552 -1.514994 1.4130528 2.169224 1.8050928 1.7964374 -1.469901 -1.7858766
-1.6313441 1.6226609 1.0922178 -0.66329545 1.6741325 -1.6896553 -1.237198 1.0831037
-1.7470413 -1.3269786 -1.3821263 -0.987475 1.4668752 -1.6759495 1.3612691 -1.8494402
1.6386553 -1.5937791 -1.8161571 1.5989587 -1.0854194 -1.7151095 1.8480227 -1.4771898
-1.7595463 1.9554187 -1.5662701 -1.5959458 -1.7832217 1.7273104 1.9378792 1.8611515
-1.0931582 1.7616496 1.551645 2.6156952 -0.6507379 -1.3179859 1.8454762 -1.7686796
-2.0648098 1.9972268 -2.0074627 -0.9076994 2.1708975 1.109007 1.3027719 -1.2573977
-1.7124277 -1.9679337 -2.0394485 -1.5260892 -2.022287 -1.958027 -1.7427505 -1.4974678
-1.2154734 -1.608603 1.3444725 -1.6840239 -1.1540356 -0.781305 1.0055012 1.579685
1.1446804 -1.8727857 1.4861046 -1.4072005 -1.6435537 -1.272281 -1.4614794 2.0831623
-1.4183143 2.144554 -2.0046492 -1.5955142 -1.4146913 0.24211487 -0.9279543 -1.915283
1.7971019 -1.2531571 -0.81916267 1.10135 -1.2997475 1.7460959 1.9904109 2.2292583
-1.9050276 -0.7410355 -1.8441925 1.6256293 -1.584465 -1.7190062 1.7626066 2.034807
1.6391516 -1.8405133 1.6655266 1.5266339 -1.2968745 -0.9638777 -1.2521917 -1.7613863
1.2506479 -1.9336976 1.8187852 -1.408675 -0.9846961 1.848681 -1.2786331 1.2723832
1.6039774 1.3255184 1.4418987 -0.59695894 1.7194784 1.5931203 -1.2013482 -0.95731026
-0.7932397 -0.93408203 -1.6030948 1.4663813 -1.3818562 -1.175486 -1.095056 -1.2619854
1.5780714 1.5379672 1.5218619 1.8192501 1.4467787 1.3950909 -1.9928131 -1.5781708
-1.6031411 1.9715201 -1.6724125 -1.7871816 1.6039245 1.3815191 -1.9332904 -1.0066818
-1.7338424 1.6768752 -1.7221515 1.8667704 -1.6009105 -1.8588965 -2.0390658 1.7613786
1.9991032 -1.1590265 1.6770548 1.1195275 1.0312262 -1.1644684 -1.1842769 -1.5147288
-1.0134295 1.6244365 -1.2934247 -1.4063903 1.3700235 -1.5513539 1.6455543 2.0934007
-1.805275 1.2557552 -0.75682944 1.3427951 -0.88447183 1.4160295 1.3995911 2.2031465
1.720084 2.708175 -2.2004857 1.4541454 -1.2570858

l2.weight f4 [119, 189]
00000000: 0837 9abe c54e 393e 263f a3bc 0dc7 4dbe
00000010: bb3a d93b 4591 8bbe 4760 12be 7781 303f
00000020: 44c5 fcbe b631 f8be ee44 9f3e 78a4 193f
00000030: 3069 663e 5376 b13e 6188 21be e8bf 953e
00000040: aa83 fd3e 0dd5 9c3e 702b 113f e005 dcbe
00000050: 0e2c dcbe 80f7 893e af97 e53d 5840 503f
00000060: 6834 27be f988 bf3e 274c 553f b7f8 10be
00000070: db26 56bf bdb2 013f a3ce c6be 88ff ca3e
00000080: f4cf 003e e249 89be bdf8 0d3f b773 953e
00000090: 72b6 9f3d 50aa 0f3d 00d5 703e 9ebe 57be
000000a0: 0577 8d3d e028 4bbe 10ca 183e b9ec 52be
000000b0: e8d7 a13e c901 933e cbd4 413e 9189 f53e
000000c0: 3e22 bcbe e64b a53e d596 293f e514 503f
000000d0: 1664 923e eec0 4d3e 11d7 93be 8c5d d73e
000000e0: 2c1c a93e 20a8 453e 62ff eabb 0319 4c3e
000000f0: 3069 2fbe d92e 123f b467 bbbd 164f 1f3f
00000100: b166 273e 5498 a33e 833a 3b3e 5cc1 81be
00000110: 8265 39be 2818 3c3f a215 c9be db32 71be
00000120: 0fd2 4d3e 0636 e23e b88c b9bc 7b88 d9bd
00000130: f511 133f 06f3 513e ae51 5e3f d900 db3e
00000140: 8b4f ffbb 511e a0bd acf0 6b3e 48ae a83e
00000150: a2bc d43e 510a 86bf 7b67 d9bd c4b3 91be
00000160: 36c3 7dbe f71c 303f e828 163f 2568 683d
00000170: 11c2 3e3f c134 473e 136c b5bd de2f 143d
00000180: 8784 693f 5821 c93e 070c db3e 855f 8f3e
00000190: 09f5 da3e add8 94bd 29aa fe3d 4278 2ebf
000001a0: dcc4 14bd efe6 cebe 23c2 97be 4694 9cbe
000001b0: c6c0 493e 43c1 813f ecc6 dabd 725b a23e
000001c0: 4989 f4bd f027 a4bd 5a85 05bd 33a9 1e3f
000001d0: cbd6 473f 3af8 ad3c decc 143e 1b40 96bd
000001e0: c2d2 2c3d 2499 8b3d da41 dabd 7dd8 593f
000001f0: f890 5dbe 47d1 0dbc 0b63 c63d d3e1 4f3f
00000200: 834d 623f 0394 dcbe 578f 0c3f 5fb9 1b3e
00000210: 172d dbbd 5ca6 fa3e 0e47 8f3f b757 ab3e
00000220: 2d50 523e c2f2 2ebd 01a9 b2be 1bec f9be
00000230: 8f76 433e 2942 b93c b3d9 2f3e 2d44 f93e
00000240: 34ad 5abf 3126 43ba 2d29 263e 215d eb3e
00000250: 1548 e7bd 0337 f3bc fbad ce3e a767 363e
00000260: 490d c3be 8f76 8dbe f546 6c3f 8a0f 2b3e
00000270: a27f 543e f1af 563f a889 433f 0731 06bc
00000280: def3 18be 0ff5 3b3f 3041 01bf 3570 9bbe
00000290: 389e 8b3e 235a 8a3e 7cd9 603e 671d 8a3e
000002a0: 7a2b 1c3e a52b 02bf 7717 363f 0daf f43e
000002b0: 639e 5d3e 0cc1 03be 42b1 66be 8ad5 3dbd
000002c0: 3d67 fd3e f963 9cba cda0 913e 2d09 01bc
000002d0: fc98 383f b6d9 cfbb 4a3f 88be ae92 7f3e
000002e0: d636 88bd 5977 73be 287f af3e 675c 85be
000002f0: 449e d53e 3a71 003f 6cc5 4c3c 0787 da3e
00000300: 773f 813f 083b f63e 8ef2 ea3e 1d83 2abd
00000310: 828b 93be 7084 3ebd 5a0c 1b3f 0fde cf3e
00000320: ce10 bbbe 0908 df3e dc9a 51bd 618b dabb
00000330: 3ea9 cb3e 842c 4cbd 95d7 803d ff5c 88bd
00000340: 46fc 333c 7b36 ff3e a9e7 9ebd 060b af3e
00000350: 7a13 9ebe fa71 f23e 2e74 ebbd 275e 08be
00000360: eca5 d23e 25c9 513e 8058 e8bd c004 123f
00000370: 3ddc a7ba 2b22 01bd 1727 173f dadb 67be
00000380: d7e1 38be 0a15 06be 1429 f33e afc6 e93e
00000390: 3aee 383f 819c 93bd ecfd 1d3f 26fb e63e
000003a0: 26a6 a43f 749c 60be 996a 9fbe fc11 e93e
000003b0: 5b05 c4bd 8555 3c3c a036 ed3e 6b57 8cbe
000003c0: c9a5 24bf 4ae9 263f d453 803e 5857 0c3f
000003d0: 8cd7 c3bd eab9 f13c f355 6cbd 9c49 953c
000003e0: 161f 963d 6b97 7ebd d2b2 88be 17dc 3e3e
000003f0: 3529 14be 1f37 73be 5e9d 21be c23f ba3e
-0.3012011 0.18096454 -0.019927572 -0.20095463 0.0066293157 -0.2725927 -0.1429454 0.6894755
-0.49369252 -0.48475426 0.31107277 0.60016584 0.22501063 0.34660587 -0.1577468 0.29247975
0.49514514 0.30631295 0.56706905 -0.42973232 -0.4300236 0.2694664 0.11210572 0.8134818
-0.16328585 0.3740919 0.83319324 -0.14157377 -0.8365304 0.5066336 -0.38829526 0.3964808
0.12579328 -0.2681418 0.5545767 0.29189846 0.077984706 0.035074532 0.23518753 -0.21068808
0.06907467 -0.19839811 0.1492083 -0.20598115 0.31610036 0.287123 0.1892883 0.47956517
-0.36744875 0.32284468 0.66245776 0.8128188 0.28591985 0.20093128 -0.2887502 0.42063558
0.33029306 0.19302416 -0.0071715573 0.19931416 -0.1712997 0.57102734 -0.09150639 0.6223005
0.16347767 0.31952155 0.18284039 -0.25342834 -0.18105128 0.7347436 -0.39274317 -0.23554556
0.20099662 0.44181842 -0.022650108 -0.10621735 0.57449275 0.20502862 0.86843383 0.42774084
-0.0077914647 -0.078182824 0.23041028 0.32945466 0.41550165 -1.0471898 -0.106154405 -0.28457463
-0.24781498 0.68794197 0.5865617 0.056739945 0.7451487 0.19453718 -0.08858504 0.036178462
0.91217846 0.39283252 0.42782614 0.28002563 0.42765072 -0.0726789 0.12434799 -0.6815225
-0.036320552 -0.40410563 -0.29640302 -0.30581874 0.19702443 1.0137104 -0.106824726 0.31710392
-0.119402476 -0.0801543 -0.032597877 0.6197693 0.78062123 0.021236528 0.14531276 -0.07336446
0.04219318 0.06816319 -0.106570914 0.8509596 -0.21637332 -0.008655853 0.0968686 0.81203955
0.88399523 -0.43081674 0.5490622 0.15207432 -0.107019596 0.48955047 1.1193559 0.3346536
0.20538397 -0.04271198 -0.34894565 -0.48812947 0.19088195 0.022614555 0.1717289 0.48684826
-0.85420537 -0.00074443506 0.16226645 0.4596949 -0.112930454 -0.029689318 0.40367112 0.17812978
-0.38096073 -0.27629516 0.9229577 0.16705146 0.20751813 0.83862215 0.7638192 -0.0081904
-0.14936778 0.73420805 -0.50490093 -0.30359045 0.2726915 0.27021894 0.21957964 0.26975557
0.1525096 -0.50847846 0.71129555 0.47789803 0.21642451 -0.1286661 -0.22528556 -0.046346225
0.49492827 -0.001193165 0.28442994 -0.007875723 0.72108436 -0.006343092 -0.26610786 0.24958298
-0.06651084 -0.23775996 0.342767 -0.2604706 0.4172231 0.5017277 0.012498241 0.42681143
1.0097493 0.48091912 0.4588818 -0.041628946 -0.28817374 -0.04651302 0.6056572 0.40599105
-0.36536258 0.43560818 -0.051173076 -0.0066694473 0.3977756 -0.04984714 0.06291119 -0.066583626
0.01098544 0.49846253 -0.077590294 0.34188098 -0.30874234 0.47352582 -0.11496769 -0.13317166
0.41142213 0.20486887 -0.11345005 0.570385 -0.0012806725 -0.031526726 0.5904402 -0.2264246
-0.18054901 -0.13093963 0.47492278 0.45659396 0.72238505 -0.07207585 0.6171558 0.45113486
1.2863204 -0.21934682 -0.31136015 0.45521533 -0.09571334 0.011494999 0.46330738 -0.27410445
-0.6431547 0.6519972 0.25063956 0.54820776 -0.09562597 0.029507596 -0.057699155 0.018223576
0.07330148 -0.062156122 -0.2669893 0.18638645 -0.14468844 -0.23751496 -0.15782687 0.36376768

l2.bias f4 [119]
00000000: b6f3 f7bf c9a8 2b40 2960 17c0 1cf0 f7bf
00000010: 14c6 d63f ddae f5bf db6b e4bf 0751 05c0
00000020: c950 c6bf d798 2540 01c4 92bf 1be5 04c0
00000030: 9208 84bf 9f1b 21bf 323d 2840 d6ea ddbf
00000040: a792 d0bf 38af e0bf b5fc e2bf c293 e9bf
00000050: dd1b 3dbf 62a8 1fbf 48c6 debf 8ae8 983f
00000060: 99ba 18c0 65f0 3140 22cf a3bf 3717 c7bf
00000070: ed2b e0bf 7a71 1340 91db 1540 d18f cabf
00000080: c439 1c40 6265 e8bf 5407 2ebf b0d9 1140
00000090: 268d f3bf a6af ce3f 4a5c c3bf fe5a 363f
000000a0: ae7a 07c0 33dd 0e40 dd80 1a40 038c 81bf
000000b0: 5de6 0bc0 0030 efbf 3ece a2bf d4a8 c1bf
000000c0: e4b3 e33e 76fc 2640 39d3 cfbf 5c70 08c0
000000d0: 3dc6 73bf a0a3 f3bf f186 84bf 049f b1bf
000000e0: edec e1bf a916 9a3f eb7d b5bf 5dd4 bdbf
000000f0: 3275 2d40 86b2 3740 5f0e 2040 4629 a2bf
00000100: 81b3 abbf 337a a53e 43f7 a2bf 1217 2c40
00000110: c864 1c40 4c86 ddbf 95f0 7abf 17c2 17c0
00000120: 1c64 e33f 12f9 2a40 3d8a e4bf 8f31 3540
00000130: 2c66 04c0 51a1 2740 75e6 f63f 9598 99be
00000140: 8c8e a73f bcc1 0dc0 a0e5 b4bf ef31 f8be
00000150: 9791 3240 6467 3140 57d7 1d40 8d1e ecbe
00000160: 8377 10c0 ad5e ebbf 61b4 d3bf f4f1 11c0
00000170: 2a67 2840 0532 913f 7b54 bdbf 0bf4 16c0
00000180: 619d b3bf 06b8 1740 ed63 2440 3f03 e4be
00000190: 545c c5be cb17 02c0 c58c 2840 3e07 c5bf
000001a0: 67a6 eabf 593b 2640 3ee0 08c0 8fa5 dbbf
000001b0: 08ed a9bf 021d 2140 d861 96bf 72ca 3640
000001c0: c7a7 a3bf bd1d 1440 f80e 00c0 2cc3 eebf
000001d0: 7320 1940 41e9 0e40 b80c f7bf
-1.937125 2.6821768 -2.3652442 -1.937015 1.6779199 -1.9193989 -1.7845415 -2.0830705
-1.5493404 2.5874536 -1.1466066 -2.0764835 -1.0315115 -0.6293277 2.628735 -1.7337291
-1.6294755 -1.7553473 -1.773337 -1.8248217 -0.7387064 -0.62366307 -1.7404261 1.1945965
-2.386389 2.7802975 -1.2797587 -1.555396 -1.7513405 2.303801 2.3415263 -1.5825139
2.4410257 -1.815594 -0.6797993 2.2789116 -1.902745 1.6147354 -1.5262539 0.71232593
-2.1168628 2.232251 2.4141152 -1.0120853 -2.1859353 -1.8686523 -1.271919 -1.5129647
0.44473183 2.609159 -1.6236335 -2.1318579 -0.9522436 -1.9034309 -1.0353681 -1.3876653
-1.7650429 1.2038165 -1.4179052 -1.4830433 2.710278 2.8702712 2.5008771 -1.2668846
-1.3414155 0.32319793 -1.2731708 2.688908 2.4436512 -1.7306609 -0.9802335 -2.3712213
1.7764926 2.671452 -1.7854687 2.8311498 -2.068736 2.619221 1.928908 -0.29999223
1.3090377 -2.2149496 -1.4132576 -0.48475596 2.790136 2.7719355 2.4662683 -0.46117058
-2.2572944 -1.8388268 -1.6539422 -2.2803926 2.6312966 1.134339 -1.4791406 -2.3586452
-1.4032403 2.370607 2.568599 -0.44533727 -0.38547003 -2.0327022 2.633592 -1.5392835
-1.8332032 2.5973723 -2.1386867 -1.71599 -1.3275461 2.5173955 -1.174861 2.8561063
-1.2785577 2.314315 -2.0009136 -1.8653312 2.3926055 2.2329867 -1.9300756

l3.weight f4 [9, 119]
00000000: 1bf7 523e 45be 113d 75b9 a2bd 41b9 3cbe
00000010: 5d69 253e 14bb 253e 767b 8e3e 01c5 833e
00000020: db76 12be a68c 82bd 705b 6b3e b323 933e
00000030: 0a08 d23e df78 00bf 5311 dd3c 0d48 543d
00000040: e513 d0bd 568b df3d 88b9 d23e 25fc c53e
00000050: d296 6f3e 233b ba3d a8e5 c73d 222e 9cbd
00000060: e39a 873e e3fb f5bc 0bf7 66be 2741 dcbd
00000070: 35cd 893e 442d 63bd 9a79 28bd 62cc d63c
00000080: 4618 ff3d 34c6 de3e 08e1 a8be 8d67 7c3d
00000090: eb19 813e 5272 183c a7a9 9bbd 5084 6c3e
000000a0: 40c9 813e f290 063e 5c46 043d d093 c83e
000000b0: 02a8 5a3e 73ce ac3e f113 82be ca77 973e
000000c0: 49c5 803f 1dd4 be3d 13ce cd3d c7d0 a23e
000000d0: 007a c6be 2407 d53d 6088 9b3e 2837 d6bd
000000e0: 008a c43e 1859 6a3e 6c1c db3e 9ebd d33e
000000f0: e3e3 003d a72c 343c 8382 b8bc 9b31 96be
00000100: 97bd d93e bc30 4a3e 60d4 b8be 6125 273d
00000110: b5b6 c23d d6b2 163e bbcd b9be dcab b63e
00000120: ef32 cf3d 4adf c8bc 8044 8fbc aa9a c73d
00000130: a474 953e 8117 6abb 9c98 913d fbfe b1be
00000140: eb79 cb3d e60f b43e 28ae 90be 5798 19bf
00000150: c76b 163a 1a14 2fbd c8f6 b53d 57f1 28bf
00000160: db1d 6c3e 3a25 da3c a819 de3e 16a8 6a3e
00000170: fa43 523c 471c 3d3e 6ca9 463e 4838 463e
00000180: 59a9 d2bc c256 42bd 32b3 ff3d c27e 1abe
00000190: 0a6c 02bf abf8 513e 2437 b53d 1085 43bd
000001a0: 6821 20bd 2fd1 9c3d 3037 883e ad8e 223d
000001b0: 1448 a9bd a5aa 993c 17c7 de3c 8957 a83d
000001c0: d987 e53e 5da8 663d d452 a43e 4ea6 933e
000001d0: 296b af3d e780 853c b2d0 513c 6d5e c03e
000001e0: 5e2d e1bd b924 8cbe 7acb 48be d584 f13d
000001f0: d1bc 153e 0a73 a33e 8a6d 663d 7562 81bc
00000200: 96cc 3e3d 5079 c93e 3c41 b73e e50f 9b3e
00000210: 959d 9ebe d644 bd3d 8178 513d 52b8 42be
00000220: 6b6a 473e 82df 8c3e 417b c03e d224 7b3e
00000230: 91fb af3e 1a67 3e3d aa4f 973e 9df2 043e
00000240: eb66 ab3d 26eb adbd fc5a bfbd fc57 b53d
00000250: cb64 04be 6e0a ca3d ba5c 22bd 6630 1c3d
00000260: cdd6 363e f904 dcbe 1f3d 5cbd 3b54 823e
00000270: a0fc dd3d b8f3 7ebe 7dc3 813e 65a0 763e
00000280: 817e 413d b722 bbbb f65a dc3e b7bb 293e
00000290: 80c5 c93e b62e 30be 00f4 853e 20b3 113f
000002a0: 6851 72bd 2799 2e3e 5d5a 8d3e 022b a8be
000002b0: e440 f6bc 1a8f 413e cb68 79be 91da 953e
000002c0: 6c09 1f3e d4b7 bf3e 4c96 da3e eacb 9e3d
000002d0: d90a 843d f2bf 68bd 11c2 a0be f0bc 703e
000002e0: 6bd8 e33e d9d3 d0be a31c 363d 6ccd 553d
000002f0: c62f 3c3e 3bec 8bbe 2d74 ab3e 84f4 083e
00000300: dacc f13c 066d 92bd ea5b 12bd da15 1b3e
00000310: 0827 383d bba8 603e 7534 a5bd 50d5 2c3e
00000320: 646b c93e 3aa5 b6be 286d 81bf 1db0 3a3d
00000330: bda0 983d 4618 893d f85e e1be a5b2 fb3d
00000340: cb85 4fbd e5e7 7d3e 3ade 893e 2242 a0bc
00000350: f8b9 4b3e cee5 c83e 4ccb 563e d242 42be
00000360: 497c 0e3e 410f fa3d 4a33 063e c1cc 8ebe
00000370: e658 9c3e 6a8c e23d 89e1 d2bd 2a42 6c3d
00000380: e4b1 723d 858d 1b3e 599f f5bc 703d 453d
00000390: 78de 633b f73f e6bd cb85 9b3d 9c30 513e
000003a0: f375 a7bd 1dd3 a63e 2cef 7d3e 9e7c cb3d
000003b0: da9c cd3d 2cdc bcbd 4b1e 8d3e 9216 a73d
000003c0: b8cc c0be 4f42 68be b122 383e 97e9 273e
000003d0: 22d1 c63e 1db4 2f3e b8e4 bdbe 8928 7e3d
000003e0: 7ed6 303e 1154 503e 76d5 653e ea9e c7be
000003f0: d83b 5a3d 7a2c 0ebd 5f1d 48bc 230d 853e
0.20602076 0.035581846 -0.07945529 -0.18430044 0.16153474 0.16184646 0.27828568 0.2573624
-0.14303152 -0.06374483 0.229841 0.28738174 0.41021758 -0.50184435 0.0269858 0.051826525
-0.101600446 0.10915248 0.41157174 0.38668934 0.23397377 0.09093311 0.097606 -0.07625987
0.26485357 -0.030027336 -0.22555177 -0.10754614 0.26914373 -0.05546309 -0.041131593 0.026220504
0.12455802 0.43510592 -0.32984185 0.06162219 0.25215086 0.0093046 -0.07600718 0.23097348
0.25348854 0.1314123 0.032293662 0.39175272 0.21353152 0.33751258 -0.2540584 0.2958358
1.0060207 0.09317801 0.10049071 0.3179991 -0.38764954 0.104017526 0.30377483 -0.10459739
0.38386536 0.22885549 0.42795122 0.41355604 0.03146733 0.010996974 -0.02252317 -0.2933472
0.42527458 0.19745153 -0.3609953 0.04080713 0.09507505 0.14716658 -0.36289772 0.35677993
0.10117137 -0.024520535 -0.017488718 0.09746297 0.29190552 -0.0035719576 0.07109186 -0.34764847
0.099353634 0.3516838 -0.2825787 -0.5999808 0.0005738106 -0.04274378 0.088849604 -0.65993255
0.23058264 0.02662908 0.4337895 0.22915682 0.01283359 0.18467818 0.19400567 0.19357407
-0.025715517 -0.04744602 0.12485351 -0.15087417 -0.50946105 0.20505016 0.08848408 -0.04773432
-0.03909436 0.07657086 0.26604605 0.039686847 -0.08265701 0.018758127 0.027194543 0.08219821
0.44830206 0.056312907 0.32094443 0.28837818 0.08565361 0.016296817 0.0128061045 0.3757204
-0.10994981 -0.27371767 -0.1960887 0.11792914 0.14622809 0.31923705 0.05625681 -0.015794018
0.046581827 0.39350367 0.35791957 0.30285564 -0.309796 0.09241645 0.051140312 -0.19015625
0.19474189 0.27514273 0.37594035 0.24525765 0.34371617 0.046485044 0.29552966 0.12983175
0.083692394 -0.08492117 -0.09343526 0.08854672 -0.12929074 0.098652706 -0.039639212 0.038132094
0.17855377 -0.42972544 -0.053769227 0.25454888 0.108392 -0.24897659 0.25344458 0.24084623
0.047239784 -0.0057109254 0.43038148 0.16575514 0.39408493 -0.17205319 0.2616272 0.5691395
-0.059159666 0.1705061 0.27608004 -0.32845312 -0.03006024 0.18902245 -0.24356382 0.29268315
0.15530938 0.37444937 0.42692792 0.07753737 0.064473815 -0.05682368 -0.3139806 0.23509574
0.4450105 -0.40786627 0.044460904 0.05219786 0.18377599 -0.27328667 0.33487073 0.13374525
0.029516626 -0.07149701 -0.035732187 0.15145054 0.044959098 0.21939366 -0.08066646 0.16878247
0.39339745 -0.35672933 -1.0111437 0.04557811 0.074525334 0.06694083 -0.44017768 0.12289933
-0.050664704 0.24795492 0.26927358 -0.019562785 0.1989516 0.39237827 0.20975989 -0.18970802
0.13914599 0.12209941 0.13105503 -0.2789059 0.30536574 0.11061938 -0.10296924 0.057680286
0.05925168 0.15190704 -0.02998321 0.048154294 0.0034770053 -0.11242669 0.07593878 0.204287
-0.08176794 0.32582942 0.24798268 0.09935878 0.10039683 -0.09221682 0.27562174 0.08158602
-0.37656188 -0.22681545 0.17981984 0.16397701 0.3883143 0.17158552 -0.3708856 0.062050376
0.17269322 0.20344569 0.2244471 -0.3898843 0.053279728 -0.034710385 -0.012214034 0.25986585

l3.bias f4 [9]
00000000: 3df3 473f 3bab 423e 57c7 0ec0 2b4f 6b3f
00000010: f1a6 933e 71e1 79bf 033b 1e40 53ac df3f
00000020: f677 19be
0.7810553 0.19010632 -2.2309167 0.91917676 0.28838304 -0.9760962 2.4723518 1.7474464
-0.14987168

l4.weight f4 [53, 9]
00000000: c850 d43d ce57 7abd 5dc1 893c 523c c83f
00000010: 584e c33b bfad d1bf 7739 50bd cffd 533e
00000020: dc5b 783f e9b1 e13c 0add 703e df67 8cbe
00000030: 17bd ab3e a688 5a3d 9422 c83e 1162 cf3d
00000040: 5088 a43e 9d76 85be 49c7 5ebe 8c26 003e
00000050: 24ca 003e fb0f be3e 6c47 aabc 065c 26bf
00000060: 5313 ff3c 5d91 eb3f 184e c4bc 462c 4f3e
00000070: 0269 1cbe fde1 aabd 3b26 903e baa2 09be
00000080: 437d 85be 50cf 513e 31a7 373f 76b7 83bf
00000090: 7802 96be b4be 713e 4b7a c23d a9e7 0c3f
000000a0: e747 293e 0392 203e 24b0 2fbe d8ec eb3f
000000b0: a9f7 b83e 6802 00be f793 f93d 399c b7bd
000000c0: 8a78 85be 8eee 7fbe 84b9 143d 2b6c 73be
000000d0: d527 89be 31c4 99be 6882 023d 6355 88be
000000e0: 501d af3e 9fa6 3e3e cfa2 2ebe 2ff2 3f3d
000000f0: 7c0c 9cbe e904 19bf 99d7 25bf bee9 da3c
00000100: c57d 9bbe 0842 903e 11bb c03d 398b 09bf
00000110: 3579 473f bac9 373d c97d c73f 20fc e33d
00000120: e71e 183e cde6 1cbe 840b cd3c 1c31 1e3f
00000130: e269 99be a28d 25bf 64ad 603d d035 b43f
00000140: fabb a0be c05a 393e 884a 1dbc e095 cfbe
00000150: 74d4 613d 4aff 1ebf 9c7f aebe 8d96 343e
00000160: 9112 16bf 19a8 8d3e f071 adbe a553 813d
00000170: a5dd 2c3e 12f5 42be 5f43 a3be 2d00 e1be
00000180: 7205 97bf ff59 b13f 07d4 9dbe 75b6 7cbe
00000190: cd26 0a3e 1350 ef3d 75b6 873e ce62 c8be
000001a0: 1203 50bd daf0 973c c43b fd3f 6c91 563f
000001b0: d930 8f3d f291 aabd 1f43 9cbe 7179 65be
000001c0: 60b4 a8be 0581 4e3e 7435 dfbd 2a48 a83c
000001d0: dfe8 44be d776 9b3e 7c4b 3dbd c3b6 7cbe
000001e0: d456 0b3f fe7d 8abc 80a4 8bbe 8e54 643c
000001f0: 3869 d63f 7881 fbbc 29c9 2fbe 2cef 2a3e
00000200: 0799 803d 7f76 c43e ab16 aa3d 77fe 9abe
00000210: aa79 c6bc d97e de3f 35aa c7bc 2749 8b3d
00000220: 4373 893d bb56 83bd db16 00bf 0904 8a3f
00000230: f0e9 7fbf a4de 9ebd 4f6b 353f b312 19bf
00000240: 6c23 aabe a23e 143e 37d3 e83d 2cc3 6d3f
00000250: 7add dcbe 6472 f8be 43a5 9d3d f0dc b93f
00000260: f3f2 123f 3b99 bc3d 7f4d 313e 5b16 7ebd
00000270: 26ae 653e 5a11 16be 0ba2 30be 8f12 333e
00000280: 032c 613f 8834 263f f1b4 993c 180c 41bd
00000290: 6297 8bbe 8e68 b43d 8bb3 b73d 4f55 ca3b
000002a0: b555 73be d279 b33b e31e bebe 8267 79be
000002b0: 1d4b ff3c 568c d0bd 39fe e63c 4426 903e
000002c0: 0f65 24be f0e3 94be bbf3 86be a74b 25be
000002d0: ba4c 65be 9e05 8dbb cb56 763e 2121 ea3e
000002e0: 9fec a0bc 9bdb c3be fd9a c43b d944 a33f
000002f0: 935a f83e ecd8 1bbe 1959 adbd b7d2 803e
00000300: 1e94 773e 348a 0cbf 1209 923e b46b c13b
00000310: 671d 1d3f 4624 d03f 3634 e03d 4289 5c3d
00000320: c4d5 f83b 480f 153f 5e0b 4d3e 17f0 1cbf
00000330: ddfe 2fbe f5b6 c63f 086e aa3e 8173 42be
00000340: e560 bc3e e8d5 64be a59f a83e 7f7d 3c3f
00000350: 3bdf b8be 148f 1f3e 06a8 86be 77ce 463e
00000360: 20ae f1bd 45c0 91be 42e4 5e3e 2e46 91be
00000370: ae08 bdbe f10a ecbd 34f4 1ebe f3d0 983e
00000380: 101c 513e a0b9 793c 9432 af3e d5fb 5bbe
00000390: 2c67 fb3e 0a35 9f3c 3e27 67bf cda4 b5bc
000003a0: 0d43 803f 111a 773f a30f 4cbe 78b8 1fbd
000003b0: b496 383e 69bd 19bc d877 073d 5699 d0bd
000003c0: 7a3c 21bc 1f90 45bd a21a 233e 79a8 3d3d
000003d0: dabf 42be 5ed0 f6bd 7f46 113e f41c 9d3e
000003e0: 7e1b 0f3e 105f b5be 7eeb bdbd fa8e ee3e
000003f0: 7b31 40be be4d 77be a111 cd3e 2e57 95bd
0.1036697 -0.061118893 0.016815836 1.5643408 0.005960267 -1.6381148 -0.050836053 0.20702289
0.97015166 0.027550654 0.2352182 -0.27422997 0.33542702 0.053352974 0.3908888 0.101261266
0.32135248 -0.26067057 -0.21755709 0.12514704 0.1257711 0.37121567 -0.02078601 -0.64984167
0.031137144 1.8403736 -0.02396302 0.20231733 -0.15274432 -0.08343885 0.28154168 -0.13440982
-0.2607213 0.2048924 0.7173949 -1.0290363 -0.29298759 0.23607904 0.09495982 0.55040985
0.16531335 0.15680699 -0.17157036 1.8431654 0.3612645 -0.12500918 0.12186425 -0.08965344
-0.26068527 -0.24993345 0.036309734 -0.23771732 -0.26788202 -0.30032495 0.031862646 -0.26627645
0.3420205 0.18618248 -0.17054294 0.046861824 -0.30478275 -0.5977312 -0.647821 0.026722785
-0.30369392 0.28175378 0.0941068 -0.5372806 0.7791932 0.044870116 1.5585262 0.111320734
0.14855538 -0.15322419 0.025029905 0.61793685 -0.29963595 -0.6466924 0.05485286 1.4078922
-0.31393415 0.18101025 -0.009600289 -0.40544033 0.05513425 -0.6210829 -0.34081733 0.17635556
-0.5862208 0.2766731 -0.3387599 0.06314782 0.16881426 -0.190388 -0.31887338 -0.43945447
-1.1798537 1.385559 -0.30825827 -0.24678977 0.13491364 0.11685195 0.2650639 -0.39137882
-0.050784178 0.018547464 1.9783864 0.83815646 0.06991739 -0.08328618 -0.3051996 -0.22409607
-0.32950115 0.20166405 -0.10898867 0.020542223 -0.19229458 0.30364105 -0.046214566 -0.24679093
0.54429364 -0.01690578 -0.2727394 0.013936175 1.675086 -0.030701384 -0.1716658 0.166928
0.06279188 0.38371655 0.08305105 -0.30272266 -0.024227936 1.7382461 -0.024373153 0.06801062
0.067114376 -0.06413027 -0.50034875 1.0782481 -0.99966335 -0.07757309 0.70866865 -0.5979416
-0.3323015 0.14477018 0.11368411 0.92875934 -0.43137723 -0.48524773 0.07697537 1.452055
0.5740196 0.09208914 0.17314719 -0.06203304 0.22429714 -0.14655057 -0.17249314 0.17487548
0.8795778 0.64923906 0.018763037 -0.047130674 -0.27263933 0.08809005 0.08969792 0.0061747204
-0.23763163 0.0054771686 -0.3713294 -0.24355891 0.031163746 -0.10183017 0.028197395 0.28154194
-0.16054176 -0.29080153 -0.26357827 -0.1614214 -0.2239255 -0.004303648 0.24056546 0.457284
-0.01964408 -0.38253483 0.0059999214 1.2755386 0.48506603 -0.15219468 -0.0846426 0.25160763
0.24177596 -0.5489838 0.28522545 0.005902732 0.6137299 1.626107 0.109474584 0.053841837
0.007593842 0.5822644 0.20023867 -0.6130385 -0.17187066 1.5524584 0.33287072 -0.18989374
0.36792675 -0.22347224 0.329343 0.7362899 -0.3610781 0.15581924 -0.26300067 0.19414698
-0.1180079 -0.28467003 0.21766761 -0.28373855 -0.36920685 -0.115255244 -0.15522844 0.29846916
0.20420861 0.01524201 0.34218276 -0.21482785 0.4910215 0.01943447 -0.90294254 -0.02217331
1.0020462 0.9652415 -0.1992784 -0.038994282 0.18026239 -0.009383538 0.033073276 -0.101854965
-0.009841079 -0.048233148 0.15928128 0.046303246 -0.19018498 -0.12051462 0.14187048 0.30686152
0.13975331 -0.3542409 -0.09273432 0.46593457 -0.18768875 -0.2415075 0.40052512 -0.07292019

l4.bias f4 [53]
00000000: 3a00 88bf 03dc dd3f 2212 6040 9fce d43f
00000010: 8738 4940 1a02 49be da64 0bc0 c098 c13f
00000020: b8bf 2e40 b2f9 5cbf 622a 3540 f420 4940
00000030: 14d3 653e ae07 5e40 021a 7340 d7c7 4c40
00000040: fc43 3e40 3c64 0340 19e7 433e a3c4 863e
00000050: 18b3 dc3f 319d 06bf d37c 4640 9433 603f
00000060: be11 40be c503 5640 12f4 cb3d c96a d23e
00000070: 3963 2abf 3259 75c0 8fb6 2940 24aa 373e
00000080: 5756 f6bc df1e dbbd b27b 6a40 334a 7d3e
00000090: 493a 8cbe 51d9 56c0 2f54 03be 81fe 963f
000000a0: 61b1 8c3f 07f8 06be b379 cc3d 7808 74bb
000000b0: 2d1d 043f 8029 70bf 7942 3940 5f4a 203f
000000c0: 0a9c 49c0 ebd6 a0bf 4b6e 8240 718b bc3f
000000d0: 4539 5ebe
-1.0625069 1.7332767 3.5011067 1.6625556 3.1440752 -0.19629708 -2.1780305 1.5124741
2.7304516 -0.86318505 2.8307118 3.1426363 0.22443801 3.4692187 3.7984624 3.1996973
2.9728994 2.0529928 0.19131126 0.26321897 1.7242155 -0.52583605 3.1013687 0.875787
-0.18756768 3.34398 0.09958662 0.41097096 -0.6655765 -3.833569 2.6517675 0.17935997
-0.030070467 -0.106992476 3.6637998 0.24735336 -0.27388218 -3.357014 -0.12825082 1.1796418
1.0991632 -0.13180552 0.0998415 -0.0037236493 0.5160702 -0.93813324 2.8946822 0.6261348
-3.1501489 -1.2565588 4.0759635 1.4730054 -0.21701534

l5.weight f4 [85, 53]
00000000: 9f54 11bd 9601 5abd 6377 c2bc b485 7cbd
00000010: da75 36bd a452 02bd 802e afbe 5977 163e
00000020: 6005 eb3d 8bb4 5d3d 3c91 a2bd 5eb8 6e3e
00000030: 7795 fabc e7e1 3e3d dce9 823d f3a6 c6be
00000040: 3711 a83e cd11 acbd 0f65 17be 07e1 10bd
00000050: 2082 9d3e 5a9d 6c3e 49f5 b0bd f5d1 dc3d
00000060: c8cc d83d da10 ac3c e399 473c ba22 103d
00000070: dc18 0b3d 410e 0b3e 3f4d 8bbe 921c 863e
00000080: 8e7c d0bd 1eb5 34be ef4a d13d 31b3 60bd
00000090: d531 fbbd ff1f 983d f371 073c 861e 8fbe
000000a0: 1a16 71bd e22d c23c 10ce 74be 1fc4 80bd
000000b0: 1d98 463e 6a66 40bc 0ac6 c1bd ea74 083e
000000c0: aec4 13bd 08f2 7bbe d570 98be 65bc 833d
000000d0: acb2 f03e a94f b1be 2473 ae3d 8571 fbbc
000000e0: 807a 11be 93a8 e33d d75b 05bd 0dd8 c1bc
000000f0: 5994 1a3b b4d8 643c b74e 8cbd c6c2 df3d
00000100: 6127 533e df9e 013b 0dc6 923e 7138 363e
00000110: e436 493d 784d b73d 4167 bb3d f284 ca3d
00000120: dc12 bb3d b65b 17bd 465b e1bd 84d1 123e
00000130: 319a 87bc c67a 27be 57c4 913e 1f21 d6bc
00000140: ee65 0cbe 1902 14be 91b4 71bb 1474 a03e
00000150: b217 7abe 5022 273d b1b5 95be 581e 013f
00000160: ac02 e6bc 7d65 aebe c5d2 38be e6c0 c0bd
00000170: e620 15be 5214 963e be92 a33d 2da4 e73c
00000180: 64c0 3abe cba9 c73d d7b9 52be 3b98 533c
00000190: fed8 433d 96f5 403b 3570 12be 70e3 463f
000001a0: 04c9 c9bd 1fea d2be aeb0 bfbe 22b9 393e
000001b0: 6814 c73c 96ef 3abd 2241 9abd 76af ad3d
000001c0: 7e93 9cbd fa74 91bd fc7d ba3d df4c 18be
000001d0: 3694 0d3e 483b dd3d 00b7 6f3d 9d49 bc3e
000001e0: 6b25 533e 4981 f23d d30b 073e 5c96 cd3c
000001f0: 84b7 31bd da87 e8bd e93d 89be f225 07be
00000200: dc86 a83d 514b 193d d8d1 4bbe ffb0 993e
00000210: 1562 673d e0c0 1bbe b1eb e2bd dcca a5bd
00000220: 14c1 c33e eb5a 75bb 4acf b2bd 854f 2cbc
00000230: 96f8 a23e b67f 85bd cb00 90be b35e 18be
00000240: 11fc 003e 56cd 17be 5805 983e 247e b5bc
00000250: d4a9 41bd 75d8 c5bc 49c7 b0bc a1da 91be
00000260: 63b9 f33d 9590 8a3c 8e5a 90bd 9918 90be
00000270: 6181 143f d759 513d 5a62 d2be 6d9e 85be
00000280: 9d25 c8bd 2a96 043e 818b 703c 53c8 8d3c
00000290: 4034 153d be96 82bc 52f5 843e e30b e43c
000002a0: 4352 a13d 0096 3d3e 44e7 783e c2ce 9dbd
000002b0: 99c5 943e 6e11 773e 228e b23d d859 923e
000002c0: d7c7 913d 2775 bcbd dad7 28bd 13df 333c
000002d0: 2248 f23d 9f6d 6f3d 40be 7f3d 5811 c4bd
000002e0: d08d 833e 31a2 5e3d 3f9d 26be f568 d03d
000002f0: c50d df3c 2591 23be 2cb2 65bd e700 033e
00000300: 7c1b cbbe a878 f73e 97a7 b8bd 3e69 7b3e
00000310: d13c b1bd d30c b43d f1e0 cc3c 8513 25bd
00000320: 8533 a33d 9fc9 423e ce81 05be 858d 1e3e
00000330: e099 69be 12fc b13d d671 f63c 69a7 4bbe
00000340: c6a4 82bd 6b4f b23e 58ec 9b3d fcbf f7bd
00000350: 3b73 96be 2942 933d ef0c 563c 30d9 1ebd
00000360: 5e3e 7f3d d5ab c43c 41fd 87bb a95d e33e
00000370: e335 0b3e f033 46be cfe6 923e 5d34 853e
00000380: 9d00 f73b 8493 db3d efa9 133e 7688 d43e
00000390: 0475 eebd 3da8 d03d 2954 4e3e 617c c3bd
000003a0: 9803 d83d c8e9 ddbc 34cc c43d e4fc d93b
000003b0: 8f92 bfbe 0f7b e13d e98b 1c3e c754 49be
000003c0: c605 573d fa74 5c3c 0404 c83d 8116 19be
000003d0: e673 dabd 8e14 d8be 7e12 1e3f 1d6f bf3d
000003e0: 11d0 6ebc 6f62 17be be71 47bd f226 e53d
000003f0: 904c 4a3e 4918 09bb b63b 6cbd 58a6 d8be
-0.03548109 -0.05322417 -0.023738569 -0.061650947 -0.044545986 -0.031817093 -0.34215164 0.14693965
0.114756346 0.054127257 -0.079378575 0.23312518 -0.030588849 0.046602156 0.063922614 -0.38799247
0.32825634 -0.08401833 -0.14784645 -0.035370853 0.3076334 0.231069 -0.086405344 0.107822336
0.10585934 0.02100413 0.012182686 0.035189368 0.033959255 0.13579656 -0.27207372 0.26193672
-0.10180007 -0.17647216 0.102193706 -0.05485839 -0.12265364 0.07427978 0.008266914 -0.27952975
-0.05885897 0.02370352 -0.23906732 -0.06287407 0.19393964 -0.011743167 -0.09461601 0.13325849
-0.03607624 -0.24604046 -0.29773584 0.06432418 0.47011316 -0.34631088 0.08518055 -0.030693779
-0.14206886 0.11116137 -0.03255829 -0.023662591 0.0023586957 0.013967682 -0.06850951 0.10925822
0.2062049 0.0019778532 0.28666726 0.17794968 0.049124613 0.08950323 0.091505535 0.098886386
0.091344565 -0.036952697 -0.11003737 0.14337736 -0.016553016 -0.16355428 0.28470108 -0.02613884
-0.13710758 -0.14453925 -0.0036881308 0.3133856 -0.24423102 0.040804207 -0.29240182 0.50436926
-0.028077446 -0.34061804 -0.18049152 -0.094117925 -0.14563331 0.29312378 0.07986973 0.028276527
-0.18237454 0.09749182 -0.20578705 0.012914713 0.04781436 0.0029443256 -0.14300616 0.7769079
-0.09852794 -0.41194245 -0.37439483 0.18137029 0.024301723 -0.045638643 -0.07531954 0.08480732
-0.076453194 -0.0710239 0.09106061 -0.14873074 0.13826069 0.108023226 0.05852413 0.36774912
0.20619743 0.118410654 0.13188104 0.025096111 -0.043387905 -0.11354037 -0.26805046 -0.13198069
0.082288474 0.037425343 -0.19904268 0.3001785 0.056490023 -0.15210295 -0.11080111 -0.08095333
0.38233244 -0.0037438225 -0.087309435 -0.010517006 0.3183028 -0.065184996 -0.28125605 -0.14879875
0.12596156 -0.14824423 0.29691577 -0.022154875 -0.0472811 -0.024151066 -0.021579402 -0.28487113
0.11900594 0.016914645 -0.07048522 -0.28143767 0.58009917 0.05111107 -0.4109066 -0.26097432
-0.09772799 0.12947908 0.014681698 0.017307436 0.036426783 -0.01594102 0.25968415 0.0278377
0.07877018 0.18514252 0.24306971 -0.077054515 0.29057005 0.24127743 0.08718516 0.2858417
0.071181946 -0.092020325 -0.041221477 0.010978478 0.118301645 0.058454152 0.062437296 -0.095736206
0.25694132 0.054353897 -0.16270922 0.10176269 0.027228246 -0.15973337 -0.05607812 0.12793313
-0.39669406 0.4833424 -0.0901634 0.24551865 -0.08654178 0.087915085 0.025009604 -0.04030182
0.07968811 0.19022225 -0.13037798 0.15483673 -0.22812605 0.08690657 0.030083578 -0.1988808
-0.06379084 0.34826216 0.07613438 -0.12097165 -0.2938479 0.071903534 0.013064607 -0.038781345
0.062315337 0.024007717 -0.0041500633 0.44407395 0.13594775 -0.1935575 0.28691718 0.26016513
0.007537915 0.10721496 0.14420293 0.4151036 -0.11643413 0.10188339 0.20149292 -0.09545208
0.105475605 -0.027089015 0.09609261 0.0066524614 -0.37416503 0.110098 0.15287746 -0.19661246
0.05249574 0.013455624 0.09766391 -0.14949991 -0.10666637 -0.42203182 0.61746967 0.09347365
-0.014575974 -0.14783643 -0.048692457 0.11189069 0.19755769 -0.0020919016 -0.057674132 -0.4231441

l5.bias f4 [85]
00000000: 1128 1ebf 3e51 8a40 e75e 8a40 871f 2340
00000010: f81b 8340 d256 c23e 4b4d 4e3f 3219 b03f
00000020: a849 04be ddd1 88bd a2d6 4740 b617 3fbe
00000030: ee85 b43d 07fd 4840 983b 2240 af9b e9bb
00000040: 98c3 1d3f 55e5 9440 d425 3e40 9f64 dd3d
00000050: 5f8d 1240 68c6 e0bc b47f fd3f c836 4240
00000060: e4df 8240 29bd b4bc 7fb0 1ac0 a905 603d
00000070: ff59 60c0 1b80 c6bd eb2e 463d 8ca2 333f
00000080: 711c 5240 79ec 2540 3ddd d1bd 4e27 ab3d
00000090: 7bd1 98bd 54a2 1840 5459 8cbe 2a40 5540
000000a0: 45c3 223e f7ff cabd c1e6 d1bb a5b5 8340
000000b0: d0a7 15be 12ef 8540 253d 14be 6a45 0b40
000000c0: 70e3 413f 243a 1f40 39cf 5b40 58b8 203b
000000d0: 7685 38be 7d5a 483d a32a e4bd a743 943d
000000e0: c481 7f40 093e cbbc 6b79 4640 a920 2fc0
000000f0: 48d5 c03d af46 b03d 7571 4e40 f9a7 2abd
00000100: 0afb 9a3e 9159 4a3f 6b21 22be 53e7 be3d
00000110: 1d6b 21b8 bb56 53be 43b4 0cbe 1711 a4bd
00000120: 9120 f3bc 5a10 d63d 25c9 6240 9567 ddbc
00000130: d72b 0140 2e08 b93f 36e1 2a3c cec1 2d3f
00000140: 3941 03be e2e1 e03d ef41 52bf 4b2b 943e
00000150: 91c2 d03f
-0.61779886 4.3224173 4.3240848 2.5487993 4.097164 0.37956864 0.8058669 1.3757689
-0.12918723 -0.06680653 3.1224751 -0.18661389 0.088146076 3.1404436 2.5348873 -0.0071291546
0.6162658 4.6529946 2.9710588 0.108102076 2.2898786 -0.027438357 1.9804597 3.0345936
4.0898304 -0.022062855 -2.4170225 0.054692898 -3.505493 -0.09692403 0.04838459 0.701699
3.282986 2.5925581 -0.10247276 0.08357106 -0.0746183 2.3849077 -0.27411902 3.3320413
0.15894802 -0.09912103 -0.006405682 4.1159234 -0.14614797 4.1854334 -0.1447645 2.1761117
0.7573767 2.4879236 3.4345229 0.002452394 -0.18019661 0.04891442 -0.11140945 0.07239466
3.9922953 -0.024809854 3.1011608 -2.7363684 0.0941568 0.08607232 3.2256749 -0.041664097
0.30269653 0.7904292 -0.1583306 0.09321465 -3.848515e-05 -0.20638554 -0.1374064 -0.08011072
-0.029678615 0.104523376 3.543527 -0.02702693 2.0183008 1.4455621 0.010429671 0.6787385
-0.12817849 0.10980584 -0.82131857 0.2893928 1.6309377

l6.weight f4 [3, 85]
00000000: 8f24 1b3e fe6c 52be 3908 77be 9e20 1cbe
00000010: 8cb7 aebe a89c 92be 31b7 0abe 2eeb 3cbf
00000020: aea5 33bc 00e2 ac3d ebc5 ffbd b116 9b3c
00000030: 81cd a23d 2da1 f1bd e685 4dbe 0f6b 633d
00000040: 70de dabd 645e 84be e5e7 92be add4 2f3a
00000050: 9a0a 75bd 38ed 9c3d bdb1 bfbe 2da6 43be
00000060: 237a b1be 5332 3bbd 7e59 423f 41af d83c
00000070: d127 e73e 573f 9d3d 0303 43be 6b26 eebd
00000080: 0f5a 8abd 7a21 48be 095c 26ba 7c92 633d
00000090: ddbb ce3a 24c2 0cbe 1555 5d3c f81d 98bf
000000a0: d739 61bd 282d 33bc fa37 03bc fe32 29bf
000000b0: ca13 503c c954 54be a2b2 973d 3995 32be
000000c0: 9107 9f3d 9b3d 8abd 4c5c 0bbe 00c5 80bd
000000d0: bd8f 383e 395d 5fbb 0eac 96bd a61a dfbd
000000e0: a8ff 66be 344e 01be 0a75 5ebe d9cd 6c3e
000000f0: 3cbe 64bc d38c 193d cf82 27be d5be 703d
00000100: faf9 ffbc bbb4 0b3d 2adf 1fbd 448d a43c
00000110: a32b 7bbd 25e6 1a3d c398 0fbc ea33 bdbd
00000120: 8287 523d f179 a13d b301 13be f6a7 6d3c
00000130: 7ca2 abbd 92d8 97ba 7fe4 393d 9c4d d43c
00000140: 3178 39bd f426 763d 1168 403e eac0 e33d
00000150: 0378 6fbc bf79 5cbe da50 a9bd 4185 d8bd
00000160: 6b28 46be 6210 8fbd cb0f 2a3e dad8 1d3d
00000170: e8d5 373f dcba 8e3d 96a2 6fbb 39c8 80be
00000180: abbb 92bd c65f e5bc 6340 0cbd 4d5e 01be
00000190: 1a7a ba3c bd57 513d acfb 80bd b3ce ebbd
000001a0: 154f 8b3d 7de5 66be 7ebf 16bd 6017 453e
000001b0: 3712 09be d46e 87be 728c a23d a781 9b3e
000001c0: 1a9d fe3c 9ed1 933d 2f3a e9bd 2832 073f
000001d0: c60e 323b 06e0 25be c3bb 4ebe e5c7 993d
000001e0: 9e26 debd d1cf 1bbd b01d 43bc 3c63 5ebd
000001f0: 6b9a f73e a518 30bd 828a 943d 877d 3d3d
00000200: 8336 a53e a935 9f3d 00fd efbd 4584 083d
00000210: ca4d 88bc 7c71 a1be b389 33be dcdb 08be
00000220: 8cb2 943c 8e2a fabd 4397 08bd 438d af3d
00000230: 43c1 88bd 4553 d8bd 1a53 9e3d a0f1 92be
00000240: 8513 9cbd 02e4 1f3d 898a f73c 7f2e 12be
00000250: 175a bdbd 64b3 bebd a301 15be 432d a73d
00000260: 501e acbc 44df 8c3d adc4 03bc 8341 c83c
00000270: 678b 523d d3ee ae3d 8a1f a4bd 3fc0 31be
00000280: 3a60 48bd f5d5 f0bd 179d 99be e2fb c43c
00000290: 023e 09be 756e 47bc 2d48 8fbd ef22 463f
000002a0: 79f9 7ebf 222a f5be 90a1 a73d 4670 e5bc
000002b0: 831b 843c 477d 22be 0ca8 1bbe bffa 223f
000002c0: 028b 97be 8ff2 313f f1ca 573d 14e5 123d
000002d0: 721e 8ebd d5ac 3bbe 07d3 75bd 5475 b8bd
000002e0: 9c3c 5cbe 78f4 a5bd 4ebc 19be eac2 d4bc
000002f0: 8e27 87be 93c3 9d3c df21 393d e3d4 4f3c
00000300: 892d 3d3e a218 f9bd f4db dfbd d935 ad3d
00000310: 2ffc 833e 98f0 a23d b533 463e abb7 ef3c
00000320: 01e2 b3bd 37f8 9bbe ee42 fcbb df68 6fbe
00000330: 7031 a43d 3cf3 9c3d 5742 8b3d 2930 18be
00000340: 8536 19be 0422 f03e 8d20 51bd 122b 813d
00000350: 8fec eb3b 353c a83e fa9d c83c 2f9a 53bd
00000360: 2b4f 083d 66f5 34be 45c1 67be 21fa aabd
00000370: e982 b4bd 2ad7 96bd 0890 b1be 78ed 483d
00000380: 3eab 273d 5f4e 7a3b 2e72 b3bd 7f5b 833d
00000390: 67f2 36bd 3486 30be 98b6 893b 31e8 42bd
000003a0: e694 8c3e ee40 f63c dcb2 40be de0d debd
000003b0: c5c3 8dbe cc14 b03c 0b61 173d d8e0 8ebc
000003c0: a158 393c 5c2c 803c 1bc1 a8bd 43d9 a93d
000003d0: 34d0 01bd a1c4 903d d244 26be 985d 613c
000003e0: c62e edbc 0665 34be b6ff a83d 7169 a23d
000003f0: b3d8 04bf 9def 4a3f 1d95 bc3e
0.15150665 -0.2054939 -0.2412423 -0.15246817 -0.3412441 -0.28635144 -0.13546444 -0.73796356
-0.010964794 0.084415436 -0.12488922 0.018931719 0.07949353 -0.1179832 -0.2007061 0.05552202
-0.10686958 -0.25853264 -0.28692546 0.00067074114 -0.059824564 0.076624334 -0.3744029 -0.1910636
-0.34663495 -0.04570229 0.75917804 0.026450755 0.45147565 0.07678097 -0.19044118 -0.116284214
-0.067554586 -0.1954402 -0.0006346112 0.05555962 0.001577254 -0.13745934 0.013509055 -1.1884146
-0.0549868 -0.010936059 -0.008008951 -0.6609343 0.012700031 -0.20735468 0.074071184 -0.17439736
0.07765115 -0.067500316 -0.13609427 -0.06287575 0.18023582 -0.0034082665 -0.073570356 -0.10893755
-0.22558463 -0.12627488 -0.21724334 0.231254 -0.013961371 0.037487816 -0.16358493 0.05877574
-0.031247128 0.034107905 -0.039031185 0.020086892 -0.061320912 0.03781714 -0.008764449 -0.092384174
0.05139876 0.078845866 -0.14356117 0.014505377 -0.08380601 -0.0011584929 0.045383926 0.025915913
-0.04528064 0.060095742 0.18789698 0.1112078 -0.014616015 -0.21530817 -0.08267374 -0.10572291
-0.19351356 -0.06985547 0.16607587 0.038536884 0.7181077 0.06969234 -0.0036565415 -0.25152758
-0.07164701 -0.02799977 -0.03424109 -0.12633629 0.0227633 0.051109064 -0.062980026 -0.11514034
0.06802193 -0.2254848 -0.036803715 0.19247198 -0.13385855 -0.26451743 0.07936944 0.30372354
0.031080771 0.07217716 -0.11388051 0.5281091 0.002716945 -0.1619874 -0.20188813 0.0750883
-0.108472094 -0.038039986 -0.0119089335 -0.054293856 0.4836 -0.042992253 0.07252981 0.04626229
0.32268152 0.07773907 -0.11718178 0.033329267 -0.016638655 -0.31531894 -0.17532997 -0.1336512
0.018151544 -0.12215148 -0.03334738 0.085718654 -0.06677487 -0.105627574 0.07730694 -0.2869997
-0.076209106 0.039035805 0.030217426 -0.1427555 -0.09245699 -0.0931156 -0.14551406 0.0816293
-0.021010548 0.06878522 -0.008042497 0.0244453 0.051402476 0.08541646 -0.08013828 -0.17358492
-0.048919894 -0.11759559 -0.30002663 0.024045888 -0.1340256 -0.012172331 -0.06996188 0.77397054
-0.99599415 -0.47883707 0.081851125 -0.028007638 0.0161264 -0.15868102 -0.15200824 0.6366386
-0.29598242 0.6951074 0.052683774 0.035862997 -0.06939401 -0.18327649 -0.060015704 -0.090067536
-0.21507496 -0.08103269 -0.15013239 -0.025971849 -0.26397365 0.019258296 0.045198318 0.0126850335
0.18474402 -0.121629015 -0.109306246 0.08457536 0.25778338 0.07956046 0.19355662 0.029262384
-0.08783341 -0.3046281 -0.0076984083 -0.23379849 0.08017242 0.07663581 0.06799763 -0.14862122
-0.14962204 0.46900952 -0.051056433 0.06307043 0.007199831 0.32858434 0.024489392 -0.051660713
0.033278625 -0.17671737 -0.2263232 -0.083484896 -0.08814032 -0.07365258 -0.346802 0.049054593
0.040934794 0.0038193685 -0.087620124 0.06413936 -0.044664767 -0.17238694 0.004202675 -0.047584716
0.2745735 0.030060258 -0.1881823 -0.10842489 -0.27688423 0.021494292 0.03695778 -0.017441198
0.011312635 0.015646152 -0.08239957 0.082933925 -0.0316927 0.07068754 -0.1623719 0.013755225
-0.028952967 -0.17616662 0.08251898 0.079302676 -0.51893157 0.7927187 0.36832514

l6.bias f4 [3]
00000000: 3e4f 9dc0 954b 8dbf 2352 d33e
-4.915923 -1.1038691 0.41273603
