models/Others/model_DDNN_half.pt (torch, 127233 bytes, 12 tensors)

l1.weight f4 [189, 9]
-0.009947587 0.5495126 1.3206489 0.96667665 -2.4787512 0.83792186 -0.7348118 -0.29079568
-0.89051664 0.005710844 0.8254161 -1.6177855 0.14926349 -0.7596639 -1.7912321 0.15020138
-1.1504377 -0.09838216 -0.04184728 -0.41134545 0.15565327 0.31720534 -0.84018075 0.6131814
0.8563292 -3.0442033 -1.7506964 0.0005059767 0.35641533 2.4889164 -1.1775968 1.3239622
-0.88588965 0.31682613 -0.12812336 -0.5854555 0.0076883463 1.1108917 0.5513033 0.3782789
-0.51007366 -1.9604841 -1.9853828 -0.7443951 -0.8104966 -0.004585646 0.15692669 0.11979565
-0.9839184 0.37687123 1.8061533 -1.7903371 -0.28787565 -0.3985416 0.0009929567 -1.0518026
-0.65410966 -0.10526656 -2.7650878 1.9377757 0.37533915 -1.087904 0.7478746 -0.0016297249
-0.62391126 -0.63315016 -0.004435895 -1.1168358 -1.6380595 -0.46233538 -0.3370756 0.2930431
-0.0030521636 -1.1103468 -2.0173457 -0.09881175 0.16726865 -0.98854065 0.43507263 0.52312285
-1.3425592 -0.002674275 -0.364083 0.5911414 -1.8955696 1.2504596 1.6122047 -0.34787798
0.12741297 -0.040245064 0.0044271415 -0.33573642 2.6479788 0.602966 -2.082714 -0.3997666
0.847336 -0.018231463 -0.53332204 -9.814823e-05 0.44753405 -1.2700608 -0.07205702 -0.09266638
-0.41661853 -0.23000216 0.9969561 0.45484766 0.0015602771 2.7389529 0.25338867 -0.4495696
-0.6105418 0.015269069 -2.3626611 -0.78220606 0.37751406 0.0022968026 -0.89850825 -0.8751052
0.23545016 1.7511781 -2.6675084 -0.07705189 -0.86473286 0.51649874 -0.00034233442 -1.8139926
-0.3265493 0.025818542 0.64721096 -0.9846902 0.84569603 -1.5820915 0.6975874 -0.0016731841
-1.0993416 1.9228595 0.5424438 2.293438 -0.5548462 -1.1560686 1.1952767 -1.137831
-0.0032771959 -1.7299538 -0.7040251 -0.0094867395 -0.053442255 -0.40503 -0.4828618 -1.3601466
0.10409748 -0.005913342 2.0579584 -0.41222748 -0.44716066 -0.2961613 -0.05259553 -2.0276158
-1.46741 -0.7495748 -0.003426572 -0.33703697 -1.961348 0.09722693 1.4974537 -1.4825513
-1.1858339 -0.20940453 -0.5640915 0.0031757134 -0.52564776 -0.76053107 0.080953 -1.0277852
2.4047575 -0.12843348 -1.3970294 0.34808075 -0.0058534285 0.54046184 1.6337199 0.038187586
-3.2390025 -2.2059963 0.82014215 0.17231369 0.1765745 0.006125923 -0.55263287 -0.99266475
0.46153802 0.82351315 1.5770149 1.0263778 0.5879973 0.25544697 0.0036088426 0.5511651
0.66962415 1.0041559 -1.1326052 -3.5668793 -0.15825576 0.03634348 -0.016875485 0.014567384
-1.3146081 -0.39771733 -0.6489776 0.374496 -1.3328553 2.148952 0.56129634 0.9322461
-0.007552113 0.9848265 1.008621 0.08956913 -3.5697474 0.19172521 0.35288003 0.4613168
-1.3707445 -0.00038317498 -0.81631124 -1.5975381 -0.26120037 -1.9495906 0.71316314 0.48018497
-0.66272426 -0.7943639 -0.0016747034 -1.9349232 -0.43219918 0.02533295 -1.5273447 0.17652483
-0.3152082 -0.9693359 -0.43947804 -0.003077868 -1.4835641 2.2131493 -0.1714668 0.7850321
-0.14807533 -1.8516895 -0.4846941 -1.6219977 -0.0025282698 -0.18581761 -1.0819721 -0.3630339
00000000: 34fb 22bc dcac 0c3f 060b a93f 1f78 773f
00000010: dca3 1ec0 0c82 563f a01c 3cbf 2ce3 94be
00000020: e6f8 63bf 0822 bb3b 784e 533f 9813 cfbf
00000030: 87d8 183e 5579 42bf 1847 e5bf 64ce 193e
00000040: 8b41 93bf 967c c9bd 0e68 2bbd df9b d2be
00000050: 9263 1f3e bd68 a23e 1616 57bf 75f9 1c3f
00000060: 6438 5b3f 3ad4 42c0 d216 e0bf 86a3 043a
00000070: 127c b63e 684a 1f40 7ebb 96bf 9877 a93f
00000080: aac9 62bf 0937 a23e c532 03be 69e0 15bf
00000090: 86ee fb3b b331 8e3f 3722 0d3f c6ad c13e
000000a0: 3094 02bf 25f1 fabf 0621 febf ad90 3ebf
000000b0: b57c 4fbf 3043 96bb 64b1 203e 6c57 f53d
000000c0: 14e2 7bbf 44f5 c03e 0830 e73f c429 e5bf
000000d0: 7064 93be a50d ccbe 1926 823a 78a1 86bf
000000e0: bb73 27bf ff95 d7bd 33f7 30c0 0909 f83f
000000f0: 742c c03e 7040 8bbf b674 3f3f 7e9c d5ba
00000100: a6b8 1fbf 2116 22bf fc5a 91bb 7af4 8ebf
00000110: efab d1bf 39b7 ecbe 2c95 acbe bf09 963e
00000120: cf06 48bb d81f 8ebf 311c 01c0 d15d cabd
00000130: 7948 2b3e 0011 7dbf d7c1 de3e 61eb 053f
00000140: fbd8 abbf e442 2fbb 1669 babe 0b55 173f
00000150: 06a2 f2bf 0f0f a03f b95c ce3f 101d b2be
00000160: 8c78 023e 02d8 24bd 8e11 913b a5e5 abbe
00000170: 7c78 2940 fb5b 1a3f 304b 05c0 35ae ccbe
00000180: 03eb 583f 265a 95bc cb87 08bf eed4 cdb8
00000190: 2f23 e53e 5a91 a2bf a292 93bd dfc7 bdbd
000001a0: 064f d5be b085 6bbe 8438 7f3f cbe1 e83e
000001b0: 3682 cc3a 014b 2f40 29bc 813e fd2d e6be
000001c0: 784c 1cbf 1e2b 7a3c d735 17c0 a83e 48bf
000001d0: 8649 c13e f485 163b a304 66bf e506 60bf
000001e0: d919 713e 9b26 e03f 75b8 2ac0 62cd 9dbd
000001f0: 225f 5dbf 4339 043f 597b b3b9 e930 e8bf
00000200: 7831 a7be 6881 d33c 9eaf 253f a814 7cbf
00000210: 897f 583f f981 cabf 1695 323f be4e dbba
00000220: 3ab7 8cbf 4320 f63f 99dd 0a3f b0c7 1240
00000230: 670a 0ebf 0efa 93bf d4fe 983f 72a4 91bf
00000240: 39c6 56bb 206f ddbf fd3a 34bf 456e 1bbc
00000250: 44e6 5abd 1860 cfbe a939 f7be 4919 aebf
00000260: 0f31 d53d b5c4 c1bb 97b5 0340 7b0f d3be
00000270: 3ef2 e4be 74a2 97be 696e 57bd 75c4 01c0
00000280: 17d4 bbbf 22e4 3fbf 5790 60bb 1c90 acbe
00000290: 740d fbbf ea1e c73d 90ac bf3f 3ec4 bdbf
000002a0: 68c9 97bf 246e 56be 4d68 10bf a11f 503b
000002b0: da90 06bf 2ab2 42bf b0ca a53d 778e 83bf
000002c0: 8ce7 1940 1184 03be dcd1 b2bf a437 b23e
000002d0: 1ece bfbb b55b 0a3f bc1d d13f 966a 1c3d
000002e0: d14b 4fc0 0b2f 0dc0 d6f4 513f 0073 303e
000002f0: f2cf 343e f7bb c83b 5979 0dbf 471f 7ebf
00000300: b64e ec3e c2d1 523f a0db c93f 5960 833f
00000310: fe86 163f f2c9 823e 5582 6c3b 2819 0d3f
00000320: 7d6c 2b3f 2e88 803f 35f9 90bf c047 64c0
00000330: cc0d 22be e7dc 143d 753e 8abc 09ac 6e3c
00000340: 1445 a8bf 9ba1 cbbe 6523 26bf f1bd bf3e
00000350: 019b aabf 6e88 0940 1eb1 0f3f aea7 6e3f
00000360: b777 f7bb 971d 7c3f 7e1a 813f 0570 b73d
00000370: be76 64c0 9d53 443e b1ac b43e b731 ec3e
00000380: 8e74 afbf e0e4 c8b9 c6f9 50bf 217c ccbf
00000390: 0ebc 85be 2f8c f9bf dc91 363f ceda f53e
000003a0: 4ca8 29bf 6f5b 4bbf b981 dbba 90ab f7bf
000003b0: 3649 ddbe 0c87 cf3c 0880 c3bf edc2 343e
000003c0: f862 a1be 6626 78bf 4403 e1be 0eb6 49bb
000003d0: 6ee5 bdbf 3da4 0d40 fe94 2fbe ddf7 483f
000003e0: 0fa1 17be 2904 edbf d329 f8be 9f9d cfbf
000003f0: 54b1 25bb f946 3ebe 107e 8abf 94df b9be

l1.bias f4 [189]
-1.2685779 0.9424138 -1.1118077 -0.21542634 0.15615843 -0.3201124 0.684961 0.99122465
0.08034039 -0.91337824 -0.5587028 0.8232391 0.2435345 0.4072363 0.6133787 -0.77253866
0.5086769 0.28230458 -0.20916519 0.55382454 0.007991616 -0.16653481 0.102590255 0.04963655
-0.22803673 0.43511772 0.5663936 -0.28542945 0.10760148 0.3126855 -0.64740825 -0.70124584
0.88660526 -1.1310407 0.21139893 0.2797039 0.19888814 -0.062294595 -1.5189707 -0.6962778
1.0561627 0.57061404 -1.1147645 -0.38406497 0.7958773 0.50124776 0.69978434 0.012493504
0.061174955 -0.71674556 0.30319518 0.26640996 -0.046299268 0.04810733 -1.2627819 0.48300466
0.04066052 -0.018025799 0.096606806 0.9631579 0.46632487 -0.13013168 0.94357616 -0.11117765
0.13058215 -0.15480416 -0.11838453 0.2504707 0.47654787 0.20611526 -1.5528418 -0.563623
-0.8238384 -0.73482245 -0.48669156 0.01759295 -0.21115907 0.59422064 -0.20486666 0.20406915
0.26625034 -1.0825088 0.131005 0.6843207 0.3009443 0.92058516 0.87179875 -0.4133196
-0.33398527 0.8250284 0.43594348 -0.7592609 0.32068914 -2.562133 0.71313137 0.21310236
-1.1190699 0.6115173 -0.22821279 -0.23838963 -0.8552331 0.9630543 0.8858104 0.32974517
-0.70203835 0.121043704 -0.4758484 0.2993123 0.4526748 0.10916974 -0.19347234 0.34551686
-1.0051451 -0.35081345 -0.7445212 0.5533583 0.48265752 0.27228272 0.7186945 -0.45641643
0.07666019 -1.091637 4.345292e-05 0.6608077 0.004757697 0.21086897 0.9368816 0.112747245
0.47913605 0.5393976 -0.21804856 0.11334898 0.53615093 0.93515664 0.2555297 0.33607218
0.803603 -1.2998741 -0.45423985 -0.30637133 -0.3743904 0.06267361 0.082988545 0.5616732
0.4690132 -0.28462732 0.33327973 0.7616768 -1.3288071 -1.630518 0.7450348 0.88336736
0.14659593 -0.039453264 0.21322596 -0.22288372 0.6356349 0.27119327 -0.11735375 -0.11135615
0.61217624 0.24633858 -0.15644696 -0.42603257 -0.1177203 0.72085494 0.8205286 1.1644078
0.72573435 -0.8501135 0.21019994 0.80291224 -0.09821136 0.5913813 0.16833745 0.48067477
0.1198582 -0.68361205 0.5278769 -0.21808408 0.24935222 -0.43933943 -0.75291336 -0.047724985
0.13034755 -0.038761575 -0.31198174 -1.0788428 0.17248556
00000000: c360 a2bf 0842 713f b74f 8ebf b998 5cbe
00000010: ffe7 1f3e c6e5 a3be 9b59 2f3f e6c0 7d3f
00000020: 8189 a43d 28d3 69bf 2607 0fbf ccbf 523f
00000030: 1c61 793e 4781 d03e 6306 1d3f 18c5 45bf
00000040: a638 023f 3a8a 903e 662f 56be 72c7 0d3f
00000050: 44ef 023c 1a88 2abe d71a d23d b24f 4b3d
00000060: 7682 69be c0c7 de3e 2cff 103f cf23 92be
00000070: 2a5e dc3d 5018 a03e 8cbc 25bf d984 33bf
00000080: 90f8 623f f1c5 90bf f678 583e 5935 8f3e
00000090: 55a9 4b3e 9e28 7fbd a26d c2bf 433f 32bf
000000a0: 5730 873f c313 123f 9ab0 8ebf 2aa4 c4be
000000b0: 9dbe 4b3f c651 003f 1125 333f 8eb1 4c3c
000000c0: 9792 7a3d a37c 37bf 663c 9b3e e366 883e
000000d0: 4da4 3dbd 310c 453d d6a2 a1bf 634c f73e
000000e0: a58b 263d d7aa 93bc cad9 c53d 8491 763f
000000f0: 22c2 ee3e 3d41 05be 358e 713f 1cb1 e3bd
00000100: 54b7 053e fb84 1ebe 9773 f2bd b23d 803e
00000110: 15fe f33e e10f 533e 85c3 c6bf 9949 10bf
00000120: 13e7 52bf 531d 3cbf a32f f9be 171f 903c
00000130: 153a 58be d81e 183f 91c8 51be 81f7 503e
00000140: f751 883e a68f 8abf 2d26 063e a42f 2f3f
00000150: 5f15 9a3e 78ab 6b3f 342e 5f3f a09e d3be
00000160: 1e00 abbe 1035 533f fc33 df3e ec5e 42bf
00000170: 5e31 a43e fdf9 23c0 c78f 363f 8137 5a3e
00000180: af3d 8fbf 668c 1c3f 9db0 69be 691c 74be
00000190: 8ef0 5abf ba8a 763f 78c4 623f 5cd4 a83e
000001a0: c9b8 33bf c3e5 f73d 67a2 f3be 763f 993e
000001b0: fec4 e73e 6294 df3d 9d1d 46be 96e7 b03e
000001c0: 98a8 80bf d29d b3be f198 3ebf e4a8 0d3f
000001d0: e31e f73e a468 8b3e 5dfc 373f 6aaf e9be
000001e0: 0500 9d3d c3ba 8bbf 3841 3638 b22a 293f
000001f0: 75e6 9b3b 09ee 573e 79d7 6f3f 07e8 e63d
00000200: 5251 f53e f615 0a3f 1f48 5fbe 8323 e83d
00000210: 3041 093f 6d66 6f3f cad4 823e a711 ac3e
00000220: edb8 4d3f 4662 a6bf 2092 e8be b4dc 9cbe
00000230: 19b0 bfbe 065b 803d e6f5 a93d d1c9 0f3f
00000240: 8022 f03e acba 91be a4a3 aa3e 40fd 423f
00000250: 5a16 aabf d0b4 d0bf 9aba 3e3f 5d24 623f
00000260: 3e1d 163e bf99 21bd e857 5a3e a13b 64be
00000270: f8b8 223f d8d9 8a3e 2a57 f0bd b10e e4bd
00000280: 95b7 1c3f 2e40 7c3e a233 20be f120 dabe
00000290: 5717 f1bd f389 383f 2a0e 523f 510b 953f
000002a0: bac9 393f 0aa1 59bf a73e 573e a88b 4d3f
000002b0: 0a23 c9bd c464 173f a760 2c3e 011b f63e
000002c0: 3778 f53d 3301 2fbf f122 073f 6f51 5fbe
000002d0: 3056 7f3e 19f1 e0be eebe 40bf 467b 43bd
000002e0: d479 053e 75c4 1ebd 12bc 9fbe 8517 8abf
000002f0: 0ea0 303e

l2.weight f4 [119, 189]
0.13472286 -0.11833708 -0.012737492 -0.5987021 -0.03316873 -0.23285635 0.6949991 -0.10077518
0.12221474 -0.65774786 0.15604879 0.09524623 -0.39189827 0.015381979 0.09843081 -0.14976811
0.12826921 -0.44040844 -0.13950515 0.53458375 0.01074805 0.4037422 -0.34581792 0.3831492
0.13174896 0.3832856 0.2718295 0.051740218 0.10357893 0.5108557 -0.076459594 -0.0018569531
0.015000724 -0.035700504 0.31799728 -0.4602243 -0.0526762 -0.1833689 0.05377084 -0.27352136
0.10483488 0.15333237 -0.34431952 -0.6238639 0.0033978631 -0.16727157 -0.746013 -0.26336643
0.31088603 0.452296 0.00716534 0.16667615 -0.27256274 -0.027291227 0.24900614 0.40443447
0.0018509738 -0.025666965 -0.35606483 0.02870689 -0.24442965 -0.02378014 0.21007691 0.16760829
0.06792547 -0.0028907894 -0.015234125 0.5010576 -0.04389971 0.44809735 -0.2162243 -0.17426828
-0.013776148 -0.065450475 -0.101667665 0.08579336 0.22689961 0.31426737 0.28318736 0.21536192
0.32826823 0.20190254 -0.22008477 -0.17232059 0.33747706 -0.297008 -0.16804495 0.22837974
0.026034744 -0.426258 0.040486794 0.09184102 0.19900036 -0.24914074 -0.13825208 0.037784647
1.1047344 0.2651512 -0.01871759 0.045553323 0.08567905 0.28560397 0.1215459 -0.3392966
-0.26763064 -0.60643566 -0.09000011 -0.15478137 0.04705728 0.553949 0.454861 0.05612046
-0.016281456 0.046723247 -0.0024789176 -0.25090584 0.06058507 -0.1954869 0.11399323 0.04822883
0.101753645 -0.16309397 0.121296585 -0.28638774 -0.004544311 0.08361088 0.35713217 0.5339499
0.050817862 -0.363352 0.08934588 0.014460649 -0.22601259 -0.020436108 -0.18401548 0.20512912
0.39923713 -0.031860165 -0.107750855 -0.39459 0.3590934 -0.3136907 -0.22320446 0.06971814
0.05548305 0.25409824 -0.2790945 0.16772874 0.16553402 0.06573306 -0.18875058 0.12218035
-0.007994592 0.0270691 0.038030777 -0.13558303 -0.07262851 0.22573872 0.30025998 0.050865393
0.24462987 0.28838587 0.1851645 0.22158381 0.1092474 0.048065312 0.124299645 0.24447529
-0.32789746 0.0078090513 0.2868425 -0.16456409 0.019952187 0.0052120797 -0.21267544 -0.2815901
-0.16926345 -0.10531138 0.10980507 -0.095649645 0.27444354 -0.22247131 0.018489469 -0.04686811
-0.046300407 -0.09358483 -0.9645425 -0.04822996 -0.15413027 -0.084540255 0.14641468 -0.24610198
-0.19952302 0.24225813 0.049970847 -0.20638634 0.26529106 -0.08300347 0.021148223 0.056982454
0.4871304 0.2063541 -0.11180281 -0.12732737 -0.13331822 0.12678774 0.26759514 -0.009361772
0.16692938 0.0628818 0.0067119417 0.69258744 -0.16683704 -0.03913499 -0.09728407 0.08439286
-0.1582871 0.01622473 -0.19569819 -0.22427092 -0.14319848 0.55992883 0.024117107 0.41575575
0.39944613 0.14859907 0.20584223 -0.044341546 -0.32727137 0.5289765 0.21216051 -0.17751351
-0.13637252 0.42301223 0.3766991 -0.16813786 0.14050281 0.14339556 -0.09578527 0.31098583
0.3611306 -0.17923412 0.04078425 0.06439963 0.3519242 0.014447973 -0.5752635 -0.029472401
0.17548454 0.121424295 -0.14804518 0.15179136 0.15993318 0.26905957 -0.28534248 0.012708869
00000000: caf4 093e b65a f2bd eab0 50bc 8a44 19bf
00000010: efdb 07bd e571 6ebe 76eb 313f 3863 cebd
00000020: b94b fa3d 2a62 28bf 41cb 1f3e 7510 c33d
00000030: e4a6 c8be b204 7c3c 1896 c93d d05c 19be
00000040: 0159 033e 377d e1be 70da 0ebe 7bda 083f
00000050: 9718 303c 4cb7 ce3e 0c0f b1be 222c c43e
00000060: 33e9 063e 033e c43e 3c2d 8b3e 8ded 533d
00000070: 3121 d43d 70c7 023f d996 9cbd 0265 f3ba
00000080: 99c5 753c b13a 12bd 8ad0 a23e 85a2 ebbe
00000090: 00c3 57bd 0fc5 3bbe d03e 5c3d fe0a 8cbe
000000a0: abb3 d63d 2903 1d3e a64a b0be 8bb5 1fbf
000000b0: afae 5e3b 3d49 2bbe b5fa 3ebf f7d7 86be
000000c0: 742c 9f3e 5793 e73e 3acb ea3b 27ad 2a3e
000000d0: 588d 8bbe da91 dfbc 77fb 7e3e 0912 cf3e
000000e0: 609c f23a 8743 d2bc 214e b6be b62a eb3c
000000f0: c44b 7abe 91ce c2bc 671e 573e 82a1 2b3e
00000100: 821c 8b3d 6673 3dbb 8d98 79bc 5045 003f
00000110: 2fd0 33bd 046d e53e e769 5dbe 6273 32be
00000120: 5ab5 61bc e60a 86bd 2337 d0bd 6eb4 af3d
00000130: 5f58 683e a7e7 a03e effd 903e d687 5c3e
00000140: c612 a83e 8abf 4e3e e75d 61be cf74 30be
00000150: cbc9 ac3e 6f11 98be fa13 2cbe 61dc 693e
00000160: d146 d53c 7d3e dabe 7bd5 253d 2517 bc3d
00000170: c0c6 4b3e c01e 7fbe f491 0dbe 13c4 1a3d
00000180: f067 8d3f e6c1 873e a255 99bc 1f96 3a3d
00000190: 7f78 af3d af3a 923e 0fed f83d 49b8 adbe
000001a0: e206 89be 5e3f 1bbf fa51 b8bd 027f 1ebe
000001b0: 22bf 403d 9acf 0d3f 8ae3 e83e 91de 653d
000001c0: b060 85bc e060 3f3d 5675 22bb bb76 80be
000001d0: 0d28 783d b82d 48be 4875 e93d 988b 453d
000001e0: 3764 d03d 1b02 27be 586a f83d 6aa1 92be
000001f0: 72e8 94bb 2e3c ab3d 07da b63e f1b0 083f
00000200: 6426 503d 4609 babe f9fa b63d 5cec 6c3c
00000210: d86f 67be a069 a7bc 8e6e 3cbe 5e0d 523e
00000220: cf68 cc3e ce7f 02bd 7bac dcbd b307 cabe
00000230: 17db b73e 119c a0be b68f 64be 62c8 8e3d
00000240: 3242 633d 2a19 823e 79e5 8ebe 15c1 2b3e
00000250: c081 293e 0e9f 863d d547 41be b139 fa3d
00000260: c0fb 02bc 04c0 dd3c 29c6 1b3d 47d6 0abe
00000270: 42be 94bd 0d28 673e adbb 993e 3b58 503d
00000280: 4180 7a3e 50a7 933e c39b 3d3e dee6 623e
00000290: 1abd df3d 22e0 443d d090 fe3d bb57 7a3e
000002a0: 2de2 a7be 12e3 ff3b 05dd 923e 7d83 28be
000002b0: c572 a33c 18ca aa3b 97c7 59be 942c 90be
000002c0: 6653 2dbe 7ead d7bd 7be1 e03d f6e3 c3bd
000002d0: dd83 8c3e 85cf 63be 3a77 973c c6f8 3fbd
000002e0: 7fa5 3dbd 67a9 bfbd 42ec 76bf c78c 45bd
000002f0: 53d4 1dbe 7123 adbd bbed 153e 2802 7cbe
00000300: c34f 4cbe 8412 783e 3bae 4c3d f156 53be
00000310: 3bd4 873e b9fd a9bd 0a3f ad3c 6f66 693d
00000320: 2869 f93e 7d4e 533e dff8 e4bd 1b62 02be
00000330: 9284 08be a5d4 013e 3b02 893e 1e62 19bc
00000340: 89ef 2a3e 2cc8 803d d9ef db3b 694d 313f
00000350: 54d7 2abe 034c 20bd df3c c7bd 2ad6 ac3d
00000360: 0316 22be bae9 843c 1b65 48be 47a7 65be
00000370: 9fa2 12be 7f57 0f3f 3d91 c53c f0dd d43e
00000380: 3484 cc3e 5b2a 183e 4ec8 523e 7b9f 35bd
00000390: 1d90 a7be 016b 073f 9b40 593e 1ac6 35be
000003a0: 3da5 0bbe 0f95 d83e b4de c03e 552c 2cbe
000003b0: f8df 0f3e 49d6 123e 112b c4bd 8939 9f3e
000003c0: 1ce6 b83e 2689 37be 630d 273d f4e3 833d
000003d0: 692f b43e 31b7 6c3c 7844 13bf 1b70 f1bc
000003e0: 38b2 333e 4dad f83d 2899 17be 326f 1b3e
000003f0: 86c5 233e 2dc2 893e 6918 92be dc38 503c

l2.bias f4 [119]
-0.06716631 0.64840347 -0.14704184 0.54723 0.73388755 0.08803818 0.21006729 0.4472421
0.32285023 0.31400526 0.07903024 0.06901591 -0.105334654 0.032142606 0.5471768 -0.4754878
0.044895396 0.147877 0.29601306 0.17599905 0.41732645 0.25524747 0.7291472 -0.025201533
0.6028261 0.3188635 -0.0015119512 -0.4061481 -0.039784558 0.697649 -0.059261966 0.2218401
0.50728244 0.71099275 0.76965034 0.81466454 0.083481014 -0.0076415 0.4853863 0.50226164
0.26382133 0.3878123 0.4349424 0.25412783 0.21875699 0.044790547 -0.08136143 0.06533371
0.78648037 0.7741928 0.72761565 0.5452936 0.5727867 0.6161899 0.5582862 0.6664654
0.56849474 0.6274133 0.39738402 0.03163197 0.03534993 0.21902722 0.17604321 0.11445995
0.12716186 0.23579548 0.72971785 0.41202974 0.40990546 0.35285106 0.2776701 0.69531167
0.6483876 -0.10702293 0.7291415 -0.12970516 0.689137 0.48889184 0.3099681 0.05321234
0.24297172 0.3458809 0.6593931 -0.012246785 0.33786586 0.43228272 0.19639154 0.31123194
0.3917379 0.63144153 0.23125969 0.19379623 0.69493526 0.1449944 -0.16635191 0.6420056
-0.1546296 -0.07991783 0.010413157 0.2602794 0.7283711 0.01877207 0.120994434 0.6499024
0.41640928 0.56412625 0.5853653 -0.12468043 0.09666394 0.29261118 0.71101284 0.06476445
0.012369747 0.78011924 -0.0666007 0.142568 0.32088017 0.08939699 0.1910004
00000000: 7e8e 89bd c5fd 253f 2392 16be 4417 0c3f
00000010: 0ee0 3b3f 5c4d b43d e11b 573e ebfc e43e
00000020: a04c a53e 4cc5 a03e 9bda a13d 3758 8d3d
00000030: b2b9 d7bd f7a7 033d c713 0c3f 2373 f3be
00000040: 3ce4 373d 116d 173e 068f 973e 1839 343e
00000050: d0ab d53e ccaf 823e 64a9 3a3f 7273 cebc
00000060: d052 1a3f 1442 a33e aa2c c6ba a5f2 cfbe
00000070: 22f5 22bd 2099 323f adbc 72bd 0d2a 633e
00000080: 43dd 013f 9f03 363f ce07 453f db8d 503f
00000090: 18f8 aa3d 8c65 fabb 8e84 f83e 3894 003f
000000a0: 9713 873e 558f c63e c5b0 de3e 0b1d 823e
000000b0: d501 603e 4b76 373d d2a0 a6bd aecd 853d
000000c0: c756 493f 8031 463f 0545 3a3f 5d98 0b3f
000000d0: 26a2 123f 9fbe 1d3f d8eb 0e3f 7a9d 2a3f
000000e0: df88 113f 289e 203f eb75 cb3e 8690 013d
000000f0: 17cb 103d ac48 603e ac44 343e fa69 ea3d
00000100: b836 023e 5f74 713e cace 3a3f 90f5 d23e
00000110: 21df d13e e5a8 b43e c62a 8e3e f2ff 313f
00000120: bbfc 253f d72e dbbd 04a9 3a3f 6ed1 04be
00000130: 486b 303f 0850 fa3e 24b4 9e3e 2ff5 593d
00000140: 94cd 783e 4d17 b13e fccd 283f bda6 48bc
00000150: c1fc ac3e 2954 dd3e dd1a 493e cb59 9f3e
00000160: df91 c83e 27a6 213f 57cf 6c3e 8572 463e
00000170: 47e7 313f 6979 143e 2858 2abe 7b5a 243f
00000180: 3957 1ebe f6ab a3bd f29b 2a3c 5743 853e
00000190: 8776 3a3f e2c7 993c eecb f73d 0160 263f
000001a0: 9933 d53e 946a 103f 80da 153f 7458 ffbd
000001b0: bef7 c53d 22d1 953e f004 363f 39a3 843d
000001c0: 7baa 4a3c e5b5 473f f365 88bd 59fd 113e
000001d0: 684a a43e c515 b73d 9c95 433e

l3.weight f4 [9, 119]
-0.122295335 0.061468452 0.1078628 -0.14439027 0.47944593 -0.32861626 0.11403704 0.078308366
-0.033092916 -0.15550949 0.01481711 0.15251204 0.16767745 -0.42698553 0.28815606 0.015538519
-0.11076647 0.10613644 0.18468449 0.05689491 -0.073480174 -0.1517304 0.14595193 0.058774173
0.08995848 -0.3688947 -0.0469134 -1.1422443 0.24694903 0.00077229436 2.0958056 0.040368192
0.049370866 0.15264839 0.19167398 0.1240989 -0.26528287 0.13501064 -0.12117275 0.10629041
-0.0017521324 0.31878874 0.0015897768 0.13645887 -0.7067771 0.06576121 -0.15574206 0.14014588
0.12229999 0.13542472 0.049991 0.120299526 -0.0321687 0.78083336 0.08771669 0.095803685
0.12162848 0.06420356 0.009995494 0.12753119 -0.052906573 -0.38458484 -0.44576988 -0.120461896
0.27913898 -0.29607275 0.012900015 0.11235173 0.283424 0.39213878 0.21495947 0.3678809
0.18288174 0.55836976 0.043999143 0.39402953 0.12423515 -0.11635623 -0.17785633 -0.052774515
-0.025315944 0.013962929 -0.08868349 0.20689872 0.38512498 0.1225943 0.26558027 -0.65247804
0.6161854 0.022812774 0.7503094 -0.12229467 -0.008515655 0.25810486 0.027971119 -0.054163888
0.2429976 -0.56644857 -0.048205215 -0.028956983 -0.013820556 -0.30598292 0.15149203 -0.058916725
-0.067965016 0.16439685 -0.028761687 0.1516498 -0.40751594 0.19379207 0.20629194 -0.077245764
-0.16720219 0.087816395 1.57771 0.10254108 -0.15962109 -0.30010137 0.17683055 0.3893912
0.0010195578 -0.6361463 -0.675521 0.23493458 0.33227572 0.06716109 -0.16725652 0.27196798
0.026970902 1.0852515 0.19194774 -0.13719718 0.080516085 0.43857044 -0.8299106 -0.28876597
-0.79278773 0.16388598 0.30641666 -0.5243325 0.18792763 -0.34315166 -0.2416502 0.15104906
0.3279769 0.30495286 -0.12831333 0.44862083 0.10002544 -0.5461799 -0.2517719 -0.085698694
0.06781887 0.014623988 0.15179762 0.4370588 0.4242851 -0.019979909 -0.09045557 -0.04082799
0.3858539 -0.6289403 0.43738958 0.8107719 0.17374624 -0.004134513 0.26718056 -0.0016881035
0.058065444 -0.15810886 -0.18615471 -0.2160154 -0.7864084 0.0856528 0.08110807 0.38264903
0.6171615 0.08328544 0.30615857 0.47905692 0.29310006 -0.53555566 -0.34679478 0.24411927
0.33979034 0.0074426867 0.09367046 -0.02133178 0.08593472 0.24531817 0.0498653 0.30735698
-0.621004 0.0170568 0.21197508 0.052377906 0.09492998 0.26187062 0.31090638 0.18232907
0.22325514 0.03392256 0.31523356 0.22152446 0.8460878 0.16213599 -0.3396896 -1.294552
0.083093025 0.079221785 -0.24235173 0.27478027 0.641557 0.24862915 0.11151769 0.120358944
-0.5681398 0.28839034 -0.23425192 0.073784605 0.35464898 0.34468916 0.057339184 0.06233272
-0.22183587 -0.07733058 0.40151286 0.40411866 -0.41956288 -0.050944645 0.036308225 0.19890538
0.13500132 -1.009148 0.2963099 0.342402 0.36020112 -0.4880292 -0.22309572 0.3239326
-0.110298194 0.090334654 0.09356357 -0.2066964 0.04979773 0.15715498 -0.15111788 0.19588298
-1.549779 -0.30565432 0.5347698 0.17561233 0.12584665 -0.22674422 0.027076477 0.3251115
00000000: fa75 fabd 58c6 7b3d 2ce7 dc3d 0bdb 13be
00000010: f079 f53e 6440 a8be 408c e93d 2360 a03d
00000020: 708c 07bd e13d 1fbe 77c3 723c 1e2c 1c3e
00000030: a3b3 2b3e d99d dabe 3189 933e 4695 7e3c
00000040: 88d9 e2bd 105e d93d ee1d 3d3e a30a 693d
00000050: c67c 96bd 375f 1bbe 6c74 153e 30bd 703d
00000060: 273c b83d c4df bcbe 4428 40bd 1035 92bf
00000070: 35e0 7c3e cc73 4a3a ae21 0640 1e59 253d
00000080: 1b39 4a3d dc4f 1c3e 2f46 443e 9027 fe3d
00000090: 28d3 87be 3b40 0a3e 6b29 f8bd c9ae d93d
000000a0: cfa7 e5ba 4738 a33e 0f60 d03a e0bb 0b3e
000000b0: 58ef 34bf d0ad 863d d97a 1fbe 6782 0f3e
000000c0: 6b78 fa3d c7ac 0a3e 5dc3 4c3d 995f f63d
000000d0: 54c3 03bd b2e4 473f cfa4 b33d b934 c43d
000000e0: 5a18 f93d 287d 833d 24c4 233c 8997 023e
000000f0: 90b4 58bd 4ee8 c4be f33b e4be bab4 f6bd
00000100: 4eeb 8e3e d996 97be 965a 533c aa18 e63d
00000110: f31c 913e 6ac6 c83e 561e 5c3e e35a bc3e
00000120: 5a45 3b3e 52f1 0e3f 7238 343d 3dbe c93e
00000130: 006f fe3d 2d4c eebd f81f 36be 172a 58bd
00000140: 6263 cfbc c5c4 643c b19f b5bd 42dd 533e
00000150: 1a2f c53e b812 fb3d 23fa 873e cd08 27bf
00000160: 54be 1d3f dbe1 ba3c 4714 403f a175 fabd
00000170: 3f85 0bbc 5226 843e b023 e53c f4da 5dbd
00000180: 5dd4 783e c602 11bf d572 45bd 3237 edbc
00000190: 9d6f 62bc cba9 9cbe ba20 1b3e aa52 71bd
000001a0: 3e31 8bbd a657 283e a19d ebbc 164a 1b3e
000001b0: eea5 d0be 6e71 463e 323e 533e 0733 9ebd
000001c0: 0d37 2bbe 15d9 b33d 67f2 c93f 0f01 d23d
000001d0: b673 23be e3a6 99be 1113 353e 495e c73e
000001e0: afa2 853a 7cda 22bf f2ee 2cbf b192 703e
000001f0: 0b20 aa3e c18b 893d 4b45 2bbe 633f 8b3e
00000200: 15f2 dc3c 85e9 8a3f f38d 443e 6b7d 0cbe
00000210: 9ee5 a43d 4e8c e03e 0575 54bf 22d9 93be
00000220: 23f4 4abf bad1 273e a5e2 9c3e a83a 06bf
00000230: 1a70 403e 93b1 afbe 2673 77be 9bac 1a3e
00000240: 97ec a73e c822 9c3e 9264 03be a1b1 e53e
00000250: 23da cc3d 72d2 0bbf 3fe8 80be cc82 afbd
00000260: 9fe4 8a3d 7499 6f3c d670 1b3e 2cc6 df3e
00000270: e63b d93e e8ac a3bc c540 b9bd 403b 27bd
00000280: a48e c53e 3b02 21bf 87f1 df3e bf8e 4f3f
00000290: 89ea 313e cf7a 87bb e4cb 883e 5b43 ddba
000002a0: 08d6 6d3d 4ae7 21be 579f 3ebe 2433 5dbe
000002b0: 1052 49bf bc6a af3d fd1b a63d 93ea c33e
000002c0: 4cfe 1d3f 8f91 aa3d d1c0 9c3e f346 f53e
000002d0: 3611 963e 2d1a 09bf 168f b1be 67fa 793e
000002e0: 00f9 ad3e c8e1 f33b 4cd6 bf3d fcbf aebc
000002f0: 8bfe af3d b034 7b3e 8f3f 4c3d e55d 9d3e
00000300: 1efa 1ebf b4ba 8b3c ff0f 593e 378a 563d
00000310: a66a c23d e813 863e 1f2f 9f3e 79b4 3a3e
00000320: ff9c 643e 62f2 0a3d 4b66 a13e 4fd7 623e
00000330: 3699 583f fa06 263e cceb adbe e1b3 a5bf
00000340: ad2c aa3d 083f a23d 0d2b 78be 00b0 8c3e
00000350: 143d 243f a498 7e3e 6363 e43d c07e f63d
00000360: 9c71 11bf e6a7 933e bcdf 6fbe 621c 973d
00000370: 8d94 b53e 197b b03e 7edc 6a3d 9850 7f3d
00000380: f128 63be 7f5f 9ebd 1893 cd3e a4e8 ce3e
00000390: f2d0 d6be 55ab 50bd efb7 143d daad 4b3e
000003a0: c93d 0a3e c32b 81bf eeb5 973e 514f af3e
000003b0: 486c b83e f7de f9be 3473 64be 7eda a53e
000003c0: 05e4 e1bd 6001 b93d 429e bf3d 39a8 53be
000003d0: b4f8 4b3d 3ced 203e a5be 1abe 8c95 483e
000003e0: 295f c6bf b97e 9cbe ace6 083f b8d3 333e
000003f0: f2dd 003e a32f 68be 7dcf dd3c 0475 a63e

l3.bias f4 [9]
0.44018188 0.22340429 0.51814 0.5513217 -0.020284813 0.23728324 0.1861524 -0.010076927
0.7065694
00000000: 855f e13e 18c4 643e d3a4 043f 6b23 0d3f
00000010: 562c a6bc 61fa 723e bc9e 3e3e b219 25bc
00000020: bbe1 343f

l4.weight f4 [53, 9]
0.70352745 0.23164842 -0.32044017 0.26367077 -0.9008802 -0.3570518 -0.14072266 0.2300431
0.25285995 -0.07887995 0.58581555 -0.5082408 0.1670909 0.3851115 0.59545565 -0.12998159
0.029441446 -0.081398666 -0.14178988 0.33280748 0.272452 0.122521326 -0.16777779 0.33512926
0.4811621 0.56769025 -0.24074712 -0.14549577 0.07648354 0.031871706 -0.24082921 0.68286484
-0.345982 -0.8393877 0.46849295 -0.29173556 0.22497387 0.5289036 0.32959673 0.13396394
0.6791936 0.43555662 -0.42702374 -0.010835184 -0.31955028 0.2972955 0.42089108 -0.70199174
-0.1246884 -0.3837627 0.7253651 -0.60519356 0.16419066 -0.900348 0.19214793 -0.32862929
0.30173105 0.43252328 -0.26255578 0.7297562 -0.20977943 0.054079343 -0.15993237 0.059791584
-0.14439698 -0.07550247 -0.075247645 -0.4959585 1.3730596 1.1509839 0.78130513 -0.37323073
0.4928439 0.11528975 0.413809 0.71572936 -0.5041902 -0.2222617 0.6897633 0.041805033
-0.044175297 -0.156936 0.2943603 -0.47644186 0.5232747 -0.52919114 -0.05685201 -0.5634961
-0.25230396 0.18326385 -0.34881392 0.38469446 0.26062173 -0.2350758 -0.20229566 -0.46004692
-0.34156808 0.22434945 0.33183584 -0.42194608 0.4788559 0.13357186 -0.3240705 -0.10931102
-0.034113485 -0.050607264 0.20198081 0.26747987 0.1595164 0.27606946 0.039552163 -0.4127117
-0.57493156 0.7080765 -0.6408574 0.5787003 -0.11090417 0.55141187 0.06538733 -0.03806087
0.45350957 -0.016697353 0.3999073 0.40003884 0.058898937 -0.1507477 -0.15965351 0.4127635
0.29435742 0.19536327 0.03301646 0.17720439 0.12740487 0.17481633 -0.25547713 -0.22297153
0.32557383 0.05899064 -0.30005392 0.7011062 0.09177553 -0.63754064 -0.41008967 0.35589805
-0.057655837 0.36412778 0.4036397 0.5665708 -0.5212434 -0.21607342 0.87857777 -0.06127833
-0.1282847 0.20219989 0.4165695 -0.09308358 0.15380931 -0.31773177 0.6793049 -0.12775281
-0.10649827 -0.02593248 0.55311173 0.2322821 -0.76303333 0.26627842 0.16982192 0.7888428
-0.6113546 -0.10003918 -0.32317874 -0.0918445 0.4788765 0.0032351208 0.28801095 0.1278419
-1.1416707 -0.28877825 -0.073172905 -0.09331466 -0.34236938 0.10308632 0.4760793 0.3715886
-0.2919951 0.33515394 -0.09437922 -0.14296214 -0.03576488 -0.56554353 0.22433724 0.36271453
-0.34453002 -0.49233308 0.7720737 -0.153376 -0.9703185 0.3046164 0.36062703 0.032196958
-0.13711436 0.19660251 -0.3131856 -0.38477197 -0.078010954 0.42943737 -0.09942791 -0.41362342
0.57638466 -0.11867564 0.23340844 0.5453507 0.041522387 0.23014243 -0.29438332 0.14561464
-0.043954127 -0.2065495 -0.08820101 -0.27083716 -0.105047196 0.2769834 0.07805027 1.0707114
0.2538577 -0.09480917 0.545299 -0.2578881 -0.097631685 -0.12026767 0.056834374 -0.58878946
-0.060021672 0.42418042 -0.27717385 0.07239206 0.2861977 -0.114747874 -0.33582473 -0.10580193
0.09268965 0.16513033 0.40480903 0.027380995 -0.03657227 -0.20437814 0.111634396 0.10038706
-0.32310596 -0.49396136 -0.2980418 0.44784048 0.53395486 0.07554043 0.021170687 -0.6259131
00000000: 601a 343f 3e35 6d3e bc10 a4be dbff 863e
00000010: 16a0 66bf 7ecf b6be 9a19 10be 6b90 6b3e
00000020: dc76 813e d08b a1bd 02f8 153f 121c 02bf
00000030: e019 2b3e 562d c53e c86f 183f e519 05be
00000040: 302f f13c 58b4 a6bd 5e31 11be be65 aa3e
00000050: d47e 8b3e 76ec fa3d f1cd 2bbe 1096 ab3e
00000060: e15a f63e 2654 113f 6a86 76be d8fc 14be
00000070: 67a3 9c3d e88b 023d ef9b 76be 3bd0 2e3f
00000080: 8d24 b1be 1de2 56bf 4fde ef3e 5d5e 95be
00000090: 8d5f 663e 3a66 073f e7c0 a83e d82d 093e
000000a0: a2df 2d3f 4701 df3e dba2 dabe 0e86 31bc
000000b0: 189c a3be 1e37 983e 097f d73e bbb5 33bf
000000c0: a25c ffbd 8b7c c4be 87b1 393f f7ed 1abf
000000d0: 9921 283e 357d 66bf 6dc2 443e 1942 a8be
000000e0: 7e7c 9a3e b173 dd3e b66d 86be 4dd1 3a3f
000000f0: 6bd0 56be 4d82 5d3d 50c5 23be 05e8 743d
00000100: cddc 13be 0aa1 9abd 701b 9abd 46ee fdbe
00000110: 6bc0 af3f 7153 933f 9d03 483f 1918 bfbe
00000120: 0956 fc3e 081d ec3d c6de d33e 0a3a 373f
00000130: 9c12 01bf 9298 63be 5494 303f c13b 2b3d
00000140: 28f1 34bd d5b3 20be 65b6 963e 30f0 f3be
00000150: 55f5 053f 1279 07bf a7dd 68bd 4841 10bf
00000160: fc2d 81be 85a9 3b3e bd97 b2be acf6 c43e
00000170: 3670 853e b6b7 70be 9826 4fbe 458b ebbe
00000180: 03e2 aebe ddbb 653e 63e6 a93e 5109 d8be
00000190: 9a2c f53e 10c7 083e 92ec a5be 75de dfbd
000001a0: 95ba 0bbd 9049 4fbd 0fd4 4e3e 1ff3 883e
000001b0: 4458 233e fa58 8d3e 7301 223d f34e d3be
000001c0: b72e 13bf 8044 353f 3b0f 24bf b425 143f
000001d0: ba21 e3bd 5429 0d3f cbe9 853d b7e5 1bbd
000001e0: 6832 e83e e3c8 88bc a6c0 cc3e e4d1 cc3e
000001f0: 0340 713d 9b5d 1abe 367c 23be bd55 d33e
00000200: 04b6 963e 4f0d 483e 443c 073d 1175 353e
00000210: 6c76 023e 0d03 333e e6cd 82be a652 64be
00000220: 9db1 a63e 2ba0 713d aba0 99be b27b 333f
00000230: cff4 bb3d dd35 23bf 46f7 d1be 4538 b63e
00000240: 8728 6cbd f56e ba3e dda9 ce3e c90a 113f
00000250: 3570 05bf 5a42 5dbe 79ea 603f fcfe 7abd
00000260: 105d 03be 7d0d 4f3e 9948 d53e 9ba2 bebd
00000270: 3080 1d3e bdad a2be ede6 2d3f a2d1 02be
00000280: c41b dabd 5a70 d4bc bb98 0d3f 5cdb 6d3e
00000290: 2756 43bf a555 883e cce5 2d3e 9af1 493f
000002a0: bc81 1cbf 57e1 ccbd af77 a5be f818 bcbd
000002b0: 4d2f f53e 5204 543b 2c76 933e fde8 023e
000002c0: 4422 92bf beda 93be addb 95bd c21b bfbd
000002d0: 0a4b afbe ec1e d33d aac0 f33e dc40 be3e
000002e0: 6280 95be 4c99 ab3e e449 c1bd ab64 12be
000002f0: 327e 12bd 76c7 10bf a9b8 653e b8b5 b93e
00000300: 3d66 b0be 1513 fcbe 9fa6 453f 990e 1dbe
00000310: cb66 78bf aef6 9b3e 1ba4 b83e f5e0 033d
00000320: b567 0cbe 2b52 493e dd59 a0be d500 c5be
00000330: 35c4 9fbd 37df db3e dca0 cbbd 73c6 d3be
00000340: f28d 133f 370c f3bd 9f02 6f3e 1a9c 0b3f
00000350: 6113 2a3d 75aa 6b3e 69b9 96be 011c 153e
00000360: 3e09 34bd b681 53be bba2 b4bd 2bab 8abe
00000370: fc22 d7bd c5d0 8d3e d2d8 9f3d 120d 893f
00000380: a3f9 813e 4f2b c2bd b798 0b3f e909 84be
00000390: 1ff3 c7bd e54e f6bd 29cb 683d e8ba 16bf
000003a0: 49d9 75bd 2d2e d93e bbe9 8dbe 4a42 943d
000003b0: 8188 923e ef00 ebbd 38f1 abbe afae d8bd
000003c0: 12d4 bd3d ed17 293e 2143 cf3e 1c4e e03c
000003d0: cecc 15bd 8148 51be 93a0 e43d bb97 cd3d
000003e0: 256e a5be 81e8 fcbe ef98 98be 594b e53e
000003f0: 44b1 083f f1b4 9a3d 266e ad3c d73b 20bf

l4.bias f4 [53]
0.33806604 0.7455805 0.8866844 0.713537 0.4883832 0.3525518 -0.51089686 0.1406716
0.5900627 -0.46706074 0.9001045 0.93627614 0.8470536 0.1766086 0.7212377 0.73174113
0.72513497 0.634767 0.50848234 0.3733102 0.41135848 0.5003068 0.43940452 0.582686
0.3940339 0.87115717 1.1264066 1.3848572 -0.20760122 0.03900329 0.69795924 0.42756295
0.54711866 0.9445945 0.24407887 0.9394011 1.0815519 0.26354027 0.3208958 1.3564892
0.6988279 1.1492733 1.0411446 1.3994381 0.007651128 1.4176848 0.6311416 0.21826015
0.6852516 1.3393869 0.46767133 0.9693583 1.1972477
00000000: fe16 ad3e 5dde 3e3f c0fd 623f 5caa 363f
00000010: 5d0d fa3e ab81 b43e 23ca 02bf 370c 103e
00000020: 590e 173f 9622 efbe 406d 663f cbaf 6f3f
00000030: 81d8 583f e3d8 343e 09a3 383f 6353 3b3f
00000040: 72a2 393f 1780 223f e62b 023f 8422 bf3e
00000050: 949d d23e 1b14 003f a1f9 e03e e92a 153f
00000060: d0be c93e 2804 5f3f 172e 903f 0043 b13f
00000070: 6a95 54be eac1 1f3d 75ad 323f 88e9 da3e
00000080: f80f 0c3f f2d0 713f d0ef 793e 977c 703f
00000090: 4b70 8a3f c0ee 863e 744c a43e 70a1 ad3f
000000a0: 63e6 323f 631b 933f 3a44 853f ca20 b33f
000000b0: 50b6 fa3b b276 b53f 7f92 213f 977f 5f3e
000000c0: a66c 2f3f 0871 ab3f 9e72 ef3e de27 783f
000000d0: 6a3f 993f

l5.weight f4 [85, 53]
0.35771903 -0.20546173 -0.060682245 0.7962656 -0.09724577 1.2210459 0.05633342 -0.10077864
0.23913094 -0.06330826 -0.033509247 -0.33726415 0.00024559005 0.049170427 0.009435705 -0.6658782
0.08125159 -0.30442074 0.5918959 0.04011842 -0.22975735 -1.0725244 0.25093192 -0.36175925
0.21337071 -0.83397007 -0.17277545 -1.456706 0.021679703 0.15426707 -0.24038103 0.11013076
-1.8300691 -0.040475603 0.15923999 0.32291603 -0.43703878 -0.47165734 0.5901815 0.16148187
0.35084218 -0.15607005 -1.2919954 -0.16894989 -0.31508306 0.5361867 -0.06852751 0.87674224
0.1273909 0.08528877 0.29395023 0.07388714 0.22555102 0.110832 -0.6033172 0.0407702
0.07130798 0.19495244 -0.13408941 0.33544996 0.31639943 0.3898851 -0.07642489 -0.010631198
0.09490575 0.14491513 0.19554591 0.21330431 -0.0016235171 0.25823718 0.12795416 0.046698537
0.031557843 0.33372188 0.12443194 0.1617814 -0.014573836 0.019145438 0.0040025804 0.11126407
-0.0032258963 0.09874554 -0.022822944 0.057813313 0.24634086 -0.04372303 -0.06237613 -0.20181008
-0.055662677 0.12603746 0.018416427 -0.48023483 0.13635913 -0.1429282 0.36970714 0.064542234
0.4457833 0.11294536 0.17884284 0.03761714 -0.5479861 0.23849316 0.6075601 0.5395949
0.021324513 0.4893976 0.08928056 -0.48326427 0.063777216 0.15724578 -0.046449427 0.13717891
0.2222753 0.30774742 0.40015537 -0.2651549 0.15608536 0.03191668 0.3084252 0.23217584
0.20027773 0.16915698 0.20505753 0.016614122 0.0730961 -0.20756471 0.10190742 0.11219099
0.1200931 -0.11610717 0.38500708 -0.009773205 0.2595793 0.07441855 0.13295935 -0.16276337
0.10463293 0.41929552 -0.08962549 0.42567998 -0.38872203 -0.097525515 0.2648957 0.02140078
-0.24454454 0.20349821 0.032820344 0.29272756 0.20918728 0.5954997 -0.102214925 0.3476897
0.10216833 -0.65822816 0.14426447 0.58827263 0.4775606 0.15074633 0.4916231 0.018693406
-0.34644043 -0.002902308 0.022592612 0.021319177 -1.1794728 0.0012862226 -0.668183 0.16933519
0.023479294 0.23949979 -0.002866151 -1.2434878 0.0826132 0.2068268 0.16412725 0.19591977
0.07490506 -0.21145278 0.17462951 0.11543608 0.07423131 -0.07681861 0.26766282 -0.18789884
0.3131509 0.14070313 -0.071353965 0.0143688265 -0.15312877 -0.42403892 -0.098269194 0.2989794
-0.0634163 0.5657341 -0.13795348 0.21947245 -0.016717052 -0.31660107 -0.015256573 -0.5705216
0.23848031 0.18247187 0.36751902 0.0041492633 0.06845363 0.15267465 -0.45437285 -0.04641267
0.20068969 -0.20904407 0.06666612 0.02777094 -0.03277706 -0.91868806 0.16989616 -0.49327236
0.34633976 -0.33305424 0.57446474 0.90506226 0.73136866 -0.2742549 -0.07343999 0.10828815
0.36811078 0.42704776 0.3263439 0.1272209 0.22240233 0.16830619 -0.6084232 0.3891253
0.41562867 0.059712533 0.14401552 0.09528842 -0.38773152 -0.09768044 0.10997493 -0.04633627
1.0167454 0.24291119 0.698897 0.43164292 -0.2884516 -0.43522522 -0.062465757 -0.06921449
-0.14625393 -0.05198373 -0.6179397 0.26560074 -0.16085199 0.26282695 -0.34369504 0.36676368
00000000: f326 b73e 8f64 52be f28d 78bd 10d8 4b3f
00000010: ca28 c7bd 3b4b 9c3f dfbd 663d 0865 cebd
00000020: bede 743e c3a7 81bd fe40 09bd e3ad acbe
00000030: 8ac2 8039 ee66 493d 3798 1a3c fe76 2abf
00000040: 3c67 a63d 09dd 9bbe 7d86 173f 3653 243d
00000050: 8345 6bbe 7b48 89bf 267a 803e 8238 b9be
00000060: da7d 5a3e 107f 55bf 0cec 30be 5875 babf
00000070: a299 b13c 30f8 1d3e 7226 76be 3c8c e13d
00000080: b43f eabf bfc9 25bd cf0f 233e 4055 a53e
00000090: 8cc3 dfbe 127d f1be 2316 173f 815b 253e
000000a0: 96a1 b33e d4d0 1fbe 1b60 a5bf 3301 2dbe
000000b0: 9152 a1be 8843 093f 2758 8cbd 2e72 603f
000000c0: c372 023e e1ab ae3d a580 963e 2452 973d
000000d0: d9f6 663e e3fb e23d ff72 1abf a7fe 263d
000000e0: eb09 923d 9da1 473e bc4e 09be 19c0 ab3e
000000f0: 1bff a13e 059f c73e a784 9cbd 7a2e 2ebc
00000100: f25d c23d a264 143e 303d 483e 726c 5a3e
00000110: 32cc d4ba aa37 843e 6a06 033e f746 3f3d
00000120: cc42 013d 98dd aa3e 2cd6 fe3d 06aa 253e
00000130: 19c7 6ebc e5d6 9c3c 1428 833b 6bde e33d
00000140: 8f69 53bb 1a3b ca3d 2ff7 babc a7cd 6c3d
00000150: c740 7c3e eb16 33bd 1d7e 7fbd 4da7 4ebe
00000160: 8cfe 63bd f70f 013e 0cde 963c 57e1 f5be
00000170: baa1 0b3e c55b 12be 414a bd3e b82e 843d
00000180: b53d e43e e64f e73d 9422 373e 6e14 1a3d
00000190: d148 0cbf 8d37 743e 0f89 1b3f e422 0a3f
000001a0: bfb0 ae3c 5292 fa3e bad8 b63d 6a6e f7be
000001b0: a19d 823d 0a05 213e c141 3ebd a178 0c3e
000001c0: 239c 633e 1291 9d3e 2ae1 cc3e 62c2 87be
000001d0: d7d4 1f3e 11bb 023d e8e9 9d3e 81bf 6d3e
000001e0: 9b15 4d3e 7d37 2d3e 9afa 513e 571a 883c
000001f0: 68b3 953d d88b 54be d6b4 d03d 64c4 e53d
00000200: 5ff3 f53d 99c9 edbd a61f c53e cb1f 20bc
00000210: 94e7 843e c168 983d 7f26 083e 71ab 26be
00000220: ca49 d63d e7ad d63e 928d b7bd baf2 d93e
00000230: 9306 c7be 75bb c7bd 69a0 873e b050 af3c
00000240: e269 7abe d661 503e a06e 063d 63e0 953e
00000250: 3135 563e ab72 183f 0f56 d1bd 6204 b23e
00000260: a13d d13d a481 28bf 11ba 133e 0999 163f
00000270: d382 f43e 3f5d 1a3e 06b6 fb3e ea22 993c
00000280: a460 b1be a634 3ebb 2414 b93c 8ea5 ae3c
00000290: f7f8 96bf 7896 a83a 0b0e 2bbf 3466 2d3e
000002a0: a657 c03c 6f3f 753e 09d6 3bbb 9c2a 9fbf
000002b0: 1c31 a93d 68ca 533e f910 283e 319f 483e
000002c0: d367 993d 1487 58be 14d2 323e c069 ec3d
000002d0: 9606 983d 1353 9dbd 1a0b 893e 8e68 40be
000002e0: 5155 a03e 7b14 103e 0722 92bd 3a6b 6b3c
000002f0: cacd 1cbe a11b d9be 5c41 c9bd d413 993e
00000300: 68e0 81bd f3d3 103f ad43 0dbe 63bd 603e
00000310: 33f2 88bc 8919 a2be b5f6 79bc b40d 12bf
00000320: 2f34 743e e8d9 3a3e 742b bc3e 8bf6 873b
00000330: 6b31 8c3d be56 1c3e 8fa3 e8be 361b 3ebd
00000340: 9981 4d3e a60f 56be 3f88 883d e27f e33c
00000350: 3d41 06bd 242f 6bbf 42f9 2d3e 328e fcbe
00000360: 7253 b13e 1686 aabe 1f10 133f 29b2 673f
00000370: fa3a 3b3f 236b 8cbe b567 96bd 2dc6 dd3d
00000380: 0479 bc3e 01a6 da3e 8c16 a73e 3246 023e
00000390: 70bd 633e 7558 2c3e 9fc1 1bbf 6e3b c73e
000003a0: 48cd d43e 2195 743d ce78 133e 9326 c33d
000003b0: bf84 c6be af0c c8bd 893a e13d 1acb 3dbd
000003c0: b724 823f b6bd 783e eaea 323f 4d00 dd3e
000003d0: eeaf 93be d7d5 debe 18dc 7fbd 54c0 8dbd
000003e0: 97c3 15be e4ec 54bd 4c31 1ebf d2fc 873e
000003f0: 62b6 24be 4191 863e ccf8 afbe 73c8 bb3e

l5.bias f4 [85]
0.21132353 1.064551 1.3014385 0.95597655 0.5600327 0.22287291 -0.27347472 0.19211726
0.7751776 0.10699622 1.3546562 0.14318292 -0.033607293 0.48767978 0.52313495 -0.22205976
0.38869482 1.263935 0.9557286 -0.029211232 1.2288419 -0.42789468 1.228507 0.5684202
1.3732876 -0.05108142 -0.0281027 0.2890604 -0.5627065 -0.18500325 0.4410409 -0.33043724
1.1311513 0.54183966 0.01748812 0.3159223 0.92082167 0.94774806 0.03404325 0.94909066
1.1884614 0.12302069 0.24382383 1.1912875 -0.17405 1.3357475 0.3648714 0.47810403
0.05159985 -0.3495985 1.4125098 0.5861322 0.3652716 0.9208595 0.64727837 1.3504884
1.2943703 1.5497861 1.024944 -0.113456905 0.8526435 0.43828556 1.3577328 -0.76444507
0.013307733 0.71419805 0.44678232 0.07603776 0.2516244 -0.046491027 -0.053158898 1.1049433
-0.10245219 0.18703847 1.2675176 -0.31892732 0.81527686 0.74607855 0.102196224 0.65586156
-0.15524961 0.10091917 0.12398974 1.0394595 0.75018376
00000000: 3265 583e 3543 883f 8995 a63f e1ba 743f
00000010: 4e5e 0f3f cc38 643e e104 8cbe 63ba 443e
00000020: 0a72 463f d620 db3d 6065 ad3f 8b9e 123e
00000030: cda7 09bd 2ab1 f93e 2cec 053f a263 63be
00000040: 0203 c73e 9fc8 a13f a1aa 743f 654c efbc
00000050: b14a 9d3f 0315 dbbe b83f 9d3f fc83 113f
00000060: e3c7 af3f c03a 51bd a237 e6bc baff 933e
00000070: 880d 10bf 7e71 3dbe 1dd0 e13e 122f a9be
00000080: 91c9 903f 01b6 0a3f 3f43 8f3c 91c0 a13e
00000090: f8ba 6b3f 9e9f 723f ef70 0b3d 9bf7 723f
000000a0: 811f 983f 46f2 fb3d f4ac 793e 1c7c 983f
000000b0: 2a3a 32be c6f9 aa3f 6dd0 ba3e 0dca f43e
000000c0: 5d5a 533d 93fe b2be 1fcd b43f c30c 163f
000000d0: e104 bb3e 73bd 6b3f 09b4 253f cedc ac3f
000000e0: edad a53f 645f c63f 5d31 833f 185c e8bd
000000f0: d846 5a3f f766 e03e 30ca ad3f acb2 43bf
00000100: ae08 5a3c afd5 363f a7c0 e43e afb9 9b3d
00000110: ead4 803e 606d 3ebd 25bd 59bd c86e 8d3f
00000120: 74d2 d1bd 0387 3f3e 043e a23f 714a a3be
00000130: fcb5 503f 01ff 3e3f 414c d13d 8be6 273f
00000140: c1f9 1ebe b6ae ce3d 55ee fd3d 020d 853f
00000150: 0b0c 403f

l6.weight f4 [3, 85]
-0.5712349 -0.32622036 -0.30706516 -0.13538851 -0.49261627 -0.4375468 -0.10718921 -0.70177543
0.4096975 0.4877204 -0.1519749 0.013549701 0.60793245 -0.20536008 -0.13924277 0.7640889
-0.2986335 -0.2824868 -0.38181192 -0.6075857 -0.14257696 -0.53446865 -0.24675834 -0.07637737
-0.29838532 -0.44687074 0.089836694 0.20467861 0.6158487 0.042139545 0.8649725 0.03504823
-0.09491634 -0.031813357 -1.3359923 0.2693193 0.8937007 -0.083730556 -0.030150551 -0.53294724
-0.26300415 -0.012672062 0.24898128 -0.2052434 -0.69242275 -0.26436642 1.3701782 -0.21641868
0.0964339 0.08688316 -0.20830731 -0.2575223 0.12043499 -0.21190222 0.3854407 -0.2027404
-0.26987877 0.63737184 -0.44553363 0.15245701 0.16389346 0.35210192 -0.118793644 1.5481975
0.038589284 0.074080795 -0.19118701 -0.0045526377 -1.294847 0.9313176 -0.4258446 0.7273943
0.79758424 0.5919465 -0.19837411 -0.15011308 -0.1135452 -0.0045836195 -0.13065292 -0.05204465
-0.032539252 0.22765674 -0.24913281 -0.0060095424 0.030813185 0.009061093 -0.1812997 -0.2578672
-0.24599089 0.23005669 0.9328452 0.33427805 0.13506716 0.48003235 -0.3435915 -0.2965489
-0.101300836 -0.28008294 0.03845327 -0.036694035 -0.27343827 0.14833005 -0.24265538 -0.07037649
0.437736 -0.33756322 -0.31077605 -0.35877684 -0.06832846 -0.28110602 0.2698723 0.0068166177
0.77311075 -0.51035076 0.0028615324 -0.41277462 0.17999679 -0.2489029 -0.09082835 0.77842814
-0.16678482 0.21307676 -0.12019258 0.05070338 0.095250405 0.017197689 -0.22588404 0.2720355
-0.3208258 0.5329787 -0.18103015 0.5312189 0.08389199 -0.15434545 0.064540856 -0.28823507
0.029565167 -0.2836887 -0.19974157 0.5992139 -0.4788732 -0.20558535 0.19641304 -0.03847904
-0.12803335 0.8232001 0.55833733 -0.13248172 -0.20961988 -0.043618757 -0.3525005 0.06564956
-0.029844329 0.6261057 1.1126233 -0.28461453 -0.022906648 0.31492573 -0.4634507 -0.37758455
-0.30746222 -0.12773857 -0.3129772 1.2623984 -0.14428478 0.043269813 -1.4295826 0.35927698
-0.53983194 -0.41045728 1.2076596 0.023580113 0.12537536 -0.21316265 -0.0041898214 0.057376575
-0.34321526 0.62161094 0.9575509 0.094555 -0.072818644 -0.3152609 -0.42094576 -0.2170626
-0.2866441 0.91730744 -0.26303777 0.015863365 -0.13871033 0.06510284 0.0861298 0.94262207
0.11297288 -0.31366614 -0.06934558 0.77841616 -0.13501322 0.47776312 0.03760823 -0.025883159
0.28535286 -0.4800227 -0.0047925315 -0.26104796 0.098082036 0.289228 0.4660394 -0.1832934
-0.3503336 0.10370199 -0.09899009 0.3147195 0.9665415 0.090228796 0.46589395 -0.07268162
0.93802035 -0.2733797 -0.40488562 -0.38197127 -0.11497263 -0.2553149 -0.34932318 0.4258676
-0.24054192 0.12960483 -0.14308727 0.6932849 -0.03320083 -0.36571914 0.03304605 -0.6844055
-0.08691418 -0.4484121 -0.4132816 -0.14123991 -0.26609865 0.04711896 0.4725008 -0.66583824
0.5934108 -0.11247883 0.6466877 0.22420944 0.03167442 1.695336 -0.23944873 -0.108744994
-0.56492877 -0.2798131 0.02276698 0.36006406 -0.29693124 0.15622833 -0.057017624
00000000: 733c 12bf 5b06 a7be a537 9dbe 49a3 0abe
00000010: 3338 fcbe 2206 e0be 0486 dbbd 8ea7 33bf
00000020: dfc3 d13e 7db6 f93e 4f9f 1bbe 91ff 5d3c
00000030: 76a1 1b3f ea49 52be a895 0ebe 559b 433f
00000040: 7de6 98be 1ca2 90be da7c c3be bd8a 1bbf
00000050: b2ff 11be f0d2 08bf 38ae 7cbe bd6b 9cbd
00000060: f6c5 98be 3ecc e4be 4dfc b73d 4597 513e
00000070: 43a8 1d3f 849a 2c3d d66e 5d3f bc8e 0f3d
00000080: 8063 c2bd b94e 02bd cc01 abbf 38e4 893e
00000090: 92c9 643f ed7a abbd 4afe f6bc 3b6f 08bf
000000a0: 7ba8 86be 7b9e 4fbc f3f4 7e3e 532b 52be
000000b0: 9e42 31bf 095b 87be 0062 af3f dc9c 5dbe
000000c0: 237f c53d ccef b13d 834e 55be f7d9 83be
000000d0: 9fa6 f63d e5fc 58be 7c58 c53e 2e9b 4fbe
000000e0: 8d2d 8abe cd2a 233f fc1c e4be b11d 1c3e
000000f0: b0d3 273e b446 b43e 154a f3bd 562b c63f
00000100: cc0f 1e3d acb7 973d 87c6 43be 4b2e 95bb
00000110: 8cbd a5bf d56a 6e3f 4e08 dabe 8336 3a3f
00000120: 7b2e 4c3f ce89 173f 9522 4bbe 3eb7 19be
00000130: 638a e8bd 3032 96bb e1c9 05be c52c 55bd
00000140: e147 05bd d91e 693e ac1c 7fbe b2eb c4bb
00000150: ef6b fc3c fb74 143c a1a6 39be 2b07 84be
00000160: 09e5 7bbe fb93 6b3e f1ce 6e3f 7e26 ab3e
00000170: 0c4f 0a3e cdc6 f53e 3aeb afbe 42d5 97be
00000180: d076 cfbd 0867 8fbe 2d81 1d3d 7c4c 16bd
00000190: 1a00 8cbe d5e3 173e a77a 78be 8d21 90bd
000001a0: ef1e e03e 16d5 acbe 0a1e 9fbe 99b1 b7be
000001b0: cbef 8bbd 21ed 8fbe b42c 8a3e ef5d df3b
000001c0: 96ea 453f 59a6 02bf 8c88 3b3b 3257 d3be
000001d0: 1451 383e 67e0 7ebe 3704 babd 1147 473f
000001e0: a4c9 2abe cb30 5a3e 8727 f6bd 59ae 4f3d
000001f0: a512 c33d 2be2 8c3c 254e 67be 3d48 8b3e
00000200: 4743 a4be 4b71 083f f85f 39be f6fd 073f
00000210: 90cf ab3d bc0c 1ebe ff2d 843d 8c93 93be
00000220: a632 f23c a53f 91be 0e89 4cbe 1566 193f
00000230: de2e f5be f784 52be 8020 493e 339c 1dbd
00000240: 2d1b 03be 3ebd 523f 32ef 0e3f 4aa9 07be
00000250: 98a6 56be 95a9 32bd f27a b4be 4773 863d
00000260: 187c f4bc 7748 203f 716a 8e3f ffb8 91be
00000270: b9a6 bbbc f23d a13e 6949 edbe c352 c1be
00000280: b06b 9dbe e6cd 02be 8c3e a0be 4596 a13f
00000290: 64bf 13be b03b 313d 90fc b6bf 27f3 b73e
000002a0: 6d32 0abf 7527 d2be 9794 9a3f 152b c13c
000002b0: 6662 003e 4f47 5abe c54a 89bb b303 6b3d
000002c0: e9b9 afbe e521 1f3f 0e22 753f 0da6 c13d
000002d0: f121 95bd e069 a1be 3486 d7be a945 5ebe
000002e0: 04c3 92be a9d4 6a3f e3ac 86be e3f3 813c
000002f0: 150a 0ebe a354 853d d264 b03d ae4f 713f
00000300: 535e e73d d998 a0be 0e05 8ebd 4846 473f
00000310: e840 0abe 5e9d f43e 160b 1a3d eb08 d4bc
00000320: c519 923e 89c5 f5be ab0a 9dbb 14a8 85be
00000330: 3cdf c83d b115 943e b79c ee3e 44b1 3bbe
00000340: ed5e b3be b561 d43d 51bb cabd ea22 a13e
00000350: 446f 773f e0c9 b83d a789 ee3e 1ada 94bd
00000360: 1a22 703f 6df8 8bbe 2b4d cfbe bd91 c3be
00000370: c576 ebbd a2b8 82be 7dda b2be 510b da3e
00000380: 9f50 76be 21b7 043e 7885 12be 1f7b 313f
00000390: 98fd 07bd 8a3f bbbe 4c5b 073d 3335 2fbf
000003a0: 1000 b2bd 4596 e5be a599 d3be 32a1 10be
000003b0: 153e 88be d0ff 403d a0eb f13e 6074 2abf
000003c0: c5e9 173f 4d5b e6bd 538d 253f 2997 653e
000003d0: 09bd 013d c500 d93f 0c32 75be b2b5 debd
000003e0: 2c9f 10bf aa43 8fbe d181 ba3c 515a b83e
000003f0: 5f07 98be 52fa 1f3e 508b 69bd

l6.bias f4 [3]
-0.7286347 -0.83908004 -0.11832744
00000000: ce87 3abf f3cd 56bf a855 f2bd
