models/Others/model_ReLU_DDNN.pt (torch, 127233 bytes, 12 tensors)

l1.weight f4 [189, 9]
0	0xbb3eb5e1	-0.0029100107
1	0x3f6a0649	0.9141584
2	0x3eb5e031	0.35522607
3	0x3f3fef5e	0.7497462
4	0xbf552693	-0.83261985
5	0x401f2ff5	2.487302
6	0x3f16eff2	0.5895988
7	0xbd975c32	-0.07390632
8	0x3dc0aa7c	0.09407517
9	0xbaba0f89	-0.0014195304
10	0x4038032f	2.8751943
11	0xbf509bc6	-0.8148769
12	0xbe135d69	-0.14391102
13	0xbfc16def	-1.5111674
14	0xc00e53e8	-2.2238712
15	0xbef3f3ef	-0.47647044
16	0xbe5665dd	-0.20937295
17	0x3e38eeff	0.1805992
18	0x3c88985f	0.016674219
19	0x3ded8ae4	0.11598757
20	0x3efcdab5	0.4938561
21	0xbfbece59	-1.4906722
22	0x3f7407e3	0.95324534
23	0x3dd15884	0.10221961
24	0x3f5f8b40	0.87321854
25	0xbfab8bcf	-1.3402041
26	0xbf494afa	-0.7863003
27	0x3c1ea3d7	0.009682617
28	0xbe942b8f	-0.28939483
29	0x401e54cd	2.4739258
30	0xbe6b5fde	-0.22985789
31	0x3d8ec177	0.06970494
32	0x3f15d7f0	0.5853262
33	0xbee3c916	-0.44489354
34	0x3fef97b0	1.8718166
35	0x3db88661	0.09010006
36	0xb9a64279	-0.00031711513
37	0x3e927278	0.28602958
38	0x3eca1820	0.3947153
39	0x3efa2c72	0.48862034
40	0x3fe4415a	1.7832444
41	0xc025f52c	-2.593089
42	0xbf878d3e	-1.0589979
43	0xbfbda82c	-1.4816947
44	0xbebccfdd	-0.36877337
45	0xbc58508a	-0.013202796
46	0x3da01ffe	0.07818602
47	0x3f8c5a23	1.0965008
48	0xbef37ac5	-0.47554603
49	0xbf75996e	-0.9593724
50	0x3fcbb58a	1.5914776
51	0xc03fc635	-2.9964726
52	0xbf127ed3	-0.5722477
53	0x3e98141b	0.2970284
54	0x3b8f712f	0.004377506
55	0xbfe1941f	-1.7623328
56	0x3f193e17	0.59860367
57	0x3ed80e20	0.42198277
58	0xc010f9f2	-2.2652555
59	0x3f6703a9	0.9023996
60	0x3fcaad2c	1.5834098
61	0xc01227f8	-2.2836895
62	0x3f119813	0.5687267
63	0x3c0ee7d8	0.008722268
64	0xbf9a7fe6	-1.2070282
65	0x3fbcd16d	1.4751412
66	0x3eb1e222	0.34742838
67	0xbee55934	-0.4479462
68	0xbfcd02f7	-1.601653
69	0xbf262219	-0.6489578
70	0x3f8986eb	1.0744299
71	0xbf933c43	-1.1502765
72	0x3a950f62	0.0011372382
73	0x407d08d6	3.9536643
74	0xbea7a937	-0.32746288
75	0xbcd05aec	-0.02543398
76	0x3f2384d9	0.63874584
77	0xbf66daa4	-0.9017737
78	0xbf6517d5	-0.8948949
79	0xc0460efe	-3.094665
80	0xbda2c4ae	-0.0794767
81	0xbba45127	-0.005014557
82	0xbe2cde4a	-0.16881672
83	0xbf3881c2	-0.72072995
84	0xbf31fd23	-0.6952688
85	0x3e551fce	0.20812914
86	0x40809921	4.0186925
87	0xbeb5058a	-0.35355788
88	0xbed26aeb	-0.41097197
89	0xbeb1a701	-0.34697726
90	0xbaaa849f	-0.0013009495
91	0x3f030179	0.5117412
92	0x403d0fdb	2.9540927
93	0x3ea60fcc	0.32433927
94	0xbfd537b3	-1.6657623
95	0x3eaec51d	0.3413476
96	0x3ee372e2	0.44423586
97	0x3e756f15	0.23968156
98	0xbf10d967	-0.5658173
99	0x3b111f15	0.002214377
100	0x3ea5356e	0.32267326
101	0xbfbfaf56	-1.4975383
102	0xbbe414b5	-0.0069604763
103	0x3f45b0fa	0.7722317
104	0x3f088709	0.5333105
105	0x3ec6ef09	0.38854244
106	0x3fbb7ac0	1.4646835
107	0x3f9db075	1.2319475
108	0x3c64da20	0.013968021
109	0x3fda53fc	1.705688
110	0xbf9e75ae	-1.2379663
111	0xbf6aaf22	-0.9167348
112	0x3ec38492	0.3818708
113	0xbf059b44	-0.5219004
114	0xbf96c299	-1.1778136
115	0xc05df424	-3.4680262
116	0xbd5013cb	-0.050800126
117	0x3b1dce5d	0.00240793
118	0x3e1bdb43	0.1522036
119	0xbfeae22b	-1.8350271
120	0xbcc6c464	-0.024263568
121	0x3f46574c	0.77476954
122	0x3e81a9a9	0.25324753
123	0x3f0f048a	0.558663
124	0xbf9accbd	-1.2093731
125	0x3eb1d273	0.34730873
126	0x3c7fe958	0.015619598
127	0xbfab6cb9	-1.3392555
128	0xbf5f5ca7	-0.8725075
129	0xbf0f010a	-0.5586096
130	0x3f80edb5	1.0072542
131	0xbfdfd5da	-1.7487137
132	0x400ca83e	2.1977687
133	0x3f10db4a	0.5658461
134	0x3f4237da	0.7586647
135	0x3b612d07	0.0034359114
136	0x3f5871f4	0.8454888
137	0x400f70a6	2.2412505
138	0x3f82e7cf	1.0226992
139	0xbee33e54	-0.4438349
140	0xc0294055	-2.6445515
141	0xbf855077	-1.0415181
142	0x3f44e208	0.76907396
143	0xbf5fa96a	-0.8736788
144	0x3b8b136c	0.0042442586
145	0xbeb706c3	-0.35747346
146	0xc092f662	-4.592576
147	0x3e857efe	0.2607345
148	0xbdbfc0dc	-0.09362957
149	0x401f43e3	2.4885185
150	0x3e825cbf	0.25461385
151	0xbf1ad1f6	-0.60476625
152	0x3ef255d7	0.47331116
153	0x3bdea770	0.0067948624
154	0xbf8a4517	-1.0802335
155	0xbf0045b5	-0.50106364
156	0xbe1748f1	-0.14773919
157	0x3fea005b	1.8281358
158	0xbf8a8842	-1.0822833
159	0x3f242e96	0.64133584
160	0xc0009c0d	-2.0095246
161	0x3e58f19a	0.21185914
162	0xbb59ac46	-0.0033214255
163	0xbf52b36b	-0.8230502
164	0xbf3ccde0	-0.7375164
165	0x3e79bb24	0.24387795
166	0x400b513a	2.1768327
167	0xc04eb7a2	-3.229958
168	0xbe7ac9c9	-0.24491037
169	0xbec49311	-0.38393453
170	0x3f3237a5	0.69616157
171	0xbb029dfd	-0.0019930594
172	0xbf503b5a	-0.81340563
173	0xbfa0c776	-1.2560871
174	0xbdbaa08b	-0.091126524
175	0xbf4223ae	-0.7583569
176	0x3e91450f	0.28373
177	0xbee02e44	-0.43785298
178	0xbfaa56a7	-1.3307694
179	0xbdfe63e7	-0.124213986
180	0x3ae495b8	0.0017439639
181	0xbf252b7a	-0.64519465
182	0xbdded82a	-0.10881074
183	0xbc4aa5c6	-0.012368625
184	0xc06a43c8	-3.660387
185	0x40716c37	3.77223
186	0xbe22c863	-0.15896754
187	0x3e0bc7b9	0.13650407
188	0x3e6734d1	0.22578742
189	0xbb2c5120	-0.0026293471
190	0xbf5d05b7	-0.86336845
191	0xbf058e5b	-0.5217034
192	0xbc6feca2	-0.01464382
193	0xbf4535ea	-0.7703539
194	0x3fced307	1.615815
195	0x3f92c285	1.1465613
196	0xc0041257	-2.0636194
197	0xbede3a45	-0.4340383
198	0x3d2d4413	0.04230125
199	0xbf813fe6	-1.0097625
200	0x3cdea92c	0.027180277
201	0x3e9520fe	0.29126734
202	0x3dca94f2	0.0989169
203	0x40063869	2.097193
204	0xbec7d7a6	-0.39031714
205	0xc0128905	-2.289613
206	0xbe4f4c6a	-0.20243993
207	0x3c6a28a0	0.014291912
208	0xbfaf5922	-1.3699076
209	0xbf8ab6b8	-1.0837011
210	0x3f000dd7	0.5002112
211	0x3ef3c4f3	0.47611198
212	0x3eb19bc7	0.3468916
213	0x40169f1f	2.353462
214	0x3f114d48	0.56758547
215	0x3fa517a3	1.2897838
216	0xbca04571	-0.019564362
217	0x401094c2	2.2590795
218	0xc00aa3cb	-2.1662471
219	0xbf73bb34	-0.95207524
220	0x3da36c92	0.079796925
221	0x3fb3f606	1.4059455
222	0xbf0a6127	-0.5405449
223	0xbfd1975e	-1.6374319
224	0xbe7b46bd	-0.24538703
225	0x3bc9431d	0.0061420337
226	0x3fd388cf	1.6526126
227	0xbff0c3c8	-1.8809748
228	0xbd1e00dc	-0.03857504
229	0xbf42e64f	-0.76132673
230	0xbfe49f1c	-1.7861056
231	0x3ea0ae91	0.31383184
232	0x3f6e6ca8	0.93134546
233	0xbf0c7ee9	-0.5488115
234	0x3bf954fe	0.007609009
235	0xbeeb9d45	-0.46018425
236	0xbea65b3b	-0.32491478
237	0xbe812e84	-0.252308
238	0x405bbb56	3.433309
239	0xbfad4f58	-1.3539839
240	0x3f905718	1.1276579
241	0xbf5aefb0	-0.85521984
242	0x3ea0c103	0.31397256
243	0xbbd8a4e6	-0.0066114543
244	0x3f2fe2fb	0.6870572
245	0x403466ee	2.8187823
246	0xbf3bdb13	-0.73381156
247	0xbfe61db7	-1.7977818
248	0xbfbbdc61	-1.4676629
249	0xbd367882	-0.04454852
250	0x3f417ae1	0.75578123
251	0xbf6046d7	-0.87608093
252	0xbb154700	-0.0022777915
253	0x402453d4	2.5676165
254	0xbeea0221	-0.4570475
255	0xbe9f9562	-0.31168658

l1.bias f4 [189]
0	0xc003f363	-2.0617301
1	0x3f974e2f	1.1820735
2	0xc016069f	-2.3441541
3	0xbf7f61c8	-0.9975858
4	0x3fca14cf	1.57876
5	0x3f7dba9c	0.9911287
6	0x3fbe4227	1.4863938
7	0x3fbd91fa	1.4810174
8	0xbf21032f	-0.6289548
9	0xc012d9a4	-2.2945337
10	0xbfa13c9e	-1.2596624
11	0x4008174c	2.126422
12	0x3f91d471	1.1392957
13	0x3fb610fd	1.4223934
14	0x3f7a4e42	0.9777566
15	0xbf115a82	-0.5677873
16	0x3e3fcb82	0.18729976
17	0x3fbd66a8	1.4796953
18	0x3f631b5d	0.8871363
19	0x3fd818d7	1.688258
20	0xbf750621	-0.95712477
21	0x3fc6eb3c	1.5540538
22	0xbfa8a296	-1.3174617
23	0xbf57598b	-0.84121007
24	0xbf970307	-1.1797799
25	0x3fb5a1fc	1.4190059
26	0xbf92ddc8	-1.1473932
27	0x3dac53f3	0.084144495
28	0x3fa038fb	1.2517389
29	0x3f71fde7	0.9452805
30	0xbf934c8a	-1.1507733
31	0x3fc8ad72	1.5677931
32	0x40075c72	2.1150174
33	0xbd5b5b56	-0.0535539
34	0x3e56bcf6	0.2097052
35	0x3fe13e39	1.7597114
36	0xbfe6b656	-1.8024395
37	0x3d2e4946	0.042550348
38	0xc0078150	-2.1172676
39	0xc0122253	-2.283345
40	0x400e69be	2.225204
41	0x3ec0b186	0.3763544
42	0xbf4e867b	-0.8067395
43	0xbf03bada	-0.5145699
44	0x4004cc51	2.0749705
45	0x3fbf7fd0	1.496088
46	0x3e446345	0.19178493
47	0x3fa9b5ab	1.3258566
48	0x3f1735e0	0.5906658
49	0x3c76c6a5	0.015062009
50	0xbd8dc0d2	-0.06921543
51	0x3fae9538	1.3639288
52	0x3efcc0ef	0.49365947
53	0x3f23b3f0	0.6394644
54	0x3ecd2a5e	0.40071386
55	0x3fce373b	1.6110605
56	0x3ea5767a	0.32316953
57	0x3f10d22c	0.56570697
58	0xc01b773f	-2.4291532
59	0x3fe7f393	1.8121208
60	0xbeaf757a	-0.34269315
61	0xbfa272cd	-1.2691284
62	0x3fd1b1a7	1.638234
63	0xbf03adcc	-0.5143707
64	0xbeb441cf	-0.35206458
65	0xbcfeb6c0	-0.031093001
66	0xbf419212	-0.7561351
67	0x3f90249c	1.1261172
68	0x3f51dfd4	0.8198216
69	0x3fd3202f	1.6494197
70	0xbf6b03b0	-0.918025
71	0xbf46e8b7	-0.77698845
72	0xbf23b7db	-0.63952416
73	0x3e12aa73	0.14322834
74	0xbfb12481	-1.3839265
75	0x3f77faa9	0.9686685
76	0x3f13cd30	0.57734966
77	0x3f80b762	1.0055964
78	0x3f33b074	0.7019112
79	0xbf63375a	-0.88756335
80	0x3f98bcb2	1.1932585
81	0xbf217701	-0.6307221
82	0x3f843929	1.0329944
83	0x3fba2ff3	1.4545883
84	0x3f94e6fd	1.1632992
85	0x3f0b7b7d	0.54485303
86	0x3f9932f2	1.1968672
87	0xbf0c21fa	-0.54739344
88	0x3ea3a0af	0.3195853
89	0x3ff6cd6b	1.9281439
90	0x3fe19ed6	1.7626598
91	0xc0098b28	-2.1491184
92	0x3f29c111	0.6631022
93	0xbfe206f3	-1.7658371
94	0x3f97f083	1.1870273
95	0x3eead1f6	0.45863312
96	0xbf035df1	-0.5131522
97	0x3fffc2f8	1.9981375
98	0xbff98fb1	-1.9496976
99	0x3ea4e6d9	0.32207373
100	0x3f378336	0.71684587
101	0x40002e0a	2.00281
102	0x3f808a48	1.00422
103	0xbf6db090	-0.9284754
104	0xbfe993f3	-1.8248276
105	0xbf56621d	-0.8374346
106	0xbf9ad5bc	-1.2096477
107	0xbf704d04	-0.93867517
108	0x3facce45	1.3500448
109	0x3f4ba549	0.7954908
110	0x3ebec669	0.3726075
111	0x3fb1277d	1.3840176
112	0xbfdf1b0f	-1.7430133
113	0xbf4e2931	-0.80531603
114	0xbea1b9df	-0.3158712
115	0x3fb87b72	1.4412673
116	0x3fae071a	1.3595917
117	0x3e83a8c1	0.25714687
118	0x3fd54762	1.6662409
119	0xbfcb12c2	-1.58651
120	0x3feb6c35	1.8392397
121	0xc020d346	-2.512895
122	0xbe37a1cf	-0.17932819
123	0x3f8d3c99	1.1034118
124	0xbfbad8f0	-1.4597454
125	0xbe5d4455	-0.21608098
126	0x3fc1ead0	1.5149784
127	0x3f348795	0.7051938
128	0x3ff2c7bc	1.8967204
129	0x3fda20ba	1.7041237
130	0x3fac1594	1.3444085
131	0xbefabf6b	-0.48974165
132	0x3eab59ec	0.33467042
133	0x3f9fd028	1.2485399
134	0xbef22aae	-0.47298187
135	0x3f928c13	1.1448997
136	0x3fbef089	1.4917156
137	0xbf921210	-1.1411762
138	0xbf6d6255	-0.9272817
139	0x3caaec4e	0.020864632
140	0xc00c0194	-2.1875963
141	0x3fdfe002	1.7490237
142	0xbf0fff4f	-0.56248945
143	0xbea0e461	-0.3142424
144	0xbfa42a48	-1.2825403
145	0xbf411341	-0.75420004
146	0xbdb10dc1	-0.086452015
147	0x3f805771	1.0026685
148	0xbe1bf88f	-0.15231536
149	0xbfdcfd96	-1.7264888
150	0x3fdfc744	1.7482686
151	0x4003fa94	2.062169
152	0xbcd202e1	-0.025636138
153	0xbf0b841a	-0.54498446
154	0x3fa29639	1.2702094
155	0xbfb24b5b	-1.3929247
156	0x3f7b9a54	0.9828236
157	0x3f3b6aab	0.7320964
158	0xbe1fe2e5	-0.15613897
159	0xbe243803	-0.16036992
160	0x3fb2e0cf	1.3974856
161	0xbdc1f983	-0.09471419
162	0xc0002603	-2.00232
163	0xc00c42e1	-2.191582
164	0xbf3e40b1	-0.7431746
165	0x3fcf1370	1.6177807
166	0x3ddc1ede	0.10748075
167	0x3ff5a361	1.9190484
168	0x400c348e	2.1907077
169	0xbfcbe4e5	-1.5929228
170	0x3fbc6e72	1.4721205
171	0x400294c9	2.0403311
172	0xbed849fd	-0.4224395
173	0x3f629bbc	0.8851888
174	0x3ffdbc8e	1.9823167
175	0x3e9c6aca	0.30550224
176	0x3cca2119	0.024673985
177	0xbf94f1fc	-1.1636348
178	0x3feac801	1.8342286
179	0xbed3cc6b	-0.41366896
180	0x3f53e9d3	0.8277866
181	0xbfe67efb	-1.8007501
182	0xbf6aa1e9	-0.91653305
183	0x3f831498	1.024066
184	0xbf83e8d7	-1.0305432
185	0x3f613c9a	0.87983096
186	0xbfc11a1c	-1.5086093
187	0xbfcda5fb	-1.6066278
188	0x3eb28760	0.34868908

l2.weight f4 [119, 189]
0	0xbdd0f908	-0.10203749
1	0xbed94d49	-0.42441776
2	0xbf2b6b3b	-0.66960496
3	0xbe152104	-0.14563376
4	0xbceffbeb	-0.029294929
5	0x3d0a700b	0.03379826
6	0x3f1543ce	0.58306587
7	0x3e14fb8f	0.14549087
8	0x3edb68fe	0.4285354
9	0xbe8b2074	-0.27173197
10	0x3e28b4cc	0.16475219
11	0x3e8046b6	0.25053948
12	0x3dc8a2a9	0.0979665
13	0x3da1c560	0.078989744
14	0x3e1050e6	0.1409336
15	0xbe98bd6a	-0.2983201
16	0x3e7550cd	0.23956604
17	0x3e29a443	0.16566567
18	0x3ee4373b	0.44573388
19	0x3db62baa	0.08895047
20	0x3fad06fa	1.3517754
21	0x3d03eb9b	0.032207113
22	0xbba87ba2	-0.0051416913
23	0x3e311925	0.17294748
24	0xbe396748	-0.18105805
25	0x3a608f03	0.0008566232
26	0xbd830ada	-0.06398554
27	0xbe27eff4	-0.16400129
28	0xbc85b47d	-0.016321415
29	0x3bad9208	0.0052969493
30	0xbe40c8eb	-0.18826644
31	0x3d3d51c1	0.046220545
32	0x3e8f44b0	0.27982092
33	0x3cd30a90	0.025761873
34	0xbe4745c6	-0.1946021
35	0xbf1fab48	-0.6237073
36	0xbe44ca51	-0.19217803
37	0xbe26dc8a	-0.16295066
38	0x3d9cfa31	0.07664908
39	0xbf6dfbb3	-0.9296219
40	0x3ec01a61	0.37520126
41	0x3f933200	1.1499634
42	0xbf27ac04	-0.6549685
43	0xbea2a964	-0.3176986
44	0x3e95c09c	0.29248512
45	0x3ac8c048	0.0015316093
46	0x3c9b7df3	0.018980956
47	0x3e1a5da3	0.15074782
48	0x3e05fd47	0.13084899
49	0xbd8e3a0e	-0.06944667
50	0x3e1196ec	0.14217728
51	0x3b82e4a9	0.0039945436
52	0x3ebe5ee3	0.37181768
53	0xbdfe2a61	-0.12410427
54	0x3f40c9bc	0.7530782
55	0x3e87d936	0.26532906
56	0xbc559d9e	-0.013038067
57	0xbd4a730e	-0.04942613
58	0x3f6266af	0.8843793
59	0x3ca89731	0.020579906
60	0xbc476989	-0.012171158
61	0xbd9f9da1	-0.07793737
62	0xbc351ebf	-0.011054694
63	0xbe747a61	-0.23874809
64	0x3e6cd0d0	0.2312653
65	0x3e520247	0.20508681
66	0x3df165a1	0.11786962
67	0x3d9d79ae	0.07689224
68	0x3ecbad00	0.39780426
69	0x3e3085db	0.17238562
70	0x3c95cdd7	0.018286629
71	0xbde186a2	-0.11012007
72	0xbe9b85ec	-0.30375612
73	0xbe262a9d	-0.16227193
74	0xbe9e1e60	-0.3088255
75	0x3eb188c1	0.34674647
76	0xbe0aaa52	-0.13541535
77	0x3d764688	0.060125858
78	0x3db8d342	0.09024669
79	0x3f1cf683	0.6131365
80	0x3ec78482	0.38968283
81	0x3f23385b	0.63757867
82	0xbda036c6	-0.07822947
83	0xbe43f9c0	-0.19138241
84	0xbe734b52	-0.23759201
85	0xbf16bfd5	-0.5888646
86	0x3d118771	0.035529558
87	0xba63d98c	-0.000869178
88	0xbb06c3e0	-0.0020563528
89	0x3d4e563c	0.05037521
90	0x3e464928	0.19363844
91	0x3d834a4c	0.064106554
92	0x3d1ee0f1	0.03878874
93	0xbe165637	-0.14681326
94	0x3f08442f	0.5322904
95	0x3ecd234b	0.4006599
96	0xbede7476	-0.43448228
97	0x3ebe8b4e	0.37215656
98	0xbedf6c6c	-0.43637407
99	0x3d45ffe0	0.048339725
100	0xbd1576be	-0.036490194
101	0x3ea93f5e	0.33056158
102	0x3e0a7d99	0.13524474
103	0xbec93c91	-0.3930402
104	0x3eeaeb13	0.45882472
105	0x3fc90864	1.5705686
106	0xbe94e16b	-0.2907823
107	0x3d3fc330	0.046817005
108	0x3f1c9c9e	0.6117648
109	0x3f347c13	0.7050182
110	0x3ea2fc86	0.31833285
111	0xbcf0e936	-0.029408079
112	0x3e4d4779	0.20046796
113	0xbe82ee3f	-0.25572392
114	0xbda7867c	-0.08179948
115	0xbe13843e	-0.14405915
116	0x3e42ac20	0.19010973
117	0xbdeb2ae1	-0.11482788
118	0xbefa532a	-0.48891574
119	0x3c7f8f63	0.015598151
120	0x3d543103	0.051804554
121	0xbfd52603	-1.6652225
122	0x3de52741	0.11189128
123	0xbf237056	-0.63843286
124	0xbf6b148a	-0.91828215
125	0x3e12b8d1	0.14328314
126	0xbe694560	-0.2278037
127	0x3d3ff3e2	0.046863444
128	0x3e6060f0	0.21911979
129	0x3a76861e	0.00094041403
130	0xbe7f45cd	-0.2492897
131	0x3e58cacd	0.21171112
132	0x3f3879f0	0.7206106
133	0xbd9be68f	-0.07612335
134	0x3f3d5655	0.7395986
135	0x3eec9ef1	0.46215013
136	0x3d77a0c0	0.060456038
137	0xbea99fa9	-0.33129624
138	0xbc57a203	-0.013161185
139	0xbdf2d8b1	-0.11857737
140	0xbfc6a430	-1.5518856
141	0xbfa09f5b	-1.2548631
142	0xbdc2120d	-0.09476099
143	0xbe3a1f90	-0.18176103
144	0x3d80efd6	0.06295745
145	0x3e9abc69	0.3022187
146	0xbe1156e3	-0.14193301
147	0x3e9c2647	0.30497953
148	0x3e2ea8f7	0.17056642
149	0x3de8ab15	0.11360756
150	0xbe4e1e48	-0.20128739
151	0x3e9228c9	0.28546742
152	0xbe3206b8	-0.17385375
153	0xbd4d0b4b	-0.050059598
154	0xbeba91da	-0.364394
155	0x3ee14ae4	0.4400245
156	0x3f03d0d0	0.514905
157	0x3eab0832	0.3340469
158	0xbed25d8d	-0.41087
159	0xbcd65fe5	-0.026168773
160	0xbdca54e1	-0.098794706
161	0xbde4910c	-0.11160478
162	0xbe8767d1	-0.26446393
163	0x3cf8df15	0.030379811
164	0x3e500503	0.20314412
165	0x3d819eab	0.06329092
166	0xbcf4ad84	-0.029867895
167	0xbe05ceda	-0.13067189
168	0x3e01d639	0.12679376
169	0xbe06bab0	-0.13157153
170	0x3d24a4d0	0.04019624
171	0xbf36f7df	-0.7147197
172	0x3e19170f	0.14950202
173	0x3e84898c	0.2588619
174	0xbec3006b	-0.38086256
175	0x3a9b5aff	0.001185268
176	0xbe52a46d	-0.20570536
177	0x3ef69a6b	0.48164687
178	0x3dc3d583	0.095622085
179	0x3f02962d	0.510104
180	0x3f17ae36	0.592502
181	0x3e805ce4	0.2507087
182	0x3c901bb2	0.017591331
183	0x3e224612	0.15847042
184	0xbd4a61d1	-0.04940969
185	0x3ee20a82	0.44148642
186	0xbf504f4f	-0.81371015
187	0x3dde0727	0.10841208
188	0xbd0283bd	-0.031863917
189	0xbd282fa7	-0.04106107
190	0xbdb1abdb	-0.08675357
191	0xbc8a6ec5	-0.016898522
192	0xbd0ed061	-0.034866694
193	0xbd0c1dc7	-0.034208085
194	0xbd019aa0	-0.031641603
195	0x3a043aed	0.0005044181
196	0xbd552b6c	-0.052043363
197	0xbba08036	-0.0048980964
198	0xbd33772d	-0.043814827
199	0x3d25b39a	0.040454485
200	0xbcca565b	-0.02469938
201	0x3c996bca	0.018728156
202	0xbd498cc1	-0.0492065
203	0xbd750986	-0.059823535
204	0x3d29d4ab	0.04146258
205	0x3bdf6b2b	0.0068181953
206	0x3cb67e76	0.022277098
207	0x3bb7d650	0.005610265
208	0xbd1661e3	-0.036714446
209	0xbd95bc28	-0.073112786
210	0x3c282ff6	0.010265341
211	0xbd8e646f	-0.0695275
212	0xbd213c3e	-0.039364092
213	0xbda38f38	-0.07986301
214	0xbd9e051d	-0.07715819
215	0x3bb52443	0.0055280044
216	0xbcc2d2a4	-0.023782082
217	0x3a01c652	0.00049505115
218	0xbd568a30	-0.05237788
219	0xbd9502d7	-0.07275932
220	0x3d200071	0.03906292
221	0xbbc44633	-0.0059898137
222	0xbd1d9bc1	-0.038478617
223	0x3d453364	0.048144713
224	0xbd1085f9	-0.035284016
225	0xbcecaa9a	-0.028889943
226	0xbbf7e09a	-0.0075646164
227	0xbd06e1a6	-0.03293004
228	0xbdbc38ee	-0.09190546
229	0x3d1adf88	0.037810832
230	0x3cb9d7fe	0.022686
231	0x38bf375f	9.1179034e-05
232	0x3ca6747a	0.020319212
233	0xbc84bad0	-0.01620236
234	0xbc2e9b53	-0.010657149
235	0x3d0694ad	0.032856632
236	0xbd628479	-0.055302117
237	0xbc8f2954	-0.017475761
238	0x3a9404f7	0.0011292984
239	0x3cf28745	0.029605517
240	0xbd5d620a	-0.054048575
241	0xbd8035c8	-0.06260258
242	0xbd7b45cd	-0.061345864
243	0x3d059df1	0.032621328
244	0x3d344c98	0.044018358
245	0x3cb64811	0.02225116
246	0xbd91203b	-0.070862256
247	0x3d6f89fe	0.05848121
248	0x3cbd9b94	0.023145474
249	0xbd4ee380	-0.05050993
250	0xbdaabe90	-0.08337128
251	0x3d03afb7	0.032149997
252	0x3ccff632	0.02538595
253	0xbcf5042e	-0.02990922
254	0xbd9732d1	-0.07382739
255	0xbd9440bd	-0.0723891

l2.bias f4 [119]
0	0x3f8e421a	1.1113923
1	0xbd2d12f7	-0.042254414
2	0xbdbbe33b	-0.091742
3	0x3f6e77f6	0.93151796
4	0x3f982620	1.1886635
5	0x3f80a43a	1.0050118
6	0x3f691292	0.9104396
7	0x3fb72914	1.4309411
8	0x3f961884	1.1726232
9	0x3fa1e900	1.2649231
10	0x3fd8a7cd	1.6926209
11	0x3fa04976	1.2522418
12	0xbd55b387	-0.052173164
13	0x3fec22ed	1.8448159
14	0x3d40e086	0.047089122
15	0xbf21535a	-0.6301781
16	0x3f6cee75	0.92551357
17	0xbed4e92b	-0.41584143
18	0x3f9be8c2	1.2180407
19	0x3e223e9c	0.15844196
20	0x3f7147e0	0.942503
21	0x3fb0d947	1.3816308
22	0x3fddd279	1.7329856
23	0x3fea9cf1	1.8329145
24	0xbd9e27b2	-0.07722415
25	0x3f93db34	1.155127
26	0x3fa04e47	1.2523888
27	0xbd9f119f	-0.07767033
28	0x3f3f33f3	0.74688643
29	0xbd8ab43d	-0.06772659
30	0x3f88ca8f	1.0686816
31	0x3f43bbab	0.76458234
32	0x3f992745	1.1965109
33	0xbdc44cf8	-0.09584993
34	0xbc34c829	-0.01103405
35	0x3d2926d6	0.041296802
36	0x3e278ebd	0.16363044
37	0xbce5256a	-0.027971942
38	0xbdcb6fa4	-0.09933403
39	0x3ba400ec	0.0050049927
40	0x3fbdc81c	1.4826694
41	0x3ee1e501	0.4412003
42	0xbcebeda9	-0.028799849
43	0x3f952cf3	1.1654342
44	0x3fefa0c2	1.8720934
45	0x3fa023ec	1.2510962
46	0xbd05d207	-0.032671
47	0x3f8ce6ef	1.1007975
48	0x3fcb3eed	1.5878578
49	0x3f4d3774	0.8016274
50	0x3fd8ed41	1.6947404
51	0xbcfd709e	-0.03093749
52	0xbdd17b39	-0.10228581
53	0xbda23904	-0.07921031
54	0x3eb4dc8a	0.35324508
55	0x3c15071e	0.009095935
56	0x3f7529d7	0.9576697
57	0x3f7d095c	0.98842406
58	0x3f070ea1	0.52756697
59	0x3fb3bc16	1.4041774
60	0xbdbfabfc	-0.09358975
61	0x3fe74704	1.8068547
62	0xbf0e8ce4	-0.5568373
63	0x3fdde780	1.7336273
64	0x3fb386fa	1.4025567
65	0x3f8cb72a	1.0993397
66	0xbd557dce	-0.05212193
67	0x3fa272d1	1.2691289
68	0xbece1a53	-0.4025446
69	0x3f8c806d	1.0976692
70	0x3c54da1c	0.012991454
71	0x3f2858ce	0.65760505
72	0x3eba994f	0.3644509
73	0x40006c79	2.0066206
74	0x3bbc36a0	0.0057438165
75	0xbd4efa1c	-0.05053149
76	0xbb8fe4f7	-0.0043913084
77	0x3f36863d	0.7129858
78	0x3f6dbb84	0.9286425
79	0xbd8af11c	-0.06784269
80	0x3f8e89f6	1.1135852
81	0xbd4243e6	-0.047428034
82	0xbd1d8eda	-0.038466312
83	0x3f706c24	0.9391501
84	0x3fe5259d	1.7902104
85	0x3f5f021b	0.8711259
86	0x3f936155	1.1514078
87	0x3d5c04dc	0.05371557
88	0x3fd14984	1.635056
89	0x3fcd2607	1.602723
90	0x3f9bf997	1.2185544
91	0x3f941202	1.1567996
92	0x3e1bd111	0.15216471
93	0x3fbdc17f	1.4824675
94	0x3e8fdb0a	0.280968
95	0x3a016ad5	0.00049368787
96	0xbd9806a6	-0.07423143
97	0x3fa57cbc	1.2928691
98	0x3fc6fea8	1.5546465
99	0x3eeeae42	0.46617323
100	0x3c63cbad	0.013903541
101	0x3f281353	0.65654486
102	0xbf80bdcd	-1.0057923
103	0xbd55918c	-0.052140757
104	0xbd4232cc	-0.047411725
105	0x3f55d484	0.835274
106	0x3fd3d280	1.6548615
107	0x3cbef6b9	0.023311006
108	0x3fbe08d5	1.4846445
109	0xbd83a619	-0.06428165
110	0x3ca4e1af	0.020127146
111	0x3fad57aa	1.3542378
112	0x3f1e8a1f	0.61929506
113	0xbd5614eb	-0.052266043
114	0x3fdd816d	1.7305123
115	0x3fb72ddb	1.4310869
116	0xbd764861	-0.06012762
117	0x3fe7deff	1.8114928
118	0x3fc8e55f	1.5694999

l3.weight f4 [9, 119]
0	0xbd8953a0	-0.06705403
1	0x3d06847e	0.0328412
2	0x3c29c459	0.010361754
3	0xbddc74fb	-0.107645
4	0x3d78d71b	0.060752016
5	0xbdd84abc	-0.105611295
6	0x3d0e3f29	0.034728203
7	0xbbcd2316	-0.006260286
8	0xbd6af84c	-0.0573657
9	0xbdb0de2a	-0.086361244
10	0xba8c562c	-0.0010706834
11	0xbc4ae326	-0.012383258
12	0x3abdb540	0.0014473572
13	0xbd9aad16	-0.07552545
14	0xbbd0a13b	-0.0063668764
15	0xbdba74b4	-0.091042906
16	0xbd938c6c	-0.07204518
17	0xbda2a128	-0.07940894
18	0x3da449cb	0.080218874
19	0x3d456484	0.048191562
20	0xbda8d581	-0.08243848
21	0xbd5e0189	-0.054200683
22	0xbdbcff2c	-0.09228358
23	0xbd290055	-0.041260082
24	0x3c903808	0.017604843
25	0xbcf35479	-0.029703366
26	0xbda284bc	-0.07935473
27	0xbdb58aa3	-0.088643335
28	0xbd63fb95	-0.05565985
29	0xbd4f192d	-0.05056112
30	0xbdb8308e	-0.08993636
31	0xbd4c4587	-0.049870994
32	0x3d8662d3	0.06561818
33	0x3da3435f	0.079718344
34	0x3d9303af	0.07178437
35	0x3d81187f	0.063035004
36	0x3ba390a6	0.0049916087
37	0xbd76cb8c	-0.06025271
38	0xbd6587f5	-0.05603786
39	0x3d40e3ba	0.047092177
40	0x3c078c9b	0.008273269
41	0x3d89efeb	0.06735214
42	0xbca31a89	-0.019910114
43	0x3d4fc1c3	0.050721895
44	0xbdcb1d26	-0.09917669
45	0x3c9e3254	0.019311108
46	0xbdea4cc6	-0.114404246
47	0x3d346c99	0.04404888
48	0x3c05de51	0.00817068
49	0x3d3515d6	0.044210277
50	0xbd3a14ae	-0.045429878
51	0x3d04ba1e	0.032404058
52	0xbd56af3c	-0.05241321
53	0xbdacfa40	-0.08446169
54	0x3cae80c5	0.021301636
55	0x3ba15660	0.004923627
56	0x3d267265	0.04063644
57	0x3d86b1a6	0.065768525
58	0x3cc21837	0.023693187
59	0x3cbc628f	0.022996215
60	0x3cf03779	0.029323326
61	0xbcbf8111	-0.023376973
62	0xbd185378	-0.037188977
63	0xbdc95045	-0.09829763
64	0x3d8250d0	0.0636307
65	0x3d63d615	0.055624086
66	0xbd5e4c2f	-0.054271873
67	0x3bb39b2e	0.0054811453
68	0x3d9d80f7	0.07690614
69	0xbc25557d	-0.010091183
70	0x3c86d2f8	0.01645802
71	0x3d84e854	0.064896256
72	0x3b8f6ca8	0.0043769665
73	0xbd039450	-0.032123864
74	0x3ba7f787	0.005125943
75	0x3d936a45	0.07198004
76	0x3c5de3c9	0.013543078
77	0xbd281758	-0.041037887
78	0xbd33965e	-0.043844573
79	0xbd2c37c7	-0.04204538
80	0xbd673527	-0.056447174
81	0x3d8057b5	0.06266729
82	0xbdba2584	-0.09089187
83	0xbd387a77	-0.045038667
84	0xbd0cd387	-0.034381416
85	0xbd7e0d3b	-0.062024336
86	0x3ccb1889	0.024791973
87	0xbda1ad0e	-0.07894336
88	0xbca4a3d7	-0.020097656
89	0xbd8e2d30	-0.069422126
90	0x3d646291	0.055758063
91	0xbd9737c3	-0.073836826
92	0xbcc73d8a	-0.024321336
93	0x3c767b8d	0.015044105
94	0xbda65dd3	-0.08123364
95	0xbd3ea95c	-0.046548232
96	0x3d1cb9b4	0.038263038
97	0xbdc417e9	-0.09574873
98	0x3d2e652f	0.042576965
99	0xbd8c3758	-0.068464935
100	0xbc8584c8	-0.016298667
101	0xbd8a6256	-0.06757037
102	0x3da2a5e2	0.07941796
103	0xbdaab22f	-0.08334767
104	0xbd408735	-0.047003943
105	0x3d2fac02	0.04288865
106	0x3c2ab700	0.010419607
107	0xbdb6dad0	-0.08928454
108	0xbda634fa	-0.08115573
109	0x3bdc4970	0.0067226216
110	0x3d7a8bba	0.06116841
111	0x3da40d9d	0.08010409
112	0x3d5fee22	0.05467046
113	0x3ce1c8e4	0.027561612
114	0xbc8b8ebb	-0.017035833
115	0xbd825eef	-0.063657634
116	0x3d5e47de	0.054267757
117	0x3aa1906d	0.0012326367
118	0xbd0362b0	-0.032076538
119	0x3e27c876	0.16385064
120	0xbd5cb5ad	-0.053884197
121	0xbd67c512	-0.056584425
122	0xbdf371ed	-0.11886964
123	0xbc512582	-0.01276529
124	0x3ed75c90	0.42062807
125	0x3e735f47	0.23766814
126	0x3dbbfe5f	0.09179377
127	0x3ebcd600	0.3688202
128	0x3e81872c	0.2529844
129	0x3eba03d2	0.3633104
130	0x3e2a6e40	0.1664362
131	0x3c88e751	0.016711863
132	0x3de9de4a	0.114193514
133	0x3c907065	0.017631719
134	0xbe891d3f	-0.26780125
135	0x3cec7a5b	0.028866937
136	0xbe872669	-0.26396492
137	0x3ed18396	0.40920705
138	0x3eb91da3	0.36155424
139	0x3e739db1	0.23790623
140	0x3e072477	0.13197504
141	0x3e0b9959	0.13632716
142	0x3e4120ac	0.1886012
143	0xbd682458	-0.056675285
144	0x3ed7dfc3	0.42162904
145	0x3e304713	0.17214613
146	0x3d2e54f9	0.042561505
147	0x3e28f04b	0.16497914
148	0xbd4e8cf9	-0.05042741
149	0x3edb80d0	0.42871714
150	0xbe4ee438	-0.20204246
151	0x3dbb1d34	0.091364294
152	0xbd10ac35	-0.03532048
153	0xbd6efa5d	-0.058344234
154	0xbd42a7d5	-0.04752334
155	0x3e9a5e4d	0.3015007
156	0x3e0a5cf8	0.13512027
157	0xbd067be6	-0.032833003
158	0x3d0d0255	0.034426052
159	0x3da1be93	0.07897677
160	0x3ea59e92	0.32347542
161	0xbc4e45c4	-0.012589876
162	0x3e8707ea	0.26373225
163	0x3ea9fc76	0.33200425
164	0x3e6c095e	0.23050448
165	0x3da344c3	0.079721
166	0x3e857434	0.26065218
167	0x3dc55be4	0.09636667
168	0xbe92fb9b	-0.28707585
169	0x3e121e93	0.14269476
170	0x3cff2997	0.031147761
171	0xbc97c8f6	-0.018528443
172	0xbf310a05	-0.69155914
173	0xbe9582dc	-0.292014
174	0xbd678f88	-0.056533366
175	0x3eccb276	0.39979905
176	0xbddd40f0	-0.108034015
177	0xbe9a6df5	-0.30162016
178	0x3e0b86ca	0.13625637
179	0x3c978208	0.01849462
180	0x3e212b99	0.15739287
181	0xbf37ccdd	-0.7179697
182	0x3e14f018	0.14544713
183	0x3ef58444	0.47952473
184	0x3e86162a	0.26188785
185	0xbd7c7c0e	-0.061641745
186	0x3d4e709b	0.050400358
187	0x3d08a830	0.03336352
188	0x3d638478	0.055546254
189	0x3b490456	0.003067275
190	0x3e98ed2e	0.29868454
191	0xbf05d2e0	-0.52274895
192	0x3ede1fa4	0.43383515
193	0xbcf8ad60	-0.03035611
194	0xbd7baf13	-0.06144626
195	0xbd26428f	-0.04059082
196	0x3d825dad	0.063655235
197	0x3e1127c0	0.1417532
198	0x3c944f92	0.018104348
199	0xbbc26ea2	-0.0059335986
200	0x3c6f122b	0.014591734
201	0xbd608ec0	-0.054823637
202	0x3c8b8995	0.017033378
203	0x3e7184de	0.23585841
204	0x3d50eef1	0.051009122
205	0x3de069fa	0.109577134
206	0xbd3582fa	-0.044314362
207	0x3e0c3cbb	0.13695042
208	0x3e4cd8e9	0.2000462
209	0xbdc9218b	-0.09820851
210	0x3dbe6514	0.09296623
211	0xbefaa038	-0.48950362
212	0x3e4cd6a4	0.20003754
213	0x3f4bea0a	0.7965399
214	0xbd341782	-0.04396773
215	0x3b005d92	0.0019587022
216	0xbc08e397	-0.008355043
217	0x3e3f34c1	0.18672468
218	0xbeefa6ba	-0.4680689
219	0xbd07dbc9	-0.033168588
220	0x3e9d6b60	0.30745983
221	0x3f1f7e31	0.6230193
222	0xbd41e7c7	-0.04734018
223	0xbcf88989	-0.03033902
224	0xbe75e165	-0.24011762
225	0x3e01cde4	0.12676197
226	0x3d3c57e8	0.04598227
227	0x3d6141e9	0.054994497
228	0x3c184c26	0.009295499
229	0xbd3336a6	-0.04375329
230	0x3e26de0f	0.16295646
231	0x3ec3819d	0.38184825
232	0xbd54cbb5	-0.051952083
233	0x3e329cac	0.17442578
234	0x3e30de04	0.17272192
235	0x3d41c1ef	0.04730409
236	0x3f19fba1	0.6014958
237	0x3e02c6a4	0.12771088
238	0xbb55545b	-0.00325515
239	0x3c79ee49	0.0152545655
240	0xbdb1f174	-0.08688632
241	0xbcfb96e5	-0.0307116
242	0x3d85403b	0.065063916
243	0xbd7298a4	-0.0592276
244	0x3d6a2d50	0.05717212
245	0xbc9d6e0c	-0.019217514
246	0xbd93d646	-0.07218604
247	0xbc3edfc1	-0.011650027
248	0xbdf3e16a	-0.11908229
249	0xbddc7455	-0.10764376
250	0xbcb66c9c	-0.022268586
251	0xbdc42e3a	-0.095791295
252	0x3c6f2257	0.01459559
253	0xbd87aca6	-0.06624727
254	0xbd9e2dc2	-0.07723571
255	0xbd704f60	-0.058669448

l3.bias f4 [9]
0	0xbd8afe49	-0.06786782
1	0x3f4cb38f	0.79961485
2	0x3d7905d7	0.060796585
3	0xbda72c03	-0.081626914
4	0x3fbf3051	1.493662
5	0xbba76471	-0.005108409
6	0x3ccdbfd5	0.025115887
7	0x3d5f72e6	0.054552935
8	0x3f7d9208	0.9905095

l4.weight f4 [53, 9]
0	0x3e898509	0.2685931
1	0x3e1c27f3	0.15249614
2	0x3e095a00	0.13413239
3	0x3e9f63b9	0.3113077
4	0xbde4d288	-0.11172968
5	0xbe894b3d	-0.26815215
6	0xbe9c535b	-0.30532345
7	0x3d537d1e	0.051632993
8	0x3e2878d5	0.16452344
9	0xbd885290	-0.066563725
10	0x3ebd45ee	0.36967415
11	0xbe896458	-0.2683437
12	0xbdcb7cd0	-0.099359155
13	0x3e8e3f8d	0.2778286
14	0x3d69f3f7	0.05711743
15	0x3e14b773	0.14523105
16	0xbe87640f	-0.26443526
17	0xbe8d7eaa	-0.276357
18	0xbe2d1597	-0.16902767
19	0x3eadd824	0.33953965
20	0x3e618edb	0.22027151
21	0x3d35d5e0	0.04439342
22	0xbdd4acc5	-0.10384516
23	0xbe15d50d	-0.14632054
24	0x3dceff0c	0.1010724
25	0x3ea56e9c	0.3231095
26	0xbcbc0009	-0.022949236
27	0x3df12fbc	0.11776683
28	0xbe46bd33	-0.19408111
29	0xbe36401e	-0.17797896
30	0x3e1a6070	0.1507585
31	0xbe8fa70a	-0.28057128
32	0xbe338016	-0.1752933
33	0x3e994007	0.2993166
34	0xbda2f3e4	-0.07956675
35	0xbde862d0	-0.11346972
36	0xbe8c9e0d	-0.27464333
37	0x3ed4db30	0.41573477
38	0x3dbd5308	0.092443526
39	0x3c1e1720	0.009649068
40	0x3ec09878	0.37616324
41	0x3daddae2	0.08489014
42	0xbe990add	-0.298911
43	0x3e3df36a	0.18549886
44	0xbebe9cd5	-0.37229028
45	0xbe171f26	-0.14757976
46	0x3ee8239e	0.45339674
47	0xbdc2c8ed	-0.0951098
48	0xbe9dcb67	-0.30819246
49	0x3ceb9e85	0.028762111
50	0xbca552f0	-0.02018115
51	0xbe8183ba	-0.25295812
52	0xbe821ee3	-0.2541419
53	0xbf0d7390	-0.5525446
54	0xbd85e9b0	-0.06538713
55	0xbea8224c	-0.32838666
56	0x3e691e42	0.22765449
57	0x3dfda64c	0.12385234
58	0xbb9aadc0	-0.0047204196
59	0x3e5ac332	0.21363524
60	0xbe48bd30	-0.1960342
61	0x3d258958	0.040414184
62	0xbd612628	-0.05496803
63	0x3d05ea96	0.03269442
64	0xbfbf768d	-1.4958054
65	0x3e51c429	0.20484985
66	0xbe88d227	-0.26722834
67	0x3ebebc05	0.37252823
68	0x3e986324	0.29763138
69	0x3dbe1c8f	0.09282791
70	0x3e999db8	0.30003142
71	0x3d9a9f0d	0.07549868
72	0x3e5fe7e2	0.218658
73	0xbd9c6f64	-0.076384336
74	0x3dc6dc90	0.09710038
75	0x3ea68e77	0.32530567
76	0xbe7494d0	-0.23884892
77	0xbe4c88b6	-0.19974026
78	0x3e7051ce	0.23468706
79	0xbe391503	-0.18074422
80	0xbe845553	-0.25846347
81	0x3e621b5a	0.22080746
82	0x3eed797d	0.4638175
83	0xbe9673ad	-0.2938513
84	0x3e6e0586	0.23244295
85	0xbf2b586e	-0.6693181
86	0xbe71bab1	-0.23606373
87	0x3c550580	0.0130018
88	0xbe86ddc1	-0.2634106
89	0x3eb03e80	0.34422684
90	0xbe82af43	-0.2552434
91	0x3e0a8de9	0.13530697
92	0x3e41f589	0.1894132
93	0xbe5cb6e3	-0.21554141
94	0xbd0d939b	-0.034564596
95	0xbe85e23a	-0.2614916
96	0xbe993a49	-0.2992728
97	0x3e700e21	0.2344289
98	0x3e0c6556	0.13710532
99	0xbe6c6b7b	-0.23087876
100	0xbc470b32	-0.012148665
101	0x3dcd611d	0.100282885
102	0xbe7c898b	-0.24661843
103	0xbe6bfac7	-0.23044883
104	0x3afcbd72	0.0019282533
105	0x3e1902c4	0.14942461
106	0x3e8aa8b1	0.27081826
107	0x3adb77d6	0.0016744088
108	0x3da0a7db	0.07844516
109	0xbb1aeab8	-0.0023638438
110	0xbe8a78cf	-0.27045295
111	0xbe595ba6	-0.21226367
112	0xbd74af0f	-0.05973726
113	0x3e584948	0.21121705
114	0xbdc656e0	-0.09684539
115	0x3cda1b60	0.026624382
116	0xbd552506	-0.05203726
117	0x3e94068a	0.2891124
118	0x3de5b4b1	0.11216105
119	0xbe2c7bc6	-0.16844091
120	0x3e2a6d10	0.16643167
121	0x3e3f2711	0.18667246
122	0x3e5d79de	0.2162852
123	0x3dd94c11	0.10610212
124	0x3cc693bf	0.024240373
125	0xbe24deee	-0.16100666
126	0xbe2c5379	-0.16828717
127	0x3e002caa	0.12517038
128	0x3d6cb7db	0.057792526
129	0x3d42e258	0.04757914
130	0x3e44a7d3	0.19204645
131	0xbce622cd	-0.028092766
132	0xbe275c0d	-0.16343708
133	0x3e0001d5	0.12500699
134	0xbe578696	-0.21047434
135	0x3e22614e	0.15857431
136	0xbde43712	-0.11143316
137	0x3bc784eb	0.006088843
138	0xbe868a3c	-0.2627734
139	0x3c5f1198	0.0136150345
140	0xbe0851e6	-0.13312492
141	0xbe403e0c	-0.18773669
142	0xbe8cbb12	-0.27486473
143	0xbb795b57	-0.0038048828
144	0xbe93315a	-0.2874859
145	0x3f074af0	0.5284872
146	0x3e26c0b5	0.1628445
147	0x3e9ff913	0.31244716
148	0xbf8a5199	-1.0806152
149	0xbe2601e3	-0.16211657
150	0x3e627396	0.22114405
151	0xbdccbab0	-0.09996545
152	0xbd3560ee	-0.044281892
153	0x3e3a2443	0.18177895
154	0x3ea60d26	0.32431906
155	0x3c1eeb76	0.009699693
156	0x3dec125c	0.11526939
157	0xbdc4ebc7	-0.096152835
158	0x3e93ee5a	0.28892785
159	0x3ea131c5	0.31483284
160	0xbe0db82a	-0.13839784
161	0x3e0440ac	0.12915295
162	0x3d9599a8	0.07304698
163	0x3e1947c3	0.14968781
164	0xbe3a7366	-0.18208084
165	0x3e4ad992	0.19809559
166	0x3eefb51b	0.4681786
167	0x3e0958e0	0.1341281
168	0xbe545dbe	-0.20738885
169	0x3e088884	0.13333327
170	0xbe5e40b3	-0.21704368
171	0xbe7e512c	-0.24835652
172	0xbd25e8ce	-0.040505223
173	0xbe32f0c2	-0.17474654
174	0x3c62d1e0	0.013843983
175	0x3ed9fa3a	0.4257372
176	0xbe44b6c4	-0.19210345
177	0xbe92fa25	-0.2870647
178	0xbea017f6	-0.3126828
179	0xbe28778d	-0.16451855
180	0xbe4a6261	-0.19764091
181	0xbcef9df9	-0.029250132
182	0x3e3a2956	0.18179831
183	0x3dcb9fe4	0.09942606
184	0x3e63951a	0.22224846
185	0xbd9d763f	-0.07688569
186	0xbe4e5224	-0.20148522
187	0xbdedc88a	-0.116105154
188	0x3d9dcefa	0.07705493
189	0x3d02ad7d	0.031903733
190	0xbd29dde5	-0.04147138
191	0x3e920ed4	0.28526938
192	0xbea960ce	-0.3308167
193	0xbe686c1c	-0.2269749
194	0xbde1290e	-0.10994159
195	0x3b663c5c	0.0035131192
196	0xbe915313	-0.28383693
197	0x3c72fd94	0.014830966
198	0x3df350c5	0.1188064
199	0x3d8873db	0.06662723
200	0x3ce306c1	0.027713181
201	0x3e59a3c2	0.21253875
202	0x3de5b031	0.112152465
203	0xbe44ce2d	-0.19219275
204	0xbe96ec69	-0.29477242
205	0x3df1b413	0.118019246
206	0xbc3c00eb	-0.011474828
207	0xbe85ade8	-0.26109242
208	0x3df2356e	0.11826597
209	0xbe87976d	-0.26482716
210	0x3d8a1fdc	0.06744358
211	0x3e62177b	0.2207927
212	0xbe987033	-0.297731
213	0x3e7b0fd6	0.2451776
214	0xbd843d3c	-0.06456992
215	0xbdced5ad	-0.10099349
216	0xbd4553d6	-0.048175655
217	0xbe1de113	-0.1541789
218	0x3e908dd7	0.28233215
219	0xbe408113	-0.18799238
220	0xbe582ba3	-0.21110396
221	0x3ea33c94	0.31882155
222	0xbdc2f57e	-0.0951948
223	0x3e1d72a4	0.15375763
224	0x3e8092a6	0.25111884
225	0xbcabdc4e	-0.020979073
226	0x3e762fd0	0.24041677
227	0xbe02fa7b	-0.12790863
228	0xbe08a97b	-0.13345902
229	0xbe2e3cc4	-0.17015368
230	0xbe883e7d	-0.26610175
231	0xbe855a54	-0.26045477
232	0xbe69e53f	-0.22841357
233	0x3e468778	0.19387615
234	0xbe79c0b3	-0.24389915
235	0xbe9aad1a	-0.3021019
236	0x3e04ab06	0.12955865
237	0xbe697280	-0.22797585
238	0xbf15a131	-0.58449084
239	0xbe9498da	-0.29022866
240	0xbdd6d506	-0.1048985
241	0xbda3f781	-0.08006192
242	0x3f0f1f27	0.5590691
243	0x3c96d138	0.01841031
244	0xbe43b819	-0.19113196
245	0xbe609ea4	-0.21935517
246	0x3d90e25c	0.070744246
247	0x3ed4938f	0.41518828
248	0x3d94f731	0.072737105
249	0xbe60ab73	-0.21940403
250	0xbe7f886a	-0.24954382
251	0x3eadd71c	0.33953178
252	0xbe042e30	-0.12908244
253	0x3e260ccf	0.16215824
254	0x3ea9eacf	0.33186957
255	0xbea92a0e	-0.33039898

l4.bias f4 [53]
0	0x3ed25183	0.41077814
1	0x3febbbe3	1.8416713
2	0x3f816735	1.0109621
3	0xbc8e45c0	-0.017367244
4	0xbf3f4d42	-0.7472726
5	0x406cb6b0	3.6986504
6	0xbe4358ab	-0.19076793
7	0x4018f0ca	2.3896966
8	0xbe3d9526	-0.18513927
9	0x400c7f05	2.1952527
10	0xc06f045b	-3.7346408
11	0xbd96cf8b	-0.073638044
12	0x40bf6b8f	5.9818797
13	0x40464dca	3.0984979
14	0xbbbb83e5	-0.00572251
15	0xbf8d6518	-1.1046476
16	0x3f8349bc	1.0256877
17	0xbfa567f6	-1.2922351
18	0x3fe06f9b	1.7534059
19	0x3f766beb	0.9625842
20	0xc00457ca	-2.0678582
21	0xbe0bb608	-0.13643658
22	0xc04dcaa2	-3.2154927
23	0xc0003e3d	-2.0037987
24	0x3fb7f25a	1.4370835
25	0x400f96d9	2.243582
26	0x3fa1ac78	1.2630758
27	0x3e9646fb	0.2935103
28	0x4047cecc	3.1219969
29	0xbefaf56c	-0.49015367
30	0x40d9f248	6.8108253
31	0xbe0b4f7b	-0.13604538
32	0xbf5f1589	-0.87142235
33	0x405ab74b	3.4174373
34	0x40848dc8	4.1423073
35	0x406b7610	3.679081
36	0x4017ae62	2.3700185
37	0xbffd7907	-1.980256
38	0xbd8e053f	-0.06934594
39	0xc02ccc70	-2.6999779
40	0x3d361c20	0.044460416
41	0x40da0e44	6.8142414
42	0x3fa3c335	1.2793947
43	0x40231583	2.548188
44	0xc0181f38	-2.3769054
45	0x3fa66094	1.2998223
46	0x3faaa4d6	1.3331554
47	0x4040bb93	3.0114486
48	0x3f0fe209	0.5620428
49	0x3ead4119	0.33838728
50	0x3dbacd2b	0.09121164
51	0xbfdc6af2	-1.7220137
52	0x3f705910	0.938859

l5.weight f4 [85, 53]
0	0xbc016897	-0.007898471
1	0x3e86c4c1	0.26321986
2	0xbe39d39b	-0.18147127
3	0xbd0dcec0	-0.034621
4	0xbccd23f1	-0.025041552
5	0x3f823f20	1.0175514
6	0xbe04626f	-0.12928174
7	0x3e92ffc5	0.28710762
8	0x3e008735	0.12551577
9	0x3eee8c06	0.46591204
10	0xbf0f27bd	-0.5592001
11	0xbed5a8b1	-0.41730264
12	0x3ff7634b	1.9327177
13	0x3ef32661	0.47490218
14	0x3e0ed244	0.13947397
15	0xbea68344	-0.32522023
16	0xc01edd01	-2.482239
17	0xbf20cac0	-0.6280937
18	0x3e2eb595	0.17061456
19	0x3d49dbfc	0.04928206
20	0xbe455769	-0.19271626
21	0xbf50e7f6	-0.81603944
22	0xbec4c49f	-0.3843126
23	0x3cb1c703	0.021701341
24	0xbd9543cb	-0.07288321
25	0xbedfa49e	-0.4368028
26	0xbe6d05f1	-0.23146798
27	0xbedfb715	-0.43694368
28	0x3fb068bd	1.3781964
29	0xbdecbdb1	-0.11559618
30	0x3f90aae8	1.1302156
31	0x3dc1cd30	0.094629645
32	0xbe8ac4ec	-0.27103364
33	0x3fbf0243	1.4922565
34	0x3e9f41ed	0.31104985
35	0x3f69212a	0.9106623
36	0xbf21b741	-0.6317025
37	0xbf778517	-0.96687454
38	0xbe45c53f	-0.19313525
39	0xbff13237	-1.8843449
40	0xbdf84ec2	-0.12124397
41	0xbd84d8c4	-0.06486657
42	0xbf666d7b	-0.90010804
43	0x3faecb27	1.3655747
44	0xbe290048	-0.16504014
45	0xbde7f86b	-0.11326679
46	0xbe9cdde7	-0.30638048
47	0x3ebcd30c	0.36879766
48	0xbf34ea6e	-0.7067021
49	0xbf027f1e	-0.50975215
50	0xbebf81d4	-0.37403738
51	0xbefa4f75	-0.48888746
52	0x3f818fde	1.012203
53	0x3e739e68	0.23790896
54	0xbf3e1091	-0.7424403
55	0xbd018dce	-0.031629376
56	0xbd9500e6	-0.07275562
57	0x3e155b2e	0.14585564
58	0xbe389951	-0.18027236
59	0xbd8fe0f8	-0.07025331
60	0x3fb46793	1.4094108
61	0x3da225f0	0.07917392
62	0xbea44261	-0.32081893
63	0x3db199a5	0.086718835
64	0x3df5b585	0.11997513
65	0xbf86988e	-1.0515306
66	0xbddf868b	-0.10914334
67	0x3dea5b96	0.1144325
68	0xbcfd5e60	-0.03092879
69	0x3e31d446	0.17366132
70	0x3e45abea	0.19303861
71	0x3e2700b2	0.16308859
72	0x3e486749	0.1957065
73	0x3e8672ca	0.26259452
74	0x3d4ed1f4	0.050493196
75	0x3e637141	0.22211172
76	0x3dd308df	0.103044264
77	0x3d68c24d	0.056825925
78	0x3e521c8f	0.20518707
79	0x3d29ea55	0.041483242
80	0x3eaddb10	0.33956194
81	0xbfda3b5c	-1.7049365
82	0x3c0d9160	0.008640617
83	0x3cc301df	0.023804603
84	0xbda8eb6e	-0.0824803
85	0x3e45de73	0.19323139
86	0x3f3b730f	0.7322244
87	0x3f28d4da	0.65949786
88	0xbe23b7bd	-0.1598806
89	0x3eed1404	0.46304333
90	0x3e21502b	0.15753238
91	0xbe955427	-0.29165766
92	0x3e0e6306	0.13904962
93	0x3e681281	0.22663309
94	0xbe402cd8	-0.18767107
95	0x3eff586d	0.4987215
96	0x3f59a735	0.8502076
97	0x3e4072fd	0.18793865
98	0x3ea697c1	0.32537654
99	0x3dd0717d	0.10177896
100	0x3e924495	0.2856795
101	0x3ec0e458	0.37674212
102	0x3f20031d	0.6250475
103	0x3f164a3b	0.58707017
104	0xbec8b0b6	-0.3919732
105	0x3f686e57	0.90793365
106	0x3ddde2c7	0.1083427
107	0x3eb41a4a	0.35176307
108	0x3d94efa2	0.07272269
109	0xbdacecc0	-0.08443594
110	0xbe6d513c	-0.2317552
111	0x3e5408e6	0.2070652
112	0xbe011e05	-0.12609108
113	0x3dc41217	0.09573763
114	0x3e02c2bd	0.127696
115	0xbdc809ab	-0.09767469
116	0xbf1e5387	-0.618462
117	0x3d6839a8	0.05669561
118	0x401ed5e7	2.4818056
119	0x3f6e7898	0.9315276
120	0x3c7acec4	0.015308086
121	0x3cd41d81	0.025892975
122	0x3eb2b5f0	0.34904432
123	0xbe837fc8	-0.25683427
124	0x3e7019f3	0.23447399
125	0xbdb8915a	-0.090120986
126	0xbf03bbfe	-0.5145873
127	0x3d2bb661	0.041921977
128	0xbf1db7ed	-0.61608773
129	0xbed46d56	-0.41489667
130	0x3d9cd56e	0.07657896
131	0x3e956cc2	0.29184538
132	0x3eaf59c4	0.34248173
133	0xbe1866ff	-0.1488304
134	0x3e9b8521	0.30375007
135	0xbe897258	-0.2684505
136	0x3f2c7b94	0.67376065
137	0x3db9353c	0.09043357
138	0xbe4bc926	-0.19900951
139	0x3d9e9d89	0.07744891
140	0x3e9b0762	0.3027907
141	0x3c574dd7	0.013141117
142	0x3ee1ba26	0.44087332
143	0xbe9d58da	-0.3073185
144	0xbb676a97	-0.0035311335
145	0xbe2cc588	-0.16872227
146	0xbdab2b80	-0.08357906
147	0x40a486b5	5.1414437
148	0x3e62f231	0.22162701
149	0xbf3d9221	-0.740511
150	0xbee6dc02	-0.45089728
151	0x3d317d39	0.043332312
152	0x3e7cd72a	0.24691454
153	0x3e4c6626	0.19960842
154	0x3d67ed30	0.056622684
155	0xbd2f7a8b	-0.042841475
156	0xbe57c6a9	-0.21071877
157	0xba3d0f24	-0.0007212034
158	0x3dec7509	0.1154576
159	0x3d226f74	0.03965707
160	0xbeb810f5	-0.35950437
161	0x3ddeace1	0.10872818
162	0x3d36cffc	0.044631943
163	0x3d805ad7	0.06267326
164	0xbea47478	-0.3212011
165	0x3cec95f0	0.02888009
166	0xbeb2b8af	-0.34906527
167	0x3ccdc8e8	0.025120214
168	0x3e277f78	0.16357219
169	0x3e7a034c	0.2441532
170	0xbe3e6c37	-0.18595968
171	0xbf219307	-0.6311497
172	0xbe2ed0c6	-0.17071828
173	0x3e1102a0	0.14161158
174	0xbdab2b7c	-0.08357903
175	0xbf5c7bd6	-0.8612646
176	0x3e3d4a0f	0.18485282
177	0xbbca7f84	-0.006179752
178	0x3dbd63d0	0.09247553
179	0x3e119e10	0.14220452
180	0x3b40757c	0.00293669
181	0x3d299883	0.041405212
182	0x3e5a06b2	0.21291617
183	0xbe0b2bb2	-0.13590887
184	0x3e858b42	0.26082808
185	0x3e045917	0.1292461
186	0x3e68ee59	0.22747172
187	0xbe57ab46	-0.2106143
188	0x3df88442	0.12134601
189	0xbf209a28	-0.62735224
190	0xbd5955be	-0.053060286
191	0x3e9c6784	0.30547726
192	0xbeb95882	-0.3620034
193	0xbc65d5c4	-0.0140280165
194	0xbf91c52d	-1.1388298
195	0x3eb246e0	0.34819698
196	0x3e0336a1	0.12813808
197	0x3e4f3d73	0.20238285
198	0xbd64453b	-0.055730086
199	0x3d98a6aa	0.07453664
200	0xbf2542cb	-0.64555043
201	0x3eb99ec0	0.3625393
202	0x3e7b687a	0.24551573
203	0x3e336171	0.1751764
204	0x3e549b19	0.2076229
205	0x3e17c730	0.14822078
206	0x3d0d3bc5	0.03448083
207	0x3d376944	0.044778123
208	0x3eb23401	0.348053
209	0x3e9c54a5	0.3053333
210	0xbe451636	-0.19246754
211	0x3f07bb63	0.53020304
212	0xbdb9ea97	-0.090779476
213	0x3d291bc1	0.041286234
214	0xbe260b78	-0.16215312
215	0xbd93a87e	-0.07209872
216	0xbddb69d6	-0.10713546
217	0xbd1e1435	-0.03859349
218	0xbd80468c	-0.06263456
219	0x3dd72a9b	0.10506173
220	0x3d949d76	0.07256596
221	0xbd8658a7	-0.06559878
222	0xbe2dbafe	-0.16965863
223	0x3ddf10ca	0.10891874
224	0xbcf72268	-0.030167773
225	0xbe09965b	-0.13436262
226	0xbd5ea7f8	-0.054359406
227	0x3da124a8	0.0786832
228	0xbe052315	-0.13001664
229	0xbcb3da41	-0.021954658
230	0x3de68570	0.1125592
231	0xbe2861be	-0.16443536
232	0x3d8cb9d8	0.068713844
233	0x3c5df1ef	0.013546451
234	0xbda27475	-0.07932369
235	0xbd16a727	-0.036780503
236	0xbe03d0cc	-0.12872618
237	0x3d17828b	0.03698973
238	0x3da2319a	0.07919617
239	0xbe1daf53	-0.15398912
240	0xbce208f4	-0.02759216
241	0xbd8f317d	-0.06991861
242	0x3de386af	0.11109673
243	0xbda75530	-0.08170545
244	0xbe1239bf	-0.14279841
245	0xbcac0223	-0.020997113
246	0xbd071ffc	-0.032989487
247	0x3d122be5	0.035686392
248	0xbdfb9c88	-0.12285715
249	0xbe0f60b9	-0.1400174
250	0xbdb3d4d2	-0.08780827
251	0xbd900d15	-0.07033745
252	0x3d8f55c5	0.06998781
253	0x3ccc8751	0.024966868
254	0xbe28d84f	-0.16488765
255	0xbdc86faa	-0.09786923

l5.bias f4 [85]
0	0x4006feb1	2.1092951
1	0x3f88f124	1.069859
2	0x40cdc34a	6.430089
3	0xbe906c09	-0.28207424
4	0xbe0bd019	-0.13653602
5	0x3f82720e	1.0191057
6	0xbe14a8bb	-0.1451749
7	0x408abca4	4.3355274
8	0x3f778525	0.9668754
9	0xbd941eab	-0.07232412
10	0x3ea141d3	0.31495532
11	0xbf2c5c29	-0.67328125
12	0x3d8b9aa9	0.068166085
13	0x3df3a15b	0.118960105
14	0xbe1259a3	-0.14292006
15	0x3fc8cd06	1.5687568
16	0x40369738	2.8529797
17	0x3f8be56a	1.0929387
18	0xbdcdb5e2	-0.10044457
19	0x3ddc7a93	0.10765567
20	0xbd0b4d98	-0.034009546
21	0xbc573ac0	-0.013136566
22	0x3fad4c70	1.3538952
23	0xbf27ed80	-0.6559677
24	0x3f6dc0f4	0.9287255
25	0xbc8ae6d9	-0.01695578
26	0xbe28fc10	-0.16502404
27	0x3f0cf6a8	0.5506387
28	0xbdce717f	-0.100802414
29	0x3eaa83ee	0.3330378
30	0x3feb1083	1.8364414
31	0x3d8560d0	0.06512606
32	0xbd48e244	-0.04904391
33	0xbf2ebb4d	-0.6825455
34	0xbdb53c8d	-0.0884944
35	0x40c83b3d	6.257231
36	0x4050b320	3.260933
37	0x3dd83cdd	0.10558484
38	0xbe1e1878	-0.15439022
39	0x3c9da43b	0.01924335
40	0x3df69eca	0.12042005
41	0xbde00188	-0.10937792
42	0x3c3965e3	0.011315796
43	0x3f6e80bd	0.9316519
44	0x3fb77ef2	1.4335616
45	0x3fbd619c	1.4795413
46	0xbe049643	-0.12947945
47	0x3ee889b1	0.4541755
48	0xbefa90ae	-0.48938507
49	0xbd9387ce	-0.07203637
50	0x3f3c06bf	0.73447794
51	0xbd8c58fc	-0.0685291
52	0xbf523399	-0.8210998
53	0x3f071a3a	0.52774394
54	0x402a6d98	2.662939
55	0x40ad4603	5.4147964
56	0x3e89bf02	0.2690354
57	0x3fd78fae	1.6840723
58	0xbddb1a23	-0.106983446
59	0xbf3537ed	-0.7078846
60	0x3ddc53f8	0.10758203
61	0x40156008	2.3339863
62	0x3f9e96ee	1.238981
63	0xbde0d269	-0.109776326
64	0xbe9eeaab	-0.31038412
65	0xbf3cbd18	-0.73726034
66	0x3e5d871b	0.2163357
67	0x40102518	2.252264
68	0x3bf47c3d	0.0074610994
69	0x4035d9ae	2.841411
70	0xbe0a382f	-0.13497995
71	0x3f949846	1.160897
72	0xbca1bcd9	-0.01974337
73	0x3dfa93fe	0.122352585
74	0x3f29aad3	0.6627628
75	0x3df02297	0.117253475
76	0xbe0c771b	-0.1371731
77	0xbd16b935	-0.03679772
78	0x3ce1f6c8	0.027583495
79	0xbf22eb70	-0.636405
80	0x40ab0ffd	5.3457017
81	0x3f50a3ab	0.8149974
82	0x3d9475db	0.07249042
83	0xbc2fed5f	-0.010737746
84	0xbe3e3e87	-0.1857854
