models/Others/model_PGNN_half.pt (torch, 127233 bytes, 12 tensors)

l1.weight f4 [189, 9]
0	0xbb90ef88	-0.0044230856
1	0x3fc28f28	1.5199938
2	0x3fb6c277	1.4278096
3	0x3e1b49e1	0.15164901
4	0xc053b27f	-3.3077695
5	0x3e8a6acf	0.27034613
6	0xbd65856c	-0.056035444
7	0x3efeb30f	0.49745986
8	0xbeee38b2	-0.4652763
9	0x3a6e76ea	0.0009096699
10	0x3faa0c5a	1.3285019
11	0xbfb54b0a	-1.4163525
12	0xbd816ca8	-0.06319553
13	0xbe9c331a	-0.30507737
14	0xc000cbe5	-2.0124447
15	0x3baa1653	0.0051906495
16	0xbf78cf65	-0.9719146
17	0x3dc1304a	0.094330385
18	0x3a09fe3e	0.00052640203
19	0xbf823a9a	-1.0174134
20	0xbee7e1df	-0.45289513
21	0x3e2d1b62	0.16904977
22	0xbd93e3f2	-0.072212115
23	0xbf216a32	-0.63052666
24	0xbf4b1e65	-0.79343253
25	0xc01bfbeb	-2.4372509
26	0xbfcf7141	-1.6206437
27	0xbb22833b	-0.0024797458
28	0x3f037396	0.51348245
29	0x3ff586b5	1.9181734
30	0xbfacf4ea	-1.3512242
31	0x3e92c361	0.28664687
32	0xbf4a7ebf	-0.7909965
33	0x3e143048	0.14471543
34	0xbe981df5	-0.29710355
35	0xbf569bbc	-0.8383138
36	0x3a0de93b	0.0005413477
37	0xbf3a8c24	-0.7287009
38	0xbfb54ceb	-1.4164099
39	0xbd74249b	-0.059605222
40	0xbf987b2f	-1.1912593
41	0x3ee2f60e	0.4432835
42	0x3dbbdfb3	0.091735266
43	0xbfdc3c80	-1.7205963
44	0xbd9df37c	-0.077124566
45	0x3bc2e07c	0.005947171
46	0x3e54fe99	0.20800246
47	0xbea26ebf	-0.31725118
48	0xbf0d3706	-0.55162084
49	0x3fcdc95f	1.6077079
50	0xbea73448	-0.32657075
51	0xc009677e	-2.1469417
52	0xbfaa98f3	-1.3327926
53	0xbf9095ba	-1.1295693
54	0xbaa0814b	-0.0012245564
55	0xbfae9be1	-1.364132
56	0xbf8c51f9	-1.0962516
57	0xbe888b4f	-0.26668784
58	0xbf1c67e9	-0.61096054
59	0x3f690b4e	0.91032875
60	0xbd3f03af	-0.046634372
61	0xbfbddafd	-1.4832455
62	0x3eb0b1f0	0.34510756
63	0xbb0a13de	-0.002106897
64	0xbfaf499e	-1.3694341
65	0xbf6dd43a	-0.9290196
66	0xbd179655	-0.037008602
67	0xbf8b9ecc	-1.0907836
68	0xbf99b452	-1.2008154
69	0xbf466790	-0.77501774
70	0x3e7d32a9	0.24726357
71	0xbe2f53af	-0.17121767
72	0x39a97bb9	0.00032326372
73	0xbf160a80	-0.5860977
74	0xbfbc6198	-1.4717283
75	0xbe92e65f	-0.28691384
76	0xbf37b077	-0.7175364
77	0xbfa76153	-1.3076576
78	0x3f29862e	0.66220367
79	0x3f9d426d	1.2285897
80	0xbe81ede0	-0.25376797
81	0x3a95228a	0.0011378091
82	0xbee2ebf1	-0.44320634
83	0x3fd8ba81	1.6931916
84	0xbed00166	-0.40626067
85	0x3fae045b	1.3595079
86	0x3e68e803	0.22744755
87	0xbe53c83d	-0.20681854
88	0x3f80f913	1.0076011
89	0xbf72f01f	-0.94897646
90	0x3c5732ab	0.013134639
91	0xbf910651	-1.1330053
92	0x3faac5dc	1.3341632
93	0x3f0e83fd	0.5567015
94	0xbfc07b40	-1.5037613
95	0xbf0a33a5	-0.53985053
96	0x3d56e9da	0.052469112
97	0xbf9f825d	-1.2461659
98	0xbf8e9a3b	-1.1140817
99	0xba80dca5	-0.0009831382
100	0x3e3cda83	0.1844273
101	0xbfcadd9c	-1.584888
102	0xbe899ea2	-0.2687884
103	0xbe8847c6	-0.2661726
104	0xbf7993c7	-0.97491115
105	0xbed16aea	-0.4090188
106	0x3f4572ce	0.77128303
107	0x3ddf2b84	0.10896972
108	0xbb59aa25	-0.0033212986
109	0x3fbc294a	1.47001
110	0xbfc2af60	-1.520977
111	0x3ed98f24	0.4249202
112	0xbf68f196	-0.9099363
113	0xbfa87b28	-1.3162584
114	0xbfc8c5ba	-1.5685341
115	0xbe6d55cc	-0.2317726
116	0xbefd8717	-0.49517128
117	0x3a8f577e	0.0010936109
118	0xbeb25af4	-0.34835017
119	0xbf2ffaa9	-0.6874185
120	0x3cdec231	0.027192207
121	0x3f8f25cc	1.118341
122	0xc008bd82	-2.1365666
123	0x3e5d5e0e	0.2161791
124	0xbfa63979	-1.2986289
125	0x3f0c02ed	0.54691964
126	0x3c56a5ce	0.013101054
127	0xbf55c813	-0.83508414
128	0xbf48a657	-0.78378814
129	0xbef071f2	-0.46961933
130	0xbedcd1a0	-0.4312868
131	0xc0037ea0	-2.0546036
132	0x3f625033	0.88403624
133	0xbfb8ae3d	-1.4428173
134	0x3ed96a8e	0.42464107
135	0xbb54fdaf	-0.003249984
136	0x3f70dd75	0.94087917
137	0xbf0c88f7	-0.5489649
138	0x3f071725	0.5276969
139	0xbf3cd35b	-0.7376
140	0xbf11cf8c	-0.56957316
141	0xc0232fbf	-2.5497892
142	0xbeac7db4	-0.33689654
143	0xbfa8a644	-1.317574
144	0xbc515ff5	-0.012779226
145	0xbfda136c	-1.7037177
146	0xbfcc51c4	-1.5962453
147	0xbee4194d	-0.44550553
148	0x3f96a1b3	1.1768097
149	0x3e71d23a	0.23615351
150	0xbf390919	-0.72279507
151	0xbf015817	-0.5052504
152	0x3f1bb507	0.608231
153	0x3b0330eb	0.002001817
154	0xbf0b7939	-0.54481846
155	0xbf83847a	-1.0274804
156	0xbc3d79aa	-0.0115646515
157	0x3f3100a6	0.69141614
158	0xbfd3f4f8	-1.6559134
159	0x3ce92e2e	0.028464403
160	0xbfdaa3dc	-1.7081256
161	0x3e8bc162	0.27295977
162	0xb89e1cfc	-7.539426e-05
163	0xbd22d6bd	-0.03975557
164	0xbfee7267	-1.8628663
165	0xbce8e999	-0.0284317
166	0x3faccc1f	1.3499793
167	0xbfc79490	-1.5592213
168	0xbf262612	-0.6490184
169	0x3e751ce8	0.23936808
170	0xbf2bef07	-0.671616
171	0x3a02bae5	0.0004986956
172	0xbe652813	-0.22378568
173	0x3e6fc31f	0.23414277
174	0xbe46aefe	-0.19402692
175	0xbf66db1b	-0.9017808
176	0x3e3612b4	0.17780572
177	0xbe4818db	-0.19540732
178	0xc01813f4	-2.3762178
179	0xbef7c617	-0.48393318
180	0xbb389a37	-0.002816809
181	0xbf6242f4	-0.8838341
182	0xbf28f845	-0.6600383
183	0x3e89c0eb	0.26904997
184	0xc021b7ab	-2.5268352
185	0xbfa960c9	-1.3232661
186	0xbeb6ffa1	-0.35741904
187	0x3e067d9d	0.13133855
188	0x3e871f83	0.2639123
189	0x3a89f4ed	0.0010525264
190	0xbf6d6db0	-0.92745495
191	0xbe121783	-0.14266782
192	0x3d4cd4e3	0.050007712
193	0xbf1f469d	-0.6221712
194	0x3fc90ea9	1.5707599
195	0x3f8db0ed	1.1069618
196	0xbf154295	-0.5830472
197	0xbf3795b2	-0.7171279
198	0x3a9a1982	0.001175687
199	0xbfa3cc7d	-1.279678
200	0xbf81b6a0	-1.0133858
201	0xbd913969	-0.07091028
202	0xbf987354	-1.1910195
203	0x3d93fa33	0.07225456
204	0x3d2f7b42	0.042842157
205	0xbfc60d1b	-1.547275
206	0x3e939b83	0.28829584
207	0x3c49baf1	0.012312637
208	0xbf608b12	-0.87712204
209	0xbf3ab466	-0.72931516
210	0x3f2af673	0.667823
211	0x3f5d1f5d	0.8637598
212	0x3f4c3809	0.79773
213	0x3fc8a91f	1.5676612
214	0xbf7caf99	-0.9870544
215	0x3f66f07d	0.90210706
216	0x3b1f3e92	0.002429877
217	0xbed3c810	-0.41363573
218	0xbd0c21ca	-0.03421191
219	0x3e362acf	0.17789768
220	0xbf74ba87	-0.9559712
221	0xbff46e30	-1.9096127
222	0xbf4ec4e1	-0.80769163
223	0xbfbedee1	-1.4911767
224	0xbf80b756	-1.005595
225	0x3aa16987	0.0012314775
226	0x3f7b1d23	0.98091334
227	0xbfe6c372	-1.8028395
228	0xbe5466c0	-0.20742321
229	0xbfcec534	-1.6153932
230	0xbe667b77	-0.22508036
231	0x3e2aee25	0.16692407
232	0x3f644956	0.891744
233	0xbec22269	-0.37916878
234	0x3bc09969	0.005877663
235	0xbf6701de	-0.90237224
236	0x3f98f487	1.1949624
237	0xbfaf8c19	-1.371463
238	0xc016063e	-2.344131
239	0xbdb14f28	-0.08657676
240	0x3f200632	0.62509453
241	0xbf42167f	-0.75815576
242	0xbcc93b98	-0.02456455
243	0xba6ebd6a	-0.00091072044
244	0xbfd65fb3	-1.6747955
245	0x3ef8b8c1	0.48578456
246	0xbe005ef9	-0.12536229
247	0xbedeef78	-0.43542075
248	0xbf4b42ff	-0.793991
249	0xbff26704	-1.8937688
250	0xbe06ddae	-0.13170502
251	0xbfff933c	-1.9966807
252	0xbbedf79b	-0.007262183
253	0x3f8b1411	1.0865499
254	0xbf29a0a4	-0.66260743
255	0xbea863d4	-0.32888663

l1.bias f4 [189]
0	0xbea41316	-0.3204581
1	0x3e876193	0.2644163
2	0xbf756185	-0.9585193
3	0xbe9bc475	-0.30423322
4	0x3ea88f1b	0.3292168
5	0xbec006ba	-0.37505132
6	0x3e9d36ac	0.30705774
7	0x3eeed8ba	0.46649724
8	0xbdfed3f0	-0.124427676
9	0xbf2ec7ea	-0.68273795
10	0xbfa3d7e5	-1.2800261
11	0x3e2e9dcd	0.17052384
12	0xbe14d530	-0.1453445
13	0x3ea87499	0.32901457
14	0x3cba87ee	0.022769894
15	0xbeb0dc8d	-0.34543267
16	0xbe8ee8b9	-0.27911928
17	0x3ec00c29	0.37509277
18	0xbef2531c	-0.47329032
19	0x3e8dc8a2	0.27692133
20	0x3eaba3d9	0.33523443
21	0xbf241643	-0.6409647
22	0x3e0e7a08	0.13913739
23	0xbf1a0406	-0.6016239
24	0xbdb90c8f	-0.090355985
25	0x3de8a310	0.11359227
26	0xbe694250	-0.22779202
27	0xbf3d39ee	-0.7391652
28	0x3caaad6e	0.02083465
29	0x3e35a603	0.1773911
30	0x3df22185	0.118227996
31	0xbd5b3710	-0.05351931
32	0x3ef88f58	0.48546863
33	0xbe775af7	-0.24155794
34	0xbe8be606	-0.2732393
35	0xbeb4f5f7	-0.35343906
36	0xbf0f8051	-0.5605517
37	0xbfa01311	-1.2505819
38	0xbf83db9f	-1.0301398
39	0xbefb49bf	-0.490797
40	0x3f1cb566	0.6121429
41	0xbd85d004	-0.065338165
42	0xbf08fc7b	-0.53510255
43	0xbe6624d5	-0.22474988
44	0x3e8c4d62	0.27402788
45	0x3cec2263	0.02882499
46	0x3e87cbea	0.26522762
47	0x3dd481dc	0.10376331
48	0xbe25c3fa	-0.1618804
49	0xbea89d4d	-0.3293251
50	0xbc6ddaf7	-0.014517537
51	0xbe9a76ee	-0.3016886
52	0xbe9d7fd4	-0.30761588
53	0xbe1ee688	-0.15517628
54	0xbf2436eb	-0.641463
55	0xbd1b752c	-0.03795354
56	0xbe1455dc	-0.14485878
57	0xbeeff040	-0.46862984
58	0xbeb28f4a	-0.34874946
59	0x3f0ffbf2	0.56243813
60	0xbf806e87	-1.003373
61	0xbeafcda1	-0.3433657
62	0xbfa09113	-1.2544273
63	0xbf3e2b17	-0.742845
64	0xbeb342b6	-0.35011834
65	0xbd23a99a	-0.039956667
66	0xbe3168b5	-0.17325099
67	0xbeccd1f5	-0.40003935
68	0x3dd842be	0.10559605
69	0xbebfc872	-0.37457615
70	0xbf6bcebb	-0.9211232
71	0xbe80c7e8	-0.25152516
72	0xbeb313a6	-0.34975928
73	0xbf2ebf23	-0.682604
74	0x3cb4e03b	0.022079578
75	0xbdb7cfa7	-0.089751534
76	0xbe945a52	-0.2897516
77	0x3e98c124	0.29834855
78	0xbe168c47	-0.14701949
79	0xbe357168	-0.17719042
80	0xbdcd3a48	-0.10020882
81	0xbef1620f	-0.47145125
82	0xbe559899	-0.20858993
83	0x3eb287b7	0.34869167
84	0x3e85e251	0.26149228
85	0x3f0fbd5e	0.56148326
86	0x3eca3984	0.39497006
87	0xbf161995	-0.58632785
88	0x3e319aa8	0.17344153
89	0xbe93f676	-0.28898972
90	0xbd80b65e	-0.06284784
91	0xbf0b7815	-0.54480106
92	0xbe95baa5	-0.2924396
93	0xbff80c9c	-1.9378848
94	0xbcda2520	-0.02662903
95	0xbf6472b9	-0.8923755
96	0xbeefa08b	-0.46802172
97	0x3e9ddb8a	0.30831558
98	0xbf45c8e4	-0.7725966
99	0xbd05dd06	-0.032681488
100	0xbf3db011	-0.7409678
101	0x3f0e7197	0.55642074
102	0x3f185caa	0.59516394
103	0xbf232212	-0.6372386
104	0xbf3e4511	-0.74324137
105	0xbe50edd2	-0.20403221
106	0xbf164b70	-0.5870886
107	0xbe36f586	-0.17867097
108	0x3dacb5b4	0.084330946
109	0xbdee0c58	-0.11623448
110	0xbea0dade	-0.31416982
111	0xbb2ba1db	-0.0026189003
112	0xbf5fa625	-0.8736289
113	0xbf501fce	-0.8129853
114	0xbf0e437d	-0.5557173
115	0x3e027c14	0.12742645
116	0x3e20f93e	0.15720078
117	0x3e6ec528	0.23317397
118	0x3e422b10	0.1896174
119	0xbf26596f	-0.64980215
120	0xbd899710	-0.06718266
121	0xbffc22da	-1.9698136
122	0xbe8d1fe8	-0.27563405
123	0x3e6a4521	0.22877933
124	0xbdff08aa	-0.124528244
125	0xbdfd5590	-0.123698354
126	0x3e028ffa	0.12750235
127	0xbeb109b4	-0.34577715
128	0x3da3da50	0.08000624
129	0x3d5a1d9e	0.0532509
130	0xbebbbba4	-0.36666596
131	0xbeee9cc4	-0.46603978
132	0x3dc3c11a	0.095583156
133	0xbe475f9a	-0.19470063
134	0xbdabfce3	-0.08397844
135	0xbe1b1908	-0.15146267
136	0x3e07d6c4	0.1326552
137	0xbf3b114d	-0.73073274
138	0xbf697f7f	-0.9121017
139	0xbefd310e	-0.49451488
140	0xbf97e013	-1.1865257
141	0xbd8ef88c	-0.06981
142	0xbee5d977	-0.44892475
143	0x3e8687c6	0.26275462
144	0xbd9e501d	-0.07730124
145	0xbe830fd3	-0.2559801
146	0x3d0c0422	0.03418363
147	0xbedfc3ae	-0.4370398
148	0x3e67c950	0.22635388
149	0xbfb340cc	-1.400415
150	0x3e5b3820	0.21408129
151	0x3eab90f1	0.3350902
152	0x3e82d2b1	0.2555137
153	0x3e0eafd5	0.13934262
154	0xbb43980d	-0.0029845268
155	0xbeec4f88	-0.46154428
156	0x3e544193	0.2072814
157	0xbd90df86	-0.07073884
158	0xbf2e7268	-0.6814332
159	0xbe89db66	-0.269252
160	0x3f0b5e54	0.5444081
161	0xbed80a16	-0.42195195
162	0xbea119aa	-0.31464893
163	0xbf73766b	-0.95102566
164	0xbe404fe7	-0.1878048
165	0x3eb8afb0	0.3607154
166	0x3eaaa07b	0.33325562
167	0x3e8ea9eb	0.27864012
168	0x3eee0c26	0.46493644
169	0xbf76fd99	-0.9648071
170	0xbe443117	-0.19159351
171	0x3d6ea8f1	0.058266584
172	0x3e78c461	0.24293663
173	0xbe8f2fe1	-0.27966216
174	0xbe9318ca	-0.2872985
175	0xbf145522	-0.579424
176	0xbe876be0	-0.2644949
177	0xbf7bfb91	-0.98430735
178	0xbd901e79	-0.07037062
179	0xbe31a8e0	-0.17349577
180	0xbf13919f	-0.57644075
181	0xbf24901a	-0.6428238
182	0xbf0442d2	-0.5166446
183	0xbf5682d3	-0.8379337
184	0x3ede31cd	0.4339737
185	0x3ec19a26	0.37812918
186	0xbf45e348	-0.7729993
187	0xbefc7f52	-0.49315888
188	0xbef7fafc	-0.48433673

l2.weight f4 [119, 189]
0	0x3df48465	0.11939315
1	0x3ca9d583	0.020731693
2	0x3e5285df	0.2055888
3	0xbf107799	-0.5643249
4	0x3e3545f6	0.17702469
5	0xbeaaf42d	-0.33389416
6	0xbe08a017	-0.1334232
7	0xbea58650	-0.32329035
8	0xbd395156	-0.045243584
9	0xbe780e70	-0.24224257
10	0x3e40f07f	0.18841742
11	0xbd4b0da3	-0.049573552
12	0xbe1abc34	-0.15110856
13	0x3e2c656d	0.16835566
14	0xbe7fee56	-0.24993262
15	0xbebb491c	-0.36579216
16	0xbf08933a	-0.5334965
17	0x3d33e747	0.043921735
18	0xbe0e7e66	-0.13915405
19	0x3e7185ea	0.2358624
20	0xbe01e065	-0.12683256
21	0x3e9a8f5d	0.30187503
22	0x3d8e41b2	0.06946124
23	0x3e78b0c6	0.24286184
24	0x3e423e9b	0.18969195
25	0xbc1acbce	-0.009448005
26	0xbfabc043	-1.3418049
27	0xbde74cde	-0.11293958
28	0xbdeaeed4	-0.11471334
29	0xbf50c3a4	-0.81548524
30	0xbe3af61b	-0.18257944
31	0xbec8d5d5	-0.3922564
32	0xbdef8432	-0.11695136
33	0x3e682ded	0.2267377
34	0xbd835900	-0.0641346
35	0xbe96b557	-0.29435226
36	0xbd3958cd	-0.045250703
37	0xbdaf2163	-0.0855129
38	0xbf9ca124	-1.2236676
39	0xbe414e96	-0.18877634
40	0x3d365495	0.044514257
41	0xbe76551c	-0.24055904
42	0x3e52e5e2	0.20595506
43	0xbe88471e	-0.26616758
44	0xbe98fd2e	-0.2988066
45	0xbefe835b	-0.4970959
46	0xbdc778de	-0.097398505
47	0xbcc12149	-0.023575442
48	0xbeb046a0	-0.34428883
49	0x3db01dc2	0.08599426
50	0xbfaf3c2c	-1.3690238
51	0xbdad0bca	-0.08449514
52	0x3e753b8a	0.23948494
53	0x3e10835f	0.14112614
54	0xbe0e343d	-0.13887115
55	0x3e2cc8d3	0.16873483
56	0x3e26c86f	0.16287397
57	0xbef5066e	-0.47856468
58	0xbf00757e	-0.5017928
59	0xbe86a66e	-0.2629885
60	0xbdc888d2	-0.097917214
61	0x3e77ef27	0.24212323
62	0xbd6aa9eb	-0.057290953
63	0x3ea914f0	0.33023787
64	0xbbf6b648	-0.007529054
65	0xbe9757ae	-0.29559082
66	0x3ef3ca1e	0.4761514
67	0x3e874221	0.2641764
68	0xbe7b12e6	-0.24518928
69	0x3e1f93bf	0.15583704
70	0xbdaa89fa	-0.08327098
71	0xbe3a661d	-0.18203016
72	0x3d5437b6	0.051810943
73	0x3e584277	0.21119104
74	0x3df4a847	0.11946159
75	0x3debc0e4	0.115114
76	0x3ec23d9a	0.37937623
77	0x3bbcded5	0.0057638683
78	0xbe806abf	-0.2508144
79	0xbde66e76	-0.112515375
80	0xbf2c305a	-0.6726128
81	0x3e8ac5ba	0.27103978
82	0xbf19ff80	-0.6015549
83	0xbe0bdc05	-0.1365815
84	0x3e5f85a3	0.21828322
85	0xbeb80bbd	-0.35946456
86	0xbe59b31c	-0.21259731
87	0xbdb63e4f	-0.08898603
88	0x3e8b0c67	0.271579
89	0xbeb5ec87	-0.3553202
90	0x3e5116c2	0.20418838
91	0xbe911431	-0.28335717
92	0x3d25dbe5	0.04049291
93	0xbe633acb	-0.22190396
94	0xbef34ec2	-0.47521025
95	0x3ebb32f1	0.36562303
96	0x3e438217	0.19092594
97	0x3e0473de	0.12934825
98	0xbe88fd39	-0.26755694
99	0x3e9aa006	0.30200213
100	0xbe8384f9	-0.25687388
101	0xbe49d3d8	-0.19709718
102	0x3ce9d4e8	0.028543904
103	0xbe48527e	-0.19562718
104	0x3d19b676	0.037527524
105	0xbe610123	-0.2197309
106	0x3e7b84bf	0.24562357
107	0xbe5f2202	-0.21790317
108	0xbededfda	-0.4353016
109	0x3ea0f890	0.31439638
110	0x3e88b51c	0.26700675
111	0xbd991533	-0.074747466
112	0xbf16e1dc	-0.58938384
113	0x3c7b845f	0.015351384
114	0x3e3bd12c	0.18341511
115	0xbf3c4ac4	-0.73551583
116	0x3cb86fcc	0.022514246
117	0x3ed4faf3	0.4159771
118	0xbea5d762	-0.32390887
119	0xbeb4d120	-0.353158
120	0xbed5c89b	-0.41754612
121	0xbe6cf97f	-0.2314205
122	0x3c49b2c0	0.012310684
123	0xbee0f1c1	-0.43934444
124	0x3e474514	0.19459945
125	0xbf1e98d8	-0.6195197
126	0xbe6ce374	-0.23133641
127	0x3e9e7d52	0.30954987
128	0xbf0495c8	-0.5179105
129	0xbf532572	-0.8247901
130	0xbddc26c7	-0.10749584
131	0x3d27395d	0.04082619
132	0xbef4c57e	-0.47806925
133	0xbe4c07d8	-0.19924867
134	0xbe4875ec	-0.19576234
135	0x3e4294f1	0.19002129
136	0xbd6b5eb1	-0.05746335
137	0xbf103b0f	-0.56340116
138	0xbe4faf8f	-0.20281814
139	0xbe9883c7	-0.29788038
140	0x3c913105	0.01772357
141	0xbe5d2c04	-0.21598822
142	0xbf27486d	-0.6534489
143	0x3a5df50f	0.00084669975
144	0xbec0b621	-0.37638953
145	0x3e317061	0.17328025
146	0x3b9d07a9	0.004792173
147	0xbe407801	-0.18795778
148	0xbbfa261a	-0.0076339366
149	0x3d5fd0ea	0.054642595
150	0xbeea632f	-0.45778796
151	0xbc7eae11	-0.01554443
152	0xbf2deee3	-0.6794264
153	0xbb28b38a	-0.002574178
154	0x3f0c4911	0.5479899
155	0xbeefb53a	-0.46817952
156	0xbec31339	-0.38100603
157	0x3d85b2e6	0.06528263
158	0x3ea9a955	0.33137003
159	0x3e9ff47d	0.31241217
160	0x3dd20d9b	0.10256501
161	0x3e06b898	0.13156354
162	0xbe5b2443	-0.21400551
163	0xbe4113c9	-0.18855204
164	0x3e9a5f17	0.30150673
165	0x3e948fd4	0.29015982
166	0xbe202927	-0.15640698
167	0xbeac1b6f	-0.3361468
168	0xbe5ec76f	-0.21755765
169	0xbda13f8d	-0.078734495
170	0xbec300e1	-0.38086608
171	0xbd40fbde	-0.0471152
172	0xbe5d862a	-0.21633211
173	0xbefcd89a	-0.49384004
174	0x3ec436f9	0.3832319
175	0xbda732ed	-0.0816401
176	0xbe8acd26	-0.2710964
177	0x3ea8a012	0.32934624
178	0xbe82c37d	-0.2553977
179	0xbe52d221	-0.2058797
180	0x3d273c25	0.040828843
181	0xbf2ad7d0	-0.66735554
182	0xbeca667e	-0.3953132
183	0x3e5a5dcf	0.21324848
184	0xbd1b3c1c	-0.03789912
185	0xbd9a0ca5	-0.07521943
186	0xbe9fc09f	-0.31201646
187	0xbdcf2d2c	-0.10116038
188	0xbeffeaec	-0.4998392
189	0xbe790354	-0.24317676
190	0xbe1484b8	-0.14503753
191	0xbd7b7f00	-0.061400414
192	0xbe992546	-0.2991125
193	0xbe559b95	-0.20860131
194	0xbe005baf	-0.12534975
195	0x3e07953e	0.13240525
196	0xbcfc6b74	-0.030812956
197	0xbd940eaf	-0.07229363
198	0x3e17cd8e	0.14824507
199	0xbd836760	-0.064162016
200	0x3dd02011	0.10162366
201	0xbcd6d9a4	-0.026226826
202	0xbe9a0cad	-0.30087796
203	0xbea90036	-0.33007973
204	0x3e437236	0.19086537
205	0x3e1bc9ec	0.15213746
206	0xbe95586d	-0.29169026
207	0xbd277040	-0.040878534
208	0xbe333e30	-0.17504191
209	0xbe97e70d	-0.29668465
210	0xbdf04174	-0.11731234
211	0xbe3710f0	-0.17877555
212	0xbeb79941	-0.3585911
213	0xbca5a789	-0.020221489
214	0xbe086689	-0.13320364
215	0x3e9dd5bb	0.30827126
216	0x3d8823af	0.06647431
217	0xbd9ad572	-0.07560243
218	0x3eb45f08	0.35228753
219	0xbe71d23b	-0.23615353
220	0x3e6e7d2d	0.23289938
221	0xbcdb4a47	-0.026768817
222	0xbe14e41f	-0.14540146
223	0x3e204f60	0.15655279
224	0x3dc31092	0.09524645
225	0x3b542c8b	0.0032375182
226	0x3ca90b26	0.020635199
227	0xbdbcffe5	-0.092284955
228	0xbe67c3d0	-0.2263329
229	0x3d176b29	0.03696743
230	0x3df3295c	0.11873123
231	0xbea1d1c2	-0.31605345
232	0x3e144127	0.14477979
233	0x3e099c97	0.1343864
234	0x3eaeb839	0.34124926
235	0x3cfb61c2	0.030686263
236	0x3d802a99	0.06258125
237	0x3e095fde	0.13415477
238	0xbbdc7c92	-0.006728717
239	0x3f2a2a26	0.66470563
240	0x3d81c830	0.06337011
241	0xbe838dd1	-0.25694135
242	0xbe051778	-0.12997234
243	0x3e2de47c	0.16981691
244	0x3e1053cd	0.14094467
245	0xbdadfc47	-0.08495384
246	0xbc2a1557	-0.010381064
247	0x3e584c19	0.21122779
248	0x3d84dd18	0.06487483
249	0xbd811169	-0.06302149
250	0xbece5da1	-0.40305808
251	0xbc24f127	-0.010067261
252	0xbe00a016	-0.12561068
253	0x3e2aa08b	0.16662805
254	0xbcd9fccd	-0.026609803
255	0xbedb52a0	-0.42836475

l2.bias f4 [119]
0	0x3d82d517	0.063883
1	0x3e0ebdc5	0.13939579
2	0xbde4bfe6	-0.11169414
3	0xbcaaf877	-0.02087043
4	0xbdfca804	-0.12336734
5	0x3d9dbe4e	0.07702313
6	0xbd5cdbf3	-0.053920697
7	0x3d3c1bbf	0.0459249
8	0x3da0f755	0.07859675
9	0xbd9ed376	-0.07755177
10	0x3e2f7b1c	0.17136806
11	0x3e7e084d	0.24807854
12	0x3e26d507	0.16292201
13	0x3ed00ca7	0.40634653
14	0x3deaf629	0.114727326
15	0xbe6151ec	-0.22003907
16	0x3cb3f6a2	0.02196819
17	0x3b3c5312	0.0028736037
18	0x3d76b9c2	0.060235746
19	0x3df9985f	0.121872656
20	0x3c1ce487	0.00957597
21	0x3e6cb355	0.23115285
22	0x3e5b6cf3	0.2142828
23	0x3e0114eb	0.12605636
24	0x3d57e185	0.052705307
25	0x3e819219	0.25306776
26	0x3dd1f9c1	0.10252715
27	0x3e55d639	0.208825
28	0xbd9b63f5	-0.07587425
29	0xbe233d05	-0.15941246
30	0x3e1a8ff1	0.15093972
31	0x3df638c5	0.12022547
32	0x3e4d5194	0.20050651
33	0x3b21d331	0.002469253
34	0x3e3fe924	0.1874128
35	0x3ebcb78e	0.3685879
36	0xbe1cb21c	-0.15302318
37	0xbe86627c	-0.26247013
38	0xbd788cc8	-0.060681134
39	0x3ebe81fc	0.37208545
40	0x3cc0187c	0.023449175
41	0x3e5c3dda	0.2150797
42	0xbe6bfcba	-0.23045626
43	0x3d4e4b51	0.050364796
44	0x3df7d114	0.12100425
45	0x3dfb4b3b	0.122702084
46	0x3c306c87	0.010768062
47	0x3d356278	0.04428336
48	0x3e425465	0.18977506
49	0x3e14701b	0.1449589
50	0x3e4f367a	0.20235625
51	0x3b906c81	0.004407466
52	0x3da8581b	0.0821993
53	0x3d8db1bb	0.06918665
54	0x3d574cd6	0.05256351
55	0xbce78788	-0.028262869
56	0xbdb7b0ae	-0.08969246
57	0x3e970c3d	0.29501525
58	0x3e1aad9f	0.15105294
59	0x3e6e77d1	0.23287894
60	0x3e53184f	0.20614742
61	0x3d0236e5	0.031790633
62	0xbe1ab84e	-0.15109369
63	0xbd65fdcb	-0.05615024
64	0xbe7676fd	-0.24068828
65	0x3e5e2b6e	0.21696255
66	0xbd994fa8	-0.07485896
67	0x3e832e69	0.25621346
68	0xbd119584	-0.03554298
69	0x3c314054	0.01081856
70	0x3e9ec6a6	0.31010932
71	0x3d7ee0c6	0.06222608
72	0xbd3dd5cb	-0.046346467
73	0xbe091693	-0.13387518
74	0x3e1377e7	0.14401208
75	0xbd9b7378	-0.07590383
76	0x3e6c104e	0.23053095
77	0xbeac9e2f	-0.33714435
78	0x3dda1e8b	0.10650357
79	0x3da23243	0.07919743
80	0xbe91f06d	-0.28503743
81	0x3e4ee932	0.20206144
82	0x3d83c378	0.06433767
83	0x3e1f4de0	0.1555705
84	0x3e9998ab	0.2999929
85	0x3de7f480	0.113259315
86	0x3df0de83	0.11761191
87	0x3e9a06a7	0.300832
88	0x3cd73908	0.026272312
89	0xbe82bdaf	-0.25535342
90	0x3d79d1ea	0.060991205
91	0x3d3e6525	0.046483178
92	0x3b62c60a	0.0034602904
93	0x3bfb5462	0.0076699713
94	0x3dfab001	0.12240601
95	0x3cbed9fe	0.023297306
96	0xbcaca195	-0.021073142
97	0x3e744f56	0.2385839
98	0x3e5f2053	0.21789674
99	0x3e18b0d2	0.14911202
100	0x3e294e28	0.1653372
101	0xbe7c9c9e	-0.2466912
102	0x3c130648	0.008973666
103	0x3e3c92d8	0.18415391
104	0xbc0423d5	-0.008065184
105	0x3e3daea2	0.18523648
106	0xbd2a912a	-0.041642345
107	0x3e77b844	0.24191386
108	0x3e97bdde	0.29637045
109	0xbe315df4	-0.17320997
110	0xbe0f3104	-0.13983542
111	0x3d9da055	0.076965965
112	0x3dd2ec61	0.10298992
113	0x3e06e177	0.13171946
114	0x3d9b5ce4	0.07586077
115	0x3ddf05f5	0.10889808
116	0x3dcadd88	0.09905535
117	0x3e8450b7	0.2584283
118	0x3db28dd8	0.08718461

l3.weight f4 [9, 119]
0	0xbcea15a4	-0.028574772
1	0x3e80fb1c	0.2519158
2	0xbe2dc383	-0.16969113
3	0xbe68f66a	-0.2275025
4	0x3e7e109a	0.2481102
5	0x3e2a50df	0.16632412
6	0x3ea49be3	0.32150182
7	0x3df4cee4	0.11953524
8	0x3f1287ae	0.5723828
9	0xbdbf04f5	-0.09327117
10	0xbddaac67	-0.106774144
11	0x3ebe6d62	0.37192827
12	0xbd2322b9	-0.039828036
13	0x3e8e8804	0.27838147
14	0xbe09987d	-0.13437076
15	0xbef88e1b	-0.48545918
16	0xbe263fd3	-0.16235285
17	0xbda388f9	-0.0798511
18	0x3e5263b6	0.20545849
19	0xbcac217e	-0.021012064
20	0x3d52081c	0.051277265
21	0x3ddab188	0.10678393
22	0xbe0bb40a	-0.13642898
23	0xbd1be439	-0.038059447
24	0x3eefd1f2	0.46839863
25	0xbd9730ac	-0.0738233
26	0xbefc5780	-0.49285507
27	0x3e6ecd0f	0.23320411
28	0xbe8fcef5	-0.28087583
29	0x3ca27de3	0.019835418
30	0xbe6b92e8	-0.23005259
31	0x3e7298b8	0.2369107
32	0x3e8a5026	0.27014273
33	0x3e88fae7	0.26753923
34	0x3f120217	0.5703444
35	0x3e93838c	0.288113
36	0xbf2abcb9	-0.6669422
37	0x3e236619	0.15956916
38	0x3c9fc1d1	0.019501599
39	0x3eaf8d8b	0.34287676
40	0x3e98b709	0.29827145
41	0x3eb21605	0.34782425
42	0xbd1bb574	-0.038014844
43	0x3e086eff	0.13323592
44	0xbe8e2882	-0.2776528
45	0xbdcef936	-0.10106127
46	0xbc98a9c6	-0.018635642
47	0x3dd5b4ce	0.104348764
48	0x3e95a0df	0.29224297
49	0x3aca4c26	0.0015434071
50	0x3d680df3	0.056653928
51	0xbdced508	-0.10099226
52	0xbe4338e9	-0.19064678
53	0x3c80decb	0.015731236
54	0x3e1cf8d6	0.15329298
55	0xbe53aed0	-0.20672154
56	0x3ebc914e	0.3682961
57	0xbbcff3b4	-0.0063461903
58	0xbe450706	-0.1924096
59	0x3dbd40d0	0.09240878
60	0xbeefbc2b	-0.46823248
61	0xbea553f1	-0.32290605
62	0x3ce13845	0.027492652
63	0xbeb80612	-0.3594213
64	0xbe24fd0c	-0.16112155
65	0x3dbfb06f	0.09359824
66	0x3d2eba9b	0.04265843
67	0xbe5ed611	-0.21761347
68	0x3ef7ee34	0.48423922
69	0x3e7f7aee	0.24949238
70	0xbf0f3cc9	-0.55952126
71	0x3e4487d8	0.19192445
72	0xbe90c91b	-0.2827843
73	0xbdf4c3a3	-0.11951377
74	0x3e87a4dc	0.26492965
75	0x3e8c1494	0.2735945
76	0x3ecd82ee	0.40138954
77	0xbdb5a550	-0.088694215
78	0xbf0024f3	-0.5005638
79	0x3d9b5f79	0.07586569
80	0xbdbc9f60	-0.09210086
81	0x3e347bab	0.176253
82	0xbb7786b9	-0.003776951
83	0x3e843c5a	0.25827295
84	0xbd05ce0e	-0.032667212
85	0x3e9cde0c	0.30638158
86	0x3e98a714	0.2981497
87	0xbed0b16e	-0.40760368
88	0xbbc44bbf	-0.005990475
89	0x3e0aa006	0.13537607
90	0x3e703e74	0.23461324
91	0x3d8c5460	0.06852031
92	0xbd577c65	-0.052608866
93	0xbae56afc	-0.0017503197
94	0xbe1f1c63	-0.15538172
95	0xbf29a9bf	-0.66274637
96	0x3ee873c8	0.45400834
97	0xbe5bcb03	-0.21464162
98	0x3e39d168	0.18146288
99	0x3e16fc19	0.14744605
100	0xbeadcd3c	-0.33945644
101	0xbeca530e	-0.3951649
102	0x3d7cfd0d	0.061764766
103	0xbdfcede6	-0.12350063
104	0xbe7627a4	-0.24038559
105	0x3ead865d	0.33891574
106	0x3ea28494	0.31741774
107	0x3eb76903	0.35822305
108	0x3e7658fc	0.24057382
109	0x3df5e87a	0.12007232
110	0x3f5b27d9	0.8560768
111	0x3e8d0d94	0.27549422
112	0xbb1e9e59	-0.002420327
113	0x3e468ec2	0.19390395
114	0x3d4b013b	0.04956172
115	0x3e6bd746	0.23031339
116	0x3ed2d497	0.41177818
117	0xbee78b5d	-0.45223513
118	0xbdcb7776	-0.09934895
119	0xbebcc81c	-0.3687142
120	0xbea68ea8	-0.32530713
121	0x3f013a44	0.5047953
122	0x3ee47380	0.4461937
123	0x3e281b70	0.16416717
124	0x3c4074a2	0.011746557
125	0x3eaaf2ec	0.3338846
126	0xbe68c530	-0.22731471
127	0xbd1970a7	-0.03746095
128	0x3df4b771	0.11949051
129	0x3de58f9e	0.112090334
130	0xbe1cc388	-0.15308964
131	0x3e9211ea	0.28529292
132	0x3e9b4b12	0.30330712
133	0xbe3593cf	-0.17732166
134	0x3e94bac8	0.29048753
135	0x3c0f205d	0.008735743
136	0xbe8a1d41	-0.26975444
137	0x3e7f9348	0.24958527
138	0xbdc935b8	-0.09824699
139	0x3e43a006	0.19104013
140	0xbddb98d6	-0.107225105
141	0xbe667e0e	-0.22509024
142	0xbd501e3f	-0.050810095
143	0x3eebde95	0.46068254
144	0x3db04cc6	0.08608393
145	0xbef84eaf	-0.4849753
146	0x3e9467f0	0.28985548
147	0x3f07a9e5	0.52993613
148	0x3d079a9e	0.03310644
149	0x3e8599a7	0.2609379
150	0xbeefff9d	-0.46874705
151	0x3e193a14	0.14963561
152	0x3f1b6ed7	0.60716003
153	0x3e2f9f23	0.1715055
154	0x3e6b7ee1	0.22997619
155	0x3cdaa86f	0.026691644
156	0x3ea30e27	0.31846735
157	0xbe0a3925	-0.13498361
158	0x3e5bd499	0.21467818
159	0x3f10e698	0.5660186
160	0x3ea14054	0.3149439
161	0x3e275f86	0.16345033
162	0x3eb16257	0.3464534
163	0xbd706a83	-0.058695327
164	0x3e8349dd	0.2564229
165	0x3c466667	0.012109376
166	0x3e88a5c1	0.2668896
167	0xbf3ac8ed	-0.7296284
168	0x3cbf2213	0.023331678
169	0x3bd1139f	0.006380513
170	0xbe2c36f9	-0.16817845
171	0x3e0e8db6	0.13921246
172	0xbe77ca95	-0.24198373
173	0x3e4b02f0	0.1982534
174	0xbe07b5bf	-0.13252924
175	0x3eb6b45a	0.35684472
176	0x3e130040	0.14355564
177	0x3eb6ff90	0.35741854
178	0x3e904485	0.28177276
179	0xbee1b57e	-0.4408378
180	0xbe2d5d89	-0.16930212
181	0xbe218442	-0.15773109
182	0xbba6dfe9	-0.00509261
183	0x3e90bcbe	0.28269
184	0x3e9f1fe2	0.31079012
185	0xbe7a044d	-0.24415703
186	0xbed676b1	-0.4188743
187	0x3dfbdd67	0.122980885
188	0x3e9aa102	0.30200964
189	0xbf00a3b5	-0.502498
190	0x3e057127	0.13031445
191	0xbe02a3ef	-0.12757848
192	0x3eaef852	0.34173828
193	0xbeafd5d4	-0.34342825
194	0x3e7a77ae	0.24459717
195	0xbeb82998	-0.35969234
196	0x3e91052e	0.28324264
197	0x3d7e640e	0.06210714
198	0x3eb6b6cf	0.35686347
199	0x3e7d29c8	0.2472297
200	0x3e3d27be	0.18472192
201	0xbeea98f1	-0.4581981
202	0x3e1b087a	0.15139952
203	0x3d6fdf13	0.05856235
204	0x3eb41c90	0.3517804
205	0x3e85e821	0.26153663
206	0xbf0b8e39	-0.5451389
207	0xbd9adbaa	-0.07561429
208	0xbeaf81b1	-0.34278634
209	0x3d449a51	0.04799873
210	0x3d8cff03	0.06884577
211	0x3e3ef513	0.18648176
212	0x3e45b401	0.19306947
213	0x3e7a083f	0.24417208
214	0xbdd93e36	-0.10607569
215	0x3dba3e6c	0.09093937
216	0x3da673f3	0.08127584
217	0x3e28f1fc	0.1649856
218	0xbedfa67e	-0.4368171
219	0xbe685bbd	-0.22691245
220	0x3d96eed1	0.07369769
221	0x3f08c6d3	0.5342838
222	0xbea471a2	-0.32117945
223	0xbe32dd31	-0.1746719
224	0x3e4441a3	0.19165663
225	0x3e8bd726	0.27312583
226	0x3da35455	0.079750694
227	0x3ec9629b	0.39333043
228	0xbad6bd11	-0.001638325
229	0xbee5b06e	-0.44861168
230	0x3df42438	0.11920971
231	0x3c24a7e1	0.010049791
232	0xbe7f68a5	-0.24942262
233	0xbebc6451	-0.36795285
234	0x3ed026e1	0.40654662
235	0x3e7b6d60	0.24553442
236	0xbe5a6991	-0.21329333
237	0xbe72ee00	-0.23723602
238	0xbe29f7d0	-0.16598439
239	0x3cc1ab47	0.023641242
240	0xbd21bded	-0.039487768
241	0x3de58195	0.112063564
242	0x3e9d4bfa	0.30722028
243	0xbe4935db	-0.1964945
244	0x3ead34dd	0.33829394
245	0x3e96d3b5	0.29458395
246	0xbdedf8c1	-0.11619712
247	0xbdb32daf	-0.08748948
248	0x3e22a814	0.15884429
249	0xbe2572dc	-0.16157097
250	0x3ebc9210	0.36830187
251	0x3e706e1e	0.23479506
252	0xbe29aa14	-0.16568786
253	0xbefaf461	-0.4901457
254	0x3debd8ba	0.11515947
255	0xbc549bdd	-0.012976614

l3.bias f4 [9]
0	0x3e7510ce	0.23932192
1	0x3e919fed	0.28442326
2	0x3e9a8ecb	0.30187067
3	0x3e9e9c50	0.30978632
4	0x3e7eea02	0.24893954
5	0x3edbe2ab	0.4294637
6	0x3d52b38e	0.051440768
7	0x3e7dcad5	0.24784406
8	0x3e8d35f6	0.2758023

l4.weight f4 [53, 9]
0	0x3f04f121	0.51930434
1	0xbd535a96	-0.05160006
2	0xbd57a0eb	-0.052643698
3	0x3fb53a2a	1.4158375
4	0xbe49f760	-0.19723272
5	0x3fb11616	1.3834865
6	0xbf299abc	-0.6625173
7	0xbeabb4e9	-0.3353646
8	0x3f5e8e48	0.86935854
9	0xbd254ad0	-0.04035455
10	0x3ed3b0c0	0.41345787
11	0xbe9acd7c	-0.30234897
12	0x3f4c76d3	0.7986881
13	0x3e77d333	0.2420166
14	0x402d2791	2.70554
15	0xbed35f71	-0.41283754
16	0xbf3cb2f1	-0.7371054
17	0x3f70edbc	0.94112754
18	0xbec980c7	-0.39356062
19	0x3eb9b6cf	0.36272284
20	0x3f3651ca	0.7121855
21	0x3e4f2abe	0.20231149
22	0x3f26cba3	0.65154475
23	0xbd9aaf8b	-0.075530134
24	0x3ef3034c	0.47463453
25	0x3f8c56ce	1.0963991
26	0x3f3c3362	0.73515904
27	0x3f5c8e65	0.86154777
28	0xbe0c7970	-0.137182
29	0x3a020d66	0.0004961103
30	0x3f8cfaf4	1.1014085
31	0x3d970f5e	0.07375978
32	0xbeca18d9	-0.39472082
33	0x3fc772fe	1.5581968
34	0x3f55add5	0.8346837
35	0xbd6d3e10	-0.057920516
36	0xbf190a6c	-0.5978153
37	0x3ee3d49a	0.4449814
38	0x3ee3af9c	0.44469917
39	0x3eb60c58	0.35556293
40	0x3f4b95c7	0.7952542
41	0x3f9e72cf	1.2378787
42	0xbe2d8f61	-0.16949226
43	0x3e195f04	0.14977652
44	0x3f636270	0.8882208
45	0xbe97fb17	-0.29683754
46	0x3f44d6c0	0.7689018
47	0xbd1f561f	-0.03890049
48	0xbf6b74a1	-0.91974837
49	0xbf045789	-0.5169607
50	0xbf06a6dc	-0.5259836
51	0x3fdc9b1e	1.7234838
52	0x3ebaf660	0.36516094
53	0xbf8b1498	-1.086566
54	0x3e04b744	0.12960535
55	0xbed07cb9	-0.40720156
56	0x3f2867e1	0.65783507
57	0x3f854d91	1.0414296
58	0x3f4cb7c7	0.7996792
59	0x3edd9ba5	0.4328281
60	0x3dfa8fb7	0.12234443
61	0x3f83b7de	1.0290487
62	0x3f776726	0.9664177
63	0x3e5ec214	0.21753722
64	0xbea8afce	-0.32946628
65	0x3f12f381	0.5740281
66	0x3f1dc581	0.6162949
67	0x3f31be8a	0.69431365
68	0x3e9b3f82	0.3032189
69	0x3f3a39e2	0.7274457
70	0x3faee2e0	1.3662987
71	0x3f2b5a68	0.66934824
72	0x3f37d7d1	0.71813685
73	0xbe355a40	-0.17710209
74	0x3d03cc5a	0.032177307
75	0x3fb7c7e6	1.4357879
76	0xbddbf0a7	-0.1073926
77	0x3f14a89c	0.5806978
78	0x3e91ea85	0.28499237
79	0xbd8ca863	-0.06868055
80	0x3e09a9af	0.13443635
81	0x3f51d168	0.81960154
82	0x3d2fa045	0.042877454
83	0xbec488c0	-0.38385582
84	0x3fa3b4af	1.2789515
85	0xbd369ef4	-0.044585183
86	0x3f3efca5	0.74604255
87	0x3eaeee53	0.34166202
88	0xbd43d828	-0.047813565
89	0x3ed96e61	0.42467025
90	0xbeebc239	-0.46046618
91	0x3ec678de	0.3876409
92	0x3f42c7f9	0.76086384
93	0x3c88fdf1	0.016722651
94	0x3f3532cd	0.7078064
95	0x3e0ecf79	0.13946332
96	0x3e049659	0.12947978
97	0x3f356b71	0.7086707
98	0x3f97d7b3	1.1862701
99	0xbef4feab	-0.47850546
100	0x3eb9824e	0.36232227
101	0x3f21d856	0.6322073
102	0xbe01faf2	-0.12693384
103	0x3f365162	0.7121793
104	0x3e641a9e	0.22275779
105	0x3ef293f6	0.4737851
106	0x3f84dd60	1.0380058
107	0x3f90567a	1.127639
108	0x3f435953	0.7630817
109	0x3f0fee96	0.5622343
110	0xbe6bb7ba	-0.23019305
111	0xbe6b54b2	-0.22981527
112	0xbf0723c0	-0.52788925
113	0x3f0f7452	0.56036866
114	0x3ee632d2	0.44960648
115	0xbe4a03c2	-0.19727996
116	0xbf502a94	-0.8131497
117	0x3f3ed91f	0.7455005
118	0xbe70122c	-0.23444432
119	0xbe95fbfe	-0.29293817
120	0x3fa777ff	1.3083495
121	0x3e8bc1cc	0.27296293
122	0x3fa79cad	1.3094689
123	0xbd6a0793	-0.05713613
124	0xbb893261	-0.004186914
125	0x3f0ce6c4	0.5503962
126	0xbefe2944	-0.49640858
127	0x3e809577	0.25114033
128	0x3e9e934a	0.30971748
129	0x3f0e9af8	0.55705214
130	0x3f2260ee	0.6342915
131	0x3fbafa06	1.4607551
132	0xbe91206a	-0.28345042
133	0xbda2be50	-0.079464555
134	0x3f89b9e6	1.0759857
135	0xbdc8ef9d	-0.098113276
136	0x3e90e3fe	0.28298944
137	0x3d7d5f4e	0.061858468
138	0x3f008bbf	0.50213236
139	0x3ed78ba9	0.4209874
140	0x4011d443	2.2785804
141	0xbf281be9	-0.6566759
142	0xbf38613b	-0.7202336
143	0x3fbbc898	1.4670591
144	0xbf0dd1b5	-0.5539811
145	0x3ea5a6c6	0.323538
146	0x3f22811e	0.6347827
147	0x3ef5f672	0.48039585
148	0x3ee07766	0.43841094
149	0x3e6ccf82	0.23126033
150	0x3e5ee863	0.21768336
151	0x3e9db8e2	0.30805117
152	0x3f4e4b8d	0.8058403
153	0xbd04c849	-0.03241757
154	0x3ec6471d	0.3872613
155	0xbd1fe1ca	-0.03903369
156	0x3f4f9151	0.8108111
157	0x3abd750d	0.001445444
158	0x403770e8	2.8662663
159	0xbef8adfa	-0.48570234
160	0xbf706da2	-0.93917286
161	0x3f9876c8	1.1911249
162	0x3e85cf87	0.26134893
163	0x3d7a6183	0.06112815
164	0xbeb12e9f	-0.34605882
165	0x3f9df6c9	1.2340938
166	0x3eb06678	0.34453177
167	0x40154025	2.33204
168	0xbf196a75	-0.59928066
169	0xbe990e18	-0.29893565
170	0x3f39e2ea	0.7261187
171	0xbeeca71a	-0.46221238
172	0x3f1b771f	0.6072864
173	0xbdb39bf8	-0.08769983
174	0xbf49f3e4	-0.7888777
175	0xbedc7274	-0.4305607
176	0xbf7b5f80	-0.98192596
177	0x3f926537	1.1437138
178	0xbe37a1ec	-0.17932862
179	0xbfe354f1	-1.7760297
180	0xbedee55a	-0.43534356
181	0x3dcfb6a1	0.101422556
182	0x3f1a3cf0	0.60249233
183	0x3f1549e2	0.5831586
184	0x3f576958	0.84145117
185	0x3f5da0bc	0.86573386
186	0xbe62e80c	-0.22158831
187	0x3d85cfce	0.06533776
188	0x3f9a6e2a	1.2064869
189	0xbe9f20c5	-0.3107969
190	0x3e8f87fd	0.28033438
191	0x3eca25d6	0.39481992
192	0x3e559435	0.20857318
193	0xbd90d456	-0.0707175
194	0x40005fec	2.0058546
195	0xbedd3c1f	-0.4320993
196	0xbf7abf0e	-0.97947776
197	0x3fb26c5e	1.3939321
198	0x3e7f0573	0.24904422
199	0xbde12fcc	-0.10995445
200	0x3ddcbfdb	0.10778781
201	0x3fae7527	1.3629502
202	0x3f038e38	0.51388884
203	0x3fb55f62	1.4169734
204	0xbf52223f	-0.82083505
205	0x3d96065b	0.07325431
206	0x3f8c3dbd	1.0956341
207	0xbf01ce0b	-0.5070502
208	0x3f022919	0.5084396
209	0x3e6932de	0.2277331
210	0x3d8e56bf	0.06950139
211	0x3f983f26	1.1894271
212	0xbdc120fe	-0.09430121
213	0x3f84e72c	1.0383048
214	0x3f73938c	0.95147014
215	0x3f5d0649	0.86337715
216	0xbe564221	-0.20923664
217	0xbe70da9e	-0.23520896
218	0x3f3a1247	0.7268414
219	0x3ebf3e23	0.37352094
220	0x3f2853db	0.65752953
221	0x3f386eaf	0.7204389
222	0xbd6cc75b	-0.057807308
223	0x3f6de190	0.92922306
224	0x3fa29487	1.2701577
225	0xbe2a8532	-0.16652372
226	0x3f0da662	0.55332005
227	0xbe5930ba	-0.21209994
228	0x3ebc7c35	0.36813512
229	0xbe92e31a	-0.2868889
230	0x40159edc	2.337821
231	0xbf479b72	-0.77971566
232	0xbf8b8e06	-1.0902717
233	0x3fa3336b	1.2750067
234	0xbe8d6670	-0.27617216
235	0x3dc89a49	0.097950526
236	0x3f3adf62	0.72997105
237	0x3ea16692	0.31523567
238	0x3f2a4f1f	0.6652698
239	0xbd9c475f	-0.076308005
240	0x3e881658	0.26579547
241	0x3f4c45c2	0.7979394
242	0x3f98bcde	1.1932638
243	0x3ef36dbf	0.47544667
244	0xbeba54e3	-0.36392888
245	0x3dbbfb68	0.09178811
246	0x3fafb54d	1.3727204
247	0x3f3fbbe0	0.7489605
248	0x3ef09700	0.46990204
249	0x3e9d9d93	0.30784282
250	0x3f15e74d	0.5855606
251	0x3f7bdc09	0.9838262
252	0xbe923b55	-0.28560892
253	0x3e447e28	0.1918875
254	0x3f69d276	0.9133676
255	0xbddadf74	-0.106871516

l4.bias f4 [53]
0	0x3f2d5e56	0.6772207
1	0x3f92cdc6	1.1469047
2	0x3e6477a0	0.22311258
3	0x3e655700	0.22396469
4	0x3eebfb12	0.4608999
5	0x3f14c225	0.5810874
6	0x3da067cc	0.07832298
7	0x3e9f51f3	0.3111721
8	0x3e44260b	0.19155137
9	0x3ebae5fa	0.36503583
10	0x3e7a9e81	0.24474527
11	0x3e49373a	0.19649974
12	0x3f94cf60	1.1625786
13	0x3e95a3c2	0.292265
14	0x3f43bd48	0.76460695
15	0x3f670a82	0.9025041
16	0x3ea8684a	0.32892066
17	0x3f5e1daf	0.86764044
18	0x3f97c929	1.1858264
19	0x3fa8d830	1.3190975
20	0x3e5d9ed7	0.21642624
21	0x3f5904cb	0.8477294
22	0x3edb76e5	0.42864147
23	0x3ea71eb3	0.3264061
24	0x3e2d6a88	0.1693517
25	0x3f8e2c2e	1.1107233
26	0x3e2a4e0f	0.1663134
27	0x3f30f359	0.6912132
28	0x3c1e871b	0.009675766
29	0x3f0f337c	0.55937934
30	0x3f7556cd	0.9583557
31	0x3e49342e	0.19648811
32	0x3f624b8b	0.8839652
33	0xbda047a5	-0.07826165
34	0x3f5d9c9c	0.8656709
35	0x3fa6dac8	1.3035517
36	0x3f28f440	0.65997696
37	0x3ee29147	0.44251463
38	0x3f49b0a2	0.78785145
39	0x3f86717f	1.0503386
40	0x3fa8596d	1.315229
41	0x3f0d6adf	0.552412
42	0x3ecf40b0	0.4047904
43	0x3f598461	0.8496762
44	0x3e7862f3	0.24256496
45	0x3ee1bcdb	0.44089398
46	0x3f82f37e	1.0230558
47	0x3f122d89	0.5710073
48	0x3e8a0c54	0.2696253
49	0x3de953ba	0.11392923
50	0x3e427939	0.18991555
51	0x3f27b453	0.6550953
52	0xbe07dde7	-0.13268243

l5.weight f4 [85, 53]
0	0x3e9cf006	0.30651873
1	0x3f154203	0.5830385
2	0xbe979a9b	-0.29610142
3	0x3f008c69	0.5021425
4	0xbeb649b1	-0.35603097
5	0x3e03d68b	0.1287481
6	0xbe52d5e5	-0.20589407
7	0x3e321e0e	0.17394277
8	0x3f154bd4	0.5831883
9	0x3f5ff65f	0.8748531
10	0xbec5797e	-0.38569254
11	0xbebd6e20	-0.3699808
12	0x3f7df050	0.9919481
13	0x3f2fc4f8	0.68659925
14	0xbd995009	-0.074859686
15	0x3e51b2e8	0.20478404
16	0xbe7bead3	-0.24601297
17	0x3ea670aa	0.3250783
18	0x3f388e69	0.720923
19	0xbe495f5d	-0.19665284
20	0xbe80e29c	-0.2517289
21	0x3df4d0f2	0.11953916
22	0x3e3982d9	0.1811632
23	0xbdd5be97	-0.10436743
24	0xbead0fe7	-0.33801195
25	0x3eb882c4	0.36037266
26	0xbed2410f	-0.4106526
27	0x3e89a387	0.26882574
28	0xbeab9917	-0.33515236
29	0x3f195679	0.5989757
30	0x3f385978	0.7201152
31	0x3ed54763	0.41656026
32	0xbdbddf82	-0.09271146
33	0x3da560b5	0.08075086
34	0x3f03436a	0.5127474
35	0x3f5f5870	0.8724432
36	0x3dd4a553	0.103830956
37	0x3e34a862	0.17642358
38	0x3e2e308e	0.1701071
39	0x3e846cd1	0.2586427
40	0x3f4efc7e	0.8085402
41	0x3f20241a	0.62555087
42	0xbe627d45	-0.22118099
43	0xbe8be5f7	-0.27323887
44	0xbe3ccd86	-0.18437776
45	0x3e305b8b	0.17222421
46	0x3f054174	0.52053
47	0x3f2c2f0e	0.672593
48	0x3e300e25	0.17192896
49	0x3e012cb9	0.12614717
50	0x3f02b2ea	0.5105425
51	0x3e161986	0.14658174
52	0xbe267d09	-0.16258635
53	0x3ec98a06	0.39363116
54	0x3dedea5d	0.11616967
55	0x3d90366a	0.07041629
56	0x3ec6f873	0.38861427
57	0x3da660d9	0.08123941
58	0xbf970b6e	-1.1800363
59	0x3f120b74	0.57048726
60	0x3f063f40	0.5244026
61	0x3ede1875	0.43378034
62	0x3eebee1c	0.460801
63	0x3cbf214e	0.02333131
64	0x3e45094a	0.19241825
65	0xbf319dc2	-0.69381344
66	0x3f114370	0.56743526
67	0x3e297efa	0.16552344
68	0x3da1ce66	0.079006955
69	0x3e4293c0	0.19001675
70	0x3e58b6d6	0.21163496
71	0x3ed174d6	0.4090945
72	0xbfdee32b	-1.7413076
73	0x3eaad58d	0.3336605
74	0x3d9c4166	0.07629661
75	0x3ef9daed	0.4879984
76	0xbba9dc79	-0.005183753
77	0x3ef9deba	0.4880274
78	0xbb1b282b	-0.0023675065
79	0x3e66f912	0.2255595
80	0x3f0e5e7c	0.5561292
81	0x3e3f142e	0.18660042
82	0x3e801cee	0.25022072
83	0x3e5bddef	0.2147138
84	0x3ec60edf	0.3868322
85	0xbf855281	-1.0415803
86	0x3f07b31e	0.53007686
87	0x3f0c4905	0.5479892
88	0xbf27b813	-0.6551525
89	0x3f145c89	0.579537
90	0x3e083b27	0.13303815
91	0xbf8a2dc7	-1.079522
92	0x3e8d2d55	0.27573648
93	0x3e309544	0.1724444
94	0x3f347554	0.7049153
95	0x3f1efa19	0.6210037
96	0xbf20495f	-0.62611955
97	0x3e22c2c6	0.15894613
98	0x3efb1823	0.49041852
99	0x3e52be3b	0.2058038
100	0x3f464824	0.7745383
101	0x3f0a7ed4	0.54099774
102	0x3f1734da	0.5906502
103	0x3f229ceb	0.6352069
104	0x3e52c0e4	0.20581394
105	0x3f1262bd	0.5718191
106	0x3ea5c213	0.3237463
107	0xbd8093d5	-0.06278197
108	0x3e35e5c8	0.17763436
109	0x3efc72f2	0.49306446
110	0xbdeb58ee	-0.11491571
111	0xbf600ea2	-0.8752233
112	0x3f0b48c0	0.5440788
113	0x3f10daa5	0.56583625
114	0x3f02d083	0.51099414
115	0x3e784895	0.24246438
116	0x3e46565f	0.19368885
117	0x3e021c6a	0.12706152
118	0xbf315ccb	-0.69282216
119	0x3f158594	0.5840695
120	0x3e19a41b	0.15004008
121	0x3dc5598b	0.096362196
122	0x3e62aeb8	0.22136962
123	0x3b9b46c2	0.0047386596
124	0x3e133f24	0.14379555
125	0xbfe28f79	-1.7700034
126	0x3de25989	0.11052234
127	0xbd65aa05	-0.056070346
128	0x3ec634f0	0.38712263
129	0xbc9aeb47	-0.018911017
130	0x3eead201	0.45863345
131	0xbe418d7d	-0.1890163
132	0x3ec57d68	0.3857224
133	0x3f0db3aa	0.5535227
134	0x3e8d2a01	0.2757111
135	0x3d243f81	0.040099625
136	0x3e0099fd	0.12558742
137	0x3f1138da	0.56727374
138	0xbfadb526	-1.3570907
139	0x3f51a6f1	0.8189536
140	0x3ec64149	0.38721684
141	0xbf1a59d9	-0.60293347
142	0x3f3916e3	0.7230055
143	0x3d93c0ab	0.07214483
144	0xbf57f992	-0.8436519
145	0x3e698f14	0.22808486
146	0x3d620151	0.055177037
147	0x3f1fb0a8	0.6237893
148	0x3f3ed050	0.7453661
149	0xbf16d9b9	-0.5892597
150	0xbda1fb8b	-0.07909306
151	0x3f08d4ab	0.53449506
152	0x3e5c3dbc	0.21507925
153	0x3f1b159f	0.60579866
154	0x3ecda84e	0.4016747
155	0x3f0a0b5e	0.53923595
156	0x3f087f76	0.5331949
157	0x3e98805c	0.2978543
158	0x3f26c222	0.65139973
159	0x3e59e2c6	0.21277913
160	0x3f3eedf7	0.74581856
161	0xbb58fa7b	-0.0033108282
162	0xbd9bd394	-0.07608715
163	0x3e25f653	0.16207246
164	0xbf849606	-1.0358284
165	0x3ed6eb24	0.41976273
166	0x3ea778e5	0.32709423
167	0x3de707f1	0.112808116
168	0x3e65818c	0.224127
169	0x3e32d5af	0.17464326
170	0xbb0904c9	-0.0020907393
171	0xbf265faf	-0.6498975
172	0x3efd9ed5	0.49535242
173	0x3f12d417	0.57354873
174	0x3ef8dbd3	0.48605213
175	0x3e257248	0.16156876
176	0x3f0fa175	0.5610574
177	0x3f3eca98	0.74527884
178	0xbfbd8613	-1.4806541
179	0x3ec09855	0.3761622
180	0x3ef5fada	0.48042947
181	0x3ec08499	0.37601164
182	0x3dc7c4d5	0.097543396
183	0x3ec483e1	0.38381866
184	0x3f27c571	0.65535647
185	0x3e2265b9	0.15859117
186	0x3ec0897a	0.37604886
187	0x3cf590aa	0.029976208
188	0x3ec251eb	0.37953123
189	0xbbad933d	-0.005297093
190	0x3e749825	0.23886164
191	0xbda2738e	-0.079321966
192	0x3dd5f3fe	0.104469284
193	0x3ef15d26	0.4714138
194	0xbf82ee9e	-1.022907
195	0x3f15e529	0.58552796
196	0x3e6e037d	0.23243518
197	0xbea99dc7	-0.33128187
198	0x3efae646	0.4900381
199	0x3f0e8844	0.55676675
200	0x3eee1fcf	0.46508643
201	0x3e9e1ffd	0.3088378
202	0xbd8a416b	-0.06750759
203	0x3ebf3668	0.37346196
204	0x3e570570	0.20998168
205	0x3ee1527a	0.44008237
206	0x3f17b2dc	0.5925729
207	0x3e986d7a	0.29771024
208	0x3e3c72de	0.18403193
209	0x3e9d2f5d	0.30700198
210	0x3ec76fae	0.38952392
211	0xbe976c8e	-0.29575008
212	0x3e23ea89	0.16007437
213	0x3e679919	0.22616996
214	0x3e4fcaac	0.20292157
215	0x3d86bfcf	0.06579553
216	0x3e9a1e3c	0.30101192
217	0xbf7b01d6	-0.98049676
218	0x3f25f2d6	0.64823663
219	0x3f18cc55	0.59686786
220	0x3e70c142	0.23511222
221	0xbd30917d	-0.0431075
222	0x3ea12542	0.31473738
223	0x3f08ef10	0.5348978
224	0xbf8889d3	-1.0667061
225	0x3dc974be	0.0983672
226	0x3ed3eab5	0.41390005
227	0x3ecee684	0.40410244
228	0x3e6c47f4	0.23074323
229	0x3e63c94b	0.22244756
230	0x3ec9d928	0.3942349
231	0xbfd49713	-1.6608604
232	0x3f29b232	0.6628753
233	0x3ea2df53	0.31811008
234	0x3eac21c9	0.33619526
235	0x3e94daa6	0.29073066
236	0x3f24d75f	0.6439113
237	0x3e11dd9d	0.14244695
238	0x3f238d11	0.63887125
239	0x3edc0e75	0.4297978
240	0x3eb650f8	0.3560865
241	0x3df091e8	0.117465794
242	0x3cf8ad05	0.03035594
243	0x3e8c53d1	0.27407697
244	0xbf14d4a2	-0.5813695
245	0x3f01369d	0.5047396
246	0x3ed252e0	0.41078854
247	0xbf882c2a	-1.0638478
248	0x3f1512f7	0.58232063
249	0x3db5d3aa	0.08878262
250	0xbf1f9745	-0.62340194
251	0x3e777611	0.24166133
252	0x3e344c10	0.1760714
253	0x3ecfe248	0.40602326
254	0x3f08b790	0.53405094
255	0xbdf2dd6a	-0.11858638

l5.bias f4 [85]
0	0x3f276741	0.6539193
1	0x3cfe115b	0.031014135
2	0x3e850f1d	0.25988093
3	0x3dc6f432	0.09714545
4	0x3dcaf7d1	0.099105485
5	0x3ee89376	0.45425004
6	0x3b44cf16	0.003003066
7	0x3dfa8961	0.12233234
8	0x3e702bc4	0.23454195
9	0x3eeae595	0.45878282
10	0x3e9a6d6a	0.301616
11	0x3e16c071	0.14721848
12	0x3e48d395	0.19611962
13	0x3da104c8	0.0786224
14	0x3e179864	0.14804226
15	0x3f97246d	1.1807991
16	0x3db09e88	0.086239874
17	0x3df36b02	0.118856445
18	0x3db079e2	0.08616997
19	0x3f23d1ff	0.63992304
20	0x3e0c3a09	0.13694014
21	0x3f21171e	0.629259
22	0x3df555f1	0.11979283
23	0x3eb3c5c3	0.35111818
24	0x3df638d7	0.1202256
25	0x3e4c4fc2	0.199523
26	0x3f10e9af	0.5660657
27	0x3fdd9aef	1.7312907
28	0x3f1a43eb	0.60259885
29	0x3ecd90e9	0.4014962
30	0x3f199315	0.59990054
31	0x3e008d29	0.12553848
32	0x3e2429f0	0.16031623
33	0x3eb1eea5	0.34752384
34	0x3f4fb4be	0.81135166
35	0x3f1c0bf3	0.60955733
36	0x3ebd4585	0.36967102
37	0x3ec0871a	0.37603074
38	0x3e62e0ab	0.22156017
39	0x3e920acd	0.28523865
40	0x3ec2ca8f	0.38045165
41	0x3ee102ac	0.4394735
42	0x3e9f7940	0.31147194
43	0x3def4813	0.11683669
44	0x3e582ae3	0.2111011
45	0x3e17dbbb	0.14829914
46	0x3f10508f	0.5637292
47	0x3e236eee	0.15960285
48	0x3e2f7b5c	0.17136902
49	0x3e5cd21c	0.21564525
50	0x3e81bcd8	0.2533939
51	0x3dbb77bc	0.09153697
52	0x3ec29597	0.38004753
53	0x3ec03068	0.3753693
54	0xbe3edb83	-0.18638425
55	0x3e731d7d	0.23741718
56	0x3e39ee13	0.18157224
57	0x3e5cd671	0.21566178
58	0x3d594ce9	0.053051863
59	0x3de2527d	0.1105089
60	0x3f44aff5	0.7683099
61	0xbe27864d	-0.16359825
62	0x3e49fd18	0.19725454
63	0x3f140f43	0.5783579
64	0x3dd63de7	0.10461026
65	0x3eddb4a6	0.43301886
66	0x3e8e05c3	0.2773877
67	0x3f2242ce	0.63383186
68	0x3fb19e2d	1.3876396
69	0x3f64ae22	0.89328206
70	0x3e9c3aa5	0.30513492
71	0x3f81bd5b	1.0135912
72	0x3f05847c	0.5215528
73	0x3f6853ce	0.90752876
74	0x3e40ce3a	0.18828669
75	0x3dd50256	0.10400836
76	0x3e65fe8d	0.22460385
77	0x3e50db07	0.20396052
78	0x3f29753a	0.661945
79	0x3e97c1c8	0.2964003
80	0x3edcff0e	0.4316334
81	0x3f3ceecf	0.73801893
82	0x3e040c4c	0.12895316
83	0x3dfa6aa3	0.122273706
84	0x3eb741fe	0.35792536
