models/Others/model_PGNN_1_1e-1.pt (torch, 127233 bytes, 12 tensors)

l1.weight f4 [189, 9]
-0.0441364 0.9857141 1.633447 1.4844273 0.20033708 0.8516303 0.4139139 -0.10720129
-1.520929 -0.18438894 1.2919787 -1.9947816 -0.2772162 -0.29790887 -0.25738952 0.49216664
-1.8769596 0.12017421 -0.3302354 -0.03219953 1.3531017 0.18975715 0.07617394 0.27117783
0.7938434 -0.51949865 -2.1262221 0.114311166 1.3094031 -0.011197907 -0.4992951 -0.16646244
1.1803801 -3.810512 -0.35805508 2.2627916 0.0045033908 1.5020323 0.40416116 0.010488868
0.8832789 0.4469765 0.16328558 -1.5909686 -1.5385847 0.22706252 -0.03860931 1.3266824
-0.7909124 0.64225006 0.5605403 0.55600613 0.24580348 -2.1823623 0.13805325 0.03305514
0.040193662 -0.07276607 -0.37474328 0.07799034 -1.1545775 0.7186042 2.4351776 -0.096778005
0.0017062302 -0.76540977 -0.45812044 0.1871531 -0.99053276 0.29623348 -0.4880242 2.0729136
0.19120562 -0.29302338 -1.0100458 -0.18889916 -0.2802888 -0.47828668 0.60929775 1.194089
1.9214711 0.016992953 1.6853397 0.30750328 -0.26622742 1.0923251 0.7965855 0.98451793
-1.1279577 -1.7087054 0.21348487 0.34599924 2.13203 0.73656243 -0.12205227 -0.17642592
1.5203407 0.019673986 -1.7733176 0.0044049495 -0.0057252245 -2.0904443 -0.0015871751 0.15511751
0.088864125 0.097884074 1.3788451 2.1466331 0.19218801 1.9440868 -0.121205255 -0.122710615
0.75887537 0.29009655 0.45182234 -2.1189637 -0.9694186 -0.09207041 0.10353586 -1.8671598
-0.17224032 0.34592992 -0.436751 0.38866252 -0.8930009 2.0027163 0.2333144 0.09979135
0.14267565 -0.037275087 -0.35804406 -0.6077561 -0.41952172 1.4767721 2.0804622 0.32269543
-0.2548481 0.7084012 0.21652077 0.18006232 -0.13031942 0.1638843 -0.24668919 -2.454987
-0.17587928 0.1889278 -0.5653682 0.15045916 0.42031524 0.18588628 0.11204376 -0.023379896
2.34456 0.24727964 0.16709642 -1.0801802 0.21068108 -0.14685203 0.18082975 -1.9323747
-0.6005674 2.3298452 0.09552619 -0.4148427 -1.6038157 -0.35492924 -0.012764117 -0.36076376
0.06719664 0.36181453 1.9909638 -0.0043190923 -0.7922957 -1.4723421 -0.011553207 -0.2698301
0.32241035 -0.5102761 2.2758 1.8529341 -0.028348334 0.16729659 0.9977534 1.0908604
0.09081445 0.9928799 1.2314153 -0.48752782 -1.7596217 0.16621335 -0.4197143 0.10899851
-0.19928291 -0.20205894 -0.03890212 -0.0065790606 1.338569 1.9085488 0.19441935 -0.25435236
0.38707933 0.2549002 -0.16403441 -0.13419223 0.28413948 -0.47596347 -2.0461562 0.15789936
-0.16196385 0.16335556 -0.29307175 0.21378672 -0.42627373 0.8708068 0.92305624 2.6474242
-0.0949306 0.8303635 0.45091993 0.3649707 0.5602596 0.5240023 0.1883083 0.04116627
-2.1836815 0.13413155 -0.1460736 -2.0847962 -0.17365272 -0.6092586 0.1082146 -0.75116134
-0.18516804 1.7142097 -0.27364704 -0.39218384 0.1493017 -0.60110325 -0.33315536 -0.76623946
-0.07324578 0.503309 2.0974 0.2936486 -0.026466338 1.0712478 -0.76733845 0.6695427
0.6681357 0.6163692 -0.17590193 -2.4300048 0.24155031 0.38106367 -1.9213878 0.07908336
00000000: 5fc8 34bd c257 7c3f cb14 d13f b701 be3f
00000010: 2a25 4d3e 7104 5a3f 86ec d33e 5a8c dbbd
00000020: cdad c2bf 74d0 3cbe 8f5f a53f 0155 ffbf
00000030: 48ef 8dbe 8387 98be 8fc8 83be 44fd fb3e
00000040: 3640 f0bf e51d f63d 9d14 a9be a8e3 03bd
00000050: 7032 ad3f b34f 423e 1501 9c3d d2d7 8a3e
00000060: 5239 4b3f ddfd 04bf 0614 08c0 f91b ea3d
00000070: 859a a73f 6d77 37bc 9ba3 ffbe 2175 2abe
00000080: b216 973f 6edf 73c0 ff52 b7be 94d1 1040
00000090: 2e91 933b 9842 c03f 36ee ce3e 80d9 2b3c
000000a0: 911e 623f 1bda e43e 5634 273e dca4 cbbf
000000b0: 58f0 c4bf 1483 683e cc24 1ebd bbd0 a93f
000000c0: 3c79 4abf 806a 243f 927f 0f3f 6b56 0e3f
000000d0: e8b3 7b3e d3ab 0bc0 d55d 0d3e d464 073d
000000e0: 1ca2 243d 6106 95bd 5ade bfbe 66b9 9f3d
000000f0: 32c9 93bf 72f6 373f f3d9 1b40 8c33 c6bd
00000100: 96a3 df3a e5f1 43bf c38e eabe 10a5 3f3e
00000110: 8e93 7dbf eaab 973e 4fde f9be 9eaa 0440
00000120: 68cb 433e 2907 96be 2e49 81bf c86e 41be
00000130: 0382 8fbe fee1 f4be f0fa 1b3f e9d7 983f
00000140: c4f2 f53f ce34 8b3c 36b9 d73f 1271 9d3e
00000150: f64e 88be 4fd1 8b3f 07ed 4b3f 5e09 7c3f
00000160: eb60 90bf dcb6 dabf c79b 5a3e d026 b13e
00000170: 2e73 0840 5b8f 3c3f 8af6 f9bd ffa8 34be
00000180: 869a c23f 572b a13c 12fc e2bf 6557 903b
00000190: aa9a bbbb d7c9 05c0 c208 d0ba 20d7 1e3e
000001a0: 65fe b53d 7277 c83d ff7d b03f 7062 0940
000001b0: efcc 443e d6d7 f83f 763a f8bd b44f fbbd
000001c0: a845 423f 8987 943e 4255 e73e 1a9d 07c0
000001d0: d12b 78bf 698f bcbd 9c0a d43d 18ff eebf
000001e0: c45f 30be ba1d b13e d49d dfbe c6fe c63e
000001f0: b59b 64bf 812c 0040 f8e9 6e3e 685f cc3d
00000200: 9119 123e c3ad 18bd 8d51 b7be e795 1bbf
00000210: 8dcb d6be de06 bd3f 4b26 0540 5638 a53e
00000220: 737b 82be c859 353f 9fb7 5d3e 4262 383e
00000230: 7472 05be 49d1 273e 179c 7cbe 821e 1dc0
00000240: b319 34be 4a76 413e f8bb 10bf f711 1a3e
00000250: 8f33 d73e f958 3e3e 3377 e53d 3287 bfbc
00000260: 450d 1640 e036 7d3e 531b 2b3e 5843 8abf
00000270: c8bc 573e 6160 16be 6f2b 393e 0e58 f7bf
00000280: c9be 19bf 2f1c 1540 3ca3 c33d 4366 d4be
00000290: d549 cdbf 49b9 b5be 9620 51bc 07b6 b8be
000002a0: 649e 893d c13f b93e e7d7 fe3f 2c87 8dbb
000002b0: e4d3 4abf b575 bcbf aa49 3dbc 2c27 8abe
000002c0: f812 a53e 74a1 02bf b5a6 1140 f22c ed3f
000002d0: c43a e8bc cc4f 2b3e c46c 7f3f 50a1 8b3f
000002e0: edfc b93d 612d 7e3f 049f 9d3f 3f9d f9be
000002f0: 493b e1bf d533 2a3e cbe4 d6be 9c3a df3d
00000300: d210 4cbe 8ae8 4ebe d457 1fbd 2995 d7bb
00000310: 3b56 ab3f 544b f43f de15 473e 793a 82be
00000320: 432f c63e 4782 823e a3f8 27be b069 09be
00000330: bb7a 913e 7cb1 f3be 39f4 02c0 5fb0 213e
00000340: dad9 25be ae46 273e 800d 96be e8ea 5a3e
00000350: 8d40 dabe 32ed 5e3f 6a4d 6c3f 666f 2940
00000360: f96a c2bd b492 543f fade e63e 71dd ba3e
00000370: 2c6d 0f3f 0425 063f e4d3 403e f69d 283d
00000380: 70c1 0bc0 c859 093e 5194 15be 4d6d 05c0
00000390: 05d2 31be 5ff8 1bbf 9e9f dd3d 1c4c 40bf
000003a0: b19c 3dbe 396b db3f 771b 8cbe 52cc c8be
000003b0: 8be2 183e e7e1 19bf 5793 aabe 4528 44bf
000003c0: e201 96bd dcd8 003f cd3b 0640 1c59 963e
000003d0: efcf d8bc a61e 893f 4b70 44bf 2667 2b3f
000003e0: f10a 2b3f 5fca 1d3f a31f 34be 3385 1bc0
000003f0: f758 773e c71a c33e 09f0 f5bf 75f6 a13d

l1.bias f4 [189]
1.1981479 1.0416689 0.93894863 -1.5549188 2.9495866 1.3086947 -1.4663501 -1.7020538
-1.8783189 2.8955023 0.4747157 0.7519877 2.1550245 -0.66525155 -1.6627032 0.9643676
-1.8366903 -0.5427452 -0.678086 0.59276426 0.9632106 -1.797721 1.3688012 -1.9318944
2.0839028 -0.5728404 -2.1177711 1.4674759 -0.004022697 -1.8050576 2.278871 -1.5714302
-0.963507 2.6395583 -1.0371217 -1.5588727 -1.7880414 2.094204 1.4729573 2.714036
-0.41552943 1.0368193 1.463427 -1.6298568 0.9098375 -0.64944524 1.200652 -1.0789948
-2.1053302 1.7501413 -1.4663852 -0.27775466 2.8610182 0.45037842 0.75085664 -0.8254255
-1.5768396 -1.923877 -2.0502083 -0.84911644 -2.1895888 -2.1298623 2.4055893 -1.3036306
-1.1420078 -1.7945465 1.5590903 -1.0436454 -0.7852018 0.8380884 0.5584565 1.7624972
0.83360934 -2.0677085 1.0968635 -1.3376901 -1.6518742 -0.115065046 -1.2462703 2.0481174
-1.0055672 2.6682067 -1.7969509 -1.2019707 -1.5647769 -1.2412766 -0.8718021 -1.2076955
1.9138122 -0.24661234 -0.37289348 0.6016802 -1.1426393 1.7054493 0.36072177 2.8635533
-1.9604496 -0.043027487 -1.8337258 2.0453842 -1.4248661 0.56785405 2.0112262 -2.1281328
1.1669912 -1.9634848 1.8469319 1.3883868 -1.5570976 -0.2415988 -1.0530803 -1.0226673
0.9529081 -1.5037172 2.278518 -1.4026676 -0.8025595 3.0995703 -1.3614969 1.6805394
1.0996921 0.5509556 1.4977021 0.5097774 1.4705954 1.7477019 0.05324603 0.18861492
-0.31071496 0.264357 -0.7784518 1.2795382 -1.1402043 -1.5460348 -0.8007361 -1.5775602
1.6749802 0.9688768 0.41367266 2.9534633 0.7610987 2.0032957 -2.0233343 -1.5329714
-1.8646584 2.2626843 -1.6957704 -1.9906402 2.1023533 0.5268971 -1.8086956 -0.07132901
0.7217968 1.0670077 -0.39416033 -1.7537909 -1.5963289 -1.9986199 -1.9582835 1.6089482
-0.89024276 -1.1575073 -2.03479 1.2691891 1.232092 -0.42245865 -0.26375824 0.43325773
0.56106126 0.9404559 -0.57838064 -1.3778502 1.517648 -1.666566 1.967524 2.7672393
-1.4995599 1.0620738 -0.50438 1.340789 -0.6039298 0.93114066 1.3242455 2.0635674
1.8683451 0.7824333 -2.1771338 1.0925146 -1.1422396
00000000: e95c 993f 6855 853f f05e 703f 9407 c7bf
00000010: 07c6 3c40 4f83 a73f 5cb1 bbbf e6dc d9bf
00000020: c16c f0bf e94f 3940 f00d f33e 4482 403f
00000030: eceb 0940 ed4d 2abf 75d3 d4bf cce0 763f
00000040: ab18 ebbf 59f1 0abf 0b97 2dbf 66bf 173f
00000050: f894 763f b91b e6bf e134 af3f 5148 f7bf
00000060: aa5e 0540 aba5 12bf 9089 07c0 40d6 bb3f
00000070: d4d0 83bb 210c e7bf 06d9 1140 a024 c9bf
00000080: 65a8 76bf 86ee 2840 67c0 84bf 2489 c7bf
00000090: 8ade e4bf 7007 0640 dd89 bc3f c4b2 2d40
000000a0: 46c0 d4be 7fb6 843f 9351 bb3f 269f d0bf
000000b0: 1ceb 683f 0b42 26bf f7ae 993f 801c 8abf
000000c0: bbbd 06c0 a104 e03f 83b2 bbbf dc35 8ebe
000000d0: ec1a 3740 0098 e63e 2438 403f 164f 53bf
000000e0: e1d5 c9bf 9a41 f6bf 9d36 03c0 b25f 59bf
000000f0: 3922 0cc0 aa4f 08c0 2df5 1940 5edd a6bf
00000100: 502d 92bf b3b3 e5bf 4590 c73f 2c96 85bf
00000110: fc02 49bf f68c 563f 01f7 0e3f 8299 e13f
00000120: 6c67 553f 5655 04c0 0666 8c3f 6e39 abbf
00000130: 9d70 d3bf 39a7 ebbd c985 9fbf 5b14 0340
00000140: 6db6 80bf e6c3 2a40 7d02 e6bf 2dda 99bf
00000150: 9c4a c8bf 27e2 9ebf 6c2e 5fbf c495 9abf
00000160: ccf7 f43f f287 7cbe e5eb bebe b707 1a3f
00000170: 0142 92bf 2a4c da3f 86b0 b83e 7544 3740
00000180: 03f0 fabf 973d 30bd 87b7 eabf 93e7 0240
00000190: 0362 b6bf e25e 113f eeb7 0040 5433 08c0
000001a0: f85f 953f 7853 fbbf 4468 ec3f a9b6 b13f
000001b0: f94e c7bf ad65 77be 56cb 86bf c3e6 82bf
000001c0: c9f1 733f ce79 c0bf 3dd3 1140 9d8a b3bf
000001d0: 8a74 4dbf 5c5f 4640 8845 aebf ea1b d73f
000001e0: b6c2 8c3f 6d0b 0d3f b4b4 bf3f c680 023f
000001f0: 783c bc3f b2b4 df3f 8218 5a3d 4524 413e
00000200: 0816 9fbe cd59 873e 9e48 47bf e8c7 a33f
00000210: 37f2 91bf 78e4 c5bf 0bfd 4cbf 7eed c9bf
00000220: c065 d63f 4f08 783f e7cc d33e 8b05 3d40
00000230: 5dd7 423f ff35 0040 4f7e 01c0 6838 c4bf
00000240: 20ad eebf d2cf 1040 010f d9bf 4ccd febf
00000250: f58c 0640 bae2 063f 5683 e7bf f214 92bd
00000260: adc7 383f b593 883f 62cf c9be 387c e0bf
00000270: 8154 ccbf c7d2 ffbf 09a9 fabf 04f2 cd3f
00000280: f3e6 63bf 3329 94bf 003a 02c0 ca74 a23f
00000290: 31b5 9d3f 804c d8be 520b 87be f5d3 dd3e
000002a0: b6a1 0f3f b8c1 703f c110 14bf 655d b0bf
000002b0: 4a42 c23f 0952 d5bf d4d7 fb3f 731a 3140
000002c0: 94f1 bfbf 09f2 873f 0c1f 01bf f99e ab3f
000002d0: 259b 1abf 3c5f 6e3f e080 a93f 7d11 0440
000002e0: ef25 ef3f 8c4d 483f 2956 0bc0 85d7 8b3f
000002f0: e834 92bf

l2.weight f4 [119, 189]
-0.09858398 0.10085857 -0.027871333 0.0030997216 -0.12118083 -0.22943282 0.1566808 0.25247744
0.20283964 -0.35525575 0.0414615 -0.040604826 -0.03883921 0.37901288 0.13802722 0.010100408
0.3834941 0.1522331 0.17666294 -0.66611737 -0.13747314 0.17070164 -0.10037737 0.49802205
-0.22142608 0.124657854 0.34542865 -0.17716604 0.12146166 0.24061425 -0.2868671 0.07150416
0.17394939 -0.35418922 0.94800776 0.10364042 0.03697029 -0.44222096 -0.15998985 -0.41394237
0.25050837 0.19173948 -0.05626153 0.07071596 -0.8343224 0.56502885 0.22174154 0.117409006
0.35642537 -0.007013828 0.1901275 0.61103463 -0.37004313 -0.020681195 -0.17607702 1.0872602
0.44490972 0.23154187 0.18710294 0.18191229 0.23567586 0.2610245 -0.04758562 0.2496387
0.8625871 0.26808226 -0.052150086 1.0570236 -0.049490668 -0.0047312523 -0.07348356 -0.2911543
0.08597253 0.24622442 -0.08550945 0.3075008 0.22928023 0.20270666 0.14007546 -0.012932573
0.07253532 0.26124424 0.2631668 0.28775966 0.14706932 0.01902185 0.0149574755 0.077567525
-0.19588605 0.13268018 0.7259741 -0.033434853 1.0946345 -0.3871104 0.17869313 0.08409718
0.2759053 0.6221528 0.20407873 -0.07616757 0.2754652 0.098787434 -0.117022306 0.09908259
-0.05152208 0.13551559 -0.2817985 -0.023424204 0.15746257 0.80778366 0.89974 0.1726087
-0.107145876 0.4319726 -0.1925801 0.11351174 0.8398676 -0.11084342 0.065140836 -0.165995
0.22770825 -0.03059154 -0.06400708 0.13308494 0.11814376 -0.103082344 0.20250325 0.7704919
0.36796921 -0.3130017 0.9332339 -0.108273745 0.08765453 0.15492675 0.44837272 0.25943923
-0.027098175 -0.27414522 -0.57249993 -0.27935678 0.055334892 -0.12393783 0.33149642 0.31650347
0.22635564 -0.07225466 0.27421945 0.35593215 -0.19508795 -0.08562518 0.19562319 -0.05691308
-0.025379729 -0.34537223 0.38245562 0.3554634 0.0916841 0.45912516 0.45339194 -0.1696689
0.062396586 0.9960369 0.040131353 -0.044056118 -0.024387063 0.103270054 0.24827507 0.09702437
-0.02657808 0.026023671 0.14681624 0.103891104 -0.051104598 0.1906467 -0.2850122 -0.2645092
0.27611348 -0.082707845 0.35531622 -0.040692 0.33461207 -0.11807903 -0.19984046 -0.17497657
-0.13751666 -0.020318229 0.41311112 -0.2772082 0.25916323 0.10536073 0.2871522 0.23882137
-0.31150037 0.6049191 0.21205156 -0.067326576 -0.17626908 0.004996941 0.7940894 0.07597105
0.8120625 0.28071663 -0.0056219907 -0.058044944 0.23653635 -0.09357588 0.09922104 0.18249646
0.6839357 0.1806392 -0.04284939 0.17892678 -0.26225305 0.2859567 0.10320542 -0.122046925
0.22556333 0.20823641 -0.17800544 0.3899526 0.019531427 -0.011546924 0.40592542 -0.97650397
-0.27214107 -0.23676844 0.29145622 0.19673225 0.69770837 -0.34336972 0.2817281 0.2854019
-0.15844671 0.8413177 -1.0567204 0.3022075 -0.065171696 -0.17906676 0.30500892 -0.22296295
-0.063913554 0.73605156 0.049490776 0.28555232 -0.21282768 -0.031542934 -0.13708481 -0.09431787
0.092001945 -0.14677356 -0.25976706 0.4542052 -0.0525059 -1.0344436 -0.122094825 0.17326605
00000000: 66e6 c9bd f08e ce3d 6c52 e4bc b324 4b3b
00000010: a82d f8bd 70f0 6abe ee70 203e b944 813e
00000020: 32b5 4f3e 15e4 b5be 89d3 293d 3f51 26bd
00000030: dd15 1fbd fa0d c23e 0257 0d3e 2f7c 253c
00000040: 5759 c43e fee2 1b3e 21e7 343e ab86 2abf
00000050: c2c5 0cbe 69cc 2e3e a792 cdbd bffc fe3e
00000060: 85bd 62be 9e4c ff3d 06dc b03e 046b 35be
00000070: e4c0 f83d 9563 763e 3fe0 92be c670 923d
00000080: ca1f 323e 4a58 b5be a3b0 723f 6e41 d43d
00000090: 296e 173d c96a e2be 61d4 23be 41f0 d3be
000000a0: a242 803e 5b57 443e 7d72 66bd 87d3 903d
000000b0: 2796 55bf bba5 103f 3710 633e 2274 f03d
000000c0: 637d b63e 41d4 e5bb c9b0 423e c46c 1c3f
000000d0: 4b76 bdbe 9c6b a9bc 894d 34be 582b 8b3f
000000e0: 35cb e33e 5019 6d3e ea97 3f3e 3747 3a3e
000000f0: 0355 713e 01a5 853e 24e9 42bd 4aa1 7f3e
00000100: 82d2 5c3f 1442 893e 549b 55bd 8d4c 873f
00000110: bab6 4abd 9f08 9bbb 8c7e 96bd 2d12 95be
00000120: 5e12 b03d 4122 7c3e 941f afbd bf70 9d3e
00000130: 70c8 6a3e 5692 4f3e f16f 0f3e 25e3 53bc
00000140: 668d 943d cec1 853e ccbd 863e 3c55 933e
00000150: 5799 163e b6d3 9b3c 3310 753c b9db 9e3d
00000160: 5a96 48be 50dd 073e 70d9 393f fcf2 08bd
00000170: fc1c 8c3f 5633 c6be 55fb 363e 243b ac3d
00000180: 7643 8d3e 6845 1f3f 04fa 503e befd 9bbd
00000190: c609 8d3e 1151 ca3d 64a9 efbd d0eb ca3d
000001a0: d108 53bd 99c4 0a3e e547 90be 1ee4 bfbc
000001b0: de3d 213e e9ca 4e3f 5c55 663f 56c0 303e
000001c0: 4c6f dbbd 832b dd3e b833 45be d878 e83d
000001d0: 9001 573f e001 e3bd 8f68 853d 98fa 29be
000001e0: 5a2c 693e 1c9b fabc 2516 83bd 6b47 083e
000001f0: 5bf5 f13d d61c d3bd 035d 4f3e f53e 453f
00000200: 7666 bc3e c241 a0be 6be8 6e3f a0be ddbd
00000210: 3884 b33d 1ea5 1e3e 1c91 e53e 38d5 843e
00000220: fefc ddbc c35c 8cbe 5b8f 12bf da07 8fbe
00000230: d7a6 623d 1ed3 fdbd e6b9 a93e be0c a23e
00000240: c6c9 673e 40fa 93bd 7e66 8c3e bd3c b63e
00000250: 23c5 47be 415c afbd 7251 483e b11d 69bd
00000260: 26e9 cfbc a1d4 b0be 39d1 c33e 4cff b53e
00000270: e0c4 bb3d 7412 eb3e fd22 e83e afbd 2dbe
00000280: 9093 7f3d 46fc 7e3f c660 243d 3074 34bd
00000290: 61c7 c7bc 407f d33d d23b 7e3e b7b4 c63d
000002a0: 46ba d9bc 982f d53c ff56 163e dcc4 d43d
000002b0: 0e53 51bd e338 433e 1eed 91be c06d 87be
000002c0: bf5e 8d3e bb62 a9bd 02ec b53e a8ac 26bd
000002d0: 4652 ab3e 6bd3 f1bd faa2 4cbe 0f2d 33be
000002e0: 2bd1 0cbe 6a72 a6bc 4d83 d33e 3cee 8dbe
000002f0: 0bb1 843e 5ec7 d73d 9d05 933e 978d 743e
00000300: fa7c 9fbe fadb 1a3f 0b24 593e 84e2 89bd
00000310: e27f 34be 61bd a33b 7149 4b3f b696 9b3d
00000320: 54e3 4f3f 17ba 8f3e ad38 b8bb 89c0 6dbd
00000330: 9636 723e b6a4 bfbd 6734 cb3d 5ae0 3a3e
00000340: 6916 2f3f 7cf9 383e d882 2fbd 9538 373e
00000350: 0846 86be eb68 923e 5d5d d33d bdf3 f9bd
00000360: 13fa 663e ed3b 553e 0f47 36be dea7 c73e
00000370: 5f00 a03c 4f2f 3dbc 75d5 cf3e 2afc 79bf
00000380: 1356 8bbe 6d73 72be c039 953e 2e74 493e
00000390: 049d 323f 28ce afbe aa3e 903e 3320 923e
000003a0: db3f 22be 9960 573f 9d42 87bf f1ba 9a3e
000003b0: bd78 85bd 475d 37be 212a 9c3e 6650 64be
000003c0: 1ce5 82bd e06d 3c3f d7b6 4a3d ea33 923e
000003d0: 80ef 59be 2a33 01bd f65f 0cbe ba29 c1bd
000003e0: 846b bc3d cf4b 16be 3000 85be 958d e83e
000003f0: 6d10 57bd a668 84bf da0c fabd a86c 313e

l2.bias f4 [119]
-2.1383216 2.511499 -0.9366939 -2.4474325 2.4674103 0.76726675 -2.0870876 2.9866488
2.9282115 1.2419358 -0.23745431 -1.2154566 -0.36313912 -0.6814379 2.4986508 0.18927751
-1.4256649 -1.4390965 -0.91943926 -1.3142382 -0.11283996 -1.106955 0.81410027 -0.0046754666
-1.592264 2.2365992 0.75257516 -0.26696333 -0.3869197 -1.0564286 0.06138013 0.62477124
1.1155607 1.1965884 -0.82381266 0.5762109 -1.4663943 -0.54875594 -0.6405794 1.5061102
-2.4471376 2.996704 1.8873352 0.15502971 -1.9771258 -1.7552103 0.22096995 -1.423946
0.42202097 1.4212208 -2.9969964 -2.3077872 -2.4598215 -1.4760984 -1.269519 -1.3300442
-1.3628749 1.9096248 -0.26855624 0.2069195 2.1955507 3.5467243 1.6281537 -1.1031235
-0.034565866 -1.1973752 0.10624998 2.4772882 0.7116688 -2.4473178 2.4095612 -3.018106
1.5706573 2.1666899 -1.1148741 2.884271 -2.5830448 0.5832182 0.38145208 -0.45954773
1.7722359 -1.6990441 -0.36368427 3.290929 1.4591821 2.4883766 3.602572 0.63347924
-3.1354613 -0.07186716 -0.84496 -1.8597616 1.7490077 1.5901381 -1.8653929 -2.6269798
-2.182504 -1.2725039 3.2715154 -1.8206236 0.07218731 -0.23847711 3.0646589 0.7020284
-1.9355743 2.0673294 -1.5763555 0.3457903 2.739808 1.2779998 -1.5745727 2.9516723
-0.73442966 1.3146453 -2.0317466 -1.7996061 2.8592615 0.83116966 -1.0564619
00000000: 43da 08c0 66bc 2040 2ccb 6fbf bca2 1cc0
00000010: 0dea 1d40 986b 443f d892 05c0 4125 3f40
00000020: d167 3b40 c1f7 9e3f 3927 73be 1594 9bbf
00000030: 5fed b9be b772 2ebf e5e9 1f40 f7d1 413e
00000040: 307c b6bf 5034 b8bf 5f60 6bbf f538 a8bf
00000050: a318 e7bd b4b0 8dbf e068 503f a834 99bb
00000060: 4fcf cbbf 7124 0f40 c4a8 403f 6baf 88be
00000070: 571a c6be 0d39 87bf bb69 7b3d 02f1 1f3f
00000080: b1ca 8e3f cf29 993f 63e5 52bf 8f82 133f
00000090: cfb2 bbbf 457b 0cbf 03fd 23bf 38c8 c03f
000000a0: e79d 1cc0 00ca 3f40 3394 f13f 1cc0 1e3e
000000b0: 7512 fdbf bbaa e0bf f245 623e dd43 b6bf
000000c0: 2213 d83e 90ea b53f cace 3fc0 c9b2 13c0
000000d0: b76d 1dc0 cbf0 bcbf 997f a2bf e33e aabf
000000e0: af72 aebf 966e f43f 3480 89be b5e2 533e
000000f0: e783 0c40 88fd 6240 5767 d03f 2733 8dbf
00000100: f094 0dbd 9743 99bf 9799 d93d e48b 1e40
00000110: ed2f 363f dba0 1cc0 4036 1a40 a628 41c0
00000120: 4c0b c93f 0cab 0a40 32b4 8ebf e597 3840
00000130: 9b50 25c0 ca4d 153f b04d c33e d749 ebbe
00000140: a0d8 e23f 477a d9bf d334 babe 959e 5240
00000150: 7bc6 ba3f 9041 1f40 8a90 6640 b22b 223f
00000160: 66ab 48c0 172f 93bd 4c4f 58bf ab0c eebf
00000170: 7cdf df3f a589 cb3f 32c5 eebf 7020 28c0
00000180: 25ae 0bc0 68e1 a2bf 8260 5140 320a e9bf
00000190: f1d6 933d 5833 74be 5f23 4440 22b8 333f
000001a0: e6c0 f7bf 204f 0440 04c6 c9bf 6d0b b13e
000001b0: 0459 2f40 7f95 a33f 998b c9bf 33e8 3c40
000001c0: 9503 3cbf 4c46 a83f 2308 02c0 7e59 e6bf
000001d0: 24fe 3640 89c7 543f 253a 87bf

l3.weight f4 [9, 119]
0.14808369 0.17514206 0.45720562 0.058026917 0.27419192 -0.27610612 0.3403729 0.1759375
0.10872369 -0.000741067 0.41990602 0.41263604 0.32373753 0.2351225 0.117660426 -0.8889732
0.20428064 0.28944126 0.42102987 0.43189266 -0.04156801 0.3620648 -0.42427862 0.090807274
0.20104395 0.05459359 -0.3203271 -0.3250592 -0.10579502 -0.107231796 -0.13022432 -0.38801336
0.38812298 0.5495386 -0.14336513 0.21838251 0.39002115 0.11507712 -0.26854986 0.27916384
0.35766605 0.25324523 0.088771485 0.4494635 0.07989285 0.3437303 -0.37514913 0.41332248
0.3426626 0.33594432 0.17191447 0.23698206 -0.5518097 -0.06841374 0.24969846 0.34963503
0.35792065 0.4649923 0.4399498 0.5001492 0.24263228 0.12345165 0.0140136685 0.3024595
0.5284087 0.45766547 -0.25110608 0.13634354 0.362595 0.35627773 0.25278315 0.37199748
0.22995377 0.061365116 0.46826425 0.31563115 0.29053488 0.16284133 0.19924107 -0.056137297
0.06444751 0.40965417 -0.08638674 -0.23413461 0.06166086 0.05701178 0.19426109 -0.086392894
0.24431266 -0.2654482 0.38741672 0.18223833 0.09319297 0.2957944 0.002865641 0.13326132
-0.2330283 0.016193008 0.21602188 0.34729317 -0.07987454 0.67884564 0.26568997 -0.42909497
0.27743632 0.47981745 0.3099993 -0.57611 0.071742944 0.097773455 0.36160883 0.2512944
0.4091785 0.12238545 0.19817035 0.22605549 0.18476291 0.19197161 0.29858127 0.27250442
0.06775893 -0.03298671 -0.069233656 0.23790936 -0.03429991 0.35669997 0.14445005 0.23423162
0.122221954 0.44865462 0.45261255 0.3635202 0.3235452 0.15499642 -1.8704695 0.25072783
0.33614874 0.39210445 0.50564086 0.004672993 0.42951486 -0.24482732 0.14863367 0.0704262
0.15751982 0.0054159 -0.079878174 0.15745625 -0.17985278 -0.06453633 -0.26324275 0.3130756
0.41956285 -0.32982463 0.026901167 0.43407115 0.25134844 -0.27160117 0.31816444 0.2787124
0.2333936 0.082837686 0.4732212 0.11133191 0.43751442 -0.19592401 0.42526022 0.2288387
0.25309107 -0.5294 0.11085698 -0.7941875 0.120866194 0.21894248 0.00601411 0.3778863
0.43580616 0.47333488 0.58903366 0.27504227 0.18414484 -0.041689653 0.126557 0.47692376
0.35637397 -0.25481594 0.17227675 0.26765665 0.32488412 0.283754 0.30424368 0.32090712
0.082838535 0.4319684 0.21539664 0.17831302 0.22206168 0.36008096 0.13384308 0.15688513
0.38707215 -0.002877863 -0.12027768 0.07589259 0.15582988 0.22362435 -0.0014442558 0.1480473
-0.06637287 0.31089246 0.2539893 0.06518735 0.3682459 0.06905432 -0.00601661 -0.3655833
0.0052169394 0.2671941 0.14497657 -0.01967794 0.5157573 0.27369842 -0.27245882 0.34601742
0.43235523 0.1998252 -1.1309698 0.25628397 0.10677718 0.19034334 0.2638547 0.37432438
0.02581054 0.15633202 0.32817724 0.25017947 0.21393724 0.2502247 0.37042865 0.26971215
-0.36749008 0.22795291 0.29008573 -0.1775363 0.379992 0.2549331 0.07275127 0.27626663
0.14450452 0.14486343 0.20238055 0.17720462 0.22917366 -1.0574815 0.38103804 0.31601
00000000: 40a3 173e 7158 333e db16 ea3e a2ad 6d3d
00000010: e262 8c3e c85d 8dbe 5b45 ae3e f628 343e
00000020: 87aa de3d 2a44 42ba ecfd d63e 0845 d33e
00000030: edc0 a53e f4c3 703e f3f7 f03d bf93 63bf
00000040: f22e 513e a531 943e 3a91 d73e 0921 dd3e
00000050: 3843 2abd 8f60 b93e 0c3b d9be 2af9 b93d
00000060: 77de 4d3e 879d 5f3d ea01 a4be 296e a6be
00000070: 0fab d8bd 589c dbbd 8659 05be b0a9 c6be
00000080: 0eb8 c63e 90ae 0c3f 4fce 12be aa9f 5f3e
00000090: dab0 c73e 8ead eb3d 5e7f 89be 90ee 8e3e
000000a0: 0120 b73e 5ca9 813e d3cd b53d 1420 e63e
000000b0: dd9e a33d 6bfd af3e 8c13 c0be 019f d33e
000000c0: 7971 af3e e500 ac3e 590a 303e 6dab 723e
000000d0: 6743 0dbf 811c 8cbd f4b0 7f3e 5d03 b33e
000000e0: 6041 b73e 7913 ee3e 1a41 e13e c709 003f
000000f0: 9974 783e 38d4 fc3d 9699 653c f9db 9a3e
00000100: cb45 073f 2153 ea3e fa90 80be a49d 0b3e
00000110: 0da6 b93e 096a b63e cb6c 813e 7476 be3e
00000120: 0079 6b3e fd59 7b3d 55c0 ef3e 689a a13e
00000130: fdc0 943e e1bf 263e da05 4c3e 39f0 65bd
00000140: 0efd 833d 31be d13e 88eb b0bd fcc0 6fbe
00000150: 1990 7c3d 2f85 693d 61ec 463e c2ee b0bd
00000160: 192d 7a3e d4e8 87be 7c5b c63e af9c 3a3e
00000170: f5db be3d 5d72 973e 7acd 3b3b a875 083e
00000180: f89e 6ebe 33a7 843c d734 5d3e 69d0 b13e
00000190: 4395 a3bd d4c8 2d3f 8408 883e 56b2 dbbe
000001a0: 220c 8e3e a2aa f53e 3ab8 9e3e f27b 13bf
000001b0: f7ed 923d 733d c83d cb24 b93e a9a9 803e
000001c0: d87f d13e 39a5 fa3d 2bed 4a3e 177b 673e
000001d0: 7d32 3d3e 3594 443e a5df 983e b385 8b3e
000001e0: 32c5 8a3d 131d 07bd 60ca 8dbd 839e 733e
000001f0: 107e 0cbd 61a1 b63e b7ea 133e 6ada 6f3e
00000200: 814f fa3d 0fb6 e53e d5bc e73e 521f ba3e
00000210: b7a7 a53e 62b7 1e3e 8b6b efbf 665f 803e
00000220: b01b ac3e eac1 c83e ae71 013f e81f 993b
00000230: 5fe9 db3e 03b4 7abe 6d33 183e 9d3b 903d
00000240: e04c 213e dd77 b13b 2b97 a3bd 363c 213e
00000250: 542b 38be a02b 84bd c1c7 86be 724b a03e
00000260: f1d0 d63e c6de a8be d65f dc3c 933e de3e
00000270: beb0 803e 4f0f 8bbe 73e6 a23e 64b3 8e3e
00000280: bbfe 6e3e cea6 a93d 0d4a f23e fc01 e43d
00000290: e401 e03e 4ea0 48be b5bb d93e b154 6a3e
000002a0: 2795 813e c286 07bf fc08 e33d df4f 4bbf
000002b0: b288 f73d 7532 603e 0312 c53b 507a c13e
000002c0: fc21 df3e f358 f23e e9ca 163f 57d2 8c3e
000002d0: 7790 3c3e c5c2 2abd 2998 013e 5a2f f43e
000002e0: a676 b63e 3c77 82be 5169 303e 4b0a 893e
000002f0: 3657 a63e 3448 913e d4c5 9b3e f04d a43e
00000300: 40a7 a93d f62a dd3e f090 5c3e b097 363e
00000310: 2364 633e 885c b83e 290e 093e 7fa6 203e
00000320: 522e c63e 879a 3cbb 2554 f6bd 936d 9b3d
00000330: de91 1f3e c8fd 643e 2f4d bdba b699 173e
00000340: 80ee 87bd 4c2d 9f3e e30a 823e f280 853d
00000350: ba8a bc3e 5a6c 8d3d fc26 c5bb bc2d bbbe
00000360: dcf2 aa3b aacd 883e bd74 143e a233 a1bc
00000370: ac08 043f 3322 8c3e b97f 8bbe 3229 b13e
00000380: aa5d dd3e fa9e 4c3e 9ec3 90bf a737 833e
00000390: ffad da3d 5de9 423e f717 873e 72a7 bf3e
000003a0: a070 d33c 8015 203e d906 a83e 8617 803e
000003b0: 5d12 5b3e 741d 803e d3a8 bd3e b617 8a3e
000003c0: a927 bcbe 7d6c 693e 1e86 943e 13cc 35be
000003d0: 508e c23e 9786 823e 9efe 943d d272 8d3e
000003e0: fef8 133e 1457 143e d93c 4f3e 2175 353e
000003f0: 80ac 6a3e 8e5b 87bf 6b17 c33e 10cc a13e

l3.bias f4 [9]
1.2547201 1.3273038 -1.2868267 1.3830373 1.7777106 0.8073287 3.3743548 1.4718689
0.6123509
00000000: ab9a a03f 17e5 a93f bdb6 a4bf 5e07 b13f
00000010: 058c e33f 18ad 4e3f 6ef5 5740 3366 bc3f
00000020: 07c3 1c3f

l4.weight f4 [53, 9]
0.0938436 -0.060058925 -0.015159024 1.2642058 -0.27788728 0.76552165 -0.22463767 0.3141135
1.1255114 -0.13273059 0.03353399 -0.41080695 -0.0783423 0.34398553 -0.05037249 0.15745185
-0.12252906 -0.2011923 -0.30561286 0.0581086 0.20424752 0.11815713 0.28095403 0.15947324
0.021316001 0.57411075 -0.5014466 0.1597448 -0.1764675 -0.2511506 -0.061907157 -0.9568055
-0.9372502 0.23399997 -0.62825257 -0.43855983 -0.35563523 0.18399823 0.1637463 0.42629308
1.2675043 0.6987501 0.02479455 0.46906158 -0.3276534 -0.12660277 0.11796579 -0.091097705
-0.29556173 -0.2960551 -0.006425319 -0.24003695 -0.24997365 -0.29606718 -0.015249729 -0.30711168
0.27730873 0.44602945 0.40507692 0.20462309 -0.3177559 0.2514894 -0.29662728 -0.00924692
-0.25198984 0.35723567 -0.89394075 0.16574529 0.657934 0.133323 0.48962772 -0.6885875
0.15159631 -0.17052141 -0.08274632 0.029418716 0.5159597 -0.34932792 0.09072346 0.85218585
-0.43162304 0.19640115 -0.035574466 -0.33549574 0.2160856 -0.36106968 -0.2129766 -0.012535077
-0.37184507 0.08404514 -0.3524731 0.059180535 0.30174097 0.03943172 0.986562 0.28392032
0.011218646 0.68305326 0.008049847 -0.3264764 0.09010393 0.21154602 -0.31563094 0.35838374
0.43200353 0.11159636 0.6843403 -0.24699089 0.0704536 -0.08250167 -0.3046411 -0.22359057
-0.32902047 0.20310457 -0.10850685 0.02116775 -0.19301921 0.33800548 -0.046792988 -0.30275807
0.9201193 0.81631684 0.3523682 0.015358365 0.4322293 0.3968953 -0.22042796 0.10806473
0.07718466 0.51037747 1.3206458 0.3259409 0.018438663 0.63236403 0.05696769 0.078649536
0.039626725 0.0033236658 -0.24484077 0.68462867 0.071821235 -0.55665714 -0.4497429 -0.24115358
-0.3753307 0.10415606 0.21714687 0.41498023 0.3991654 0.20064329 0.10612669 0.39521435
-0.6616978 0.046189707 0.09561311 -0.14167732 0.33277053 0.47743076 0.010987591 0.100554615
0.1512079 -0.057673972 0.19558795 0.054639004 -0.20630479 -0.0961383 0.761803 -0.12608114
-0.024396412 0.38899216 -0.9025871 -0.25081837 0.024374986 -0.10924227 0.026474986 0.27950653
-0.16502021 -0.29231057 -0.2650937 -0.15762524 -0.24433513 -0.0015598628 0.29790184 0.3940355
1.306029 0.35492375 -0.0022215704 0.39173216 -0.2383522 -0.24300785 -0.11096884 0.23017712
-0.3172079 0.1802674 0.3318972 0.042629726 -0.07507776 -0.1998558 0.09049966 -0.02882745
-0.019682996 0.23338874 0.8384943 -0.55843544 -1.2603822 0.39377835 -0.860053 -0.13119376
0.35099074 -0.2696534 0.8631237 0.5839571 -0.13170886 0.14641158 0.19334024 0.72010165
-0.2288532 -0.31343833 0.24941155 0.002931348 -0.03544713 0.5350641 -0.12559234 0.21167418
0.13277836 0.029756239 0.27306843 -0.28690735 0.6017898 -0.020481873 -0.4502317 -0.018173678
0.19598235 0.77554893 -0.21377146 -0.047103863 0.16095816 -0.21877106 -0.12812647 -0.24958074
-0.0894178 -0.07317753 0.1568666 0.16451298 -0.103809014 -0.12905857 0.21659395 0.5383872
0.00024653648 -0.14596015 0.28087994 0.53635 -0.14680387 -0.08705174 0.41656554 -0.93680173
00000000: 1331 c03d 5900 76bd 8e5d 78bc 7fd1 a13f
00000010: 3e47 8ebe 3af9 433f 6b07 66be 7cd3 a03e
00000020: c210 903f 87ea 07be f05a 093d 4a55 d2be
00000030: ee71 a0bd df1e b03e 6253 4ebd 0f3b 213e
00000040: 84f0 fabd 5b05 4ebe 4a79 9cbe 4903 6e3d
00000050: 4326 513e 5efc f13d 35d9 8f3e f44c 233e
00000060: e59e ae3c ecf8 123f ce5e 00bf 2494 233e
00000070: e5b3 34be d096 80be 5c92 7dbd 35f1 74bf
00000080: a1ef 6fbf b09d 6f3e 29d5 20bf ea8a e0be
00000090: d215 b6be 086a 3c3e 1cad 273e 1643 da3e
000000a0: 953d a23f 49e1 323f f11d cb3c d728 f03e
000000b0: 30c2 a7be 28a4 01be 0c98 f13d 6f91 babd
000000c0: de53 97be 8994 97be 7b8b d2bb 3fcc 75be
000000d0: 18f9 7fbe 1e96 97be 00da 79bc be3d 9dbe
000000e0: 69fb 8d3e f95d e43e 3e66 cf3e b788 513e
000000f0: e7b0 a2be 38c3 803e 88df 97be 6580 17bc
00000100: d004 81be 98e7 b63e 4dd9 64bf 22b9 293e
00000110: 5d6e 283f d385 083e 7cb0 fa3e 4547 30bf
00000120: 103c 1b3e 2a9d 2ebe e776 a9bd 85ff f03c
00000130: ef15 043f 1cdb b2be 39cd b93d da28 5a3f
00000140: b2fd dcbe 621d 493e 88b6 11bd 19c6 abbe
00000150: 8b45 5d3e 20de b8be 8a16 5abe ec5f 4dbc
00000160: 7a62 bebe dc1f ac3d 5b77 b4be 4a67 723d
00000170: cb7d 9a3e 2883 213d 548f 7c3f 015e 913e
00000180: 69ce 373c 94dc 2e3f 81e3 033c ea27 a7be
00000190: 6988 b83d 859f 583e 619a a1be 137e b73e
000001a0: 912f dd3e a28c e43d ed30 2f3f 2eeb 7cbe
000001b0: fa49 903d a3f6 a8bd ebf9 9bbe edf4 64be
000001c0: 5f75 a8be a5fa 4f3e d738 debd fd67 ad3c
000001d0: d4a6 45be 0e0f ad3e 01aa 3fbd 1b03 9bbe
000001e0: f08c 6b3f 24fa 503f 9b69 b43e a7a1 7b3c
000001f0: 294d dd3e dc35 cb3e deb7 61be 0b51 dd3d
00000200: fe12 9e3d 19a8 023f ec0a a93f bae1 a63e
00000210: ae0c 973c 9ce2 213f f456 693d 0213 a13d
00000220: a24f 223d dcd1 593b 8ab7 7abe d343 2f3f
00000230: 0317 933d 1581 0ebf b444 e6be f7f0 76be
00000240: 582b c0be c64f d53d c05b 5e3e 4a78 d43e
00000250: 685f cc3e 6f75 4d3e f358 d93d 8959 ca3e
00000260: 0765 29bf 6b31 3d3d ced0 c33d dc13 11be
00000270: e660 aa3e ce71 f43e 4c05 343c 94ef cd3d
00000280: 3ed6 1a3e 8b3b 6cbd 3548 483e 26cd 5f3d
00000290: 9041 53be 28e4 c4bd 8505 433f 6a1b 01be
000002a0: fcda c7bc fb29 c73e f30f 67bf 446b 80be
000002b0: 0dae c73c 69ba dfbd 12e2 d83c 7b1b 8f3e
000002c0: 0ffb 28be bba9 95be 5dba 87be 8368 21be
000002d0: fd32 7abe 4f74 ccba 9786 983e 05bf c93e
000002e0: f52b a73f 91b8 b53e c497 11bb 1e91 c83e
000002f0: 9912 74be 0dd7 78be a243 e3bd 8db3 6b3e
00000300: 1369 a2be 0498 383e 6eee a93e 829c 2e3d
00000310: 5ec2 99bd 00a7 4cbe e357 b93d 8b27 ecbc
00000320: 3c3e a1bc 75fd 6e3e 90a7 563f a0f5 0ebf
00000330: 3454 a1bf 519d c93e 6f2c 5cbf a857 06be
00000340: 0fb5 b33e 0310 8abe adf5 5c3f 367e 153f
00000350: b0de 06be ebec 153e fcfa 453e 9558 383f
00000360: 7e58 6abe fd7a a0be be65 7f3e dc1b 403b
00000370: 0331 11bd f6f9 083f 479b 00be 1ec1 583e
00000380: 0df7 073e 5bc3 f33c a0cf 8b3e 85e5 92be
00000390: e50e 1a3f 9ac9 a7bc c584 e6be f7e0 94bc
000003a0: 99af 483e 608a 463f e8e6 5abe fbef 40bd
000003b0: 37d2 243e 8505 60be 9633 03be 1892 7fbe
000003c0: ae20 b7bd 1ade 95bd a3a1 203e 1776 283e
000003d0: d299 d4bd ee27 04be ceca 5d3e bed3 093f
000003e0: 9141 8139 9476 15be 7fcf 8f3e 3c4e 093f
000003f0: c153 16be 2f48 b2bd 1448 d53e 3dd2 6fbf

l4.bias f4 [53]
-1.8283504 0.24093233 0.3533839 0.016389746 0.9622434 -0.24837136 -0.08033339 -0.95697933
1.5134406 -0.19577453 0.65667456 0.55172735 0.22520496 2.178473 2.4160063 0.053812668
0.86279935 2.632195 2.3948004 0.25860953 1.2511449 -0.014046919 2.5128639 1.9197594
-0.40779462 2.075448 0.13825925 2.321464 -2.2548592 1.1108958 0.117354535 0.6799834
0.02540638 -0.77292246 2.1726415 -0.016940577 0.18884888 -0.09809732 -0.03498728 2.1314344
1.7969394 -0.06685664 0.2297916 -1.0412903 0.91333526 2.8831534 1.9039004 -0.22674952
0.5947904 2.4358215 2.4935553 1.3225899 -0.060269542
00000000: 6307 eabf f7b6 763e bcee b43e ca43 863c
00000010: 9555 763f 1055 7ebe d585 a4bd 99fc 74bf
00000020: 6cb8 c13f 1e79 48be d31b 283f 013e 0d3f
00000030: 219c 663e 1a6c 0b40 d99f 1a40 ac6a 5c3d
00000040: 6be0 5c3f e275 2840 6944 1940 7868 843e
00000050: 8425 a03f 0c25 66bc c3d2 2040 adba f53f
00000060: 75ca d0be 24d4 0440 d593 0d3e de92 1440
00000070: 9d4f 10c0 d531 8e3f 9357 f03d 6413 2e3f
00000080: 0a21 d03c 3fde 45bf 8f0c 0b40 f7c6 8abc
00000090: 9a61 413e 3fe7 c8bd d24e 0fbd 6c69 0840
000000a0: 1c02 e63f 22ec 88bd 7d4e 6b3e 0049 85bf
000000b0: 57d0 693f 9685 3840 02b3 f33f 0731 68be
000000c0: 2f44 183f 80e4 1b40 6996 1f40 a04a a93f
000000d0: 32dd 76bd

l5.weight f4 [85, 53]
-0.114961594 -0.042659074 -0.115338705 -0.037414104 -0.12636285 -0.02773007 -0.14043818 0.08907798
0.077769764 0.045596037 0.0387789 -0.03695341 -0.029571667 -0.073745064 -0.012572338 -0.091764785
0.049002778 -0.08820617 -0.10850566 -0.034773733 0.052750852 0.036578342 -0.13105834 0.051637027
-0.014143173 -0.09523895 -0.07524036 -0.06644126 -0.049591422 0.08270195 -0.11948544 0.04770796
-0.10281207 -0.15222035 0.030882226 -0.035655685 0.08519098 -0.13198023 0.049057618 -0.12114819
-0.113824755 0.08521174 -0.055952817 0.051605497 -0.11539018 0.01442749 -0.10976123 0.04769844
-0.02106372 -0.08348658 -0.111310065 0.028805308 0.04244357 0.012089485 0.014009066 -0.096645355
-0.2375083 0.108758084 -0.056426294 -0.2835966 -0.12938547 0.14765386 0.16353844 -0.15014444
0.04408045 -0.0014228786 0.38771164 0.15793265 -0.112211116 -0.009375629 0.123583876 0.4173306
0.088508025 0.07070855 -0.011615685 0.10435654 0.25838566 -0.5975019 0.1888911 -0.0262873
0.094069764 -0.12723473 0.07727345 0.085931204 -0.07798839 0.075386986 -0.26383334 0.13166377
-0.08808345 0.058891702 -0.010023377 -0.11255221 -0.1590978 0.5031201 -0.091598436 0.111718744
-0.563417 0.09385179 0.29616657 0.08606586 -0.06819968 0.17608105 0.065910816 0.51699024
-0.067149974 0.05988865 0.1138674 0.026266074 -0.07527129 -0.06496735 -0.16029583 0.058611445
-0.3327781 -0.24857852 0.18144932 -0.08523055 -0.14503331 -0.2231037 0.05290886 0.53750783
0.11366542 0.028752793 -0.10016522 0.035142794 0.18770571 -0.11871862 -0.27496517 -0.13084719
0.07859232 0.33175054 -0.5244797 0.33262154 0.04751763 0.042210337 -0.11667177 0.05243693
0.08203223 0.1483163 -0.05209703 -0.11152806 -0.12001068 -0.25222963 0.10685798 0.145447
0.07364956 -0.31648138 0.104216084 -0.24124096 0.11727737 -0.27123487 -0.18847995 0.2598901
0.22877133 -0.041267145 0.05222417 -0.13670525 0.43701655 0.07265433 -0.026888303 -0.12078871
0.01968057 0.028225532 0.027175548 -0.005066963 0.015258575 -0.12851018 0.015075277 0.03368001
0.10651232 0.22572254 0.010768967 -0.0801907 0.24289583 0.26824218 -0.08662213 0.14186822
0.030082861 -0.11438528 -0.043564048 0.20906365 -0.0047422308 0.018192936 0.16471346 0.0026193943
0.14676037 0.073619485 0.21819079 0.0052011786 -0.03696071 -0.2313076 -0.0260235 0.1614495
-0.57759976 0.031389028 0.08034649 0.113478586 -0.05665111 0.03778344 -0.17392896 -0.58423257
0.39223173 0.07331382 0.24209851 0.119364254 0.27935696 0.051719937 0.05235541 -0.08411935
0.13308749 0.28358185 0.056957345 -0.08233639 -0.09971676 0.16588037 0.011836528 -0.25504643
0.11725444 -0.0013988651 -0.14651428 0.21815632 0.21023947 -0.01610948 0.065500684 0.3754204
0.0030106893 0.055571597 0.24775387 0.17791177 0.015685577 0.021043226 0.6022245 -0.099613495
0.3706193 0.025307741 0.059836578 0.035404313 -0.63954073 0.069018126 0.12360258 0.059163474
-0.0999567 -0.011398002 -0.04748299 0.07507028 -0.07641118 -0.05842633 0.15550487 0.51859075
-0.0574985 -0.14324157 -0.050251048 0.18563356 1.1195946 0.27413988 -0.1139717 -0.7490753
00000000: fc70 ebbd 48bb 2ebd b336 ecbd 883f 19bd
00000010: 4365 01be 2c2a e3bc 07cf 0fbe 846e b63d
00000020: c145 9f3d e9c2 3a3d a0d6 1e3d 755c 17bd
00000030: 4840 f2bc a707 97bd 35fc 4dbc 2def bbbd
00000040: 23b7 483d 70a5 b4bd 3738 debd e76e 0ebd
00000050: 4711 583d 2cd3 153d 2834 06be 5981 533d
00000060: c4b8 67bc a30c c3bd 9e17 9abd 5b12 88bd
00000070: 6020 4bbd a45f a93d c8b4 f4bd 6c69 433d
00000080: 228f d2bd a7df 1bbe b9fc fc3c b20b 12bd
00000090: 9c78 ae3d d325 07be a4f0 483d 8b1c f8bd
000000a0: f41c e9bd 7e83 ae3d c82e 65bd 4960 533d
000000b0: b051 ecbd 4761 6c3c 7fca e0bd 705f 433d
000000c0: d38d acbc 03fb aabd 88f6 e3bd 1cf9 eb3c
000000d0: 4fd9 2d3d fa12 463c 4886 653c 00ee c5bd
000000e0: 6035 73be 8fbc de3d 421f 67bd 9333 91be
000000f0: a07d 04be 9332 173e 9f76 273e 77bf 19be
00000100: b48d 343d e27f baba 2482 c63e 19b9 213e
00000110: f1ce e5bd 3d9c 19bc 8b19 fd3d 5bac d53e
00000120: b243 b53d a5cf 903d b74f 3ebc e2b8 d53d
00000130: 204b 843e e2f5 18bf ab6c 413e 7758 d7bc
00000140: a6a7 c03d d249 02be 8b41 9e3d b3fc af3d
00000150: 61b8 9fbd 7e64 9a3d 2a15 87be ded2 063e
00000160: 1965 b4bd 6d38 713d 1739 24bc c681 e6bd
00000170: 89ea 22be 7bcc 003f f697 bbbd cccc e43d
00000180: 193c 10bf 5e35 c03d 25a3 973e 4c43 b03d
00000190: 46ac 8bbd 974e 343e 40fc 863d 7959 043f
000001a0: ed85 89bd cd4d 753d 5033 e93d f32b d73c
000001b0: d627 9abd 9a0d 85bd 9724 24be 8e12 703d
000001c0: e461 aabe 5e8b 7ebe dacd 393e 5b8d aebd
000001d0: 9d83 14be 4c75 64be f6b6 583d 1d9a 093f
000001e0: 6ac9 e83d fa8a eb3c 6c23 cdbd e4f1 0f3d
000001f0: ed35 403e bf22 f3bd 3cc8 8cbe cefc 05be
00000200: 03f5 a03d 35db a93e 4d44 06bf 5f4d aa3e
00000210: d9a1 423d bfe4 2c3d 9cf1 eebd 1bc8 563d
00000220: 8400 a83d 3ae0 173e b263 55bd d368 e4bd
00000230: 29c8 f5bd 3e24 81be 5bd8 da3d 0ff0 143e
00000240: 95d5 963d d909 a2be 3e6f d53d df07 77be
00000250: 1e2f f03d 4cdf 8abe e300 41be 5110 853e
00000260: 0843 6a3e bd07 29bd 03e9 553d 76fc 0bbe
00000270: a2c0 df3e cbcb 943d dc44 dcbc 1260 f7bd
00000280: 2639 a13c 3b39 e73c 419f de3c c408 a6bb
00000290: 1aff 793c 2c98 03be 4bfe 763c 0df4 093d
000002a0: 2223 da3d cf23 673e 5270 303c 063b a4bd
000002b0: afb9 783e 0a57 893e f166 b1bd e745 113e
000002c0: 5570 f63c d442 eabd 3770 32bd c814 563e
000002d0: b764 9bbb 5a09 953c a5aa 283e 25aa 2b3b
000002e0: 5a48 163e d0c5 963d 686d 5f3e a66e aa3b
000002f0: 1d64 17bd e6db 6cbe 3c2f d5bc 0553 253e
00000300: 94dd 13bf c891 003d b38c a43d 7667 e83d
00000310: ff0a 68bd cfc2 1a3d 6f1a 32be 4490 15bf
00000320: 99d2 c83e 8e25 963d ace8 773e 3f75 f43d
00000330: e007 8f3e 49d8 533d a072 563d c446 acbd
00000340: 1648 083e a431 913e 1b4c 693d fb9f a8bd
00000350: 4d38 ccbd 8bdc 293e ffed 413c 7295 82be
00000360: 1923 f03d 205a b7ba d707 16be 5f64 5f3e
00000370: 0449 573e 07f8 83bc 3925 863d 1a37 c03e
00000380: fc4e 453b 0b9f 633d 31b3 7d3e 812e 363e
00000390: 0a7f 803c d862 ac3c 632b 1a3f 2902 ccbd
000003a0: d0c1 bd3e 2e52 cf3c 3317 753d 1d04 113d
000003b0: f1b8 23bf 6059 8d3d 5923 fd3d 6655 723d
000003c0: 19b6 ccbd afbe 3abc 867d 42bd 72be 993d
000003d0: 777d 9cbd 7350 6fbd ab3c 1f3e 5dc2 043f
000003e0: 8c83 6bbd ebad 12be 0bd4 4dbd b916 3e3e
000003f0: e04e 8f3f 105c 8c3e ff69 e9bd 66c3 3fbf

l5.bias f4 [85]
0.069962405 2.6510437 2.4979215 1.9632427 2.1457293 -0.05428794 -0.63370776 0.8358198
-0.13955846 -0.06488291 2.5784333 0.5373503 0.077642724 2.4307532 -0.08808004 -0.0073968153
0.015510597 2.519321 2.262505 0.13713971 0.041777015 -0.046475492 2.8291624 1.7894815
2.9625466 -0.027767437 -0.0127236005 0.033251416 -0.59097755 -0.09679257 -0.014247329 -0.7190555
2.4002762 1.5138946 -0.10380303 0.11491025 -0.057362277 1.5541105 0.033244185 3.0356367
2.3336725 -0.083047494 0.014656605 2.839261 -0.16050968 2.9518387 -0.1434503 1.1918021
1.1082495 1.1340202 2.7301784 0.036250867 0.670398 0.052732117 -0.110150345 0.100159
2.7998266 -0.030088948 2.2154074 -0.8076549 0.08457824 0.08608801 2.785695 -0.06979858
0.7874305 1.5595453 0.22357957 0.07731886 0.08089497 -0.14549649 0.021983992 -0.67734957
-0.029264042 0.10532934 2.6810896 -0.051009506 1.6965301 1.5503222 0.020290853 0.9381464
-0.10690408 0.110395685 1.8861283 1.6107237 0.9269513
00000000: 7348 8f3d b3aa 2940 f2dd 1f40 894b fb3f
00000010: a153 0940 085d 5ebd ac3a 22bf 49f8 553f
00000020: 6ae8 0ebe 55e1 84bd 0d05 2540 ca8f 093f
00000030: 2603 9f3d 7691 1b40 4f63 b4bd fc60 f2bb
00000040: 2920 7e3c 8e3c 2140 e2cc 1040 5a6e 0c3e
00000050: 601e 2b3d 165d 3ebd ff10 3540 bb0d e53f
00000060: 5d9a 3d40 8978 e3bc a676 50bc a332 083d
00000070: 4e4a 17bf 2f3b c6bd a16d 69bc 0514 38bf
00000080: 209e 1940 4cc7 c13f af96 d4bd 1156 eb3d
00000090: b5f4 6abd 18ed c63f 0e2b 083d df47 4240
000000a0: e45a 1540 ce14 aabd 4222 703c 74b6 3540
000000b0: a65c 24be edea 3c40 a3e4 12be f98c 983f
000000c0: 1fdb 8d3f 9327 913f 3ebb 2e40 ca7b 143d
000000d0: 349f 2b3f a2fd 573d 8196 e1bd 2920 cd3d
000000e0: 5c30 3340 197d f6bc 3cc9 0d40 79c2 4ebf
000000f0: 5b37 ad3d e94e b03d d448 3240 8ff2 8ebd
00000100: 0c95 493f 2e9f c73f 0bf2 643e 5a59 9e3d
00000110: 43ac a53d 08fd 14be c617 b43c c866 2dbf
00000120: 25bb efbc e9b6 d73d f996 2b40 58ef 50bd
00000130: e627 d93f f570 c63f 0139 a63c 5d2a 703f
00000140: 87f0 dabd 2217 e23d a76c f13f 322c ce3f
00000150: ae4c 6d3f

l6.weight f4 [3, 85]
-0.0019296677 -0.16848496 -0.1250051 -0.12616834 -0.3195106 -0.054548662 0.3211956 -0.49030435
-0.01708174 0.08606391 -0.09354514 -0.041560534 0.09767371 -0.061092414 0.06711516 0.054627586
-0.008956968 -0.16827948 -0.29938385 0.009968088 0.00020509884 0.05372064 -0.3041732 -0.063848995
-0.2886742 -0.06548285 0.02648198 0.041473985 0.75757235 0.07735949 -0.09247765 -0.0008426783
-0.08014455 -0.1551367 -0.006573139 -0.021478677 -0.018788794 -0.06168657 -0.04314794 -0.27860844
-0.23316997 -0.02459915 -0.004231578 -0.24898311 -0.029958641 -0.16839929 0.0754743 -0.15069827
-0.04387536 -0.10496692 -0.13415107 -0.11619786 0.03820537 -0.009605879 -0.072009765 -0.08614665
-0.20041396 -0.121756814 -0.23449598 0.046961628 0.008842227 0.0375582 -0.08953928 0.020203099
-0.099363044 -0.042025387 -0.045029007 0.043268748 -0.12859993 0.07767093 -0.07539411 0.7694604
0.052673064 0.08071354 -0.1382426 -0.007463969 -0.059078436 0.11439507 0.046791356 -0.05263964
-0.028900854 0.06077616 -0.098566756 -1.0542929 0.008057854 -0.043937493 -0.11257502 -0.27415523
-0.16748166 0.051051136 0.00369402 0.33701998 0.9399941 0.06781892 -0.0015934985 -0.28468087
-0.12603086 0.0058798264 -0.26508743 -0.19901282 0.021842906 0.076042056 -0.37473875 -0.11587191
0.030986195 0.0012672526 -0.018836053 -0.17281733 -0.15171342 -0.23356952 0.05688162 -0.024282912
0.042076703 -0.37588313 -0.11369608 0.31977114 0.13913898 -0.16015123 -0.08762445 0.061116688
-0.087139845 -0.014539347 -0.09626767 -0.029812995 -0.13502069 -0.10495552 0.017576763 0.07144167
-0.14350046 0.06684162 -0.12067133 0.034730747 0.067548856 -0.17428513 -0.02482537 -0.17038332
0.16332884 -0.16364986 -0.032173846 0.087277874 -0.112278126 -0.18464652 0.08181598 -0.058028255
-0.08528162 0.0128875 0.030271968 -0.06097972 -0.07739379 -0.059992965 -0.2614066 0.096127816
-0.000595057 0.1210586 0.00918337 0.13788326 0.9066539 0.08542156 -0.08013444 -0.22655572
-0.025824757 -0.18476093 -0.34792057 0.027309371 -0.11230341 0.00821196 -0.06925129 -0.1524474
0.71947795 -0.20402317 0.09302169 0.058384106 0.21744199 -0.17785867 -0.04004756 0.02576689
-0.554991 0.60038346 0.0741129 0.038386956 0.100747444 -0.14382501 -0.048471462 -0.15222466
-0.12073702 -0.081086256 -0.14255448 0.36172745 -0.26648262 -0.072015 0.02243745 0.0025600367
-0.121889986 -0.11584288 -0.13001272 0.08247741 -0.019417753 0.09401616 0.42290625 0.029414508
-0.11986086 -0.6376409 0.0023374448 -0.233558 0.093074374 0.17655951 0.07998471 -0.11717252
-0.104656935 0.056471545 -0.23292619 0.059857283 0.013079133 -0.06260724 -0.033724353 -0.058691837
0.034755442 -0.24603128 -0.15096954 -0.17002851 -0.06036471 -0.30331153 -0.17022856 0.055504844
0.04250165 0.05400387 -0.06113915 0.06190359 -0.17580526 -0.1283482 0.06546879 -0.047537737
-0.03214127 0.035766058 -0.2068993 -0.0135905035 -0.22855845 3.4662655e-06 0.15158853 -0.01733469
0.12796065 -0.35170153 -0.08241848 0.08238094 0.04275094 0.01021504 -0.087856874 0.18257791
-0.03986677 -0.15913703 0.066102274 0.07999537 -0.06769794 0.74234426 0.03929358
00000000: e7ec fcba 5287 2cbe 5601 00be 4632 01be
00000010: e596 a3be 6b6e 5fbd c073 a43e 2c09 fbbe
00000020: 01ef 8bbc 4642 b03d 9894 bfbd 613b 2abd
00000030: 2709 c83d 0a3c 7abd ac73 893d 2dc1 5f3d
00000040: 3fc0 12bc 7551 2cbe d748 99be 3151 233c
00000050: cd0f 5739 2c0a 5c3d 97bc 9bbe 43c3 82bd
00000060: 1bcd 93be df1b 86bd bdf0 d83c a0e0 293d
00000070: 43f0 413f a76e 9e3d ec64 bdbd 2fe7 5cba
00000080: d322 a4bd 28dc 1ebe 7d63 d7bb 0df4 afbc
00000090: f5ea 99bc 0fab 7cbd e5bb 30bd c4a5 8ebe
000000a0: 1cc4 6ebe 2884 c9bc 0da9 8abb 6ef5 7ebe
000000b0: d36b f5bc dd70 2cbe 4592 9a3d a650 1abe
000000c0: a6b6 33bd e6f8 d6bd e65e 09be 25f9 edbd
000000d0: 3c7d 1c3d fa61 1dbc db79 93bd a86d b0bd
000000e0: 5139 4dbe a35b f9bd b71f 70be d65a 403d
000000f0: fdde 103c a1d6 193d 5f60 b7bd f880 a53c
00000100: da7e cbbd d022 2cbd 5670 38bd 923a 313d
00000110: b3af 03be f011 9f3d 3a68 9abd 5bfb 443f
00000120: b6bf 573d 244d a53d 788f 0dbe 4f94 f4bb
00000130: 3bfc 71bd f647 ea3d 4ba8 3f3d aa9c 57bd
00000140: 7cc1 ecbc 6cf0 783d 5edd c9bd 12f3 86bf
00000150: 1705 043c cdf7 33bd bb8d e6bd 135e 8cbe
00000160: 5080 2bbe ff1a 513d 5f17 723b e28d ac3e
00000170: 74a3 703f a5e4 8a3d f0dc d0ba b1c1 91be
00000180: 3c0e 01be 8fab c03b 8ab9 87be 04ca 4bbe
00000190: e5ef b23c f0bb 9b3d c2dd bfbe 404e edbd
000001a0: c3d6 fd3c f119 a63a 114e 9abc 07f7 30be
000001b0: c35a 1bbe d92c 6fbe b4fc 683d f5ec c6bc
000001c0: 9f58 2c3d c173 c0be 7ed9 e8bd 0bb9 a33e
000001d0: 737a 0e3e affe 23be 7374 b3bd 7e55 7a3d
000001e0: 6076 b2bd 7136 6ebc fc27 c5bd 623a f4bc
000001f0: dd42 0abe ebf2 d6bd 25fd 8f3c 0350 923d
00000200: c9f1 12be 42e4 883d 8822 f7bd d441 0e3d
00000210: 0e57 8a3d cd77 32be 935e cbbc f778 2ebe
00000220: ad3f 273e d493 27be b9c8 03bd bebe b23d
00000230: 13f2 e5bd fa13 3dbe 238f a73d 09af 6dbd
00000240: 21a8 aebd 1826 533c ebfc f73c dfc5 79bd
00000250: a380 9ebd 2fbb 75bd 16d7 85be a9de c43d
00000260: 99fd 1bba 92ed f73d d875 163c 4531 0d3e
00000270: 781a 683f 80f1 ae3d 861d a4bd 39fe 67be
00000280: 718e d3bc f831 3dbe a522 b2be e7b7 df3c
00000290: 55ff e5bd 758b 063c 9fd3 8dbd 2c1b 1cbe
000002a0: b52f 383f 73eb 50be 2882 be3d 2c24 6f3d
000002b0: 1da9 5e3e 9520 36be e908 24bd 1615 d33c
000002c0: e413 0ebf bbb2 193f 81c8 973d a43b 1d3d
000002d0: ad54 ce3d dd46 13be 038a 46bd c8e0 1bbe
000002e0: f944 f7bd 8d10 a6bd cdf9 11be 5734 b93e
000002f0: 6970 88be 9a7c 93bd bece b73c 4ac6 273b
00000300: 75a1 f9bd 083f edbd 0e22 05be ebe9 a83d
00000310: fb11 9fbc 8b8b c03d 2b87 d83e b2f6 f03c
00000320: 9c79 f5bd 6f3c 23bf d12f 193b d429 6fbe
00000330: c79d be3d 04cc 343e 06cf a33d 25f8 efbd
00000340: 6056 d6bd b54e 673d 3484 6ebe e92c 753d
00000350: dc49 563c 3a38 80bd 8c22 0abd da66 70bd
00000360: b95b 0e3d a0ef 7bbe c297 1abe f41b 2ebe
00000370: fc40 77bd a64b 9bbe 6550 2ebe 0c59 633d
00000380: 3616 2e3d 2933 5d3d 0c6d 7abd 9e8e 7d3d
00000390: 4b06 34be b66d 03be 8014 863d eeb6 42bd
000003a0: 90a6 03bd 6e7f 123d 69dd 53be b4aa 5ebc
000003b0: 3a0b 6abe fd9d 6836 063a 1b3e 7b01 8ebc
000003c0: 1e08 033e 3912 b4be 05cb a8bd 57b7 a83d
000003d0: 9c1b 2f3d fc5c 273c 4eee b3bd b4f5 3a3e
000003e0: 574b 23bd d1f4 22be a160 873d 9dd4 a33d
000003f0: 38a5 8abd 460a 3e3f 4ef2 203d

l6.bias f4 [3]
-2.5280442 -1.3723773 0.3248644
00000000: 7acb 21c0 0faa afbf a054 a63e
