models/Others/model_PGNN_1000_1e-3_1.pt (torch, 127233 bytes, 12 tensors)

l1.weight f4 [189, 9]
000000 b6 df 02 bd 86 1d 2c bf 6b 9e 57 3f b0 18 68 3f
       -0.03195163 -0.6723255 0.842261 0.9066267
000010 ea 22 16 c0 19 d7 2c bf ec a7 79 bf 0b b7 01 bf
       -2.345881 -0.6751571 -0.97521853 -0.50669926
000020 0c e8 a6 be 17 4d 04 ba f7 ff ed 3f 05 e5 9c bf
       -0.32598913 -0.00050468877 1.8593739 -1.2257391
000030 ae bd 9d bd 3b d4 03 c0 54 86 73 be d9 71 a5 3e
       -0.07702194 -2.0598285 -0.23781711 0.3231342
000040 79 02 db 3e 5c be 85 3e c6 cb 37 bf b1 a8 b8 3d
       0.42775324 0.26121795 -0.7179531 0.0901655
000050 73 ab 0d 3f 60 fe 1d bd 9a 2e 2d 3c 66 ae 8b 3e
       0.55339736 -0.03857267 0.010570193 0.27281493
000060 96 1d 94 3e 4c 4e 2a bf bc 16 1b bf 68 74 c6 3b
       0.28928822 -0.6652572 -0.60581565 0.006056357
000070 c1 d7 ac 3e d4 b2 ae 3f f3 99 23 bf 60 25 ed bf
       0.33758357 1.3648324 -0.6390678 -1.8527031
000080 e3 d7 66 3f 0d 88 26 bf 5b b4 2a bf 8d a9 3a bf
       0.90173167 -0.65051347 -0.6668145 -0.72914964
000090 53 77 86 3c 00 7b b3 be b8 bd b3 bf a0 12 56 be
       0.01641432 -0.3505478 -1.4042273 -0.20905542
0000a0 5e 77 9d 3f 59 eb ac be ec 5c 19 c0 e8 95 df be
       1.2302053 -0.33773306 -2.3962965 -0.43669057
0000b0 68 cd d1 3e 77 5b e3 3c ab e1 31 3f 71 75 e4 3e
       0.40977025 0.027753575 0.69484967 0.4462085
0000c0 ba 5e 3f bf 64 b6 0c 3f 6a 82 34 c0 df 8f a7 bf
       -0.74753916 0.54965806 -2.8204598 -1.3090781
0000d0 98 e1 da bf 6c 59 d1 bd a8 3f 32 bc 92 b4 f1 bd
       -1.7100096 -0.10222134 -0.010879435 -0.11802019
0000e0 61 c8 8d 3e 22 89 c9 bf 8f 7e 7c bf 18 08 27 40
       0.2769194 -1.5744975 -0.98630613 2.609869
0000f0 9d dd 1b bf b5 b0 4c bf 15 71 01 3d de 4f d7 3b
       -0.6088503 -0.79957134 0.031601984 0.0065708
000100 db 31 69 bc fd a9 5d 3e 8c 38 e0 bf 42 42 d0 3e
       -0.014233078 0.21646877 -1.7517257 0.4067555
000110 fd 77 77 c0 00 d6 6d 3f e2 21 1d 3e 3a 39 42 3e
       -3.8666985 0.92904663 0.15344957 0.18967143
000120 4d d4 6a 3d b9 e7 bc bf e9 06 5c bf 95 38 1f bf
       0.057331372 -1.4758216 -0.85948044 -0.6219571
000130 0c fb 84 bf 69 c2 b7 bf 53 43 d3 3f 14 b6 87 3f
       -1.0389113 -1.4356204 1.6504921 1.0602441
000140 47 e1 f2 be b3 af 22 bb 84 bf 30 bf 61 af 6d 3f
       -0.47437498 -0.0024823963 -0.6904223 0.9284573
000150 5b 49 95 bf 43 0d 77 3f 1c 6b af bc dc db e2 3d
       -1.1663011 0.9650461 -0.021413378 0.11077091
000160 80 57 0b bd 1b 57 05 c0 41 55 ec 3c b8 33 0b bf
       -0.034018993 -2.0834415 0.028849246 -0.5437579
000170 9b eb c4 3f cf 01 23 bd 25 ee 69 bf c2 86 80 bf
       1.5384401 -0.039796647 -0.91379005 -1.0041125
000180 f6 40 db 3f 43 e8 a8 bf ec 1f 02 c0 42 2e f6 39
       1.71292 -1.3195881 -2.0331984 0.0004695524
000190 f8 84 2a 3f e5 d9 06 c0 b2 d2 9d bd 31 86 cc 3e
       0.66609144 -2.1070492 -0.077062026 0.3994613
0001a0 dd 15 19 be 54 33 20 3d d8 fe 8d 3f 8b 03 2d 3f
       -0.14949746 0.03911145 1.1093397 0.6758353
0001b0 f0 82 4a 3e af 92 78 3e be 10 7d bf 05 4e b3 3f
       0.19776511 0.24274705 -0.9885367 1.4008185
0001c0 bb 3e d6 3e de 6a 9a bf ba ae a9 bd 10 b4 8a bf
       0.41844735 -1.2063863 -0.082852796 -1.0836201
0001d0 28 aa 06 3d 8a 4d 5e bc 4e 8a 12 3f 77 42 92 bf
       0.032877117 -0.013568291 0.57242286 -1.1426533
0001e0 3b 4b 06 bf a5 60 a5 3c fe e3 21 c0 d5 39 1a 3f
       -0.5245854 0.020187685 -2.5295405 0.60244495
0001f0 79 a6 af bf f2 d0 bb 3f 8d a7 00 3c f8 90 0d bf
       -1.3722678 1.467314 0.007852447 -0.5529933
000200 df 07 d6 3d 26 ec b2 bf 77 8b 97 bf 94 67 b5 bf
       0.1045072 -1.3978317 -1.1839436 -1.4172235
000210 f5 f4 8a bd e1 06 f7 3d 68 3b 1b 3f 9c 87 8c 3e
       -0.06785003 0.12061859 0.6063752 0.27447212
000220 1d 95 f1 be fb 01 4b be ff 47 a1 3f f6 c3 75 bd
       -0.47184077 -0.19824974 1.2600096 -0.060001336
000230 67 04 a3 be 01 22 88 bd a6 86 b6 be ca 97 4b bf
       -0.31839296 -0.06647111 -0.35649604 -0.79528487
000240 69 54 1f bd 93 88 fa bf 28 e3 02 c0 06 78 08 bf
       -0.03889886 -1.9572929 -2.0451145 -0.5330814
000250 39 10 e2 be db 5f 34 be a5 18 90 be 8f 72 89 be
       -0.44153002 -0.17614691 -0.28143802 -0.26845214
000260 6a 46 20 40 45 b9 1f 3d 96 57 e9 bf c6 12 e8 bf
       2.5042977 0.038995046 -1.8229854 -1.8130729
000270 3c 53 88 bf 3b de f4 3f 04 c7 65 3e e2 53 f2 bd
       -1.0650401 1.9130319 0.224392 -0.118324056
000280 11 e5 3c bf 1a 57 31 3f b9 bb 4b 39 b3 93 af be
       -0.7378703 0.6927353 0.00019429521 -0.34292373
000290 df a2 8b bf d5 98 b8 3e ac f2 89 bf 63 34 c5 bf
       -1.0909079 0.36054102 -1.0777183 -1.5406612
0002a0 4e fd a1 bd 82 80 27 3f 86 4b 0e bf f1 0e c1 ba
       -0.07909642 0.6543046 -0.5558399 -0.0014729184
0002b0 f2 7a 2a 3f 15 94 ca be c7 c9 3e be a2 6b 01 bf
       0.6659385 -0.39566103 -0.1863166 -0.5055486
0002c0 b1 04 a9 3f b2 45 8a 3e 3f b3 13 c0 1e bc 94 bf
       1.3204557 0.27006298 -2.3078153 -1.1619909
0002d0 76 2a 4c be 35 33 98 be ab 9f b9 be f4 60 ba 3f
       -0.19938073 -0.29726568 -0.3625463 1.4560838
0002e0 66 f4 8f ba b2 e8 e5 bc e3 f6 5e 3f 86 45 10 bf
       -0.0010982871 -0.02806506 0.8709547 -0.56356084
0002f0 e5 0e d2 3e 8d 03 44 3c 0e 4a ad bf c9 97 52 bf
       0.4102699 0.011963737 -1.3538225 -0.82262856
000300 21 90 82 3f 61 83 47 bf 28 83 23 40 32 cf 09 40
       1.0200235 -0.77934843 2.5548801 2.1532712
000310 fa 81 0b be b3 76 0b 3e 67 e5 26 ba 04 21 a6 bd
       -0.13623801 0.13619499 -0.0006366581 -0.08111766
000320 ad d4 bc 3f 15 d1 c2 3d 41 c7 22 c0 82 b6 06 3f
       1.4752403 0.095125355 -2.5434115 0.52622235
000330 97 6b 83 bd 6f c5 8e bf d8 bc 21 3f 32 a8 00 bb
       -0.064170055 -1.1154002 0.6317878 -0.0019631502
000340 85 ac a3 bf 20 f3 b1 3e a7 cf 8e 3f b6 75 c7 bf
       -1.2787024 0.34755802 1.115712 -1.5582798
000350 1d 64 9a bf 88 ac ba 3f ed de 86 3f 1f c6 5f 3f
       -1.2061802 1.4583902 1.0536782 0.87411684
000360 3a 7a 85 bd da 9b 30 3f 53 a1 a2 3d 85 45 bd bd
       -0.065174535 0.6898781 0.079409264 -0.092417754
000370 a8 7b 8c 3f 9d a9 b5 be 63 45 8f bf 77 de 80 bf
       1.0975237 -0.35480967 -1.119305 -1.0067891
000380 10 7e 0e c0 ad 49 3d 3a f4 24 c7 3f c9 36 ea bf
       -2.2264442 0.00072207564 1.5558152 -1.8297969
000390 1c 69 db 3d 60 f5 1a bf 90 77 b9 bf 12 c1 08 3e
       0.107134074 -0.6053066 -1.4489613 0.133549
0003a0 dd ce 12 3f 51 dd 41 bf e3 d1 81 bc 00 b9 ac bf
       0.573469 -0.7572833 -0.015847152 -1.3493958
0003b0 3f ed c8 bf d6 54 72 bf a8 97 0a bf 76 a6 1a 3f
       -1.5697402 -0.946607 -0.5413766 0.6041025
0003c0 c9 e5 45 bf f0 c4 6a be fe 4d 46 3f c4 65 31 3c
       -0.7730375 -0.22926688 0.77462757 0.0108274855
0003d0 44 12 dc be f2 b6 2d 3f 37 f0 07 bf 91 c5 8d 3e
       -0.42982686 0.6785728 -0.53100914 0.27689794
0003e0 14 43 3c be 52 d3 8c be f5 1b 65 bf 2e cb cf bf
       -0.18384963 -0.27504975 -0.89495784 -1.623388
0003f0 cc 45 35 bb 9d ae 41 3f 50 fb d0 bf 86 ed 13 be
       -0.002766001 0.75657064 -1.6326694 -0.14446077

l1.bias f4 [189]
000000 77 35 54 bf f4 d3 82 3f 1c 78 66 be 3f fc 80 3e
       -0.8289408 1.0220933 -0.22506756 0.25192448
000010 58 cf b0 bd 5e 55 13 3f fb 1b bd 3e e4 3c 9c 3f
       -0.08633298 0.57552135 0.3693541 1.2206082
000020 2d c4 26 3f 68 0f a8 be 45 d6 9d be 58 2f be 3e
       0.6514309 -0.32824254 -0.30827537 0.37145495
000030 44 19 12 3c 7e 15 43 3e 0a 04 76 3e 93 b9 e1 be
       0.008917157 0.19051167 0.24024978 -0.44086894
000040 df 8b 1d bf 88 ca fa 3c 41 e1 3e 3f ea af a3 3f
       -0.6154155 0.030614153 0.7456246 1.278806
000050 a0 a9 65 bf c3 f4 93 be d2 45 1e 3f f7 a1 16 bf
       -0.8971195 -0.28897676 0.6182529 -0.5884089
000060 c2 91 0c bf 87 12 9c 3f 6a 16 62 be 39 fd 95 be
       -0.5490991 1.2193154 -0.22078863 -0.29294756
000070 17 b4 ca bd 4b 4d f2 be d4 d6 b1 bc df e8 1d 3f
       -0.09897631 -0.47324595 -0.021708883 0.6168346
000080 1e e5 2e 3f 70 f2 e9 3e 37 c3 25 3f 6b 23 1c 3f
       0.68318355 0.45692778 0.64751 0.60991544
000090 f3 8f 34 3f c5 1b 1d bf f1 7c 18 3f b1 43 95 be
       0.7053215 -0.613705 0.59565645 -0.29153207
0000a0 fc 9d a6 3f 93 35 98 3d 01 93 64 3e ee f2 d5 3e
       1.3016963 0.074320935 0.22321703 0.41786903
0000b0 87 c4 96 3f 90 7a e0 3c ed c6 94 3e 4a 10 69 3e
       1.1778725 0.027402192 0.29058018 0.2276012
0000c0 e6 8f 42 bf db ca 1c 3f 2d 96 b3 be dd c9 36 3c
       -0.7600082 0.6124703 -0.35075513 0.011156526
0000d0 c8 18 14 3f 13 b3 3a bf 67 ea 80 bf 7e e5 8b 3e
       0.57850313 -0.72929496 -1.0071534 0.27323526
0000e0 ae a7 14 3f 66 6f 94 bf 62 39 ee be 1f 9e 86 3f
       0.5806836 -1.1596496 -0.46528155 1.0517005
0000f0 76 97 49 bf 60 f5 ad 3e 83 da d3 be b9 8d 69 3f
       -0.78746736 0.3397627 -0.4137765 0.91231877
000100 7e 39 72 bf cb 59 1a bf 7c e2 1c 3f 8d f3 07 be
       -0.94618976 -0.60293263 0.6128309 -0.13276501
000110 fb 87 f8 be 55 09 d8 3e 98 47 8b bf b7 08 91 be
       -0.48541245 0.4219462 -1.0881224 -0.2832696
000120 ef 72 d3 be c6 b2 ce be 73 f9 92 3e d5 60 f6 be
       -0.41298625 -0.40370768 0.2870594 -0.48120752
000130 9e 8e fc be 81 6a 59 3f a0 7f 37 3e d6 12 4b 3f
       -0.49327558 0.8492814 0.17919779 0.79325616
000140 37 d9 26 3f 26 ef e0 be 49 8b 00 bf a6 70 e6 3e
       0.65175194 -0.43932456 -0.5021253 0.4500782
000150 d8 43 6b 3f a2 5f 50 3f c2 ae 94 3f 1f 66 35 3e
       0.91900396 0.81395924 1.1615832 0.17714737
000160 fa cb 6d 3f 0d 83 07 be c6 b8 e5 3d a9 00 cf be
       0.9288937 -0.13233586 0.11216883 -0.4043019
000170 b6 6a 0a bf 4a b6 5f 3d b6 87 2c 3f 73 ae a7 3e
       -0.5406908 0.054617204 0.6739458 0.32750282
000180 e5 c9 58 be 04 b2 81 3f da f8 aa be 25 d9 20 be
       -0.21170767 1.0132451 -0.33392984 -0.15707834
000190 ab 13 ca 3d b3 94 f4 3e 4b 2b b2 bd 17 5f 1f bf
       0.098670326 0.47769699 -0.08699664 -0.6225447
0001a0 47 93 10 3d 96 66 90 be 04 38 22 3e b0 3e db 3e
       0.035296705 -0.28203267 0.15841681 0.42821264
0001b0 4f f9 4a 3f e4 b8 d4 3e ae 2c 53 bf 1a 75 48 3f
       0.79286665 0.4154731 -0.8249005 0.7830368
0001c0 5c 0a 62 bf 3e 3d 75 bf 1d c1 38 3f d8 5e 54 3f
       -0.8829706 -0.95796573 0.7216967 0.8295722
0001d0 56 6b be 3d b3 d4 48 3e 78 f9 87 3e 91 f6 10 bf
       0.092978165 0.19612388 0.26557517 -0.5662623
0001e0 a6 30 1d 3e d6 74 38 bf 70 80 8c bd 19 ae 50 3d
       0.15350589 -0.7205328 -0.06860435 0.050947282
0001f0 12 1b ec bc c1 ad 1f be c1 cd 80 3f 02 18 25 be
       -0.028821502 -0.15593626 1.0062791 -0.1612244
000200 52 85 12 3e 0a 57 4c 3f 36 b8 0e 3f 70 48 d5 3d
       0.1430867 0.7982031 0.55749834 0.10414207
000210 6e 90 6d 3e 53 58 21 3f fb 18 00 3f 88 91 a6 bc
       0.23199627 0.630254 0.5003812 -0.020333067
000220 93 3a e1 bb b1 d8 2e bf 91 91 51 3d 80 89 40 3e
       -0.0068734377 -0.68299395 0.051164214 0.18802452
000230 4f 17 98 be ac fc 7b bf 1c 6c 64 3e de 15 d9 be
       -0.29705283 -0.9843242 0.22306865 -0.42399496
000240 b7 2f 86 3e b5 01 d8 3e 48 b4 e3 bd ea bf 30 3f
       0.2620828 0.42188802 -0.1111837 0.6904284
000250 32 0d 0b bf f9 42 69 bf 40 f1 9b 3f 13 e0 cc 3f
       -0.5431701 -0.9111782 1.2182999 1.6005882
000260 d5 ed f3 bd 2e a5 3a 3f 5d 81 43 3f 7f 99 da 3e
       -0.11910597 0.72908294 0.7636927 0.42695233
000270 c0 b6 fb 3b 7d e6 64 bd f3 d0 17 bf 1f fa c5 3d
       0.0076816976 -0.055883873 -0.59303206 0.096668474
000280 ff 4a bb 3e e1 60 12 bf d3 1f 2f be 3e c1 84 be
       0.36580655 -0.57179075 -0.17101984 -0.25928682
000290 95 57 3d bf 33 6b 81 3f f7 25 56 3f 6b 74 b4 3e
       -0.73961765 1.011084 0.8365168 0.3524507
0002a0 98 19 a7 3f 28 fb 18 bf 61 bd 53 bd 9f ff 93 3f
       1.3054686 -0.59758234 -0.051694278 1.1562384
0002b0 66 6a f9 bd d6 1c 36 be 00 64 29 be 11 f7 73 3f
       -0.12178497 -0.17784438 -0.16542053 0.9529887
0002c0 1a 26 7f be 76 76 3d bf 88 95 f7 3d d7 c6 41 bf
       -0.24916878 -0.7400888 0.12089068 -0.7569403
0002d0 ce a9 36 be d6 7c 18 bf c4 97 26 bf 4c 8b 02 3f
       -0.17838213 -0.59565485 -0.65075326 0.509938
0002e0 68 92 94 3e 11 d6 8a 3f a3 2b c6 bf 90 82 c9 3c
       0.2901795 1.0846578 -1.5482067 0.02459839
0002f0 75 44 2f 3e
       0.17115958

l2.weight f4 [119, 189]
000000 fc 2e 90 3d 35 5a f6 be 11 fc ab bc 7b 69 68 be
       0.070402116 -0.48115698 -0.020994218 -0.22696488
000010 d8 6c 04 be fa b8 1b bf 75 c8 3c be 43 0a 01 bf
       -0.12932146 -0.60829127 -0.18435843 -0.50406283
000020 17 9e cc bd d3 2d 3b 3b 5e 3a b4 bd e3 d8 38 3b
       -0.09991091 0.002856125 -0.08800195 0.0028205446
000030 f2 e0 1b bd 2e 4c cf be ee b5 98 3d f7 7f 3d 3d
       -0.03805632 -0.40487808 0.07456575 0.046264615
000040 8e fb 27 bd cb 6b 17 be 58 cb 27 bd 30 b7 8b bf
       -0.041011386 -0.14787214 -0.040965408 -1.0915279
000050 35 71 ff bd b2 71 2f be 7d 26 3e be 56 41 c6 3e
       -0.124727644 -0.17133215 -0.1856937 0.38721722
000060 b5 e7 7d be 1e 10 19 bf 81 0a 1c 3e 79 0d 6f be
       -0.2479542 -0.5979022 0.15238382 -0.23344983
000070 a4 1c 1a bf 2b 57 01 be 8c f4 d1 be f5 03 b7 3e
       -0.6019995 -0.12630908 -0.41006887 0.35745206
000080 9f 4e 3b bf 9e 3e 05 bf d6 61 53 bf bb 73 9c 3d
       -0.7316684 -0.5204867 -0.8257116 0.07639261
000090 09 86 0a bf 3d cd 25 3e b8 c6 d7 3c ce 4e a0 3e
       -0.5411077 0.16191573 0.026339874 0.31310123
0000a0 58 e9 a1 bf ab 99 95 be 3a 71 56 3d 69 38 5a 3e
       -1.2649336 -0.29218802 0.052354075 0.21310581
0000b0 b5 c6 93 be 60 a0 59 3e 53 b5 65 3d c3 c4 6e 3f
       -0.2886254 0.21252584 0.056081127 0.93268985
0000c0 2c aa c7 be 07 1d 8f 3d 14 ec 29 3f df a4 60 bc
       -0.38997018 0.069879584 0.6637585 -0.013711183
0000d0 07 ba ac 3d 02 0e 75 bd 19 60 c9 bd f5 0b 6e be
       0.084339194 -0.059827812 -0.09832782 -0.23246749
0000e0 c5 1e a4 be c1 a4 8b bd 4a 3d 4c bf 04 29 f6 be
       -0.32054725 -0.06818534 -0.7978102 -0.48078167
0000f0 55 6a 60 be c1 80 03 be 53 ad 95 be 2b 2c f2 be
       -0.21915562 -0.12842084 -0.29233798 -0.47299322
000100 ca 44 f5 3e 38 67 90 3e c7 07 e4 bd c6 29 29 bd
       0.47904044 0.2820375 -0.11134296 -0.041299604
000110 20 ee 51 be 87 9f 43 be d9 81 4b be 9e 3f 70 be
       -0.20500994 -0.19103824 -0.19873752 -0.23461768
000120 1a 56 fb 3b c9 14 38 3e e5 63 6a 3e 51 41 0a be
       0.007670176 0.17976679 0.22889669 -0.13501479
000130 48 9f 17 3e 2e 92 3a be db 37 c8 3e 6e 3e b4 3d
       0.14806855 -0.18219826 0.39105114 0.0880097
000140 d1 cb 2d bf 25 8c d8 3e 1b d3 9f bd e7 51 17 be
       -0.67889124 0.42294422 -0.07803937 -0.14777337
000150 46 a0 ac be 99 56 a5 be 89 30 b9 be 2e 90 e4 be
       -0.3371603 -0.3229263 -0.36169842 -0.4464125
000160 c5 92 74 be ed 0e ae bd ea 97 b3 bd d2 54 25 3c
       -0.23884113 -0.084989406 -0.0876921 0.0100910235
000170 ce e8 cb bd 9f ce fb 3c 91 c2 a9 be a4 c2 f0 3d
       -0.09956513 0.030738173 -0.33156255 0.11755875
000180 ec e4 2f 3f 62 7f cc be 0f b7 12 3f a2 8a 59 ba
       0.6870868 -0.39940935 0.57310575 -0.0008298551
000190 89 35 47 3e 4f 40 d8 be a4 4d 9a bd f1 ad 32 3e
       0.19454016 -0.42236564 -0.0753434 0.17449166
0001a0 b8 ef 11 bd d8 48 31 bf 26 e4 fc bd 75 bb a8 bc
       -0.035629004 -0.69251776 -0.12348203 -0.020597199
0001b0 18 a5 2b bd c3 ca e5 be 6a e6 97 3e 58 f7 20 bf
       -0.041905493 -0.44881257 0.2966798 -0.62877417
0001c0 a6 41 48 bd ee a4 18 bd a6 4a 8e be bd 0d 07 be
       -0.048890732 -0.037266664 -0.27791327 -0.13188834
0001d0 b3 84 2e 3e e1 37 5c be 55 64 9a be 86 8c c8 bd
       0.17042808 -0.21505691 -0.30154672 -0.09792428
0001e0 5f a4 59 3d 2f ee fe bc c9 04 ff bc eb 22 10 be
       0.053135272 -0.031119434 -0.031130211 -0.1407582
0001f0 30 ab 87 be fa 1a f6 bc 91 1c 2b be 73 1b 15 be
       -0.26497793 -0.03004216 -0.16710116 -0.14561252
000200 7b 7d 97 3e 32 0b d3 be e1 06 66 bf fe d4 03 be
       0.29587922 -0.4121948 -0.89854246 -0.12874219
000210 bb b5 9a 3b 95 7d 4a be aa 4e 0a be 0c 70 1f 3d
       0.004721371 -0.19774468 -0.1350657 0.038925216
000220 32 de 46 bc a6 5e a1 3e 3d f8 59 be ab 17 f6 bc
       -0.012137936 0.31517524 -0.21286102 -0.030040583
000230 f4 df 59 3d a6 38 bc be 3e 30 07 3f 34 c2 5e 3b
       0.053192094 -0.3676197 0.52807987 0.0033990266
000240 38 90 b2 bc c4 f3 31 3a ee 1b 30 3f fc 3c 40 3d
       -0.021797284 0.0006788338 0.6879262 0.04693316
000250 c4 47 b6 bd 03 f4 40 3e 50 24 6b 3e 84 16 0b 3e
       -0.08900407 0.18843083 0.22963071 0.13582808
000260 b2 b7 83 be 6e ec 3e 3f d9 4c 3f bf bd 97 e3 be
       -0.25726086 0.74579513 -0.74726635 -0.44451705
000270 6b 86 76 3d 29 da 21 3d 80 43 c7 3e b9 28 f9 bd
       0.060186785 0.039514694 0.38918686 -0.1216597
000280 75 64 ba bd 29 1f d9 3e 83 5c e2 bd 3a 41 d5 3c
       -0.09101192 0.42406586 -0.110528015 0.026032079
000290 aa ab 5f be 54 aa 1d bf ab 41 6c be 4b 78 57 be
       -0.21842828 -0.61588025 -0.23071925 -0.21041982
0002a0 21 8b 18 bf 08 a8 3e be 19 c3 70 3e 8c b2 ec be
       -0.59587294 -0.18618786 0.23511924 -0.4622997
0002b0 85 b6 9a 3b 51 37 30 be d8 27 d8 bd 31 fb ba be
       0.004721465 -0.17208602 -0.105544746 -0.3651977
0002c0 43 7c b2 3f 06 52 17 bd 60 59 ab 3e 4d 0e 5d 3d
       1.3944172 -0.036943458 0.33466625 0.053968716
0002d0 c0 51 56 3e fa 04 b7 bd 00 87 a2 bd f9 a4 35 bd
       0.20929623 -0.08936496 -0.079359055 -0.044346783
0002e0 a8 13 bc bc 8f 46 42 bd cc 19 ad 3d 7e 03 5c be
       -0.022958592 -0.04743057 0.08452186 -0.21485707
0002f0 dc f1 90 3d d9 17 0d be e2 c7 67 be 4a e4 12 be
       0.07077381 -0.13778628 -0.22634843 -0.14344898
000300 48 19 69 bf 8a ab 3a 3e 95 3c 0c 3e d3 51 56 bf
       -0.910542 0.182295 0.13694985 -0.83718604
000310 62 8b ca be e0 99 88 bf c2 d6 9b 3e af d4 93 be
       -0.39559466 -1.0671959 0.30437285 -0.28873202
000320 c1 ae bc 3d 36 d3 92 3e 43 a3 fa be 7b 6c 33 bf
       0.09213019 0.28676766 -0.48952684 -0.70087403
000330 ee 94 ac 3e c2 b7 15 bf 93 af 05 3e 67 68 d8 be
       0.33707374 -0.5848352 0.13055257 -0.42267153
000340 51 e6 c2 be 93 5d ef 3b 53 8a 19 3f 95 8e 0b bf
       -0.38066342 0.007304856 0.5997669 -0.5451444
000350 d0 30 96 be 85 b8 d9 bd c3 ce 2c bf 29 30 8a be
       -0.29334116 -0.106308974 -0.67502993 -0.26989868
000360 1e d8 cb 3e d7 c7 b4 3d 2a ea 4e 3d d4 7e bd 3d
       0.39813322 0.08827179 0.050516285 0.09252706
000370 1c dd 0d 3e 10 bb ce bd e8 cc 99 be 3a 90 af be
       0.13853878 -0.10094273 -0.30039144 -0.34289724
000380 ca 4d 0f bf f3 a8 03 bf 53 b9 03 3e 27 89 e0 3e
       -0.5597807 -0.5142967 0.12863664 0.4385464
000390 d3 f0 da bd 98 f1 5b bf 1e 9a 0e 3f ab 82 ad 3e
       -0.10690465 -0.8591552 0.55703914 0.33888754
0003a0 ef b9 25 bf d5 70 c6 be 10 4d 56 be cb 90 c0 bd
       -0.6473684 -0.3875796 -0.20927835 -0.09402617
0003b0 69 3e 0a 3e b2 d6 a9 3e c9 04 c7 bd 2c a4 49 bf
       0.1350037 0.33171612 -0.097177096 -0.7876613
0003c0 0c 97 39 3e c6 38 8a 3d 69 08 ad bd 4e cd 22 3e
       0.18124026 0.0674911 -0.0844887 0.1589863
0003d0 a3 f7 b4 bd 57 4f c0 be 5e 27 4d 3e 8a c8 07 3f
       -0.088362955 -0.37560531 0.20034549 0.53040373
0003e0 89 dc c7 be c3 ec 14 3e c3 c2 60 bf 42 55 f4 3d
       -0.39035442 0.14543442 -0.8779718 0.11930324
0003f0 ec fb 0b bf e8 40 fa 3e c2 3b 15 be 45 82 58 bf
       -0.5468128 0.48877645 -0.14573577 -0.84573776

l2.bias f4 [119]
000000 7a 98 ab be b2 f8 8e be c7 67 57 3e 20 04 a6 3e
       -0.33514768 -0.27924114 0.21035682 0.32425022
000010 2c 2f 36 be 81 38 6a be 37 eb c0 bd 4d 02 32 3e
       -0.17791432 -0.22873117 -0.09419864 0.1738369
000020 9a f9 19 3f 7f 68 19 3f 67 f7 1c 3e 7f 4f cc bd
       0.60146487 0.59925073 0.15328752 -0.099761
000030 81 55 1b 3e 35 a1 b0 3d f9 a4 01 3f 6b 18 65 be
       0.15169336 0.08624498 0.50642353 -0.22372596
000040 7a 7d 94 be 12 ba a0 be 62 e5 db bd 25 1b 83 3c
       -0.2900198 -0.3139196 -0.10737111 0.016004154
000050 76 80 32 bd 93 3f 06 be 4d ec 98 3e 1e 8b dd 3d
       -0.04357954 -0.13110189 0.29867783 0.1081755
000060 2d b8 12 be fd f9 22 3f db 96 a1 3e 46 29 c8 3e
       -0.1432807 0.636627 0.31560406 0.3909399
000070 6f a5 f8 3e 00 81 1d be aa 8a 61 3e d7 e7 a7 3e
       0.48563716 -0.15381241 0.22025552 0.32794067
000080 fa 76 4e 3e 8e 7b 39 3f 00 43 52 3f 2d 9f 9f 3e
       0.20162573 0.72454154 0.82133484 0.3117613
000090 c5 39 09 3f 0f 34 74 bd 24 4b a2 bd 30 97 66 3c
       0.53603774 -0.05961996 -0.07924488 0.014074132
0000a0 ec c0 5f bf ff f0 8e 3e 7b 26 9b bc 3f 65 d6 3d
       -0.8740375 0.2791824 -0.018939247 0.1046853
0000b0 96 f2 ca be ae f2 ac bc 1f e9 dd 3e 6b 7e d3 3d
       -0.39638203 -0.021111812 0.4334192 0.10326847
0000c0 95 f7 d6 3d a6 6f 90 bd ff 25 f7 be 4a 26 a6 be
       0.10496441 -0.07052545 -0.48271176 -0.32451087
0000d0 4a 00 79 3e 7d 33 63 bd ad 47 c6 be 01 e9 8e 3e
       0.24316517 -0.055469025 -0.3872656 0.27912143
0000e0 14 85 9c be 20 78 0a 3e 0c a2 f5 3c 5a 0e ee 3d
       -0.3057028 0.13522387 0.029984497 0.11623831
0000f0 9b 31 dd 3e 93 23 33 3f e6 4b 23 be a9 2b d4 be
       0.43201908 0.69976157 -0.15946922 -0.4143956
000100 6e f8 ff 3d d0 19 af 3e 0b 32 39 be c3 01 a9 3e
       0.12498556 0.3419938 -0.18085496 0.33009157
000110 44 a4 3c 3d 49 b3 b7 3e ec a1 67 3e 7a 18 cf be
       0.046055093 0.3587897 0.22620362 -0.40448362
000120 2a 2e 21 be 84 ca 01 3f 65 2d a7 3e a1 7e 08 3d
       -0.15740266 0.5069964 0.3265182 0.033323888
000130 64 41 31 be 43 27 e3 3e e6 02 92 3d af b7 8c 3d
       -0.17310101 0.44365892 0.07129459 0.06870972
000140 3c 4b 8a 3e 3d 19 86 be e0 25 99 bc 4d 95 a4 3e
       0.27010524 -0.2619113 -0.018694818 0.32145157
000150 12 9b 03 3f 13 61 06 3f 96 11 ad 3e ce 77 15 3e
       0.51408494 0.52491874 0.3380248 0.14596483
000160 12 47 07 bf 69 4d bc be 20 28 8a be cc d9 14 be
       -0.5284282 -0.3677781 -0.26983738 -0.14536208
000170 82 ad cf 3e 4b 3e 54 3e 33 24 78 bc f1 d1 be be
       0.40562063 0.20726888 -0.015145349 -0.37269548
000180 1c 68 96 be d5 65 ba be 09 98 e8 3e fb 73 24 3e
       -0.29376304 -0.36405817 0.45428494 0.16059868
000190 fa 00 6f 3d fd 32 04 3f a3 f0 90 3e 8d 98 a9 bd
       0.05835054 0.516403 0.2830859 -0.0828105
0001a0 9a 7e 01 3e 96 d7 82 3d ce 6e bf be 93 83 bd bd
       0.12645951 0.06388776 -0.37389225 -0.092536114
0001b0 08 47 5b 3e 4d c6 aa be ad a1 db 3e 4d a6 a5 3e
       0.21413815 -0.33354416 0.42896786 0.3235344
0001c0 1c 58 2b 3e 85 e8 c3 be df 2f 96 bc 6a 36 ba 3e
       0.1673283 -0.38263336 -0.018333374 0.3636964
0001d0 0e 4f 1e 3f 8f 2f b0 3c ca 82 61 3f
       0.6183938 0.021507053 0.88090193

l3.weight f4 [9, 119]
000000 77 74 26 bc 9f 69 2b be 2a 2e da bd 0a 0a 16 3e
       -0.010159603 -0.1673951 -0.10653336 0.14652267
000010 28 52 93 3e 83 b4 c5 be dd 41 89 3e 07 be a6 3e
       0.28773618 -0.38614282 0.26808062 0.32566854
000020 5f 3a 9f 3d 5a 85 10 3d 4c 5b 41 3e 1e ed 34 3d
       0.07774805 0.035283424 0.18882483 0.044171445
000030 77 20 4a bd 9e 09 b7 3d d8 73 63 3e 6e da cd bd
       -0.049347367 0.08937381 0.2221216 -0.10051428
000040 ed 33 37 3b e1 a7 04 be c2 56 30 3e ca 1e 6c bb
       0.0027954534 -0.12954666 0.17220595 -0.0036029094
000050 5c 79 19 3e c5 85 78 3c 84 d9 69 3b 48 92 04 3e
       0.14987701 0.015168612 0.0035682628 0.12946427
000060 42 0b 86 bd 40 a0 0c 3e 26 a3 09 bc 70 83 49 be
       -0.06545116 0.13733006 -0.008400714 -0.19679046
000070 e7 96 57 bd a1 93 4a 3c e7 c9 3a bd 0c 65 85 3d
       -0.052634146 0.012364299 -0.045602705 0.06513414
000080 63 04 18 be e5 53 b6 3d bb b5 2d 3e ca 46 8c 3e
       -0.14845423 0.0890272 0.16963856 0.27397758
000090 ae 70 85 3d ce ef 11 3e cb bf 9e bb 5f c3 da bd
       0.065156326 0.14251634 -0.004844641 -0.10681795
0000a0 e1 db b5 bd b4 c3 8a 3e ac 81 1e be 14 10 83 3e
       -0.08879829 0.27102435 -0.15479153 0.25598204
0000b0 b9 61 70 bc 5d 6a 78 3e d1 1f 8f bd e1 df 05 bd
       -0.014671736 0.24259324 -0.069884904 -0.03268421
0000c0 b6 e3 a1 bb f6 cd 67 be ea 07 ca 3c 56 4a 6c 3e
       -0.0049404753 -0.22637162 0.024661977 0.23075232
0000d0 00 ef aa 3d 78 8c a0 bc 9a 16 8c 3e 75 cc cb be
       0.08346367 -0.01959823 0.27360994 -0.39804426
0000e0 cd 80 97 3e 94 04 c8 bd 88 7c 44 3e ee 48 5d 3e
       0.29590455 -0.09766498 0.1918813 0.21609852
0000f0 70 d9 00 3e 7e 59 1b be 0d 87 a2 3e 28 d9 d3 bc
       0.12582946 -0.15170857 0.3174366 -0.025860384
000100 d6 3e 02 3d 98 43 85 3e 28 48 71 bd 02 a3 01 be
       0.031798206 0.26028132 -0.058906704 -0.12659839
000110 29 8d e0 3e 99 5d 87 3e e4 3c 8d 3d d7 84 98 3e
       0.43857697 0.26438597 0.068963796 0.2978885
000120 64 90 66 3d 79 99 ef 3b 11 e9 4a be d1 a3 18 3d
       0.056290045 0.0073119965 -0.1981547 0.037265602
000130 1a 82 d0 bb a3 73 2f be c8 90 ce bc 9a 80 d6 bd
       -0.0063631656 -0.17133956 -0.025215521 -0.104737476
000140 33 5c 9b bd b5 e1 24 bd 11 e8 05 be 43 30 2d be
       -0.07585945 -0.040254313 -0.13076808 -0.16912942
000150 10 da 2b bc ba e9 70 3e 03 6c b4 3d 83 4d a3 be
       -0.010489002 0.2352666 0.08809664 -0.31895074
000160 3c 73 2f 3e 9b ff d3 bd 51 41 90 3e 00 86 6c be
       0.17133802 -0.10351487 0.28174832 -0.23097992
000170 d6 bd 6a 3e 83 c7 4d 3d 68 bd ab 3c 02 12 07 3d
       0.22923979 0.050239097 0.02096434 0.032976158
000180 1a e4 fa 3c d5 7d 80 bd bb a1 27 3e a8 24 38 be
       0.030626345 -0.062740006 0.16370289 -0.17982733
000190 36 41 b7 bd 32 66 7d 3d ea 3b 8b 3e 4d 65 f9 bc
       -0.08947985 0.06186504 0.27194148 -0.030443812
0001a0 8e 31 e3 bd 01 ba 0f be 2a 6f 79 3d 63 fd c0 bd
       -0.11093436 -0.14035799 0.06089703 -0.0942333
0001b0 8e 6f 2f 3d d0 e4 3d bd 3e a5 c0 3e f7 55 02 3f
       0.042830996 -0.04636079 0.3762607 0.5091242
0001c0 0d d8 2d 3d 3a 84 3e 3d 1f bf 39 3e 7c a9 1b bf
       0.04244237 0.04651282 0.18139313 -0.6080549
0001d0 20 34 71 3d 2d 16 b6 bd 79 1d 0f bd 99 fe d6 3c
       0.0588876 -0.088909484 -0.034940217 0.026244448
0001e0 85 47 a9 bd 48 a2 0d be d6 78 05 3e 69 79 94 3e
       -0.082655944 -0.13831437 0.13034377 0.2899888
0001f0 97 c4 11 3e c6 6e 8d 3e de b3 24 3d 2d bb 02 3d
       0.1423515 0.27623576 0.040210597 0.031916786
000200 2a 6e 13 3d 4a 8d 7e 3e bf 23 0f 3e 8e c9 d0 bc
       0.035993733 0.24858585 0.1397848 -0.025486734
000210 a5 a6 f5 3d b2 ea dc ba 7a c7 3f bd 90 e2 2d 3b
       0.119946755 -0.0016854613 -0.046821095 0.0026532747
000220 05 78 ce bd 21 36 ae 3d 73 4e b5 3d 63 e2 74 3e
       -0.10081486 0.08506418 0.088528536 0.23914485
000230 89 a5 be 3c 6b 3e 5a be 83 cd b6 3e a0 b1 b4 bd
       0.023272293 -0.21312873 0.35703668 -0.08822942
000240 f1 5a 37 3e 77 f2 6d 3d 3e 72 60 be ba f4 c1 3d
       0.17905785 0.05809256 -0.2191858 0.09470506
000250 99 bb 4b 3d b6 11 93 3d 43 15 9b 3d 2b bf 2e 3e
       0.049739454 0.071811125 0.07572415 0.17065112
000260 15 a1 b0 3d c2 08 87 3c 67 5a 02 3e 1c ec d2 3d
       0.08624474 0.016483668 0.12729798 0.102989405
000270 a8 ef 50 3e 4e 57 8d bd 6b 03 a2 3d 1d 0a c1 3c
       0.20403922 -0.06901418 0.07910808 0.023564393
000280 20 83 5c 3e 13 11 61 3d b8 3c 84 3e 60 0e b0 bd
       0.21534395 0.054947924 0.25827575 -0.08596492
000290 d2 17 82 3e 95 37 52 3d 98 14 ae bd 91 cc 34 bc
       0.25408798 0.05132254 -0.08500022 -0.011035101
0002a0 a3 81 21 be bb 0a 32 3c 76 53 64 ba 73 31 ca bd
       -0.15772109 0.010866816 -0.00087099464 -0.09872713
0002b0 80 48 74 3d 83 29 89 3e 5f 37 d4 be 59 02 9b 3e
       0.059639454 0.26789483 -0.41448495 0.3027523
0002c0 d2 f1 a5 3d b1 9a 53 be 2d 46 ae 3e d5 ae 59 bd
       0.08102764 -0.20664479 0.34037915 -0.05314525
0002d0 0e a5 9b bc 1c 27 8d be 73 36 a2 bd ed a2 d8 bd
       -0.018999603 -0.275689 -0.079205416 -0.105779506
0002e0 7a 78 85 3e 43 1b ad bd cc 37 ae bc ee ec bc be
       0.2606848 -0.084524654 -0.02126684 -0.36899513
0002f0 0d 92 3c 3e 79 e9 51 3c 03 39 96 3e c0 b6 ef ba
       0.18415089 0.012812012 0.2934037 -0.0018288717
000300 07 66 ab 3d cb 66 f7 bd 9e d9 36 bd 7c e5 50 be
       0.083690695 -0.12080153 -0.04464113 -0.20400041
000310 a2 ac b4 3d 4f 6b 86 3e 69 86 9d be e4 35 8b 3b
       0.088219896 0.26253745 -0.3076661 0.0042483676
000320 80 84 d9 bb 83 d6 e6 3d 62 c6 c4 bb 67 a5 a8 bb
       -0.0066381097 0.112713836 -0.0060050944 -0.0051466706
000330 79 ad 78 3e cb 3e 33 bd 42 0d 05 be 66 2a 22 3e
       0.24284925 -0.043761056 -0.12993339 0.15836486
000340 9e 3e 28 3e 45 b5 8e 3e 8e 7b 1d 3e 83 af 2b 3e
       0.16430137 0.27872673 0.15379164 0.16766171
000350 71 43 0a 3f da d5 f7 bd d8 31 cf 3d 94 dc ee 3d
       0.5400916 -0.12101336 0.10116929 0.11663166
000360 27 22 a3 3d c2 c4 57 bd 06 e5 b9 bc 11 e8 c8 bd
       0.079654984 -0.052677877 -0.022692215 -0.09809888
000370 b0 d9 65 3d 6a 89 8c 3e ab 1d be bc 64 71 39 3c
       0.056115806 0.2744859 -0.023207506 0.011318538
000380 5c c1 8c be 56 3c 25 3d 03 98 0f be 00 0c 09 3e
       -0.27491271 0.040340744 -0.14022832 0.13383484
000390 4a 68 f8 bd d5 79 50 3e 4d dd c8 bd 6e aa b8 bd
       -0.121292666 0.20358975 -0.09807835 -0.09016882
0003a0 c3 82 82 be 32 15 d1 3d 59 22 81 be 58 b0 31 3e
       -0.25490388 0.10209121 -0.25221518 0.17352426
0003b0 72 84 a8 3d 66 23 18 bc 2a c2 de 3c 09 c2 49 bc
       0.08228387 -0.009285783 0.027192194 -0.012314328
0003c0 e5 b1 9e bd 78 50 0b 3e 3c 1d 93 3e 35 44 23 3e
       -0.077487744 0.13604915 0.28733242 0.15943988
0003d0 86 46 8c 3e 22 f8 30 3e f9 57 df 3d c3 6b 09 3e
       0.27397555 0.17282155 0.10905451 0.13420014
0003e0 c3 e9 04 3e 80 2f 5b be ff 09 7e 3c 5d 24 7e 3d
       0.12979798 -0.21404839 0.015505313 0.062046397
0003f0 13 f0 d3 3d 12 bf 11 be b1 79 cd bc 05 61 08 be
       0.10348525 -0.14233044 -0.025082441 -0.1331826

l3.bias f4 [9]
000000 04 07 f5 3e c7 1a d8 3e 23 23 80 bd 41 8f 10 3e
       0.47856915 0.4220793 -0.06256702 0.14117147
000010 62 1d 6f 3e 16 94 f0 bd c4 12 8d 3f 21 6e 2a 3f
       0.23351052 -0.11746995 1.1021352 0.66574293
000020 7b 9e a6 bc
       -0.020339241

l4.weight f4 [53, 9]
000000 bb 5e a9 3e 30 bf 88 be 25 c4 b4 3d 06 45 f3 3e
       0.33080086 -0.26708364 0.08826474 0.47513598
000010 ca cd c3 3d cf 6a f9 be ca 91 89 bd 30 21 89 3f
       0.095607355 -0.487143 -0.0671726 1.0713253
000020 1c 35 bf bd f2 68 83 3d 9e 2d ab 3e 72 0c b1 be
       -0.09336302 0.06416501 0.3343324 -0.34579808
000030 17 4e 96 3d 58 ed ad 3e 0b 39 c0 3e 78 09 15 3e
       0.07339113 0.3397014 0.3754352 0.14554393
000040 8e d2 61 3f 3b e6 c5 3e 2a 53 47 be 0c 21 81 3d
       0.88211906 0.38652214 -0.19465318 0.06305131
000050 c3 06 56 3e 4e 6e aa 3e 35 5f 56 3c 9d 38 a6 be
       0.20901017 0.3328728 0.013084223 -0.32465068
000060 02 db 4c be 18 9e e9 3f bc bf 41 bf 43 82 ac 3e
       -0.2000542 1.8251371 -0.7568319 0.33693132
000070 ed 9d 41 be 22 89 06 be fe c3 c2 3e 75 9a 4b 3e
       -0.189079 -0.1313825 0.38040155 0.1988314
000080 6f 8d 81 be b8 e9 98 3e 41 9a b0 3f a8 40 ba 3c
       -0.25303218 0.29865813 1.3797075 0.022735909
000090 d5 b8 ee be bd 3c af 3e 31 fb 28 3e 24 3f 1c be
       -0.4662539 0.34226027 0.16502072 -0.15258461
0000a0 e2 06 a2 3e cf f8 19 3e 4a da 6b bd 5c a2 79 3f
       0.31645876 0.15036319 -0.057581224 0.97513366
0000b0 b2 ca df 3e c2 5c 42 be 1f 08 b1 3e 28 ea 01 be
       0.43709332 -0.18980697 0.34576508 -0.1268698
0000c0 ab 4d 13 be 5f 6e f2 bc 7a 98 a1 3e 5e 69 27 bd
       -0.14385097 -0.029593645 0.31561643 -0.04087197
0000d0 c9 54 53 3f f0 cc 11 3f 91 68 c6 3c 7c 87 c7 be
       0.82551247 0.56953335 0.024219783 -0.38970554
0000e0 a5 33 e3 3e b2 bb c1 3e 0b 67 15 3f de c8 9d bd
       0.4437534 0.37838513 0.58360356 -0.07704328
0000f0 39 47 66 bd 60 af ae 3f 82 ed 16 3f 17 99 65 3d
       -0.056220267 1.364727 0.5895616 0.0560542
000100 22 eb cb be 18 7e d5 3e 1d 7c ed bd 89 02 ea 3e
       -0.3982783 0.41697764 -0.11595938 0.4570506
000110 d1 99 a5 bd 4e 3a 88 3a 93 16 d1 3f 32 8a f9 3e
       -0.08085979 0.0010393353 1.6335014 0.48738247
000120 cc 80 be 3e ed d2 7a be 40 86 bf bc 2d e7 f2 3e
       0.3720764 -0.24494524 -0.023379445 0.47441998
000130 0a a0 e7 3c 80 fe 18 bf ea a0 7b 3e 92 a7 a7 3f
       0.028274555 -0.59763336 0.24573103 1.3098013
000140 f9 d8 20 bf e8 9b b8 3e eb 26 1d 3e 0a 10 e7 be
       -0.62831074 0.36056447 0.15346877 -0.45129424
000150 a4 a0 97 3e 6f df d7 bc ee a0 9e bc 99 46 c0 bd
       0.29614747 -0.026351659 -0.019363847 -0.093884654
000160 bc 08 2c 3f 7e c3 56 3f ea 8b dd be d5 4b b4 3d
       0.6720083 0.8389205 -0.43270808 0.08803526
000170 95 70 bf 3e e5 d9 6a bc 56 71 ec 3e a7 08 70 be
       0.3739058 -0.014334177 0.46180218 -0.234408
000180 c6 d6 7f bd c8 f3 b9 3f f8 2f 44 3f 50 92 a8 be
       -0.062460683 1.4527521 0.76635695 -0.32924128
000190 da ec 00 3e 31 10 60 3e 89 4a 1b bd 33 07 5d 3e
       0.12590352 0.21881177 -0.03791288 0.21584778
0001a0 66 90 51 bd 13 44 1c 3e 1c ed df 3f 17 bc 86 3e
       -0.0511631 0.15260343 1.7494235 0.26315376
0001b0 c0 e7 a6 bb da c8 ee be a6 c3 ed 3b d7 89 20 be
       -0.0050935447 -0.46637613 0.007255989 -0.15677582
0001c0 e7 a9 0d be 87 4e ef 3e d4 7e 82 bd 8f b5 de 3f
       -0.13834344 0.467396 -0.06371847 1.7399157
0001d0 d6 ae a1 3f 41 bf f2 3e 7a 35 0b bd 88 37 c3 be
       1.2631481 0.4741154 -0.033986546 -0.38128304
0001e0 12 16 81 3e 12 dc cd 3e 26 9e 2b 3e 05 d1 e1 bc
       0.2521215 0.40206963 0.16759548 -0.027565489
0001f0 3b 9b 62 3f 88 7c c5 3e 77 5c a9 be 22 59 89 3e
       0.8851811 0.38571572 -0.33078358 0.26825815
000200 30 c1 a7 3d 30 44 4b 3d 53 38 8c 3e a8 a7 4d bd
       0.081911445 0.049625576 0.27386722 -0.050208718
000210 06 e6 22 bd 05 84 89 3f 32 99 a2 3e d8 48 cc bd
       -0.03977015 1.0743414 0.31757504 -0.09974831
000220 3f 8f 26 3e ef 13 41 3d 7e 68 0b bf 75 d6 02 3f
       0.16265582 0.04713815 -0.5445632 0.51108485
000230 bf 3f a5 be c7 cd 9b be 2a 7d 84 bd 46 42 8c 3f
       -0.32275197 -0.30430433 -0.06469186 1.0957725
000240 68 6e 8b be 38 fe 3f 3e 01 a1 f7 3d 31 5b 63 3f
       -0.2723267 0.1874932 0.12091256 0.8881102
000250 50 ef 63 be a7 4e 6b be f5 52 c4 3d b9 b0 bc 3f
       -0.22259259 -0.22979222 0.09586135 1.4741431
000260 7c 8d 52 bf 44 11 2a bc d9 94 91 3e a3 6a 70 be
       -0.8224714 -0.010380093 0.28433874 -0.23478179
000270 76 87 57 bd 94 ac c4 be 07 95 ef 3e e9 f5 f7 3d
       -0.05261942 -0.38412917 0.46793386 0.121074505
000280 6d c6 82 3e 45 d8 b1 bc 68 91 61 3e de 3e a6 3d
       0.25542012 -0.02170957 0.22028124 0.0811746
000290 1b c4 85 be 37 86 98 3e 9f 02 02 3f cd e0 1d 3e
       -0.2612618 0.29789898 0.5078525 0.15417786
0002a0 c2 7a 49 be c5 2a ae 3f 04 65 1f 3e 17 e1 54 be
       -0.19675735 1.3606802 0.15565878 -0.2078899
0002b0 8e 1f be 3e 93 b3 ea 3c da 0f 0c 3e f0 5d 96 3e
       0.3713345 0.02865008 0.13677922 0.29368544
0002c0 18 7f 76 3e 97 3e 6c be 80 3f a7 bf 06 8f d4 3f
       0.2407192 -0.23070751 -1.3066254 1.6606147
0002d0 93 5f b0 be 2f 5b 2d bd d3 e4 d5 3e 65 85 06 3e
       -0.34447917 -0.042323288 0.41776142 0.13136823
0002e0 31 44 0d 3f f7 26 a8 be d2 c6 0a be 97 83 86 3f
       0.55182177 -0.32842228 -0.13552406 1.0508908
0002f0 24 2b 34 3f 42 da 42 be d7 76 ef bd 92 b8 da 3e
       0.7037833 -0.19028571 -0.11692589 0.4271894
000300 8b a0 09 bd 65 b8 4e 3e e4 1a 00 bf cb 32 5c 3d
       -0.03360037 0.20187528 -0.5004103 0.053759377
000310 68 d2 32 3f c1 04 30 3e 5f 4b 74 3e fd be 55 be
       0.69852304 0.17189313 0.23856877 -0.20873637
000320 50 42 6c bc ad 27 a4 3e d2 1a 58 3f 31 db 1f bf
       -0.014420107 0.3206152 0.84415925 -0.62443835
000330 88 d2 19 bf 6e 64 a4 3f 1d ca 5a be 4a 98 43 be
       -0.6008687 1.2843149 -0.21366163 -0.19101062
000340 13 e2 f8 3e 6e 91 7d be 6a 52 69 3e eb 2e fc 3e
       0.4860998 -0.24762508 0.22785345 0.49254546
000350 6a 89 03 3b f0 16 75 3e e0 f6 8e 3f e3 d6 17 3f
       0.0020070919 0.23934531 1.116909 0.59312266
000360 da 2c 95 bd e0 bf 6c be 48 99 ec 3e a8 86 d6 3e
       -0.072839454 -0.2312007 0.46210694 0.4189961
000370 5b 90 0a bd d0 08 64 3f 7c f9 13 3f b7 ab b3 bd
       -0.033829074 0.89075947 0.5780256 -0.087729864
000380 8a ed 8d 3e 3f 27 b7 bd aa 85 fa 3e 9a 15 9a be
       0.2772029 -0.089430325 0.48930103 -0.30094606
000390 5a 66 8d bb 0a 08 1b 3c f0 45 64 3d d9 dc a2 bd
       -0.00431518 0.009462366 0.05573076 -0.079522796
0003a0 5b 9b e0 3e 88 19 73 3f e3 0c 69 be 84 c1 75 bd
       0.43868527 0.9496083 -0.22758822 -0.059999004
0003b0 5b 05 9e 3e 6e a2 67 3d e8 7f c3 3e 83 d8 c4 be
       0.3086346 0.05655139 0.38183522 -0.38446435
0003c0 2b 9a 51 3d d7 fb a7 3f d6 d0 0c 3f ed e9 8d bc
       0.051172417 1.312373 0.5500616 -0.017323459
0003d0 2d b4 b9 bc 0a 44 42 3d e1 ef 9b be c1 16 07 3e
       -0.022668922 0.04742817 -0.3045645 0.13192274
0003e0 b5 e8 d9 3d 9d 01 a0 c1 e6 29 a1 be 7f 2d 89 3e
       0.106400885 -20.000788 -0.31477278 0.26792523
0003f0 f0 cc 3b be 47 f0 87 be d9 a4 07 3f 50 ae eb ba
       -0.18339896 -0.26550505 0.5298591 -0.0017981026

l4.bias f4 [53]
000000 ca a5 b1 bf e9 89 0e 40 94 c8 ad 3f 75 c7 0c 40
       -1.387872 2.2271674 1.3576837 2.199674
000010 ab 1a 29 40 3a 47 fb 3f f1 27 06 40 2f 45 df 3f
       2.6422527 1.9631112 2.0961878 1.7442988
000020 94 5d 09 3e 95 5f 87 3f 24 4e fe 3f 5e 27 08 40
       0.13414603 1.0576044 1.9867597 2.1274028
000030 61 6a a4 3e 4c 44 5c 3f 1f 85 29 40 07 2e 66 40
       0.3211241 0.8604171 2.64875 3.5965593
000040 b3 d7 83 3f 78 22 dd 3f 02 08 2c 40 df 25 bd 3e
       1.0300201 1.7276144 2.6879888 0.36942956
000050 75 49 bc 3f 7f 66 68 3f 67 ff ba 3d c1 da 08 40
       1.4709917 0.90781397 0.091307454 2.1383517
000060 75 9b 99 bf c8 9c d7 3f 74 e5 21 40 4b 39 5b 40
       -1.2000567 1.6844721 2.5296297 3.425372
000070 e0 13 9d 3f 38 e0 0d bf 39 a0 c4 3f ab af 8a 3e
       1.227169 -0.55420256 1.5361396 0.2708715
000080 f4 71 4f bc 12 3e 13 40 98 4c 30 40 f5 88 db 3f
       -0.012661446 2.3006635 2.754675 1.7151171
000090 a6 8c 1e 3f 8a d7 d4 bf 70 64 d2 3f 39 6c 33 40
       0.6193336 -1.6628277 1.6436901 2.8034804
0000a0 a0 39 0a 40 1a 0a 26 40 6a 9b de 3d b8 68 a8 bf
       2.1597672 2.5943666 0.10869487 -1.3156958
0000b0 9c aa 02 40 85 36 43 40 63 72 98 3f 0c 09 c7 bf
       2.0416632 3.0502026 1.1909908 -1.5549636
0000c0 9d a9 8c 3f 7b 1e ec 3f 78 e3 15 40 e6 2a 89 3f
       1.0989262 1.8446802 2.3420086 1.0716217
0000d0 5d e2 7f bf
       -0.9995478

l5.weight f4 [85, 53]
000000 55 4a 2e 3e 12 59 6e 3e ca 3f 2f be 04 7c 05 3f
       0.17020543 0.23276165 -0.17114177 0.5214236
000010 2e 6f 6b bf f3 3a 40 be be a3 0e bf bf 66 bc be
       -0.9196652 -0.18772487 -0.557186 -0.3679714
000020 3d ef 11 3f fe a8 6b 3f 77 65 5f bf fd 81 4d bf
       0.57005674 0.92054737 -0.872642 -0.8027647
000030 fc 91 f9 3e bd 1c 0a 3f 30 d6 1f bf 09 2f 2b 3e
       0.4874419 0.539501 -0.624362 0.16717161
000040 00 1b 0f bf 25 6a bc 3d e8 08 e9 3d 2b e6 e0 3c
       -0.55900574 0.09199933 0.11378652 0.027453503
000050 d5 49 51 bf 6c 49 04 3e 5c eb a0 3c 08 e7 4c 3d
       -0.81753284 0.12918633 0.019643478 0.050025016
000060 0e 0a 05 be 44 07 80 3e b1 f7 81 bf 10 69 c6 be
       -0.12992117 0.25005543 -1.0153714 -0.3875203
000070 cc 18 d5 be 52 ee e4 3e f7 e5 57 3f f3 ec 8f 3e
       -0.4162048 0.44713074 0.84335274 0.28110465
000080 98 33 b2 3d 43 19 93 bd 6d 8d f0 3d 07 80 c7 3c
       0.08701247 -0.07182553 0.11745725 0.02435304
000090 10 e4 b5 3e 04 bd 0c 3e 51 ef 2d 3d d5 70 60 3f
       0.3552556 0.13743979 0.042464558 0.8767217
0000a0 d9 ef 2d 3e 6a c2 f1 3e bf 17 06 3e 70 c8 1e be
       0.16986026 0.4721864 0.13094996 -0.15506148
0000b0 ba 87 53 be d5 17 79 bd f5 25 89 3e a2 a1 d0 3e
       -0.20657244 -0.060813744 0.2678677 0.40748316
0000c0 06 f3 60 bd a3 f5 74 3d b9 e4 d4 3e e9 d0 4d 3e
       -0.054919265 0.05980457 0.41580752 0.20099224
0000d0 b0 2a 2d 3f 7c 45 bb 3c 8d 46 8c 3f 75 66 9e bc
       0.6764326 0.022860281 1.095903 -0.019335965
0000e0 a3 d3 a3 3e 87 7a b6 3e 70 f7 24 3f a4 00 b6 be
       0.31997404 0.35640356 0.6444006 -0.35547364
0000f0 d7 83 c2 be bf 1f e0 bd 55 30 6c 3f 71 c8 5b bd
       -0.3799121 -0.10943555 0.9226125 -0.053657953
000100 29 db 72 3e ea 60 6e bf 4c 3d a7 3e ec 2b 8e 3e
       0.23716415 -0.9311663 0.32663953 0.27767885
000110 58 75 13 3e aa ff 3f 3d 7f e1 3d 3e db 5d 23 3f
       0.14400232 0.04687468 0.18543051 0.6381509
000120 f9 52 be 3e e0 60 b2 bd 17 e8 a7 3c 2f b9 91 3d
       0.37172678 -0.08709884 0.020496411 0.07115399
000130 76 a3 87 3f 94 ab 42 bf 82 cf 44 3f c1 28 9c 3d
       1.0596759 -0.7604306 0.7687913 0.07624961
000140 54 c9 69 3f b1 4d 7a be 69 dd 21 3e 6f 63 46 3f
       0.9132283 -0.244437 0.15807118 0.77495474
000150 35 59 8f be 95 c5 2b bf 70 e1 8f 3d f4 c6 d2 3e
       -0.27997747 -0.6709836 0.07025421 0.41167414
000160 a3 2c 5a bd 33 dd d0 be 8a 50 6f 3d 52 2b 22 3f
       -0.053265225 -0.40793762 0.058426417 0.6334735
000170 ee b6 18 be 09 52 99 3f db 2d f1 3e a9 ac d9 be
       -0.14913532 1.197816 0.47105297 -0.42514542
000180 29 28 7f bf 16 b3 2d 3e 15 f7 a7 3e bd 4d 46 3e
       -0.99670655 0.16962847 0.32805696 0.19365592
000190 1e 48 4d be fb 58 eb bc b0 ee f7 bd 52 1a 08 3f
       -0.20047042 -0.028728953 -0.12106073 0.5316516
0001a0 7e 03 32 bd 3c 6d 9f bc 62 cf a6 3c c0 57 94 3f
       -0.04346036 -0.019461267 0.02036256 1.1589279
0001b0 4e b4 99 3d 86 16 b8 3e 40 cd 53 3e 98 86 55 3f
       0.075050935 0.35954684 0.20683765 0.834085
0001c0 43 be d4 be f2 b8 de be eb 96 bf bc 58 58 44 3f
       -0.41551408 -0.43500477 -0.023387393 0.766973
0001d0 4f 08 7c 3d d3 06 d5 3d e5 45 4d bf 4e db dc 3e
       0.06153136 0.10401692 -0.80184776 0.43136066
0001e0 0c a8 ae 3e cc e1 85 3e 45 22 bd 3d 81 1c fc 3d
       0.34112585 0.26148832 0.09235052 0.12310124
0001f0 e7 26 11 3f 23 fd 71 3e 5e 23 9f be 64 b6 af bc
       0.56699985 0.2363172 -0.3108167 -0.021449275
000200 a9 56 3e 3d 5a 79 85 3f 6b 6b 41 bf 7a 1e 41 3f
       0.046469364 1.0427659 -0.7555453 0.7543713
000210 3a 7c 14 3e 53 ce 69 3f 0e 83 7b be 64 12 86 3d
       0.14500514 0.9133045 -0.24561712 0.065464765
000220 ab 52 3c 3f 2a 0f 9a bd bb 97 3e bf 4a 0c 84 3e
       0.7356364 -0.075224236 -0.7445027 0.25790626
000230 cb dd 97 3e 05 32 66 3b 14 26 a4 be a7 54 c8 3d
       0.29661402 0.0035125029 -0.320603 0.09781771
000240 1a ed 6f 3f dd 32 eb bd ba 76 a2 3f 6c 1f c9 3e
       0.93721163 -0.11484311 1.2692482 0.39281785
000250 68 86 c0 be 36 ba 5e bf 3d 73 36 bc 7b d4 b3 3e
       -0.37602544 -0.87002885 -0.011135873 0.35123047
000260 d5 0b a0 3e 41 cf a0 be 64 95 25 be 41 b2 5b be
       0.31259027 -0.31408122 -0.16170269 -0.21454717
000270 1d 6d e2 3e 2d fb ed 3d bf 9d 04 be fb b1 99 ba
       0.44223872 0.116201736 -0.129508 -0.0011726016
000280 e5 6b d2 3e 01 df 82 bb ea 26 80 3f b0 84 b3 be
       0.41097942 -0.0039938693 1.0011876 -0.3506217
000290 01 49 d2 3d 55 8c ae 3e 75 77 c1 3e ba 95 8c 3e
       0.10267831 0.3409144 0.3778645 0.27457982
0002a0 7c b0 06 3f d9 f3 28 bc 72 29 25 3d c6 e0 cd bf
       0.52613044 -0.010312044 0.04032273 -1.608422
0002b0 39 b0 02 3f 45 33 48 3d 0b b7 49 bd 81 20 03 bd
       0.51050144 0.04887702 -0.04924683 -0.03201342
0002c0 6d a5 87 3d d2 db d9 3e 5e 87 21 bf 39 01 54 be
       0.06623349 0.42550522 -0.6309718 -0.20703591
0002d0 ad 7f 30 bd f3 b2 3a be 34 e2 d0 3e 5d aa 09 bf
       -0.04309051 -0.18232326 0.4079758 -0.5377558
0002e0 08 3b bc 3d a4 4f bb 3e 83 1d 4d 3d 1c fc 3a 3d
       0.09190947 0.36584198 0.050076973 0.045650586
0002f0 d4 e9 d0 3c 3d b1 9c 3e 8e 67 96 3d f2 a8 a6 bf
       0.025502123 0.30603972 0.0734397 -1.3020308
000300 fb b6 ca 3e df 6b 20 3f 06 79 29 3e b7 7b 41 bf
       0.39592728 0.626646 0.16550073 -0.755794
000310 92 dc 33 be 69 77 67 3d 11 09 79 3e eb c0 9a 3e
       -0.1756461 0.056510363 0.24319865 0.3022531
000320 4c b8 3b 3f 0a 27 7e bf 3c 22 2a bf bd 88 04 be
       0.7332809 -0.9927832 -0.6645849 -0.12942787
000330 c7 8d 09 3f 47 a0 dd 3d 3a 0c 8e be b0 af 9e 3c
       0.5373196 0.10821586 -0.27743703 0.019370884
000340 53 f6 e1 3d 91 2e 73 3f 4a 98 bb 39 44 ee 8c be
       0.11033311 0.9499293 0.00035780884 -0.27525532
000350 c9 64 80 be 84 38 be 3e 71 0f 93 be a0 f7 0b 3f
       -0.25076893 0.37152493 -0.28722718 0.5467472
000360 6d 26 49 3e 8a b8 4f 3e d7 3a 36 3f ca 78 28 3f
       0.19643565 0.2028524 0.7118353 0.6580931
000370 17 c8 c8 bd c1 e9 bd bc 71 ed 78 3e 56 64 fc 3e
       -0.09803789 -0.023182752 0.24309327 0.492953
000380 d8 b3 d1 bf ed 9a e2 bd 6b 20 80 3e 0a d9 a3 3e
       -1.6383009 -0.11064706 0.25024733 0.32001525
000390 78 50 6a be c3 93 00 be 4f 5a ea 3e 5c b2 28 be
       -0.22882259 -0.12556367 0.45772025 -0.16474289
0003a0 11 c3 02 3f c5 51 83 bc 8f 6c 0c be 55 42 cf 3e
       0.510789 -0.016030202 -0.13713287 0.40480295
0003b0 ec 17 8e be 5f 7f e0 3d 43 7d 8b 3f a6 69 03 3f
       -0.27752626 0.10961794 1.0897602 0.5133308
0003c0 bf fe 49 3e e5 c5 5e be 25 f7 08 3e c8 e1 02 be
       0.19726084 -0.21755178 0.13375528 -0.12781441
0003d0 8d 5c bb bf 78 c0 ec 3e 80 6b 27 3f ca e7 d1 3e
       -1.4637619 0.46240592 0.65398407 0.40997154
0003e0 c2 f8 96 bf b3 7d 6f be 5c ed 7d 3d 02 71 6c 3e
       -1.1794665 -0.23387794 0.06199394 0.23089984
0003f0 d7 de e6 3e 03 a7 f4 3e 22 25 b4 bf a5 02 f0 be
       0.45091888 0.4778367 -1.4073832 -0.46877018

l5.bias f4 [85]
000000 6f df 41 bf 6e cd e9 3f 65 ff 00 40 dd 8e a2 3f
       -0.7573156 1.8265817 2.015588 1.2699848
000010 38 d7 32 40 a7 99 05 40 e5 4d d4 3f ad 7d 1c 40
       2.794386 2.0875032 1.6586272 2.4451706
000020 8d 2f 43 3f 4f 63 de 3f 95 4b ff 3f 52 66 f4 3e
       0.7624443 1.7374057 1.9944941 0.47734314
000030 3e 9a 63 3f 6e 11 b1 3f 31 34 14 40 ef 91 77 3f
       0.8890723 1.3833444 2.3156855 0.9670705
000040 cf 73 d2 3f 71 bc ff 3f d2 6a 01 40 c4 81 0c 40
       1.6441592 1.9979383 2.0221448 2.1954203
000050 d6 58 23 40 d5 65 bb 3f 2d 73 08 40 f6 48 92 3f
       2.552297 1.4640452 2.1320298 1.1428516
000060 b2 1f 13 40 f5 82 3c 40 9a 02 54 bf 10 91 cc 3f
       2.2988095 2.945493 -0.8281647 1.598177
000070 9b dd 99 3f a9 c1 a4 be dd a3 a0 3f 12 7e c7 3f
       1.2020754 -0.32179 1.2550007 1.5585349
000080 77 84 ee 3f 68 fa 89 3f 46 d2 08 40 90 2a 2c bf
       1.8634175 1.0779543 2.137834 -0.67252445
000090 69 12 18 40 ab 54 5b 3f d3 80 70 3f 16 15 42 40
       2.3761237 0.8567607 0.9394657 3.032537
0000a0 5b b3 1f 40 c7 fb ae be ea e8 fb 3f ff 40 16 40
       2.495322 -0.34176466 1.9680455 2.347717
0000b0 40 24 29 c0 ac 57 1a 40 f4 1e 4b 3f 60 9c 09 40
       -2.6428375 2.411601 0.79344106 2.1501694
0000c0 25 3d 12 3f 20 5d aa 3f db 1e f7 3f bf a6 25 40
       0.5712455 1.330967 1.9306291 2.5883024
0000d0 44 00 80 3f db 0d a8 bf c8 3c e1 3f 3c 79 0a 40
       1.0000081 -1.3129228 1.7596674 2.1636496
0000e0 e4 5c 02 40 14 23 16 40 91 8d 0f 40 71 44 a8 bc
       2.0369196 2.345891 2.2430155 -0.020540448
0000f0 1b 25 14 40 c4 75 28 40 a6 11 18 40 5b 17 64 3f
       2.3147647 2.6321878 2.3760772 0.8909814
000100 c0 b1 ad 3f c2 81 96 3f 12 b7 d0 3f 09 98 16 c0
       1.356987 1.1758349 1.6305869 -2.3530295
000110 22 c0 7f 3f 43 fe fa 3f 1b 70 1a 3f 24 e5 55 3f
       0.99902546 1.9608845 0.6032731 0.83552766
000120 48 ed 24 40 82 04 2f 40 ac 47 d9 3f bc f9 2f 40
       2.5769825 2.7346501 1.6974998 2.7496176
000130 e9 71 5d 3f 78 49 ac 3f 56 36 85 3f e2 78 78 3f
       0.8650194 1.3459921 1.0407207 0.9705945
000140 dc a5 fe 3f 61 33 2c 40 97 15 0d 40 6e 5a 10 40
       1.9894366 2.690636 2.2044427 2.2555194
000150 cd 49 8a 3f
       1.0803772
