models/Others/model_PGNN_10_1e-3.pt (torch, 127233 bytes, 12 tensors)

l1.weight f4 [189, 9]
0.0015438732 0.3551406 0.9628016 0.22393934 -2.0881128 1.0650086 0.063670374 0.348459
0.20783414 -0.009113135 1.2154962 -1.0350119 -0.09036693 -0.64229137 -0.87571007 0.24552667
-0.6063702 -0.034139827 -0.010206577 0.05706089 0.49229422 -0.07542889 -0.036480274 0.015182973
0.22793281 -1.0831596 -0.9949051 0.0018999415 0.5469336 1.6790096 -0.631378 -0.12985055
1.1034771 -0.14482337 -0.23148677 -0.37197128 0.019644385 0.91575867 0.34835947 0.33768672
0.005840563 -0.69815844 -0.97491413 -0.7732096 -0.62943643 4.6924015e-05 -1.1060706 -0.21908475
-0.17550528 0.48823398 -0.7399275 -0.10352116 -0.09047179 -0.2135041 -0.010350064 -0.41481286
-0.7827888 -0.15551516 -0.43871358 1.5212795 -0.01589824 -0.8604519 0.6189204 -0.0036693595
-0.22245274 1.5402592 -0.29880306 -0.2500224 -0.504415 0.41053036 0.3585717 -0.53197
0.0013550228 -0.43365923 -0.88329744 -0.17914061 -0.44402027 -0.68552965 0.69871354 0.8939046
0.049344987 0.013889781 0.018959284 1.483798 -0.488969 1.3335351 1.25517 0.09458354
1.1646942 -0.2221719 0.0122478055 -0.3378645 1.3703841 0.5323213 -0.66198826 -0.63137597
0.47243002 -0.58356786 -0.33442646 0.0031007782 0.43151963 -0.888287 -0.10196217 0.20555352
-0.26193234 0.1511064 0.8321558 0.23473784 0.0062166336 -0.8180659 -0.8240584 0.15627825
-0.24787396 0.9483631 -0.28789684 -0.34172326 -0.095967844 0.0052303066 0.25268692 -0.23380738
-0.111815915 1.078594 -1.671998 0.30978253 -0.57314354 0.37493443 0.010736915 -0.13885613
-0.2892971 -0.33270192 0.59866464 -1.4731268 0.72217983 -0.299172 0.36810216 0.026181241
-1.4204105 -0.6799483 0.19006334 -0.21929358 -0.049231153 -0.82090944 0.34201586 -0.46071404
-0.0060262796 -0.6967752 -0.81475055 -0.24303973 0.8936072 -0.059072535 -0.3619892 -0.12291669
0.42870778 0.0037312075 -0.3306593 -0.7247833 0.023502404 0.2743339 -1.2663004 0.10503311
-0.8872337 0.12249995 0.0046968544 0.029975476 -0.30265722 0.13591269 0.33294433 -1.6522763
0.19016878 0.045657426 0.15263504 -0.0015670336 0.47798124 -0.51621795 -0.15861593 -0.48557845
1.6525505 0.2394051 -0.98228145 0.16448312 -0.0012321393 0.13551973 0.6269434 0.41138712
-1.8445559 -0.32022613 0.6129652 -0.58342075 -0.1332768 0.008435287 -0.13019672 -0.40026602
0.264871 0.16107993 1.4217806 1.0254121 -0.0770935 -0.076287545 0.0014920465 0.30659506
0.17109498 0.0728104 -0.5774703 -0.3837799 -1.1837901 -0.8854204 -0.3752555 0.016415738
-0.51748735 -0.18638329 1.1124727 0.23254521 0.90630937 0.86763954 -0.8484468 0.9338634
-0.0076974197 0.42339683 0.14295729 0.2660302 0.1466884 0.34885195 -0.4098795 -0.25460657
-0.82198256 0.0021039117 0.7222858 -1.0546838 -0.026611596 -0.9515654 -0.36630717 0.37304553
0.43697283 0.12300349 -0.016528958 -1.1053044 -0.97702473 -0.3647334 0.16163975 0.3117461
-0.18586503 0.029359533 0.2547345 0.02034052 -0.8678909 1.3095324 -0.3620811 -0.4929691
0.07784172 -0.16750029 -0.4194173 -0.70297796 0.009130654 -0.25694796 -0.8267275 -0.22788125
00000000: ca5b ca3a fdd4 b53e 2a7a 763f 5b50 653e
00000010: a4a3 05c0 3452 883f 9d65 823d 3869 b23e
00000020: 79d2 543e 424f 15bc 6195 9b3f 457b 84bf
00000030: 4c12 b9bd 356d 24bf 892e 60bf 586b 7b3e
00000040: 143b 1bbf 34d6 0bbd 7d39 27bc aeb8 693d
00000050: fd0d fc3e 767a 9abd 576c 15bd 01c2 783c
00000060: 3867 693e f9a4 8abf 1ab2 7ebf 7507 f93a
00000070: d703 0c3f c9e9 d63f fda1 21bf 8bf7 04be
00000080: bd3e 8d3f 944c 14be de0a 6dbe 0573 bebe
00000090: 43ed a03c 296f 6a3f 2c5c b23e 46e5 ac3e
000000a0: 3262 bf3b 83ba 32bf f993 79bf 10f1 45bf
000000b0: bf22 21bf 47d0 4438 b993 8dbf c157 60be
000000c0: a8b7 33be cef9 f93e e36b 3dbf e702 d4bd
000000d0: 4649 b9bd d2a0 5abe 5193 29bc 5a62 d4be
000000e0: d964 48bf 5e3f 1fbe 119f e0be 49b9 c23f
000000f0: 073d 82bc 9346 5cbf 9171 1e3f a379 70bb
00000100: a7ca 63be 3727 c53f b7fc 98be f002 80be
00000110: 5721 01bf 0931 d23e b696 b73e 302f 08bf
00000120: 059b b13a 9508 debe c81f 62bf a370 37be
00000130: a056 e3be df7e 2fbf e4de 323f efd6 643f
00000140: f81d 4a3d f791 633c 8050 9b3c 18ed bd3f
00000150: 255a fabe 47b1 aa3f 69a9 a03f 04b5 c13d
00000160: b314 953f 0881 63be 05ab 483c 93fc acbe
00000170: bf68 af3f 3546 083f 1078 29bf dba1 21bf
00000180: 59e2 f13e b464 15bf f239 abbe 6d36 4b3b
00000190: 24f0 dc3e c766 63bf 8bd1 d0bd 9f7c 523e
000001a0: ff1b 86be a3bb 1a3e 2a08 553f 1e5f 703e
000001b0: e7b4 cb3b c46c 51bf 7ef5 52bf 6807 203e
000001c0: acd2 7dbe edc7 723f 3767 93be 5af6 aebe
000001d0: ca8a c4bd fe62 ab3b 2e60 813e 346b 6fbe
000001e0: beff e4bd 5e0f 8a3f 0804 d6bf d19b 9e3e
000001f0: 89b9 12bf 68f7 bf3e e3e9 2f3c 4d30 0ebe
00000200: c01e 94be e857 aabe 1642 193f 6b8f bcbf
00000210: c7e0 383f 132d 99be e377 bc3e 0b7a d63c
00000220: 03d0 b5bf 1711 2ebf f79f 423e 7f8e 60be
00000230: 9ba6 49bd 1f27 52bf b41c af3e b6e2 ebbe
00000240: 1978 c5bb dc5f 32bf 7e93 50bf 68df 78be
00000250: 71c3 643f 0bf6 71bd a656 b9be bfbb fbbd
00000260: 967f db3e 4687 743b 2d4c a9be 668b 39bf
00000270: 1d88 c03c 7e75 8c3e 2216 a2bf 991b d73d
00000280: bf21 63bf 41e1 fa3d 12e8 993b 218f f53c
00000290: e3f5 9abe b22c 0b3e ae77 aa3e ca7d d3bf
000002a0: 9bbb 423e 4803 3b3d 5c4c 1c3e ec64 cdba
000002b0: f5b9 f43e dc26 04bf 376c 22be bd9d f8be
000002c0: c686 d33f 9c26 753e cc76 7bbf 436e 283e
000002d0: bc7f a1ba afc5 0a3e 5d7f 203f 55a1 d23e
000002e0: 681a ecbf aef4 a3be 4aeb 1c3f 105b 15bf
000002f0: b779 08be 2834 0a3c 4a52 05be abef ccbe
00000300: 2c9d 873e 23f2 243e e8fc b53f b440 833f
00000310: 32e3 9dbd a53c 9cbd c690 c33a 07fa 9c3e
00000320: 8633 2f3e 9e1d 953d 18d5 13bf cd7e c4be
00000330: 6f86 97bf e9aa 62bf 7d21 c0be 4c7a 863c
00000340: 0d7a 04bf 43db 3ebe 8165 8e3f 5520 6e3e
00000350: e403 683f a01d 5e3f cf33 59bf ac11 6f3f
00000360: a33a fcbb 78c7 d83e 6563 123e 1c35 883e
00000370: 7c35 163e b99c b23e badb d1be cb5b 82be
00000380: 736d 52bf c8e1 093b b9e7 383f e1ff 86bf
00000390: 9000 dabc ca99 73bf 9d8c bbbe d3ff be3e
000003a0: e7ba df3e 41e9 fb3d bd67 87bc 9d7a 8dbf
000003b0: 4b1e 7abf 56be babe e484 253e 2f9d 9f3e
000003c0: 6753 3ebe 6783 f03c 8f6c 823e 2aa1 a63c
000003d0: 192e 5ebf c29e a73f b262 b9be 7266 fcbe
000003e0: 7b6b 9f3d 3285 2bbe ddbd d6be 5df6 33bf
000003f0: bd98 153c af8e 83be 6aa4 53bf b459 69be

l1.bias f4 [189]
-0.20635764 0.41119507 -0.5652898 0.042188473 0.13526459 0.05649391 0.47538978 0.24150728
0.029301168 -0.21970634 -0.43065515 0.5464734 0.16132946 0.52031785 0.23673593 -0.40013856
-0.014978432 0.42093542 0.47557986 0.61633706 0.009239964 0.06314409 -0.09419877 -0.4696386
-0.742023 0.4633605 -0.16572565 0.1090749 -0.025642417 -0.15259485 -0.104235485 0.22263886
0.58297604 0.12638736 0.008506796 0.18217643 -0.029008666 -0.18207228 0.06302498 -0.25418633
0.71201295 0.1684743 -0.2940921 0.068405636 0.48952407 0.28676817 0.15712373 0.25222212
-0.07798768 0.3423254 0.13453625 0.18119778 0.08011214 -0.2094452 -0.39835456 0.3283501
0.23040794 0.045423042 0.067433245 0.6391845 -0.30644846 -0.12897116 0.19152701 -0.06560896
0.0023812694 0.17695808 -0.1096186 0.100825906 0.36149156 0.31886452 -0.7254753 -0.05252488
-0.3553294 -0.025498362 -0.18039614 0.2239592 0.20730184 0.47488078 0.15575695 0.18737689
0.2865654 -0.07715358 0.032292366 0.37406287 0.40604165 0.15025248 0.65800905 -0.29068187
-0.055693407 0.24667154 0.33293623 -0.38682655 0.07867092 -0.46668038 -0.046005763 0.0015126434
-0.27669224 0.5143196 -0.19711946 0.069235295 -0.041211065 0.08770932 0.7373868 0.0072907903
-0.14999253 -0.1789055 -0.06676827 0.092219174 0.3876564 0.15488133 0.016979482 0.15453127
-0.47042266 -0.29821947 0.14318027 0.25952697 0.3228935 0.5692256 0.47913435 -0.419162
0.16332592 0.11213327 -0.15012208 0.58154494 -0.061884154 0.29268345 0.29423788 0.118314765
0.29416683 0.5528651 -0.0039280904 0.14948328 0.2684875 0.33266267 0.027708242 0.19895907
0.40675223 -0.38975456 -0.28832865 -0.06825016 -0.36435166 -0.08181289 -0.096549235 0.27193433
0.22085479 -0.1360342 0.15918326 -0.07567306 0.007993905 -0.39324585 0.3602777 0.59034455
-0.009638486 0.03799854 0.08087571 -0.1751362 0.3067836 0.025149306 -0.021573784 -0.1484343
0.56918794 0.003706344 -0.026383728 -0.36789966 -0.3208617 0.49248096 0.4341367 0.3445742
0.69667774 -0.36577892 0.2946994 0.6400429 -0.049576215 0.1971323 0.60696703 0.16279927
0.0650206 -0.25461733 0.40665212 -0.13197352 0.28763378 -0.36173877 -0.30071086 0.047862723
0.27150717 0.3588423 -0.47841603 -0.3687764 0.17196871
00000000: 6b4f 53be 2988 d23e d5b6 10bf d2cd 2c3d
00000010: cd82 0a3e 2866 673d 4a66 f33e af4d 773e
00000020: 0109 f03c b3fa 60be d57e dcbe aee5 0b3f
00000030: 8d33 253e 8d33 053f e76a 723e f6de ccbe
00000040: 1968 75bc d984 d73e 347f f33e 44c8 1d3f
00000050: 3863 173c b051 813d 49eb c0bd 7874 f0be
00000060: 38f5 3dbf 963d ed3e fcb3 29be a962 df3d
00000070: 0c10 d2bc d341 1cbe 6a79 d5bd 71fb 633e
00000080: eb3d 153f b06b 013e 1760 0b3c 758c 3a3e
00000090: 95a3 edbc 2871 3abe 3e13 813d b624 82be
000000a0: 7b46 363f 8784 2c3e 3d93 96be 4118 8c3d
000000b0: e6a2 fa3e 47d3 923e 0be5 203e 4223 813e
000000c0: 01b8 9fbd 4645 af3e dfc3 093e e98b 393e
000000d0: d511 a43d cd78 56be 21f5 cbbe 811d a83e
000000e0: 0ff0 6b3e 830d 3a3d 711a 8a3d 98a1 233f
000000f0: d0e6 9cbe 0411 04be a81f 443e fe5d 86bd
00000100: 120f 1c3b 8034 353e b77f e0bd d07d ce3d
00000110: 6c15 b93e 3642 a33e c0b8 39bf 5424 57bd
00000120: bced b5be f1e1 d0bc c4b9 38be 8f55 653e
00000130: ef46 543e 9323 f33e c07e 1f3e badf 3f3e
00000140: b3b8 923e b202 9ebd 0045 043d 2b85 bf3e
00000150: b1e4 cf3e c9db 193e 4873 283f 41d4 94be
00000160: c51e 64bd 7797 7c3e 9e76 aa3e 210e c6be
00000170: 381e a13d bbf0 eebe 8a70 3cbd e443 c63a
00000180: 9baa 8dbe 73aa 033f afd9 49be 3ccb 8d3d
00000190: efcc 28bd f2a0 b33d 62c5 3c3f 95e7 ee3b
000001a0: a497 19be 0133 37be cebd 88bd 68dd bc3d
000001b0: e67a c63e 3699 1e3e 8e18 8b3c 723d 1e3e
000001c0: 3ddb f0be 39b0 98be d99d 123e b8e0 843e
000001d0: 4c52 a53e c5b8 113f 1951 f53e 679c d6be
000001e0: e93e 273e 21a6 e53d 9ab9 19be 21e0 143f
000001f0: 3d7a 7dbd 9bda 953e 59a6 963e 034f f23d
00000200: 099d 963e 9188 0d3f 36b7 80bb 2512 193e
00000210: 3277 893e c352 aa3e 65fc e23c edbb 4b3e
00000220: d441 d03e e98d c7be d09f 93be bdc6 8bbd
00000230: 4d8c babe 848d a7bd 9bbb c5bd fa3a 8b3e
00000240: c227 623e 8d4c 0bbe f000 233e 7afa 9abd
00000250: def8 023c 8557 c9be 5276 b83e d220 173f
00000260: beea 1dbc 5ba4 1b3d 2aa2 a53d e756 33be
00000270: bd12 9d3e eb05 ce3c 81bb b0bc 29ff 17be
00000280: 4db6 113f 22e6 723b b022 d8bc 585d bcbe
00000290: fc47 a4be 7726 fc3e 2a47 de3e 086c b03e
000002a0: 7959 323f 6047 bbbe d7e2 963e dad9 233f
000002b0: 6e10 4bbd 0ddd 493e 3162 1b3f dab4 263e
000002c0: 8529 853d 345d 82be b534 d03e 1124 07be
000002d0: bc44 933e d335 b9be c6f6 99be b40b 443d
000002e0: fd02 8b3e 2eba b73e f2f2 f4be 43d0 bcbe
000002f0: 9118 303e

l2.weight f4 [119, 189]
-0.13793455 -0.058816507 -0.11896102 -0.11234316 -0.036805924 0.10864766 -0.16939901 0.10670702
0.29106587 -0.050788037 0.031080786 0.24805157 -0.0441344 0.495136 0.2599708 0.03764758
0.13839589 0.21331944 0.30624408 -0.26265088 -0.12788132 -0.21529059 -0.03623858 -0.062691614
-0.010585385 0.08175869 0.02749024 0.074601196 -0.019726953 -0.039935827 -0.062077098 -0.074439295
0.2613124 -0.18239754 0.012622987 -0.014538805 -0.0034634597 -0.15594988 -0.09102277 -0.0949435
0.43215317 -0.050839078 -0.03798146 -0.2348508 0.24993756 0.15650447 0.037120797 -0.17338082
0.0028575524 -0.023968538 -0.11802909 0.17281124 0.08790209 0.042567097 -0.11955016 0.2978265
0.22787033 0.14209197 0.076980226 0.100717045 -0.15680003 -0.12093776 0.028358098 -0.15071076
0.2090919 0.25329247 0.082530886 0.14887317 0.10170646 0.04108467 -0.13392837 -0.06292821
-0.020120991 0.4135485 0.09493931 -0.014356248 0.40432027 0.25958273 0.4436632 -0.01264386
-0.55329657 -0.03978301 0.13554703 0.14484371 -0.22474629 0.091217875 0.24569084 -0.08764012
-0.14682564 -0.113726236 0.36115935 -0.00012281277 0.12957372 -0.20797181 0.030770348 -0.08780671
-0.22840542 0.43558824 -0.3084652 -0.04380922 -0.076949246 -0.18750376 0.13160048 -0.12452208
-0.22020312 0.09977357 0.0032490524 -0.079467885 0.068784356 0.18124343 0.022861721 0.20308419
-0.07839661 -0.008164314 0.1123026 0.006180536 0.4822609 0.19757426 0.024162875 -0.055816386
0.20181985 -0.19978671 -0.009451804 -0.091908276 -0.11523757 -0.12612882 0.14874503 0.08609769
0.15463144 -0.25245306 -0.06096959 -0.15984271 0.061220497 -0.12512541 0.16450158 0.16231288
0.28919813 -0.12739988 -0.16092676 0.10636683 -0.026187845 0.057263378 0.2309335 0.046677377
0.22064964 -0.042318415 0.32677758 0.04035939 -0.16858266 -0.12771212 0.19496661 0.32157668
-0.026424639 -0.03342882 0.19451065 -0.02121303 0.16451871 0.30375177 0.09554378 0.039729875
0.13495679 0.009799024 -0.07448994 -0.01323864 0.10267153 0.36082178 0.36621377 -0.0037948661
0.34926337 -0.12800583 -0.024414452 0.006687874 -0.080061615 -0.03713901 0.33845082 -0.03207948
0.2967946 0.056095228 0.030576104 0.09576327 0.071010694 -0.11158712 -0.11783125 -0.04605301
0.075128525 0.10981894 0.0884786 -0.16964859 -0.095613696 -0.067424834 -0.113891855 -0.0034702257
-0.1969005 -0.035092812 -0.040819846 0.03341781 -0.114769325 0.12965563 -0.033683784 -0.01737206
0.27224734 0.011505953 -0.09814121 -0.07584092 0.061874267 0.04565734 -0.007559516 0.023037104
0.045323294 -0.141507 0.10482147 -0.09994854 -0.1505554 -0.057593 -0.060532402 0.03337462
-0.059555847 -0.01196828 -0.02160376 -0.07001641 0.06592476 -0.022383792 -0.074561775 0.12821071
-0.085037865 -0.016355067 -0.06725024 -0.0882623 -0.20465712 0.11477173 0.028041776 -0.0062374463
-0.034021396 0.20704797 0.29675052 0.05034057 -0.055563368 0.02681218 -0.04864584 0.18466689
0.19599238 -0.17595457 -0.07517299 0.041891653 0.3103674 -0.009527941 -0.039375313 0.091846965
0.025908642 -0.07715664 -0.15614046 0.00025032434 0.03022995 0.17292978 -0.04543197 -0.15869159
00000000: b73e 0dbe 94e9 70bd d6a1 f3bd 2c14 e6bd
00000010: cfc1 16bd aa82 de3d ef76 2dbe 3689 da3d
00000020: 9606 953e 1e07 50bd 229d fe3c 3b01 7e3e
00000030: 46c6 34bd 7782 fd3e e51a 853e 5934 1a3d
00000040: a7b7 0d3e 6970 5a3e 06cc 9c3e 2d7a 86be
00000050: 52f3 02be 2375 5cbe e86e 14bd 7664 80bd
00000060: 536e 2dbc 1a71 a73d 3633 e13c 83c8 983d
00000070: 6b9a a1bc c093 23bd 8e44 7ebd a173 98bd
00000080: bdca 853e 6cc6 3abe a5d0 4e3c 2b34 6ebc
00000090: 36fb 62bb 53b1 1fbe 256a babd bd71 c2bd
000000a0: 2e43 dd3e a33c 50bd 7392 1bbd ba7c 70be
000000b0: a2ef 7f3e b542 203e fa0b 183d be8a 31be
000000c0: c645 3b3b ab59 c4bc 3cb9 f1bd 6ef5 303e
000000d0: 0306 b43d d65a 2e3d b7d6 f4bd b77c 983e
000000e0: d756 693e 8f80 113e cfa7 9d3d bd44 ce3d
000000f0: 3090 20be 37ae f7bd 3e4f e83c ec53 1abe
00000100: 301c 563e 8daf 813e f405 a93d 3572 183e
00000110: 7a4b d03d 6648 283d 8524 09be 81e0 80bd
00000120: c7d4 a4bc a1bc d33e 8a6f c23d 7836 6bbc
00000130: 1103 cf3e 07e8 843e d327 e33e 3128 4fbc
00000140: d8a4 0dbf 82f3 22bd d7cc 0a3e e951 143e
00000150: e423 66be 70d0 ba3d 6196 7b3e aa7c b3bd
00000160: 7659 16be 4de9 e8bd e1e9 b83e 4dc7 00b9
00000170: f9ae 043e 90f6 54be 1912 fc3c 01d4 b3bd
00000180: 1ce3 69be 6c05 df3e 27ef 9dbe 4c71 33bd
00000190: 9197 9dbd fc00 40be 47c2 063e 6f05 ffbd
000001a0: ed7c 61be 1656 cc3d 0eee 543b 0fc0 a2bd
000001b0: d0de 8c3d e197 393e 8148 bb3c 4df5 4f3e
000001c0: 678e a0bd 9dc3 05bc e8fe e53d 1886 ca3b
000001d0: e7ea f63e e850 4a3e 39f1 c53c b99f 64bd
000001e0: dda9 4e3e e394 4cbe bddb 1abc 683a bcbd
000001f0: ad01 ecbd ea27 01be 9e50 183e fc53 b03d
00000200: b457 1e3e 8741 81be 40bb 79bd cfad 23be
00000210: 58c2 7a3d e020 00be 1a73 283e 5935 263e
00000220: c711 943e 1d75 02be fcc9 24be dad6 d93d
00000230: e487 d6bc 018d 6a3d d579 6c3e c730 3f3d
00000240: fbf1 613e 1356 2dbd 644f a73e e34f 253d
00000250: efa0 2cbe f7c6 02be 54a5 473e b3a5 a43e
00000260: 7c78 d8bc a9ec 08bd cd2d 473e f3c6 adbc
00000270: 9877 283e 5a85 9b3e 75ac c33d cbbb 223d
00000280: 1d32 0a3e 168c 203c 2f8e 98bd e1e6 58bc
00000290: 7345 d23d a2bd b83e 5f80 bb3e 4ab3 78bb
000002a0: a6d2 b23e f613 03be d100 c8bc f425 db3b
000002b0: 58f7 a3bd 131f 18bd 6d49 ad3e c665 03bd
000002c0: 76f5 973e 1cc4 653d bd7a fa3c 891f c43d
000002d0: 0e6e 913d ca87 e4bd 8351 f1bd 15a2 3cbd
000002e0: fcdc 993d c1e8 e03d 4534 b53d 5cb8 2dbe
000002f0: 1dd1 c3bd 0816 8abd 2240 e9bd ba6c 63bb
00000300: 49a0 49be 7bbd 0fbd b632 27bd 1de1 083d
00000310: 2e0c ebbd 72c4 043e 02f8 09bd da4f 8ebc
00000320: 0164 8b3e 7783 3c3c 42fe c8bd 7c52 9bbd
00000330: df6f 7d3d 3103 3b3d d1b5 f7bb 4fb8 bc3c
00000340: eba4 393d 36e7 10be a4ac d63d d2b1 ccbd
00000350: 322b 1abe a3e6 6bbd d3f0 77bd d3b3 083d
00000360: d5f0 73bd 9b16 44bc 5efa b0bc c364 8fbd
00000370: 9003 873d 375e b7bc d8b3 98bd ab49 033e
00000380: 5528 aebd 10fb 85bc 7eba 89bd ddc2 b4bd
00000390: a391 51be 710d eb3d deb7 e53c 7e63 ccbb
000003a0: 055a 0bbd 6204 543e afef 973e ea31 4e3d
000003b0: 6a96 63bd 38a5 db3c dc40 47bd 5119 3d3e
000003c0: 3ab2 483e 6f2d 34be 4cf4 99bd 9596 2b3d
000003d0: 7ae8 9e3e 151b 1cbc 0248 21bd 431a bc3d
000003e0: 5c3e d43c 4d04 9ebd 49e3 1fbe f73d 8339
000003f0: cda4 f73c 8114 313e e016 3abd 0c80 22be

l2.bias f4 [119]
0.080696486 0.15664957 -0.039062973 0.13932514 0.15711665 0.0076256604 0.0049434607 0.11464021
0.09525091 -0.05117357 0.27433053 0.1351937 0.12404902 0.15109734 0.29660237 0.16076855
0.14198455 0.21129654 0.023009012 0.008524084 -0.054875083 0.13689755 0.21425976 0.12059612
0.08777362 0.2637222 0.18996455 0.23496616 -0.025688708 0.004558759 -0.07970242 0.063633
0.13641194 0.0052712807 0.13701995 0.2662491 0.08398408 -0.04071844 0.10626273 0.20379321
0.12840591 -0.020093985 0.107785806 0.2749698 0.06907651 0.37265882 0.0038179702 0.009782348
0.18019547 0.14754558 0.10527116 0.18641971 0.13348764 0.09554347 -0.077936955 0.2268011
0.08847104 0.23386605 -0.013814281 0.11490502 0.124884404 0.16828637 -0.08102651 -0.08907174
0.2701446 0.24309216 0.17577103 0.10223086 0.04432253 -0.024642427 0.181693 0.22886637
0.15679353 0.14192809 0.15328172 0.13001071 0.18898433 0.120508045 -0.037769206 0.14862016
0.13173673 0.1505371 0.09224075 0.21560867 0.1570594 0.26367867 0.21926787 0.25969386
-0.057300728 0.14540517 0.0383819 -0.025904054 0.07216034 0.27214518 0.060200192 -0.085917026
0.046595097 0.14095472 0.21655658 -0.29160535 0.23549354 0.16416942 0.09797147 0.16437899
0.1673656 0.18442042 0.04492946 0.1588544 0.07707438 0.00040669602 0.24653254 0.081384875
0.14469396 -0.011236696 0.12547241 0.018245483 0.02535608 -0.051340073 -0.08230215
00000000: 3344 a53d bf68 203e 7f00 20bd 40ab 0e3e
00000010: 30e3 203e ade0 f93b c1fc a13b 7dc8 ea3d
00000020: e912 c33d 619b 51bd 0d75 8c3e 3870 0a3e
00000030: 6a0d fe3d 43b9 1a3e 44dc 973e 83a0 243e
00000040: 6664 113e 1f5e 583e 657d bc3c 9aa8 0b3c
00000050: b2c4 60bd df2e 0c3e e966 5b3e 19fb f63d
00000060: a8c2 b33d 9906 873e 1186 423e f89a 703e
00000070: 2071 d2bc a461 953b 063b a3bd 0552 823d
00000080: 92af 0b3e b5ba ac3b f54e 0c3e cd51 883e
00000090: d8ff ab3d 61c8 26bd 46a0 d93d 2baf 503e
000000a0: d77c 033e 249c a4bc cebe dc3d d7c8 8c3e
000000b0: fc77 8d3d 23cd be3e e936 7a3b 2446 203c
000000c0: 2985 383e 3016 173e 6898 d73d cfe4 3e3e
000000d0: fcb0 083e 4bac c33d 699d 9fbd 8c3e 683e
000000e0: 4e30 b53d 957a 6f3e 4b55 62bc 5353 eb3d
000000f0: 65c3 ff3d 4353 2c3e 3af1 a5bd 3f6b b6bd
00000100: 6550 8a3e 27ed 783e 52fd 333e 6a5e d13d
00000110: 8b8b 353d eade c9bc bb0d 3a3e f25b 6a3e
00000120: 7c8e 203e 9955 113e e2f5 1c3e 8721 053e
00000130: 1c85 413e eccc f63d e2b3 1abd e22f 183e
00000140: fee5 063e 6626 1a3e b8e8 bc3d 85c8 5c3e
00000150: 2ed4 203e e400 873e c287 603e 98f6 843e
00000160: 2bb4 6abd 18e5 143e 5736 1d3d bd34 d4bc
00000170: cdc8 933d 9d56 8b3e 7a94 763d 44f5 afbd
00000180: 80da 3e3d 6f56 103e 02c1 5d3e 4c4d 95be
00000190: 3825 713e 071c 283e 44a5 c83d f752 283e
000001a0: e361 2b3e b5d8 3c3e f407 383d baaa 223e
000001b0: 2cd9 9d3d d139 d539 0773 7c3e 1dad a63d
000001c0: a72a 143e 1e1a 38bc d77b 003e 8d77 953c
000001d0: 8eb7 cf3c f849 52bd 088e a8bd

l3.weight f4 [9, 119]
-0.07324066 0.15471803 -0.9431372 -0.10127951 -0.21229455 0.22272687 0.07578756 0.058075882
-0.36944062 -0.1477628 0.13746847 -0.06326528 0.034578066 0.056904547 0.1718896 0.3752792
-0.23045999 0.009493966 0.14070435 -0.0011920056 -0.07626413 -0.0077059055 -0.32661772 0.07318974
0.041417178 0.03616053 -0.35584095 0.26085797 -0.32946303 0.0026180015 -0.26474658 0.061447345
0.22652014 0.15123704 0.20720294 0.14876987 0.05284093 -0.06461654 0.14750409 0.07320736
-0.20218442 -0.07181532 -0.034628876 0.111467555 -0.15860248 0.3110201 -0.18335135 0.20799202
0.068226665 0.018152209 -0.0060961517 0.07308709 0.13686725 -0.091731325 0.06151297 0.21233042
0.050455302 0.080538556 -0.13579525 0.06288024 0.066319875 -0.056516904 -0.13216606 -0.42079493
0.18252227 0.12106481 0.103183076 0.03916537 0.4090784 -0.0036088708 -0.010049767 0.15611394
0.17513369 -0.25564632 0.14116023 0.12953383 -0.06524749 0.032411627 0.12857579 0.07658607
0.12973322 0.14617658 -0.072093725 -0.03734751 -0.31181356 0.0006045941 -0.047327522 0.07614091
0.028110133 0.16865434 0.11524841 -0.26230437 0.00636552 0.12637712 0.20282179 -0.0900226
0.15887529 -0.26645076 0.055409748 -0.15311837 0.14803894 -0.08403446 0.07853866 0.0810856
0.26082468 0.101216905 0.0045536747 -0.3252421 0.031019181 -0.24365392 0.41091558 0.018636493
0.323163 -0.0688188 0.017340615 -0.3806662 0.027816305 -0.052083746 -0.116654016 -0.01600201
-0.0024349971 -0.19105038 0.225052 -0.07562206 0.32244036 0.14073122 -0.07165256 0.77851045
-0.13561001 0.08842759 -0.029348105 0.19401719 0.08624276 0.15226765 0.44013748 -0.17228435
0.117765136 0.06408794 -0.25587335 0.07314445 0.30623767 -0.41455787 0.11365082 0.014424184
0.07834533 0.19441791 0.397395 0.0036058724 -0.054136593 -0.17831324 0.06616556 0.062072515
-0.20925796 0.031826645 -0.021274194 -0.018707402 0.15279867 0.11269484 -0.020742452 -0.53194696
-0.18425955 -0.129022 0.12532842 -0.083196275 0.40334833 0.024674073 -0.1998822 -0.034397583
-0.08695448 -0.16490734 0.19338453 0.11553 -0.023973355 -0.045994595 0.07537909 0.3400336
-0.028863553 -0.3192407 0.09786095 0.012695353 -0.12368226 -0.10592303 0.52200603 0.0289837
0.06060188 0.04948213 0.04989544 0.263961 -0.24808626 0.025848329 0.068965815 0.20568024
0.54536414 -0.00034409898 -0.018908812 0.13269736 0.08162192 -0.048749372 0.102970764 0.25158414
0.070655964 -0.015643029 -0.070781514 -0.42166856 0.094200514 0.2935913 0.057471026 0.0074079814
0.55653673 0.04732761 -0.18818527 -0.0595423 0.1988114 0.6230096 -0.18997654 0.0039130193
-0.56231195 -0.054981507 -0.54450256 0.095409386 -0.30541927 0.08475751 0.038559966 0.10681827
-0.048455156 -0.083474055 -0.05035744 0.071249 0.061924066 0.18625508 -0.10944699 0.39916804
-0.23446907 0.007745059 0.39121318 -0.07741779 -0.32616302 -0.14950529 0.36248153 0.067413755
-0.41296417 0.12935844 0.24813575 -0.40703768 0.20169783 0.078143544 0.46297786 0.20534411
-0.09731321 0.42260355 -0.2038527 -0.1113208 0.08845742 -0.5087896 -0.15528224 0.07225705
00000000: 33ff 95bd 676e 1e3e 7171 71bf a26b cfbd
00000010: be63 59be 8312 643e 8236 9b3d fae0 6d3d
00000020: 5227 bdbe 224f 17be 89c4 0c3e 3a91 81bd
00000030: bba1 0d3d be14 693d d403 303e 9824 c03e
00000040: b4fd 6bbe 948c 1b3c cd14 103e 123d 9cba
00000050: 5e30 9cbd d281 fcbb 703a a7be 81e4 953d
00000060: 0fa5 293d 101d 143d c930 b6be 2d8f 853e
00000070: 61af a8be c792 2b3b dd8c 87be 36b0 7b3d
00000080: e5f4 673e e2dd 1a3e 022d 543e 2157 183e
00000090: bb6f 583d ad55 84bd 500b 173e beed 953d
000000a0: 6f09 4fbe e913 93bd 02d7 0dbd 1a49 e43d
000000b0: b068 22be 073e 9f3e 75c0 3bbe dcfb 543e
000000c0: 6cba 8b3d f1b3 943c 3ac2 c7bb afae 953d
000000d0: ee26 0c3e a2dd bbbd 06f5 7b3d 256d 593e
000000e0: 38aa 4e3d 66f1 a43d e90d 0bbe 5bc7 803d
000000f0: b7d2 873d 457e 67bd 8a56 07be 6f72 d7be
00000100: 1ee7 3a3e d4f0 f73d a651 d33d de6b 203d
00000110: b972 d13e ce82 6cbb c7a7 24bc 55dc 1f3e
00000120: 3f56 333e 13e4 82be 4f8c 103e 84a4 043e
00000130: 7aa0 85bd 0ec2 043d 5fa9 033e 28d9 9c3d
00000140: c9d8 043e 50af 153e e0a5 93bd b4f9 18bd
00000150: 07a6 9fbe a07d 1e3a 81da 41bd c4ef 9b3d
00000160: 3947 e63c b9b3 2c3e 5c07 ec3d c24c 86be
00000170: da95 d03b 0169 013e 84b0 4f3e c55d b8bd
00000180: 34b0 223e 3c6c 88be 55f5 623d 10cb 1cbe
00000190: 8597 173e 421a acbd e1d8 a03d 3510 a63d
000001a0: d08a 853e cf4a cf3d fe36 953b 2286 a6be
000001b0: f01b fe3c 6a80 79be 8763 d23e 8fab 983c
000001c0: 9f75 a53e dff0 8cbd e80d 8e3c aee6 c2be
000001d0: 05df e33c c455 55bd 4de8 eebd a616 83bc
000001e0: 7994 1fbb b6a2 43be 0874 663e bddf 9abd
000001f0: e716 a53e d81b 103e 94be 92bd 764c 473f
00000200: 5add 0abe 8619 b53d 706b f0bc 71ac 463e
00000210: 0ba0 b03d 0dec 1b3e b359 e13e 4f6b 30be
00000220: d92e f13d 8a40 833d d501 83be c2cc 953d
00000230: 2fcb 9c3e ee40 d4be c3c1 e83d 6a53 6c3c
00000240: 8473 a03d 7d15 473e 5c77 cb3e 8050 6c3b
00000250: 55be 5dbd bf97 36be cf81 873d c03f 7e3d
00000260: b847 56be a85c 023d 3847 aebc 4440 99bc
00000270: 4177 1c3e 8dcc e63d 13ec a9bc ad2d 08bf
00000280: 89ae 3cbe 581e 04be 1856 003e cf62 aabd
00000290: ac83 ce3e 4821 ca3c ebad 4cbe 7be4 0cbd
000002a0: 3115 b2bd 78dd 28be 9806 463e fe9a ec3d
000002b0: c563 c4bc d464 3cbd 5a60 9a3d e218 ae3e
000002c0: 4273 ecbc 8473 a3be 526b c83d 2b00 503c
000002d0: 204d fdbd 2cee d8bd 30a2 053f 396f ed3c
000002e0: ad39 783d c6ad 4a3d 295f 4c3d e525 873e
000002f0: 530a 7ebe e0bf d33c f33d 8d3d d79d 523e
00000300: fc9c 0b3f 2f68 b4b9 a7e6 9abc d1e1 073e
00000310: 6529 a73d 6cad 47bd 56e2 d23d a3cf 803e
00000320: 13b4 903d cf25 80bc e6f5 90bd f1e4 d7be
00000330: 33ec c03d 9951 963e bd66 6b3d a7be f23b
00000340: 3179 0e3f 99da 413d a4b3 40be a0e2 73bd
00000350: 3795 4b3e 8f7d 1f3f 3689 42be c938 803b
00000360: adf3 0fbf 4a34 61bd 8564 0bbf ff65 c33d
00000370: ea5f 9cbe 5895 ad3d 0ef1 1d3d 8ac3 da3d
00000380: ea78 46bd 72f4 aabd 9a43 4ebd ffea 913d
00000390: 17a4 7d3d a7b9 3e3e be25 e0bd c15f cc3e
000003a0: a918 70be 44ca fd3b 184d c83e 388d 9ebd
000003b0: d7fe a6be ea17 19be 2e97 b93e 3910 8a3d
000003c0: 0a70 d3be 8a76 043e 4c17 7e3e 3e67 d0be
000003d0: e089 4e3e b909 a03d 6f0b ed3e ba45 523e
000003e0: 264c c7bd 7e5f d83e c3be 50be 29fc e3bd
000003f0: 2a29 b53d 0940 02bf 4f02 1fbe 81fb 933d

l3.bias f4 [9]
0.1635104 0.31785184 0.17081818 0.13764186 0.25711268 0.116234325 0.1865388 0.11599041
0.030567316
00000000: 456f 273e 7abd a23e f6ea 2e3e fdf1 0c3e
00000010: 46a4 833e 430c ee3d 0704 3f3e 618c ed3d
00000020: 4f68 fa3c

l4.weight f4 [53, 9]
0.6340232 0.4158327 0.43719125 0.2823779 -0.656678 0.04206085 -0.21167262 0.4213655
-0.04258647 0.6489925 0.8795718 -0.26561704 0.57374024 0.3668606 0.32909238 0.8022234
-0.12594777 -0.4201085 0.212131 0.41205367 0.5454814 -0.033862907 -0.59016365 0.29876766
0.2346159 0.80644196 -0.21710783 0.46009392 0.008839547 -0.08747554 0.7787753 0.11508168
0.2143156 0.67282623 0.23032449 0.110208504 0.041352957 0.41159397 0.5017507 7.281448e-05
-0.17158076 0.52707046 -0.24958828 0.62526727 -0.28893232 0.33079702 0.72264844 0.34146366
-0.21195891 -0.57468235 0.10889647 0.09670366 -0.1022427 -0.5186109 0.07982131 -0.28356022
0.92668825 0.41424596 0.36303508 0.62732714 -0.13924505 0.42007807 0.72717017 0.3247025
-0.19455713 0.5823878 0.17620382 0.04008899 0.8306138 0.30850613 0.7928246 0.28516522
0.60316306 0.1929817 0.21354279 0.6627957 -0.37066454 0.21492489 0.49327794 0.21767779
-0.43099788 0.60379255 0.3036299 -0.11340222 0.6100418 -0.33953616 0.05717298 0.32035798
0.010459643 -0.044772852 -0.08441722 0.30153134 0.7745086 -0.23458676 -0.17623346 0.024163889
-0.30108857 0.5816371 0.35655814 0.04609908 0.27200872 0.53676844 -0.31902236 -0.3811237
0.46808508 0.19454011 0.7532638 0.26029533 0.6165373 0.579998 0.067072175 -0.14155053
-0.6363107 0.23667754 0.28239936 -0.1401478 -0.4715479 0.58347636 0.05623676 -0.14279765
0.74727136 0.45345688 0.6531802 0.41654983 0.35784313 0.14052846 0.17990929 0.3497052
0.39678267 0.19642115 -0.1353307 0.4767872 -0.06905275 0.5956084 -0.24212594 0.41718844
0.28045493 0.304219 -0.21887447 0.0052302317 0.34736153 -0.14220852 0.15230247 0.18254371
0.06979469 0.49836126 0.3660165 0.33259365 -0.6226953 0.14885098 0.40261722 0.25280717
-0.50762457 0.51878715 0.37240753 0.21205191 0.54462236 -0.16831857 0.78355914 0.51179355
0.3026649 0.02215405 0.15885508 0.3948973 -0.18792267 0.05469024 -0.37513083 -0.7240193
-0.35575515 -0.8098878 -1.0719583 -0.508485 0.40981916 0.38239753 -0.8054848 0.8400144
-0.45744473 -0.7100879 -0.88280785 0.23407349 -0.034668792 0.08773748 0.6527975 0.38392794
0.21658404 0.37879878 -0.20839953 0.28403577 0.36736554 0.28703424 0.45727605 0.8029123
-0.48174462 -0.48591098 0.14258142 -0.010191004 0.07039766 0.13125727 0.5112888 0.21244745
0.24753113 0.44277033 -0.35686567 0.30860883 -0.120459266 0.5990638 -0.20466307 -0.040539682
0.41836166 -0.21748948 0.67471325 0.99331653 0.05238565 0.5386146 0.16420506 0.25148213
0.019620245 -0.20257676 1.0688641 -0.024582587 0.16260736 0.7988391 -0.093196936 0.61736417
0.9061095 0.33449152 0.5858588 -0.10140239 -0.1675725 -0.5169538 0.01510483 -0.027865184
0.03659255 -0.1584496 -0.4947748 0.020240027 0.7110925 -0.6052831 -0.19992547 -0.2441361
-0.54707664 -0.10108607 0.3891171 0.2290933 -0.13716447 0.015405362 0.7441292 1.1339285
0.5256136 0.08206515 0.118875235 0.8134888 0.055110704 0.11234326 0.8794105 -0.30647475
00000000: 584f 223f 06e8 d43e 88d7 df3e d693 903e
00000010: 0d1c 28bf ff47 2c3d b5c0 58be 38bd d73e
00000020: 266f 2ebd 5f24 263f 9e2b 613f f5fe 87be
00000030: a4e0 123f 27d5 bb3e cc7e a83e 835e 4d3f
00000040: 74f8 00be 7618 d7be de38 593e b3f8 d23e
00000050: aba4 0b3f d5b3 0abd f714 17bf 13f8 983e
00000060: 273f 703e fb72 4e3f 8451 5ebe 6e91 eb3e
00000070: bfd3 103c 6026 b3bd d15d 473f f2af eb3d
00000080: 8c75 5b3e 573e 2c3f 2fda 6b3e ffb4 e13d
00000090: b861 293d 72bc d23e bc72 003f fab3 9838
000000a0: deb2 2fbe 17ee 063f 1294 7fbe 8411 203f
000000b0: f0ee 93be 3a5e a93e 7dff 383f 53d4 ae3e
000000c0: c20b 59be 621e 13bf 1d05 df3d 920c c63d
000000d0: 9f64 d1bd afc3 04bf 5b79 a33d ce2e 91be
000000e0: 713b 6d3f 0c18 d43e bcdf b93e 8398 203f
000000f0: 4196 0ebe 7914 d73e d327 3a3f 683f a63e
00000100: fc39 47be 5e17 153f c66e 343e 5a34 243d
00000110: 1ba3 543f 84f4 9d3e 8ef6 4a3f 2d01 923e
00000120: e568 1a3f ff9c 453e f6aa 5a3e fbac 293f
00000130: bec7 bdbe 4515 5c3e ed8e fc3e ede6 5e3e
00000140: c1ab dcbe 2692 1a3f 6175 9b3e 6c3f e8bd
00000150: b32b 1c3f afd7 adbe 372e 6a3d f605 a43e
00000160: ec5e 2b3c bd63 37bd efe2 acbd 5162 9a3e
00000170: 3246 463f 8337 70be 8b76 34be 59f3 c53c
00000180: 4828 9abe 2be6 143f ca8e b63e 64d2 3c3d
00000190: ba44 8b3e a869 093f e656 a3be a522 c3be
000001a0: d9a8 ef3e 8635 473e e5d5 403f 6e45 853e
000001b0: 63d5 1d3f c07a 143f 235d 893d 9ff2 10be
000001c0: 42e5 22bf 995b 723e a696 903e e882 0fbe
000001d0: ba6e f1be b55e 153f 8458 663d 8c39 12be
000001e0: 2d4d 3f3f 802b e83e d136 273f 0546 d53e
000001f0: 3737 b73e b1e6 0f3e 243a 383e 8f0c b33e
00000200: 1927 cb3e a022 493e 2294 0abe 741d f43e
00000210: 876b 8dbd cb79 183f ddef 77be b999 d53e
00000220: ca97 8f3e 98c2 9b3e a120 60be 5d62 ab3b
00000230: 5fd9 b13e 1c9f 11be 2ef5 1b3e bdec 3a3e
00000240: 85f0 8e3d 3529 ff3e 8466 bb3e b749 aa3e
00000250: f668 1fbf 646c 183e d823 ce3e f16f 813e
00000260: aff3 01bf 3ccf 043f 33ac be3e 2324 593e
00000270: 5f6c 0b3f b45b 2cbe 5597 483f e704 033f
00000280: e5f6 9a3e 697c b53c e8aa 223e fb2f ca3e
00000290: cd6e 40be e002 603d 2611 c0be 5459 39bf
000002a0: 8a25 b6be cf54 4fbf ee35 89bf 132c 02bf
000002b0: d1d3 d13e 9cc9 c33e 4034 4ebf 2f0b 573f
000002c0: 3236 eabe 52c8 35bf b2ff 61bf f6b0 6f3e
000002d0: dd00 0ebd b5af b33d bd1d 273f 3492 c43e
000002e0: 35c8 5d3e eaf1 c13e b066 55be 236d 913e
000002f0: 5617 bc3e 27f6 923e 1620 ea3e a98b 4d3f
00000300: 3ba7 f6be 53c9 f8be dd00 123e 2bf8 26bc
00000310: a62c 903d 4e68 063e d3e3 023f d38b 593e
00000320: cd78 7d3e cbb2 e23e 19b7 b6be fa01 9e3e
00000330: 59b3 f6bd 3f5c 193f 3293 51be f00c 26bd
00000340: 8033 d63e 90b5 5ebe 02ba 2c3f fe49 7e3f
00000350: 5692 563d a5e2 093f 5f25 283e 44c2 803e
00000360: a3ba a03c 4870 4fbe 8ad0 883f 6c61 c9bc
00000370: 8b82 263e b880 4c3f 09de bebd 940b 1e3f
00000380: cbf6 673f 7942 ab3e d8fa 153f 0eac cfbd
00000390: 2098 2bbe 1657 04bf 407a 773c 8745 e4bc
000003a0: 12e2 153d 9d40 22be 1f53 fdbe 6ace a53c
000003b0: 280a 363f d5f3 1abf 43b9 4cbe d0fe 79be
000003c0: 370d 0cbf 3706 cfbd 5b3a c73e 6f97 6a3e
000003d0: d874 0cbe c566 7c3c 407f 3e3f 9224 913f
000003e0: 9d8e 063f c611 a83d dc74 f33d cd40 503f
000003f0: c3bb 613d 3914 e63d 0c21 613f 42ea 9cbe

l4.bias f4 [53]
0.20965147 0.66094106 0.5531516 0.31874162 0.16319525 0.5228452 0.078383885 0.43184784
0.045361035 0.061874587 0.30059 0.3376218 0.9411161 0.049487006 0.46231693 0.25324237
0.5078789 0.30733162 0.73371917 1.613119 0.0655214 0.38470566 -0.011481595 0.6378064
0.31740952 0.5239091 0.91953737 0.6450361 0.25323123 -0.005712257 0.63836336 0.0489272
0.3598066 0.087207004 1.1622597 1.5113168 1.0058893 -0.06126544 0.47725007 0.4485203
0.72306466 0.42710403 1.3015292 0.5058575 -0.059207298 0.57345456 0.3866318 0.31164014
0.03201628 0.2660557 0.1107621 0.3977415 0.2786484
00000000: e0ae 563e 6f33 293f 589b 0d3f 1a32 a33e
00000010: a81c 273e 2fd9 053f bb87 a03d 291b dd3e
00000020: 7ecc 393d 3570 7d3d efe6 993e c4dc ac3e
00000030: fcec 703f e3b2 4a3d ceb4 ec3e fca8 813e
00000040: 5a04 023f 925a 9d3e 05d5 3b3f af7a ce3f
00000050: 1530 863d 24f8 c43e 4d1d 3cbc 4847 233f
00000060: 8083 a23e e81e 063f cd66 6b3f 1621 253f
00000070: 86a7 813e e32d bbbb c86b 233f e367 483d
00000080: 9238 b83e 9699 b23d edc4 943f d472 c13f
00000090: fbc0 803f 78f1 7abd 1f5a f43e 74a4 e53e
000000a0: c41a 393f 61ad da3e 8298 a63f e17f 013f
000000b0: 5a83 72bd ebcd 123f 9af4 c53e 4c8f 9f3e
000000c0: 8123 033d 7438 883e 3dd7 e23d c6a4 cb3e
000000d0: 01ab 8e3e

l5.weight f4 [85, 53]
0.06201596 0.17854258 0.040550485 0.04371166 -0.0069619096 0.5353322 -0.29294738 0.09685297
0.27134085 0.23134871 0.12932914 0.056261748 0.49299893 0.010618073 0.123431064 0.01624762
0.2738358 0.04714741 0.6598531 1.2335954 0.07015081 0.22364986 -0.02501252 0.1702866
-0.12831488 0.19414109 0.12752984 -0.243771 0.036038153 0.23471932 0.13925697 0.13312206
-0.056012336 -0.2889856 1.129125 0.7961919 -0.027733449 0.06255223 0.7718753 -0.033748478
0.026752377 0.08692045 -0.3296977 -0.091825955 0.05268916 -0.020113857 0.073630266 0.020177633
0.06672197 -0.055519566 -0.12667325 0.11775971 -0.08506153 0.24845555 0.6455362 0.12454025
0.39831036 0.23347978 -0.1230582 -0.25372604 0.26510605 0.35441998 0.5428755 -0.12808105
0.23497964 0.11538077 0.48725504 0.28335354 0.09886807 0.28974265 0.35696706 0.22006969
-1.5770289 0.16354047 0.022347506 0.35443696 0.30855945 -0.2834104 0.32052174 -1.1723987
0.20405057 -0.099009976 0.32905057 0.55455714 0.17070296 0.39556536 0.28022057 0.0103879385
0.53663325 -1.568216 0.13192178 0.019011114 0.19083537 0.506909 0.55327034 0.3278158
-0.3541978 0.20560713 0.27673957 0.33264318 0.5879124 0.34775108 0.2714729 0.5240567
0.13561489 -0.1418068 0.2540927 0.70735514 0.20576474 0.4088171 0.0874394 0.17243987
-0.30888182 0.25944573 0.44552866 0.3530091 0.043010507 0.14191723 0.34849092 0.5369712
0.34811613 0.25308838 0.33183363 0.27935687 0.31254897 -1.501074 -0.009341409 0.023475789
0.3203212 0.24084038 -0.38395458 0.32606095 -1.0198718 0.16950557 -0.025365647 0.21588717
0.53008866 0.36387375 0.30294025 0.44064903 0.09577813 0.82089996 -1.5184382 0.1860574
0.40085205 0.25016645 0.5845674 0.4283733 0.1914619 -0.2813127 0.055148777 0.2579162
0.45064715 0.39479557 0.23717387 0.18976183 0.3626304 0.2741534 -0.2682545 0.19409616
0.11080284 0.24680488 0.28980812 0.09518175 0.07879834 0.11180565 0.3580518 0.27175573
0.3322971 0.2591062 0.13125286 0.14336964 0.3305064 0.32052776 0.083669096 0.29445407
0.24276723 0.42184883 -1.7956245 0.13458726 0.25216836 0.23441172 0.04122535 0.024681088
0.34114346 0.019365879 -0.04512495 0.26381195 0.2451033 0.1317271 0.19778123 0.19236252
0.08196211 -0.35808888 -0.1318161 -0.38610587 0.0740172 0.3737168 0.2326969 -0.062687986
0.3032687 -0.4380221 0.15807274 0.2648559 0.13592501 0.2716305 0.2594814 0.13375866
0.24867283 0.31533465 0.2595719 -0.040647786 0.055358954 0.0021188348 0.05466997 0.2452832
0.13745664 -0.7080998 0.29495442 0.4520871 0.2344464 0.09691358 0.03888899 0.36890754
-0.5187693 0.2169964 0.20678344 0.2782603 -0.014429725 0.23384224 -0.37007156 -1.7340918
0.34151623 0.10249051 0.18120515 0.23164289 0.19980289 0.08538507 -0.24938756 0.3908469
0.08519654 0.1678583 0.20102246 0.18842594 0.25853497 0.51571625 -1.166914 -0.67861515
-0.27052557 -0.020282136 -0.60148835 0.17195034 0.2220276 0.46724936 0.34863162 0.2952536
00000000: 7304 7e3d ded3 363e 4418 263d ff0a 333d
00000010: bb20 e4bb 880b 093f 33fd 95be da5a c63d
00000020: 30ed 8a3e ade6 6c3e dc6e 043e b872 663d
00000030: 5b6a fc3e 6df7 2d3c 6dc9 fc3d bb19 853c
00000040: 3534 8c3e a51d 413d 22ec 283f 74e6 9d3f
00000050: 3aab 8f3d 7804 653e 0ee7 ccbc 9c5f 2e3e
00000060: fa64 03be eccc 463e 2f97 023e 1b9f 79be
00000070: be9c 133d 435a 703e 6199 0e3e 2651 083e
00000080: 316d 65bd ecf5 93be 2b87 903f 3bd3 4b3f
00000090: 4231 e3bc 621b 803d 9f99 453f d83b 0abd
000000a0: cd27 db3c 5903 b23d 23ce a8be 3f0f bcbd
000000b0: 97d0 573d d1c5 a4bc 77cb 963d 904b a53c
000000c0: 87a5 883d 7c68 63bd a2b6 01be 012c f13d
000000d0: bd34 aebd 226b 7e3e dc41 253f f50e ff3d
000000e0: 56ef cb3e 5315 6f3e f005 fcbd 61e8 81be
000000f0: fbbb 873e 8976 b53e e4f9 0a3f ae27 03be
00000100: 819e 703e c14c ec3d 7e79 f93e b713 913e
00000110: 587b ca3d 2659 943e 63c4 b63e f359 613e
00000120: 15dc c9bf 2777 273e 1e12 b73c c378 b53e
00000130: 81fb 9d3e 2b1b 91be 6d1b a43e 2911 96bf
00000140: a2f2 503e bec5 cabd 5179 a83e 75f7 0d3f
00000150: c2cc 2e3e 8b87 ca3e 1279 8f3e 2c32 2a3c
00000160: cc60 093f 4dbb c8bf 8116 073e 32bd 9b3c
00000170: 596a 433e cac4 013f 20a3 0d3f 79d7 a73e
00000180: 6a59 b5be ad8a 523e cfb0 8d3e 3550 aa3e
00000190: 6d81 163f 6e0c b23e 7ffe 8a3e 9428 063f
000001a0: a1de 0a3e cd35 11be 7018 823e 3a15 353f
000001b0: feb3 523e 7a50 d13e 6e13 b33d 1494 303e
000001c0: c225 9ebe 12d6 843e 551c e43e 9cbd b43e
000001d0: c92b 303d c052 113e 676d b23e f276 093f
000001e0: 473c b23e cd94 813e 19e6 a93e dd07 8f3e
000001f0: 6b06 a03e 3123 c0bf b60c 19bc 4c50 c03c
00000200: 2401 a43e dc9e 763e b295 c4be 76f1 a63e
00000210: 298b 82bf de92 2d3e 9ecb cfbc 8711 5d3e
00000220: e4b3 073f a94d ba3e fc1a 9b3e c09c e13e
00000230: 5327 c43d 8026 523f 2f5c c2bf d585 3e3e
00000240: 7b3c cd3e d115 803e 36a6 153f bf53 db3e
00000250: 970e 443e 3808 90be afe3 613d 980d 843e
00000260: 39bb e63e a522 ca3e b5dd 723e ed50 423e
00000270: b1aa b93e d65d 8c3e a758 89be 25c1 463e
00000280: 99ec e23d 6bba 7c3e bb61 943e a6ee c23d
00000290: 0661 a13d 5cfa e43d 9152 b73e 9123 8b3e
000002a0: d822 aa3e 91a9 843e 2667 063e 7ecf 123e
000002b0: 2338 a93e 371c a43e b45a ab3d afc2 963e
000002c0: f997 783e 92fc d73e 06d7 e5bf 3ed1 093e
000002d0: 361c 813e a009 703e eadb 283d fe2f ca3c
000002e0: 5baa ae3e 31a5 9e3c f1d4 38bd 5c12 873e
000002f0: 5cfc 7a3e 78e3 063e 2a87 4a3e aefa 443e
00000300: c0db a73d 6d57 b7be cdfa 06be abaf c5be
00000310: 5496 973d cf57 bf3e 1948 6e3e 8f62 80bd
00000320: 0946 9b3e 6f44 e0be d2dd 213e 319b 873e
00000330: ed2f 0b3e 2713 8b3e bfda 843e 08f8 083e
00000340: 17a4 7e3e 8b73 a13e 9ce6 843e 4b7e 26bd
00000350: 12c0 623d 26dc 0a3b 9eed 5f3d 852b 7b3e
00000360: 6fc1 0c3e 0746 35bf 4404 973e f677 e73e
00000370: b812 703e a17a c63d 104a 1f3d 73e1 bc3e
00000380: 11ce 04bf 4e34 5e3e 0abf 533e 2278 8e3e
00000390: a76a 6cbc 5774 6f3e 057a bdbe b8f6 ddbf
000003a0: 37db ae3e 8be6 d13d d88d 393e cb33 6d3e
000003b0: 2199 4c3e 5ede ae3d 745f 7fbe 161d c83e
000003c0: 867b ae3d 0ce3 2b3e d5d8 4d3e bbf2 403e
000003d0: b25e 843e fb05 043f 705d 95bf b9b9 2dbf
000003e0: 5482 8abe b926 a6bc 24fb 19bf c013 303e
000003f0: 345b 633e 4f3b ef3e d87f b23e 7b2b 973e

l5.bias f4 [85]
0.2640847 0.14288552 0.4140148 -0.18716721 0.2462591 0.05781007 0.04794989 0.80547583
-0.08885368 0.08730793 0.14465544 -0.33145103 0.80889076 -0.07475348 -0.12879696 0.060308795
0.12232023 0.1755612 0.0010954108 0.35646206 0.24919733 0.17552745 0.27695847 -0.06729958
0.22108375 0.58190584 0.06131209 0.2704653 0.36993444 0.102771364 0.30071738 -0.040500347
0.06516288 -0.1365896 0.59098995 0.2675285 0.19025047 0.0065104184 -0.11747604 0.6908161
0.18508153 0.47254318 0.130913 0.25011978 0.14575958 0.24730924 -0.018129885 0.18305783
-0.32265335 -0.21995878 0.19498657 0.20735162 -0.14860341 0.22176933 0.754627 0.40776828
0.025054852 0.47391412 0.09743133 -0.3556151 0.72762775 0.46704388 0.24095908 0.63957536
-0.13727558 -0.014195037 0.16430563 0.15160114 0.6343251 -0.18433945 0.5239416 0.6982021
0.6421247 0.6315634 0.2097315 0.156725 -0.11317769 -0.110437304 0.28727946 -0.05669646
0.36234096 0.17556386 0.36738926 0.25049853 -0.034665324
00000000: 1c36 873e 9550 123e bff9 d33e c3a8 3fbe
00000010: 582b 7c3e 41ca 6c3d 1b67 443d aa33 4e3f
00000020: ebf8 b5bd 80ce b23d 8e20 143e f3b3 a9be
00000030: 7713 4f3f 5a18 99bd 5ae3 03be 5b06 773d
00000040: 0783 fa3d 51c6 333e e393 8f3a 3282 b63e
00000050: 962d 7f3e 78bd 333e 80cd 8d3e 5dd4 89bd
00000060: c763 623e c8f7 143f 6322 7b3d 6e7a 8a3e
00000070: 0c68 bd3e cb79 d23d a1f7 993e b1e3 25bd
00000080: 1e74 853d 25de 0bbe 1e4b 173f 7ff9 883e
00000090: 05d1 423e 5955 d53b 4797 f0bd 53d9 303f
000000a0: 0386 3d3e 2ef1 f13e 0f0e 063e b30f 803e
000000b0: 0042 153e a23e 7d3e 2085 94bc 8373 3b3e
000000c0: d232 a5be e03c 61be 8faa 473e fc53 543e
000000d0: 7e2b 18be 8017 633e 3c2f 413f 01c7 d03e
000000e0: d53f cd3c dfa4 f23e 148a c73d 2f13 b6be
000000f0: d045 3a3f 6020 ef3e fabd 763e 36bb 233f
00000100: f891 0cbe 4d92 68bc bc3f 283e 543d 1b3e
00000110: 2163 223f 7bc3 3cbe 0921 063f 5fbd 323f
00000120: 4962 243f 24ae 213f dbc3 563e 857c 203e
00000130: b4c9 e7bd f42c e2bd 4b16 933e 8c3a 68bd
00000140: c184 b93e 03c7 333e 721a bc3e 5841 803e
00000150: 3afd 0dbd

l6.weight f4 [3, 85]
0.4011535 -0.36711624 -0.31775627 -0.32444265 -0.47548485 0.11876589 -0.23652686 -0.6466764
0.77929723 0.5721954 -0.29250076 -0.13967611 1.4919808 -0.28696492 -0.2846799 0.09248576
-0.25939882 -0.34927455 -0.4392623 -0.02796835 -0.3745401 0.6236952 -0.39768356 -0.25390044
-0.43555287 1.4203672 0.732169 0.07467291 -0.050397217 0.50460315 -0.20126466 -0.16045476
-0.20552403 -0.20400795 -0.6015241 0.8259606 0.6683254 -0.2622499 -0.2139742 -0.6159312
-0.33759803 1.7047116 0.44901156 -0.34956107 0.6218533 -0.41126245 0.5636046 -0.34256905
-0.11425368 -0.16414122 -0.3603927 -0.39023182 -0.1436322 0.0339024 1.1915209 -0.0038007172
-0.36110008 -0.49194738 -0.4213548 -0.047685955 -0.91892785 0.30455303 -0.38540953 1.7515094
-0.25198048 -0.16613579 -0.23221336 0.5822232 -0.53657234 0.30251673 -0.48322237 -0.59221363
-0.35281855 1.374506 -0.2816418 -0.009555843 -0.30189344 -0.23755056 -0.06155722 -0.1959422
-0.24698098 0.68077314 -0.38166496 -0.17327908 -0.15679649 -0.41524616 -0.29680914 -0.36238778
-0.2838832 0.04755423 -0.33742514 0.22870512 0.49623606 0.015262771 0.13327 -0.41206804
-0.24489444 0.8679656 -0.09237044 -0.17250732 0.34443116 0.19065952 -0.3345115 -0.15995672
0.56955624 -0.15159811 0.17330456 -0.32029763 -0.23796162 -0.30374664 -0.59861004 -0.08015252
-0.07687687 -0.4642583 -0.5520574 0.7011537 0.11660563 -0.43117204 -0.28430232 1.3952569
-0.8640759 -0.6744516 -0.1663708 -0.044643782 0.2071814 -0.078828536 -0.7711177 0.06569992
-0.30232397 0.30031905 -0.16860445 0.060993247 0.13547648 -0.40946764 -0.15874138 -0.31518123
0.16504021 -0.29345503 -0.47279525 -0.5566212 -0.88080305 -0.29322904 0.5466221 -0.15650666
-0.2308132 0.89720094 0.29785806 -0.085423656 0.5108082 0.019855842 -0.4161943 0.09897153
-0.57115954 0.5988266 -0.22006197 0.58103794 0.46336 1.806892 -0.8000404 -0.4387344
-0.4818283 -0.22013126 -0.41236678 0.3943791 -0.21359459 0.1699254 -1.3075002 0.06987361
-0.4492161 -0.4651116 0.08923985 0.2062914 0.24977727 -0.18915768 -0.105500035 0.21774039
-0.48477086 0.43695682 -0.74505925 -0.58491755 0.049602177 -0.32679164 0.03194873 -0.18621188
-0.26824963 -0.666725 -0.47165766 0.14354354 -0.16665667 -0.6389548 0.052743204 -0.6525844
0.2464516 -0.2668987 0.11205784 1.219026 -0.84733564 0.30354285 0.9805892 0.18554604
-0.51820505 -0.47568545 0.08756255 -0.3017889 1.4069382 0.045254424 0.15551586 -0.30623582
-0.3804512 0.19036005 -0.21965228 0.9498894 -0.52812034 0.20061678 -0.67424375 0.01447298
-0.5798826 -0.32289273 -0.2327893 -0.24736148 0.04179563 -0.36533037 -0.3176628 0.31640136
0.89788973 1.0028477 -0.05017761 0.49668124 -0.08527207 -0.34900993 1.2940779 -1.1940691
-0.032441847 0.04359936 -0.41397882 -0.049226806 -0.44335622 0.04607418 0.47035608 -0.23751543
0.48956433 0.3964835 0.088933215 0.55659956 0.18230456 0.29816768 -0.24054578 0.022920523
0.31771573 -0.32983908 0.43471774 0.23002872 -0.10767251 0.22776216 0.032062292
00000000: fe63 cd3e a9f6 bbbe f3b0 a2be 591d a6be
00000010: c072 f3be 883b f33d 1934 72be 968c 25bf
00000020: 0680 473f 667b 123f a9c2 95be 4107 0fbe
00000030: 3af9 be3f 11ed 92be 90c1 91be 2d69 bd3d
00000040: eccf 84be 1dd4 b2be fde6 e0be e21d e5bc
00000050: b8c3 bfbe 7daa 1f3f 2e9d cbbe 3dff 81be
00000060: c900 dfbe 98ce b53f 6d6f 3b3f 1cee 983d
00000070: 506d 4ebd ac2d 013f 5318 4ebe 414e 24be
00000080: e474 52be 76e7 50be 7cfd 19bf 2772 533f
00000090: 6017 2b3f 9e45 86be 0d1c 5bbe abad 1dbf
000000a0: a6d9 acbe fd33 da3f d8e4 e53e abf9 b2be
000000b0: c731 1f3f fe90 d2be 6448 103f 3665 afbe
000000c0: d5fd e9bd a314 28be 6485 b8be 77cc c7be
000000d0: 5214 13be 3edd 0a3d c283 983f 7415 79bb
000000e0: 1ce2 b8be 87e0 fbbe d1bb d7be 5952 43bd
000000f0: db3e 6bbf 60ee 9b3e 6654 c5be 7631 e03f
00000100: 9603 81be 801f 2abe 57c9 6dbe 940c 153f
00000110: ce5c 09bf 79e3 9a3e ec68 f7be 509b 17bf
00000120: a2a4 b4be d0ef af3f 5b33 90be 1c90 1cbc
00000130: c791 9abe 7440 73be 6c23 7cbd 12a5 48be
00000140: 95e8 7cbe 2647 2e3f 9769 c3be 1270 31be
00000150: 428f 20be 259b d4be 5ef7 97be e48a b9be
00000160: 2459 91be 39c8 423d fdc2 acbe ad31 6a3e
00000170: a712 fe3e b410 7a3c ee77 083e 95fa d2be
00000180: 9cc5 7abe fe32 5e3f b72c bdbd c2a5 30be
00000190: 4859 b03e 403c 433e 1745 abbe b2cb 23be
000001a0: 70ce 113f 893c 1bbe c076 313e 0dfe a3be
000001b0: 36ac 73be ae84 9bbe 823e 19bf 0127 a4bd
000001c0: 9f71 9dbd 44b3 edbe a253 0dbf cf7e 333f
000001d0: efce ee3d 95c2 dcbe 1390 91be c797 b23f
000001e0: 1434 5dbf dca8 2cbf 1b5d 2abe 66dc 36bd
000001f0: 5c27 543e db70 a1bd f867 45bf ae8d 863d
00000200: 35ca 9abe 6bc3 993e a5a6 2cbe 0ed4 793d
00000210: 59ba 0a3e bea5 d1be 1a8d 22be 6f5f a1be
00000220: 4d00 293e bd3f 96be 3812 f2be ba7e 0ebf
00000230: 4f7c 61bf 1e22 96be 6def 0b3f 4843 20be
00000240: 4c5a 6cbe f6ae 653f da80 983e 99f2 aebd
00000250: 54c4 023f b8a8 a23c 6b17 d5be 96b1 ca3d
00000260: 8337 12bf b34c 193f ed57 61be e7be 143f
00000270: 863d ed3e 3d48 e73f 73cf 4cbf cca1 e0be
00000280: 33b2 f6be 176a 61be bd21 d3be 0fec c93e
00000290: 8ab8 5abe ed00 2e3e 2b5c a7bf e519 8f3d
000002a0: a7ff e5be 1c23 eebe 62c3 b63d 0e3e 533e
000002b0: 9dc5 7f3e 8db2 41be 6710 d8bd 56f7 5e3e
000002c0: e333 f8be ceb8 df3e 34bc 3ebf 28bd 15bf
000002d0: a72b 4b3d 3c51 a7be acdc 023d 54ae 3ebe
000002e0: 0458 89be 7dae 2abf 1d7d f1be 14fd 123e
000002f0: 0ca8 2abe 8b92 23bf 4209 583d c50f 27bf
00000300: cf5d 7c3e f2a6 88be 957e e53d 0b09 9c3f
00000310: fdea 58bf f869 9b3e e507 7b3f c8ff 3d3e
00000320: 16a9 04bf 0b8d f3be ff53 b33d 1384 9abe
00000330: 8d16 b43f b45c 393d 8d3f 1f3e f1ca 9cbe
00000340: 80ca c2be bfed 423e 87ec 60be f42b 733f
00000350: e532 07bf 7c6e 4d3e 3d9b 2cbf 1420 6d3c
00000360: 3073 14bf 3252 a5be 5160 6ebe 544c 7dbe
00000370: e531 2b3d 950c bbbe b3a4 a2be 5cff a13e
00000380: 1adc 653f 505d 803f 0a87 4dbd 014d fe3e
00000390: 1fa3 aebd 6eb1 b2be 58a4 a53f 42d7 98bf
000003a0: bee1 04bd 3e95 323d 08f5 d3be 0ca2 49bd
000003b0: 96ff e2be 48b8 3c3d 83d2 f03e 3f37 73be
000003c0: 2da8 fa3e e3ff ca3e 9e22 b63d 4f7d 0e3f
000003d0: 0cae 3a3e 6fa9 983e a251 76be d2c3 bb3c
000003e0: a3ab a23e abe0 a8be 5393 de3e a68c 6b3e
000003f0: 6883 dcbd 7c3a 693e c053 033d

l6.bias f4 [3]
-0.38237226 0.29661694 0.2800661
00000000: 4cc6 c3be 2dde 973e d364 8f3e
