models/Others/model_PGNN_10_1e-3_1.pt (torch, 127233 bytes, 12 tensors)

l1.weight f4 [189, 9]
0	0xbc03c696	-0.008042952
1	0x3e862ca0	0.2620592
2	0x3f6ccfe2	0.92504704
3	0x3f065695	0.52475864
4	0xbfd2c05b	-1.6464952
5	0x3ee407e4	0.4453727
6	0xbeee34c2	-0.46524626
7	0xbcccacbe	-0.024984714
8	0xbf02c558	-0.5108237
9	0xbb47058f	-0.0030368303
10	0x3fc2b46d	1.5211312
11	0xbfaec56f	-1.3654002
12	0xbe01a3e4	-0.12660176
13	0xbf597343	-0.849415
14	0xbfd2b030	-1.6460018
15	0xbe2b5c17	-0.16734348
16	0xbf63156a	-0.8870455
17	0xbf681b0e	-0.9066628
18	0xbdd369ff	-0.103229515
19	0xbd181990	-0.037133753
20	0x3f041377	0.515922
21	0xbe820129	-0.2539151
22	0x3e8f9a19	0.28047255
23	0x3f464685	0.77451354
24	0xbd484665	-0.04889526
25	0xbf477e74	-0.7792733
26	0xbf440d7d	-0.7658308
27	0x3c16b8af	0.009199305
28	0x3e8ac043	0.2709981
29	0x40034b70	2.0514793
30	0xbf7d76ba	-0.9900929
31	0xbef98eef	-0.48741862
32	0x3edb861e	0.4287576
33	0xbea4f594	-0.3221861
34	0xbe7db7c2	-0.2477713
35	0xbf1ea64a	-0.61972487
36	0x3ad0a78b	0.0015919072
37	0x3e3d9e7f	0.18517493
38	0x3ede7e7e	0.4345588
39	0x3da07ac3	0.07835915
40	0x3f0a0223	0.5390951
41	0xbf9f6830	-1.245367
42	0xbf81912e	-1.012243
43	0xbfe80b88	-1.8128519
44	0xbf570d2f	-0.8400449
45	0x3c9d74cd	0.019220734
46	0x3f6b44c1	0.91901785
47	0x3cc11611	0.023570092
48	0xbef857d3	-0.48504505
49	0xbf25cf13	-0.64769095
50	0x3f5a913c	0.8537786
51	0xbfcb9096	-1.5903499
52	0xc004d06f	-2.0752218
53	0xbf30d05f	-0.6906795
54	0xbb616cb2	-0.0034397063
55	0xbf9cf89b	-1.2263368
56	0xbf7dd1a9	-0.9914804
57	0xbdab18d4	-0.08354345
58	0xbf92689f	-1.1438178
59	0x3f9cd555	1.2252604
60	0xbd395094	-0.04524286
61	0xbe81d571	-0.25358155
62	0x3f1c1ada	0.6097847
63	0xbacadc6c	-0.0015477068
64	0xbf61255c	-0.8794763
65	0xbf03ac1e	-0.51434505
66	0xbcbe33e3	-0.0232181
67	0xbe76e08d	-0.24109097
68	0xbfe37d75	-1.7772661
69	0xbe3b8550	-0.18312573
70	0xbebc0482	-0.3672219
71	0x3c321361	0.010868878
72	0x3b395260	0.002827786
73	0xbf86ce07	-1.0531625
74	0xbf900039	-1.1250068
75	0xbdf92200	-0.12164688
76	0xbf6f1a40	-0.9339943
77	0xbfa1a842	-1.2629473
78	0x3db88bf2	0.090110675
79	0x3f00c503	0.50300616
80	0xbf821af9	-1.0164481
81	0xbb0281f2	-0.001991388
82	0xbd6a3f85	-0.057189483
83	0x3fc2db17	1.5223111
84	0xbf1f39b7	-0.6219744
85	0x3f95746e	1.1676157
86	0x3eb86cc9	0.36020496
87	0xbf0edf7b	-0.55809754
88	0x3f8d0a8f	1.1018847
89	0xbf197541	-0.5994454
90	0x3cdccab8	0.026952133
91	0xbf02b768	-0.51061106
92	0x3fc08bb0	1.5042629
93	0x3f1ed889	0.62049156
94	0xbf63f1b7	-0.890407
95	0xbebb8cfd	-0.36631003
96	0xbddbd6cc	-0.10734329
97	0xbf3a122d	-0.72683984
98	0xbf104773	-0.5635902
99	0x3a5f8044	0.0008525888
100	0x3f086cd2	0.53291047
101	0xbf8dfe5a	-1.1093247
102	0xbe15ebef	-0.14640783
103	0x3ed8e3cc	0.42361295
104	0xbe053345	-0.13007839
105	0x3dd2bd9d	0.10290072
106	0x3f601998	0.8753905
107	0x3f02623f	0.5093116
108	0xbb6d4729	-0.0036205745
109	0xbeee6f93	-0.465695
110	0xbf81d1dd	-1.014217
111	0xbc90148b	-0.01758792
112	0x3db1f325	0.08688954
113	0x3edc942b	0.43081793
114	0xbdd3d90e	-0.10344134
115	0xc00b0388	-2.1720905
116	0x3ee4a9cc	0.44660795
117	0x3af7825e	0.0018883457
118	0xbdaed9c2	-0.08537628
119	0xbef8f068	-0.48620915
120	0xbe09c220	-0.13452959
121	0x3fbe6fcb	1.4877867
122	0xc012897a	-2.289641
123	0xbc917ef3	-0.01776073
124	0xbf610830	-0.8790312
125	0x3eeb3492	0.45938545
126	0x3c9c0900	0.01904726
127	0x3f7d3216	0.9890455
128	0xbf73e152	-0.95265687
129	0xba6790b0	-0.0008833511
130	0xbfc308b4	-1.5237031
131	0xc021da61	-2.5289538
132	0x3ebb3c11	0.36569265
133	0xbe19bbc6	-0.15013036
134	0x3df3ce57	0.119045906
135	0xbaa4050d	-0.0012513712
136	0x3ca57d96	0.020201486
137	0x3f981bcb	1.1883482
138	0x3d88d17a	0.066805795
139	0xc05279a5	-3.2886746
140	0xbeb292b7	-0.3487756
141	0xbe401870	-0.18759322
142	0x3e3e63b8	0.18592727
143	0x3b19e4bf	0.002348229
144	0xbc05d573	-0.008168566
145	0xc0009e61	-2.0096667
146	0xbf98f6df	-1.1950339
147	0xbf81f5fb	-1.0153192
148	0x3f6b7e83	0.91989917
149	0xbec15b90	-0.3776517
150	0xbf2a19c0	-0.6644554
151	0xbeb55c28	-0.35421872
152	0xbe3c558d	-0.1839201
153	0x3ba41039	0.0050068167
154	0xbf24cdb6	-0.6437639
155	0xbfd5e7d3	-1.6711372
156	0xbea8b895	-0.32953325
157	0x3ec242af	0.379415
158	0xbfdaa963	-1.7082943
159	0xbec43719	-0.38323286
160	0xbf548486	-0.83014715
161	0xbf1c318c	-0.610131
162	0x3a68eb93	0.0008885201
163	0x3e460060	0.1933608
164	0xbfad92b8	-1.35604
165	0xbd00a79b	-0.03140984
166	0xbf462e11	-0.7741404
167	0xbf81d49f	-1.0143012
168	0xbf2e44d8	-0.680738
169	0x3e827d0d	0.2548603
170	0xbea39084	-0.31946194
171	0xbb290bb5	-0.0025794331
172	0xbe0aac68	-0.1354233
173	0xbf797b32	-0.97453606
174	0xbe87beb1	-0.26512673
175	0xbf0d2fa0	-0.55150795
176	0x3ff97390	1.9488392
177	0x3d6b5057	0.057449665
178	0xbf0b5b60	-0.544363
179	0x3e8a9aa9	0.2707112
180	0xbc9c851c	-0.01910644
181	0x3f019010	0.50610447
182	0x3e27541a	0.16340676
183	0x3e994c93	0.29941234
184	0xc04b1a15	-3.173467
185	0x3efb92a9	0.4913533
186	0x3f2e7756	0.6815084
187	0xbf6c9885	-0.92420226
188	0xbee1de48	-0.441149
189	0xbaccc43d	-0.0015622448
190	0xbf492a71	-0.78580385
191	0xbf418ae9	-0.75602585
192	0xbdd9343b	-0.10605665
193	0xbf42cef6	-0.7609705
194	0x3fc733e5	1.5562712
195	0x3e90e5b2	0.28300244
196	0xbf5b29a8	-0.8561044
197	0xbe2e88bd	-0.17044349
198	0xbc14bd7e	-0.009078382
199	0xbda0c730	-0.07850492
200	0x3ecadd19	0.3962181
201	0x3f149333	0.5803711
202	0xc03dc5fd	-2.9652092
203	0xbf747244	-0.95486856
204	0xbe3d9363	-0.18513255
205	0xbf71127b	-0.94168824
206	0xbea961b9	-0.3308237
207	0x3c794f63	0.015216681
208	0xbfb9564e	-1.4479463
209	0xbf42cddc	-0.76095366
210	0x3f4151ba	0.7551533
211	0x3ec2cb64	0.380458
212	0x3f4e3df1	0.80563265
213	0x400f6b23	2.240914
214	0xbe030e5c	-0.12798446
215	0x3f7a005d	0.97656804
216	0xba3c690a	-0.0007187283
217	0xbe769229	-0.24079193
218	0x3f4ea205	0.8071597
219	0x3d064e35	0.032789428
220	0xbfc9208a	-1.5713055
221	0xbfb47d49	-1.4100734
222	0xbe0af9b5	-0.13571818
223	0x3dc95802	0.09831239
224	0xc0082dd6	-2.1277976
225	0x3bcb7884	0.006209435
226	0x3f8cce86	1.1000526
227	0xbfe5499c	-1.7913089
228	0x3e304a99	0.17215957
229	0xbf5d14cc	-0.8635986
230	0xbf7bcfa8	-0.98363733
231	0x3e0909ae	0.13382599
232	0x3f1b8be3	0.60760325
233	0xbf0aa26f	-0.54154104
234	0xbca4ee0e	-0.020133045
235	0xc00b23a9	-2.1740515
236	0xbf596d2b	-0.849322
237	0xbebb53e5	-0.36587444
238	0x3f9cb3d9	1.2242385
239	0x3ea8cba3	0.32967862
240	0xbf221603	-0.6331484
241	0xbefc05e8	-0.49223256
242	0x3ee77672	0.45207554
243	0x3b270237	0.0025483498
244	0xbfa00877	-1.2502583
245	0x3f3a476d	0.7276524
246	0xbf289c33	-0.6586334
247	0xbf83bd85	-1.0292212
248	0xbf1e04fd	-0.6172636
249	0xbfb841eb	-1.4395117
250	0xbf8329f3	-1.0247177
251	0xbf94744f	-1.1597995
252	0xb94387ae	-0.00018647194
253	0xbf3d393b	-0.7391545
254	0xbf9bd016	-1.2172878
255	0xbe4214a9	-0.18953194

l1.bias f4 [189]
0	0xbf7ab8ec	-0.9793842
1	0x3eb27c52	0.34860474
2	0xbf4bbf50	-0.79588795
3	0xbe3e5ae8	-0.18589365
4	0xbe32f020	-0.17474413
5	0xbdb3324f	-0.0874983
6	0x3eda5ade	0.4264745
7	0x3f1c27da	0.6099831
8	0x3e32c9ff	0.17459868
9	0xbf01254c	-0.50447536
10	0xbf6b98df	-0.9203014
11	0x3f0b0fd9	0.54321057
12	0x3dd92c79	0.106041856
13	0x3ea71cdf	0.32639214
14	0x3ef0b68e	0.47014278
15	0x3ed1f636	0.41008157
16	0xbecc0fcc	-0.39855802
17	0xbec0856d	-0.37601796
18	0x3e609839	0.21933068
19	0x3ec12ca5	0.37729374
20	0xbe92ba9d	-0.28658
21	0x3e8b5270	0.27211332
22	0xbc8adaa6	-0.016949963
23	0xbf04ebe1	-0.5192242
24	0xbe023983	-0.12717251
25	0x3e878ac2	0.2647305
26	0xbe930b15	-0.28719392
27	0xbf3b7192	-0.7322017
28	0xbd0c863f	-0.034307715
29	0x3e10e14c	0.14148444
30	0x3ddc2cea	0.10750754
31	0x3eb6e208	0.35719323
32	0x3efbb69f	0.49162766
33	0xbdc3f274	-0.09567729
34	0xbe8b7d7e	-0.2724418
35	0x3e17d19d	0.14826055
36	0xbbcfe12e	-0.006343982
37	0xbebbcd32	-0.3667999
38	0xbf77e460	-0.9683285
39	0xbeff5f35	-0.49877325
40	0x3f3bd4b3	0.7337143
41	0x3daa335f	0.083105795
42	0xbea40500	-0.32035065
43	0xbe75cef4	-0.24004728
44	0x3ec12bf4	0.37728846
45	0x3e596f15	0.2123378
46	0x3e325dd9	0.17418613
47	0xbda250c6	-0.079255626
48	0x3d060fd8	0.032729954
49	0xbf270a4b	-0.6525008
50	0x3cc0056f	0.023440091
51	0x3e049443	0.12947182
52	0xbe59a8bf	-0.21255778
53	0xbee5550e	-0.44791454
54	0xbf9a5a1f	-1.2058753
55	0x3e781d2e	0.24229881
56	0xbc9bff2e	-0.019042578
57	0x3ec82fc1	0.39098933
58	0x3e775c2f	0.24156259
59	0x3f347a3e	0.70499027
60	0xbf24b5b0	-0.64339733
61	0x3e8a45dd	0.27006426
62	0xbe93d5c1	-0.2887402
63	0xbe714c51	-0.23564269
64	0xbdb2578e	-0.08708106
65	0xbd748ded	-0.059705663
66	0xbefecb0f	-0.49764296
67	0xbcffea2d	-0.031239593
68	0x3e5a1664	0.21297604
69	0x3e447425	0.1918493
70	0xbf3dc0de	-0.74122417
71	0x3d99bc20	0.07506585
72	0xbd9b54fe	-0.0758457
73	0x3e7fc20e	0.2497637
74	0xbe11fd16	-0.14256701
75	0xbd884bbe	-0.06655072
76	0x3e7edb16	0.24888262
77	0x3edbd80d	0.4293827
78	0x3dfc732e	0.12326656
79	0xbd8796b7	-0.066205435
80	0x3d3d3a6c	0.046198294
81	0xbe533ebe	-0.20629403
82	0xbcde0998	-0.027104184
83	0x3dec373f	0.11533975
84	0x3f0dde4a	0.5541731
85	0x3ecea0ca	0.40357047
86	0x3f512673	0.81699294
87	0xbe80070c	-0.25005376
88	0xbef70b1d	-0.48250666
89	0x3db5d053	0.08877625
90	0x3e8bf3a5	0.27334324
91	0xbf0d1460	-0.55109215
92	0xbdf0cac9	-0.11757428
93	0xbf4ffba6	-0.8124336
94	0x3e98801e	0.29785246
95	0xbee9f37e	-0.45693582
96	0xbedaa907	-0.42707083
97	0x3e842d04	0.25815594
98	0xbe03a7a7	-0.12856923
99	0x3d64250b	0.05569939
100	0xbe5093d0	-0.20368886
101	0xbd9a309e	-0.07528804
102	0xbddc3940	-0.10753107
103	0xbe90339c	-0.28164375
104	0xbe9077d0	-0.2821641
105	0xbe90e2e6	-0.2829811
106	0xbf0daf51	-0.55345637
107	0x3e421bec	0.18955964
108	0x3f65cb67	0.8976349
109	0xbd8c8531	-0.06861342
110	0xbc9f44b0	-0.019441932
111	0x3cf5aedf	0.029990612
112	0xbf1013af	-0.56280035
113	0xbf31faa4	-0.6952307
114	0x3d92dd5d	0.07171128
115	0x3e98e767	0.29864046
116	0x3e1eb8ce	0.15500185
117	0x3e85b00e	0.26110882
118	0xbdad7e0f	-0.084713094
119	0xbf559160	-0.8342495
120	0x3e79172e	0.24325249
121	0xbeee6418	-0.4656074
122	0xbe16dcd8	-0.14732683
123	0x3c94cb62	0.018163387
124	0xbee5bbb3	-0.44869766
125	0x3e94a1fd	0.29029837
126	0xbdda7a76	-0.10667889
127	0x3c36670b	0.011132966
128	0x3e2cadb3	0.16863136
129	0x3eed198a	0.46308547
130	0xbeeb4367	-0.4594986
131	0x3d9ab9d8	0.07554978
132	0x3eaedc72	0.3415256
133	0x3efeffd2	0.4980455
134	0x3ccb88f8	0.024845585
135	0xbdf36916	-0.11885278
136	0x3e90be42	0.28270155
137	0xbf28c4e9	-0.6592546
138	0xbf336155	-0.7007039
139	0xbe41880b	-0.18899553
140	0xbf22826c	-0.6348026
141	0xbd09948d	-0.033588935
142	0x3cc461dc	0.023972444
143	0xbe8a3aaa	-0.26997882
144	0x3e272bf1	0.16325356
145	0xbe6d6b36	-0.23185429
146	0x3eaf1f67	0.34203646
147	0xbf065aa4	-0.52482057
148	0x3dd053f9	0.101722665
149	0xbf4aa047	-0.79150814
150	0x3ebbd3b8	0.36684966
151	0x3f044f58	0.5168357
152	0xbde09de0	-0.10967612
153	0xbe4674cc	-0.19380492
154	0x3e0e15d5	0.13875516
155	0xbeca4808	-0.3950808
156	0x3f0773ef	0.52911276
157	0xbe092bc1	-0.13395597
158	0xbe84abe8	-0.25912404
159	0xbf34240e	-0.70367515
160	0x3eee4f37	0.4654481
161	0xbdc77925	-0.09739903
162	0xbdafbf4a	-0.08581407
163	0xbf82f548	-1.0231104
164	0xbea5a286	-0.32350558
165	0x3f0c6094	0.54834867
166	0x3ecc89c0	0.39948845
167	0x3e275e73	0.16344623
168	0x3f072c29	0.5280176
169	0xbf1a21f9	-0.6020809
170	0x3c8b7239	0.017022239
171	0x3ed61779	0.41814783
172	0x3e4c2950	0.19937634
173	0x3e4693be	0.19392297
174	0xbd52a83d	-0.051429976
175	0xbe8ec5ff	-0.27885434
176	0xbd116689	-0.035498176
177	0xbf6e6951	-0.9312945
178	0x3eb6c138	0.3569429
179	0x3e2958e1	0.16537811
180	0x3cd15003	0.025550848
181	0xbf30c745	-0.6905406
182	0xbf3a385c	-0.7274225
183	0xbe121af7	-0.14268099
184	0xbf1f5e1e	-0.62252986
185	0x3f4ba6ad	0.795512
186	0xbf3a0f00	-0.7267914
187	0xbf5c86b7	-0.8614306
188	0xbd0d8de4	-0.034559146

l2.weight f4 [119, 189]
0	0xbdbe6e64	-0.09298399
1	0xbdca1fa8	-0.09869319
2	0xbdc43e82	-0.09582235
3	0xbed7af88	-0.42126107
4	0xbe60ddf9	-0.21959676
5	0x3d25415f	0.040345546
6	0xbf3236a9	-0.69614655
7	0x3df6410c	0.120241255
8	0x3e543a1f	0.20725296
9	0x3ea4abb4	0.3216225
10	0xbe1484d2	-0.14503792
11	0x3eab32d4	0.33437216
12	0xbd7468a1	-0.059670094
13	0x3f18e4f5	0.5972436
14	0xbd721b49	-0.059108052
15	0xbf14faaa	-0.58194983
16	0x3e5e4ecd	0.21709748
17	0xbbda033c	-0.0066532176
18	0xbcdf5e7c	-0.027266733
19	0xbf10c671	-0.565528
20	0xbe557cdd	-0.20848413
21	0xbf31e3c8	-0.6948819
22	0xbca3c456	-0.019991081
23	0x3ce92ee2	0.028464738
24	0xbd977bcc	-0.07396659
25	0xbdb9a064	-0.09063795
26	0x3dc6fdaf	0.09716355
27	0x3d8aa2b6	0.06769316
28	0xbedc4046	-0.43017787
29	0xbea11206	-0.31459063
30	0x3dfbd954	0.122973114
31	0xbe40a5f0	-0.188133
32	0x3da3f75a	0.08006163
33	0xbe216b3e	-0.15763566
34	0xbdb87fc8	-0.09008747
35	0xbe0d04a0	-0.13771296
36	0xbea47ff7	-0.3212888
37	0x3bad2afc	0.005284665
38	0xbdbf1fc5	-0.093322314
39	0xbe2cabe9	-0.16862454
40	0xbe8f5424	-0.27993882
41	0xbb4dc1b1	-0.0031395967
42	0xbea6bf1c	-0.3256768
43	0xbf0e3b98	-0.5555968
44	0x3e8ba60e	0.27275127
45	0x3e32a897	0.17447124
46	0x3d9be3ed	0.07611833
47	0xbebc28ea	-0.36749965
48	0xbefbec92	-0.49203926
49	0xbd68a6aa	-0.05679957
50	0xbe8123b3	-0.2522255
51	0x3e7f693f	0.24942492
52	0xbe345d5e	-0.17613742
53	0xbdf5c2b2	-0.12000026
54	0x3cea6c73	0.028616166
55	0x3e8bac4e	0.27279896
56	0x3bb21b32	0.005435371
57	0xbe211d80	-0.1573391
58	0xbeb89945	-0.36054435
59	0xbd53a7c1	-0.051673654
60	0xbe98833b	-0.2978762
61	0x3e367876	0.1781939
62	0xbdadbce4	-0.08483294
63	0xbe10ba48	-0.1413356
64	0x3ef6102f	0.48059222
65	0x3e6b809c	0.2299828
66	0x3e13660c	0.14394397
67	0x3a9bcddf	0.0011886916
68	0x3e496f33	0.19671325
69	0xbbed6089	-0.007244174
70	0xbe1470e4	-0.1449619
71	0xbe1c747f	-0.15278815
72	0x3cb9b0a8	0.022667244
73	0xbe0ff3c8	-0.14057839
74	0xbde42af4	-0.11141005
75	0x3d084435	0.033268172
76	0x3cbb0e59	0.02283399
77	0xbd213252	-0.03935463
78	0x3ea3196e	0.3185534
79	0x3ef3bcb5	0.4760491
80	0xbebb1351	-0.36538175
81	0xbe9073e9	-0.28213432
82	0x3f086c20	0.53289986
83	0x3e1c6a38	0.15274894
84	0xbf38e735	-0.72227794
85	0x3ee96a65	0.45588985
86	0xbeca623c	-0.39528072
87	0xbe889823	-0.2667857
88	0xbe0e2ee1	-0.1388507
89	0x3cd006de	0.0253939
90	0x3e2ab51e	0.16670653
91	0x3dc69494	0.09696308
92	0x3e7829fe	0.24234769
93	0x3e923cda	0.2856205
94	0x3c1c858e	0.009553326
95	0xbdd86bfc	-0.105674714
96	0xbf266f0d	-0.650132
97	0x3f031d30	0.5121641
98	0xbd43f513	-0.047841143
99	0xbe6a0307	-0.22852717
100	0xbe2241a9	-0.1584536
101	0xbea4b9f8	-0.32173133
102	0xbd5ccdde	-0.053907268
103	0xbf279757	-0.654653
104	0xbe2e19e3	-0.17002062
105	0xbc9166e3	-0.017749256
106	0xbe1b0a62	-0.1514068
107	0xbdc11735	-0.094282545
108	0xbee6bb3d	-0.45064726
109	0xbdef6cf0	-0.116907
110	0xbe9f6ca8	-0.31137586
111	0x3ec05182	0.37562186
112	0xbcf3be86	-0.029753935
113	0x3e089378	0.13337505
114	0xbf21a512	-0.631425
115	0x3e7458f1	0.23862053
116	0x3dcea93d	0.100908734
117	0xbe323930	-0.17404628
118	0xbcd60a39	-0.026127921
119	0x3d0e0c4c	0.034679696
120	0xbeaba968	-0.33527684
121	0xbe642465	-0.22279508
122	0xbd8bd4b6	-0.06827681
123	0xbdc76a3e	-0.09737061
124	0xbc96ad6a	-0.018393237
125	0x3edfe70f	0.4373097
126	0x3e1b98da	0.15195027
127	0x3e1dbef2	0.15404871
128	0x3e79581c	0.24350017
129	0xbe879b7a	-0.26485807
130	0x3e0238ca	0.12716976
131	0xbeb6a1b4	-0.35670245
132	0x3ddf144e	0.10892545
133	0xbd746b85	-0.05967285
134	0xbe87041e	-0.2637033
135	0x3c30560c	0.010762703
136	0x3e21bd0d	0.15794773
137	0xbd1cac05	-0.038249988
138	0x3da54cba	0.08071275
139	0x3def8d0c	0.116968244
140	0xbcc4f73e	-0.024043676
141	0x3f1b889c	0.60755324
142	0x3e8f0c99	0.279393
143	0x3dab7f09	0.083738394
144	0x3d8a649b	0.0675747
145	0xbd119ced	-0.035550047
146	0xbf231fd8	-0.63720465
147	0xbd93da0f	-0.07219326
148	0xbd730874	-0.059334233
149	0xbe11f006	-0.14251718
150	0x3e056261	0.1302581
151	0x3dcbf85f	0.099594824
152	0xbd0d951a	-0.034566022
153	0x3be16ab8	0.006879177
154	0x3eb5225f	0.35377786
155	0xbc804667	-0.01565857
156	0xbd4dd1ab	-0.050248783
157	0x3e57bb98	0.21067655
158	0x3f459da2	0.77193654
159	0xbe206666	-0.15664062
160	0xbe8087fa	-0.25103742
161	0x3e2b7f3b	0.16747753
162	0xbeeabd16	-0.45847386
163	0x3c61869e	0.013765005
164	0x3f27e294	0.65580106
165	0xbaf0494b	-0.001833239
166	0x3d9e7fa4	0.07739189
167	0xbd3a9fee	-0.045562677
168	0x3e8636a1	0.26213554
169	0x3cbef01d	0.023307854
170	0x3e2595df	0.16170453
171	0x3d46d693	0.048544478
172	0xbe88180c	-0.26580846
173	0x3d5de633	0.054174613
174	0xbed4b16d	-0.41541615
175	0xbe0c9099	-0.13727035
176	0x3ec8b1e6	0.39198226
177	0x3dc50c41	0.09621478
178	0xbca6663a	-0.020312417
179	0xbede3c7a	-0.43405515
180	0xbe0c1722	-0.136807
181	0xbd71a21e	-0.058992498
182	0xbe1a0588	-0.15041173
183	0xbd951106	-0.072786376
184	0x3d9f4326	0.077764794
185	0xbdb11717	-0.08646982
186	0x3d7205d2	0.059087582
187	0xbddedc7d	-0.108818986
188	0x3e53a8af	0.20669816
189	0x3dfdebc8	0.12398487
190	0xbde2f420	-0.110817194
191	0xbd2a535d	-0.041583408
192	0xbc6bde57	-0.014396272
193	0xbec524b9	-0.3850458
194	0x3df7e1a2	0.12103583
195	0x3e972a4d	0.2952446
196	0xbed6ce49	-0.41954258
197	0xbec9ca9a	-0.39412385
198	0xbd1f338f	-0.03886753
199	0xbd898281	-0.06714345
200	0x3e08cbae	0.13358948
201	0x3d057d8b	0.03259043
202	0xbe9e90f7	-0.30969974
203	0xbe2315e8	-0.15926325
204	0x3d73cd1a	0.059521772
205	0xbe3f5115	-0.18683274
206	0xbe1208b4	-0.14261132
207	0xbe7cfb7f	-0.24705313
208	0x3eb53828	0.35394406
209	0x3eb17272	0.34657627
210	0x3eb8a841	0.36065868
211	0x3d8e20e7	0.069398694
212	0x3dfae391	0.12250436
213	0xbeeaa908	-0.45832086
214	0xbea00c20	-0.3125925
215	0xbe399c21	-0.18125965
216	0xbddf118d	-0.108920194
217	0x3ddff366	0.109350964
218	0x3da6ce4d	0.081448175
219	0xbeb2af36	-0.348993
220	0xbe282efb	-0.16424172
221	0xbde9255f	-0.11384081
222	0x3d9f48c4	0.07777551
223	0x3e550dfe	0.20806119
224	0xbeb30781	-0.34966663
225	0xbe07f0cd	-0.13275452
226	0xbe3a4c26	-0.18193111
227	0xbc712ab3	-0.014719653
228	0xbddb064a	-0.10694559
229	0x3c977400	0.01848793
230	0xbdca5b39	-0.098806806
231	0xbcd66edd	-0.02617591
232	0x3ea5eb00	0.32405853
233	0x3c80680a	0.01567461
234	0x3e42b005	0.19012459
235	0xbb83051e	-0.0039984128
236	0x3e7e2e6b	0.24822395
237	0x3d0497f1	0.032371465
238	0xbd990cb5	-0.07473127
239	0x3e677e8e	0.2260687
240	0x3d0879f3	0.033319425
241	0xbe8df6cd	-0.27727357
242	0xbdc4e391	-0.09613717
243	0x3d9ba835	0.07600442
244	0x3e4f80de	0.20264003
245	0xbea29d8b	-0.3176082
246	0xbec9be1c	-0.39402854
247	0xbd8c1f4e	-0.068419084
248	0xbe2a2be1	-0.16618301
249	0x3e0089d8	0.12552583
250	0xbee80e33	-0.45323333
251	0x3e67d0a5	0.22638185
252	0x3e30eff2	0.17279032
253	0xbc260c20	-0.010134727
254	0xbea08a76	-0.31355637
255	0xbe3ac73c	-0.18240064

l2.bias f4 [119]
0	0xbf02c5b1	-0.51082903
1	0x3ea359e3	0.31904516
2	0xbc693c42	-0.014235558
3	0x3d06b00f	0.032882746
4	0xbc4d8377	-0.012543551
5	0x3ea420f1	0.32056382
6	0xbe22f603	-0.15914159
7	0x3ea26e9e	0.3172502
8	0x3e94ae36	0.29039162
9	0xbda99f14	-0.08282295
10	0x3eb36a9f	0.35042283
11	0x3d9b2444	0.075752765
12	0x3e14485b	0.14480726
13	0x3ec9f6e2	0.3944617
14	0x3df108bf	0.11769246
15	0x3cdf28ff	0.027241228
16	0xbe642064	-0.22277981
17	0x3e760b01	0.24027635
18	0xbdcee541	-0.101023205
19	0x3e18e981	0.14932825
20	0xbe459362	-0.19294503
21	0x3eb78062	0.35840136
22	0x3e86530b	0.26235232
23	0x3e432d90	0.1906035
24	0xbdc40623	-0.09571483
25	0x3e9af368	0.3026383
26	0x3dcada02	0.09904863
27	0x3e9dbf82	0.3081017
28	0x3b7d7d4f	0.0038679426
29	0x3ec7e713	0.39043483
30	0xbd91cdef	-0.07119357
31	0x3e399f55	0.18127187
32	0x3d8643c9	0.06555898
33	0xbd9618f5	-0.07328979
34	0x3d679fe8	0.056548983
35	0x3e3c890e	0.18411657
36	0x3d120369	0.035647783
37	0xbdaa95b8	-0.08329338
38	0x3e313319	0.17304648
39	0x3e96c91d	0.29450312
40	0xbe4dbd32	-0.20091704
41	0x3e402b99	0.18766631
42	0xbe4e1592	-0.20125416
43	0x3e1b5faf	0.15173219
44	0xbe3bf1ba	-0.1835393
45	0x3dca052a	0.09864266
46	0x3e097fa8	0.13427603
47	0x3d3d1956	0.04616674
48	0x3ebcdb23	0.36885938
49	0x3ebdb2b8	0.37050414
50	0x3d90bdfb	0.07067486
51	0x3d05c2f6	0.032656632
52	0x3edfe469	0.4372895
53	0x3e315a9f	0.17319725
54	0xbe34fa9a	-0.17673722
55	0x3e59ff9a	0.2128891
56	0xbca696f6	-0.020335656
57	0x3e3497ca	0.17636028
58	0x3e4430fc	0.19159311
59	0x3e082ad1	0.13297583
60	0x3d3d5e51	0.046232525
61	0x3e7e00de	0.24805018
62	0xbde956d1	-0.11393512
63	0x3e8df9c3	0.27729616
64	0x3e1a243b	0.15052883
65	0x3e15e3ae	0.14637634
66	0x3eda1a85	0.42598358
67	0xbdcf1f86	-0.101134345
68	0x3c58aa14	0.013224144
69	0xbcfaea27	-0.03062923
70	0x3df7d69e	0.12101482
71	0xbde353b7	-0.11099952
72	0x3e259acd	0.16172333
73	0x3e2bdf8d	0.16784497
74	0x3e6eb340	0.23310566
75	0x3dc67a25	0.09691266
76	0x3eb6747c	0.35635746
77	0xbe03f330	-0.12885737
78	0x393dccbb	0.00018100713
79	0x3dd22817	0.10261553
80	0xbe040990	-0.12894273
81	0x3cd21427	0.025644375
82	0x3ee8f086	0.45496005
83	0x3e11450a	0.14186493
84	0x3e9730ec	0.29529512
85	0x3cf40216	0.02978615
86	0x3e9e0412	0.3086248
87	0x3ee2a8d4	0.4426943
88	0xbe3fb736	-0.18722233
89	0x3e15873f	0.14602374
90	0xbe223ddd	-0.15843911
91	0xbd3d1372	-0.046161123
92	0xbd96cb6b	-0.07363018
93	0x3e367703	0.17818837
94	0xbe2fa85f	-0.17154072
95	0x3ddfeaa5	0.10933427
96	0x39a1a417	0.0003083057
97	0xbe9f5242	-0.31117445
98	0x3e4493c9	0.19197
99	0x3e9635a1	0.2933779
100	0x3e69ea7b	0.22843353
101	0x3e76d31b	0.24103968
102	0x3d992fa4	0.0747979
103	0x3ea0be26	0.31395072
104	0x3ea2050f	0.31644484
105	0x3e1b13b3	0.15144233
106	0xbde3e456	-0.11127536
107	0x3eb65a38	0.35615706
108	0x3edd8c97	0.43271324
109	0x3e28668b	0.16445367
110	0x3e975c26	0.2956249
111	0x3e20a5df	0.15688275
112	0x3deedb06	0.11662869
113	0x3d8e2ba6	0.06941919
114	0xbd56351a	-0.052296735
115	0x3d036872	0.03208203
116	0x3e177104	0.14789206
117	0x3da526dd	0.08064053
118	0xbd923050	-0.07138121

l3.weight f4 [9, 119]
0	0xbd6e2055	-0.058136303
1	0x3e48a66f	0.1959474
2	0xbfa1e9ae	-1.2649438
3	0x3d060b22	0.03272546
4	0x3ed1163c	0.40837276
5	0xbec4a305	-0.38405624
6	0x3ecfc114	0.40576994
7	0xbe062665	-0.13100584
8	0xbe88dca5	-0.26730838
9	0x3e865493	0.262364
10	0x3eb2e2e7	0.34938738
11	0xbe853ffe	-0.26025385
12	0x3e9be40d	0.30447426
13	0x3c1ad641	0.009450496
14	0x3eb605f0	0.35551405
15	0xbf04366c	-0.5164554
16	0x3f47baf5	0.7801965
17	0xbcd5a869	-0.02608128
18	0x3edd21b7	0.43189785
19	0x3ec6a5b2	0.3879829
20	0x3e899468	0.26871037
21	0x3e61da03	0.22055821
22	0xbf176b39	-0.59147984
23	0x3e9fa97b	0.3118399
24	0xbd71aa33	-0.059000205
25	0x3e9fb986	0.3119623
26	0x3cec3e40	0.028838277
27	0xbcc8df0b	-0.024520418
28	0x3ed7fd33	0.42185363
29	0x3de3c749	0.11121995
30	0x3e952cb1	0.2913566
31	0x3e84edf1	0.25962785
32	0x3f55b1c6	0.83474386
33	0xbf1c1044	-0.6096232
34	0x3c125100	0.008930445
35	0x3ec3c9d7	0.3823993
36	0xbd20aabe	-0.039225332
37	0x3e850cad	0.25986233
38	0xbe3fef3e	-0.18743607
39	0x3f1f7e5b	0.6230218
40	0x3eb1a6fc	0.3469771
41	0x3ec5f16e	0.3866076
42	0xb9bea2c0	-0.00036360882
43	0x3ecbd921	0.39814094
44	0xbe0c7b57	-0.13718925
45	0x3eb6d4f2	0.3570934
46	0xbf5f3a22	-0.8719808
47	0xbe966a14	-0.29377806
48	0x3ea606c1	0.32427028
49	0x3e3a063d	0.18166442
50	0xbd7d0689	-0.06177381
51	0x3eac278c	0.33623922
52	0x3e6ba6eb	0.23012893
53	0xbd5a07c9	-0.05323008
54	0x3ec1f90d	0.37885323
55	0x3de02ee9	0.109464474
56	0x3ed4cc55	0.41562143
57	0x3ecca28a	0.39967757
58	0x3eb8b9c2	0.36079222
59	0x3eacc36d	0.33742848
60	0x3f2bd8d6	0.6712774
61	0x3f22faa8	0.6366372
62	0xbc8007f0	-0.015628785
63	0xbe90101e	-0.28137296
64	0xbf03e2a8	-0.51517725
65	0x3ed95f9e	0.42455763
66	0x3df04e6a	0.11733706
67	0x3dff80ac	0.12475714
68	0x3ed88134	0.42286074
69	0x3e5fac76	0.21843132
70	0xbecda391	-0.40163854
71	0x3ed82d42	0.4222203
72	0x3edee350	0.435328
73	0x3ea2dbc2	0.31808287
74	0x3e98557d	0.29752722
75	0xbd6ca7d9	-0.05777726
76	0x3e585f77	0.21130167
77	0x3e1a1c91	0.1504996
78	0x3e838e88	0.2569468
79	0x3dab6618	0.08369082
80	0x3e8f3742	0.27971846
81	0x3ec1b127	0.3783047
82	0x3dbea2a4	0.09308365
83	0x3e04f642	0.12984565
84	0x3eab3b5c	0.33443725
85	0x3e85645d	0.26053134
86	0x3eaac7b2	0.3335548
87	0xbf4c39f7	-0.7977595
88	0x3e7f62c8	0.24940026
89	0xbd23d3d9	-0.039996956
90	0x3ee28f42	0.44249922
91	0x3e8c4e8a	0.2740367
92	0x3e9faf91	0.31188634
93	0x3e9bd84a	0.30438453
94	0xbe0ccae0	-0.13749266
95	0x3e01a2de	0.12659785
96	0xbe75d51a	-0.24007073
97	0xbf3a30f0	-0.7273092
98	0x3ecc61a0	0.39918232
99	0xbda914bf	-0.0825591
100	0xbe3feb5a	-0.18742123
101	0xbf1ab38c	-0.60430217
102	0x3ed8ba27	0.42329523
103	0xbd8a59bd	-0.067553975
104	0xbd10cae9	-0.03534976
105	0x3edc98ad	0.43085232
106	0x3eb60105	0.35547653
107	0xbe453e8a	-0.19262138
108	0x3ef0132b	0.46889624
109	0x3e63385a	0.22189465
110	0xbf52a56a	-0.8228365
111	0x3edd1e5b	0.43187222
112	0x3ec97a81	0.39351276
113	0x3e4a573d	0.19759841
114	0x3eacf465	0.33780208
115	0x3e84717b	0.2586783
116	0x3ebc969b	0.36833653
117	0x3eb874c8	0.36026597
118	0x3d0f2e5f	0.034956332
119	0xbdee6c4d	-0.116417505
120	0xbdeba9a6	-0.11506967
121	0xbeb5564a	-0.35417396
122	0x3eaef451	0.34170774
123	0x3ea8a1ee	0.32936043
124	0x3e515b68	0.20445025
125	0x3ecc56ed	0.3991007
126	0xbd2dcf75	-0.042434175
127	0xbee1e8db	-0.44122967
128	0x3eb5e7fd	0.35528556
129	0x3e99bb95	0.30025926
130	0xbe124890	-0.14285493
131	0x3ead898a	0.33893996
132	0x3e1d7ff0	0.15380836
133	0x3eb6a571	0.35673097
134	0xbeef5437	-0.46743938
135	0x3f2e3fdf	0.6806621
136	0x3d90eacb	0.07076033
137	0x3ec3feb2	0.38280255
138	0x3eb45b8d	0.35226098
139	0x3ec1bbd3	0.3783861
140	0x3ebeb24b	0.37245402
141	0xbd8477d5	-0.06468169
142	0x3ed2df1f	0.41185853
143	0x3d821d28	0.06353217
144	0x3ede78cd	0.4345154
145	0x3eaee495	0.3415877
146	0x3eac168b	0.3361095
147	0x3f6568ef	0.8961324
148	0x3c9e8c2a	0.019353945
149	0x3ebcd92d	0.36884442
150	0x3db8f5cd	0.09031258
151	0x3f26f3c9	0.65215737
152	0x3f797ca2	0.974558
153	0xbe9f03d2	-0.31057602
154	0x3e6f06d3	0.23342447
155	0x3f2da689	0.6783224
156	0x3ed5a291	0.4172559
157	0xbdd05925	-0.10173253
158	0x3e1c31f1	0.15253426
159	0x3e910627	0.28325006
160	0x3e85f56b	0.26163802
161	0x3e84a151	0.25904325
162	0x3ec587bf	0.3858013
163	0xbde665fc	-0.11249921
164	0x3ed07961	0.40717605
165	0xbf86e62b	-1.0538992
166	0x3f4cffa9	0.80077606
167	0x3ded9bb7	0.11601966
168	0x3e8a5f89	0.27026013
169	0xbdef47fb	-0.11683651
170	0x3e906f29	0.28209808
171	0x3e368892	0.17825535
172	0xbf4ce85e	-0.80042064
173	0x3ebc7545	0.3680822
174	0x3d2d96b6	0.042380057
175	0x3ed48110	0.41504717
176	0x3e960e76	0.29307908
177	0x3eaec748	0.34136415
178	0x3eb2b52b	0.34903845
179	0x3eb99acd	0.36250916
180	0x3e3cc9d4	0.18436366
181	0x3ce50282	0.027955297
182	0xbebc5f7a	-0.36791593
183	0x3f316d9b	0.6930787
184	0x3ec1ba7a	0.37837583
185	0x3c970010	0.018432647
186	0xbce3d544	-0.027811654
187	0x3e8a8d76	0.2706105
188	0x3e949b87	0.29024908
189	0x3d9a781c	0.0754244
190	0x3eb96c80	0.3621559
191	0x3f0750f1	0.5285788
192	0x3ea905ac	0.3301214
193	0x3c90634e	0.017625477
194	0xbec6346f	-0.3871188
195	0x3e3f5179	0.18683423
196	0x3e7908e9	0.24319805
197	0x3e7ec952	0.24881485
198	0xbeb88b2a	-0.36043674
199	0x3eb487f7	0.35259983
200	0x3e966a3f	0.29377934
201	0x3cf088a0	0.029362023
202	0x3e2f36e6	0.17110786
203	0x3ec11b07	0.37715933
204	0x3eb58a23	0.35456952
205	0x3e9cbd32	0.30613095
206	0x3d1a4363	0.03766192
207	0x3e694f7d	0.22784229
208	0x3e17069a	0.14748612
209	0x3eb722f3	0.35768852
210	0x3edb0513	0.4277731
211	0x3e836d0a	0.25669128
212	0x3eaf5111	0.34241536
213	0x3da7ad32	0.08187331
214	0x3e00080e	0.12503073
215	0xbee200e0	-0.44141293
216	0xbe15f4fd	-0.14644237
217	0x3eb873f7	0.36025974
218	0xbeec7879	-0.46185663
219	0x3c38ff4d	0.011291337
220	0xbf1febdd	-0.62469274
221	0x3ec0aaa6	0.37630194
222	0x3b909306	0.004412058
223	0x3f5526c6	0.8326229
224	0x3eb54a87	0.35408422
225	0x3e85b534	0.2611481
226	0x3f3e8126	0.74415815
227	0x3f293b70	0.6610632
228	0x3da9cc12	0.082908764
229	0xbf852860	-1.0402946
230	0x3eb057f3	0.344421
231	0x3ebc5337	0.36782238
232	0x3dd4e4e0	0.10395217
233	0x3ebc66cb	0.36797175
234	0x3ee0b9c5	0.4389173
235	0x3eaaecce	0.33383793
236	0x3ec6fa7f	0.38862988
237	0x3f2c3ba5	0.6727851
238	0x3ecc4255	0.39894357
239	0x3e714959	0.23563136
240	0x3ebbd41e	0.3668527
241	0xbee4206d	-0.4455599
242	0x3ed6afca	0.4193099
243	0x3dab01d4	0.08349958
244	0x3ed65744	0.41863453
245	0x3d84316c	0.06454739
246	0x3e821f96	0.25414723
247	0x3ea5280b	0.32257113
248	0x3db7db48	0.089773715
249	0x3ee025f0	0.43778944
250	0x3eb030e2	0.34412295
251	0x3e58d918	0.21176565
252	0x3eb5a1cf	0.35475013
253	0xbc8c86fd	-0.017154211
254	0xbf45f39d	-0.7732485
255	0x3e897ceb	0.26853117

l3.bias f4 [9]
0	0x3ec3b0dd	0.38220873
1	0x3e489275	0.19587119
2	0x3def2a4a	0.11677988
3	0x3ec83621	0.39103797
4	0x3eabba4d	0.33540574
5	0x3f003ae1	0.5008984
6	0x3e8e1da8	0.27757
7	0x3ed8c938	0.42341018
8	0x3e3d9759	0.18514766

l4.weight f4 [53, 9]
0	0x3e30697b	0.17227738
1	0xbcedde7a	-0.02903675
2	0x3cefbf62	0.029266063
3	0x3f9b15f6	1.2116077
4	0xbf6df112	-0.9294597
5	0xbef9be50	-0.4877801
6	0xbe95fdcb	-0.2929519
7	0xbf5c108a	-0.85962737
8	0x3f5cb9da	0.86221087
9	0x3de30751	0.1108538
10	0x3e8d6467	0.27615663
11	0xbeacaaf7	-0.33724186
12	0x3e7d97b7	0.24764906
13	0x3f4c94ed	0.7991474
14	0x3f096edf	0.536848
15	0x3ea44853	0.3208643
16	0x3ed46687	0.41484472
17	0xbe6ffb81	-0.23435785
18	0xbe94fff9	-0.29101542
19	0x3d2acfdc	0.041702136
20	0x3e5ddcc1	0.21666242
21	0x3eb0193e	0.34394258
22	0x3eb5c63b	0.355028
23	0x3ee7d3c4	0.45278752
24	0x3e9f57da	0.31121713
25	0x3f404df7	0.75118965
26	0x3ee3ad1c	0.4446801
27	0x3e7c4010	0.24633813
28	0xbdd900b2	-0.10595836
29	0xbe12e83d	-0.14346404
30	0x3f417877	0.7557444
31	0x3ed66692	0.4187513
32	0x3f2f4751	0.68468195
33	0x3e943a21	0.289506
34	0x3ed507ed	0.4160761
35	0xbe164b92	-0.14677265
36	0xbea2a522	-0.3176661
37	0x3e4614d1	0.19343878
38	0x3e2a6736	0.16640934
39	0xbda11813	-0.0786592
40	0x3fa4f1f5	1.288634
41	0x3f6c2f29	0.9225946
42	0xbe83606e	-0.25659508
43	0x3f7cc763	0.9874174
44	0xbed6ba2a	-0.41938907
45	0xbdf70bee	-0.12062822
46	0x3e2c11fb	0.16803734
47	0xbd3a100e	-0.045425467
48	0xbf79820b	-0.97464055
49	0xc03adeee	-2.9198565
50	0xc027bc57	-2.6208704
51	0x3f3eefe4	0.74584794
52	0xbfdeb7f8	-1.7399893
53	0x3ed3ba25	0.41352955
54	0xbc9d26e4	-0.019183584
55	0xbeab239c	-0.33425605
56	0x3ec95841	0.39325145
57	0x3f0b32c5	0.54374343
58	0x3f1081c4	0.56448007
59	0x3fb1a8d8	1.3879652
60	0xbd43fd38	-0.04784891
61	0x3f3754c9	0.71613747
62	0xbd118891	-0.03553063
63	0x3c02473b	0.007951553
64	0xbe87ee0c	-0.26548803
65	0x3ea0dc14	0.31417906
66	0xbe96399d	-0.2934083
67	0x3f6665b2	0.89998925
68	0x3fa403f4	1.2813706
69	0x3c95cda1	0.018286528
70	0x3f9ed3fe	1.2408445
71	0xbec092db	-0.37612042
72	0x3e3a2c21	0.18180896
73	0xbe20d5cb	-0.15706556
74	0x3caa86d0	0.020816237
75	0x3fc45b17	1.5340298
76	0xbea2ba1f	-0.31782624
77	0x3f24c23e	0.6435889
78	0x3f06a421	0.5259419
79	0xbe03f78b	-0.12887399
80	0x3f1462a6	0.57963026
81	0x3ec317cb	0.3810409
82	0x3e1041d2	0.14087608
83	0xbedb184d	-0.42791978
84	0x3f4cfa76	0.80069673
85	0x3b5c51cd	0.0033618093
86	0x3d8047b8	0.06263679
87	0x3e2ef0cd	0.17084046
88	0x3dce5557	0.10074871
89	0x3ecec472	0.4038425
90	0xbebd135b	-0.3692883
91	0x3c802edb	0.015647342
92	0x3ec2e0eb	0.38062224
93	0xbe4e8c4b	-0.20170705
94	0x3f4ffb53	0.81242865
95	0x3efcc870	0.49371672
96	0x3cf6d304	0.030129917
97	0x3f74a850	0.95569324
98	0x3e6a0204	0.22852331
99	0xbe8b7dc9	-0.27244404
100	0x3de6e3ce	0.11273919
101	0x3e4846a0	0.19558191
102	0xbee05587	-0.43815252
103	0x3f64328a	0.89139616
104	0x3f36a50a	0.7134558
105	0x3bb7c404	0.0056080837
106	0x3fa0ec15	1.2572047
107	0xbd1de12b	-0.038544815
108	0x3e4a5977	0.1976069
109	0x3da11df7	0.078670435
110	0xbe9a94bd	-0.30191603
111	0xbee7fdd9	-0.45310858
112	0xbf1161e6	-0.56790006
113	0xbf83c626	-1.0294845
114	0x3f96b1e8	1.1773043
115	0xbf38f317	-0.72245926
116	0xbed999a5	-0.42500034
117	0x3eb969f7	0.36213657
118	0xbd189052	-0.03724701
119	0xbe94f49b	-0.2909287
120	0x3f092526	0.5357231
121	0x3f35689f	0.70862764
122	0x3f6f3462	0.93439305
123	0x3db496b4	0.08817807
124	0x3f0996b6	0.5374559
125	0xbea23215	-0.31678835
126	0xbe485e73	-0.1956728
127	0x3def727e	0.116917595
128	0x3dba4898	0.090958774
129	0x3e35469a	0.17702714
130	0x3f9ba3f5	1.2159411
131	0x3f5f895d	0.87318975
132	0xbd3c9c5c	-0.046047553
133	0x3f5e6d4f	0.8688554
134	0xbeb1de3b	-0.3473986
135	0x3dd6f838	0.10496563
136	0x3e0a5438	0.1350869
137	0xbe7fac4c	-0.2496807
138	0xbf05f2c5	-0.5232356
139	0x3f8e17d9	1.1101028
140	0xc0239757	-2.556112
141	0x3e8cb0f4	0.27478755
142	0x3c687cd4	0.014189918
143	0xbed273ec	-0.41104066
144	0xbea229b7	-0.3167245
145	0x3da2d0a2	0.0794995
146	0x3e8200f2	0.25391346
147	0x3f7e6775	0.9937661
148	0xbe355a15	-0.17710145
149	0x3f7803de	0.968809
150	0xbd61a192	-0.055085726
151	0xbc55be50	-0.013045862
152	0xbd6b7c3d	-0.05749153
153	0x3d3752f6	0.044756852
154	0x3daa6354	0.083197266
155	0xbe32d361	-0.17463447
156	0x3f470c39	0.77753025
157	0x3eed0c80	0.462986
158	0x3f5f66aa	0.8726603
159	0x3f597598	0.8494506
160	0x3d46d44f	0.048542317
161	0x3ea80be4	0.32821572
162	0x3e2eae99	0.17058791
163	0x3d9b2b06	0.075765654
164	0xbe56fa9c	-0.20994037
165	0x3f1fe80b	0.62463444
166	0x3f510a8b	0.8165671
167	0x3f6d6c69	0.92743546
168	0xbd96c074	-0.07360926
169	0x3f437d1d	0.7636278
170	0xbeb80f90	-0.35949373
171	0xbd896944	-0.06709531
172	0x3e8e3eac	0.2778219
173	0xbe807cbf	-0.25095174
174	0x3f27bca3	0.6552221
175	0x3f283d8b	0.6571891
176	0xbe1e66d4	-0.15468913
177	0xbdba4b2a	-0.09096368
178	0xbe944cb3	-0.28964767
179	0xbee9b0e5	-0.45642772
180	0xbe82128b	-0.25404772
181	0xbd6b9334	-0.05751343
182	0x3ea73261	0.32655624
183	0x3eb51e3f	0.35374638
184	0x3f549fd7	0.83056396
185	0x3f8942f7	1.0723561
186	0xbe0a63e6	-0.1351467
187	0x3ef1d085	0.472294
188	0xbd8e5bb4	-0.06951085
189	0xbe32b33e	-0.17451188
190	0xbd4d8e55	-0.050184567
191	0x3ea67152	0.32508332
192	0xbe843a10	-0.25825548
193	0xbf47501e	-0.77856624
194	0xbf27bc0d	-0.6552132
195	0x3e9ac639	0.30229357
196	0xbf313822	-0.69226277
197	0x3f9b45c2	1.2130663
198	0x3dbc5c29	0.09197266
199	0xbc733783	-0.014844778
200	0xbd7ad0bd	-0.061234225
201	0x3f285b11	0.65763956
202	0x3d8fa187	0.07013231
203	0x3eaacbef	0.33358714
204	0xc0564270	-3.347805
205	0xbdc48a68	-0.095967114
206	0xbfa87778	-1.3161459
207	0xbe019095	-0.1265281
208	0x3ebb3e80	0.3657112
209	0xbe6d0d4b	-0.23149602
210	0x3e88e75c	0.26739013
211	0x3f966492	1.1749442
212	0x3e91a812	0.2844854
213	0x3e8daa5f	0.27669045
214	0x3f2b2a8f	0.66861814
215	0xbe0957ba	-0.13412371
216	0xbe349d39	-0.176381
217	0xbeabd397	-0.33559868
218	0x3f2d0028	0.67578363
219	0xbedd77ac	-0.43255365
220	0x3e55cf38	0.20879829
221	0x3f7787b5	0.9669145
222	0x3f035357	0.5129904
223	0x3f67c9a4	0.90542054
224	0x3e402e60	0.1876769
225	0x3d8cbedb	0.0687234
226	0x3eaeb849	0.34124973
227	0xbebe5c6f	-0.37179896
228	0x3ed31ff4	0.41235316
229	0xbecb88cb	-0.39752802
230	0xbf176112	-0.5913249
231	0x3d3f6e58	0.04673609
232	0xbf69ee3e	-0.91379154
233	0xbea0e333	-0.3142334
234	0xbe6c4279	-0.23072232
235	0xbac0f923	-0.0014722686
236	0x3e70d209	0.23517622
237	0xbedd6016	-0.4323737
238	0xbeb6931f	-0.3565912
239	0xbe7fdaaf	-0.24985765
240	0x3f7dbfab	0.9912059
241	0x3f67c311	0.9053202
242	0x3f3e08ae	0.74231994
243	0x3daf192a	0.085497215
244	0xbd94c5a2	-0.07264258
245	0xbe6c11c6	-0.23053655
246	0xbeee211e	-0.4650964
247	0x3eb7845f	0.3584318
248	0xbdc0a818	-0.09407061
249	0x3eed8a5a	0.46394616
250	0xbee1568e	-0.44011348
251	0x3f516882	0.8180009
252	0xbe690bf6	-0.22758469
253	0xbe2a6b38	-0.16642463
254	0x3eff1591	0.4982114
255	0xbefa8e71	-0.489368

l4.bias f4 [53]
0	0xbf2408ca	-0.6407591
1	0x3f96b90a	1.177522
2	0x3fc136c8	1.5094843
3	0x3fa73e3f	1.3065871
4	0x3f7c1690	0.9847193
5	0x3e12a0db	0.14319174
6	0x3f800d4a	1.0004056
7	0x3f9d9551	1.2311193
8	0x3ec5c584	0.38627255
9	0x3e959c5e	0.2922086
10	0x3f22edde	0.63644207
11	0x3f8293d4	1.0201364
12	0x3e8af8b2	0.27142864
13	0x3f448a25	0.7677329
14	0x3fbe5914	1.4870934
15	0x3e096a3b	0.1341943
16	0x3f901dcf	1.1259097
17	0x3fb302a7	1.3985184
18	0x3fbeff3c	1.4921641
19	0x3f6e5730	0.9310179
20	0x3f6a07ab	0.9141795
21	0xbe7b7519	-0.24556388
22	0x3f30af89	0.69017845
23	0x3fab79be	1.3396528
24	0x3e241f21	0.160275
25	0xbe4c2964	-0.19937664
26	0x3f7653fc	0.962219
27	0x3f6fbd96	0.9364866
28	0x3e87c544	0.2651769
29	0x3f0caf3a	0.54954875
30	0x3f4f9111	0.8108073
31	0x3f1bc8cd	0.6085327
32	0x3e03f3c5	0.1288596
33	0x3ead6878	0.33868766
34	0x3f9b4c0b	1.2132581
35	0xbf15dc93	-0.58539695
36	0xbea49b25	-0.32149616
37	0xbf15c0f1	-0.5849753
38	0x3eeab40e	0.45840496
39	0x3f5ac030	0.85449505
40	0x3f9d1939	1.2273322
41	0x3fb82837	1.4387273
42	0x3f95d0b9	1.1704322
43	0xbf4cfe0d	-0.8007515
44	0x3e004a6e	0.12528393
45	0x3fc7561c	1.5573153
46	0x3f23ac45	0.6393474
47	0x3f86a706	1.0519722
48	0x3f89b5f8	1.0758657
49	0x3f9728ec	1.1809363
50	0x3f818f40	1.0121841
51	0x3faed19d	1.3657719
52	0x3f4e8f72	0.8068763

l5.weight f4 [85, 53]
0	0xbe42fa7c	-0.19040865
1	0x3e8dfb2a	0.27730685
2	0x3e403699	0.18770827
3	0x3d915081	0.07095433
4	0x3dec8e33	0.1155056
5	0x3f28d89d	0.65955526
6	0xbe94101d	-0.28918543
7	0x3e5f4c8c	0.21806544
8	0xbd30c612	-0.043157645
9	0x3dde1c22	0.1084521
10	0x3e8a25f4	0.2698208
11	0x3eac6421	0.33670142
12	0x3f11c323	0.5693838
13	0x3d532f50	0.051558793
14	0x3e892fbe	0.26794237
15	0x3f3b5920	0.7318287
16	0x3d9da08e	0.07696639
17	0x3de37530	0.11106336
18	0x3d0c75fc	0.034292206
19	0xbdca92d5	-0.09891287
20	0x3dd201b6	0.102542326
21	0x3d89066b	0.06690677
22	0xbda67ed0	-0.08129656
23	0x3f1b70e3	0.60719126
24	0xbdee2d13	-0.11629691
25	0x3d07004e	0.032959275
26	0x3eeab5fe	0.45841974
27	0x3eb457d9	0.35223272
28	0x3dc5cd40	0.09658289
29	0x3eecb951	0.46235135
30	0x3e926907	0.28595755
31	0xbe0dbee6	-0.13842353
32	0x3d7f6d42	0.062360056
33	0xbe92ce71	-0.28673127
34	0x3e57ca1d	0.21073194
35	0xbec339bf	-0.38129994
36	0x3ece2c7c	0.40268314
37	0xbde4be05	-0.11169056
38	0x3f501111	0.8127604
39	0xbe0cafec	-0.13738984
40	0x3e44a9ce	0.192054
41	0x3db3371d	0.087507464
42	0x3f30fcb7	0.6913561
43	0xbf2136c1	-0.6297417
44	0x3e976809	0.2957156
45	0x3e053ec3	0.13012223
46	0xbcd6a5b6	-0.026202064
47	0x3c130e4a	0.008975575
48	0x3da4977b	0.08036705
49	0xbdfb3514	-0.12265983
50	0x3c99090b	0.01868107
51	0x3dfe5e37	0.12420314
52	0x3f1ff177	0.6247782
53	0x3e071776	0.13192543
54	0x3f3e743d	0.74396116
55	0xbd2cac4e	-0.04215651
56	0x3edac49f	0.42728135
57	0x3e5ac4f3	0.21364193
58	0xbefb1200	-0.4903717
59	0x3da7d44c	0.08194789
60	0x3e4a8d20	0.19780397
61	0x3e6a1183	0.22858243
62	0x3f31ac19	0.69403225
63	0xbe19c11f	-0.15015076
64	0x3e23d955	0.16000874
65	0xbd8d4d50	-0.06899512
66	0x3f1ba0af	0.6079206
67	0x3e80e9f2	0.25178486
68	0x3ec9e736	0.39434212
69	0x3e03ce15	0.12871583
70	0x3e75c199	0.23999633
71	0x3f319c98	0.6937957
72	0x3f1ff718	0.6248641
73	0x3e07946e	0.13240215
74	0xbdc57a17	-0.096424274
75	0x3e688ec7	0.22710715
76	0x3ef13253	0.47108707
77	0xbf0ae2f5	-0.5425256
78	0x3e040ac9	0.12894739
79	0xbf1c253d	-0.6099432
80	0x3c30ccc5	0.010791008
81	0xbe118e5e	-0.14214465
82	0x3dfef673	0.1244935
83	0x3f1973bb	0.59942216
84	0x3d70bf69	0.058776293
85	0x3e8d50ca	0.276007
86	0x3d511b36	0.05105134
87	0x3f140ea1	0.5783482
88	0x3e93fa5b	0.28901944
89	0xbcbe61ff	-0.023240088
90	0x3d4b43b2	0.049625106
91	0xbe01c633	-0.12673263
92	0x3d9c9acc	0.07646713
93	0x3f57b92b	0.8426692
94	0x3f33d796	0.70250833
95	0x3e318dfe	0.17339322
96	0xbf077150	-0.52907276
97	0x3dbb675e	0.09150575
98	0x3ee2d999	0.4430664
99	0x3e4b2513	0.19838361
100	0x3f10138c	0.56279826
101	0x3e76217e	0.24036214
102	0x3e2bd63e	0.16780946
103	0x3f3a1dbf	0.7270164
104	0x3b4a7ce6	0.00308972
105	0x3dc9c55a	0.09852095
106	0x3e20ae52	0.15691498
107	0x3f3d3492	0.7390834
108	0x3d007386	0.03136017
109	0x3ee12354	0.43972266
110	0xbc3b4c25	-0.0114317285
111	0xbf037af8	-0.5135951
112	0xbd0328d6	-0.032021366
113	0x3de6f3d5	0.11276976
114	0x3ea9a93b	0.33136925
115	0x3f119990	0.5687494
116	0xbd49cda0	-0.049268365
117	0xbc335777	-0.010946146
118	0xbcb0a8e2	-0.021564905
119	0x3f291e6d	0.6606205
120	0x3e7f3d85	0.24925812
121	0x3f2f6893	0.6851894
122	0x3dc9ea0a	0.098590925
123	0x3e4a45e4	0.19753224
124	0x3f0b1d19	0.54341274
125	0x3f08f744	0.535023
126	0xbe05f6c2	-0.13082412
127	0xbddd2891	-0.10798753
128	0x3e2b6454	0.16737491
129	0x3ec11fe3	0.3771964
130	0xbf2d7fc9	-0.6777311
131	0x3e37afb8	0.17938125
132	0xbf16ba83	-0.58878344
133	0xbd9740cb	-0.07385405
134	0xbe105cd7	-0.14097916
135	0x3d5f5740	0.054526567
136	0x3f1ab3a4	0.6043036
137	0x3e6f6109	0.2337686
138	0x3e8f06f4	0.27934992
139	0x3e95ac57	0.29233047
140	0x3eb0a57e	0.3450126
141	0x3ee3a1a5	0.44459262
142	0x3def6f72	0.116911784
143	0x3dd3553c	0.103189915
144	0x3e331edc	0.1749224
145	0x3e10e5ae	0.14150116
146	0x3f60bf0b	0.8779151
147	0x3f1bd0c3	0.6086542
148	0x3e67ddf3	0.2264326
149	0xbeca32fe	-0.3949203
150	0xbe09e9f2	-0.1346815
151	0x3ebfb194	0.3744017
152	0x3eb7be93	0.35887584
153	0x3ec59e2b	0.38597235
154	0x3df9130e	0.121618375
155	0x3d3560bd	0.04428171
156	0x3f135f7d	0.5756758
157	0x3e1578be	0.1459684
158	0x3dd45f70	0.10369766
159	0xbd87d572	-0.06632508
160	0x3e7da1b5	0.24768718
161	0x3ce3083c	0.027713887
162	0x3ee4d9bc	0.44697368
163	0x3d64c157	0.055848446
164	0xbe3b16fc	-0.18270487
165	0x3ee3b75f	0.4447584
166	0x3eb93a5c	0.36177337
167	0x3e4d6797	0.20059048
168	0x3e816d6c	0.25278795
169	0x3e01a743	0.12661462
170	0xbc03f4c6	-0.008053964
171	0xbd840968	-0.064471066
172	0x3ee37f78	0.44433188
173	0x3e9f1248	0.31068635
174	0x3d1c0774	0.038093045
175	0x3e947447	0.28994963
176	0x3dc76cb3	0.097375296
177	0x3eb5441e	0.35403532
178	0x3dd7f118	0.10544032
179	0x3e666e68	0.22503054
180	0xbdc3cac1	-0.095601566
181	0x3dd9057a	0.10596748
182	0x3e992e23	0.29918012
183	0xbe0e6571	-0.13905884
184	0xbd40dc78	-0.047085255
185	0xbea26be5	-0.31722942
186	0x3e206c7d	0.15666385
187	0x3bf682df	0.0075229253
188	0x3dc302dc	0.0952203
189	0xbe35647f	-0.17714117
190	0x3e6d0bf8	0.23149097
191	0x3dec7ea5	0.11547593
192	0x3e078a44	0.13236338
193	0x3eda3522	0.42618662
194	0xbf250170	-0.6445532
195	0xbc96157c	-0.018320791
196	0xbe08e40a	-0.1336824
197	0xbef05b73	-0.4694477
198	0x3dd568ff	0.10420417
199	0x3e51debf	0.20495127
200	0x3f267db5	0.65035564
201	0xbe9e00a2	-0.30859858
202	0x3e88442a	0.26614505
203	0xbcfdde35	-0.030989746
204	0x3ec2b395	0.38027635
205	0x3d685465	0.05672111
206	0x3efbd7f0	0.49188185
207	0x3df342db	0.11877986
208	0x3e8019bc	0.25019634
209	0x3f03f2a0	0.5154209
210	0x3e2a8132	0.16650847
211	0xbe0b53e9	-0.13606228
212	0xbe551b5e	-0.20811221
213	0x3ecf1bc9	0.40450886
214	0x3cbc4bf4	0.022985436
215	0x3e96f7c0	0.29485893
216	0x3e997268	0.29970098
217	0x3e0fcae6	0.14042243
218	0x3f0025e8	0.5005784
219	0x3f261fa9	0.6489206
220	0xbb4bbe80	-0.0031088889
221	0xbddc1088	-0.107453406
222	0x3e1da481	0.15394785
223	0x3f0c7a41	0.54874045
224	0xbd914d0d	-0.070947744
225	0x3e4c1ec6	0.19933614
226	0x3ea725ca	0.32646018
227	0x3e750b6c	0.23930138
228	0xbcbe1630	-0.02320394
229	0x3d887ac2	0.06664039
230	0x3f2477ff	0.642456
231	0xbe5ad93c	-0.21371931
232	0x3ed0df6d	0.4079546
233	0xbddca78a	-0.10774143
234	0x3de6e25c	0.112736434
235	0x3eb869f2	0.3601833
236	0x3e8db34d	0.27675858
237	0xbdec932c	-0.11551508
238	0xbcfff9ed	-0.031247104
239	0x3f13ed0c	0.5778358
240	0x3e2e2a3c	0.17008299
241	0x3dca494e	0.09877263
242	0x3d95f03b	0.07321211
243	0x3d528d64	0.05140437
244	0xbe5b5c0b	-0.2142183
245	0xbdbbf596	-0.09177701
246	0x3ed32048	0.41235566
247	0xbef9d631	-0.48796228
248	0xbd335b6d	-0.043788362
249	0xbe59bc51	-0.21263243
250	0xbe796b6e	-0.24357387
251	0xbb969163	-0.004594968
252	0x3ee513b6	0.447416
253	0x3f014f03	0.5051119
254	0x3f4f9b0a	0.81095946
255	0xbf4fad51	-0.81123835

l5.bias f4 [85]
0	0x3f1cb776	0.6121744
1	0x3f6ec946	0.9327587
2	0x3f743d9b	0.954065
3	0x3f75d928	0.9603448
4	0x3faf0671	1.3673841
5	0xbf0a2f31	-0.5397826
6	0x3f0c9b0c	0.5492408
7	0x3eb6e533	0.3572174
8	0x3e82637d	0.2546653
9	0xbd0e700f	-0.034774836
10	0x3f88bd01	1.068268
11	0x3f09a7f3	0.53771895
12	0x3b57b963	0.0032916896
13	0x3f7acbf9	0.9796749
14	0x3f934fdb	1.1508745
15	0xbdd7fabf	-0.10545873
16	0x3f34191c	0.70350814
17	0x3f6ea1d6	0.9321569
18	0x3f9e40f2	1.236357
19	0x3e531c1d	0.20616193
20	0x3fabacea	1.3412144
21	0xbeac7b83	-0.33687982
22	0x3f836ee5	1.0268217
23	0x3f882ded	1.0639015
24	0x3fa21bcf	1.2664737
25	0x3db104ca	0.086434916
26	0x3f0fcc55	0.5617116
27	0x3f3e3c0d	0.7431038
28	0x3f0c75e9	0.54867417
29	0xbe85af44	-0.2611028
30	0xbf8b5a73	-1.0886978
31	0x3ebed0cb	0.3726867
32	0x3f4cc32f	0.79985327
33	0x3f76f657	0.96469635
34	0xbed22e83	-0.4105111
35	0x3e301910	0.1719706
36	0x3ec24437	0.3794267
37	0x3f870005	1.0546881
38	0x3f23925c	0.638952
39	0x3fc897ce	1.5671327
40	0x3fc1f416	1.5152614
41	0xbec79568	-0.38981175
42	0x3c1cae75	0.009563078
43	0x3f8b07f8	1.0861807
44	0x3edc0dec	0.42979372
45	0x3faa1726	1.3288314
46	0x3daae0a7	0.0834363
47	0x3f7d5263	0.9895384
48	0x3ed5c3ec	0.4175104
49	0x3c9625da	0.018328596
50	0x3f93e08a	1.1552899
51	0x3f9af9f6	1.2107532
52	0x3f14db2f	0.5814695
53	0x3d963d13	0.07335868
54	0x3f483d6c	0.7821872
55	0x3e24d22e	0.16095802
56	0x3f8dff2b	1.1093496
57	0x3d5b149a	0.053486444
58	0x3fadb710	1.3571491
59	0x3dc1f779	0.0947103
60	0x3ef0b118	0.47010112
61	0xbe28c6ec	-0.16482133
62	0x3fa46385	1.2842871
63	0xbd75bd4e	-0.05999499
64	0x3f25d171	0.6477271
65	0x3f39d9b8	0.7259784
66	0x3f5001fb	0.8125302
67	0xbec4ea98	-0.3846023
68	0xbd9e553a	-0.077310994
69	0xbd38586d	-0.045006204
70	0xbe39bece	-0.18139192
71	0x3f73475d	0.95030767
72	0x3c903dc8	0.017607585
73	0x3e2a90a4	0.16656739
74	0x3f5c49b5	0.8604997
75	0x3f1f7ffa	0.6230465
76	0x3f6544f1	0.8955832
77	0x3f1e1f1c	0.6176622
78	0x3e0f6dac	0.1400668
79	0x3f666ffa	0.9001461
80	0xbe8abe9e	-0.27098554
81	0x3f0c9722	0.5491811
82	0x3faf77c1	1.3708421
83	0x3f1110ba	0.5666615
84	0x3eb76950	0.35822535
