models/Others/model_PGNN_10000_1e-3.pt (torch, 127233 bytes, 12 tensors)

l1.weight f4 [189, 9]
000000 53 d0 b2 bc 31 9a 1d 3e 7c 76 20 3f ce bf 39 3d
       -0.021827852 0.1539085 0.6268079 0.045348935
000010 fd 11 03 c0 42 82 c2 3e 59 6d ab be 05 c3 22 3f
       -2.047973 0.37990004 -0.33481863 0.63578826
000020 5e 59 02 3d 57 59 2a 3b 9e f3 40 3f e1 7d 7d bf
       0.03182351 0.0025993192 0.7537173 -0.990202
000030 22 81 36 be 0f ca 89 bf b5 52 ff be 7e 6f 01 3e
       -0.17822698 -1.0764788 -0.49867788 0.12640187
000040 45 b7 f7 be 4c bc 1c 3e 73 13 a3 bb d0 81 7f be
       -0.4838201 0.15306205 -0.0049766838 -0.24951863
000050 1c 27 9d be 14 14 02 bf 4e 55 69 bf d7 9f 44 bf
       -0.306939 -0.50811887 -0.9114579 -0.76806396
000060 19 38 37 bf 4c d0 57 bf 6b 45 98 be 68 aa 8d 3b
       -0.71569973 -0.8430221 -0.29740462 0.0043232925
000070 39 99 01 3f 0d 1e 75 3f 9d 17 a3 be 04 41 59 bf
       0.50624424 0.9574898 -0.31853953 -0.8486483
000080 d3 10 df bd 32 d5 82 bf 12 40 02 bf 44 0e 36 bf
       -0.10891881 -1.0221312 -0.50879014 -0.7111552
000090 f0 5f 6c 3b 57 10 4a 3f 96 da 6c bf 40 f3 dc be
       0.0036067925 0.7893118 -0.92521036 -0.43154335
0000a0 12 3e a4 bc 16 23 30 bf 9c 42 3e bf e2 7a 96 bf
       -0.020049129 -0.68803537 -0.7432039 -1.1756251
0000b0 23 b3 b3 3d 97 66 3c 3c fe dc 9b bf 82 8b 38 be
       0.08774402 0.011499069 -1.2176816 -0.18021968
0000c0 86 ed a2 be a9 54 21 bf a8 9e 6f bf fb 2d 5b 3f
       -0.3182184 -0.63019806 -0.93601465 0.85617036
0000d0 06 d3 a2 be 4a f4 c1 bd 8f 26 91 bb db f0 26 bf
       -0.31801623 -0.094704226 -0.0044296454 -0.65211266
0000e0 b8 17 95 3f b6 94 05 bf 24 56 15 bf 9a b5 52 3f
       1.1647863 -0.5218004 -0.58334565 0.8230835
0000f0 48 37 32 bf 3a 0b 48 bd 73 78 fb bd e4 79 49 3a
       -0.696156 -0.04883883 -0.12278833 0.00076857046
000100 f8 4a a6 be f4 70 81 3f 79 31 55 bf 09 d9 b5 3e
       -0.32479072 1.0112596 -0.83278614 0.35517147
000110 17 a4 cc bf 29 ae 4b 3f 36 b4 38 be 0f 4a 09 bf
       -1.5987576 0.7956262 -0.18037495 -0.5362863
000120 53 47 ab ba 98 c5 0e be f1 f5 36 be 0c 82 47 bd
       -0.0013067521 -0.13942564 -0.17867257 -0.048708007
000130 0d b2 bd be a5 62 a0 bf 98 c4 3f 3f 11 38 ab 3f
       -0.37049904 -1.2530104 0.74909353 1.3376485
000140 52 62 6a be 02 d3 8a 3c 13 22 7d bc 51 52 53 3f
       -0.22889069 0.01694632 -0.015450018 0.8254748
000150 b3 44 13 bf 4c d5 08 3f 7a 41 9f 3e 37 79 a2 be
       -0.575267 0.53450465 0.31104642 -0.31733105
000160 09 49 24 3f 91 1b 4d bf 9b bd 9d 3d 92 62 fc be
       0.6417394 -0.8012019 0.0770218 -0.49293953
000170 c0 80 84 3f af 50 7f 3e bf 8b e0 be 4c 35 d9 bd
       1.0351791 0.24933122 -0.43856618 -0.10605869
000180 62 1b 0a 3f 49 d8 35 bf 32 6a 4c be ae 92 89 bb
       0.5394803 -0.7103315 -0.19962385 -0.004198394
000190 9d bf 07 3f d5 07 a2 bf 7c c3 fc bd 15 74 a9 3e
       0.53026754 -1.265864 -0.12341973 0.33096376
0001a0 72 4a 49 be 75 2c 6c 3d 2e 0e 1e 3f 63 df 90 3e
       -0.19657305 0.057659585 0.61740386 0.2829543
0001b0 d2 ee 3c 3d 83 d2 8e 3e 52 60 50 bf 5a d1 07 3f
       0.046126194 0.27894983 -0.81396973 0.5305382
0001c0 84 2d 89 3e 5f cd 5a 3e 90 ea 0f bf 2b d2 9f bf
       0.26792538 0.21367405 -0.5621729 -1.2486013
0001d0 13 6f ef 3d 22 d0 3f 3b c2 c9 c8 3e 6a 41 46 bf
       0.116911076 0.0029268344 0.3921643 -0.77443564
0001e0 ca bc b8 3b 9f 9b 52 3d 72 5b 72 bf c7 57 9f 3e
       0.00563774 0.051417943 -0.94670784 0.31121656
0001f0 5e da 90 bf 04 c4 9d 3e 72 27 50 3b b1 83 d3 be
       -1.131664 0.3081361 0.0031761792 -0.4131141
000200 ac 16 13 3f 93 9e e6 be 3e 40 70 bf e2 fe 0f bf
       0.5745647 -0.45042858 -0.93848026 -0.56248295
000210 27 42 13 3f 70 8c 50 bf a0 86 93 bd 81 47 a9 3a
       0.57522815 -0.8146429 -0.07203412 0.0012914987
000220 51 bf 2f bf 9d 66 9a bf a6 d9 b4 3e 3f cd 93 3e
       -0.686513 -1.2062565 0.35322303 0.28867528
000230 63 77 43 bf e1 2d 0e bf f0 10 d1 be f8 35 3c be
       -0.76354045 -0.55538756 -0.40833235 -0.18379962
000240 b4 a0 e6 bb 20 6f 61 bf c4 08 8d bf fe 46 48 be
       -0.0070382003 -0.8806019 -1.10183 -0.19558331
000250 99 94 2c 3f 17 3d 9e bd fc b4 37 bf 3d f9 07 be
       0.6741424 -0.07726496 -0.71760535 -0.1327867
000260 6d 23 00 3f 40 b0 3d 3c 5b 68 55 3f d4 51 24 3e
       0.50054055 0.011577666 0.8336236 0.1604684
000270 1b 72 00 be 79 c5 74 bd 8d 21 2d bf 69 0b b3 bf
       -0.12543528 -0.059758637 -0.6762932 -1.3987857
000280 ee b4 a6 bf b6 33 cd be b3 12 48 ba ff 09 62 bd
       -1.3023965 -0.40078515 -0.0007632181 -0.055185314
000290 2d 8e 56 bf bc bd 7d 3d 80 fb 4a 3f 11 d3 b5 bf
       -0.83810693 0.061948523 0.7929001 -1.4205037
0002a0 87 f5 ce 3d f4 54 39 be 52 c6 1a 3e e1 b9 44 bb
       0.101054244 -0.18098813 0.15114716 -0.003001802
0002b0 9d 00 82 3e 37 82 6a 3f b9 3c 13 bf f2 ae f1 bd
       0.25391093 0.9160494 -0.5751453 -0.11800946
0002c0 d3 9a 90 3f ee 87 58 bd cc 84 15 bf d8 8d 67 be
       1.1297249 -0.052864008 -0.58405757 -0.22612703
0002d0 77 87 0b bd 9a 56 88 bf ad b4 9e be 57 44 5d 3f
       -0.034064736 -1.0651429 -0.3099722 0.86432403
0002e0 03 d8 e3 bf 31 91 aa bf d5 52 af be 92 61 c0 3d
       -1.7800297 -1.3325559 -0.34242883 0.0939361
0002f0 23 65 a8 3d dd 14 b5 bb 95 6d fc be 9f 34 94 3e
       0.08222415 -0.0055261687 -0.49302354 0.28946397
000300 2d 65 8d 3f 15 db 1a be 25 33 a1 bf 18 db 29 bf
       1.1046501 -0.15122636 -1.2593733 -0.66349936
000310 f3 af 31 bf bc 70 4d be ad 5b 13 3c e9 7c 60 bf
       -0.694091 -0.20062536 0.008994025 -0.876906
000320 fc 42 93 bf 35 89 bd be ec 4b 8f bf e6 c0 99 be
       -1.1504817 -0.37018743 -1.1195045 -0.30029982
000330 73 d4 66 be 68 fb 0d be b8 21 b4 3e 81 f9 c4 3b
       -0.2254198 -0.13865435 0.35181975 0.0060111885
000340 94 2d 10 bf 68 a5 0e bf 77 47 95 3e e6 7e 64 3f
       -0.56319547 -0.5572114 0.29156086 0.8925613
000350 98 47 74 bf 93 df 8b 3f 6d 8b 1f bf c0 a3 4a 3f
       -0.95421743 1.0927604 -0.6232212 0.7915611
000360 ba 38 3c bb 0b 4e 50 3e a0 e6 f9 3d 8b 81 f8 bc
       -0.0028720335 0.20342271 0.12202191 -0.030335208
000370 61 03 2e bf 47 da 6a bf 24 01 7c be 42 be a0 3e
       -0.67973906 -0.91739315 -0.2460981 0.31395155
000380 3e 57 56 bf 94 7e 1d 3b d3 b7 0c 3f 5e 3b 8c bf
       -0.8372687 0.0024031745 0.54967993 -1.0955617
000390 f5 83 7f be 04 7c 8d bf 86 77 88 be 78 19 43 3f
       -0.24952681 -1.1053472 -0.2665369 0.7621074
0003a0 b6 33 0b 3f 94 3a 89 3e c3 61 5a bc 7c 20 6e bf
       0.5437578 0.26802504 -0.013328972 -0.9301832
0003b0 f6 c1 8b bf 83 7d d1 be ec 25 c7 3e 67 d7 10 3f
       -1.0918567 -0.4091607 0.3889612 0.5657868
0003c0 05 ce fb be 05 c4 13 bf 93 cf f1 3e 2d f5 81 3c
       -0.49180618 -0.5772098 0.4722868 0.01586398
0003d0 d0 4e 79 bf ac 57 51 3f c2 87 ed be b1 c9 ae 3d
       -0.97385883 0.817744 -0.46392637 0.08534563
0003e0 2a 9b 83 bf 12 cf c2 bc d3 fd 34 be 72 65 23 bf
       -1.0281727 -0.02378038 -0.17674951 -0.6382667
0003f0 b7 3b 4a 3c 37 61 e2 3e e7 a8 48 3f df a3 b4 be
       0.012343339 0.44214794 0.78382725 -0.35281274

l1.bias f4 [189]
000000 15 b8 0a bf 5f 85 bd 3e 7d 96 b6 bd d8 ca 5b be
       -0.54187137 0.37015817 -0.08915422 -0.21464097
000010 9e 33 96 3e 71 8d a3 3d b0 4c ce 3d 91 a6 7f 3e
       0.29336256 0.07985962 0.10073221 0.24965884
000020 c2 4f 7e 3e 8c 54 19 bf 30 25 04 bf 1f 1f c9 3e
       0.24835113 -0.59894633 -0.51619244 0.39281556
000030 7e 84 e5 bd eb 36 6d 3e d1 1c dc bd 45 1f 0f bf
       -0.112069115 0.23165481 -0.10747684 -0.5590709
000040 4a 72 7e bd 4c 4a 55 3e 06 5f 15 3e 59 ee a9 3d
       -0.062120713 0.20829123 0.1458703 0.08297414
000050 d5 50 23 be a1 7b e6 3d 83 5d 47 be ba 8b c0 bd
       -0.15948804 0.11254049 -0.19469266 -0.09401651
000060 dc 7d fe be f2 d7 a9 3e d5 0e da bd c3 c0 00 be
       -0.49705398 0.33172566 -0.1064736 -0.12573533
000070 eb cf ce be 5a 55 9c be 77 48 eb be c5 93 08 3e
       -0.40393004 -0.30533868 -0.45953724 0.1333762
000080 e7 e3 ff 3e 29 7e 5d be d3 45 f7 bd 74 c2 47 bd
       0.49978563 -0.21630158 -0.12073865 -0.04876943
000090 44 c3 92 bd 31 e5 ce be 5f 17 23 3d 2c a0 db be
       -0.0716615 -0.40409234 0.03981721 -0.4289564
0000a0 61 fc 12 3f 2b ae 2f bc 96 1c fd bd 05 96 c4 bd
       0.5741635 -0.010722677 -0.12358968 -0.095989265
0000b0 d3 c9 e1 3e 1e c6 4b 3e b8 13 02 3e 4c 0f 27 be
       0.44099292 0.19899794 0.12702835 -0.16314429
0000c0 7e 53 4d be 7c 17 da 3e cd 0a 4a be e2 98 86 3d
       -0.20051381 0.42596042 -0.19730683 0.06572129
0000d0 56 27 28 be 40 0a ee be 0c b1 0a bf 33 f5 6e 3e
       -0.16421255 -0.46492195 -0.541764 0.23335724
0000e0 fb 31 79 3d 7c 31 09 be f0 d2 70 be 0e 51 17 3f
       0.06083868 -0.13397783 -0.23517966 0.59108055
0000f0 25 06 e0 be 4b 4f 8c bd dc d7 6d be e0 00 89 be
       -0.43754688 -0.068510614 -0.23226875 -0.2675848
000100 3b 78 d3 bd 64 59 90 bc 84 d7 86 be 81 14 4d 3a
       -0.103256665 -0.01762075 -0.263363 0.0007823185
000110 57 1f f2 bd c7 d1 3a 3e b9 27 28 bf a1 6a 9c bd
       -0.11822384 0.18244086 -0.6568561 -0.07637525
000120 78 1a 67 be 13 27 06 be 57 ef b1 bd 8c 96 c1 bd
       -0.22568691 -0.13100843 -0.086882286 -0.09452543
000130 75 1c 9d 3d 20 73 96 3e 41 64 37 bd 3d 96 5b 3e
       0.076714434 0.29384708 -0.044773344 0.2144403
000140 b8 c4 d9 bc 33 fd e3 bd cc 92 ca bd 85 bc dc 3e
       -0.02658306 -0.11132278 -0.098912805 0.4311258
000150 59 a3 08 3e c9 ed 9c 3d a7 e0 f2 3e d0 d3 40 be
       0.13343562 0.076625414 0.4743702 -0.188308
000160 a5 54 c0 3e c5 b6 32 3d a0 65 57 3e c8 82 41 be
       0.3756458 0.043631334 0.2103486 -0.18897545
000170 5d 89 00 be 7e 9b a9 be 4f cf 1f be 9d d8 aa be
       -0.125524 -0.33126444 -0.15606426 -0.33368388
000180 ee 70 a0 be b6 c0 b7 3e 18 ec 6e be 82 e1 0b bd
       -0.3133616 0.35889214 -0.2333225 -0.034150608
000190 f5 2e 5c be 5e e5 83 3e b6 c7 ae 3d 47 e2 3e be
       -0.21502288 0.2576093 0.085341856 -0.18641005
0001a0 82 98 a1 3d ef 77 11 bf 09 cf f4 bd 5e ed 33 bc
       0.07890417 -0.5682363 -0.11953551 -0.010981886
0001b0 c6 ae 86 3e 80 f8 29 bb 64 31 f8 bd ad b0 9e 3d
       0.26305217 -0.002593547 -0.121187955 0.07748542
0001c0 8c 5f b3 be 4f a6 a8 be bf 93 a4 3d 13 44 7f 3e
       -0.35033834 -0.32939383 0.08035993 0.24928312
0001d0 42 41 13 3e 13 97 d5 3e ab f3 e0 3e d5 31 e6 be
       0.14380363 0.41716823 0.43935904 -0.44959894
0001e0 91 03 ba 3d 19 da 44 bf 77 81 ad be 2a d2 8e 3e
       0.090827115 -0.7689529 -0.33887836 0.27894717
0001f0 76 76 1e be 80 08 ca bd b7 26 a1 3b fe 88 73 3c
       -0.15474877 -0.098649025 0.0049179452 0.014864204
000200 78 dc 83 3e cf d1 6e 3e 7d c6 08 be f7 26 b8 be
       0.25754142 0.23322223 -0.13356967 -0.35967228
000210 6c e4 b5 3c 3a 8f 12 3e e4 d8 14 3d 35 1f a7 bd
       0.022203647 0.14312449 0.036339656 -0.08160249
000220 3a 60 ed bd c5 76 ff bd 87 2e 49 be 69 25 99 be
       -0.115906194 -0.12473825 -0.19646655 -0.29911354
000230 44 fa 8e be b7 f3 54 be 83 26 24 be 26 6a 1d 3e
       -0.27925313 -0.20796095 -0.16030316 0.15372524
000240 cf cd 71 bd b0 65 03 be 98 96 1b be 6f fd 1e be
       -0.059034165 -0.1283176 -0.15194166 -0.15526365
000250 8c fa de be f7 74 c6 be 1f 43 cd 3e 43 a7 eb 3e
       -0.43550527 -0.38761112 0.40090272 0.46026048
000260 0d ef 55 bc 0b c9 40 3e 27 45 c6 3d c9 c7 cf be
       -0.013057482 0.18826692 0.096811585 -0.4058211
000270 6b 99 9a 3e 7f 64 81 3d d4 ac c7 bc 05 79 ce be
       0.30195174 0.06317996 -0.024374403 -0.40326706
000280 c5 7c ae 3e 07 f7 85 bd ef 2b 20 be 2a 1b c8 be
       0.34079567 -0.06541257 -0.1564176 -0.39083225
000290 9c d9 f7 be c2 a0 0b 3f 0e c3 ca 3e 36 49 63 3e
       -0.4840821 0.5454217 0.3960194 0.22195897
0002a0 c1 61 eb 3e 4e de 2c bf 18 0b 32 3e dd d7 c9 3e
       0.45973018 -0.6752671 0.17387044 0.39422503
0002b0 14 49 e8 bd 23 4e f2 3d d4 b7 8f bd 79 cf ec bd
       -0.113420635 0.1183131 -0.07017484 -0.1156301
0002c0 83 e7 41 bd 8a fe 02 bf a2 c1 73 3e ca 50 47 be
       -0.047339927 -0.51169646 0.23804334 -0.19464412
0002d0 70 ff 17 3e 2a 13 ef be 10 8b df be 60 28 92 be
       0.14843535 -0.4669431 -0.43660784 -0.2854643
0002e0 b9 3c 5e 3e d2 83 e0 3e eb 37 e6 be 91 db f8 be
       0.21702851 0.4385057 -0.44964537 -0.48605016
0002f0 9f 5f f4 3d
       0.11932301

l2.weight f4 [119, 189]
000000 4a 5a 25 be 61 64 2b be 92 5f a2 bd 79 48 8e bd
       -0.16147724 -0.1673751 -0.07928385 -0.06947417
000010 9f 1e 72 bd 30 0b 3c be 67 96 6c be fd c1 38 be
       -0.059111234 -0.18363643 -0.23104249 -0.1804275
000020 ca 96 da be 96 25 6b be 4f 97 68 3d 32 58 11 bd
       -0.42693168 -0.22963557 0.056784924 -0.0354845
000030 ee ab b2 3d c2 47 1e 3e 11 84 25 be a8 3d 8d 3c
       0.08724199 0.15457061 -0.1616366 0.017241314
000040 0f 8e 10 bd b9 38 e2 3d ff 98 93 3d 23 98 2e be
       -0.035291728 0.11045975 0.07206916 -0.17050223
000050 db a3 86 be d1 d0 27 3e 30 cb 5c be 41 2a 1f 3e
       -0.26296887 0.16388251 -0.21561885 0.15543462
000060 3b fd f1 bd 43 50 c2 bd fd f7 67 3c 3a e9 0a be
       -0.11815878 -0.09487965 0.014158246 -0.13565531
000070 26 89 88 bd 12 3b d7 3c 51 8f 89 be 00 95 89 be
       -0.06666784 0.026273284 -0.26867154 -0.2687149
000080 2a 9b 0f bd 61 3b 23 be cd b0 58 3e 7b 75 ae bc
       -0.035060085 -0.1594062 0.21161194 -0.021296253
000090 ce 3d d8 bd 0b c0 40 bb 2c 5d 2d 3e 99 da fc bd
       -0.10558663 -0.0029411342 0.16930073 -0.12346382
0000a0 56 33 0f bd 9f a9 8e bd ed 3a b4 bd bb 59 54 be
       -0.034961067 -0.069659464 -0.08800302 -0.20737354
0000b0 3c 93 ae bd 48 fd 81 be 52 a9 5d bd 82 62 0c be
       -0.085241765 -0.2538855 -0.054116555 -0.13709453
0000c0 87 41 9a bd 38 38 e5 be 09 17 4a be e5 9c e2 3d
       -0.075320296 -0.44769454 -0.1973535 0.110650815
0000d0 a8 2a bb bd b9 fa 24 bd d8 c8 11 be 4e a0 ff 3d
       -0.091389954 -0.04027817 -0.14236772 0.124817476
0000e0 c5 e7 59 3d 24 2e 5f 3d 55 97 32 bc e0 db 41 bd
       0.05319955 0.054487363 -0.010900338 -0.04732883
0000f0 8d 83 13 be be 56 d8 3d 1b ca 89 bd 74 c3 0a 3e
       -0.14405651 0.1056342 -0.06728002 0.13551122
000100 6e de 88 3d 5f 8e 08 be 9f d8 f5 3c 32 b3 9e bd
       0.0668305 -0.1333556 0.03001052 -0.077490225
000110 67 a5 94 bd df 29 a0 3d 19 6a 36 bf 2a 7c 07 be
       -0.072581105 0.07820486 -0.7125564 -0.13230959
000120 eb d2 47 3c d3 25 c7 3d af b2 c3 bd 0f 1b 06 3e
       0.012196283 0.09724011 -0.095555656 0.1309626
000130 0c d5 f6 3d 46 aa 66 3d 2f 95 16 be f2 57 14 3e
       0.12052354 0.05631473 -0.14705347 0.14486673
000140 1a 24 b6 bd 84 06 5a 3d fb 6d 5e be ee a5 b5 bc
       -0.088936046 0.05322887 -0.21721642 -0.022173848
000150 3d 6c 01 bd 40 10 5d be 12 56 23 be 50 04 47 be
       -0.031597365 -0.2158823 -0.15950802 -0.19435239
000160 ce 46 a3 be 51 05 60 3d 26 3f 76 3c ec cf bd bd
       -0.31889957 0.05469257 0.015029704 -0.092681736
000170 ea ed e4 3c bf c5 46 be d6 33 c3 bd 9f e4 62 bd
       0.027945478 -0.19411372 -0.09531371 -0.05539381
000180 a7 f1 28 3e c1 cb 86 3e 97 ac 3c 3d 9e 1f e4 3d
       0.16498433 0.26327327 0.046063032 0.11138843
000190 e3 06 3f bd 2b 19 12 be 7e b2 c6 3c 68 f0 fa bd
       -0.046637427 -0.14267413 0.024255034 -0.12252885
0001a0 25 a6 19 be 6a 93 bf be b3 1a 02 be 73 45 90 bd
       -0.15004785 -0.37417156 -0.12705497 -0.070444964
0001b0 52 31 5f 3d 69 cd 89 3d 60 cd 22 3e 47 28 2a 3e
       0.054490395 0.06728632 0.15898657 0.16616927
0001c0 aa 63 3a be 35 75 63 bd 98 88 3a bb e6 9d 1d be
       -0.18202081 -0.0555317 -0.0028462764 -0.15392265
0001d0 ed ef 5b bc bd 07 9b 3e b2 56 45 be 0b d1 68 bd
       -0.013423902 0.3027934 -0.19271353 -0.056839984
0001e0 56 5b bb 3c b2 97 9d be 44 25 0b be 34 a2 2f bd
       0.0228707 -0.30779797 -0.13588434 -0.0428793
0001f0 8b 54 8b 3c da c6 1b bd 88 e1 21 bd 46 61 15 3e
       0.017008087 -0.038031437 -0.039521724 0.14587888
000200 34 07 85 bd 49 3f 33 be 59 8e 9f 3e 14 84 f2 3c
       -0.064955145 -0.1750461 0.3116329 0.029603995
000210 fd fc 33 be 37 93 47 be 85 1c 4c 3d a8 b2 84 3d
       -0.17576976 -0.19489752 0.049831886 0.064793885
000220 bf 36 51 3d c4 20 40 be c1 60 9b be 0c f1 97 be
       0.0510776 -0.18762499 -0.30347255 -0.29676092
000230 f3 f7 a2 3c 4a 8a 34 be 32 44 07 be f8 8d 9d bd
       0.019893622 -0.17630878 -0.13209608 -0.07693094
000240 94 d1 38 be e4 8a ae bd cf 21 22 be 3a c3 44 be
       -0.18048698 -0.08522585 -0.1583321 -0.19215098
000250 d5 4e 60 be eb 86 c7 be 77 27 4f be 94 5e e2 bb
       -0.21905072 -0.38970122 -0.20229898 -0.0069082472
000260 69 4f 06 be 4e 48 96 bd 44 77 50 3c f2 3f 9b bd
       -0.1311623 -0.0733801 0.012723748 -0.07580556
000270 4a a7 9c be 72 08 13 3e db dd d0 3e c4 09 23 3c
       -0.3059638 0.1435869 0.40794262 0.009951059
000280 be 9c ac bd d7 a6 00 be b1 8a a8 be e3 c2 b8 bd
       -0.08428334 -0.12563644 -0.32918313 -0.09021547
000290 f4 3b fc b9 ed 34 64 bd bf 79 2f bd 74 39 80 bd
       -0.00048109854 -0.055714536 -0.042840715 -0.06260958
0002a0 57 ba e4 3d 7a 01 40 be 65 8f b8 3c c5 cd 38 3e
       0.11168354 -0.18750563 0.022529313 0.18047245
0002b0 af 05 44 bd ad 08 d6 bd 40 ae 92 bd 94 52 e2 3c
       -0.047856983 -0.104508735 -0.07162142 0.027627267
0002c0 85 fe 0c be 49 f1 d3 bc b9 e3 2c be a1 59 96 be
       -0.13768966 -0.02587189 -0.16883744 -0.29365256
0002d0 b9 a1 8b bd 72 5e 89 be 01 54 69 be 0c 7b 1f be
       -0.068179555 -0.2682987 -0.22785951 -0.15574282
0002e0 21 4a 64 bc 29 f4 25 be bd a5 17 be c5 1d bb be
       -0.013933689 -0.16206421 -0.14809318 -0.3654615
0002f0 db 2b 26 3e 64 9e 08 bd 94 d5 95 bd 8a 91 06 3e
       0.16227667 -0.033354178 -0.073161274 0.13141456
000300 df a0 aa 3e 40 19 61 3e 7e 01 7a bc eb 1b c5 bd
       0.3332586 0.21982288 -0.015259145 -0.096244656
000310 43 b1 fc bd 73 d1 83 bd 55 5f d1 3d 93 78 3e be
       -0.123384975 -0.06436434 0.10223261 -0.18600683
000320 fc c1 74 3d 93 ce 31 be 4b a2 08 3e 77 ea 2f 3c
       0.05975531 -0.17363958 0.1334316 0.010737053
000330 27 a1 e0 be a6 16 0e 3e 1e 35 f0 3e ee 6c 0c 3e
       -0.4387295 0.13875827 0.46915525 0.13713428
000340 55 45 90 be 03 dd b4 3d 50 a3 37 3e 8d 68 14 bd
       -0.28177896 0.08831217 0.17933393 -0.03623252
000350 cf c3 cc 3c f0 d0 be bb 8a f3 92 bd b7 5e 44 3d
       0.024995713 -0.005823247 -0.07175358 0.04794189
000360 4e d8 c1 be d8 06 08 3e a7 4d e9 bd 15 20 5c 3d
       -0.3786034 0.1328386 -0.11391764 0.053741533
000370 bf e8 8e 3e 02 70 13 3e dc ee 22 3d b3 1e 96 3e
       0.27911946 0.14398196 0.039778575 0.29320297
000380 b8 0b b1 3d 86 74 c6 3d 02 4a 4b be 32 32 8b bd
       0.08644813 0.09690194 -0.1985245 -0.06796683
000390 31 54 58 3d b1 a0 2c 3e bb 9d 40 3e 45 2e 04 3e
       0.052814666 0.16858174 0.1881017 0.12908275
0003a0 7d 73 1e 3d 20 db 60 3e 70 cf 0d 3d 72 5c 36 3e
       0.038684357 0.2195859 0.034621656 0.17808703
0003b0 70 e2 8a bd e2 04 6e 3e 90 eb 0a bd 3a a0 56 bf
       -0.06781471 0.2324405 -0.033916056 -0.83838236
0003c0 d0 07 dc 3d b8 e7 35 be 7d e4 2f bf 9d 69 ff 3c
       0.107436776 -0.17764175 -0.6870802 0.03117829
0003d0 a3 2a 37 3e b3 60 41 3e e9 4c 3d 3e 63 8e 64 3e
       0.17887358 0.18884544 0.1848637 0.22319941
0003e0 f2 eb cf 3d 8b cb cc 3b 0f 3e 91 bb 32 93 00 3e
       0.10152425 0.00624985 -0.004432447 0.1255615
0003f0 32 7b af 3d dd 99 0a bd 81 87 53 3e 71 1d 56 3d
       0.085684195 -0.03383814 0.2065716 0.05227417

l2.bias f4 [119]
000000 ac 6e b9 bd 20 a1 95 3d 00 b3 91 be f4 b9 a6 bd
       -0.09054312 0.07306123 -0.2845688 -0.081409365
000010 43 41 68 3d 90 d4 53 bd 87 2f 6f bd 53 ca 2a 3d
       0.056702863 -0.051716387 -0.058394935 0.041696858
000020 0b 83 87 3c 82 f2 1b 3e 5e 6a 27 3e d1 c7 eb bd
       0.016541978 0.15229228 0.1634917 -0.11512721
000030 ec 2e a1 bd 30 49 0f 3c 29 5a 53 3d 61 d9 7d 3d
       -0.07870278 0.008745477 0.051599655 0.061974887
000040 a9 42 dc bd 48 8a 18 3e e5 e6 7a bd bb dc 9a bd
       -0.10754902 0.148965 -0.061255354 -0.07561632
000050 8b d6 26 bd ef 69 82 3d 0f 92 ca 3b f3 1b ad bd
       -0.040731948 0.063678615 0.0061819623 -0.084525965
000060 01 c4 9e 3c d4 85 29 38 b2 f3 19 bd 22 14 78 be
       0.019380571 4.0417377e-05 -0.03758592 -0.2422643
000070 af 3d 8d bc 5c d2 ce 3b 39 a3 31 3d 9c b1 84 bd
       -0.017241327 0.006311698 0.043368552 -0.06479189
000080 58 0b 50 3d 59 9a 54 be dd fc 2e bd d3 ef fa 3d
       0.05079207 -0.20762004 -0.042721618 0.12252774
000090 d2 d6 be bd f4 d0 06 be 43 50 25 3d a5 1c 39 3e
       -0.093183175 -0.13165647 0.040359747 0.18077333
0000a0 e9 69 04 bc 41 38 ca bd eb 81 76 3a 83 ea f5 3d
       -0.008081892 -0.09874011 0.00094035146 0.1200762
0000b0 59 50 9d bc 48 6e 0a 3e 7e 22 40 bc 9d 0e d2 3b
       -0.019203352 0.13518631 -0.011726974 0.0064104334
0000c0 ea 0e aa 3d 89 bc 17 3e f7 4d d0 3d 90 4a 6d 3d
       0.08303626 0.14818014 0.101711206 0.057932436
0000d0 09 ce 05 bd 86 93 a7 bd 8d af 07 be 83 62 4a bd
       -0.032667194 -0.08182435 -0.13250561 -0.049410354
0000e0 d7 60 25 bd f5 4b ba 3c 60 5d c9 3d 20 61 2d bd
       -0.040375557 0.022741297 0.09832263 -0.042328954
0000f0 92 a7 6e 3d 92 66 41 3e d4 20 01 3d 7d 46 26 bd
       0.058265276 0.18886784 0.031525448 -0.040594567
000100 22 c0 03 bd 35 d1 91 3d 9a bb 4c bc 58 55 89 3c
       -0.032165654 0.07119981 -0.0124959 0.016764328
000110 02 c3 d1 bd 44 4c 51 3d 6e 71 7e 3d 43 ba 31 3d
       -0.10242273 0.051098123 0.062119894 0.043390524
000120 aa f2 cc 3c 0b e3 f7 3a a6 ff 40 3d 41 30 30 3d
       0.025018055 0.0018912269 0.047118805 0.04301477
000130 40 86 e8 bb 2a 8d ca bd 94 f8 98 bd 2e d4 3e 3d
       -0.007096082 -0.09890206 -0.074692875 0.04658907
000140 c5 66 99 bd 36 f4 af 3c 8e 3e 62 3d 3b 63 4f 3b
       -0.07490305 0.021478754 0.055235438 0.003164484
000150 e4 ed 21 3d a7 9d fe bc 20 d6 31 3d bf 96 4b 3e
       0.03953351 -0.031081034 0.043417096 0.19881724
000160 a1 b0 b8 bd 5b ac 96 bc 43 20 0c bd f7 50 bc bd
       -0.09018064 -0.018392732 -0.034210455 -0.0919513
000170 cd 21 06 bd a4 f9 a4 3d ba 78 df bd fc 42 9b 3b
       -0.03274708 0.08055428 -0.10911699 0.00473821
000180 51 8a 37 bd 1f 36 1e 3e 09 78 85 3d 12 fb 3b 3e
       -0.044809643 0.15450333 0.065170355 0.18357494
000190 2a 99 f2 3d c8 94 6b bd 41 98 0c 3b 80 29 b3 bd
       0.1184562 -0.057514936 0.0021453055 -0.0874815
0001a0 ae b8 d6 bc 67 5c 6d 3d 25 f2 94 bc 2c bc 42 bb
       -0.026211109 0.05794945 -0.01818187 -0.002971421
0001b0 00 ac 41 bc 82 23 20 3d 8f 6d 48 3d 6e e1 89 bc
       -0.011820793 0.039096363 0.04893261 -0.016831126
0001c0 52 59 5e 3d 4b f3 08 bd 39 b4 ae 3b 8a 22 26 3c
       0.0542844 -0.033435147 0.005331543 0.010140071
0001d0 13 9c ef bc 66 4a d3 bc d8 b3 03 be
       -0.029249227 -0.025792312 -0.12861574

l3.weight f4 [9, 119]
000000 46 e9 d1 3c 98 db 25 3d e8 a1 c5 3a 19 d9 2b 3d
       0.025623929 0.040492624 0.0015078159 0.041955087
000010 8f 39 77 3e 43 a8 5f 3d fe 6e 49 3e aa 69 fb bd
       0.2414305 0.054603826 0.19671246 -0.12276013
000020 b2 19 c8 bc 74 48 ba be 88 45 eb be 22 d3 78 bd
       -0.024426315 -0.36383402 -0.45951486 -0.060748227
000030 2a 98 44 be 31 11 a7 3d 7a 16 82 bd ab 69 94 be
       -0.19198671 0.08157576 -0.06351943 -0.28986868
000040 ed 1f 90 be 31 69 3a bf bd 93 6d 3e df 24 2f 3d
       -0.28149357 -0.7281676 0.23200889 0.042759772
000050 b1 67 76 bd 02 37 1a be da 86 d0 bd e2 2a 56 3c
       -0.06015748 -0.15060046 -0.10181971 0.0130717475
000060 91 8c 2e bd 92 ba 4c 3d a4 b3 0b 3d 2f 49 d2 bd
       -0.042614523 0.049982615 0.034106866 -0.10267865
000070 81 3a f3 bd 2b 64 a6 bc 6a 88 4b be 94 cb f2 bd
       -0.11876393 -0.020311436 -0.19876257 -0.11855236
000080 5f 5e f3 3b 1e 61 ea 3c 17 e0 fc bd c8 13 3a 3e
       0.0074270214 0.028610762 -0.12347429 0.18171608
000090 c4 60 9d 3d cc 63 bc 3d 4c f6 c4 be 94 36 60 3e
       0.07684472 0.09198722 -0.3846916 0.2189582
0000a0 8e ab 4b 3e 3e a6 d4 3d 62 77 4d 3e ed cc 6d 3e
       0.19889662 0.10383271 0.20065072 0.23222704
0000b0 9c e8 7f bd b6 ee b2 3d d3 72 77 be 9c 8b ab 3e
       -0.062477693 0.08736937 -0.24164896 0.3350495
0000c0 4e 8f b4 3c 2f 5c 41 be e6 33 3e be 11 48 10 3c
       0.02204099 -0.18882822 -0.18574485 0.0088062445
0000d0 da 22 9c bd 73 07 11 bd 58 2f 55 3e 0c d3 40 be
       -0.07623835 -0.035407495 0.20818841 -0.18830508
0000e0 30 2d 81 3e 38 6c bf bd 61 b5 14 be 93 d9 fe 3d
       0.25229788 -0.09346813 -0.14522316 0.12443843
0000f0 40 c8 f5 3b 54 82 9d 3d d4 74 de be dd 59 01 be
       0.0075006783 0.07690874 -0.43448508 -0.12631936
000100 d3 b4 99 bd 93 0d b9 3e 62 bf 6d be eb 69 da bc
       -0.075051926 0.3614317 -0.23217538 -0.026661834
000110 aa b0 b1 bc ba fa a4 3d c6 0e 9b 3d a9 e3 21 bd
       -0.021690685 0.08055635 0.07571177 -0.039523754
000120 29 c8 8b be 86 f2 4d be 31 05 80 be d2 f8 64 be
       -0.27301148 -0.20112047 -0.2500396 -0.22360542
000130 2e fa b5 be 63 df 51 be 0a 9a b0 bd a8 59 38 be
       -0.35542434 -0.20495372 -0.086231306 -0.18002951
000140 e9 86 61 be c3 85 07 3d 93 6a c1 bd 9b be 80 bd
       -0.2202412 0.03308655 -0.094441555 -0.06286355
000150 9f 6d 6a 3e 4c 37 fe bb 06 84 55 be e5 0e 20 be
       0.2289338 -0.0077580567 -0.20851144 -0.15630682
000160 5b c4 36 3e bc 45 3c be e7 52 7e 3e 46 6d 14 3d
       0.17848341 -0.18385977 0.24836312 0.036237024
000170 f4 86 c5 3d 4e ea 37 3e bd 14 70 3e 04 89 a1 3e
       0.09644881 0.17960474 0.23445411 0.31549847
000180 d0 53 85 bd ca 5b a2 3d 5e 2d 4c be ba 3d 7c be
       -0.065101266 0.079276636 -0.19939181 -0.24632922
000190 7b 06 43 3e 8a 6a 3c be 95 86 46 3e 50 12 e7 bd
       0.19045441 -0.18400016 0.19387276 -0.1128279
0001a0 1f 65 3f bd 67 da b4 3e 60 09 6d 3e fb 37 2f be
       -0.046727296 0.35322878 0.23148108 -0.17111199
0001b0 38 3c 5c be 50 e0 01 3e 77 d6 db 3d af ab 78 3e
       -0.21507347 0.12683225 0.10734265 0.24284242
0001c0 b9 8c 5c 3e 08 05 cf 3d bb 30 0d 3e b3 9c 4e be
       0.21538056 0.101083815 0.1378812 -0.20176964
0001d0 d2 50 78 3c 1c 79 6c 3e 63 b9 c6 bd d9 a9 8b 3d
       0.015155988 0.23093075 -0.097033285 0.06819505
0001e0 64 b0 e3 3b 4d 49 da be e1 bc 0a 3e 84 c7 34 3e
       0.0069485176 -0.4263405 0.13548614 0.17654234
0001f0 ff 0b 9a be 56 74 89 3e 25 c2 06 be dc 67 8d be
       -0.30087277 0.2684657 -0.13159998 -0.276183
000200 82 b6 94 bd 1a a5 dc be 58 39 7f 3e 9f 28 b7 3d
       -0.07261373 -0.43094712 0.24924219 0.08943295
000210 9c db ed bd bf ac 07 bb 04 7e 11 be 4f a2 bf 3d
       -0.11614153 -0.002070233 -0.14208227 0.0935713
000220 1c b5 e5 be d8 ea 4c 3e ce fa 06 3e b0 d1 2c 3d
       -0.44864738 0.20011461 0.13181612 0.04219216
000230 a1 50 eb 3d cf 36 e3 bd 5e 17 27 3e ae 75 a6 be
       0.11489988 -0.11094438 0.16317508 -0.32511657
000240 0c fd 1e 3e b0 38 3f 3e 9f e8 fd bc 33 c5 c8 bd
       0.15526217 0.18673968 -0.030994711 -0.09803238
000250 23 aa d1 3d 80 7c cc 3d 85 59 23 be 72 a5 71 be
       0.10237529 0.09984684 -0.15952118 -0.23598269
000260 af 7e fe 3d cc 84 ce 3d ba 94 f7 bc 6a 63 e2 3d
       0.12426507 0.10083923 -0.030222286 0.11054118
000270 31 9c 5e 3e 03 37 a7 be d3 15 28 3e a3 2c ae bc
       0.2173927 -0.32659158 0.16414575 -0.021261519
000280 32 da 09 3e 18 4b 03 be cb 37 6a 3e 58 d9 51 be
       0.13462141 -0.12821615 0.22872846 -0.20493066
000290 56 71 c0 3c 41 20 4e be b4 db dd bd 3f 76 ac be
       0.023491543 -0.20129491 -0.10832921 -0.33683965
0002a0 d0 27 28 be de 68 38 3b 7c a9 62 bd 3a 96 90 be
       -0.16421437 0.0028138678 -0.055337414 -0.28239614
0002b0 ae 77 6c be 27 0a 51 3e 3a 49 69 3d f9 57 81 3e
       -0.23092529 0.20414029 0.0569546 0.2526243
0002c0 e9 82 90 3d b0 04 7e 3d c8 5e 98 bd 44 46 da 3d
       0.07056219 0.06201619 -0.07439953 0.10657933
0002d0 d0 56 dc 3d 53 99 88 be 00 c0 1a be 43 48 09 3e
       0.10758746 -0.26679477 -0.15112305 0.13406472
0002e0 56 7f cf bd de 0e 95 be 8d d1 42 bc 4e c7 72 bd
       -0.10131709 -0.29112905 -0.011890781 -0.059272103
0002f0 a2 92 8f 3d 6a 1e 85 be f7 fb 09 be 8e b0 b0 3e
       0.0701039 -0.25999767 -0.13475023 0.345097
000300 43 45 1b be 0c 52 8e bd 00 9a 14 3e 12 9a 22 3e
       -0.1516314 -0.06949243 0.14511871 0.15879086
000310 d0 c5 bc bd 64 2d a0 3d a9 a6 d5 bd a1 de 59 3e
       -0.09217417 0.078211576 -0.104321785 0.21276332
000320 7f b6 72 3d da 64 96 be b6 62 c1 3d b4 36 cf 3d
       0.059256073 -0.2937382 0.09442656 0.10117856
000330 8a 93 13 3e 35 58 67 3e 78 d9 2d bd 83 e8 02 3d
       0.1441175 0.22592242 -0.042443722 0.03196002
000340 4b 34 ab 3d 3f 56 4a 3e e4 7c 21 bd 77 cf da bc
       0.083595835 0.19759463 -0.039425746 -0.026710255
000350 cc 8f 21 3e 4a 94 4e be c1 6e 39 bc 41 5c 68 bd
       0.1577751 -0.20173755 -0.01131791 -0.056728605
000360 33 d0 c5 3d 8e 0b 1e 3e fc 82 c1 be a6 0d 6a be
       0.096588515 0.15434095 -0.37795246 -0.22856769
000370 f2 fe c1 bd 6a dd 38 3e ce 75 ab bd c3 16 87 be
       -0.09472455 0.18053213 -0.08372079 -0.26384553
000380 0f 7e 3c be 5d 60 29 bd c6 1e ac bb 37 0a 0f 3d
       -0.18407463 -0.041351665 -0.005252692 0.03492185
000390 17 11 53 be 40 ff 2b 3d 0e d7 c0 3d 75 7b 2f 3e
       -0.20611988 0.041991472 0.094160184 0.17136939
0003a0 d4 50 38 be b1 da 43 3e 8a 76 64 3e 94 d0 b8 be
       -0.17999583 0.19126393 0.22310844 -0.36096632
0003b0 88 56 cc 3d a0 1c 1f be 90 73 b4 3d b4 55 86 3d
       0.09977442 -0.15538263 0.08811104 0.06559315
0003c0 26 0d c4 3d 69 d9 e7 bd c9 23 64 3e d6 bb c8 3d
       0.0957282 -0.113207646 0.22279276 0.09801452
0003d0 3b ec 71 3e 05 0c 1b bd c0 bd 62 bd 1c 6a c8 bb
       0.23625271 -0.03785326 -0.05535674 -0.006116165
0003e0 de d3 d9 be d1 60 bc bd 0f d9 a2 3d f2 07 58 be
       -0.42544454 -0.09198154 0.07951557 -0.21096781
0003f0 95 1d 98 3e 9a 36 33 be 91 c0 d3 bc c6 2e ec be
       0.2971007 -0.17501298 -0.025848659 -0.46129435

l3.bias f4 [9]
000000 c7 dd 6f 3e 0b f8 a8 3d 25 d5 ad 3d 91 45 24 3e
       0.23424445 0.082504354 0.0848792 0.16042162
000010 33 22 d2 bc 7e 80 65 3e b0 e2 61 3e 37 34 48 3e
       -0.025651073 0.22412297 0.2205913 0.19551168
000020 40 3d 2c 3d
       0.0420506

l4.weight f4 [53, 9]
000000 c3 2b 1f 3f 36 b8 6e 3e 5c 04 06 3f 00 18 19 40
       0.6217615 0.23312458 0.523504 2.3920898
000010 dd d2 a0 3f 7a 13 13 be 5c e4 1f 3f 32 e1 9f 3f
       1.256435 -0.14362898 0.62457824 1.2490599
000020 22 52 a4 bf 7a 2f 15 3e 79 97 00 3f ca 15 ea be
       -1.2837565 0.14568892 0.5023113 -0.4571975
000030 ba 52 10 3e ab 6b 5c 3d ad 0e 30 3f 05 f7 fa 3f
       0.14094058 0.053813618 0.68772393 1.9606634
000040 61 53 cb 3d 3b 0b a0 3f 31 ef 96 be 8b 28 fb 3d
       0.09928013 1.2503427 -0.29479364 0.12263592
000050 52 b3 f3 3e e2 12 03 be 6a 07 f5 3e 71 dd 43 3f
       0.47597748 -0.12800172 0.4785722 0.7650977
000060 a7 1b fb 3c 8c bd 92 3f 08 9d 19 40 f2 06 e1 3e
       0.030652834 1.1464095 2.4002094 0.4395061
000070 56 1b 9e bd a0 1b 0f be 6b 92 65 3d ac aa 8f bf
       -0.07720058 -0.13975382 0.05604784 -1.122396
000080 d4 e5 1d 3f ee fa e1 3f 85 15 b8 3f 6e d6 b0 3f
       0.61678815 1.7654703 1.4381567 1.3815439
000090 88 e6 80 be cb 00 11 3f 44 21 2a 3d c5 9c 8a 3f
       -0.2517588 0.56641835 0.04153563 1.0829092
0000a0 66 97 c4 3f 05 02 e4 3e 4a 8f 7a 3f 89 a7 31 3e
       1.5358703 0.4453279 0.9787489 0.17349066
0000b0 7c f8 0c 3f e8 78 de bc 09 c3 2a 3f d6 17 90 be
       0.5506666 -0.027157262 0.6670385 -0.28143185
0000c0 13 15 18 bc db 9b e1 3e 44 74 ae 3e c2 86 b2 3f
       -0.009282368 0.4406422 0.3407308 1.3947375
0000d0 81 bc 04 bf 5e b2 a9 3f ad d4 97 3d 69 34 f5 be
       -0.51850134 1.3257558 0.074136116 -0.47891548
0000e0 ef b4 1c 3f cf b1 98 3e b4 e0 2c 3d f2 d2 65 3f
       0.6121358 0.29823157 0.04220648 0.89775
0000f0 89 c0 c6 3d e5 dc f4 3f 4e b1 a2 3f c7 cd a1 3d
       0.09704692 1.9129912 1.2710359 0.07900577
000100 39 3b de be 7c 0c 0a 3f 77 e3 59 be 1b 84 58 3d
       -0.43404558 0.539253 -0.21278177 0.05286036
000110 c5 55 75 3f df 18 4f 3e c8 ce 00 40 fc 72 9b 3f
       0.95834 0.20224331 2.012621 1.2144465
000120 50 7c 00 3f d0 7c c6 be 1d b8 48 3e 26 56 a4 3f
       0.50189686 -0.387671 0.19601484 1.283879
000130 96 da 80 bf 2e b7 03 3e 34 9e b1 3f fe 6c 09 40
       -1.0066707 0.12862846 1.3876405 2.1472774
000140 8d 2f 21 bf df 4b 00 3f 4d 00 75 3e 67 87 02 bf
       -0.6296318 0.5011577 0.23925896 -0.5098786
000150 29 ce 28 3f fb 41 3a bf 76 06 80 3e 5f ba 04 40
       0.65939575 -0.7275693 0.2500493 2.0738752
000160 cc ba 28 3f 1e 7f 5c 3f 43 47 c1 be c2 68 81 3d
       0.6591003 0.86131465 -0.3774968 0.06318809
000170 1f 30 25 3f 2e dd bb be a4 0f 65 3f 51 3d 1a 3f
       0.6452655 -0.36692184 0.8947699 0.6024981
000180 9b 12 1c bf 3a f1 91 3f f4 86 25 40 2b 0f 93 be
       -0.6096589 1.1401742 2.586362 -0.2872251
000190 f1 e9 b5 3e 80 bd 8c 3e 3d 58 91 bf b6 4c 90 be
       0.35530046 0.27488327 -1.1355053 -0.28183526
0001a0 5b 2c 69 3f fc 48 17 3f 3e fe 4c 3f a5 b1 74 40
       0.91083306 0.5909574 0.8007544 3.8233426
0001b0 8f 33 cc 3e 1d 18 0e 3e 0b 5a a9 be 06 32 4d be
       0.39883086 0.13876386 -0.3307651 -0.20038614
0001c0 eb 4f 7b bf 05 c2 88 3f 9a ab cd 3f 80 13 9d 3f
       -0.9816882 1.068421 1.6067994 1.2271576
0001d0 0e 06 ac 3f ee 4e 26 3f 96 56 43 bd bf a0 bd be
       1.3439348 0.6496419 -0.047689997 -0.37036702
0001e0 f3 e5 5d 3f 87 0a 70 bf 07 61 10 3f e1 0c 08 40
       0.86679 -0.93766063 0.5639805 2.125786
0001f0 2b a1 d6 3f 19 23 24 3e e6 4e 64 be a6 04 e0 3e
       1.6767935 0.16029014 -0.22295722 0.43753546
000200 eb c6 01 bc 1c 45 f2 3e 05 f7 80 3f 0b c9 1f 3f
       -0.007920961 0.4731835 1.0075384 0.6241614
000210 0d 78 7a 3f 39 66 e5 3d 7e 28 d8 3f 63 63 71 3e
       0.9783943 0.11201138 1.6887357 0.2357307
000220 8c fa be 3e 7c 98 80 bd 84 90 8f 3f a1 f2 a9 3f
       0.37300527 -0.06279084 1.1215978 1.327717
000230 77 30 4b 3d f3 09 a8 3f 82 b8 f8 bc ba 1e 85 3e
       0.049606767 1.3128036 -0.030361418 0.26000005
000240 ad ca cc be 1e 64 01 3f 91 bc 4e 3e b0 8d 19 bf
       -0.3999838 0.5054339 0.2018912 -0.5998182
000250 50 e0 fa bd 16 7a ba 3e e8 95 7f 3f 26 78 8f 3c
       -0.122498155 0.3642127 0.99838114 0.017513346
000260 3c b1 5a 40 03 70 06 3f 6f 1d 8c 3e 1c d5 2d be
       3.4170675 0.52514666 0.27366206 -0.16975826
000270 5d 0c e8 3f 9b ea 8c be 4a 58 c1 3e 20 ef 1d 40
       1.8128773 -0.2752274 0.37762672 2.46772
000280 a9 07 99 3f 56 58 ab bf b1 46 b4 3e 7f 0f 42 3e
       1.1955463 -1.3386333 0.35210183 0.18951224
000290 a1 50 cf be 2d 56 fe 3e a9 49 10 bf e4 71 d6 3e
       -0.40491202 0.49675122 -0.56362396 0.41883767
0002a0 43 dc e1 3f c7 ca 9a 3f 9a 80 c3 3e 8c d7 26 be
       1.7645344 1.2093133 0.38184053 -0.16293162
0002b0 49 b3 e7 3e 0b 39 42 bd 90 e6 b1 be 16 c6 f0 3e
       0.4525397 -0.04741768 -0.34746218 0.47026128
0002c0 52 aa 3d 3f 8a 10 66 3f 8b 1e f7 3c 77 3c 3f 40
       0.74088013 0.89868987 0.030165931 2.9880655
0002d0 49 e7 57 be 18 0d 14 be 21 67 1a 3f 11 e4 f4 3e
       -0.21084322 -0.1445812 0.6031361 0.4783025
0002e0 63 01 4b 3f 2a 89 20 3f 25 44 8b be 5c 16 a6 3f
       0.7929899 0.62709296 -0.27200428 1.2975574
0002f0 1e ab b2 3f c6 7a 11 3e 90 6d eb 3d 87 5b 5b 3f
       1.3958471 0.1420699 0.11495507 0.85686535
000300 dc f5 57 3f ed 0d a6 3f ab a9 a2 3e 74 96 f0 bd
       0.84359527 1.2973 0.3177007 -0.11747447
000310 4e 04 4f 3f 12 00 cc 3e b0 d6 0d 3f 81 73 43 be
       0.80865943 0.39843804 0.5540571 -0.1908703
000320 55 80 52 bc 86 87 09 40 a3 a4 2c bf 40 a6 e7 3e
       -0.01284798 2.1488967 -0.67438716 0.45244026
000330 75 9f d0 3f e6 ba 1b 40 52 63 9f bf 07 50 02 be
       1.6298662 2.4332824 -1.2452185 -0.1272584
000340 6c 49 2a 3f d1 08 ad be a0 64 18 3e 7b d0 07 3f
       0.6651828 -0.3379579 0.14882135 0.5305249
000350 bc 2b d2 3e 00 d6 e9 3f 77 00 49 3d 7b 44 03 40
       0.41048992 1.8268433 0.04907271 2.0510547
000360 60 5f c4 bc 2a 39 b6 be ef b7 1b 3f 67 af 8e be
       -0.02397126 -0.35590488 0.60827535 -0.27868196
000370 34 39 06 be b1 14 93 3f f0 24 a9 3d 89 12 e4 3f
       -0.13107759 1.149069 0.082589984 1.7818156
000380 d3 3b fb 3f 18 2e 5a 3d ca 3e 2a 3f ed 25 db be
       1.9627632 0.053266615 0.6650206 -0.42802373
000390 cf 13 88 3e fb 0d 9b 3e 33 7c 21 3e f3 13 b8 3f
       0.26577613 0.30284104 0.15770034 1.4381088
0003a0 ea 24 d0 be b7 10 ca 3f d5 db 7e be 2c 49 f8 3a
       -0.40653163 1.5786351 -0.24888547 0.0018942705
0003b0 3d 39 0c 3f 57 34 50 bf 4e fc 6f 3e c7 fd 2b 3f
       0.5477484 -0.81329864 0.2343609 0.6718411
0003c0 f7 5e 08 be 85 e3 6e 3f aa 00 51 40 c5 33 98 3e
       -0.13317476 0.9331592 3.2656655 0.29726997
0003d0 90 f5 20 be b2 53 23 3d ad af 3d be 0b 39 0a bf
       -0.15718675 0.03987474 -0.18524046 -0.5399329
0003e0 63 7a 89 3f 72 78 3b 3f 66 05 ac 3f ab c2 08 40
       1.0740474 0.7323066 1.3439147 2.1368816
0003f0 48 c2 14 be 23 89 97 be 6e 9c 41 3f fc ad 19 be
       -0.14527237 -0.29596815 0.7562932 -0.15007776

l4.bias f4 [53]
000000 9a d9 dc 3f 47 f3 cd 3d de 8a 8a bd d1 08 ff be
       1.7253907 0.10056167 -0.06764768 -0.49811414
000010 ec 81 3a 3f 67 fb 10 3e 3c 17 96 bc 82 88 8d 3e
       0.72854495 0.14158402 -0.018321626 0.2764321
000020 c9 bb 50 3d 82 16 a9 be a0 b9 02 3e da 5f 38 bf
       0.050960336 -0.33024985 0.12766123 -0.7202126
000030 fa 85 7f be f1 d1 b1 be 77 57 88 3e a4 7d 7d 3f
       -0.24953452 -0.34730485 0.2662923 0.9901984
000040 3e a0 2e be 37 3b 30 3f 23 c1 48 3e 4b b1 29 be
       -0.17053315 0.68840355 0.19604926 -0.16571538
000050 ae f9 ae 3d 1a 1d a9 3f bd 80 9f bd 8d 7a 78 3d
       0.08543716 1.3212006 -0.07788227 0.06066375
000060 0a 41 06 be 97 56 c1 3e a2 b9 33 be c9 26 cb be
       -0.13110748 0.37761375 -0.17551282 -0.39678028
000070 c3 fa 84 3e f7 fc cd 3e b6 8c 7c 3e de 18 0e 3e
       0.25972566 0.4023206 0.24663052 0.13876674
000080 88 12 09 bf ed 64 2c bf 98 d6 44 bf 36 93 0d bd
       -0.535439 -0.673415 -0.76889944 -0.03456422
000090 b7 37 2b bf e9 f1 c0 3f 74 c9 a6 bd 56 8c a9 3f
       -0.6688189 1.5073825 -0.08143893 1.3245952
0000a0 f8 c5 a4 3e 2c dc d4 be 7b 32 26 bf 7a 05 f6 3c
       0.32182288 -0.41574228 -0.6492078 0.030031908
0000b0 73 c9 a2 3f bd 26 05 bf 8e f8 2a 3f dc 4a dd be
       1.2717727 -0.52012235 0.66785514 -0.43221176
0000c0 60 34 2f bf 6a 71 8f 3e de 04 fa be 9d 23 b3 3e
       -0.6843929 0.28016216 -0.48831838 0.34988108
0000d0 37 4d 4d bf
       -0.80195946

l5.weight f4 [85, 53]
000000 45 66 ba bd 62 0c 9a 3f bd b4 58 3d 51 0c 46 3e
       -0.091015376 1.2035029 0.05290674 0.19340636
000010 ab fd 97 3e c3 26 a7 3f 85 0a 8b bf 58 9b 1f bf
       0.2968572 1.3058704 -1.0862585 -0.6234641
000020 07 09 af be 37 3c 73 3f 16 e8 a2 bc 87 bd 14 3f
       -0.34186575 0.95013756 -0.019886058 0.58101696
000030 82 74 1e 3f 05 dd 45 3e 62 46 03 3f ca 61 4f 3e
       0.61896527 0.19322594 0.5127927 0.20252147
000040 e4 ae 52 3f 2c 8e 0c 3e 53 af e0 3e 96 64 59 3f
       0.8229811 0.1372611 0.43883762 0.84919107
000050 ad 99 a3 be d6 6f a9 3c c2 64 e3 be f6 25 bc 3f
       -0.31953183 0.02068321 -0.4441281 1.4699085
000060 0a 30 3e bf 2d b2 9f 3f 77 9a eb bd 39 e4 26 bd
       -0.7429205 1.247625 -0.11504071 -0.040744994
000070 03 ef 22 bf 77 87 4e 3e 2c 20 86 3f d6 ed 1a bf
       -0.6364595 0.20168863 1.0478568 -0.6051916
000080 b2 2f 97 3f 90 9a 78 be df 0b 61 3e 93 8d a9 3d
       1.181143 -0.24277711 0.21977185 0.08278956
000090 76 f9 15 3f 2b 42 77 3c 45 3f aa 3f 52 72 6a be
       0.5858377 0.015091459 1.3300558 -0.22895172
0000a0 c8 6a 9a 3f 6d 65 ae 3e 29 d3 e9 3e 2c f9 28 bf
       1.2063837 0.34061757 0.45668915 -0.66005206
0000b0 36 25 10 bd 45 7b 87 3d d3 56 9c 3e 81 c9 3b 3e
       -0.035191737 0.06615309 0.30534992 0.18338586
0000c0 b3 c7 35 be fa 57 51 bf c3 ef 38 be 19 a8 19 be
       -0.1775196 -0.81774867 -0.18060212 -0.1500553
0000d0 5a 40 7c 3d ef 04 9b be 1f 06 59 3f 13 cd b1 bd
       0.061584808 -0.30277202 0.84774965 -0.08681693
0000e0 7f 4e 34 3f 60 eb 13 be 41 ee ac 3e 45 26 a9 be
       0.70432276 -0.14445257 0.33775523 -0.3303701
0000f0 50 90 22 be bc 2d 2b be c9 7c 6b 3f 6d aa b7 be
       -0.15875363 -0.16716665 0.9198728 -0.35872212
000100 2d 9d 36 3f fa 4e 81 3f bd c4 1f 3f df f6 f9 3d
       0.7133358 1.0102227 0.62409574 0.1220529
000110 d7 29 73 be 5d 0e 01 3f 0d e1 d6 bc 67 da fc 3e
       -0.2374643 0.5041254 -0.02623036 0.49385378
000120 19 e8 2f 3f 81 9d a4 be 39 1a d6 be f4 da d5 bd
       0.6871353 -0.32151416 -0.4181688 -0.104421526
000130 5f e4 3a 3f d8 e6 fe bb 9a 66 05 3f e7 17 89 3d
       0.73004717 -0.0077789836 0.5210968 0.06694012
000140 55 76 05 3f 37 ba ee be 1c a1 ee bd 19 72 37 3f
       0.52133685 -0.46626446 -0.11651823 0.71658474
000150 75 52 cc be 3f 62 9e 3f 3f 6e 3f 3f f1 b6 23 3f
       -0.3990666 1.2373732 0.747776 0.6395102
000160 40 3b 05 3f ee 08 8b 3f 68 38 b9 be a0 e8 b3 3e
       0.52043533 1.08621 -0.36175847 0.35138416
000170 89 c1 ac be 2d 2c 29 3f 4a c9 70 3f 3d 83 9b 3f
       -0.33741406 0.6608303 0.9405714 1.2149426
000180 80 41 71 bd 0d 42 83 be ad b2 00 3f 4a 3d 24 b9
       -0.058900356 -0.2563633 0.5027264 -0.00015663091
000190 1a 17 7d 3f 47 fd ca 3e 23 67 9b be 3c 15 43 3f
       0.98863375 0.3964636 -0.30352125 0.76204276
0001a0 92 1c af be 42 ed 3f 3f 57 e9 aa be 41 ee 51 3f
       -0.34201485 0.749714 -0.3338115 0.8200417
0001b0 dd 66 cf 3d 49 78 21 3f b2 30 70 be 93 74 0e 3f
       0.101270415 0.63074166 -0.23456076 0.5564663
0001c0 7b f3 a6 be 75 89 e9 bd 36 75 84 be 50 39 17 3f
       -0.32607636 -0.11403171 -0.25870675 0.59071827
0001d0 ba bd 80 bc 9b a6 56 3f e3 01 86 3f 99 af 01 3f
       -0.015715469 0.8384797 1.0469326 0.50658566
0001e0 4a 76 8d 3e 0e db c3 bd e4 24 3c 3f e5 92 3d be
       0.2762931 -0.09563266 0.7349379 -0.18513067
0001f0 4b d7 85 3e ee 9c 32 3f fe bb ca be b9 0e d9 be
       0.26140818 0.69770706 -0.39596552 -0.42394045
000200 4a 79 b1 be cb 60 3e 3f 26 9d 7f 3d d6 56 07 3f
       -0.3466285 0.74366444 0.062405728 0.52866876
000210 38 d3 c8 3e 22 fd 04 3f 0f 59 ad be ee 06 a8 be
       0.39223647 0.5194875 -0.3385701 -0.32817787
000220 a8 be 10 3f 6f 9d a1 be 19 1e a0 3f 65 2b 65 3f
       0.5654092 -0.31565425 1.2509185 0.8951934
000230 41 12 11 3f 0d 92 e1 3e 00 f5 9c 3f 5d e0 ac be
       0.5666848 0.4405674 1.2262268 -0.33764926
000240 2d 71 2f 3f f8 41 9a be 47 b8 30 3f 6e cb 43 3f
       0.6853207 -0.30128455 0.69031185 0.76482284
000250 c4 d8 a7 3f f2 41 1d 3e f4 0a d2 be fd 04 13 3f
       1.3113027 0.15357187 -0.41023982 0.57429487
000260 d2 9e c1 3c a3 ef 3a 3f d7 a5 9e 3e 4b e3 c5 be
       0.023635302 0.73021907 0.309859 -0.38649973
000270 7a aa f8 3e 0e b8 97 be 99 0d 44 3f ad 85 50 be
       0.48567563 -0.2963261 0.7658325 -0.20363493
000280 a9 4e 2e 3e 4e b8 5b be 73 f0 7e 3f f4 dc 18 bf
       0.17022194 -0.21457025 0.99585646 -0.5971215
000290 9a 64 87 be f5 b2 89 3e 78 05 91 3e f2 65 1b 3f
       -0.2644394 0.26894346 0.28324485 0.6070243
0002a0 b1 c1 50 3f aa 07 cd be d4 97 58 be 0e 4f 4e 3f
       0.8154555 -0.4004491 -0.21151668 0.8058938
0002b0 60 f9 85 3f e0 b2 7a be 7b d9 89 be 2a bb a2 be
       1.0466728 -0.24482298 -0.26923737 -0.3178342
0002c0 65 34 13 3e 5a 95 d4 3e 16 94 87 be 89 7a a8 be
       0.14375456 0.41520196 -0.26480168 -0.32905987
0002d0 30 57 62 be 45 55 10 3f ec ae aa bc 00 67 32 3e
       -0.22103572 0.5638011 -0.020835362 0.17422104
0002e0 09 f2 b5 bd b4 4b 43 be e2 74 0b 3f 74 a1 f2 bd
       -0.08884055 -0.19071847 0.54475224 -0.11847201
0002f0 c6 85 34 3e 96 b1 7d 3e 75 1a dd 3e bb 85 f0 3e
       0.17629156 0.24774775 0.43184248 0.46977028
000300 b7 11 80 3f 8e 49 b2 3e 63 bc 2b 3f 66 2b 47 3f
       1.0005406 0.34821743 0.6708433 0.77800596
000310 76 1d a7 be 9a 3d 28 be 5a ae 4a bd 39 4b 1a be
       -0.32639664 -0.16429749 -0.04948268 -0.15067758
000320 39 97 85 3f 15 dc 56 3f 35 c9 c5 3e f5 26 4a be
       1.0436774 0.8392957 0.3863007 -0.19741423
000330 36 8f b5 3e 2b af 2d 3e c6 77 91 3f 91 a1 a2 3e
       0.35460824 0.16961353 1.1364677 0.3176389
000340 f2 be 51 3e bd 38 99 3f 02 05 98 3e 1c 1a 01 3f
       0.20482996 1.197044 0.2969132 0.50430465
000350 da 94 c6 be c2 df 66 3e 93 5f 09 3e 14 6e 2a 3f
       -0.3878544 0.22546294 0.13415365 0.66574216
000360 bf b3 cf be 2d de ee bd a5 bf ea 3e e8 6d 0c 3f
       -0.40566823 -0.116634704 0.45849338 0.54855204
000370 37 a4 46 3c e0 71 4b 3e 7a 90 22 3e ca 8c 81 3f
       0.012124113 0.19867659 0.15875426 1.012109
000380 9a ae 43 3f 4b 64 05 3e 3b 36 20 bd 0a 80 14 be
       0.76438296 0.1302654 -0.03911422 -0.14501968
000390 01 2e b8 3e ba 4f 74 be 51 a6 43 3e 57 61 ce 3e
       0.35972598 -0.23858538 0.19106413 0.4030864
0003a0 94 25 63 3e 94 ca 3b be 57 ed 88 be f7 3d 43 3e
       0.22182304 -0.18338996 -0.26743576 0.19066606
0003b0 03 3c 2f 3f 96 19 5e bd 41 e8 5d 3f d0 18 37 3f
       0.68450946 -0.05422362 0.86682516 0.71522236
0003c0 b0 26 3d 3e 25 3c a3 be b0 f9 31 3e 84 ed 48 bc
       0.1847179 -0.31881824 0.17380404 -0.012263659
0003d0 e2 59 25 3f 86 9b 80 3f a6 0d 41 3f bb 0e 0e 3f
       0.64590275 1.0047462 0.7541145 0.55491227
0003e0 b9 da 7b 3f fe c8 df be 0d d8 c8 bd f9 9a 5e be
       0.9838062 -0.43708032 -0.098068334 -0.21738805
0003f0 45 21 8a 3d c3 51 4d 3f 87 b3 81 3f 83 fb 41 3f
       0.06744627 0.80202883 1.0132912 0.757744

l5.bias f4 [85]
000000 3b 91 a7 3e 2a 2c da bf 2b 7a be bf 9d b2 bd bf
       0.3272799 -1.7044728 -1.4881033 -1.4820133
000010 ae 3c d3 bf b9 2d ef 3d 8c d5 88 bf 96 e0 c6 bf
       -1.6502893 0.11678643 -1.0690169 -1.5537288
000020 6d c5 07 3f 66 32 87 3f 70 78 9c bf 81 5b 95 bf
       0.5303562 1.0562255 -1.2224255 -1.166855
000030 f0 e8 58 bf 50 d5 a5 bf 24 20 ca bf 71 e3 58 bf
       -0.84730434 -1.2955723 -1.5791059 -0.8472205
000040 1d 77 84 bf 35 3f cd bf bd d0 b5 bf 7f 6e 51 3f
       -1.034885 -1.6034914 -1.4204327 0.8180923
000050 7f 46 bc bf c5 6a 1c 3f 40 42 d2 bf aa 00 90 bf
       -1.4709014 0.6110042 -1.6426468 -1.1250203
000060 08 9e d1 bf 27 ba 85 3e 50 86 42 3f 52 b3 3d 3f
       -1.6376352 0.26118585 0.75986195 0.74101746
000070 76 e5 4a 3e f3 f5 84 bf 17 f4 45 3f 97 43 79 bf
       0.19814095 -1.0387558 0.77325577 -0.9736876
000080 8a 31 96 bf 54 c4 95 bf 46 14 14 3f f6 e0 81 bf
       -1.1733868 -1.170054 0.57843435 -1.0146778
000090 c8 60 cd bd 26 9d 89 bf b8 f3 7d bf e4 38 a4 bf
       -0.10028225 -1.0751083 -0.9920001 -1.2829862
0000a0 a8 26 a2 bf f4 99 7d 3e c6 1c 78 3e 43 0a d8 bf
       -1.2668047 0.2476576 0.24229726 -1.6878132
0000b0 f5 73 8a 3e ef f7 d1 bf 55 2c 74 3f e9 e0 9f bf
       0.27041593 -1.6403788 0.95380145 -1.2490512
0000c0 b5 2c 9e bf 6f 44 92 bf 25 2f 9a bf a9 de ba bf
       -1.2357394 -1.1427134 -1.2045637 -1.45992
0000d0 9b 48 87 bf 03 f8 12 be ac 2d 26 3e 07 41 b7 bf
       -1.0569032 -0.14352421 0.1622836 -1.431672
0000e0 64 1a ab bf 11 67 12 bf 6d 75 dc bf b1 ff 83 bf
       -1.3367429 -0.57188517 -1.7223336 -1.0312406
0000f0 f1 7a c3 3f f0 6c 6a 3f 20 cf d0 bf e7 36 9d bf
       1.5271894 0.91572475 -1.631321 -1.228238
000100 b3 d7 a3 bf 73 04 7f bf b1 66 66 bf fd 91 b6 bf
       -1.2800201 -0.99616164 -0.90000445 -1.4263302
000110 c1 8c f7 3e 5a d8 75 3f d8 7f 3a 3e ad 12 11 bf
       0.48349574 0.9603325 0.18212831 -0.5666912
000120 5c c3 70 3f 3a b6 82 3f 33 39 b6 bf db 7f a9 bf
       0.94048095 1.0211861 -1.4236206 -1.3242143
000130 43 77 9d bf 35 10 ae bf d9 b3 6d 3f e0 76 93 bf
       -1.2302021 -1.3598696 0.9285255 -1.1520653
000140 c4 93 91 bd 53 34 ea 3e 22 79 82 bf 87 cb 99 bf
       -0.07108262 0.45743045 -1.0193217 -1.2015237
000150 73 ba 8b bf
       -1.0916275
