models/Others/model_PGNN_100_1e-1.pt (torch, 127233 bytes, 12 tensors)

l1.weight f4 [189, 9]
-0.32994235 0.8871282 0.59667736 1.0096184 0.25389615 0.9400608 0.0827543 -0.6897609
-1.5345103 -0.3621991 0.33581564 0.2997368 0.61732745 -0.35258767 -0.3171089 0.4316458
0.67123646 1.4887034 -0.4556995 0.4366652 0.79955596 0.14215647 0.27725902 0.21547823
0.34288442 -1.0274582 -2.0299451 0.0736767 0.82340705 0.517716 -0.22076827 0.58525264
0.44268957 1.0377392 -0.8818988 -1.6407839 0.27835527 0.43491066 -0.12074382 0.53135556
0.41190973 -0.18629165 0.6613076 -1.0335797 -1.7144339 0.3352775 0.17277642 0.43188402
-0.3687746 0.97785205 0.5293777 1.1196146 -0.60573137 -1.5580841 0.24853578 -0.58793145
-0.14651746 -0.76306045 -0.25999907 0.31551215 -1.0617511 1.0674142 2.3728209 -0.2715995
-1.1274084 -0.60285896 -1.2428908 -0.8126828 -1.8482251 0.034608442 1.1301991 1.8532406
0.33953002 0.033778746 0.06952575 -1.5807539 0.16866222 0.1647814 -0.51606685 1.5408657
1.5940444 0.19261765 0.50330836 0.2860363 -0.8569004 1.3042 1.205585 1.2918265
-0.41366926 -1.5959094 0.32720676 0.351828 0.5615626 0.44182205 0.16135491 -0.027143007
1.131795 -1.0195298 -1.7843492 0.0132357655 0.07334517 -0.7188935 -0.0024280313 0.6401936
0.3791582 0.52397937 2.6887283 3.684226 0.45696342 0.093182474 -0.54711044 1.6765575
-0.018366788 -0.6587341 0.38519594 -1.2863979 -1.5086346 -0.2230523 -0.67660075 -0.9167505
-0.26086757 -0.10211077 -0.6603384 0.11324064 0.9018993 2.3658211 0.34605694 -0.13655484
-0.05338374 -0.621647 -0.078819774 -0.47570604 -0.39641708 1.6670501 2.5657756 0.4257596
-0.1282258 0.08662807 0.56563246 0.35149783 -0.10682658 0.3366354 -1.0844221 -2.2845619
-0.2625647 -0.765093 -0.8654398 -0.28066918 -0.0070197294 -0.112293564 -0.11636998 1.1557592
2.4998467 0.40990797 0.024965925 -0.63039356 -0.062984504 0.55891484 0.13134232 0.7242317
-0.9743552 -1.2513202 0.25432798 -0.36575836 -0.41372207 0.25672245 -0.22586568 -0.5354701
-0.8007248 1.4938804 2.2767508 0.1888854 -0.25935885 -0.3231879 -0.6820586 -0.30323204
0.1629008 -0.6879563 1.2865098 2.3084147 -0.3227619 0.25067627 -0.14789759 1.2729563
0.44324052 0.70017785 0.42796898 -0.7122187 -1.2937752 0.244016 -0.67041564 -0.2027835
-0.035747044 -0.45206672 -0.1391537 -0.7176876 1.2140008 2.05385 0.33179426 0.046290457
-0.009768418 0.27805185 0.1764064 0.054577857 0.75371796 -0.9755445 -1.636802 0.23200458
-0.7619199 -0.24384113 0.3657357 -0.40514764 -0.88721037 -0.4431935 1.1803833 2.525453
-0.33426034 0.82842326 0.37348315 0.76926625 0.7279042 0.6294353 0.12815718 -0.41650158
-1.8380647 0.28054765 -0.08159862 -0.5166736 0.31639725 -1.0798224 -0.91341347 -0.87119895
1.4216397 1.9311656 -0.38370717 -0.9777367 -0.3689332 -1.1444035 -0.6758389 -0.9271504
0.036444597 1.0764501 2.0828018 0.4422074 0.08833321 0.42479324 -0.44340584 0.79294765
0.5839771 0.76956886 -0.9515717 -2.1052039 0.24433926 0.7500474 -0.18472198 -0.49211264
00000000: 34ee a8be d51a 633f d9bf 183f 2d3b 813f
00000010: adfe 813e d3a7 703f 167b a93d 2c94 30bf
00000020: d56a c4bf 2972 b9be 07f0 ab3e 1a77 993e
00000030: 2c09 1e3f 5f86 b4be 195c a2be ae00 dd3e
00000040: 27d6 2b3f d58d be3f 7251 e9be 9592 df3e
00000050: b3af 4c3f 7791 113e e5f4 8d3e 53a6 5c3e
00000060: 8c8e af3e c083 83bf 9fea 01c0 cfe3 963d
00000070: ceca 523f 0989 043f 1411 62be 1ed3 153f
00000080: 35a8 e23e a3d4 843f 1fc4 61bf 3505 d2bf
00000090: 9584 8e3e 9cac de3e 8948 f7bd eb06 083f
000000a0: d5e5 d23e 3dc3 3ebe 744b 293f 574c 84bf
000000b0: 9272 dbbf 7ea9 ab3e 4dec 303e e71f dd3e
000000c0: 06d0 bcbe 8354 7a3f 4c85 073f 884f 8f3f
000000d0: 3611 1bbf 4d6f c7bf 2a80 7e3e ad82 16bf
000000e0: ac08 16be ee57 43bf 991e 85be cf8a a13e
000000f0: 76e7 87bf 07a1 883f 4cdc 1740 170f 8bbe
00000100: eb4e 90bf f754 1abf 0c17 9fbf fb0b 50bf
00000110: a492 ecbf 95c1 0d3d 5daa 903f fd36 ed3f
00000120: e1d6 ad3e 955b 0a3d 8463 8e3d 2556 cabf
00000130: cab5 2c3e 75bc 283e f51c 04bf 163b c53f
00000140: a609 cc3f 903d 453e d1d8 003f 5a73 923e
00000150: d35d 5bbf 07f0 a63f 9c50 9a3f 925a a53f
00000160: 75cc d3be c246 ccbf a587 a73e cd22 b43e
00000170: 91c2 0f3f 8036 e23e 393a 253e 035b debc
00000180: a9de 903f f47f 82bf 8e65 e4bf d3da 583c
00000190: fe35 963d 6809 38bf 9b1f 1fbb bae3 233f
000001a0: 0621 c23e 8323 063f 2014 2c40 5cca 6b40
000001b0: 1cf7 e93e 74d6 be3d 6e0f 0cbf 7099 d63f
000001c0: f275 96bc cca2 28bf 6738 c53e b0a8 a4bf
000001d0: f01a c1bf d267 64be b535 2dbf 29b0 6abf
000001e0: 6f90 85be 741f d1bd f00b 29bf b5ea e73d
000001f0: dfe2 663f 9d69 1740 602e b13e 08d5 0bbe
00000200: e9a8 5abd 4224 1fbf 436c a1bd be8f f3be
00000210: 2ef7 cabe e661 d53f ab35 2440 2afd d93e
00000220: a04d 03be 0f6a b13d 4acd 103f 86f7 b33e
00000230: e5c7 dabd 7a5b ac3e 58ce 8abf 4336 12c0
00000240: e16e 86be 23dd 43bf 768d 5dbf dfb3 8fbe
00000250: c205 e6bb 2bfa e5bd 6253 eebd ebef 933f
00000260: 7dfd 1f40 75df d13e 5785 cc3c 7961 21bf
00000270: 05fe 80bd 0b15 0f3f 9a7e 063e 4067 393f
00000280: 586f 79bf 432b a0bf 4737 823e ae44 bbbe
00000290: 61d3 d3be 2071 833e 5549 67be 9214 09bf
000002a0: 4dfc 4cbf 7937 bf3f 49b6 1140 2d6b 413e
000002b0: afca 84be e278 a5be 649b 2ebf 3b41 9bbe
000002c0: 78cf 263e e71d 30bf 5aac a43f 11bd 1340
000002d0: 0c41 a5be a458 803e 7772 17be 3bf0 a23f
000002e0: 6cf0 e23e db3e 333f c01e db3e f753 36bf
000002f0: 6d9a a5bf 55df 793e 5ca0 2bbf 7aa6 4fbe
00000300: 7e6b 12bd 4a75 e7be 4f7e 0ebe 60ba 37bf
00000310: 6164 9b3f 4772 0340 f0e0 a93e 109b 3d3d
00000320: b70b 20bc d05c 8e3e e1a3 343e 088d 5f3d
00000330: a9f3 403f 49bd 79bf ba82 d1bf 9c92 6d3e
00000340: 2f0d 43bf 7db1 79be b641 bb3e 836f cfbe
00000350: 3820 63bf 42ea e2be cd16 973f 06a1 2140
00000360: 2c24 abbe 8c13 543f 2f39 bf3e a2ee 443f
00000370: ee57 3a3f ac22 213f a33b 033e b23f d5be
00000380: b445 ebbf f1a3 8f3e 2d1d a7bd b944 04bf
00000390: d2fe a13e 9f37 8abf 77d5 69bf e506 5fbf
000003a0: 4af8 b53f 6f30 f73f 4475 c4be f44c 7abf
000003b0: d0e4 bcbe d07b 92bf c703 2dbf bb59 6dbf
000003c0: ee46 153d 1ec9 893f a04c 0540 0269 e23e
000003d0: 0be8 b43d 807e d93e 1706 e3be 9efe 4a3f
000003e0: 867f 153f 7702 453f 349a 73bf a9bb 06c0
000003f0: 1234 7a3e 1b03 403f c227 3dbe 30f6 fbbe

l1.bias f4 [189]
1.1799549 -1.1547474 1.3972464 1.7991813 1.7421162 1.7950077 -1.4453024 -1.7710737
-1.3743541 1.5701144 1.1802009 -0.7652607 1.3632666 -1.8084115 -1.1898556 1.1187253
-1.722535 1.6920462 -1.4341804 -1.1734697 1.3493395 -1.7239158 1.4437827 -1.916637
1.571534 -1.6866693 -1.7860832 1.6348693 1.6735381 -1.6625491 1.7531245 -1.4386314
-1.7106743 1.7955582 -1.6783262 -1.610929 1.7005613 1.5349334 1.6887594 1.6714544
-1.1739272 1.7011135 1.4501289 2.1462023 -1.0362955 -1.3618442 -1.2038133 -1.6629637
-1.8838489 1.9387951 2.3730035 -1.0243881 1.846099 -1.3527015 1.3706521 -1.3649085
-1.7610521 -1.8087374 -1.9291259 -1.3942702 -1.790987 -1.9989953 -1.4180629 -1.5442835
-1.2225446 -1.513737 1.333706 -1.7401551 -1.0490106 -0.8778224 1.0649308 1.6489048
1.0688931 -1.8824166 1.4774697 -1.3466258 -1.5844564 -1.5446138 -1.6806527 2.0006456
-1.5295912 1.9909471 -1.9129083 -1.5027151 -1.3872813 -0.5618977 -1.0661217 1.908157
1.7400353 0.32082534 -0.8707246 1.1880964 -1.2850277 1.5110916 1.834112 1.9432545
-1.8721954 -0.8846824 -1.8733026 1.591498 -1.6106608 1.6970413 1.7994293 1.8703697
1.5565833 1.5366169 1.62926 1.3020092 -1.2249522 -1.0248625 -1.2257843 -1.8708202
1.2954794 -1.8973036 1.6063269 -1.4357443 -1.1984415 1.7237095 -1.203486 1.2507107
1.5534501 1.3106881 1.4783771 -1.4817345 1.745018 1.6157523 0.19952336 -1.0371484
-0.84517455 -1.1711334 -1.7951931 1.3825842 -1.20423 -1.2705703 -1.379224 -1.232012
1.5703099 1.5658147 1.4521774 1.7707471 1.4356931 1.4003994 -1.9058076 -1.4627573
2.0051322 1.8281319 -1.5558437 -1.6878705 1.5528305 1.3666776 -1.8761858 -0.9884139
1.9739435 1.6560086 -1.7480547 1.6222919 -1.5029329 -1.8616961 -0.31661963 1.6288309
-1.1497339 -1.1970588 1.6449414 1.2119477 1.1316234 -1.307773 -1.2688367 -1.3894433
-1.2221235 1.7207412 -1.32541 -1.4350168 1.5001196 -1.2811546 1.5889212 1.8463814
-1.7657331 1.2933378 -0.8498995 1.3197004 -1.1715839 1.3819164 1.3657287 2.095978
1.7176349 2.4917278 -2.053878 1.4020694 -1.3303546
00000000: c308 973f c3ce 93bf f8d8 b23f 934b e63f
00000010: aafd de3f d0c2 e53f abff b8bf 8bb2 e2bf
00000020: d6ea afbf 82f9 c83f d310 973f 20e8 43bf
00000030: 857f ae3f 077a e7bf 304d 98bf 6432 8f3f
00000040: 077c dcbf f894 d83f 3993 b7bf 4134 96bf
00000050: 28b7 ac3f 46a9 dcbf dfcd b83f 5c54 f5bf
00000060: 0728 c93f c8e4 d7bf 609e e4bf 6643 d13f
00000070: 7f36 d63f 69ce d4bf 6266 e03f 1325 b8bf
00000080: 60f7 dabf dad4 e53f 65d3 d6bf ec32 cebf
00000090: feab d93f b378 c43f 4529 d83f 38f2 d53f
000000a0: 3f43 96bf 16be d93f d39d b93f 615b 0940
000000b0: 55a5 84bf e950 aebf 8e16 9abf ffdb d4bf
000000c0: f621 f1bf 702a f83f 4adf 1740 261f 83bf
000000d0: f94c ec3f 5325 adbf 8771 af3f 52b5 aebf
000000e0: 286a e1bf b584 e7bf 99ed f6bf 7277 b2bf
000000f0: 103f e5bf 14df ffbf 1683 b5bf 15ab c5bf
00000100: 577c 9cbf 22c2 c1bf e1b6 aa3f 67bd debf
00000110: fb45 86bf f8b8 60bf a74f 883f 500f d33f
00000120: 7dd1 883f 07f3 f0bf ba1d bd3f 3c5e acbf
00000130: 78cf cabf e8b5 c5bf a11f d7bf 940a 0040
00000140: a5c9 c3bf 5bd7 fe3f 2eda f4bf f858 c0bf
00000150: 6f92 b1bf 87d8 0fbf ad76 88bf 7d3e f43f
00000160: 7ab9 de3f 3843 a43e cfe7 5ebf 8b13 983f
00000170: ca7b a4bf 736b c13f 2fc4 ea3f 90bc f83f
00000180: 19a4 efbf 8c7a 62bf 61c8 efbf 35b6 cb3f
00000190: 222a cebf a638 d93f b353 e63f 4668 ef3f
000001a0: 1f3e c73f ddaf c43f 978b d03f 3da8 a63f
000001b0: 3ccb 9cbf b22e 83bf 80e6 9cbf 0977 efbf
000001c0: 45d2 a53f d8da f2bf 1f9c cd3f 78c6 b7bf
000001d0: 8866 99bf 83a2 dc3f d40b 9abf 4a17 a03f
000001e0: 74d7 c63f a1c4 a73f 763b bd3f 7aa9 bdbf
000001f0: c05c df3f f9d0 ce3f da4f 4c3e 47c1 84bf
00000200: 5c5d 58bf b3e7 95bf e3c8 e5bf 85f8 b03f
00000210: 3524 9abf 0ca2 a2bf 698a b0bf 92b2 9dbf
00000220: eaff c83f 9e6c c83f f3e0 b93f d7a7 e23f
00000230: cbc4 b73f 4a40 b33f 81f1 f3bf a23b bbbf
00000240: 1654 0040 3a00 ea3f e325 c7bf 240c d8bf
00000250: 26c3 c63f 4bef ae3f db26 f0bf b108 7dbf
00000260: 2eaa fc3f 17f8 d33f 42c0 dfbf 43a7 cf3f
00000270: 1b60 c0bf 0f4c eebf f81b a2be 887d d03f
00000280: 7b2a 93bf 3939 99bf 718d d23f 1a21 9b3f
00000290: 09d9 903f 1b65 a7bf 3e69 a2bf 47d9 b1bf
000002a0: 8b6e 9cbf 3f41 dc3f 09a7 a9bf a1ae b7bf
000002b0: eb03 c03f e0fc a3bf c561 cb3f 3a56 ec3f
000002c0: 8b03 e2bf 188c a53f 0393 59bf f1eb a83f
000002d0: 76f6 95bf a3e2 b03f 33d0 ae3f 8124 0640
000002e0: 76db db3f 7878 1f40 bd72 03c0 0377 b33f
000002f0: 0f49 aabf

l2.weight f4 [119, 189]
-0.1358065 -0.04984154 0.09384826 -0.1769652 -0.09509668 -0.11979418 -0.04699929 0.21930188
-0.3545283 -0.1515892 0.052566472 0.97178733 0.11395058 0.28339365 -0.031292632 0.15785655
0.43273294 -0.02765776 0.35370198 -0.08759144 -0.31045386 0.16029313 -0.029690234 0.41475517
-0.06643587 0.19493878 0.51174366 -0.071641244 -0.18787831 0.2446843 -0.2591974 0.196337
0.094752416 -0.17555375 0.40937325 0.19151893 -0.27638882 -0.1786245 0.20625806 -0.17137153
0.12122187 -0.09943867 0.1265066 0.09064532 0.06420805 0.2987383 0.41324732 0.4042115
-0.25184685 0.31836998 -0.29353958 0.8229407 -0.032945722 0.18743044 -0.20469555 0.24637097
0.3049731 0.16328824 -0.015256233 0.1579065 -0.012953313 0.26550558 0.0058011417 0.3644285
1.2666861 0.19546363 -0.0042398633 0.04545889 0.09732573 1.1935493 -0.25591785 -0.22362846
0.18322015 0.24508172 0.01547085 0.13948002 0.3514212 0.2788869 0.6159866 0.29640487
0.17489345 -0.061405007 0.33875805 0.27486673 0.1909179 -0.29303148 0.057860788 -0.20264381
-0.13364033 0.37423366 0.77348065 0.058344882 0.3657678 0.08161682 -0.09569794 -0.086754814
0.43073916 0.61692154 0.30505574 0.028043337 0.28092754 -0.43666574 -0.08114089 -0.34292668
0.043511707 -0.24393886 -0.18537655 -0.2404004 0.2155098 1.1682603 0.26960933 0.13874575
-0.019454073 0.100099795 -0.058055684 0.40508878 0.64206874 -0.13464291 0.066545695 -0.043817416
0.119968876 0.096964605 -0.034612354 0.34174535 -0.105429456 -0.011256268 -0.13029273 1.0597812
1.0509073 -0.072312705 0.44046208 0.032200236 0.10115456 0.28829414 0.47440535 0.26151255
-0.0145047 -0.0058751744 -0.17044348 -0.24589744 0.2094109 -0.000333464 0.28151518 0.4107403
-0.6140193 0.04300111 0.27924222 0.28388807 -0.051849626 -0.045903936 0.21633062 0.25525418
-0.2558993 -0.1245689 0.57611036 9.584798e-05 0.246095 0.32803598 0.62264836 -0.078680076
0.24332629 1.0139148 -0.22572471 -0.1251466 0.010892574 0.12186708 0.18106553 0.24313052
0.2699457 -0.22847922 0.596565 0.22253987 0.04986573 0.09510078 -0.19880515 -0.06893112
0.5114416 0.038887437 0.89655656 0.029015495 0.20709535 0.06798768 -0.13229635 0.041466426
0.02569734 -0.24476638 0.3193874 -0.1522926 0.3337162 0.48427612 0.07813661 0.43095857
0.77043056 0.47607177 0.45121574 -0.013796687 -0.18940386 0.11484234 0.61838573 0.45705345
-0.7446879 0.42523775 -0.12637097 -0.03477387 0.44319022 -0.06669948 0.42341825 -0.07279481
-0.055921964 0.44215596 -0.050928935 0.3597093 -0.26165813 0.4657308 -0.119422525 -0.035626948
0.43569738 0.5001903 -0.06671507 0.536689 0.052511714 -0.0039133113 0.5747595 -0.2181881
-0.14735521 0.6225125 0.47959077 0.46121687 0.6806502 -0.08977336 0.5693932 0.45936215
0.7232038 -0.18632275 -0.31128252 0.15638305 -0.03199579 -0.02406378 0.4741017 1.2484694
-0.70661587 0.6229676 -0.032493483 0.5985163 -0.14293587 -0.0036736247 -0.020246262 0.059390668
0.08182856 -0.021737287 -0.22401343 0.1885918 -0.12880357 -0.7427785 -0.11905832 0.3963815
00000000: dc10 0bbe a526 4cbd 8433 c03d 5e36 35be
00000010: 0cc2 c2bd a756 f5bd 5482 40bd ac90 603e
00000020: bc84 b5be 333a 1bbe f14f 573d 0ec7 783f
00000030: ec5e e93d f918 913e b42c 00bd 26a5 213e
00000040: 2c8f dd3e 8792 e2bc 6d18 b53e 2463 b3bd
00000050: cff3 9ebe e223 243e ef38 f3bc ca5a d43e
00000060: 880f 88bd 089e 473e a201 033f a5b8 92bd
00000070: 2c63 40be 858e 7a3e 86b5 84be 910c 493e
00000080: 8e0d c23d 5dc4 33be 5f99 d13e 8a1d 443e
00000090: d682 8dbe 57e9 36be 5035 533e 057c 2fbe
000000a0: 2c43 f83d 80a6 cbbd f28a 013e 41a4 b93d
000000b0: 837f 833d 3af4 983e 2795 d33e cff4 ce3e
000000c0: 12f2 80be 6401 a33e d24a 96be 3eac 523f
000000d0: 18f2 06bd c4ed 3f3e b69b 51be ac48 7c3e
000000e0: 6f25 9c3e 0835 273e 47f5 79bc 3eb2 213e
000000f0: 223a 54bc 59f0 873e 8117 be3b 5f96 ba3e
00000100: c522 a23f 9e27 483e 8dee 8abb 1a33 3a3d
00000110: b652 c73d 39c6 983f aa07 83be dcfe 64be
00000120: 109e 3b3e b4f6 7a3e 7379 7d3c dad3 0e3e
00000130: 7bed b33e 44ca 8e3e 4cb1 1d3f 61c2 973e
00000140: 4517 333e d183 7bbd b271 ad3e 55bb 8c3e
00000150: fb7f 433e 3908 96be 6fff 6c3d dc81 4fbe
00000160: 03d9 08be 8e9b bf3e d402 463f 0bfb 6e3d
00000170: eb45 bb3e b826 a73d 48fd c3bd 82ac b1bd
00000180: d889 dc3e 92ee 1d3f 4430 9c3e 24bb e53c
00000190: bcd5 8f3e a792 dfbe 322d a6bd 1694 afbe
000001a0: 5539 323d 1ccb 79be 5ad3 3dbe 862b 76be
000001b0: 9aae 5c3e 8e89 953f 3c0a 8a3e 5e13 0e3e
000001c0: 265e 9fbc 1f01 cd3d cccb 6dbd cc67 cf3e
000001d0: 9e5e 243f d5df 09be 1c49 883d e479 33bd
000001e0: 3eb2 f53d 6195 c63d afc5 0dbd 3ff9 ae3e
000001f0: 66eb d7bd 366c 38bc 756b 05be e9a6 873f
00000200: 2184 863f af18 94bd 3f84 e13e 65e4 033d
00000210: 1f2a cf3d 4a9b 933e 42e5 f23e f9e4 853e
00000220: 1fa5 6dbc 8984 c0bb bc88 2ebe 8acc 7bbe
00000230: d06f 563e c8d4 aeb9 c222 903e 8d4c d23e
00000240: 5e30 1dbf ef21 303d d6f8 8e3e c759 913e
00000250: 4660 54bd c405 3cbd c685 5d3e adb0 823e
00000260: 3c05 83be fb1d ffbd f87b 133f fe01 c938
00000270: 5400 7c3e 55f4 a73e e265 1f3f 0523 a1bd
00000280: 872a 793e f6c7 813f 6124 67be 6e26 00be
00000290: c476 323c 7395 f93d 3e69 393e 35f7 783e
000002a0: 5336 8a3e 75f6 69be 7cb8 183f 7ee1 633e
000002b0: 0240 4c3d 33c4 c23d 9493 4bbe c22b 8dbd
000002c0: d6ed 023f 6f48 1f3d bb84 653f e7b1 ed3c
000002d0: ce10 543e 203d 8b3d b278 07be b3d8 293d
000002e0: 3a83 d23c 0aa4 7abe bf86 a33e 97f2 1bbe
000002f0: dadc aa3e 0af3 f73e 1606 a03d 9aa6 dc3e
00000300: f03a 453f aebf f33e c005 e73e 800b 62bc
00000310: 16f3 41be 7632 eb3d 874e 1e3f e902 ea3e
00000320: dea3 3ebf c3b8 d93e 6467 01be 0c6f 0ebd
00000330: d4e9 e23e bd99 88bd 47ca d83e 7215 95bd
00000340: 6e0e 65bd 4462 e23e dc9a 50bd d12b b83e
00000350: 0ef8 85be 4474 ee3e cc93 f4bd 90ed 11bd
00000360: ba13 df3e 790c 003f e9a1 88bd 7364 093f
00000370: 8616 573d 3c3b 80bb 7023 133f b46c 5fbe
00000380: 49e4 16be fb5c 1f3f ec8c f53e 9e24 ec3e
00000390: 173f 2e3f 18db b7bd c1c3 113f 8431 eb3e
000003a0: e223 393f 64cb 3ebe 6c60 9fbe e122 203e
000003b0: 040e 03bd 6821 c5bc 75bd f23e d8cd 9f3f
000003c0: c7e4 34bf ce7a 1f3f e317 05bd 5d38 193f
000003d0: c85d 12be 32c1 70bb 7ddb a5bc a143 733d
000003e0: bb95 a73d 6512 b2bc c763 65be 351e 413e
000003f0: 15e5 03be bb26 3ebf d9d4 f3bd 84f2 ca3e

l2.bias f4 [119]
-1.6860838 2.459962 -1.4454769 -1.3275685 1.8041533 -1.7703162 -1.573092 3.1027396
-1.3455424 2.5492554 -1.6723883 -1.7430164 -1.0649862 -1.2062646 2.5851474 -1.4968047
-1.4183437 -1.7611988 -1.9523283 -1.7839667 0.77363956 -2.079057 -1.5250012 0.09759283
-1.919463 2.5826905 -1.4825984 -1.4704013 3.0888271 2.2921724 2.4402604 -1.6259975
2.3905642 -1.7493379 -1.402934 2.4520688 -1.7633924 2.295575 -1.3942771 1.6589353
-2.042008 2.457408 2.3699927 -1.3122739 -2.0797222 -1.6534284 -1.5513086 -1.45346
-1.6257602 2.5026183 -2.589176 -1.6613052 -1.4547778 -1.4429455 -0.037639905 -1.6032834
-1.7461904 1.9792867 -1.3727744 -1.4566284 2.4736142 2.546346 2.551658 -1.467093
-1.323657 -1.342833 -1.3327265 2.3854842 2.341847 -1.7370464 -1.1782333 -1.8927952
2.436454 2.5190437 -1.5682919 2.5340738 -1.9658607 2.473196 1.6825821 -1.224531
1.9896926 -1.702292 -1.4465674 -1.7683889 2.6217325 2.503847 2.472596 -1.1715105
-1.9545499 -1.6189303 -1.6088303 -1.943905 2.4926112 2.2648377 -1.4811536 -1.7624749
-1.4332051 2.4327846 2.581402 -1.054296 -0.9367422 3.1179357 2.4562457 -1.5822806
-1.5432458 2.533604 -1.8592026 -1.3428842 -1.3853178 2.3616161 -1.5340667 2.5481973
-1.6906365 2.2315454 -1.3412055 -1.8307953 2.4057796 2.3176618 -1.4893521
00000000: 98d1 d7bf 0470 1d40 6305 b9bf c4ed a9bf
00000010: 7fee e63f b999 e2bf 145b c9bf 4993 4640
00000020: bc3a acbf 0027 2340 d210 d6bf 291b dfbf
00000030: 7851 88bf e166 9abf 0e73 2540 4c97 bfbf
00000040: 498c b5bf f66e e1bf e5e5 f9bf 0559 e4bf
00000050: 3e0d 463f 450f 05c0 3d33 c3bf c0de c73d
00000060: f7b0 f5bf cd4a 2540 c9c5 bdbf 1c36 bcbf
00000070: 58af 4540 f4b2 1240 3a2d 1c40 b020 d0bf
00000080: 01ff 1840 4eea dfbf 5793 b3bf b2ee 1c40
00000090: d8b6 e1bf b3ea 1240 ac77 b2bf fe57 d43f
000000a0: 42b0 02c0 2c46 1d40 f6ad 1740 97f8 a7bf
000000b0: 2b1a 05c0 8ba3 d3bf 4891 c6bf fa0a babf
000000c0: e918 d0bf e62a 2040 0fb5 25c0 a6a5 d4bf
000000d0: 2936 babf 70b2 b8bf 4d2c 1abd 6438 cdbf
000000e0: 2b83 dfbf 4459 fd3f 12b7 afbf cd72 babf
000000f0: b24f 1e40 55f7 2240 5d4e 2340 b4c9 bbbf
00000100: 986d a9bf f4e1 abbf c896 aabf c6ab 1840
00000110: d2e0 1540 8957 debf 59d0 96bf 1d47 f2bf
00000120: ddee 1b40 0338 2140 cabd c8bf 442e 2240
00000130: 53a1 fbbf d848 1e40 da5e d73f 6fbd 9cbf
00000140: 3fae fe3f b4e4 d9bf 1f29 b9bf 915a e2bf
00000150: 77ca 2740 073f 2040 033f 1e40 0ef4 95bf
00000160: b12e fabf 1c39 cfbf 27ee cdbf e1d1 f8bf
00000170: f186 1f40 1af3 1040 7196 bdbf c798 e1bf
00000180: 4473 b7bf beb2 1b40 b135 2540 2cf3 86bf
00000190: 56ce 6fbf 428c 4740 2133 1d40 2c88 cabf
000001a0: 1489 c5bf 9126 2240 5afa edbf a1e3 abbf
000001b0: 1852 b1bf b824 1740 4c5c c4bf aa15 2340
000001c0: c766 d8bf a4d1 0e40 9fac abbf 8057 eabf
000001d0: 4bf8 1940 9254 1440 17a3 bebf

l3.weight f4 [9, 119]
0.24038205 0.056521107 -0.24577883 -0.302115 0.22119324 0.10011139 0.30558947 -0.8014212
-0.27663225 -0.052712288 0.2336346 0.28455135 0.3051553 -0.3223103 0.05067082 0.0345332
-0.35816032 0.048096333 0.2987134 0.2735346 0.37626293 0.06410902 0.05772942 0.5539338
0.33366483 0.012283102 -0.016232725 -0.052751463 -0.42867562 -0.015416971 -0.022499822 -0.067201175
0.12818386 0.43846998 0.020012239 0.16778052 0.15637556 -0.016958721 -0.43173057 0.21561895
0.19343454 0.12606066 0.065431446 0.46466333 0.092051394 0.33790717 -0.057842847 0.27517092
0.5095781 0.07191919 0.055554494 0.41174257 -0.33557114 -0.14806299 0.45769542 0.032590043
0.30539137 0.19775334 0.41307864 0.40846476 0.081218325 0.038059305 -0.028546588 -0.17331731
0.34376702 0.4091645 -0.24859397 0.059578955 0.085328184 0.18053259 -0.115610816 0.388078
0.070727356 0.022428086 -0.15833308 0.10067477 0.16676632 0.012879079 0.13208635 -0.41270837
0.06517944 0.437154 -0.14107622 0.059918694 0.046140887 0.009354668 0.09040568 -0.25925168
0.27137163 -0.04026744 0.42733526 0.12521884 0.038902022 0.09772371 0.27999514 0.297874
-0.07256602 -0.040830962 0.124705404 -0.8406047 -0.62036556 -0.72690773 0.12189052 0.024154633
-0.14569227 0.13162287 0.24112323 -0.24949065 -0.22722296 0.082185544 0.10707122 0.1090666
0.32751775 0.11509454 0.4609426 0.10120956 0.092842214 0.11581672 -0.21561712 0.41142884
-0.10543035 -0.46463233 -0.37136328 0.14220585 0.16889839 0.27977785 -0.74754894 -0.1991126
0.055129316 0.34866378 0.4183961 0.39130357 -0.2621855 0.075123794 0.08085459 -0.2461369
0.15364243 0.33159122 0.46660516 0.38678125 0.2755751 0.06399625 0.48083127 0.13797235
0.11378181 0.20395634 0.06563233 -0.27350608 -0.15587565 0.12617277 -0.098136194 0.04528049
0.20735429 -0.10990875 -0.025984477 0.25068507 0.11382782 -0.40753314 0.25375432 0.19490895
0.063544616 0.04159083 0.42279515 0.14741682 0.44354177 0.031191666 0.27885264 0.36844784
-0.08526839 0.037963517 0.26529035 -0.36017427 -0.043579843 0.39532378 -0.114648156 0.33280995
0.13908216 0.5236402 0.58015 0.098973304 0.0955143 -0.121772535 -0.1634955 0.29992616
0.34938887 -0.30173913 0.07556751 -0.03604693 0.18078685 -0.18192479 0.30903202 0.13641956
0.03409804 -0.37458652 -0.02322025 0.15935996 0.04715828 0.29024062 -0.47252205 0.14003246
0.43961483 -0.115105025 0.08886954 0.08096948 0.09120587 0.082835056 -0.4100242 0.117787994
0.02011874 0.3069527 0.2625883 0.007408509 0.15369593 0.39080578 0.123517744 -0.1809413
0.15307407 0.14135212 -0.78613114 -0.62807685 -0.5988565 0.09444403 -0.010491582 -0.19624789
0.06252953 0.026315844 -0.16000369 -0.08834576 0.06019715 -0.004088431 0.10244667 0.25920007
-0.025470292 0.38098285 0.2830314 0.13253126 0.13089891 -0.27928564 0.25604147 0.0836183
-0.30509862 -0.2405852 0.24665315 0.223725 0.35877082 -0.80233395 -0.37146956 0.07390031
0.0846673 0.1524879 0.22933345 -0.35801527 0.0621301 -0.021990804 -0.32229412 0.116756976
00000000: b626 763e ad82 673d 72ad 7bbe d1ae 9abe
00000010: 7b80 623e 3307 cd3d 3976 9c3e f129 4dbf
00000020: bea2 8dbe d7e8 57bd e93d 6f3e b7b0 913e
00000030: 513d 9c3e db05 a5be 358c 4f3d af72 0d3d
00000040: ca60 b7be a900 453d f6f0 983e ba0c 8c3e
00000050: 89a5 c03e 974b 833d af75 6c3d 9bce 0d3f
00000060: 1ed6 aa3e 103f 493c 7efa 84bc eb11 58bd
00000070: 5f7b dbbe 7797 7cbc 8c51 b8bc c5a0 89bd
00000080: a142 033e 237f e03e b5f0 a33c a8ce 2b3e
00000090: ea20 203e 04ed 8abc ca0b ddbe 37cb 5c3e
000000a0: b413 463e 0c16 013e ec00 863d 5ae8 ed3e
000000b0: 7185 bc3d 2b02 ad3e 9fec 6cbd 34e3 8c3e
000000c0: b673 023f 5e4a 933d 1c8d 633d eccf d23e
000000d0: fbcf abbe d39d 17be 0e57 ea3e 237d 053d
000000e0: 425c 9c3e da7f 4a3e 0b7f d33e 4b22 d13e
000000f0: cb55 a63d 13e4 1b3d 89da e9bc 187a 31be
00000100: 3b02 b03e 027e d13e 6b8f 7ebe 1009 743d
00000110: 8bc0 ae3d 89dd 383e 5dc5 ecbd 29b2 c63e
00000120: 81d9 903d 1bbb b73c 1122 22be 932e ce3d
00000130: cac4 2a3e c602 533c a541 073e 834e d3be
00000140: cc7c 853d a6d2 df3e 4976 10be 4e6d 753d
00000150: 3afe 3c3d 5244 193c 9d26 b93d a3bc 84be
00000160: 39f1 8a3e 79ef 24bd b0cb da3e 5e39 003e
00000170: ba57 1f3d 5e23 c83d 865b 8f3e f182 983e
00000180: 7e9d 94bd 5e3e 27bd 8c65 ff3d df31 57bf
00000190: 47d0 1ebf a016 3abf bda1 f93d f0df c53c
000001a0: 5b30 15be 25c8 063e 02e9 763e 7a7a 7fbe
000001b0: 23ad 68be e550 a83d 2848 db3d 4f5e df3d
000001c0: 68b0 a73e b0b6 eb3d ab00 ec3e f546 cf3d
000001d0: 0f24 be3d 5131 ed3d bcca 5cbe cda6 d23e
000001e0: deeb d7bd 4ae4 edbe 5423 bebe 699e 113e
000001f0: b3f3 2c3e 0b3f 8f3e 5e5f 3fbf 2ce4 4bbe
00000200: 47cf 613d 0f84 b23e 0338 d63e f158 c83e
00000210: 2e3d 86be 81da 993d 1797 a53d 500b 7cbe
00000220: 7154 1d3e 53c6 a93e dfe6 ee3e 3108 c63e
00000230: 2e18 8d3e 7710 833d 842f f63e a048 0d3e
00000240: 7006 e93d eed9 503e 3e6a 863d fd08 8cbe
00000250: de9d 1fbe 6f33 013e a1fb c8bd 0978 393d
00000260: af54 543e d717 e1bd 66dd d4bc cb59 803e
00000270: 8f1e e93d 2fa8 d0be 16ec 813e 3696 473e
00000280: ae23 823d 255b 2a3d 9b78 d83e 6ff4 163e
00000290: e817 e33e aa85 ff3c c6c5 8e3e 32a5 bc3e
000002a0: 32a1 aebd a27f 1b3d 23d4 873e c368 b8be
000002b0: c780 32bd e167 ca3e a7cc eabd 1166 aa3e
000002c0: 8e6b 0e3e 490d 063f b684 143f 84b2 ca3d
000002d0: 009d c33d e163 f9bd 5d6b 27be ec8f 993e
000002e0: 19e3 b23e 8d7d 9abe 24c3 9a3d f2a5 13bd
000002f0: 3020 393e 7e4a 3abe 7239 9e3e 92b1 0b3e
00000300: 63aa 0b3d cec9 bfbe 6538 bebc 422f 233e
00000310: 0a29 413d 6b9a 943e 69ee f1be ab64 0f3e
00000320: 3215 e13e 2fbc ebbd 3c01 b63d 54d3 a53d
00000330: 25ca ba3d 6da5 a93d b1ee d1be d53a f13d
00000340: 0ed0 a43c e728 9d3e f971 863e 14c3 f23b
00000350: 7762 1d3e b217 c83e dff6 fc3d ad48 39be
00000360: 73bf 1c3e 9cbe 103e e43f 49bf a5c9 20bf
00000370: a94e 19bf df6b c13d e2e4 2bbc 35f5 48be
00000380: 7b0f 803d 5394 d73c 02d8 23be 9fee b4bd
00000390: 4991 763d 3ff8 85bb 8fcf d13d dfb5 843e
000003a0: 13a7 d0bc 2f10 c33e 7ee9 903e 46b6 073e
000003b0: 5d0a 063e 87fe 8ebe de17 833e 1240 ab3d
000003c0: e335 9cbe f75b 76be a592 7c3e 2b18 653e
000003d0: cfb0 b73e c265 4dbf 4231 bebe 0c59 973d
000003e0: 0d66 ad3d ca25 1c3e 63d6 6a3e c74d b7be
000003f0: 227c 7e3d 0f26 b4bc bc03 a5be 481e ef3d

l3.bias f4 [9]
0.54637146 0.22366954 -1.7500639 0.38907358 -0.43340254 -0.14852807 2.2378008 1.218032
-0.88675827
00000000: 00df 0b3f a109 653e 1802 e0bf a734 c73e
00000010: f0e6 ddbe be17 18be 2138 0f40 79e8 9b3f
00000020: 9702 63bf

l4.weight f4 [53, 9]
0.07569782 -0.12426048 -0.007214032 0.8671906 0.15204504 0.12197029 -0.050501533 -0.09059548
0.5968679 0.027247619 0.2618131 -0.28674042 0.14471301 0.049045727 0.11575234 -0.0012677192
1.694013 0.35566124 -0.22642204 0.10228038 0.13957158 0.041054018 -0.114496104 -0.11458873
-0.010271004 2.519939 -0.3651309 0.19572084 -0.1828632 -0.034197588 0.036318947 -0.44420564
-0.34426123 0.2598534 0.18261203 -0.5323411 -0.28495958 0.22809668 0.11687546 -0.08029634
0.14390899 -0.03359748 -2.4720516 1.9767436 -0.58809274 -0.112556785 0.13294229 -0.077809595
-0.25536716 -0.2548337 0.033549123 -0.23773918 -0.21794905 -0.28236613 -0.03537084 -0.3290012
0.28474814 0.22125976 0.0979898 0.3320708 -0.105450235 0.037419476 -0.46899036 0.028336344
-0.27885738 0.2537939 -0.114481 -0.092643015 0.24868348 0.013107221 2.5914426 0.32045612
0.14088969 -0.19470458 0.0593692 0.49531478 -0.27157542 -0.22964393 0.02176965 1.9797473
-0.4393556 0.25880235 0.1228655 -0.38050163 -0.024795992 -0.55678195 -0.409313 0.0679801
-0.3663515 0.16311324 -0.2899962 0.08506692 0.23869994 -0.1434415 0.09581763 -0.19157067
-2.3522334 2.2723925 -0.12079296 -0.24485412 0.14229684 0.10952305 -0.1471881 -0.049921088
0.07738828 0.0016893937 3.0144787 0.279713 0.06967708 -0.08353394 -0.3053466 -0.22418086
-0.32960752 0.20119959 -0.10905307 0.020217363 -0.19247434 0.2932765 -0.041635193 -0.25446662
0.16720033 -0.007304493 0.15521275 -0.0012124901 2.435192 0.0646091 -0.19043632 0.14476809
0.05580546 0.04972848 0.13828425 -0.05476914 -0.08103329 1.921777 0.1075826 0.06571538
0.0734673 -0.05691822 -0.7138504 -0.501734 -0.88744926 -0.69801366 0.6857161 0.70341176
-0.29974034 0.15850154 0.14413951 0.3431395 -0.2828689 -0.15289697 0.007644401 2.6945496
-0.22123468 0.07165338 0.11148717 -0.038655978 0.18621242 -0.094664484 0.19587593 -0.03659178
0.65609086 -0.102379195 0.07953514 -0.011841611 -0.18847488 0.34692463 0.22945097 0.24341317
-0.20992258 0.61291337 -0.31628066 -0.24353798 0.031096727 -0.10178969 0.027972449 0.2814268
-0.15878116 -0.29093158 -0.2634581 -0.16181701 -0.23224854 -0.013191577 0.2263882 0.37807223
0.39256126 0.12364969 -0.27509308 1.6210403 0.23231356 -0.05007629 -0.0070955134 0.32566655
-0.29010078 -0.17224021 -0.26327217 -0.07911392 1.0847453 0.094175756 0.0904772 0.029527891
0.0028071036 0.18922052 0.009386121 -0.21961609 -0.32516193 2.052734 0.0845511 -0.1720703
0.3944834 -0.21230312 -0.13235404 0.11825162 -0.38228914 0.17395191 0.2574607 -0.47167984
-0.06682404 -0.19349538 0.28525826 0.33259657 0.10996537 0.6011711 -0.25857309 0.46958375
1.0641122 0.0017832773 0.3203421 -0.20488702 0.026735367 -0.18053553 -0.17748316 -0.032088157
1.8502678 0.5768566 -0.23599458 -0.054811675 0.13452254 0.02155824 -0.020683197 -0.08904817
-0.47982654 0.19302203 0.3883984 -0.041923746 -0.28570604 -0.20700082 0.02053534 0.1796238
0.038676478 -0.221811 -0.2734065 0.17849335 -0.15261085 -0.1743425 0.37675345 0.0076315766
00000000: 7507 9b3d 477c febd b063 ecbb 3400 5e3f
00000010: b2b1 1b3e 8fcb f93d b2da 4ebd 1f8a b9bd
00000020: 56cc 183f 6636 df3c 5e0c 863e a4cf 92be
00000030: a62f 143e 2ce4 483d 900f ed3d 9929 a6ba
00000040: 6bd5 d83f 3b19 b63e 2edb 67be 6078 d13d
00000050: daeb 0e3e 4228 283d ef7c eabd 7fad eabd
00000060: b747 28bc ae46 2140 70f2 babe 0b6b 483e
00000070: 7e40 3bbe c512 0cbd 2dc3 143d ec6e e3be
00000080: 0243 b0be 810b 853e a6fe 3a3e 8247 08bf
00000090: 39e6 91be 2d92 693e 675c ef3d 6872 a4bd
000000a0: e15c 133e 839d 09bd 1836 1ec0 ef05 fd3f
000000b0: 3f8d 16bf 2c84 e6bd 0622 083e a35a 9fbd
000000c0: 7cbf 82be 9079 82be ce6a 093d e671 73be
000000d0: 092e 5fbe 4b92 90be 04e1 10bd d872 a8be
000000e0: 82ca 913e eb91 623e e0ae c83d 2f05 aa3e
000000f0: 4bf6 d7bd 2a45 193d 811f f0be 9f21 e83c
00000100: 65c6 8ebe 46f1 813e 0475 eabd 9fbb bdbd
00000110: e2a6 7e3e abbf 563c 32da 2540 d312 a43e
00000120: 6345 103e a360 47be 1e2d 733d e699 fd3e
00000130: ef0b 8bbe c727 6bbe 4456 b23c 5c68 fd3f
00000140: 38f3 e0be be81 843e e8a0 fb3d 1cd1 c2be
00000150: f720 cbbc 4389 0ebf 7991 d1be 2739 8b3d
00000160: 6c92 bbbe 2807 273e 627a 94be 9137 ae3d
00000170: c26d 743e 54e2 12be 093c c43d 1a2b 44be
00000180: fe8a 16c0 e16e 1140 4d62 f7bd 0abb 7abe
00000190: 43b6 113e 9f4d e03d 7ab8 16be 0e7a 4cbd
000001a0: bf7d 9e3d a56e dd3a 38ed 4040 8b36 8f3e
000001b0: dbb2 8e3d d813 abbd 6456 9cbe ab8f 65be
000001c0: 51c2 a8be 4407 4e3e 3757 dfbd e29e a53c
000001d0: fe17 45be 5628 963e aa89 2abd 7349 82be
000001e0: 9036 2b3e 875a efbb 17f0 1e3e 6bec 9eba
000001f0: 30da 1b40 c751 843d bd01 43be 163e 143e
00000200: 4494 643d 17b0 4b3d 639a 0d3e 9b55 60bd
00000210: c8f4 a5bd cafc f53f 4454 dc3d c995 863d
00000220: 0676 963d 1423 69bd e6be 36bf a471 00bf
00000230: e02f 63bf 06b1 32bf 178b 2f3f cb12 343f
00000240: 9177 99be 3a4e 223e 4f99 133e fbaf af3e
00000250: 31d4 90be 0691 1cbe e27d fa3b 8073 2c40
00000260: 588b 62be 02bf 923d 6353 e43d bb55 1ebd
00000270: 78ae 3e3e 74df c1bd b393 483e 43e1 15bd
00000280: 92f5 273f 2fac d1bd 52e3 a23d 5103 42bc
00000290: 8fff 40be 1ba0 b13e 32f5 6a3e 4d41 793e
000002a0: f2f5 56be e4e7 1c3f 8aef a1be 0562 79be
000002b0: 90be fe3c 1d77 d0bd 7a26 e53c 2c17 903e
000002c0: 8797 22be fcf4 94be fbe3 86be 5cb3 25be
000002d0: 90d2 6dbe 7c21 58bc 4fd2 673e af92 c13e
000002e0: cafd c83e 0c3c fd3d 00d9 8cbe 407e cf3f
000002f0: 9be3 6d3e cc1c 4dbd 7b81 e8bb c4bd a63e
00000300: 1788 94be bd5f 30be 9ccb 86be 7b06 a2bd
00000310: efd8 8a3f 38df c03d 1c4c b93d 7ae4 f13c
00000320: 62f7 373b 06c3 413e 3fc8 193c 0ae3 60be
00000330: a07b a6be fe5f 0340 2129 ad3d 3233 30be
00000340: baf9 c93e fd65 59be d187 07be e82d f23d
00000350: 67bb c3be 7320 323e e4d1 833e 0580 f1be
00000360: 0bdb 88bd a723 46be 5f0d 923e 194a aa3e
00000370: 8635 e13d 59e6 193f b163 84be 486d f03e
00000380: d434 883f dbbc e93a e103 a43e e7cd 51be
00000390: 2104 db3c 4ede 38be 25be 35be df6e 03bd
000003a0: 93d5 ec3f e0ac 133f 90a8 71be 3582 60bd
000003b0: 47c0 093e e89a b03c cf6f a9bc e35e b6bd
000003c0: d3ab f5be 91a7 453e 28dc c63e 3cb8 2bbd
000003d0: 1048 92be 06f8 53be bb39 a83c 4def 373e
000003e0: 3a6b 1e3d 6c22 63be f0fb 8bbe f6c6 363e
000003f0: 0546 1cbe d786 32be d4e5 c03e 4e12 fa3b

l4.bias f4 [53]
-1.6033505 5.600139 5.562452 -0.05382458 4.3420234 -0.19619949 -0.7592865 4.2621965
3.1056824 0.5429948 5.032085 6.3111296 0.22429276 5.665255 3.8954372 -0.9463724
6.357986 1.2585794 0.9151873 0.26299658 3.3686807 2.3463204 4.311557 3.3282938
-2.7863965 5.015506 0.2960772 0.2862554 3.4778397 -5.2234817 5.7886853 1.3801798
-0.03463825 -0.3174465 5.893856 -0.27423027 0.17631999 -4.9724526 0.31138855 -1.673878
0.22864388 -0.39841315 0.18001741 -0.31085244 2.9547758 0.60066074 1.7164428 -0.28019288
2.7067995 1.3992251 4.0791287 2.4625137 -0.24817644
00000000: 973a cdbf 5734 b340 9bff b140 2a77 5cbd
00000010: dbf1 8a40 85e8 48be 9a60 42bf ea63 8840
00000020: 80c3 4640 b501 0b3f d706 a140 c6f4 c940
00000030: 00ad 653e c549 b540 d84e 7940 7645 72bf
00000040: 9f74 cb40 2119 a13f b749 6a3f 7da7 863e
00000050: 7798 5740 1d2a 1640 46f8 8940 c402 5540
00000060: 5254 32c0 067f a040 6e97 973e 1190 923e
00000070: ed94 5e40 c326 a7c0 e93c b940 bba9 b03f
00000080: d6e0 0dbd 5988 a2be 789a bc40 e967 8cbe
00000090: 3a8d 343e 551e 9fc0 526e 9f3e a241 d6bf
000000a0: 9f21 6a3e cffc cbbe 7c56 383e 0d28 9fbe
000000b0: 0c1b 3d40 e7c4 193f 66b4 db3f 7175 8fbe
000000c0: 343c 2d40 cf19 b33f 3988 8240 d399 1d40
000000d0: f721 7ebe

l5.weight f4 [85, 53]
-0.12049265 -0.116940126 -0.12872745 -0.08682913 -0.12445438 -0.030393623 -0.14133205 0.07440485
0.059618793 -0.00027370322 0.07087275 -0.052437607 -0.030758271 -0.092507355 0.017389527 -0.092365324
0.031399384 -0.10237106 -0.112197965 -0.035307426 0.08344426 0.023915917 -0.13262165 0.034409586
-0.014808626 -0.11350505 -0.074488424 -0.08077253 -0.07031423 0.062374305 -0.1429699 0.030664401
-0.10193817 -0.13545361 0.007274478 -0.061598368 0.078277975 -0.15331882 0.04722304 -0.16033675
-0.13142914 0.09346822 -0.055340115 0.05586913 -0.13571355 0.017313942 -0.12122649 0.03281354
-0.040609505 -0.10074908 -0.081617124 0.0059228223 -0.0013398952 0.06511666 0.8680813 0.04833946
-0.17811662 0.2833418 -0.033800416 0.043870848 -0.04485627 0.027884088 0.3029294 0.0854326
0.27563015 0.002405668 0.18541406 0.037243377 0.021242047 0.17634314 0.107345946 0.26229286
0.09112147 0.04798067 0.022322211 0.13375765 0.13434952 -0.38233885 0.29745042 -0.44817507
-0.07794962 -0.06710504 0.011680498 0.519667 -0.18510935 0.038731903 -0.06869903 0.38707522
-0.14716357 -0.139914 -0.03538129 -0.12288454 -0.015126829 0.03101241 -0.0947851 0.08247238
-0.102280624 0.12671778 -0.3450844 0.122868985 0.0055781687 0.020756071 0.021246027 0.27598011
-0.083882496 -0.343879 0.056673694 1.0394258 0.08979664 -0.013726334 0.034304537 0.083481364
-0.11977897 -0.22205308 0.109465875 0.25077122 0.14168325 0.14688216 0.05924038 0.27557704
0.069395065 0.12438747 0.17749456 0.023891848 0.114153765 -0.11383913 -0.17830616 -0.039976176
0.040815078 0.17812335 -0.47743 0.29533404 -0.2754606 -0.11707659 -0.16929318 -0.073452085
0.55517626 -0.008635236 -0.08917022 0.096736625 0.22428003 -0.064940125 -0.14027692 -0.009876389
0.10129915 0.047224287 0.024099922 -0.10783166 0.08510359 -0.08147714 -0.069012605 -0.35227603
0.15266994 -0.07528567 -0.11642479 -0.12659231 0.1711702 0.050303206 -0.36935604 -0.13196938
0.3888037 0.13900027 0.02278705 0.0075718164 0.036108952 0.06285986 0.3520123 0.03312542
-0.045515064 0.1433295 0.20135722 -0.0766322 0.2303825 0.13476682 -0.05223829 0.2458854
0.07855793 -0.2066857 -0.041462015 -0.009762247 0.13827705 0.05098271 0.20092292 -0.31230733
0.25500324 0.0012568929 -0.06545036 0.24209173 0.0056202384 0.20846437 -0.03607046 0.13281876
-0.09498348 0.37994024 -0.22844552 0.16481279 -0.0650131 0.08060787 0.008212897 -0.22955613
-0.058740437 0.053328495 -0.16041464 0.14167166 -0.52444315 0.26389393 -0.037969615 -0.07725217
0.10448578 0.22848314 0.07851909 -0.54331493 -0.26327494 0.1156115 0.017797861 0.06708691
0.23023051 0.022930136 0.33460295 0.5229636 0.076407425 0.18380708 0.11178719 0.3498292
0.008016698 -0.14210132 -0.038175493 0.23596153 0.0024516084 0.04176637 0.26916105 -0.09567044
0.08481912 0.13326591 0.06775331 0.018501714 -0.5714955 0.14287703 -0.24102728 -0.09962912
0.25673103 -0.07221681 0.3447899 -0.07058764 -0.105507575 -0.008592393 0.46162072 0.24445713
0.27047122 -0.10642338 -0.0019145815 -0.14318316 0.104001485 0.19071674 -0.14767343 0.03678536
00000000: dac4 f6bd 4e7e efbd 21d1 03be 79d3 b1bd
00000010: f0e1 febd 0cfc f8bc 59b9 10be 9261 983d
00000020: d632 743d d37f 8fb9 bb25 913d d1c8 56bd
00000030: c5f8 fbbc 7f74 bdbd 7b74 8e3c 082a bdbd
00000040: a49c 003d eba7 d1bd 0cc8 e5bd 859e 10bd
00000050: d3e4 aa3d 50eb c33c f8cd 07be 11f1 0c3d
00000060: e19f 72bc 5675 e8bd 638d 98bd 116c a5bd
00000070: e800 90bd 337c 7f3d b466 12be e933 fb3c
00000080: f6c4 d0bd 5ab4 0abe bf5e ee3b 924e 7cbd
00000090: 3450 a03d 9cff 1cbe f26c 413d 512f 24be
000000a0: 5c95 06be 446c bf3d 51ac 62bd 07d7 643d
000000b0: 7ef8 0abe f8d5 8d3c 9845 f8bd 7e67 063d
000000c0: 2756 26bd 8955 cebd e126 a7bd 3c14 c23b
000000d0: 6c9f afba e25b 853d 933a 5e3f 99ff 453d
000000e0: 3464 36be 2d12 913e 4e72 0abd ebb1 333d
000000f0: 35bb 37bd 2c6d e43c 9019 9b3e 49f7 ae3d
00000100: 651f 8d3e 69a8 1d3b 2fdd 3d3e 838c 183d
00000110: cd03 ae3c 4c93 343e 31d8 db3d 404b 863e
00000120: e59d ba3d 6187 443d 12dd b63c c4f7 083e
00000130: ec92 093e ebc1 c3be 6c4b 983e 3477 e5be
00000140: 0da4 9fbd 5e6e 89bd 8f5f 3f3c e608 053f
00000150: 4e8d 3dbe 58a5 1e3d 14b2 8cbd b92e c63e
00000160: 0cb2 16be 9e45 0fbe f9eb 10bd e4aa fbbd
00000170: 85d6 77bc bd0d fe3c b11e c2bd 47e7 a83d
00000180: 8178 d1bd 4ec2 013e e7ae b0be bca2 fb3d
00000190: 12c9 b63b a308 aa3c 260c ae3c 444d 8d3e
000001a0: 96ca abbd e910 b0be ad22 683d e80b 853f
000001b0: 4de7 b73d 6be4 60bc ea82 0c3d 47f8 aa3d
000001c0: ad4e f5bd e261 63be a52f e03d 1665 803e
000001d0: 6a15 113e 4768 163e 0aa6 723d 6f18 8d3e
000001e0: 001f 8e3d dcbe fe3d 22c1 353e d6b8 c33c
000001f0: 73c9 e93d 7d24 e9bd e495 36be 0fbe 23bd
00000200: b62d 273d f865 363e b471 f4be 0636 973e
00000210: 2c09 8dbe dac5 efbd 315b 2dbe 0c6e 96bd
00000220: 0820 0e3f ce7a 0dbc e09e b6bd da1d c63d
00000230: aaa9 653e 54ff 84bd c1a4 0fbe 94d0 21bc
00000240: ee75 cf3d 416e 413d 336d c53c d8d6 dcbd
00000250: ca4a ae3d 7ddd a6bd 7b56 8dbd 865d b4be
00000260: 8255 1c3e 602f 9abd 1f70 eebd 6aa1 01be
00000270: 3e47 2f3e bc0a 4e3d 3c1c bdbe fb22 07be
00000280: 4711 c73e 1656 0e3e e8ab ba3c 001d f83b
00000290: fbe6 133d acbc 803d f53a b43e 85ae 073d
000002a0: 016e 3abd f8c4 123e 9630 4e3e 58f1 9cbd
000002b0: 64e9 6b3e 5000 0a3e d1f7 55bd 62c9 7b3e
000002c0: fbe2 a03d 6ba5 53be 13d4 29bd d5f1 1fbc
000002d0: 8098 0d3e 3fd3 503d bdbe 4d3e bfe6 9fbe
000002e0: c98f 823e 54be a43a d70a 86bd e5e6 773e
000002f0: fa29 b83b af77 553e 9ebe 13bd a401 083e
00000300: b386 c2bd 8787 c23e 9fed 69be afc4 283e
00000310: 9725 85bd bd15 a53d 638f 063c c310 6bbe
00000320: d099 70bd fb6e 5a3d bc43 24be 6012 113e
00000330: e841 06bf 1b1d 873e 0786 1bbd 6336 9ebd
00000340: a4fc d53d 7cf7 693e 9ece a03d b016 0bbf
00000350: f9cb 86be b9c5 ec3d d2cc 913c dd64 893d
00000360: 8cc1 6b3e fbd7 bb3c 1451 ab3e f1e0 053f
00000370: 7f7b 9c3d ec37 3c3e aff0 e43d d01c b33e
00000380: 7858 033c 0283 11be e85d 1cbd e69f 713e
00000390: 2aab 203b 3713 2b3d 7acf 893e ddee c3bd
000003a0: a6b5 ad3d dc76 083e 3fc2 8a3d e890 973c
000003b0: 874d 12bf 5b4e 123e dbcf 76be 5a0a ccbd
000003c0: 4072 833e 68e6 93bd 4d88 b03e 4190 90bd
000003d0: 5b14 d8bd 1cc7 0cbc 8d59 ec3e f852 7a3e
000003e0: 347b 8a3e 80f4 d9bd b2f2 faba 9b9e 12be
000003f0: bbfe d43d 404b 433e b437 17be 3fac 163d

l5.bias f4 [85]
0.04784694 4.589913 4.363344 4.5528517 4.940781 -0.021784216 1.5849631 -0.07156621
-0.11415323 -0.06686337 4.7270823 3.8226435 -2.975024 4.344256 4.198178 -0.007220074
1.3960471 3.8698428 4.4824767 0.104510866 5.0657554 -0.027440662 0.17653158 4.6911955
3.5219548 -0.03881923 -6.4998493 0.056235675 -5.506006 -0.09688722 -0.09389279 0.9320237
2.2436628 4.6620436 -0.11594032 0.08536772 -0.07147574 4.3460217 2.6509907 -0.73792315
0.18486159 -0.09924906 0.018118095 5.002802 -0.13876994 5.014178 -0.14479055 2.922856
4.357806 0.9345979 4.8859477 0.0066102818 4.253861 0.06529838 -0.11149916 0.51002663
4.8466063 0.7182925 4.8280506 1.2565048 0.077847406 0.08616704 4.892533 -0.08990235
3.339901 4.178077 2.3556142 0.07801777 -0.02370163 -0.1438721 -0.13269272 -0.07439103
-0.029658893 0.104510374 4.5061975 4.3641915 4.4230494 4.1214275 -0.0017359243 4.1777472
-0.1027169 0.10962376 -1.0071837 0.061368298 3.2441652
00000000: 27fb 433d 91e0 9240 84a0 8b40 f6b0 9140
00000010: e11a 9e40 d074 b2bc 12e0 ca3f 4e91 92bd
00000020: 2bc9 e9bd aaef 88bd 4244 9740 31a6 7440
00000030: cb66 3ec0 2504 8b40 7957 8640 5f96 ecbb
00000040: acb1 b23f 81ab 7740 7370 8f40 cb09 d63d
00000050: ab1a a240 3dcb e0bc b2c4 343e 461e 9640
00000060: b567 6140 ea00 1fbd c4fe cfc0 6157 663d
00000070: 3331 b0c0 cf6c c6bd dd4a c0bd 1b99 6e3f
00000080: 2c98 0f40 762f 9540 1e72 edbd 45d5 ae3d
00000090: df61 92bd 9c12 8b40 d5a9 2940 88e8 3cbf
000000a0: 5b4c 3d3e 1743 cbbd 666c 943c f416 a040
000000b0: b519 0ebe 2574 a040 f943 14be 1310 3b40
000000c0: 2673 8b40 cf41 6f3f af59 9c40 109b d83b
000000d0: a11f 8840 28bb 853d ac59 e4bd 1b91 023f
000000e0: 6617 9b40 04e2 373f 647f 9a40 26d5 a03f
000000f0: 766e 9f3d 5878 b03d a18f 9c40 b91e b8bd
00000100: f0c0 5540 cfb2 8540 62c2 1640 c8c7 9f3d
00000110: ec29 c2bc 3553 13be 9ae0 07be 535a 98bd
00000120: 35f7 f2bc 8909 d63d c532 9040 75a7 8b40
00000130: 9f89 8d40 bce2 8340 f487 e3ba 1bb0 8540
00000140: 3d5d d2bd 6c82 e03d 65eb 80bf 535d 7b3d
00000150: 67a0 4f40

l6.weight f4 [3, 85]
0.017550929 -0.15326172 -0.14222327 -0.14925687 -0.30519748 -0.022621453 -0.14086351 -0.061806176
-0.0013572912 0.08475131 -0.10333655 -0.05018712 0.3531212 -0.047814336 -0.26282942 0.055313487
-0.18555684 -0.46665958 -0.14906645 -0.00999785 -0.15344507 0.07662063 -0.5277474 -0.11490134
-0.22387016 -0.066506214 0.9566463 0.047220774 0.58672094 0.077070996 0.02854499 -0.1277762
-0.34536707 -0.17684425 0.011989565 0.013826178 -0.00014101075 -0.112095594 -0.017821182 0.4016036
-0.042919904 -0.011642433 3.868989e-05 -0.26843047 0.015490643 -0.16877095 0.07404146 -0.09324019
-0.06054747 -0.086026385 -0.13597108 -0.07903069 -0.08180026 0.014501961 -0.073679976 -0.32383975
-0.15359862 -0.31055617 -0.29741305 0.23142616 -0.024739444 0.037604548 -0.07499976 0.008304528
-0.07839141 -0.018622069 -0.06672291 0.0023008673 -0.054923523 0.07944705 -0.025174692 -0.09281524
0.052185297 0.07978309 -0.11807536 -0.33659077 -0.07876922 -0.03557183 0.040227707 -0.04596754
-0.030518807 0.059894554 -0.11423632 0.017876294 0.07262644 -0.06842082 -0.11261888 -0.1989167
-0.1365812 -0.14222927 0.040499777 0.21887152 0.016237995 0.0713789 -0.0046670455 -0.25538975
-0.07754368 -0.12514889 -0.05852076 -0.17102975 0.022551607 0.05169087 0.27205008 -0.114463545
0.059999026 -0.2601714 -0.036806297 0.035270352 -0.11982247 -0.28341836 0.0921347 0.6944879
0.032969207 -0.039684277 -0.11395496 0.052316625 0.23806696 -1.1398902 -0.1946709 0.09700983
-0.10269314 -0.015594522 -0.07637394 -0.018514305 0.33086058 -0.038809396 0.072385736 0.077363566
-0.2571985 0.07974105 -0.13371302 0.033301007 0.04695684 -0.19728729 0.12841414 -0.1647605
0.039306324 -0.13767263 -0.050515756 0.08560884 0.13245074 -0.13070899 0.3229675 -0.2387199
-0.180637 0.008129734 0.030339431 -0.115027234 -0.04635747 -0.03216003 -0.16126505 0.041007616
-0.03798213 0.032988768 0.010938008 0.03571812 0.06445429 0.08495189 -0.08105214 -0.20373279
-0.23585404 -0.10259931 -0.1816049 0.0029753847 -0.07676896 0.01239791 -0.07016859 1.306759
-0.044431284 -0.13887613 0.04346319 -0.0057186536 0.06387312 -0.13849366 -0.13879645 0.068522006
-0.4241418 0.025016394 0.066142246 0.035237037 -0.046509895 -0.12459027 -0.01386001 -0.060643952
-0.18626392 -0.08124647 -0.5058582 -0.50555784 -0.1884929 -0.0024774845 -0.07536165 0.012680951
0.3537083 -0.11557089 0.16116995 0.07250224 0.58515114 0.07307459 0.6495491 0.029152786
0.01905766 -0.49540204 0.73194027 -0.23683335 0.05830339 0.0665953 0.07352914 -0.13755408
-0.15236458 -0.4776583 -0.07462555 0.062264677 0.014772918 -0.09135231 -0.007958917 -0.05481647
0.03324991 -0.07373967 -0.10335374 -0.2176899 -0.07660635 -0.07897935 -0.19438851 0.065249406
0.040824465 0.2765839 -0.087868445 0.18938094 -0.20971574 -0.1003634 -0.00978233 -0.04746341
0.0022432064 0.046337027 -0.14652893 -0.079196215 -0.20094085 0.008826602 0.051282637 -0.015469041
0.02012411 0.028571261 -0.08288449 0.08147486 0.029242855 -0.2945401 -0.09890469 -0.058071062
-0.04319069 -0.10970606 0.079701625 0.0790945 -1.3154767 0.025956467 -0.043087367
00000000: f7c6 8f3c a4f0 1cbe faa2 11be cbd6 18be
00000010: d842 9cbe a050 b9bc 863e 10be 7928 7dbd
00000020: 23e7 b1ba 1892 ad3d 1da2 d3bd 0291 4dbd
00000030: 4dcc b43e f7d8 43bd 9491 86be 6590 623d
00000040: 9d02 3ebe 01ee eebe e0a4 18be 06ce 23bc
00000050: b420 1dbe 47eb 9c3d 741a 07bf 6551 ebbd
00000060: 383e 65be 6934 88bd c6e6 743f 926a 413d
00000070: 5833 163f 66d7 9d3d 2fd7 e93c c4d7 02be
00000080: f4d3 b0be a916 35be e16f 443c 3287 623c
00000090: 49dc 13b9 6092 e5bd bafd 91bc fd9e cd3e
000000a0: c8cc 2fbd e7bf 3ebc f446 2238 b86f 89be
000000b0: 77cc 7d3c 4bd2 2cbe 0da3 973d b6f4 bebd
000000c0: a000 78bd 9a2e b0bd 013c 0bbe d8da a1bd
000000d0: e586 a7bd a299 6d3c 87e5 96bd 53ce a5be
000000e0: f548 1dbe 3801 9fbe 8646 98be fbfa 6c3e
000000f0: 60aa cabc 3a07 1a3d 7999 99bd b70f 083c
00000100: ad8b a0bd 4f8d 98bc 05a6 88bd 26ca 163b
00000110: 7df7 60bd 23b5 a23d 283b cebc eb15 bebd
00000120: 40c0 553d 5165 a33d 7fd1 f1bd a055 acbe
00000130: c251 a1bd c4b3 11bd cfc5 243d 7648 3cbd
00000140: 9402 fabc fe53 753d bbf4 e9bd 4e71 923c
00000150: 2cbd 943d 3720 8cbd baa4 e6bd d2b0 4bbe
00000160: f1db 0bbe 8da4 11be 18e3 253d db1f 603e
00000170: 8b05 853c 1a2f 923d 04ee 98bb 72c2 82be
00000180: 39cf 9ebd 0827 00be 77b3 6fbd 6c22 2fbe
00000190: 26be b83c ceb9 533d 264a 8b3e dd6b eabd
000001a0: 8ac1 753d 3035 85be 33c2 16bd a577 103d
000001b0: 7c65 f5bd 361c 91be 1eb1 bc3d f6c9 313f
000001c0: b80a 073d fb8b 22bd 3861 e9bd f549 563d
000001d0: d3c7 733e ece7 91bf cf57 47be 17ad c63d
000001e0: c850 d2bd 2a80 7fbc f169 9cbd 50ab 97bc
000001f0: 8f66 a93e 9af6 1ebd f93e 943d ca70 9e3d
00000200: 86af 83be 474f a33d 11ec 08be a366 083d
00000210: d155 403d ae05 4abe ff7e 033e fab6 28be
00000220: abff 203d 0efa 0cbe 9ce9 4ebd b053 af3d
00000230: 2ba1 073e 94d8 05be ff5b a53e fd72 74be
00000240: e8f8 38be 9332 053c 668a f83c 6693 ebbd
00000250: 55e1 3dbd 3cba 03bd aa22 25be 9af7 273d
00000260: 2693 1bbd 3b1f 073d 5535 333c 2a4d 123d
00000270: 9c00 843d 42fb ad3d aafe a5bd 549f 50be
00000280: b983 71be 961f d2bd a3f6 39be acfe 423b
00000290: 0b39 9dbd 9a20 4b3c 8db4 8fbd e143 a73f
000002a0: 94fd 35bd 8b35 0ebe 7506 323d 8b63 bbbb
000002b0: e9cf 823d 48d1 0dbe a820 0ebe 4455 8c3d
000002c0: 1d29 d9be 2eef cc3c 9675 873d b654 103d
000002d0: 2981 3ebd 2f29 ffbd 1815 63bc cb65 78bd
000002e0: f8bb 3ebe 8d64 a6bd ec7f 01bf 3d6c 01bf
000002f0: 4804 41be 4b5d 22bb 3557 9abd c3c3 4f3c
00000300: 4119 b53e 6eb0 ecbd bc09 253e 0e7c 943d
00000310: 77cc 153f 21a8 953d da48 263f d3d1 ee3c
00000320: cf1e 9c3c 56a5 fdbe 7060 3b3f 7184 72be
00000330: 89cf 6e3d 1e63 883d 7296 963d fada 0cbe
00000340: 7605 1cbe a18f f4be 48d5 98bd 3f09 7f3d
00000350: 1c0a 723c eb16 bbbd 1e66 02bc 3c87 60bd
00000360: 0f31 083d d304 97bd 20ab d3bd 1aea 5ebe
00000370: cae3 9cbd edbf a1bd c80d 47be 7ba1 853d
00000380: 8e37 273d 689c 8d3e 5ff4 b3bd 14ed 413e
00000390: b9bf 56be 548b cdbd 1146 20bc fe68 42bd
000003a0: c202 133b e5cb 3d3d ae0b 16be a031 a2bd
000003b0: 70c3 4dbe 749d 103c be0d 523d dc71 7dbc
000003c0: 51db a43c 470e ea3c 58bf a9bd 4bdc a63d
000003d0: b68e ef3c f6cd 96be 8b8e cabd ecdb 6dbd
000003e0: b9e8 30bd 92ad e0bd 9b3a a33d 4cfc a13d
000003f0: 8a61 a8bf a8a2 d43c 617c 30bd

l6.bias f4 [3]
-4.222319 -3.665111 -2.4065268
00000000: 3d1d 87c0 2e91 6ac0 8904 1ac0
