models/Others/model_PGNN_0_1e-3_1.pt (torch, 127233 bytes, 12 tensors)

l1.weight f4 [189, 9]
000000 db dc d7 bc 2b cc ad be ff 96 8a 3f 69 12 36 3f
       -0.02635043 -0.3394483 1.082733 0.7112184
000010 bf c5 03 c0 71 b8 41 bd 13 b2 2f bf c0 e7 a3 be
       -2.0589445 -0.047295038 -0.68631095 -0.3201275
000020 e9 a4 8b bd 7c 50 3e bb 33 2a a1 3f 15 3a c6 bf
       -0.068185635 -0.0029039672 1.2591003 -1.5486475
000030 b8 da f2 be ac af 59 bf e3 1d 10 c0 91 cf c9 bc
       -0.47432494 -0.8503368 -2.2518241 -0.024635108
000040 9f 0d 05 bf 0a 33 9f bd af 2a 11 bd 24 b4 f7 bf
       -0.5197391 -0.07773407 -0.035441097 -1.935185
000050 df 93 d3 3f 97 31 5b bf e2 6f 96 be bd c2 c5 3e
       1.6529502 -0.85622543 -0.29382235 0.38625136
000060 ba 8a 53 3e 73 6f 96 bf 0a e3 20 bf 14 a0 ad 3a
       0.20658389 -1.1752762 -0.62846434 0.001324656
000070 2d 55 da 3e e3 ef 0a 40 10 29 54 bf ae d7 2d 3e
       0.4264311 2.1708915 -0.82875156 0.16976807
000080 03 e5 a3 3d 11 f3 d4 bd cc 4b 1b be a6 7b e5 bd
       0.08002665 -0.10397924 -0.15165633 -0.11205225
000090 ce e9 d4 3b 02 29 4c 3f 3a a2 48 3f 68 8e 33 3f
       0.0064975983 0.7975007 0.7837254 0.7013917
0000a0 93 d5 6b 3e be c8 d9 bf 46 3a 8c bf d2 4c 74 bf
       0.23030691 -1.7014387 -1.0955284 -0.9542972
0000b0 00 a4 0d bf fa 44 c6 bb 68 e1 be 3e ae 4d 36 3f
       -0.5532837 -0.006050703 0.37281346 0.7121228
0000c0 f0 57 50 bf 91 12 9b 3e 7e 8e 3a bf f9 49 23 c0
       -0.8138418 0.30287603 -0.72873676 -2.55139
0000d0 03 a2 8d bf 0e 4c e5 be c9 be 5e 3b ba 4e b4 bf
       -1.1065067 -0.44784588 0.0033988229 -1.4086525
0000e0 75 f8 64 bf 37 e2 9a bd 8b 88 45 bf 53 24 5b 3f
       -0.89441615 -0.07562678 -0.77161473 0.856023
0000f0 81 63 ea 3d 45 30 8e bf a5 6d 1f 3f af 1e 45 bb
       0.1144476 -1.1108481 0.6227668 -0.0030078103
000100 ed aa 3b bf c7 0f ba be 38 44 53 3e 51 7e 8a 3f
       -0.7330769 -0.36340162 0.20631492 1.0819799
000110 c9 65 13 c0 90 b4 da be 78 46 a0 bd dd a6 23 3e
       -2.3030875 -0.42715883 -0.07825941 0.15981622
000120 bb c6 9a 3b 2f a1 5e be 0d 4e ba bf 31 1d 77 be
       0.0047233975 -0.21741174 -1.4555069 -0.2413223
000130 48 64 46 bf a7 1a 92 bf 52 e1 66 3f 1b 16 17 3f
       -0.7749677 -1.1414384 0.9018756 0.59018105
000140 78 1a 35 be 08 4b 8c bb 51 56 c2 bd f3 bd 0b 3d
       -0.17685878 -0.0042814054 -0.0948912 0.034116697
000150 7e 4c ba bf e0 f3 34 3f 5e 8c 4e 40 94 af 99 bf
       -1.4554594 0.70684624 3.2273173 -1.2006707
000160 bb 9d 81 3e 13 09 f5 3d 72 7e 2e ba fe 1e 8e bf
       0.2531565 0.119646214 -0.0006656415 -1.1103208
000170 59 46 ec 3f 46 53 3f 3e 0d 8a de bf b1 18 07 3d
       1.8458968 0.1868411 -1.738588 0.032982532
000180 d0 3b 39 3e c9 db 8b bf 77 1a a1 be 68 22 5b 39
       0.18089223 -1.0926448 -0.31465504 0.00020898285
000190 51 d1 b5 3e e2 ed 83 bf d4 b8 e5 bd 0b 3b 77 be
       0.35511258 -1.0306971 -0.11216894 -0.24143617
0001a0 4a 3e bc bd ce 83 62 3d c5 38 88 3f d6 30 c7 3e
       -0.09191568 0.05530148 1.0642325 0.38904446
0001b0 db 7a 05 3d e5 b6 1d 40 3f af a1 3e dd 5c 70 3d
       0.032587867 2.464288 0.31579015 0.05868231
0001c0 0d 87 b2 be 78 02 6f be ac 77 05 c0 44 1b 82 bf
       -0.3486866 -0.23340786 -2.0854292 -1.0164571
0001d0 eb e2 a8 be d7 12 45 bb cd b9 ac be b5 c5 2a bf
       -0.32985625 -0.0030071044 -0.33735505 -0.66707927
0001e0 dd 33 51 bd 9a 6a ce 3f 39 6c 0d c0 2a 36 18 bd
       -0.05107485 1.6126282 -2.2097304 -0.03716103
0001f0 9a d7 4b bf 3d f1 2b 3f ad cf c9 3b b6 ce a5 bd
       -0.79625857 0.67164975 0.00615879 -0.080960676
000200 7f ca 5a bf 1d 2f ac bd e5 cf d1 be 5c c1 07 c0
       -0.85465235 -0.08407424 -0.40978923 -2.1211767
000210 28 7f 10 3f 09 4d 98 bf d9 cb 0b be a0 8f bf b9
       0.56444025 -1.1898509 -0.1365198 -0.00036537368
000220 b8 01 43 be 1f 7f c0 3f 1f db 83 bd cb aa 38 c0
       -0.19043624 1.5038794 -0.064382784 -2.8854244
000230 d3 6d dc be f1 e0 b1 3d 34 bb a9 3e 79 82 b7 be
       -0.4305254 0.08685482 0.33150637 -0.3584173
000240 5f e4 bb bb 69 e8 8a bf 0c 67 6b bf df bc aa bd
       -0.005734011 -1.0852176 -0.9195411 -0.083368056
000250 60 91 ec bc 31 ab 3f be 5a 1e 54 bf 52 87 52 bf
       -0.028877914 -0.18717648 -0.8285881 -0.8223773
000260 f1 66 1a 3f f4 3a bf bb d5 f7 26 40 03 0e 6a 3e
       0.60313326 -0.005835885 2.6088765 0.22856908
000270 07 2b 77 be 1d e8 47 3e cb d5 28 be c1 eb b5 bf
       -0.24137507 0.19522138 -0.16487806 -1.4212571
000280 a3 fe b9 bf 00 ef 67 be 52 f2 7b 3b ff cd 4e 3f
       -1.4530834 -0.22649765 0.0038443995 0.80783075
000290 83 27 92 bf 24 33 b1 bc 38 41 a0 bf 7c e4 b9 bf
       -1.1418308 -0.021630831 -1.2519903 -1.4522853
0002a0 7c 60 12 3e 3e 3c f5 3e 9c 7b b4 bd 1a cc 9f ba
       0.14294618 0.47897524 -0.08812639 -0.0012191564
0002b0 35 eb 45 bf f9 64 50 bf cc 12 f6 bd 9c 28 83 bf
       -0.7731202 -0.8140407 -0.12015304 -1.0246768
0002c0 15 86 ed 3f 5b 19 e9 bd 95 44 5c bf 5e f5 85 3e
       1.8556544 -0.11381789 -0.8604215 0.26163763
0002d0 72 b8 2c 3c 28 7d d6 be 74 8a 89 3f 19 d7 eb 3e
       0.010542022 -0.41892362 1.0745378 0.46062544
0002e0 e2 d6 44 c0 c6 e2 56 3f d7 fe b7 3f 35 3b 84 be
       -3.0756154 0.8393978 1.4374646 -0.2582642
0002f0 45 09 3d 3e 24 31 43 3b 6f bb a1 bf bd 52 b8 bf
       0.18460567 0.0029783929 -1.2635325 -1.440025
000300 a1 f8 5c bd 29 7b 9a 3f ed 3e 89 3f be be ff 3e
       -0.05394805 1.2068835 1.0722328 0.49950212
000310 a3 0f 4d be 58 32 1a 3e b1 7b db b9 63 c4 52 3d
       -0.20025496 0.15058267 -0.00041863092 0.05145682
000320 03 3d 59 3f 9b a5 06 3e ce 3c 04 c0 e8 53 ec bf
       0.8485872 0.13149111 -2.0662112 -1.8463106
000330 a5 46 e4 bd dd 04 8b bf c8 96 99 3e 2e 1e 84 3c
       -0.11146287 -1.0860859 0.2999785 0.016127672
000340 6f 2c 2d bf 37 94 4d bf f3 97 8a be 99 fb 7e 3f
       -0.67645925 -0.8030428 -0.27069053 0.9960266
000350 cf 03 2c bf 3a 38 da 3f 95 35 c4 be be ce 55 3f
       -0.6719331 1.7048409 -0.3832213 0.8351859
000360 90 9e 47 bc ab 5a 04 3d c5 3a 2e 3f 24 25 b2 3f
       -0.0121838 0.03231303 0.68058425 1.3917584
000370 ca f0 6b 3e f6 75 46 3b 24 93 53 be d7 2a 9d bf
       0.23041072 0.0030282713 -0.20661598 -1.2278699
000380 d1 92 14 c0 ff a8 f3 3b ed 6e 90 3e d5 f2 c5 bf
       -2.321461 0.0074359174 0.2820963 -1.5464731
000390 14 42 8e be cb 55 19 c0 11 b8 f1 3d 58 05 31 3f
       -0.2778479 -2.3958614 0.11802686 0.6914878
0003a0 16 dc 72 3e 3a 15 eb be 77 00 0c bc 25 34 db bf
       0.23716769 -0.45914632 -0.008545033 -1.7125288
0003b0 91 fe 53 bf 72 28 87 be 77 e1 4d be 66 f2 1f 3e
       -0.8281031 -0.26398045 -0.2010554 0.15619811
0003c0 95 c9 56 bf 65 a3 33 bf 4d 3f c6 3e 10 3b 20 3c
       -0.8390134 -0.70171195 0.3872017 0.009779707
0003d0 4d 96 cb bf ad 91 ec 3f aa 45 32 bf 81 c9 6e be
       -1.5905243 1.8481957 -0.6963755 -0.23319055
0003e0 e4 ed 43 be f4 92 d2 bf 2b 6d 2d bd 62 71 ea bf
       -0.19133717 -1.6451097 -0.04234044 -1.8315852
0003f0 0a fa e4 38 11 e9 08 be 66 12 2d bf 57 e2 57 be
       0.000109184606 -0.13370158 -0.676062 -0.21082436

l1.bias f4 [189]
000000 0c 21 90 bf b1 f8 d8 3e df 5e 32 bf f9 88 19 3d
       -1.1260085 0.42377236 -0.6967601 0.037484143
000010 cd 7e 58 3e 1b ee d1 3e 50 20 e7 3e 42 ca 26 3f
       0.2114212 0.41001973 0.4514184 0.6515237
000020 af 3f c0 39 9a d1 21 bf ac 66 8f be 0e 83 33 3f
       0.00036668542 -0.6321045 -0.2800802 0.7012185
000030 6c 92 52 3e d3 ca 09 3f b0 54 9e 3e 85 ae c0 3d
       0.20563668 0.5382511 0.30923986 0.09408287
000040 b8 f8 62 3e d2 7c eb 3e 78 27 b7 3e 5b f2 39 3f
       0.22165191 0.45993668 0.357723 0.7263543
000050 16 fd f2 bd c6 e5 54 be d8 e4 6a 3e 4b a0 69 bd
       -0.118646786 -0.20790777 0.2293886 -0.057037633
000060 1a 95 6f bf 4d 07 7f 3e 33 3a f7 3d 9b ad 25 bc
       -0.93586886 0.24905129 0.120716475 -0.010112192
000070 ae 94 8a 3e cd aa 4a 3e 3c 44 ef be 80 fa 85 be
       0.2706656 0.19791718 -0.46731746 -0.2616768
000080 db 2f 49 3f 99 29 06 bf 76 f2 9a 3e 4b c5 c9 3e
       0.78588647 -0.52407223 0.30263108 0.39408335
000090 b6 31 32 3f de fc 82 be 88 cf 0c bf 17 91 8e be
       0.696071 -0.25583547 -0.5500417 -0.2784507
0000a0 f8 85 5f 3f d8 4d 19 3e 31 f9 2a bf 16 13 87 be
       0.87313795 0.14971101 -0.66786486 -0.2638175
0000b0 e7 10 2b 3f 9d ae e1 3e 1c 43 1a be 6a 9c bc 3e
       0.66822666 0.44078532 -0.15064663 0.36838084
0000c0 49 1e fc 3d 43 54 9f 3c 49 60 c8 3e a7 b5 82 3e
       0.12310464 0.019449359 0.3913596 0.25529215
0000d0 24 64 f9 3d e5 31 86 bb 95 97 6c bf fc 15 cf 3e
       0.121773034 -0.0040953034 -0.92418796 0.4044646
0000e0 75 3a ad 3e e9 61 cf bd b2 68 bb 3e f0 8f 38 3f
       0.33833662 -0.10126097 0.36603314 0.7209463
0000f0 03 e1 7d 3e c0 07 57 3d 1b 84 ec bc 60 68 fa bd
       0.24792866 0.052497625 -0.028871587 -0.12226939
000100 6d 69 81 bc 52 0a 9f 3e 3b a1 1a bf e9 11 40 3e
       -0.015797341 0.3106256 -0.6040227 0.18756832
000110 f0 3d ce 3e 3e 45 99 3e 07 cd 11 bf d5 f9 78 3e
       0.4028163 0.2993564 -0.5695347 0.24314053
000120 b8 81 43 bf cf 03 9b bd de 19 3a 3e f0 42 05 3e
       -0.7636981 -0.07569086 0.1817393 0.13013816
000130 32 2a 18 bf 85 12 0e 3f 7d 01 59 bc 4c e5 98 3e
       -0.59439385 0.5549701 -0.013244984 0.2986244
000140 03 b4 b3 3e 67 08 44 bf 59 2e 79 3d fa 93 38 3f
       0.35098276 -0.7657532 0.060835216 0.72100794
000150 8b ac 90 3e af b5 0d 3f d9 9f 21 3f 9e 02 2c bf
       0.2825664 0.5535535 0.63134533 -0.67191494
000160 57 bb 9c be e1 0f 11 3e 79 7a ea 3e 1b e4 2a be
       -0.3061168 0.14166214 0.45796564 -0.16688578
000170 ea a9 b6 3d 5a 93 3d bf 3d bc 51 3f 96 f2 73 3e
       0.08919127 -0.74052966 0.81927854 0.23823008
000180 8f b2 44 bf 1f d0 1c 3f e2 f9 ab 3e 6b b2 8c 3d
       -0.7683496 0.6125507 0.33589083 0.06869968
000190 80 fe 39 bf bd 12 26 3d ab 2e 6d 3f cd da 92 3e
       -0.7265396 0.040545214 0.92649335 0.28682557
0001a0 b2 28 d5 3d 62 44 4e be c7 d6 13 3e 18 62 5a be
       0.10408153 -0.20143273 0.144374 -0.21326482
0001b0 33 07 45 3f 6d 9b cf 3e fc 10 c6 bc 25 86 b0 3e
       0.7696411 0.40548268 -0.02417802 0.34477344
0001c0 81 b1 24 bf 77 ef 98 be 3a c4 a7 be fd 2d 09 3f
       -0.6433335 -0.29870197 -0.32766896 0.535858
0001d0 80 3a db 3e e2 7f a5 3e 0a a0 3a 3f 73 2d 91 be
       0.4281807 0.3232413 0.7290045 -0.28354988
0001e0 5f b4 7d 3e 48 12 90 bf 58 62 2b 3e 7b 85 35 3d
       0.24775837 -1.1255579 0.16736734 0.04431675
0001f0 70 f3 5d 3e 54 c2 16 3f ed ef 25 3f 58 62 0c 3e
       0.21674895 0.5889027 0.6481922 0.1370939
000200 d3 05 03 3f 81 73 dd 3e c0 4f ab 3d f2 99 03 3e
       0.5118076 0.43252185 0.083648205 0.12851694
000210 3d 13 d9 3e 33 ca 23 3f a4 cf 64 3e df c5 28 3f
       0.4239749 0.63980407 0.22344834 0.6592693
000220 f7 a2 37 3d e9 7b ef be 4a f1 c7 bd 6b c7 c3 be
       0.04483315 -0.46774223 -0.09762819 -0.3823808
000230 6a 60 04 bf 05 38 89 bd e1 62 b1 3d 8e 3a 8e 3e
       -0.51709616 -0.06700138 0.08661438 0.2777905
000240 69 6c 9d 3e af 9a 16 bf 16 94 f6 3d 47 de 72 3d
       0.30746773 -0.5882978 0.12039964 0.05929401
000250 92 72 87 bf fe d2 81 be da cd 21 3f c4 60 28 3f
       -1.0581839 -0.25356287 0.6320473 0.6577265
000260 6d 3d 1d 3e d3 52 f2 bd 10 4c 0c 3e e8 20 02 3e
       0.15355463 -0.11832204 0.1370089 0.12707865
000270 3f 94 13 3f ec 5f 70 bb 6e 63 34 3d 95 4d ee be
       0.5764808 -0.0036678268 0.044040136 -0.46543565
000280 68 6a 1d 3f e0 7b d6 3d 35 7a a2 bd 5a 20 34 bf
       0.6149049 0.10472846 -0.079334654 -0.70361865
000290 e5 06 4c be 3c 24 fc 3e fb c0 31 3f 7a 35 6f 3f
       -0.19924505 0.49246395 0.6943509 0.93440974
0002a0 1c e8 45 3f 2d 65 dc be 6b 29 d4 3e 6e 0c 48 3f
       0.77307296 -0.4304594 0.4143785 0.78143966
0002b0 9b 04 4e bf b4 ff 2d 3e 97 0d 0b 3d ea 93 ea 3e
       -0.8047578 0.16992074 0.033948507 0.45815974
0002c0 2e f2 78 3d 22 26 15 bf 9a 14 fa 3e 08 15 54 3c
       0.060777836 -0.5826131 0.48843843 0.012944467
0002d0 79 4f 95 3e ef d5 fc be e5 7c 99 be fb 11 74 bd
       0.29162195 -0.49381968 -0.299781 -0.05958746
0002e0 cb 66 f8 3d 16 96 11 3c c1 5b 2f bf cc ed 0d bf
       0.12128981 0.008885881 -0.6849938 -0.55440974
0002f0 6f dc ac 3e
       0.33761927

l2.weight f4 [119, 189]
000000 ca 9d 28 be f3 ac 87 3e 67 f6 9c be 8e 73 0b be
       -0.16466442 0.26499137 -0.3065674 -0.136183
000010 98 69 9a be bd 41 47 3c 3c 75 58 3e 71 a6 a9 3d
       -0.30158687 0.012161669 0.21138471 0.08283699
000020 1c 72 5a 3e 4c e9 a6 bf 3d 80 25 be b1 22 86 3d
       0.21332592 -1.3039947 -0.161622 0.065495856
000030 7d 04 ce be ed 2a 01 3f 48 35 ae 3e 27 64 2e bd
       -0.402378 0.50456125 0.34025025 -0.04257598
000040 ee 77 7f 3c 15 8c 49 3d 8d 64 3d 3e 1a ee 3e 3e
       0.015592558 0.04920586 0.18495388 0.18645516
000050 62 ea 5e be 25 cd 59 be c1 b0 9e 3c 38 53 89 3e
       -0.21769097 -0.21269663 0.019371392 0.26821303
000060 7c 3f da be 37 48 7c 3d 54 33 39 be ea 1e 21 bf
       -0.4262656 0.061592307 -0.18085986 -0.62937796
000070 e1 9d aa 3b 63 de 8e bd 7a f4 c1 be e6 b3 94 be
       0.005206809 -0.06976011 -0.37881833 -0.29043502
000080 8d ee 19 3d df ad 7c be 4d 4b ab 3e 52 c4 6e 3d
       0.037581015 -0.24675702 0.33455887 0.058292694
000090 1a c4 79 3e 74 da a9 be 6b 5d 35 be de 9d cd be
       0.24391213 -0.3317448 -0.17711417 -0.40159506
0000a0 b5 28 8c 3e f9 17 4e 3e 6d e3 ab bd 59 a2 27 bf
       0.27374807 0.20126332 -0.083929874 -0.654821
0000b0 cd c8 85 3d 6b cc 1a be ff c6 0f be 9d 14 9c 3d
       0.0653244 -0.15117042 -0.14040755 0.07621119
0000c0 66 7a 86 3c f5 6f 12 be 81 f5 f3 3d d1 6b 2c 3e
       0.016415786 -0.1430052 0.119120605 0.16838004
0000d0 85 99 a7 3d 0b 61 a6 bd 1c e4 80 be 57 23 4d 3e
       0.081835784 -0.08123978 -0.25174034 0.20033012
0000e0 90 24 8c 3e fe 70 4b 3d a6 22 7d 3d 09 9b 35 3d
       0.27371645 0.049668305 0.06180062 0.044337306
0000f0 b5 cf 68 3d 4b d2 dd 3e 33 5e a0 3c 2c 09 38 3e
       0.05683871 0.43324503 0.019576168 0.17972249
000100 5e 25 7d bd 44 89 26 3e a5 d2 92 be da ba 0d 3e
       -0.061803214 0.162633 -0.28676334 0.1384081
000110 40 a0 3f be 76 73 16 3e a5 05 40 be e5 d0 c0 be
       -0.18713474 0.14692482 -0.18752153 -0.37659374
000120 37 87 25 bf 97 cf 82 3d a1 13 82 3d a3 fa ca bb
       -0.64659446 0.06387251 0.063514 -0.006194429
000130 d1 3f ea bd ce dc a8 3e 55 f1 17 3e a3 8a e7 3d
       -0.11437953 0.3298096 0.14838155 0.1130574
000140 38 41 a1 3d ec 76 9a bd b1 aa a5 be f8 c1 8a bd
       0.078737676 -0.07542214 -0.3235679 -0.06775278
000150 d4 ba 4d be c1 ab 31 3e e9 c8 18 3e 01 e4 70 be
       -0.200908 0.17350675 0.14920391 -0.23524477
000160 92 85 39 be cf 42 5a be 60 0e df 3e c6 31 69 be
       -0.1811736 -0.21314548 0.43565655 -0.22772893
000170 bd 88 58 bd c2 46 31 be b7 05 12 3e b8 db b6 3e
       -0.05286478 -0.17312148 0.14259993 0.35714507
000180 0d 87 bf be 04 7a d2 3e d2 82 a7 3d 38 cd 2b bf
       -0.37407723 0.41108716 0.08179249 -0.67110014
000190 a3 bf 45 be b4 e5 e6 bd 82 3d 04 3e d8 7b bc bd
       -0.19311385 -0.11274281 0.12914088 -0.09203309
0001a0 6f 74 6c bd 4a 60 9f 3d 3b e0 4f be 90 63 f7 3d
       -0.057728227 0.077820376 -0.20300381 0.12079537
0001b0 dd 37 1c 3e 0d 86 ab 3e 58 fe b6 bc 7b fd 52 3e
       0.15255685 0.3350071 -0.022338077 0.20604508
0001c0 a9 f6 83 bf 5f e1 bc bc d6 4f cb bc a9 0a 33 be
       -1.030965 -0.023056684 -0.024818342 -0.17484535
0001d0 4f b7 8e 3e 82 3e 81 bd 61 86 ff 3d a2 b3 80 be
       0.27874228 -0.063107505 0.124768026 -0.2513705
0001e0 1c 6b a1 bc bd d8 b1 be 94 e5 88 3e a5 11 2a bd
       -0.019704394 -0.3473567 0.26737654 -0.041520733
0001f0 b3 dc bc bd 1c 10 aa bc a1 74 79 3d 78 a9 5a 3e
       -0.092217825 -0.020759635 0.06090224 0.2135371
000200 3a 7b 29 3e f6 61 e5 3c e5 56 b0 3e cb aa dd bd
       0.16550913 0.028000813 0.34441295 -0.10823592
000210 b7 cc 4e be 0c 95 ee 3d 37 e4 8b bc f6 88 ff 3d
       -0.2019528 0.11649522 -0.017076595 0.12477295
000220 5c 9a e3 bc c5 47 37 be cf d3 c3 be 9e c0 3b bf
       -0.027783565 -0.17898472 -0.38247535 -0.73340786
000230 fa b6 0a bf fd 70 6e be 7e 8f 93 3d cd d4 a5 bd
       -0.5418545 -0.23285289 0.07205103 -0.08097229
000240 74 14 25 bc 8e 9d 9b 3d bf 3c 5f bd 5a 1c 07 be
       -0.010075677 0.075984105 -0.05450129 -0.13194409
000250 2e c2 80 be 51 6c 04 be af 3b 19 bd 8b c5 6f 3e
       -0.25148147 -0.12931944 -0.037410434 0.234152
000260 f9 38 90 3c 66 4b 95 be 9c 5d bf 3e a5 18 a0 3d
       0.017605292 -0.29159087 0.37376106 0.078172006
000270 53 95 d3 3a 69 67 7b 3e 17 91 e6 3e 59 2f 42 be
       0.0016142525 0.24551167 0.4503257 -0.18963374
000280 41 ff 4e 3c a4 c1 82 bd 35 3a dd 3c 9b 2e bc 3d
       0.012634099 -0.0638459 0.027005294 0.09188577
000290 1e 95 48 be 01 ed ff 3d 41 64 9f 3e 96 1b 1d bd
       -0.19588134 0.12496377 0.31131175 -0.038356386
0002a0 5d d7 06 3e a9 36 ee be 9f 4e d3 3d ec 06 f9 bd
       0.13168092 -0.46526077 0.1031773 -0.12159523
0002b0 70 5d 4d bf 7f ea 79 bd ac ca e2 3d be bd 38 3e
       -0.802207 -0.06101465 0.11073813 0.18041131
0002c0 ca 51 23 be 84 ed 83 bb 72 10 d5 bc 11 ea 20 3e
       -0.15949169 -0.004026117 -0.026008818 0.15714289
0002d0 06 9a 5c 3c 24 ad e4 bd 59 00 20 be 65 e5 3f 3c
       0.013464456 -0.111658365 -0.15625133 0.011712407
0002e0 53 53 09 be 33 23 54 bd d0 39 ee be 19 a1 ab be
       -0.13410692 -0.05179138 -0.46528482 -0.33521345
0002f0 74 1f a5 3d 79 04 aa 3d 90 90 a5 3c 1e 41 b0 3d
       0.0806264 0.08301634 0.020210534 0.0860617
000300 c4 e0 35 be d7 d9 1a be 51 9b 61 be 6e ac 85 3e
       -0.17761523 -0.15122162 -0.22031905 0.26108116
000310 35 48 1a be 3c bd 68 3d 2f 8f 8a 3e 97 5b e6 3c
       -0.15066607 0.056821093 0.27062365 0.028119845
000320 33 00 b1 3e 10 9d 22 bd 57 65 3e be 0f a2 03 3d
       0.34570464 -0.039700568 -0.18593346 0.032136973
000330 ab 9c f4 bd 4a 71 6e 3e 74 8a 17 be 87 5d b8 3d
       -0.119439445 0.23285404 -0.1479891 0.09002214
000340 fa 46 a3 3e 61 ed 90 be 60 ab cc 3d 72 50 e2 bd
       0.31890088 -0.28306106 0.09993625 -0.110505
000350 1e cb 3a bd 4c 56 7d 3d 1b f5 d1 bc c9 13 34 3e
       -0.045603864 0.061849877 -0.02562957 0.17585672
000360 fb ba d7 3d 05 36 a3 3d 2a 6b 47 3e 36 5d 1c bd
       0.105337106 0.07969288 0.19474474 -0.03817483
000370 74 cd 40 3d 3d 0b 63 3e d4 5b 30 3b a4 c0 9e 3e
       0.047070935 0.22172256 0.0026910203 0.31006348
000380 f4 eb 0d 3d 2e 90 84 be 2c 13 a3 bd a7 94 97 bd
       0.03464885 -0.2589125 -0.07962641 -0.074014
000390 32 d7 6d be 63 c7 88 3e 0c 3f 3e bc 92 80 f6 bc
       -0.23226622 0.2671462 -0.011611711 -0.030090604
0003a0 c5 e2 be be a3 f9 b1 3e 38 00 c8 3e 49 bd 15 3e
       -0.37282386 0.3476077 0.39062667 0.14622988
0003b0 24 f6 57 bd 1b 7d 8f 3e d2 d8 41 3d 59 a4 ba 3e
       -0.052724972 0.28025135 0.047325917 0.36453512
0003c0 46 a2 77 3e f9 72 e3 be 13 a9 51 bd 86 e7 26 3e
       0.24182996 -0.44423655 -0.051186632 0.16299257
0003d0 f0 40 a7 3e 53 26 fa 3b 97 d6 45 be 1b f0 83 be
       0.3266673 0.007633963 -0.19320141 -0.25769123
0003e0 82 b2 72 3e f3 84 00 be 29 de e4 bd 79 12 2d 3d
       0.23700908 -0.12550716 -0.11175186 0.042253945
0003f0 29 79 54 3e f3 de 56 3e d7 bd 84 be ad b2 0c be
       0.20749344 0.20983486 -0.25926086 -0.13740034

l2.bias f4 [119]
000000 af 9e 02 3e 51 83 df 3e c0 aa d3 bd 24 54 0d 3e
       0.12755845 0.43654874 -0.10335302 0.13801628
000010 d3 df 3d 3e c4 53 ce 3e ef f7 00 3c f7 dd ac 3e
       0.18542413 0.40298283 0.007871612 0.33763096
000020 9b 17 19 3f e1 2d dc 3e 12 a3 71 3e 62 60 1d 3f
       0.59801644 0.43003753 0.23597363 0.61475194
000030 e0 c6 db 3d 7d 84 cb 3e 84 8b df 3e 5f 15 64 3e
       0.10731292 0.39749518 0.4366113 0.22273777
000040 8a 9a 9e 3e 7e bd 14 3f 6b fa b8 3d 5f 52 ba 3e
       0.3097728 0.5810164 0.090321384 0.3639097
000050 b3 31 87 3e 48 39 bf 3e e6 69 92 3e 9a ab 9d 3e
       0.26405105 0.3734839 0.2859642 0.30794984
000060 3f 59 ab 3e 69 77 a3 3e 39 c6 ac 3e 2c 02 34 3e
       0.33466527 0.3192704 0.33744982 0.17578954
000070 49 94 77 3d 1d 8e e2 3e ec 40 05 3f 5e c7 9a be
       0.06044415 0.4424905 0.5205219 -0.3023023
000080 d5 47 97 3e f3 fe df 3e 56 c3 0c 3f cc 91 ce 3e
       0.2954699 0.43749198 0.5498556 0.4034561
000090 1b 0e 92 3e 18 a6 eb bd 22 e1 f9 3e b9 4b 1f 3e
       0.28526387 -0.11506289 0.48804575 0.1555623
0000a0 9c 21 70 3e 87 2a 2a 3e 6e d8 2a 3d 84 cc 1c ba
       0.23450321 0.16617785 0.04171031 -0.0005981403
0000b0 97 5e 11 3f 45 25 a4 3e 6e 22 a7 3e 5c 8c 54 3e
       0.5678496 0.32059684 0.32643455 0.20756668
0000c0 38 6b 18 3f 56 d6 05 3f 75 93 b9 3e b1 7d 14 3e
       0.595386 0.52280176 0.36245313 0.14501072
0000d0 00 fa 42 3e 59 82 03 3f d3 1f c7 3e a9 cb 00 3e
       0.1904068 0.5137077 0.38891467 0.1257769
0000e0 bc fb 8f 3e 6b 58 dd 3e b2 6c fb 3e fc bd cb 3e
       0.28121746 0.4323152 0.49106365 0.39793384
0000f0 b0 97 91 3d 3e 65 04 3f e5 ad de 3e f9 b2 9b 3e
       0.0710901 0.51716983 0.43492046 0.30409983
000100 b4 04 a0 3e 1b de de 3e f0 cc c7 3e 90 9f a3 3e
       0.31253588 0.43528828 0.39023542 0.31957674
000110 97 15 d6 3e de b8 ce 3e 93 9a 57 bd b3 6f 95 3e
       0.41813347 0.40375417 -0.052637648 0.29186782
000120 4e 2d 2e 3f cd 37 82 3e f9 eb 0d 3f 80 2e e7 3d
       0.6803788 0.25433198 0.5543819 0.11288166
000130 9b 5c f2 3e e5 9e 9c 3e e3 7d 91 3e 22 49 03 3d
       0.47336277 0.30589977 0.28416356 0.032052167
000140 31 33 be bd d2 ad 90 3e 19 d7 aa 3e 87 39 12 3e
       -0.09287108 0.28257614 0.3336723 0.14279757
000150 4b 48 23 3f 7c 36 39 3e 36 6d 50 3e 8b 5c 0c 3f
       0.63782185 0.1808719 0.2035416 0.5482871
000160 39 6d f5 3e 8f a0 ab 3d 50 4b a5 3e 33 72 c8 3e
       0.47934893 0.083802335 0.3228402 0.39149627
000170 fd c5 aa 3e 70 4e ca 3e 45 1a 0e bd 52 ab 96 3e
       0.33354178 0.39512968 -0.03469302 0.29427582
000180 7f d8 d8 3e 96 39 e0 3e 79 52 dd 3e a6 35 15 3f
       0.42352673 0.43793935 0.43226984 0.58284986
000190 d6 c0 fc 3e 64 52 48 3e 1b 12 75 3d fb 8d b4 3e
       0.49365872 0.1956268 0.05983172 0.35264573
0001a0 32 e7 e0 3e d6 fa a9 3e 01 3e 05 3f ff 6a 23 3e
       0.43926388 0.33199185 0.52047735 0.15958785
0001b0 b0 d2 d1 3e 99 02 01 3e 81 f2 9d 3e e9 78 cf 3e
       0.40981054 0.12598647 0.30849078 0.40521935
0001c0 9e d3 0b 3f 36 d3 df 3e 6d 86 d2 3e 1f a8 8f 3e
       0.5461978 0.4371583 0.41118184 0.28057954
0001d0 72 b5 d5 3e 98 05 37 3e f9 05 e6 3e
       0.41739994 0.17873228 0.44926432

l3.weight f4 [9, 119]
000000 64 19 15 bf 1a e7 02 3d 5f 80 51 be 06 90 84 3c
       -0.5824187 0.031958677 -0.20459126 0.016181957
000010 11 86 64 be 48 3e 7e bc 59 81 f3 bd 4e 49 3c 3e
       -0.22316767 -0.015517779 -0.118899055 0.18387339
000020 33 62 a1 3b 73 4e c4 3d 21 53 f6 3d 6e 1d 40 3d
       0.0049250363 0.095852755 0.12027574 0.046903066
000030 ac 03 ce 3c 5f 79 7b bd d8 e0 03 3f a6 e4 a2 3e
       0.025148235 -0.061395045 0.5151496 0.3181507
000040 4f 6c 1a 3d b0 a7 c9 3c b0 58 c1 3e 0a fa fb 3d
       0.037700947 0.024616092 0.37762976 0.123035505
000050 50 38 59 be 3c b2 5b be db 10 6a bf 7c 05 06 bf
       -0.21212888 -0.2145471 -0.9143197 -0.5235212
000060 4f 40 b6 bd d5 28 17 be f9 bc 60 bc 6e 19 0a be
       -0.08898985 -0.1476167 -0.01371693 -0.13486263
000070 33 3e b2 be 86 91 46 be ea 31 4c be 4a 6e 37 3f
       -0.3481308 -0.1939145 -0.19940916 0.7165266
000080 b5 ac b2 3c 0a aa b9 bb 6a b7 b9 3d c3 f8 c3 bd
       0.021810869 -0.005666022 0.090681866 -0.09568932
000090 11 7a bc 3d 3b 23 6e 3e b0 e5 9a bc 20 78 f7 be
       0.0920297 0.23255627 -0.018908352 -0.48333836
0000a0 21 6a 65 be 12 7c f3 3c 8d 83 39 3e a8 09 89 3e
       -0.22403766 0.029722247 0.18116589 0.2676518
0000b0 72 2d 30 bf ee 2f 92 3e 70 bb a4 3d 6b 75 ee 3d
       -0.68819344 0.28552192 0.08043563 0.116434895
0000c0 ff d8 6e 3c e3 57 62 bb 34 0e 41 3e ff c9 ee 3e
       0.014578103 -0.0034537248 0.18853074 0.46638486
0000d0 95 27 ac be 57 99 4b bc 32 29 f7 3e 38 c5 6d 3e
       -0.3362395 -0.012426696 0.48273617 0.23219764
0000e0 f9 6a 64 bd 76 66 43 3e 39 f7 f3 3d d4 3b dd 3d
       -0.05576608 0.19082054 0.11912388 0.10802427
0000f0 0b c1 b5 3d 85 dc bb 3d f7 f9 0e be e0 ad 9a 3e
       0.08874711 0.0917292 -0.13962542 0.3021078
000100 39 b2 0d 3f 81 f9 79 3e 38 20 87 be b1 0b 00 be
       0.5535007 0.24411584 -0.26391768 -0.1250446
000110 5b 93 73 ba 7e cd 1a 3e e4 95 1b 3f bb 4e 50 3e
       -0.0009291672 0.15117452 0.6077559 0.20342533
000120 57 5f f3 bc 86 3b af 3d 4d ce 0b 3e fa e5 5e bf
       -0.029708548 0.08556275 0.13652916 -0.87069666
000130 c4 1d 75 bd c8 b3 5e 3e c7 2c 4a bd 8b cc 23 be
       -0.05984284 0.21748269 -0.04935911 -0.15995996
000140 af 62 c8 3e 01 a9 b4 be ae c0 73 be a3 f1 6a bd
       0.3913779 -0.3528519 -0.2380397 -0.05735935
000150 83 ab e2 3e 04 64 60 be 5a e4 9b b8 35 c6 e0 bd
       0.44271478 -0.21913153 -7.43351e-05 -0.10975305
000160 e0 8b 8e 3f a5 12 33 3d 2d 17 18 bf be 9b 36 3f
       1.1136436 0.043718953 -0.59410363 0.71331394
000170 4d 48 cc bd 6b 02 4b 3c e2 7b 31 bf 70 cc f4 3d
       -0.09974728 0.012390713 -0.69329655 0.11953056
000180 ee 19 e2 bd d3 98 01 3d c5 0b d7 3d b6 db c5 be
       -0.11040102 0.031639885 0.10500292 -0.3864419
000190 5a 33 7d bd ec 68 c4 bd b9 88 e1 3d 26 7e 4f be
       -0.06181655 -0.09590325 0.11012406 -0.20262966
0001a0 c8 f9 81 bb c9 49 a4 3e b6 ef d8 bc c5 dc 4f 3d
       -0.003966544 0.32087544 -0.02648149 0.05074765
0001b0 5f 50 39 bc ae 14 9f be 35 d5 57 be bf a3 4f 3e
       -0.011310666 -0.31070465 -0.21077426 0.20277308
0001c0 33 a2 a2 3e 50 86 29 be 05 4d 05 3f 95 4a 71 3d
       0.31764373 -0.16555142 0.5207065 0.058909018
0001d0 54 f2 28 3e a1 4a 88 be 51 6b 85 bd ae f3 5d 3e
       0.16498691 -0.26619437 -0.065146096 0.21674988
0001e0 32 10 b0 b9 3a e8 24 bf 33 c8 91 be 44 57 a9 bc
       -0.00033581402 -0.6441685 -0.28473052 -0.020671494
0001f0 32 ee 96 3e 8b 42 8b 3e cb 39 7d be 75 87 71 3e
       0.29478604 0.27199206 -0.24729078 0.23586829
000200 b7 20 d8 3e 4b 6b 81 3d b4 07 b2 3e 30 f1 c2 3e
       0.4221246 0.06319293 0.34771502 0.38074636
000210 9e 5c 7b 3e 83 52 17 bf 8d 07 dd bc 37 31 61 3e
       0.2454705 -0.5911028 -0.02698114 0.2199143
000220 3b c9 6c 3e b6 3b d5 3f 27 78 b3 3e 64 fe f4 3d
       0.23123638 1.6658847 0.35052606 0.11962584
000230 a9 f8 a5 3e 62 99 1e 3d 98 03 8f 3f a9 46 bb 3d
       0.32416275 0.038720496 1.1172972 0.09144337
000240 56 f6 3f 3e ad 64 97 3e e4 31 03 3e 0b f6 08 3e
       0.18746313 0.29568997 0.12812 0.13375108
000250 f4 30 af 3d 7d d2 d8 3e 15 7d c0 bf 2f 0d 0a 3f
       0.08554259 0.4234809 -1.5038172 0.53926367
000260 08 95 9b 3d fa a4 e0 3d d0 2d f1 bd e3 3b bc 3d
       0.07596785 0.10968967 -0.11776316 0.0919111
000270 12 4b 0d be 24 c4 11 3e 67 58 65 bf 0b 11 3a 3e
       -0.13798168 0.14234978 -0.89588016 0.18170564
000280 ed b6 be 3d c2 c2 f2 bd 49 04 08 be 8a 6a 76 bd
       0.09312234 -0.11853553 -0.13282885 -0.060160197
000290 91 32 a6 bd e3 0f 74 3e e9 1f be 3e 9d b6 09 3e
       -0.081151135 0.23834185 0.3713372 0.13448568
0002a0 65 88 0d 3e eb f7 14 be 83 5b 88 be 99 36 0f 3e
       0.13821562 -0.14547698 -0.26632318 0.13985671
0002b0 e6 93 6a bf 43 ea 85 bf 76 88 aa be a4 89 8b 3e
       -0.91631925 -1.0462116 -0.33307236 0.2725345
0002c0 db 91 1d 3e b8 a2 bb 3e 71 49 ab 3e 46 4c 75 3e
       0.1538767 0.36647582 0.3345447 0.23954877
0002d0 f0 56 8f 3e b6 da 29 3e 74 96 34 3e 85 a9 d1 3e
       0.27996016 0.16587338 0.17635518 0.40949646
0002e0 2f d4 bc 3e f0 97 67 bd 70 68 18 bf 0b 7a 64 3f
       0.36880633 -0.056541383 -0.5953436 0.8924872
0002f0 54 37 6b 3e a5 ee be be 60 99 34 be 17 7f 98 3e
       0.22970325 -0.37291446 -0.17636633 0.29784462
000300 ab f5 25 be a4 ef b1 3d 52 fe 1e bd 1a 30 08 3e
       -0.16206996 0.08688286 -0.038816758 0.132996
000310 2a 93 59 bf 80 2a df 3d 62 72 fa 3d b7 df 1d bd
       -0.8499018 0.10896778 0.12228848 -0.03854343
000320 c1 12 94 3f 34 ff ff bc 3c f2 d2 3d e2 b2 28 bf
       1.1568223 -0.03124962 0.10300109 -0.65897954
000330 d2 23 40 3e 38 f4 df 3d 0a 3b cd bd 1b 8b a5 bf
       0.18763664 0.10935253 -0.100210264 -1.2933077
000340 ae a0 f1 bd 56 8d c4 be a0 1d a8 3e ab 31 b5 3d
       -0.11798225 -0.3838908 0.32835102 0.08847364
000350 6e 1b 80 3e 48 5a 9f bd 3a cd a1 bd f4 c3 b7 3d
       0.25020927 -0.07780892 -0.07900472 0.08972922
000360 16 d2 a9 3e 59 5b 87 3e c6 87 35 3f 9e 75 bc 3d
       0.33168095 0.2643688 0.709103 0.09202121
000370 f7 bd 03 3e 58 04 10 3e fe 28 f7 bd 61 c4 52 bc
       0.12865435 0.14064157 -0.120683655 -0.012864203
000380 c8 a0 d3 bd b6 ef 97 3d 0c 14 7a 3e e7 d0 85 3e
       -0.10333401 0.07418768 0.2442171 0.26135942
000390 71 4a 81 3c 9f 80 09 bd 04 2b 5e 3e f5 ad 96 3e
       0.015782567 -0.03356993 0.21696097 0.29429594
0003a0 f6 f7 1c 3c d8 3f f8 3e d9 b2 13 3e 57 a9 8c 3e
       0.009580603 0.4848621 0.14423694 0.27472946
0003b0 08 8d 9f 3d 45 ee a6 3c d4 af ca 3d 6a db 59 3e
       0.077905715 0.020377288 0.09896818 0.21275106
0003c0 66 26 e5 bd 48 dd cb be d0 6d 44 3d b1 e4 2a 3c
       -0.111889645 -0.39817262 0.047956288 0.010430501
0003d0 0a e7 47 bf 97 82 4a be dc e9 fa 3c c6 27 ea be
       -0.7808691 -0.19776379 0.030629091 -0.4573347
0003e0 fd 01 bc 3d 17 9c 8c bb 7a 05 64 3d ab 3f ab 3d
       0.09180067 -0.0042910683 0.055669285 0.08361753
0003f0 af 41 19 3f fd 74 8f bf 8a d5 7c 3c d1 0c 9a 3d
       0.5986585 -1.1207577 0.015431771 0.07521976

l3.bias f4 [9]
000000 cc 0c 0d be 69 7e e8 3e a1 23 ba 3e 8d 23 95 3e
       -0.13774413 0.45408943 0.36355308 0.29128686
000010 4d f3 5d 3e de e7 ff 3d 8d fe 6f 3e ab 3e 20 bd
       0.21674843 0.12495397 0.23436947 -0.039122265
000020 e8 0b 07 3f
       0.5275254

l4.weight f4 [53, 9]
000000 53 e8 d2 3e c1 f8 a8 3e f6 ad 85 3d 53 82 dd 3e
       0.41192874 0.33002284 0.06527321 0.43263492
000010 b0 9d 64 be d0 53 8f be f0 08 2a be 51 1d 68 be
       -0.22325778 -0.2799363 -0.16604972 -0.22667433
000020 09 e7 83 3e b5 7f 36 3e 86 23 c6 3e f0 7a b2 be
       0.25762203 0.17822154 0.38698977 -0.3485942
000030 18 ef 0b 3e 6d 02 28 3e ce 00 f2 3e 81 9b 03 3f
       0.13665426 0.16407175 0.4726624 0.51409155
000040 5d ad 32 bd c3 91 9e be e2 cf 26 be fd fa ba 3e
       -0.043622363 -0.30970582 -0.16290238 0.36519614
000050 29 a3 64 3e 1e 56 50 3e f3 1a 9e be b8 6c 90 be
       0.22327866 0.20345351 -0.30879936 -0.28207946
000060 61 56 c4 3e ee dd aa 3e 25 39 c4 bd bd 82 8b 3d
       0.38347152 0.33372444 -0.09581212 0.06812046
000070 26 c1 1c be 72 3b 01 bf e7 a9 9a 3e 17 27 de be
       -0.15308055 -0.5048133 0.3020775 -0.43389198
000080 b2 7d 90 3e 8d bb 44 3f 09 01 a9 3e 5b 8e be be
       0.28220898 0.7684868 0.33008602 -0.37217984
000090 dc 7f 20 bf ed e3 bf 3e a6 ca 59 3e 92 ae 4b 3e
       -0.626951 0.3747858 0.2126871 0.19890812
0000a0 e8 41 71 be 35 9e 3b be 2c a9 c1 bd 55 02 2f 3f
       -0.23560297 -0.1832207 -0.09456095 0.68362933
0000b0 79 83 6f be 66 c5 0b bf a8 a8 c8 3e 41 87 9b bd
       -0.23389997 -0.5459808 0.39191175 -0.07594157
0000c0 52 2d 04 be 1e ea 35 be a2 67 24 3d 52 9d 20 bc
       -0.12907913 -0.1776509 0.040137894 -0.009803133
0000d0 af a5 b1 bf 95 39 2e be c2 68 09 c0 0c 61 81 bf
       -1.3878688 -0.17014153 -2.147019 -1.0107741
0000e0 c4 b8 ca bc 8b fc 52 3e a7 78 0d 3c 94 91 8b 3d
       -0.024746306 0.2060415 0.008634723 0.06814876
0000f0 b2 dc 16 3e 45 32 0b 3e 8d ae c1 bc ec 69 21 3f
       0.14732626 0.13593395 -0.023642803 0.6305225
000100 81 58 df bc 3c 14 d2 bd e3 70 fe be ce 23 56 be
       -0.027263882 -0.10257766 -0.496955 -0.20912096
000110 21 c0 dd 3e 9d 2e ad 3e 85 93 5a 3e 39 cd d1 be
       0.43310645 0.33824626 0.21345337 -0.40976885
000120 7d 1f 82 3e 3d 78 ad 3d 9a 31 e4 3e ea 6b 22 3f
       0.2541465 0.08470199 0.44569093 0.63445914
000130 18 36 e7 be cb 5e 50 3e a9 37 17 3f 55 41 c8 be
       -0.45158458 0.2034866 0.59069306 -0.39112344
000140 2d 6a e2 bd 12 81 a0 3e d8 b0 a7 3e ee 4b c0 be
       -0.11055408 0.31348473 0.3275211 -0.3755793
000150 6b 4b d7 3e cf 0f 9e be db ef f9 be 53 30 b4 3e
       0.42049727 -0.30871436 -0.48815808 0.35193118
000160 25 b0 d9 3d 09 44 33 3e 86 6d 9d be 6c 43 d0 3e
       0.106293 0.17506422 -0.30747622 0.4067644
000170 a5 9d 2e 3e 29 88 74 bd 7b 27 96 3e a9 2f a8 be
       0.17052324 -0.059700165 0.29326996 -0.32848862
000180 29 43 a9 bd e1 f8 8b 3d e3 53 b8 3e f0 d2 84 3d
       -0.08264763 0.06834579 0.360015 0.06485546
000190 fb 4a 9b 3e 55 37 09 bd d0 33 bc be 8f 5e 01 3f
       0.30330643 -0.033500034 -0.3675828 0.5053491
0001a0 49 19 3a bd 36 dc b6 3d d7 fb 54 3e d6 cd 8b 3e
       -0.04543427 0.08928721 0.20799194 0.27305478
0001b0 74 a2 96 3d a2 2d 0b be 96 e6 99 be 4e b2 83 be
       0.07355204 -0.13591626 -0.30058736 -0.25721973
0001c0 ee f8 b7 be 1f f2 1e 3e 63 b1 34 be 78 a9 af 3c
       -0.35932106 0.1552205 -0.17645793 0.021443114
0001d0 6b 59 5c be 52 40 59 3e 05 f7 d0 bd a0 b8 cd 3c
       -0.21518485 0.21215943 -0.10203365 0.02511245
0001e0 c3 ab de 3e eb 38 31 be b8 e4 db 3e 7a 29 17 3f
       0.4349042 -0.17306869 0.42947936 0.59047663
0001f0 99 50 b8 bc a1 f7 c8 bd c3 89 ad bd 6e 22 ca 3e
       -0.02249937 -0.098128565 -0.084735416 0.39479393
000200 38 e8 d8 3d 2e 6a 49 3e 0f 55 37 3c 06 f1 5c be
       0.10591167 0.1966941 0.011189713 -0.21576318
000210 f6 2f 94 3d 22 b3 88 3d 9d c4 07 be a6 48 da 3e
       0.0723571 0.06674792 -0.13258596 0.4263355
000220 7d 92 aa 3e 3e 6e dc 3d 98 7c 22 be 17 2d 5a 3f
       0.33314887 0.107632145 -0.15867841 0.8522505
000230 f9 c9 e0 bd 4a 9e ff bd eb df a6 be cc 6e ce 3e
       -0.10976023 -0.12481363 -0.3259271 0.40318906
000240 cd 6c 89 3e 5f cd a5 3e 46 b7 c0 3e b1 33 fe 3e
       0.2684082 0.32383248 0.37639827 0.49648812
000250 b2 3d 15 bf 0a e0 cd bd 57 db c2 3e 9c 1a b5 be
       -0.58297265 -0.10052498 0.38057968 -0.35371864
000260 6c fe 06 be 92 05 ca bd 68 af ae 3e 95 1c eb bd
       -0.13182992 -0.09864344 0.341182 -0.11480061
000270 b0 c2 fd 3d 7d 8a 88 3d e4 70 74 3e 38 9a 07 3f
       0.12390649 0.066670395 0.2387119 0.52969694
000280 09 f3 fd be 7d 15 5e bd 3d 88 5f be e6 f8 20 3e
       -0.49599484 -0.05421971 -0.21829315 0.15719947
000290 4b 6e c1 bd a1 cb 05 3f cd a1 14 3e 73 ec 49 3e
       -0.09444865 0.5226384 0.14514847 0.19719104
0002a0 ef f0 b4 3e e5 c8 e4 3e a6 b3 b9 be 94 ea e7 be
       0.35340068 0.4468452 -0.36269873 -0.45296156
0002b0 00 63 8a 3e b5 c5 e1 3b f8 eb 98 3e c9 5f e9 bc
       0.27028656 0.0068900236 0.2986753 -0.028488057
0002c0 09 71 ef bd 98 9c 9a 3e 65 58 b1 3d fc c0 bc bd
       -0.116914816 0.30197597 0.08659438 -0.09216496
0002d0 1c 09 97 be f1 cc 34 3e 42 01 cf 3e f7 9d 82 3e
       -0.29499137 0.17656304 0.40430647 0.25511143
0002e0 02 3e 01 3e 49 28 10 3e b4 ce 48 be 9a 25 23 bf
       0.1262131 0.14077868 -0.19610101 -0.6372925
0002f0 08 f5 d1 3d aa 02 54 3d 7a 59 cc 3e 4a c8 b7 3e
       0.10251814 0.051760353 0.39912015 0.35894996
000300 76 bc 5b be 2d 69 11 bd 79 47 93 be a1 42 a0 3d
       -0.21458611 -0.035500694 -0.28765467 0.078252085
000310 36 ce 26 bf 16 ab 64 3e 77 5d 48 3e 1a d1 77 3e
       -0.651584 0.22330889 0.19566904 0.2420086
000320 43 f1 09 3e be f2 be 3e 23 83 35 bc ca e3 a9 bd
       0.1347094 0.37294573 -0.011078629 -0.082954004
000330 73 c9 80 be b0 d6 50 be 3a 9e 76 3d 7a c7 af be
       -0.25153694 -0.20394397 0.06020949 -0.34331876
000340 ad c3 0b 3f 35 2a 90 be 8d 18 5a 3e 40 67 90 3e
       0.5459545 -0.281572 0.21298428 0.28203773
000350 d7 b4 2b bf 79 1c f7 3e 47 44 97 3e a8 a1 d3 3d
       -0.67072815 0.4826391 0.2954428 0.10333568
000360 37 2f 7e 3e 4f e9 77 be d3 78 14 3f b8 05 0f be
       0.24822699 -0.24210094 0.57996863 -0.13967025
000370 35 58 a1 3e cd 56 64 3f 47 11 87 3d c9 e3 9e 3e
       0.3151261 0.8919495 0.06595092 0.3103316
000380 1c f5 9d 3e f0 3c 87 bd b5 0a 12 3f d5 8f 3b be
       0.30851066 -0.0660342 0.5704759 -0.18316586
000390 42 cb bc 3d 0a 58 ff 3d a5 0a d3 be 99 0e 30 bd
       0.09218456 0.12467964 -0.4121906 -0.04298267
0003a0 24 4c bd bd 4f 9d d2 3e 80 55 f4 bd 46 6e f5 3d
       -0.09243038 0.41135642 -0.1193037 0.119839236
0003b0 41 5d 71 3e f2 d7 bc bd 9c 4a ad 3e 9e 57 f0 bd
       0.2357073 -0.09220876 0.33845985 -0.11735462
0003c0 87 33 9d bc 82 54 dd be f8 86 c0 3e f8 ca eb 3c
       -0.01918961 -0.43228537 0.37602973 0.028783306
0003d0 09 56 19 be 03 60 80 bd 52 46 11 3e 0f 57 4c 3f
       -0.14974226 -0.06268313 0.14186981 0.7982034
0003e0 74 88 91 3e 9a bb 6c be 39 fa 28 bf 09 d0 d4 3e
       0.28424418 -0.2311844 -0.6600681 0.41564968
0003f0 be eb e1 be 43 cd 17 bd 8b 51 bd 3e 03 45 b1 be
       -0.4412517 -0.037060987 0.36976275 -0.34622964

l4.bias f4 [53]
000000 58 75 11 3f bb d5 20 3f e3 62 36 3f 30 1b 8d 3e
       0.5681968 0.62826127 0.7124464 0.27559805
000010 e0 d2 31 3e c9 ff 5f 3d ae 6a 64 bf f1 ea 11 3e
       0.17365599 0.054687295 -0.8922528 0.1424978
000020 5c 78 48 3e fe b9 00 bd 3c a8 59 3f 92 e8 5c 3f
       0.19577163 -0.031427376 0.8502233 0.86292374
000030 d5 d4 64 3e b6 c3 38 be 9b d0 43 3f fa 76 65 3f
       0.22346814 -0.18043408 0.7649018 0.8963467
000040 24 06 04 3f 41 b8 78 3f 70 4f e3 3e 6c 16 e1 3e
       0.5157187 0.9715615 0.44396544 0.4396242
000050 4f ed 02 3f 0b af 6c 3f 60 5a de 3e 19 f4 32 3f
       0.51143354 0.92454594 0.43428326 0.69903713
000060 12 5e 33 bf c5 42 85 3f d5 3b 66 3f c9 3e 8a 3f
       -0.70065415 1.0411001 0.89935046 1.080041
000070 18 81 b9 bd 26 77 da 3c 45 58 87 3e 83 5d 08 3e
       -0.09057826 0.026668143 0.26434532 0.13316922
000080 5c 8a 12 3f 2f 4d d8 be e3 de b8 3d 7f 88 46 3f
       0.5724237 -0.42246386 0.09026887 0.77552027
000090 94 ee 7f 3f e7 b1 b5 3e 6d e5 38 3f bc 51 50 3f
       0.99973416 0.3548729 0.72225076 0.81374717
0000a0 ce 24 44 3f 89 9b ff 3e b9 d9 74 3f 9f 5f 4b 3f
       0.7661866 0.4992335 0.9564472 0.7944278
0000b0 35 9f 04 3f 5a 06 9b 3f 04 bf 2e 3f 87 07 ea 3d
       0.5180543 1.2111313 0.68260217 0.11427217
0000c0 e3 1d cc 3e c8 3f 55 3f 68 be e3 be 8d d5 43 3f
       0.39866552 0.8330045 -0.44481206 0.7649773
0000d0 0a f0 25 3f
       0.64819396

l5.weight f4 [85, 53]
000000 24 bf cf be 8c 68 53 3e f8 f0 43 be fd 18 26 3f
       -0.40575516 0.2064535 -0.19134891 0.6488188
000010 b6 90 fd be 0c 4f 8f 3e a9 79 47 3f 62 95 53 3f
       -0.49524468 0.27989995 0.77920014 0.82649815
000020 74 99 35 3e 1e cc c7 be 5b 8f a6 be 7c 09 06 3c
       0.17734319 -0.39022917 -0.32531247 0.008180972
000030 fc 6f d2 bc bb d1 31 3e 3a 49 33 be f8 a4 5e be
       -0.025688164 0.17365162 -0.17508402 -0.21742618
000040 e8 cb c8 3d 37 99 1e 3e f6 19 2e 3c 8e bd 5c be
       0.09804517 0.15488134 0.010626307 -0.21556684
000050 f9 cb d6 3b 64 74 be 3e 00 a1 d1 be 19 9b 09 bf
       0.006555077 0.37198174 -0.40943146 -0.53752285
000060 54 5a 92 3e 73 7b 32 bf 1b 5b 9d be d6 00 48 be
       0.2858454 -0.6971962 -0.3073357 -0.19531569
000070 7c ec 18 bd f7 b2 18 3e a3 69 85 bf 57 99 6a 3e
       -0.037334904 0.1491202 -1.0422863 0.22910057
000080 09 a8 2d 3d f8 d3 a1 be a9 f1 4e 3e 25 b5 7e 3e
       0.04239658 -0.31607032 0.20209374 0.24873789
000090 1f 50 e1 bd 74 5b fb be 93 e5 c4 3e 16 87 28 3b
       -0.1100161 -0.4909321 0.384564 0.0025715283
0000a0 fd dc 92 bf 70 90 3b 3e 6c 43 10 bf bc 5c 67 3d
       -1.147369 0.18316817 -0.5635288 0.056484923
0000b0 d6 32 f2 bd 7b ad a4 bd 6c ee 0a be 65 25 08 3f
       -0.118261024 -0.08040901 -0.13567513 0.5318206
0000c0 7c 1c 90 3e 91 28 05 3d 49 69 3a bf b3 2e 03 3e
       0.28146732 0.03250939 -0.728169 0.12810783
0000d0 93 51 a1 bd 5e 7d 2c 3e e1 80 36 3d 5a 02 67 bd
       -0.07876887 0.16844699 0.044556502 -0.056398727
0000e0 74 b3 f2 be e0 6e a0 3d 37 4c e8 3b 45 87 96 bc
       -0.47402537 0.07833648 0.0070891636 -0.018375048
0000f0 e1 55 9d bf de 06 30 3d 36 61 fd 3d 2a 53 9b 3d
       -1.2291833 0.0429753 0.12372057 0.07584222
000100 6d a5 4f 3e 57 f3 db ba c2 cc 8e bd 75 ad cf 3d
       0.20277949 -0.0016780895 -0.06972648 0.10140506
000110 9a 20 1c 3e a9 45 d2 3d d1 56 22 3e fa 30 51 be
       0.15246812 0.10267193 0.1585343 -0.2042884
000120 3c e1 32 3c 4f 5b 8d 3e 3a fb 50 3e f0 a1 39 3e
       0.010917958 0.27608725 0.20408335 0.1812818
000130 18 e3 e0 bb 22 d5 92 3d 94 93 7f 3e 6b 8a 31 3e
       -0.006863009 0.07169558 0.2495864 0.17337959
000140 10 76 47 3e 61 72 48 bf 73 86 2c bc 3f 63 b6 3e
       0.19478631 -0.7829953 -0.010530102 0.35622594
000150 90 b8 34 bd e0 09 26 3e 31 d7 81 bf f1 49 05 3f
       -0.044121325 0.16214705 -1.0143796 0.5206595
000160 ff 30 07 bf 84 58 7a 3e 1b 90 b5 3d 5a e6 0c 3e
       -0.5280914 0.24447829 0.088653766 0.13759747
000170 2f da 1e 3e dc 6b c9 bc da dd 5a 3e 17 e7 94 3e
       0.15512918 -0.024587564 0.21373692 0.29082558
000180 39 eb 94 3e ad 30 49 3e 6d f7 a5 3e db 0b 5d 3d
       0.2908571 0.19647475 0.32415333 0.053966384
000190 69 46 12 bd 1f 5a 79 3e f5 01 e6 3e 9a be 9f 3d
       -0.03571168 0.24350785 0.44923368 0.07800026
0001a0 7e ce 0c 3d c4 c8 a5 3e bc cc 03 3e e6 af 8b ba
       0.034376614 0.32379735 0.12871069 -0.001065728
0001b0 11 82 4f 3c 61 ac 0a bf 08 96 d4 bd 5c fe fb bc
       0.012665288 -0.5416928 -0.10380179 -0.030760936
0001c0 12 f2 1f 3d 8f f8 9a bf 8a 7b e0 3d cd 8c e3 bd
       0.039049216 -1.2107104 0.10961063 -0.1111084
0001d0 39 66 3f 3e b9 43 aa 3d 7c dd 57 3d b4 34 ff 3b
       0.18691339 0.08313698 0.05270146 0.007788265
0001e0 9a 12 f9 3d 71 21 6e 3e cf c4 db 3d 14 31 25 3d
       0.12161751 0.23254944 0.10730898 0.040330008
0001f0 7a 65 8f be 04 bd 2b be 21 3b 5d 3d 82 db cc 3d
       -0.28007108 -0.16771322 0.054011468 0.10002805
000200 4f 96 e5 3d a7 ae 24 be 18 a8 67 3e 09 6a e2 3d
       0.1121031 -0.1608225 0.22622716 0.11055381
000210 bd 8a 85 3e 57 c0 4c 3e 8b 98 2d bf 9d 69 f8 bd
       0.2608241 0.19995247 -0.6781089 -0.12129519
000220 2d c7 3b 3e 09 52 34 3e 6e 84 a2 3c d1 12 42 bf
       0.18337698 0.17609419 0.019838538 -0.7580996
000230 ea f3 18 3f b1 53 d3 be 28 9a 9b 3e c6 bb 8f 3d
       0.59747183 -0.4127479 0.3039105 0.07018237
000240 48 cc 09 3e f5 25 39 3e 43 e8 3a be 45 e4 0a 3e
       0.13456833 0.18080886 -0.18252663 0.1356364
000250 ab 8e a0 3e b6 7d e8 3e 7c 20 18 bd 7e a3 b9 3e
       0.31358847 0.4540841 -0.037140355 0.36257547
000260 84 03 ec 3d c3 22 8a bd 13 1a 0e 3e f8 58 db 3e
       0.11524108 -0.067449115 0.13877134 0.42841315
000270 d2 17 07 3e 85 c6 21 3e 62 3a 97 3e bd 17 b0 3d
       0.1319268 0.15798385 0.2953673 0.08598278
000280 2d c6 f0 bd 5e c7 aa 3d 77 c0 16 bd ee 3a 02 3d
       -0.11756549 0.083388075 -0.036804643 0.03179448
000290 7e 35 47 3e 69 9a 0f be 02 74 12 be 27 4c de 3d
       0.19454 -0.14023747 -0.14302066 0.10854369
0002a0 5c e6 74 3e 0c 02 a1 3e d5 93 34 3d 3d 0b a6 bd
       0.23916 0.31446874 0.044086296 -0.08107612
0002b0 f2 f7 90 3d 9c d2 84 3e 38 78 16 3e 3b a3 12 3e
       0.07078542 0.25941932 0.14694297 0.1432008
0002c0 a5 10 0f 3e 0a a3 17 be 38 06 80 3d fa a6 2b 3e
       0.13971193 -0.14808288 0.06251186 0.16762915
0002d0 b6 08 93 3e 04 e3 d5 3d fd aa c4 3e bd 0f 12 bf
       0.28717583 0.104436904 0.38411704 -0.57055265
0002e0 fe 68 d3 3e db 06 4d 3e ea 75 94 3d 60 54 ac be
       0.4129104 0.20022146 0.07249053 -0.33658123
0002f0 5a 29 44 3d 0f 87 53 3d e6 2f bf bc 54 8a aa 3e
       0.047891 0.051642474 -0.02333827 0.3330866
000300 a6 3e cd be d5 57 80 be ad 19 c7 be 87 a9 76 3e
       -0.4008686 -0.2506701 -0.38886777 0.24088107
000310 9b 81 b9 3d e1 95 fc 3e 9e d0 e0 3d 93 a6 40 3b
       0.090579234 0.493331 0.109772906 0.002939616
000320 21 cd 2d 3e e9 a1 69 3e 4c 74 86 3e 27 9c 69 3e
       0.16972782 0.2281567 0.26260602 0.22813474
000330 3b 92 03 3e b2 ff 4c 3e 80 6e ec be 6f 3d 90 bd
       0.12848751 0.20019415 -0.46178055 -0.070429675
000340 84 71 16 3e 4b c7 c6 bd e7 4e 12 3e 4a 0f e1 3c
       0.1469174 -0.09705981 0.14287911 0.02747311
000350 7c 49 1d 3c a0 1b df bc d3 1d 91 bd b0 c5 9f be
       0.00960004 -0.027234852 -0.07085767 -0.3120551
000360 06 a0 d9 bd 54 46 21 bd 76 25 3d 3f bb 05 3a 3f
       -0.10626225 -0.03937371 0.73885286 0.72664994
000370 db 66 05 3f 15 30 2e be d7 5d e5 bd 2f 09 f1 3c
       0.5211007 -0.1701053 -0.11199539 0.029423324
000380 4a cb 46 3b 5c f5 7e 3e 72 5f 84 3c eb 1e a8 3d
       0.0030333572 0.24898285 0.016158793 0.08209022
000390 32 29 dc 3c 9a bb a2 3d 4f ff 35 3e 3f 2a fd bc
       0.026875112 0.079459384 0.17773174 -0.030903934
0003a0 ae aa be 3e 25 72 d9 3d b3 cb c3 3d 8f a9 68 be
       0.37239593 0.106174745 0.09560337 -0.22720931
0003b0 ad d8 fa 3d 68 4b e5 bd 1b 15 23 3e 9b 96 f6 3d
       0.12248359 -0.11196023 0.1592602 0.120404445
0003c0 69 2c 09 bf 34 af 9b bd ad 6a bc bf 9d b3 bf 3e
       -0.5358339 -0.07601777 -1.4720055 0.37441722
0003d0 75 0b 90 be cb 25 d2 be 24 f9 31 3f e5 2c 14 3c
       -0.2813374 -0.4104446 0.69520783 0.009043907
0003e0 b3 6d 6b 3d 20 5b d8 bd d9 ad 60 bf 48 98 3a 3e
       0.057477664 -0.10564256 -0.8776527 0.18222153
0003f0 cf 11 87 be 17 dd b0 3e 92 7e 21 be 90 5d 16 3f
       -0.26380774 0.34543678 -0.15770939 0.58736515

l5.bias f4 [85]
000000 30 bc 79 bd 0c ed 21 3f 3c ec 55 3f ce d0 18 3f
       -0.060970485 0.6325233 0.8356359 0.5969361
000010 54 bf 31 3e be 00 fe 3c e1 9d 32 bd 56 52 e4 3e
       0.17358142 0.031006213 -0.043607596 0.44594067
000020 ff 73 18 3f 2f 5b b5 be 4c f5 41 3f 77 2d 3c 3e
       0.59551996 -0.3542113 0.7576492 0.18376718
000030 45 39 b7 3e bc 93 ae 3e 2c 96 ee 3e 1e 5b 0c bd
       0.3578588 0.34097087 0.46598947 -0.034266584
000040 d6 aa 32 3e c6 0c 47 3f 01 43 0e 3f 71 aa 8f 3e
       0.17447981 0.77753866 0.5557099 0.28059724
000050 b4 63 38 3f ec c3 e5 bd f0 ee 3d 3f 18 80 fa 3e
       0.72027135 -0.1121901 0.74192715 0.48925853
000060 a2 ef 56 3f 52 b5 91 3e 3f 6c be bc a2 7e e4 3e
       0.839594 0.2845865 -0.023244975 0.44627863
000070 5b 92 ea bd b5 d5 d1 bd 5b 29 1b 3e 58 b8 48 bd
       -0.11453696 -0.102458395 0.15152495 -0.04900393
000080 58 53 27 3f 29 1d d3 3e f4 25 d1 bd 4b a7 f4 3d
       0.6536155 0.41233185 -0.10212317 0.11945971
000090 39 e3 0f 3e ef a2 46 3f 34 a4 e4 3d 70 81 32 3f
       0.14051522 0.77592367 0.11164132 0.69728756
0000a0 7e 95 03 3f 59 2d 9d 3e 25 bd c1 3e 72 47 2e 3f
       0.5139998 0.3069866 0.37839618 0.68077767
0000b0 3e fe a4 bd 16 23 4e 3f 43 3b 13 be 58 fb 82 3e
       -0.08056305 0.80522287 -0.14378075 0.25582385
0000c0 77 ec 04 3e 50 15 d4 bd 20 64 5f 3f 04 05 a1 3e
       0.12980829 -0.103556275 0.87262154 0.3144914
0000d0 d9 5e e2 3e 09 58 85 3d 29 bd 11 3d 70 88 63 3f
       0.44212988 0.06510932 0.035580788 0.8888006
0000e0 43 fa 50 3f 8f 1f a6 3e fd e9 3c 3f ff b2 24 bd
       0.8163187 0.32445952 0.7379454 -0.040209766
0000f0 d6 3d 79 3d f3 48 b2 3d a0 d7 5d 3f aa 5e 6c bd
       0.060849987 0.0870532 0.8665714 -0.057707466
000100 b0 16 60 3e fe 3d 23 3f 82 01 a1 3e bb d2 96 3d
       0.21883655 0.6376647 0.31446463 0.073644124
000110 a9 de 56 bc d8 b1 26 be cb 59 10 be 60 da 90 bd
       -0.01311461 -0.1627878 -0.14096753 -0.07072902
000120 58 30 fb bc 77 9c cd 3d f4 ad 44 3f a4 d3 3d bc
       -0.0306627 0.10039609 0.7682793 -0.011586104
000130 f8 18 10 3f b0 66 0f 3f 5a bc 2e 3f 3a 9a 12 3f
       0.562881 0.56016064 0.6825615 0.5726658
000140 c0 ab c4 3c 51 c7 37 3f 65 b1 3b 3e 15 f0 3d 3f
       0.024007678 0.7178851 0.1832939 0.7419446
000150 a5 28 16 3f
       0.5865577
