models/Others/model_PGNN_1000_1e-3.pt (torch, 127233 bytes, 12 tensors)

l1.weight f4 [189, 9]
00000000: b23c 03bc dd43 38be b81d 403f b186 443d
00000010: 52b4 09c0 9ce3 843f 1d75 d7be fdcf 06ba
00000020: bf20 a0bd 09bd 9fb9 06b0 703f 1c61 39bf
00000030: 6cac 5dbe 8c78 93bf f5df 49bf 8f2d 043e
00000040: d422 3dbf 601e d5bb d1af 53bc cb21 8a3f
00000050: 0ba9 66bd 5643 81be 55e1 cebd 6a8a 61bf
00000060: fcc1 0b3f 838f 9fbf dc51 54bf 1118 6dbb
00000070: 5fbf 2ebe 38b8 ad3f 3781 0dbf 9ee2 8cbe
00000080: 6fa4 6d3e c31d 28bf 4b57 2fbf 8812 0abf
00000090: df6c 08bb ee89 923e 12b1 85bf e98a 61bd
000000a0: 200d 573e df2e b5be bfa0 18bf 1635 93bf
000000b0: b442 4dbd 84bb c53b ed83 1dbf dabe ac3f
000000c0: a559 46bf 5c49 30bf 7d03 90bf ccf4 493d
000000d0: 7617 e8be b60d 8cbf 9878 daba f62c 5ebf
000000e0: 10ff 11bf c7d6 f8bd e900 f6be 769a 153f
000000f0: 19aa 90be 2046 21bf a62c 073f df90 8b37
00000100: 131c 38bf e75d 49bf 9ea3 a0bd c352 fabd
00000110: e6ad 84bf 2389 8ebe 83b9 1c3e f61f 2ebd
00000120: 7889 623b 89cb c5be ac7e 86bf 58f0 27be
00000130: ee4f c9be 5e65 07bf fc34 5b3f 7979 7c3f
00000140: 33d3 ffbc 890c 853a 662a 4bbe 4612 a03f
00000150: c17f c8be 9e9f c83f a5e0 ee3e a822 3f3e
00000160: 466e 663f 9d27 22bf b73c 823c 7cb5 1cbf
00000170: dc51 9d3f a3df 353e 9ef8 49bf 5f5d 9bbe
00000180: 2719 c73e bfd8 29bf f355 a0be 8f69 f1ba
00000190: 236e f43e 4e33 87bf bd75 2ebe f57d 473e
000001a0: c8fb 74be b8f0 253e cab6 273f f14e 253e
000001b0: 945e e03b a830 d63f 7de4 11bf 10de 813e
000001c0: 085f f0bb e5e9 393e d7b3 4fbf 8418 7dbf
000001d0: 5a4f d0bd 5b39 823b 051c 783e 2bcc 1cbf
000001e0: c2f1 36bc 947b 003f ae38 69bf 1cd5 843e
000001f0: 17fd 69bf c5b1 563e ce76 6bb8 8c23 09be
00000200: 6b2e 743f 9f86 3abf c546 98bf 5b7e 4ebf
00000210: 8263 0f3e 8793 34bf bee6 73be 73b6 c03c
00000220: 0378 a3bf 62d1 6dbf d124 98be d796 efbe
00000230: b824 65bf 1e6f d5be b3a7 ff3e ed5e 343d
00000240: d567 e4bb 3813 48bf 7d94 7ebf 2573 65be
00000250: f370 3e3f 33de 813d 4436 1dbf d696 75be
00000260: e684 ba3e 65f8 e13b 27cd f23e 1b7d d13e
00000270: 4bd6 da3d f119 fc3e 1095 a0bf 7fe7 87bf
00000280: a86f 71bf 3c5d dcbe ea53 99ba 9686 023f
00000290: ec64 60bf 76de 6fbd e444 213d 444e 84bf
000002a0: 9e84 26be a380 1c3f 71d1 ea3d 1d2c cfbb
000002b0: e8b7 83be 1ebf a33e f721 b0be 09ea 1cbf
000002c0: dd15 e33f a416 223e cc8f 38bf e63a 10bd
000002d0: 7782 14bb d0db ec3d 866b 81bf 4480 183e
000002e0: dd09 65bf e40b b0bf 269a 013e 70e2 ddbe
000002f0: e4ba dd3d 9cc9 4b3a 7f0d fabe 7d32 503f
00000300: 345a 253f 595f 8fbe d615 603f f66c 163f
00000310: 99a2 a6be 7bb1 92be c24c 9f3a aa35 d8bd
00000320: 49b1 f4be 037b 4fbe 684d d1bf 23e8 833e
00000330: 53f5 73be 81a8 5bbe 25c0 f63e 7b00 523c
00000340: 2bd8 e1be 5933 47bf 5939 133f ea26 a03f
00000350: 38ec 4c3b 6868 d33f 8c0c 103e a480 8b3f
00000360: 5203 8aba 5a90 e3be f51c 293f 8bf5 133e
00000370: f73a ffbf 5987 47be dc60 adbd 2710 a4bc
00000380: cdea b9be 1b37 fd3a 1f4a 513f c434 79bf
00000390: 48a4 4fbd 57e3 8dbf c877 5abe 28e6 8d3e
000003a0: 535f ea3e 130e 8d3d 038a a1bc 8a70 d2bf
000003b0: a83f e3be 9ab0 d4be ce39 ebbc b849 71bd
000003c0: c71f debe 3517 9d3e e46c 853e 9ee0 593d
000003d0: 712c 26bf 0fb6 8c3f a1c2 3bbf 093d a8be
000003e0: 3b4c 8abe e979 853d 6ace 7cbd b3bf 36bf
000003f0: 53ca 323a fa7a 1e3f 0a74 7f3f 1dbc c0be
-0.008010076 -0.17994638 0.7504535 0.047980014 -2.1516309 1.0381961 -0.42081538 -0.0005142687
-0.07818746 -0.00030467685 0.9401859 -0.724138 -0.21647805 -1.1521163 -0.78857356 0.12908004
-0.7388127 -0.006503865 -0.012920336 1.0791563 -0.056313556 -0.25246686 -0.101015724 -0.8810183
0.5459287 -1.2465671 -0.8293741 -0.0036177675 -0.1706519 1.3571844 -0.5527529 -0.27516645
0.23207258 -0.6567041 -0.68492573 -0.53934526 -0.0020816845 0.28620857 -1.0444663 -0.055064116
0.210011 -0.35387322 -0.5962028 -1.1500576 -0.05011244 0.0060343165 -0.6152943 1.3495743
-0.77480537 -0.6886194 -1.1251065 0.049305722 -0.453304 -1.0941684 -0.001666802 -0.86787355
-0.5702982 -0.121503405 -0.4804757 0.58438814 -0.28254774 -0.6299763 0.52802503 1.6637552e-05
-0.7191784 -0.7865891 -0.078437075 -0.12222817 -1.036557 -0.27839002 0.15305142 -0.04251095
0.00345668 -0.38631848 -1.0507407 -0.16400278 -0.39318794 -0.5288905 0.8562772 0.9862285
-0.031228637 0.001015083 -0.19840392 1.2505577 -0.39159968 1.5673711 0.46655765 0.18665564
0.90012014 -0.63341695 0.015898092 -0.61214423 1.2290606 0.17761092 -0.78894985 -0.30344674
0.38886377 -0.66346353 -0.31315574 -0.00184183 0.47740278 -1.0562532 -0.17037101 0.19481643
-0.23924172 0.16205108 0.6551329 0.16143395 0.006847212 1.6733599 -0.5698927 0.25364733
-0.0073355474 0.1815563 -0.8113379 -0.9886553 -0.10171385 0.0039741225 0.24229439 -0.61249036
-0.011166038 0.50188565 -0.9110211 0.2594384 -0.9140181 0.20966251 -5.613901e-05 -0.13392466
0.9538333 -0.72861665 -1.1896597 -0.80661553 0.14002803 -0.7053761 -0.2381849 0.023524499
-1.2771 -0.9289762 -0.2971559 -0.4679477 -0.89509153 -0.41686338 0.49932632 0.04403584
-0.0069703856 -0.78154325 -0.99445325 -0.22407205 0.74391097 0.06341209 -0.6141093 -0.2398332
0.36429518 0.006896066 0.47422144 0.4091576 0.106854044 0.49238542 -1.254549 -1.0617522
-0.94311 -0.43039882 -0.0011697982 0.5098661 -0.87653995 -0.058561765 0.03937234 -1.0336385
-0.16261527 0.61133784 0.11465729 -0.0063223974 -0.25726247 0.31981748 -0.34400913 -0.6129461
1.7741047 0.15828949 -0.72094417 -0.03521242 -0.002266077 0.115653634 -1.0110939 0.1489268
-0.89468175 -1.3753629 0.12656459 -0.4333682 0.10826662 0.00077738776 -0.48838422 0.8132704
0.64590764 -0.28002432 0.8753332 0.5876001 -0.32545927 -0.28651032 0.0012153613 -0.105571106
-0.47791508 -0.20261769 -1.6351748 0.25763044 -0.23824053 -0.21450998 0.4819347 0.012817497
-0.44110236 -0.77812725 0.5750938 1.2511876 0.0031268727 1.6516237 0.14067286 1.0898633
-0.0010529554 -0.4444607 0.6605981 0.14449136 -1.993987 -0.19485225 -0.0846574 -0.020027233
-0.3631195 0.0019318791 0.81753725 -0.9734614 -0.05069378 -1.1085004 -0.21334755 0.27714658
0.45775852 0.0688745 -0.01971913 -1.6440594 -0.44384503 -0.41540986 -0.028714087 -0.058908194
-0.4338362 0.30681768 0.2605964 0.053192727 -0.6491156 1.099306 -0.73343855 -0.32859066
-0.27011284 0.06517393 -0.06172029 -0.7138626 0.000682031 0.619064 0.99786437 -0.3764352

l1.bias f4 [189]
00000000: c8ba 1cbf 0af7 bd3e fba8 82be cbf1 21be
00000010: 0fe4 483e 0897 f53d 930e bd3e 4c7b de3e
00000020: 16ff 15ba 86b1 b2be 7b5d 0dbf 5708 c13e
00000030: b5e8 0e3c bc88 703e 74ae 79bc 473e 92be
00000040: a48e c6bd a7bc e43d 6dd2 263e 9f7a 923e
00000050: 0c8d 91bc a4cc f3bd fe18 453e a408 42be
00000060: 3860 b33d 9fe0 a83e 5438 4fbc eda9 15be
00000070: 8a82 c4be c24f 113d eb5c febd 6e4d db3e
00000080: 4d84 f53e 0517 16be 5bf8 bcbd 5110 8ebd
00000090: b899 66bd 34e6 edbe a3f0 e1be 5133 ecbe
000000a0: d809 163f 64e3 b63d 5199 943d 5a13 4a3d
000000b0: 8c65 e43e ba5f 2a3e c8a5 943e c157 8bbd
000000c0: b75f d8bd 8cb7 653d 7682 6abe b776 593d
000000d0: b983 afbd 331c 01bf 840c 0abf 6fac 4f3e
000000e0: 8e92 cd3d 9872 bbbd bb72 47be 6092 073f
000000f0: 4b93 97be 40e0 4abd 3115 96bc 7b5b 8bbe
00000100: d6de 87bd d1ac 813d 6bb2 c4be 7b17 acbc
00000110: 54c8 eb3d 26b4 0b3e 0b67 31bf c494 e6bd
00000120: 7e9a cebd c91d 9b3d 1c14 0dbd c8f4 ab3d
00000130: 80ee 453e 7075 953e f3e1 77bd fa4f 13bd
00000140: c3eb 113d 7c94 5abe 5a78 61bd fdb7 b33e
00000150: 4c45 4e3e b830 013e a376 bb3e 1876 65be
00000160: d124 2f3e 1fa4 8e3d f4c0 533e 2063 54be
00000170: eef0 53bc 26d1 68be 7918 57be e7dd 73be
00000180: 740f 41be 8f57 b03e d2bf 9ebe e738 293f
00000190: 2ba8 39bd 45fd b23e 808a da3d 79f0 93be
000001a0: 49ac 97bd ce4d e3bd c7d8 adbe 3064 533d
000001b0: dabc 56bc 8a76 753d 733b dabd b1d6 023d
000001c0: dcfe c8be 6236 a6be 5ebb 7f3e 27b5 9a3e
000001d0: b559 3a3e f96f 823e 23d1 873e a32e acbe
000001e0: 8edd 073e 7976 25bf cd84 6abe 0663 0a3f
000001f0: 5947 123e b740 3d3e a975 cb3c ce09 893c
00000200: 89f7 773e 3ab3 7a3e 64de 3dbe d8b2 dabd
00000210: 8964 3a3e 0cdc 333d b754 29bd 47df 633e
00000220: 98ec 00bd 686b d8be 19a4 afbe 20f9 94be
00000230: 3ddf b4bd 44f4 6dbd a118 0fbe be5b d33b
00000240: 4da4 163e 5928 843d 40ed 52bd 950d c2be
00000250: b6bd 40be 0dc5 e2be 8daf 543e 3c36 e03e
00000260: 7e97 053e 1f2c 153e 25fb dc3d 43c3 87be
00000270: bf15 8b3e 93c7 06bd 62de 17bd fdc1 a7be
00000280: 9ca6 ff3e b80a b7bd 48c8 8ebd 9a7f 84be
00000290: 5824 13bf 80a6 d53e e93b c93e 39bb 803e
000002a0: 134c 053f f07c 4cbf 4b9b 223e 1dd0 c23e
000002b0: 520b acbd 12e3 5cbd 9189 273e c81f bebd
000002c0: 0c3b 94bd 98b9 1cbf 770b 933e 7d53 cabd
000002d0: a578 2d3e ad9f f9be 1f45 b2be 8563 a6be
000002e0: fefd e03e 4061 243f df98 35bf 2971 0dbf
000002f0: 20bf c63d
-0.61222506 0.37102538 -0.25519547 -0.15814893 0.19618247 0.119916975 0.36925182 0.43453443
-0.00057219097 -0.34901065 -0.55220765 0.37701675 0.008722474 0.2348966 -0.015239347 -0.2856314
-0.09695175 0.11168795 0.16291209 0.28609177 -0.017767452 -0.119042665 0.19247815 -0.18948609
0.08758587 0.32983872 -0.012647707 -0.14615603 -0.38380843 0.035476454 -0.124200664 0.42832512
0.479525 -0.14657219 -0.092270575 -0.06936706 -0.05629894 -0.46464694 -0.44128904 -0.461329
0.5860877 0.0893009 0.07255805 0.04933486 0.44608724 0.1663808 0.2903273 -0.06803847
-0.10565131 0.056083247 -0.2290133 0.05309173 -0.08570046 -0.50433654 -0.5392535 0.20280622
0.10037719 -0.091527164 -0.1947736 0.52957726 -0.29604563 -0.049530268 -0.018320652 -0.27218232
-0.066342995 0.0633179 -0.38417372 -0.02100729 0.11512819 0.1364294 -0.69297856 -0.112588435
-0.10088061 0.075740404 -0.034443006 0.08396298 0.19329262 0.2919116 -0.060518216 -0.035964943
0.03562523 -0.21345705 -0.055046417 0.3510131 0.20143622 0.12616241 0.3661395 -0.2240833
0.17103888 0.06964897 0.20679075 -0.20740938 -0.01293586 -0.22736034 -0.2100543 -0.23815118
-0.18853551 0.34441802 -0.31005722 0.6610245 -0.045326393 0.34958854 0.10670948 -0.28894404
-0.07405908 -0.110988244 -0.3395445 0.051609218 -0.013106549 0.0599275 -0.1065587 0.031943027
-0.39256942 -0.32463366 0.24973819 0.30216333 0.18198283 0.25476053 0.26526746 -0.3362933
0.1326811 -0.646339 -0.22902222 0.5405735 0.1428503 0.18481718 0.024836378 0.016728308
0.24215521 0.24482432 -0.18541867 -0.10678643 0.18202414 0.043911025 -0.041340556 0.22253142
-0.031475633 -0.42269444 -0.34304884 -0.29096317 -0.08831642 -0.058094278 -0.13974239 0.0064501455
0.14711113 0.06453008 -0.05149579 -0.37900987 -0.18822369 -0.44290963 0.20770092 0.43791378
0.13046071 0.14567612 0.107900895 -0.2651616 0.27165028 -0.032905173 -0.037077315 -0.3276519
0.499318 -0.08937591 -0.06971794 -0.25878602 -0.5747733 0.41728592 0.3930352 0.2514284
0.52069205 -0.7987814 0.15879552 0.38049403 -0.08400597 -0.05392749 0.16361071 -0.092834055
-0.07237825 -0.61220694 0.28719684 -0.098792054 0.16940553 -0.48754635 -0.3481836 -0.32497802
0.4394378 0.6421089 -0.7093639 -0.55250794 0.09704423

l2.weight f4 [119, 189]
00000000: 2072 bc3d 604e c7bd a5ac 993c 8d20 18be
00000010: 6168 733c 93f9 d0bd a4bc f83c 1235 6ebd
00000020: 6941 b9bd b6af 98be 09aa a73d c560 03bd
00000030: 895e df3d a2a6 96bc 0922 63be 6c5b 6cbd
00000040: e851 a4bc 0758 d73d ed07 cfbc 381a e33b
00000050: 6db7 8abe f6c1 063e 761b 17be af39 6ebb
00000060: a15e 013d 627a 3e3c d2a7 91bc 8972 4ebe
00000070: 8a14 d4bd 27fd 263e 78eb a3bb a7f3 43bc
00000080: 495f fc3c 8646 23be 560c 70bb f5c6 7bbd
00000090: ef10 3f3e 6d62 d6bc 12fb 56be 5a24 173b
000000a0: 096f c6bc a71a e1bc f938 edbe b5c7 85be
000000b0: 497d d63d 645b 6e3d aa90 2c3d 6a5e 47bd
000000c0: 4817 08bd 244b 3d3d 37f2 33bf 269f c63d
000000d0: 9be8 5cbe 21ba 85bd 6b35 4ebd 4ccc 683e
000000e0: 555f 193d ce6f 67bc 9de2 c43d 7a95 2fbd
000000f0: a409 4db9 c571 71bd 4f64 983d 9338 e23d
00000100: 90fe 8bb9 c2f5 683d 205d 303e 49cb 903e
00000110: df74 0c3d 542c 693e e492 d4bd 9f40 23be
00000120: a4cd 023e 9c3c 453b 8119 d6bd 4601 dc3d
00000130: 984b 8abd 9373 aebb ced0 3fbf eb26 37bd
00000140: 8afb 2bbe 4958 4b3d 0ef2 993d 41cb 17be
00000150: 490d 873d cf2b cbbe 361d 51be f4b0 fc3b
00000160: 9cb4 d1bd 0769 8d3d 433b 2ebe 3441 18bc
00000170: 6664 983d 8fc5 39be 767b 573d 78a9 54bb
00000180: 53ee 7c3e b3cb 9c3d 6366 f23d 0cc7 bc3d
00000190: 4c21 8e3d 2292 853d a577 5a3b 6fe3 573d
000001a0: c937 293e 5cc7 a2be 916b 0ebe 0718 0f3d
000001b0: 3fcd 78bd 2226 b83d bb37 873e cab1 893d
000001c0: 0d88 9ebe 1faf 5bbd 88ac 393d 0647 65be
000001d0: 9faf fdbd 5b5f 5b3e e93e 4cbe 4a1c f1bd
000001e0: e270 68bd 2def 83be 4d69 8cbd 1f6d 07be
000001f0: 3b48 17bd 54c8 3e3e e351 113d d3a7 0d3e
00000200: 85ab 8cbd 3f08 adbe 2735 503b 568b b63c
00000210: 4998 bebd 315d 96ba 70e9 7f3a b7af 9bbd
00000220: f621 f73d 2409 08bb 5673 63bd 53d5 91be
00000230: 3f81 72be cec2 27be c39a 9fbd 82a8 43be
00000240: 927e 973d a949 9b3d f12d 25be 8b5d 21bd
00000250: 8d4d c6bc 747c c33d a82b 31be fd38 b43d
00000260: dd08 c33d 3bba 793d a69c 87bd 7658 29bd
00000270: de90 f5bd 1438 a73c 62a8 cbbc d55a a53c
00000280: e537 d03c f278 993c b2f9 e7bd 4d8b e03d
00000290: 9242 b6bd cb7c d9bd d750 c33d 7345 603d
000002a0: bc44 79bd 651b 67be 9551 1abd ba76 563c
000002b0: aa23 05bd b5a0 64bc 8665 c13c dd7b 2f3e
000002c0: 37de bb3d f0d0 583d 7be1 753d 6335 5abe
000002d0: 25cb 563e 2c81 3cbe 0798 97be 42ae abbd
000002e0: 439b 5bbd 0270 31be 759f f9bd 8770 2dbe
000002f0: d2df acbd d875 07be c935 6ebe e161 bbbc
00000300: 06d0 fbbd a507 37be d125 e3be f511 8cbe
00000310: 5bb9 b0be 17b5 adbd 337e 4a3e 82e0 96bd
00000320: 62db 2b3e 9f4f 363e 3e89 c6bd 4538 9abe
00000330: 9aed f0bd e1a3 02bd c97b 40be d623 77bd
00000340: 6968 27bd e0b6 95be fae7 873d 32a7 ebbe
00000350: 8857 febc 3d3e 8ebe bdd0 18be 8830 7fbe
00000360: 4446 41be 3649 dfbc 5dce d4be d764 b83d
00000370: 9ed6 7abe 7319 9fbe 6492 193c 04ee 22bc
00000380: ffc0 2e3d b60a 4cbe a782 a2bd 8092 493d
00000390: 219c 5dbe a521 97be af2a b7bd 6ccf 603b
000003a0: a4c6 c0bc 6e7a abbd 043f d9bd e9e5 223d
000003b0: 7b36 f3bd eee9 48bc 9cdc f7bd 0376 70be
000003c0: a8e7 cb3d 3ee5 353c 7396 b9be a76e 1e3e
000003d0: 6eea 173e e7bb 953c cbd5 1fbd e125 3c3e
000003e0: 1e71 9bbe 861e e73d efc6 65be 3566 223e
000003f0: 83fe 063e 3fe6 6e3e e2ae 86be e0fa eabe
0.09201455 -0.09731746 0.018759081 -0.14856167 0.014856429 -0.102038525 0.030363388 -0.05815608
-0.09045679 -0.29821557 0.081867285 -0.03207471 0.10906703 -0.018390004 -0.22180952 -0.057704374
-0.020058587 0.10514837 -0.025272334 0.0069306158 -0.27093068 0.13159928 -0.1475657 -0.00363503
0.031584386 0.011625858 -0.017780218 -0.20160879 -0.1035548 0.16307507 -0.0050024353 -0.011959947
0.030807154 -0.15944871 -0.0036628447 -0.061469037 0.18658803 -0.02616998 -0.20994213 0.0023062439
-0.024222868 -0.02747853 -0.4633253 -0.26128927 0.10473115 0.058192626 0.04213015 -0.048674025
-0.033225328 0.046214238 -0.70291466 0.09698324 -0.21573107 -0.06529642 -0.050343912 0.22734183
0.03744443 -0.014125777 0.096135356 -0.04286716 -0.00019553915 -0.05894639 0.07441007 0.11045947
-0.0002670181 0.056874998 0.17223024 0.28280094 0.034291144 0.22770816 -0.1037958 -0.1594262
0.12773758 0.003009594 -0.10454083 0.107424304 -0.067526996 -0.005323836 -0.74927986 -0.04471485
-0.16795173 0.049644742 0.075168714 -0.14823629 0.06594331 -0.3968186 -0.204213 0.007711524
-0.10239527 0.06904798 -0.17014794 -0.009292889 0.074410245 -0.18141769 0.052607976 -0.0032449644
0.24700288 0.0765604 0.11835935 0.09217653 0.069399446 0.06522013 0.0033335474 0.052707132
0.16525187 -0.31792724 -0.13908221 0.034935024 -0.060742613 0.08991648 0.26409706 0.06723364
-0.30963174 -0.053633805 0.045330554 -0.22390375 -0.12387013 0.21423094 -0.19945873 -0.11772974
-0.05674828 -0.25768414 -0.06856022 -0.1322522 -0.03693412 0.18631107 0.035478484 0.13833551
-0.06868652 -0.33795354 0.0031769963 0.022283237 -0.0930639 -0.0011471865 0.0009762263 -0.07601874
0.120670244 -0.0020757401 -0.055529915 -0.28483066 -0.23682116 -0.16382906 -0.0779319 -0.1910725
0.07397188 0.07582409 -0.16130807 -0.03939585 -0.024206901 0.09545222 -0.1730181 0.08799932
0.09523175 0.06096862 -0.06621675 -0.04134413 -0.11990522 0.020412482 -0.024860565 0.020184914
0.025417278 0.018734429 -0.113269225 0.109640695 -0.08899416 -0.106195055 0.09536903 0.054753732
-0.060856566 -0.22569044 -0.03767546 0.01308983 -0.032504715 -0.013954331 0.02360798 0.17137094
0.091732435 0.052933633 0.060029488 -0.21309428 0.20975931 -0.1840865 -0.29608175 -0.083828464
-0.053614866 -0.17327884 -0.12188617 -0.16937457 -0.08441128 -0.13228548 -0.23262705 -0.02287382
-0.12295537 -0.1787401 -0.4436479 -0.2735745 -0.34516415 -0.08481806 0.19774704 -0.0736704
0.16782907 0.1780381 -0.096941456 -0.30121055 -0.11764069 -0.03189457 -0.1879722 -0.06033691
-0.040871058 -0.29241085 0.06636043 -0.46025997 -0.031047598 -0.2778186 -0.14923377 -0.24920857
-0.1887446 -0.02725659 -0.41563693 0.09003609 -0.24495932 -0.31074104 0.009373281 -0.009944443
0.042664524 -0.19925961 -0.07935076 0.04921198 -0.2164159 -0.29517856 -0.08943688 0.003430332
-0.02353222 -0.08372961 -0.106077224 0.03977004 -0.11875626 -0.012262804 -0.12102625 -0.23482518
0.09956294 0.011102019 -0.36247596 0.15471898 0.14835522 0.018278075 -0.03902225 0.18373825
-0.3035974 0.11285119 -0.22439168 0.15859301 0.13183026 0.2333002 -0.263053 -0.45894527

l2.bias f4 [119]
00000000: 154c 0e3d 2162 20bd fe09 15be 6392 05be
00000010: 6561 50bd c943 283e bf5e bdbd 9b38 b53c
00000020: e83f 593d 177f fd3d 3921 653e 484c 053d
00000030: c06a 30be 0e19 abbc e10b 263e b173 52bd
00000040: f803 fd3c f076 be3d 360e f9bd 1276 08bd
00000050: 8dc3 dcbc db8b d43d 2b1a d93d 041b e93d
00000060: af36 153c f282 5b3e 9c30 9a3d 4371 82bd
00000070: 292b 23bd f3e2 ee3d 66f0 443d d7a1 e13b
00000080: 2077 b13b ac88 dabd c434 ae3d 3c86 233e
00000090: 1225 84bc fe32 b7bd af91 2f3d 987f f73c
000000a0: 3a81 353b 8eb7 973d 68fb b83c bcd5 9a3d
000000b0: a644 3bbd 51ff 163e 3e4d 5f3d fff3 f23c
000000c0: 4fbd 793e c925 683d da28 153e 9ced 013e
000000d0: 11ac 7cbd 131c bc3d 388a 39be 51dc 9abd
000000e0: 758d 00be be39 86bc 0a2d 8e3c e988 4b3d
000000f0: 721f 823d 5eac 243e e1aa f3bc 67a2 613b
00000100: 0e32 173c d326 403e e5d8 af3d 0140 7dbc
00000110: add6 64be bc8c 813d 9387 d23d 3c30 843d
00000120: e34d ad3d d2ff b93d 40de 7bbd 583a 68bc
00000130: 8ecc b4bd 089f 30bd a6f8 d63d 87bc a23c
00000140: b8a4 61be cd03 493c 03b1 013d 3b71 db3c
00000150: 5f9b dd3d c219 f53d 2257 ac3d f729 663e
00000160: a2f2 1e3d e8ad 223d 4f7d 3bbe e24f 043d
00000170: 860f e13c 3c6a 24bc 1d1a f23d d8a0 923c
00000180: bf04 2abe 6d3e 883e f356 903d ac20 193e
00000190: b5e0 463e 5e0d 7abd 8abf cfbc 2078 663c
000001a0: 3eb8 d3bd 8c86 873d ad6b 0dbc 2ee4 1c3d
000001b0: 867b 6b3c 316b a53d d935 903c 17cb 853d
000001c0: 40e7 a1bd 0b70 253d 5224 993d 83b3 083d
000001d0: 7fe0 dbbb 160d 6b3d 65f7 873d
0.034740526 -0.039156083 -0.14554593 -0.13044123 -0.050874133 0.16432108 -0.09246587 0.022121718
0.05303946 0.12377756 0.22375955 0.03254345 -0.17228222 -0.02088597 0.16215469 -0.051379863
0.030885682 0.09300029 -0.12160914 -0.033315726 -0.026948715 0.10378238 0.10600694 0.11382106
0.009107276 0.2143667 0.07528803 -0.06369259 -0.039836083 0.11664381 0.048080824 0.006885748
0.005415812 -0.10670599 0.08506158 0.15969175 -0.016130958 -0.08945273 0.042863544 0.030212209
0.0027695433 0.07408057 0.022580817 0.07560298 -0.045719765 0.14745833 0.054517023 0.029657362
0.24388622 0.05667666 0.14566365 0.12688297 -0.061687533 0.09185042 -0.18119133 -0.07561553
-0.12553962 -0.016384955 0.01735546 0.049691115 0.06353654 0.16081378 -0.029744567 0.0034429075
0.009228243 0.1876481 0.08586291 -0.015457154 -0.22347517 0.06325671 0.10279765 0.064545125
0.08462121 0.09081997 -0.06149125 -0.0141740665 -0.08828078 -0.043120414 0.10496645 0.019865287
-0.22035491 0.012268973 0.031662952 0.026787391 0.1082065 0.119678035 0.08415057 0.22476946
0.03880561 0.03971663 -0.1830952 0.032302745 0.027473222 -0.010035094 0.11821387 0.017898962
-0.16603373 0.26610127 0.07047834 0.1495387 0.19421656 -0.061047904 -0.025359888 0.014066726
-0.10337876 0.0661746 -0.008631629 0.038303547 0.014372712 0.08077086 0.017603802 0.06532877
-0.079054356 0.040390056 0.07477631 0.03337432 -0.0067101116 0.057385527 0.06638984

l3.weight f4 [9, 119]
00000000: 1a0e f7bc 18bc 223e af72 2cbe 521c f43e
00000010: d6b6 6d3e 38b2 de3c 98de 553e b729 f73e
00000020: dc03 f63e 263d 88bd cf24 2f3e 8fec d8be
00000030: 397c 353e 36ab 84bd 49d3 babe cf7a 54bc
00000040: d25c 85be 9cc9 313e cfa5 413e 06a2 adbe
00000050: 0e65 98be 15aa 053e a17f d13b 0555 c23d
00000060: 73bf 8f3e 876f 98bd 8de9 853e 4f40 3fbd
00000070: 7579 0abe b82b a13d d676 c4bd 27e7 a63e
00000080: ce36 c13d ddf1 d73e efd8 0ebe 3f85 293c
00000090: 20a3 613e f6f7 9a3d 916d 0cbd 877f 163d
000000a0: 51df 22bd 46e6 fe3e 4d91 223e 6996 eb3d
000000b0: 8452 8b3e 6c60 4b3d 6e12 70be b26b 3abd
000000c0: 7bf7 b8be 0952 0e3f de44 af3d 592c 223e
000000d0: 38de ee3e a68b 22bc c45f 2e3e 5a71 113e
000000e0: a796 863e eaa2 833e e906 bc3e ff77 c03d
000000f0: 20c7 8e3d 6f41 c6bd e981 a3bd 6bcc 503e
00000100: 9a47 153e 480d e4bc 59f8 abbc bf0e 46bd
00000110: be61 973e 9877 7f3d 4521 6f3e 0f67 4f3e
00000120: 7a68 47bc ab56 973c ccae 563d a011 b03e
00000130: ef18 f93c 5b13 00be ab91 db3c fa2e cd3d
00000140: 27ea 93bd d22c 9cbb 6797 c5bd fc0a f23e
00000150: 7266 81bd 2d5a 2bbd 4bce 3c3e f092 92be
00000160: d769 42bc 233c b13e 8e58 6e3e add0 4fbe
00000170: 4254 623d eb88 423e 138f edbc cd5a 67be
00000180: 4618 f8bd e19b d1be ed97 ecbe 6b57 96bb
00000190: b3ca 4fbe f526 483e 2405 073c f503 b03c
000001a0: f428 223f 8e99 643c 727c 453e a6f4 b33e
000001b0: 6581 52bd d95a b4be bcad a43e 7d73 9d3c
000001c0: 7e0a 7a3e e459 9dbc bbc0 37ba 93b5 d53d
000001d0: 4184 103e 9e80 06be 0513 8d3e ca2f 59bd
000001e0: 08cd 63be 6d5f 8bbe 6ecd b93c 077c 073e
000001f0: 479a 833e 48dc 5c3e 22a3 72be 2f11 813e
00000200: 18b5 adbc a80c 613e ea04 463d 8ea2 183f
00000210: 57c6 81bc e374 523e 5598 debd 1013 27be
00000220: 85f8 3fbe 841d 523e cf0f 1b3f 1efc 673e
00000230: c233 803e 4938 5dbe 324c 1e3e 3d80 71be
00000240: 5feb b43d 9a00 ae3d b14d 093e ad00 fc3e
00000250: 5183 423d 0877 143e 0736 243e 621a ea3d
00000260: 8c38 6bbe 81a2 7ebe ebb7 0ebe 9bf1 db3e
00000270: a654 3f3e ff70 1fbe a012 343d b92c 403e
00000280: e9c6 0ebc 866c 5bbe b96d e63d df2b 5bbc
00000290: c3f3 7c3d 569e 95be 87f7 903d 79af 9dbe
000002a0: 5e52 efbd 8de7 5b3d 85c4 273e cb0e c7bd
000002b0: c949 83be 3d22 633e bb65 27be fb17 813e
000002c0: 1425 0c3e 8544 9fbd 542a 6f3d a8ea d8bd
000002d0: e15e 093c 1b3a 0c3e a90a 153d f692 bb3e
000002e0: 3377 123e ff46 babe 87d2 8f3d dd72 cdbe
000002f0: 049d 07bd fc12 6abd ee81 5b3e 7a38 813e
00000300: f4a3 18be 08ba 96be 4f18 5ebc a001 d1bd
00000310: 9d6a c73e f0ce 5c3d 480f cb3d db26 4cbe
00000320: 86e1 033d e9fb 86be 9800 2abe 54e7 403c
00000330: 31e7 c83d 193e 7e3e b8ce 81be c73b 62bd
00000340: bcf9 273e 99c2 523e 9ec2 063e 7470 7cbd
00000350: bd4f 693e d97f 3e3e 418c 2cba accc c5be
00000360: 4eaf bdbe bba6 ad3e d5c6 0cbd 27b5 a9be
00000370: aa6e 55bc 7e1b 003e eca1 c9be 8a0f 573e
00000380: a529 09bd 095e fa3d a3b0 d93e 888f e33d
00000390: 7764 873e 504d a23e 307e 073d bd39 4b3e
000003a0: 4ad7 e6bd e4a2 183e 045a cbbd f21e acbb
000003b0: 1c0c 683e cd5d a3bd ada1 9c3d 91b4 953d
000003c0: 2fb7 f03e db1e 8bbe 78d7 4c3e 38b4 66be
000003d0: 7f41 573e 6123 d1bc 8e40 e1bd b7ed c03b
000003e0: a9c9 ab3d 4cee d3bd fa5d 8bbe 61c8 46bd
000003f0: 2632 a43d 15d3 1d3e 205f bcbe f8cd febd
-0.030158091 0.15892065 -0.16840623 0.47677857 0.23214278 0.02718459 0.20885694 0.48274013
0.4804982 -0.06652288 0.17103885 -0.4236798 0.17723168 -0.064779684 -0.36489323 -0.012968733
-0.2604738 0.17362064 0.18910907 -0.33912677 -0.297646 0.13053162 0.0063933884 0.094888724
0.28075752 -0.07443147 0.26154748 -0.04669219 -0.13522895 0.07869667 -0.09592979 0.3259823
0.09434281 0.42176715 -0.13949941 0.01034671 0.22034883 0.07566826 -0.03428418 0.036742713
-0.039763752 0.4978506 0.1587574 0.11503298 0.27211392 0.049652502 -0.2344453 -0.045512863
-0.36126313 0.55593926 0.08558057 0.1583723 0.46653914 -0.00992099 0.17028719 0.14203396
0.26286814 0.2571023 0.36724022 0.093978874 0.06971574 -0.09680449 -0.07983763 0.2039048
0.14578095 -0.027838364 -0.020992445 -0.048353907 0.2956676 0.062369913 0.23352535 0.20254157
-0.012170905 0.018473944 0.052412793 0.34388447 0.030407397 -0.12507384 0.026802858 0.10018726
-0.072223954 -0.004766085 -0.09648018 0.47274005 -0.06318368 -0.041834045 0.1843807 -0.2862773
-0.0118660545 0.34616193 0.23275968 -0.20294447 0.055256136 0.18997543 -0.028998887 -0.22593231
-0.12114005 -0.4093924 -0.4620966 -0.0045880578 -0.20292167 0.19546111 0.008240972 0.021486262
0.6334374 0.013952626 0.19285753 0.3514759 -0.05139293 -0.3522556 0.321638 0.019220108
0.24418065 -0.019207902 -0.0007009615 0.10435023 0.14112951 -0.13135001 0.27553573 -0.05302409
-0.22246182 -0.27221242 0.022680964 0.13230906 0.25703642 0.21568406 -0.23695043 0.25208423
-0.021204516 0.21977484 0.04834453 0.5962304 -0.015841646 0.20552401 -0.10868899 -0.16315866
-0.18747146 0.20519072 0.60570997 0.22654769 0.25039488 -0.21603502 0.15458754 -0.23584075
0.08833956 0.084962085 0.13408543 0.49219266 0.047488514 0.14498532 0.16036235 0.11430813
-0.2297079 -0.24866678 -0.13937347 0.42957768 0.18684635 -0.15570448 0.043963075 0.1876706
-0.008714416 -0.21428117 0.11251397 -0.013377159 0.061755907 -0.29222363 0.07078462 -0.30797938
-0.11685632 0.05368762 0.1638356 -0.097196184 -0.2564223 0.2218103 -0.16347401 0.25213608
0.13686019 -0.07776741 0.058389977 -0.10591632 0.008384437 0.1369404 0.03638712 0.3663556
0.14303283 -0.3638229 0.07022577 -0.40126696 -0.033108726 -0.05714701 0.21436283 0.252384
-0.14906293 -0.29438806 -0.0135556 -0.10205388 0.38948527 0.05390829 0.09915024 -0.19936697
0.032197498 -0.26364067 -0.16601789 0.011773903 0.09809721 0.24828376 -0.25353026 -0.05523279
0.1640386 0.20582046 0.13160178 -0.06163068 0.22784324 0.18603458 -0.0006582179 -0.38632715
-0.3704781 0.33916268 -0.03436931 -0.3314602 -0.013026873 0.12510487 -0.3938135 0.21002021
-0.03348698 0.12224967 0.42517576 0.11111361 0.26443836 0.3169961 0.033079326 0.19846244
-0.11271532 0.14905888 -0.099292785 -0.0052527124 0.2266087 -0.079768755 0.07648025 0.07309831
0.47014758 -0.27171978 0.2000407 -0.22529685 0.21021079 -0.025529565 -0.10998641 0.005887713
0.08388073 -0.10348186 -0.27220136 -0.04853094 0.080173776 0.15412553 -0.36791325 -0.12441629

l3.bias f4 [9]
00000000: 7c98 b43d ce8b 463e e1ad 693e a793 0d3e
00000010: 9461 0a3e 9903 393e f5d7 703e cbe8 8a3e
00000020: fff3 053e
0.088181466 0.19389269 0.22820236 0.13825856 0.13513786 0.18067779 0.23519881 0.27130732
0.13081358

l4.weight f4 [53, 9]
00000000: ca51 ed3e c1a8 003f 0231 453f b28f c13e
00000010: c891 a33d b20b 37bf e263 dcbe 230f 0340
00000020: 6a48 98be ce53 103e 9536 043f 06ba e1be
00000030: ba13 283f 4597 713f 0d7d 6b3f 572e ac3f
00000040: 2b37 183d c608 143f 6ab0 04bf 19ef bd3e
00000050: 53db d33e 528e c13f 58e0 743f 0ac9 3fbe
00000060: 907f 8b3f b5e1 2c40 3e38 dc3e 99d2 053f
00000070: c552 0dbe 4286 e8bd cf68 5a3f 83e8 a63e
00000080: 040f a53f 5d49 983f c915 acbd ecfd a03f
00000090: a0db 01bf da74 223f 07e9 e83d 8fdd a93f
000000a0: 758b bc3f f2b6 4d3e 8532 683f dda0 e03f
000000b0: eac4 ca3e 1e3f 7bbd 9e7c df3e 53c0 4bbe
000000c0: 0a07 593f 2a26 4c3f 98c5 6e3f bdf5 9f3f
000000d0: 7c2e ac3e 31a8 6d3f 387c 0e3e 8c66 f7be
000000e0: b088 223f 4863 433f d5f6 bc3e 1407 8b3f
000000f0: bd93 3c3e 017e 403f 0c56 853f 4377 363e
00000100: 254b ebbe c944 143f c6fe 593e 00de 5d3e
00000110: f925 893f 6c34 883e 5888 823f fdf3 343f
00000120: fbf2 c7bd e8ee 0bbd 09c6 a13e 0a0e d73f
00000130: e6a3 293f 3997 d4bd 49e6 853f 11e3 da3f
00000140: d08c 1d3f 7dd8 e93e 57bd b83e c3df f4be
00000150: 4ea4 553f be08 fb3e 7ae7 233f 5b99 8c3f
00000160: 8d0f 67bd 664a 523f 4116 f5be dffc 2c3e
00000170: d41e 173f 3258 683f bf85 533f ad63 78bd
00000180: 6a52 b83e 5f4a 0b40 bc5f 543f 92f3 ebbe
00000190: 80cd ad3e 15cb ae3e b53b a13f 0176 7a3f
000001a0: d7d6 ae3e ad7e 913f 2d95 f83f 4d8e 8d3f
000001b0: 2e98 cb3e d3a2 213c e2c6 6ebe ddc4 463f
000001c0: 64fc ee3e 4f1f d33f e971 883f b8be 903e
000001d0: 682c a73f c8ea 0c3f 1074 ad3c 11ff 9bbe
000001e0: 60d0 5e3f 2a2e 383f adcb b83f d4d2 8e3f
000001f0: b051 033e d6bc 893f 486b cdbe c884 ff3e
00000200: efc9 a63d 1aa5 b43f 62da b03f 8da6 503e
00000210: 12ae 853f 4e53 c33f bd13 1b3f 1a76 713e
00000220: 7595 133f 3c86 b53d 4723 f6bc c18d 7e3f
00000230: f681 59bd 5833 b83e d728 873f 471e 2a3c
00000240: a9d9 f4be f5df 023f 7f25 343e 6f28 e13f
00000250: e643 753f 4bfa 623e 9c16 bf3f ca7a 973f
00000260: 22bb 333f 83fd 5cbe 5cec ee3e 296e 0cbd
00000270: 9f1a 903f 92df 6a3f 47af 0c3e 253b ad3f
00000280: dc92 da3f 2adb d73e 3daa 5a3e bf75 823e
00000290: 4cb2 a7be 191f 8b3f c694 763f ddf9 8d3f
000002a0: 6dc9 7d3f 3a76 c43e 6562 4f3f ce51 19be
000002b0: e729 c03e 7b27 6fbd 4ea8 b93f a9a5 b53f
000002c0: 8cc4 433f 8626 a13f b999 ac3e ad37 a63f
000002d0: 491a b6be b3cd 8f3d 92eb 043f 8b8a af3f
000002e0: ae58 8a3f 2689 a83e 20a0 183f 681c b43f
000002f0: 10ec 7d3f 1d4f 483e 95a6 7e3e 9911 683f
00000300: 67c8 a1be 7369 df3d a8b3 84be c404 8ebe
00000310: e667 ab3f 4612 bfbd 30e1 86be c76c a23e
00000320: 159a 223e eb83 de3f b1df 9b3f f9bf 86be
00000330: a492 4b3f 3544 1540 e79d 0d3f 5901 44be
00000340: 7764 2e3f 86a7 aebe 80e5 823f 1161 a73f
00000350: a0b1 ab3e b651 c33f d2a6 e43e 211a 553f
00000360: 5ed6 673d b83f dfbe 480a 283f 9efe db3e
00000370: 9e8a 103e a61d 943f e6f8 743e 9385 663f
00000380: 8177 963f c4f3 8e3d edaf 343f 0f18 cbbe
00000390: e27e ad3e 1623 213f 43f1 063e 23ad 2f3f
000003a0: 9a44 2d3e 7e7a ec3e d5d4 69be 6d47 c8bd
000003b0: 6691 ff3e 7e1a 683f 45a9 0e3f 4d31 a93e
000003c0: 0819 0f3f 9170 843f 6794 9e3f bb2b c13e
000003d0: 5dec 5ebe 274a bb3c 2ae2 753f 0fb1 533f
000003e0: 652c c23f 1c9f 273f fcd6 d2bc 9b77 df3f
000003f0: 1557 c9bd 9dfe 7bbe 7b89 513f 080f 933d
0.46351463 0.502575 0.77027905 0.37804943 0.0798679 -0.7150222 -0.43044955 2.0477989
-0.29742748 0.14094469 0.51645786 -0.44087237 0.656551 0.94371444 0.9198769 1.3451642
0.037161987 0.5782589 -0.51831686 0.3709648 0.4137827 1.5121558 0.9565482 -0.18729034
1.0898304 2.701276 0.4301166 0.5227447 -0.13801105 -0.11353733 0.85316175 0.32599267
1.2895207 1.1897389 -0.08402593 1.2577491 -0.50725746 0.6345955 0.113725714 1.3270739
1.4730059 0.2008932 0.90702087 1.7549092 0.39603359 -0.06133949 0.43649763 -0.19897585
0.84776366 0.79745734 0.93270254 1.2496868 0.33629215 0.92834765 0.13914573 -0.48320425
0.6348982 0.76323366 0.36907068 1.0861535 0.18415733 0.75192267 1.0416884 0.17818932
-0.45955768 0.5791746 0.21288595 0.21666718 1.0714713 0.26602495 1.0197859 0.70684797
-0.09763142 -0.034163386 0.315964 1.6801159 0.66265714 -0.10380406 1.0460902 1.7100545
0.6154299 0.4567298 0.36081955 -0.47826967 0.83453834 0.49030107 0.6402508 1.09843
-0.056411315 0.82144773 -0.4786854 0.16893338 0.59031415 0.90759575 0.82625955 -0.060641933
0.36000377 2.1764143 0.8295858 -0.46084267 0.33945847 0.34139314 1.2596346 0.9783631
0.34148285 1.1366783 1.9420525 1.1059052 0.3976454 0.0098654805 -0.23318055 0.7764414
0.46676934 1.649393 1.0659763 0.28270507 1.3060427 0.5504575 0.021173507 -0.30468038
0.87036705 0.7194544 1.4437157 1.115809 0.1282413 1.0760753 -0.40120912 0.49905992
0.081439845 1.4112885 1.3816645 0.20376034 1.0443747 1.5259798 0.60576993 0.23580208
0.5764993 0.08863494 -0.030046118 0.9943505 -0.053102456 0.35976672 1.0559338 0.010383195
-0.47822312 0.5112298 0.17592429 1.7590464 0.9580673 0.22165792 1.4928775 1.1834347
0.70207417 -0.21581082 0.46664703 -0.034284744 1.1258124 0.9174739 0.13738738 1.3533674
1.7076068 0.42159396 0.21354003 0.25480458 -0.32753217 1.0868865 0.9632076 1.1091877
0.99135476 0.3837145 0.81009513 -0.14972612 0.3753197 -0.05838726 1.4504488 1.419118
0.7647178 1.2589881 0.3371103 1.2985741 -0.3556693 0.07021656 0.5192195 1.3714155
1.0808313 0.32917136 0.5961933 1.4071169 0.9918833 0.1956143 0.24868234 0.9065185
-0.31598207 0.10908785 -0.25918317 -0.2773801 1.3391082 -0.09329657 -0.2634368 0.31723616
0.1587909 1.7384008 1.217764 -0.2631834 0.7952063 2.332288 0.55319065 -0.19141139
0.6812205 -0.34112185 1.0226288 1.3076497 0.33533955 1.5259311 0.44658524 0.83242995
0.05660092 -0.436033 0.6564069 0.42967695 0.14115378 1.1571548 0.23923072 0.9004757
1.175522 0.06980088 0.7058094 -0.39666793 0.33885866 0.6294416 0.13177972 0.6862356
0.169207 0.46187204 -0.22835095 -0.097792484 0.49915618 0.90665424 0.55727035 0.33045426
0.5589757 1.0346853 1.2389039 0.37728676 -0.21769853 0.022862507 0.96048224 0.82692045
1.5169798 0.65477157 -0.025737278 1.7458376 -0.09831063 -0.24608846 0.81850404 0.07180601

l4.bias f4 [53]
00000000: b323 b33f 5b7e fd3e 4949 6a3e be63 0e3e
00000010: 769e e73d c716 80be 4922 b33b e5bb f53e
00000020: 42f4 0bbf 3cd3 ea3d 5606 803e b7f8 a7bd
00000030: e6c4 313e af5c 7abe f52f 193e 61b6 aa3f
00000040: 888d 263e 9cae df3d 3511 043e 8796 04be
00000050: d55e 82be 647b be3f 5566 d3be f423 b53e
00000060: a81c 093e b582 6e3f b79e 6bbc 7859 4a3e
00000070: d8d7 193f b1f4 9b3e 31c5 843f facf 46be
00000080: 412f 9ebe ff97 03bf 07ca e93c de72 91bd
00000090: 8fba 4fbe 6b74 803f 88db 193d dc70 cb3f
000000a0: 7b2b 263f aaaa 86bd b092 abbe 5474 3e3c
000000b0: 902f b03e 9f04 8dbd 4cd3 a03f 4b05 9abd
000000c0: beea e5be e577 063f 9dfc 1cbe 5f73 afbd
000000d0: fcaf dabe
1.399527 0.49510464 0.22879519 0.13905236 0.11309521 -0.25017378 0.0054667336 0.47994915
-0.5466958 0.11466071 0.25004834 -0.082017355 0.17360267 -0.24449418 0.149597 1.3336908
0.16264927 0.10921976 0.12897189 -0.12948047 -0.25462976 1.4881406 -0.4128901 0.35378993
0.13389838 0.93168193 -0.014381102 0.19760692 0.60094976 0.30460122 1.0372678 -0.19415274
-0.30895427 -0.514038 0.028538717 -0.07101987 -0.2028601 1.0035528 0.037562877 1.5893817
0.64910096 -0.0657552 -0.3351035 0.0116244145 0.34411287 -0.06885647 1.2564483 -0.07520541
-0.44905657 0.52526695 -0.1533074 -0.08566927 -0.4271239

l5.weight f4 [85, 53]
00000000: e665 68bd f5b7 443f e67a 6cbe 8fd2 ae3e
00000010: 63cb b839 c216 f83e d9dd 0cbf 42e5 79be
00000020: 7387 873b 525d 5c3f 042e 84be e570 15be
00000030: 3ab6 e93e 0ef1 eb3e b562 1b3e 4e0e 1f3e
00000040: 66eb 373e 0552 1f3e a80b e03e 011a b63e
00000050: 2514 7abe 5ee1 513b a9eb 2dbe 4151 4f3f
00000060: 242c e4be 29f7 323f d928 d0be e5a7 233e
00000070: 91d0 fbbe 2c9a 703e 8b5a 4c3f 86e3 f2bd
00000080: a600 f13e 9566 20bd 2782 943e 9fbf 953e
00000090: 89d4 b93e bf57 033d 8246 2a3f 2991 01be
000000a0: 1b84 463f 7e15 eb3e 42f2 253e d8b9 b0be
000000b0: 6835 a2bd 96c6 f03d f437 9d3e d7ab ce3e
000000c0: 63cb 04be ceda 9ebe f5da 3d3e 802c 9cbd
000000d0: 2cd2 b9bd 7f00 89be 45f6 393f ba3c 9cbe
000000e0: f5ff 193f d2d6 503d 6ad4 cd3e 4a1a f7bd
000000f0: c3da b5bd 3447 273d 4e7f 3b3f 1d52 e9be
00000100: 0bc0 df3d d08d 3b3f 046c 3c3f 9f1b 253e
00000110: 985a 44be fefa 793e 53ca c83d c765 2a3f
00000120: 00f9 3b3f 1065 ea3c aa9e dabe 0971 023d
00000130: 3105 1d3f c7a4 cabd 0d36 5b3e 6c7e 0dbe
00000140: aa51 263f bb26 0bbf 141c 16be 4eab ba3e
00000150: ace9 c7bd 7353 683f 7539 213f 4704 1b3f
00000160: 8d8b 5c3f b7a4 6d3f ba12 99be 166c 3c3e
00000170: db6c 85be 018a 2b3f 6518 6d3f 27d3 6b3f
00000180: 703d f03d 5c6b 53be 4d50 ff3e 033c 3cbc
00000190: 4e23 763f df65 9b3e 75f2 91bd 9f2f 393f
000001a0: 24b4 4bbe 2462 db3e d26b 7fbe e7bc 2d3f
000001b0: 82c3 9ebe 5151 283f b4a6 50be 4dbd 023f
000001c0: bf29 c6bd 79bb 8ebc 1b2c c33d a1a5 073f
000001d0: 38ee b4be cffe b0bd fbde 5e3f d699 543f
000001e0: 7fcf f83d 3c11 3abd 55ea 1b3e b9f1 7abb
000001f0: 12e9 093f 85f1 023f fd2d 59be 53d1 dcbe
00000200: 76e3 97bd 6d89 e63e a720 89bd f26b 1a3e
00000210: c8fc 2fbd d16e 2e3f 95bb efbe 3f4f 86be
00000220: c524 993e d4f1 093e c7ae 433f ab70 5f3f
00000230: 3f7b 023f 7a75 613f 798a 803f c8ec 84be
00000240: c890 c63e 07de 31be ff21 273f 5f58 5a3f
00000250: a9a3 703f 596b 853e e793 c7be fadc 033f
00000260: 18b1 f23d 87b1 593f 7770 513e bae4 9bbd
00000270: b9ad 2a3f 5698 c3bd 5896 b63e e9fe b8be
00000280: 4285 133e dc20 183f ca39 e93d 2f52 093f
00000290: d143 e33e 5126 103e 97e1 253c 8459 e23e
000002a0: aaeb 843d 8a3b 133f b4de 403f 1260 d43d
000002b0: 0256 293e 357f 503f 7010 76be 99fa 603f
000002c0: 2944 4d3e 5623 413e 3aa0 393f 1452 323f
000002d0: 4fdf 89be 51cf 193f de34 2f3f 40b1 583d
000002e0: a8ac 0cbb 6b10 0d3f 6055 473e 4873 9cbd
000002f0: 8aea 96bc ddb0 eabe 7ec5 a73c 8cd7 6a3f
00000300: 18df c73e 97d6 d03d b34c 033f efc2 4a3f
00000310: 8a39 afbe 54fc d53e 00ed 6abe cbd0 bc3c
00000320: 3415 e03e 9637 6b3f b7dd 2c3f 6810 6b3d
00000330: b61d b83e a29b 7abe f5c1 953e 9911 5a3e
00000340: 51bf 58be 2204 573d a319 023f 11dd 183f
00000350: 652f a5be 23a9 8e3e 6d64 d8be d987 363f
00000360: 0b1b a9be b347 3f3e 1afd f33e 7261 e23e
00000370: 5deb 013e e043 7a3e 8a13 b4be eec8 df3d
00000380: df17 433f 019c 003f 45fb 18be 7030 2cbd
00000390: c5f5 61be 5a75 75bd 9516 0b3f e91d a03e
000003a0: 205e 413e a1f4 6cbe e065 37be 5c79 6d3d
000003b0: 3729 d63e 2980 44be 98d8 a63e 0756 5e3f
000003c0: 7098 3abe c0aa 84be 5815 933d 02ea 5d3e
000003d0: a4ea d43e e8ff 793f 3a21 263f 2e80 763f
000003e0: ffca 5b3f d90a cabe 3a45 3abe d5ac 1abe
000003f0: 8779 493e 2d34 6e3f 064a 3b3f dbe8 343f
-0.056737803 0.76843196 -0.23093757 0.34145018 0.0003524675 0.48454863 -0.5502601 -0.24403861
0.00413602 0.86079895 -0.25816357 -0.14593847 0.4564684 0.46082348 0.15174372 0.155328
0.17960891 0.15558632 0.43758893 0.35566714 -0.24421747 0.0032025198 -0.16984428 0.8098336
-0.44564927 0.69908386 -0.40656164 0.15982015 -0.4918256 0.23496312 0.7982566 -0.11859803
0.47070807 -0.03916033 0.29005548 0.29247758 0.36294964 0.032066103 0.66513836 -0.1265303
0.77545327 0.45914835 0.16205695 -0.34516788 -0.07920343 0.11756627 0.3070675 0.40365478
-0.12968211 -0.3102631 0.18540557 -0.07625675 -0.0907329 -0.2675819 0.726414 -0.3051508
0.60156184 0.05098612 0.40201122 -0.12065561 -0.08879616 0.04083939 0.73241127 -0.4557046
0.10925301 0.73263264 0.7360232 0.16123818 -0.19175184 0.24412152 0.09804215 0.6656155
0.7342682 0.028612643 -0.42699176 0.03184608 0.61336046 -0.0989471 0.21407337 -0.13817757
0.6496836 -0.54355973 -0.14659148 0.3645882 -0.09761366 0.90752333 0.629783 0.605534
0.8615044 0.9282946 -0.298971 0.18400607 -0.26059613 0.6700745 0.9261535 0.9211907
0.11730468 -0.20646423 0.49865952 -0.011488917 0.9614762 0.3035116 -0.07126323 0.7233829
-0.19892937 0.42848313 -0.24943474 0.6786637 -0.31008536 0.6574908 -0.20376092 0.510701
-0.09675931 -0.017423378 0.09529897 0.52987105 -0.35337996 -0.08642351 0.8705899 0.83047235
0.12148952 -0.045426592 0.1522611 -0.003829105 0.5387126 0.5114978 -0.2120895 -0.43128452
-0.074164316 0.45026723 -0.06695681 0.1508024 -0.04296568 0.6813784 -0.468228 -0.26232335
0.29910865 0.13471156 0.76438564 0.8728129 0.5096931 0.8806988 1.0042259 -0.259619
0.38782334 -0.17369853 0.6528625 0.85291094 0.93999726 0.26058462 -0.38980028 0.5150906
0.11850184 0.8503651 0.20453058 -0.076119855 0.6667133 -0.0955054 0.35661578 -0.3613198
0.14406303 0.5942514 0.113879755 0.5364103 0.44387677 0.14077117 0.010124586 0.4420892
0.06490262 0.57512724 0.7533982 0.103698865 0.16536716 0.814441 -0.24029708 0.8788238
0.20045532 0.18861136 0.7251011 0.6965649 -0.26928183 0.60081965 0.68440044 0.052903414
-0.0021465216 0.55103177 0.19466162 -0.07639176 -0.018422384 -0.4583806 0.020479914 0.9173515
0.39037395 0.1019718 0.5128891 0.79203695 -0.34223586 0.41794074 -0.22941971 0.023048779
0.43766177 0.9188169 0.6752581 0.057388693 0.35960168 -0.24473432 0.2924954 0.21295775
-0.21166731 0.052494176 0.5082037 0.5971232 -0.32262722 0.27863416 -0.4226412 0.7130104
-0.33028445 0.18679695 0.4765404 0.4421497 0.1268744 0.24439955 -0.35171157 0.10926996
0.762083 0.50238043 -0.14939602 -0.04203838 -0.2206641 -0.05992637 0.5433133 0.3127282
0.18883562 -0.23140194 -0.17909956 0.057977065 0.4182832 -0.19189514 0.32587123 0.8685002
-0.18222213 -0.25911522 0.07181805 0.21671298 0.41585267 0.97656107 0.6489445 0.96289337
0.8585662 -0.394614 -0.1819047 -0.15104993 0.19675265 0.93048364 0.73159826 0.7066781

l5.bias f4 [85]
00000000: 6b43 ff3e 29c6 91bf 86e2 3fbf 01a2 f2bf
00000010: 7e1e 60bf a806 353f 5e36 8bbf fcf0 01bf
00000020: 3122 5c3f 0bf7 eb3e 0630 ddbf 63a1 cabf
00000030: 6666 77bf b0e0 e0bf cb69 e9bf 13b3 51bf
00000040: 457d 85bf a96e a3bf 2c01 e0bf ef2e 6e3f
00000050: 0ae5 b3bf 0b11 153f f39c 76bf 72d7 cebf
00000060: 77c2 a5bf 1bc9 1f3f 7e1a 943f 3ea4 f83e
00000070: eeca 703e 59cf adbf 4874 df3f 6e8e 97bf
00000080: 013d e4bf c60f d5bf 761f f53e a27a 9fbf
00000090: 3fcb 343f 1e9f c9bf 5e3c b0bf 3725 84bd
000000a0: 7b47 bfbf 764e aa3e aa5a cd3e 9bc0 68bf
000000b0: 054d 593f d626 8ebf 5737 db3e 34bf 9fbf
000000c0: d9cc cebf a6ba ccbf 7e65 d7bf 1a42 9fbf
000000d0: de32 c3bf 1283 353f b834 c23e 64cb 59bf
000000e0: f2b2 ebbf 39b1 393f 11f7 b8bf 374c a0bf
000000f0: bae0 ab3f 8c33 933f 69d7 b3bf 148b 003f
00000100: 744e cebf 6d60 c6bf 8df1 8cbf ea4c 3abf
00000110: 3928 5f3f 6b63 363f cbf0 973e 63fb 353f
00000120: c12d 753f e3bd 3c3f 112a cdbf 3a33 dabf
00000130: 9475 e8bf 0603 fbbf a551 a53f a3eb c0bf
00000140: b629 2d3f 5839 f93e 2c6f acbf ad0e dcbf
00000150: 4a02 d2bf
0.49856123 -1.1388599 -0.7495502 -1.895569 -0.8754653 0.7071328 -1.0875967 -0.5075834
0.8598967 0.46086916 -1.728028 -1.5830501 -0.9664062 -1.7568569 -1.823541 -0.8191387
-1.0428854 -1.2768146 -1.7500358 0.93040365 -1.4054272 0.5822913 -0.96333236 -1.6159499
-1.2949971 0.6241624 1.1570585 0.48562807 0.23514912 -1.3578902 1.7457361 -1.1840341
-1.7831117 -1.6645439 0.47875565 -1.24593 0.7062263 -1.5751684 -1.3768423 -0.06452411
-1.4943689 0.33262986 0.40108234 -0.9091889 0.8488315 -1.1105602 0.42815658 -1.2480226
-1.6156265 -1.599446 -1.6827848 -1.2442048 -1.5249898 0.7090312 0.37930846 -0.85075974
-1.8413985 0.72536045 -1.4450399 -1.2523259 1.3427956 1.1500106 -1.4050113 0.50212216
-1.6117692 -1.5498177 -1.1011215 -0.7277361 0.8717075 0.7124545 0.29675898 0.7108671
0.9577294 0.73727244 -1.6028463 -1.7046883 -1.8160882 -1.9610298 1.2915541 -1.5071911
0.6764177 0.48676562 -1.3471427 -1.7191979 -1.6406949

l6.weight f4 [3, 85]
00000000: 7fee 7bbe cc59 2cbf 0c43 38bf 6f61 62be
00000010: 0680 41bf 498e 49bf 567a 30be 3ac2 56bf
00000020: 5b3b 12bf 2c9c 0f3f 448f d0be 196f f03d
00000030: eac5 913e 1a8d 13be f67c 9abe c43d 9e3d
00000040: 37d3 52be 3535 29bf 8a06 0dbf 2365 ec3e
00000050: 57b0 17bf fd2f 893e d0d6 47bf f629 b0bd
00000060: 2891 3abf 4703 18bf a7a9 0b40 32c7 613e
00000070: df86 f33d bcfb 923e 4d7c 90bf 0eed 803d
00000080: afaf 05be daaf a4bd b362 debc bc2f 2bbe
00000090: 019f 79bf b72c c2bd a7d2 063d afb6 75bf
000000a0: fa4e f6be 0bce 55be 334b 5ebd 78a1 44bf
000000b0: e41a 7abf 7a94 3cbf 4a7d dc3e 91b5 e5be
000000c0: 9391 183e 73a8 0e3d 95dd e2be 5edd 0dbf
000000d0: 6692 7e3d 99ff 57bf 7695 70bd d6cf 45bf
000000e0: a4bc edbe 550a a6bf 0aed 32bf 6db9 913e
000000f0: 5731 3d3d df65 253f 63fd 18bf 5346 b93f
00000100: 638a cebd c9c7 2c3d f043 eabd eac6 2ebf
00000110: f1a2 e23d e6fe 6c3f 8d18 a5bd 86eb 89bf
00000120: 868f 3e3f e399 2f3e 5de5 cebe ddcb d3be
00000130: a241 46be 088b 65be 7805 223f 4fa0 2dbc
00000140: b31d 61bf 3902 4fbc abd9 c4be f8a0 95be
00000150: 168e 903d 7e95 f8be aff8 82be c673 2abe
00000160: 658e 04bf a98c 583e 4027 713e 303d 363e
00000170: 536b 923e 4b37 9e3f a79d 9dbf e169 13bf
00000180: a1a9 adbe 2d8f 72be 1897 95be 88d0 bfbe
00000190: 50fe 123e bcbb 4b3e 9d2d 77be 1cb3 8dbe
000001a0: 969a c93f 0aae 02be 961e 34bf 72b2 78be
000001b0: 95a3 d8be 37f5 aabe e598 fb3c 1635 51bf
000001c0: 85b5 9cbf 7dba 96bf 84b4 53bf 35f8 f33f
000001d0: 3d3a fdbc d702 1cbf ab48 d0be 8ad7 46bf
000001e0: 8706 55bf 6bfa 0e3f 60f4 7ebe 01d5 06be
000001f0: b22f d83e b688 2fbe d79f 43bf 3b11 7dbf
00000200: cf58 92bd 4d87 8a3f 2bb3 cbbd 822b 9dbf
00000210: deb8 9f3d b74c 20bf 5b99 a1be 04f6 05bf
00000220: 1481 713d 874c eebe 1256 603e cbd4 59bf
00000230: acad a9be 14c9 e9be 513b 843f c005 4abe
00000240: 70f5 97be 04ff b9bd 20a6 433f 7041 47be
00000250: 1d41 a0bf 94ad 21be dd9a 1bbf 25f9 693d
00000260: f9a5 633e fdc2 983f 9df7 543f 7e6f 35bf
00000270: 67a8 943f 0e92 3c3f 1413 6ebf 4cb0 24bf
00000280: 7b1a 04bf 6575 bebe 6239 1cbf cfe7 513f
00000290: b9cb c8be f2a8 cc3e 781e 5fbf 96bc 04bc
000002a0: d817 10bf 1ddd 1ebf f910 573f b0dc 8a3d
000002b0: b63f d63d 6e62 23bf 89b0 53be c58a 643f
000002c0: 0739 31bf e8af c7bd e220 3ebd b0f3 883f
000002d0: d72c d3be 36fe 29bf 685a 23bf a425 14bf
000002e0: ca94 24bf a207 3bbf f69e 26bf bc8a 22bd
000002f0: e9de 14bf 894b a7bf 8aec a6be 19ef 363f
00000300: def9 233c 17c4 31bf bc53 2dbe 290e 813f
00000310: 84a0 f43e a56b a23f 8c41 9a3f 92f2 efbe
00000320: 5295 2740 2e25 34bf 6458 e5be 37ce 31bf
00000330: 1589 8c3f 7204 92bd 29af 313f 35f5 21bf
00000340: 463e 2ebf 51e3 7a3d 33ff 05bf 9b66 903f
00000350: a170 8a3f 3fca 293d e621 e63e e324 4ebe
00000360: 1dce 943f fc59 0ebf e84f 32bf 62e0 20bf
00000370: 8f60 b1be b06c 15bf 60b7 33bf 3d01 523f
00000380: 3ea3 8c3f ce88 123d c9d8 d2be ad50 803e
00000390: 67d7 b3be 692f 24bf 4f30 a73f 8f6f 0ebf
000003a0: 3f1a acbe 46c7 38be 33dd 30bf 2ec5 09bf
000003b0: faa1 2cbf 44a2 06be 8e8d 34bf 62b0 54bf
000003c0: bd30 743f fd9e 023e 5039 29bf d896 953f
000003d0: b989 1bbe 4b0d 47be 6ce1 24bf fcfe cdbe
000003e0: faae f5be 83f6 2fbf e5b1 4c3f 18f2 863f
000003f0: e208 f4be cb57 bdbe 69da 02bf
-0.24602698 -0.6732452 -0.71977305 -0.2210748 -0.75585973 -0.78732735 -0.17234167 -0.83890116
-0.5712182 0.56097674 -0.40734303 0.1173994 0.2847131 -0.14409295 -0.30173463 0.077266246
-0.20588385 -0.6609681 -0.550881 0.4617091 -0.5925345 0.26794425 -0.7806215 -0.086017534
-0.7287774 -0.5938 2.1822298 0.22048643 0.11890959 0.28707683 -1.1287934 0.062952146
-0.13055299 -0.080413535 -0.027146673 -0.16717428 -0.97508246 -0.09481185 0.032915737 -0.9598188
-0.4810713 -0.2087938 -0.054270934 -0.7680888 -0.9769728 -0.7366406 0.43064338 -0.44865087
0.14899282 0.034828614 -0.4430968 -0.55415905 0.062151335 -0.84374386 -0.058736287 -0.7727026
-0.46432984 -1.2971903 -0.6989294 0.2846178 0.046189632 0.6460857 -0.5976164 1.4474586
-0.10084989 0.042182717 -0.11438739 -0.6827227 0.11066235 0.92576444 -0.08061323 -1.0775001
0.7443775 0.17148547 -0.40409365 -0.41366473 -0.19360974 -0.22416317 0.63289595 -0.010597303
-0.8793594 -0.012634807 -0.38447317 -0.29224372 0.07058351 -0.48551553 -0.25580356 -0.16645727
-0.51779777 0.21147408 0.23550129 0.17796779 0.28597507 1.2360624 -1.2313737 -0.57583433
-0.3391848 -0.2368743 -0.29216838 -0.37463784 0.14354825 0.19895834 -0.24138494 -0.27675712
1.5750301 -0.12761703 -0.7035917 -0.24286821 -0.42312303 -0.3339021 0.030712554 -0.8172163
-1.2242895 -1.1775662 -0.8269732 1.9060122 -0.03091156 -0.60941833 -0.4068044 -0.77672637
-0.83213085 0.5585086 -0.24897909 -0.13167192 0.4222389 -0.17141995 -0.7641577 -0.98854417
-0.07145845 1.082254 -0.09946283 -1.2278903 0.077989325 -0.6261706 -0.31562313 -0.52328515
0.05896099 -0.4654276 0.21907833 -0.8509032 -0.33140314 -0.45661223 1.0330602 -0.19728756
-0.2967944 -0.090818435 0.7642536 -0.19458556 -1.2519871 -0.15788871 -0.6078318 0.05712237
0.22231282 1.1934506 0.8319033 -0.7087325 1.1613892 0.7366036 -0.9299786 -0.6433151
-0.51602906 -0.3719894 -0.6102506 0.81994337 -0.39217928 0.39972645 -0.87155867 -0.008101603
-0.5628638 -0.6205614 0.84010273 0.06780374 0.10461371 -0.63822067 -0.20672812 0.89274246
-0.6922764 -0.09750348 -0.04641808 1.0699368 -0.41245148 -0.6640352 -0.63809824 -0.57869935
-0.64289534 -0.7305852 -0.65086305 -0.03968309 -0.58152634 -1.3069927 -0.3260234 0.71458584
0.010008303 -0.69439834 -0.16926473 1.0082446 0.47778714 1.26891 1.2051253 -0.46864754
2.6184888 -0.7036923 -0.44794 -0.69455284 1.0979334 -0.07129754 0.694079 -0.6326478
-0.6806377 0.061251942 -0.5234253 1.1281313 1.0815622 0.041452643 0.44947737 -0.20131259
1.1625401 -0.55606055 -0.6965318 -0.6284238 -0.3464398 -0.5836897 -0.70201683 0.8203314
1.0987318 0.035775 -0.4118102 0.2506155 -0.35125276 -0.6413484 1.3061618 -0.55638975
-0.33613774 -0.18044767 -0.69087523 -0.538165 -0.67434657 -0.13147837 -0.70528495 -0.8308164
0.9538687 0.12755962 -0.66103077 1.1686659 -0.15189256 -0.19438665 -0.64406466 -0.402336
-0.4798506 -0.6873552 0.79958946 1.0542631 -0.47663027 -0.36981043 -0.5111452

l6.bias f4 [3]
00000000: 2345 163f 162a b73f 3aeb 8b3f
0.58699244 1.4309719 1.093116
