models/Others/model_PGNN_100_1e-3_1.pt (torch, 127233 bytes, 12 tensors)

l1.weight f4 [189, 9]
00000000: 92f1 f5bb 6997 e8bd 5e21 483f 392a b63e
00000010: af1a 41c0 c699 f93e dc45 5fbf 4fd9 09bf
00000020: e5c0 01be 2f26 1bbb 9d2a c03f f07b 9cbf
00000030: 465c d0be 54d5 40bf 7503 fabf da99 b1bd
00000040: b879 23be 5541 45bf cd62 88bf 66b7 6d3e
00000050: cbab 8f3f 8aa5 00bc 073e 1e3e 5cdf 753e
00000060: ef3f fe3e b147 a8be 9a3a 1bbe 3bc8 ec3b
00000070: 60ad 14be 8b88 0c40 f3a6 77bf 0feb 3abf
00000080: ef9f 953d d1f1 18bf b5be 0cbf 7ed0 00bf
00000090: 62cc ee39 bdd9 ce3e cd51 98bf c93f 0ebd
000000a0: 5123 f93e db01 a4bf 7b38 21be d5fd 85bf
000000b0: 55c2 4bbf b457 7cbb 97e5 073f ad24 b13e
000000c0: 6b28 a1bd c876 c6be 7679 403f 212d d2bf
000000d0: 1488 dabf 9b76 5abf 79d3 1bbb a24c 80bf
000000e0: 2fce e7be 4881 8cbe 76c0 f0bf c294 c73f
000000f0: c3d1 863c 4cf4 35bf 8c37 873f 10d0 0abc
00000100: c7c5 7bbf 7748 69bf 7244 98bc ad9b 313f
00000110: d579 fabf 9746 a2be dad7 3fbe 163d 9a3e
00000120: a44b 9a39 a11f 83bf 0c6d 7bbf a215 d0be
00000130: feaa 4abf c742 a2bf d626 8e3f bc2d 153f
00000140: 10f0 1ebf 37ae 503a f49c 85bf 558a d03f
00000150: e49a 67bf 073a 903f 6e94 c43d 8616 633d
00000160: 4be9 3a3e a07b 72bf 069f 473d 59fc 0cbf
00000170: eb56 863f 529d bc3f 414d b2bd 2c51 e0be
00000180: 31db 323f 2ecb 7abf 3fe2 27bf 7797 b7ba
00000190: 186e 153f 5edf b2bf 7a56 46be 187d 1abe
000001a0: b01b d4be 38f4 98bd a554 973f 82aa a73e
000001b0: 4355 60bc 1b9e 6b3f e3b8 d8bf 6226 ce3d
000001c0: c02c d93e d46e c13c 4c65 cdbf d6ed e0be
000001d0: 3f63 bebf 6874 8e3a d58c 3b3d 0664 63bf
000001e0: 194d 153c 1924 153f d2b6 e1bf 2211 693d
000001f0: 4a7a 93bf 884c cb3e 6859 c33c 9c35 33bf
00000200: fd49 bcbe 173a ccbf 326b 80be 61cc 17c0
00000210: 8c0f a83f 36d0 0dbf 7a43 313f c1ae a9bb
00000220: 84e4 90be adb8 92bf b3bf 7b3e e4b5 37bf
00000230: adaf 17be 059a 8cbf 50e8 2a3e f1e3 95bf
00000240: 56b0 96bb 68a6 13bf db49 d2bf d97b ccbe
00000250: 8157 0840 9ff0 06be 7558 3abf 03c6 d4be
00000260: d6d9 903f 701e 523a 6718 3dbe d66d 51bf
00000270: af07 aa3c 0680 46bf bcc0 90bf 3f01 0abf
00000280: d9e7 50bf 795f 023f 503d 2dbb 58ed c73e
00000290: e58b 78bf e034 20be 8de6 fabf ad03 85be
000002a0: 9b93 b2be 6f85 773f c72b 413f 1523 54bb
000002b0: dc1c 2f3f a666 323e 0453 e0be 9421 1fbd
000002c0: 9947 fe3f 7b67 b93e ed06 12c0 999d 0abf
000002d0: 3a45 52bc 6ecf 063f aab8 3b3f 95a3 8d3f
000002e0: b157 5bc0 ceaf 5cbf 2596 9b3e 8620 74be
000002f0: e94b a9be c9b2 0a3c 5b02 cfbf c15b 91bf
00000300: 91c2 1b3f 7bb9 20be c991 c63f 3b39 723f
00000310: 3302 f63e a70c 93be 73ea dc3c 3ee8 de3f
00000320: 07e2 5e3f b407 16bd 8349 32bf d13f be3e
00000330: 1606 0fc0 1e5d b8bf 2c3c 35bf 741a ec3c
00000340: fc73 62bf f822 b0be 1bcb 0640 3c1e 8a3e
00000350: 0d98 f13d 9463 413f 431a 9abf b274 883f
00000360: cc97 46bb 50a6 9dbc bc87 cc3e 67ef 893d
00000370: e3f7 3fc0 a6c4 0dbf e581 18bf edcc b93e
00000380: 6494 9cbf 3dac bdb9 3211 be3f b732 c5bf
00000390: 2501 523d 8f8b cfbf c114 2cbf 8dbd 8f3a
000003a0: 6d20 613f 4dc6 ccbd e470 90bd c62a abbf
000003b0: d1fc acbf 569c 05c0 acc3 893f 7ed8 ae3f
000003c0: 0a85 51bd 82b5 94be d4bb 623f 4334 e2ba
000003d0: 2a1e 17bf 3317 7b3f a2cb 37be 5edc cabe
000003e0: c5cc d4be 9ffd 4dbe 1b32 09bf 06c5 98bf
000003f0: d809 4d3b 90b6 eebd 0330 52bf d5e3 f2be
-0.007505604 -0.11357004 0.78175914 0.35579088 -3.0172536 0.48750132 -0.8721597 -0.5384721
-0.1267124 -0.0023673882 1.5013005 -1.2225323 -0.406954 -0.7532551 -1.9532305 -0.08671923
-0.15964401 -0.77052814 -1.0655152 0.23214492 1.1224302 -0.007851968 0.15453349 0.24010986
0.49658152 -0.32867196 -0.15159073 0.007226018 -0.14519262 2.195834 -0.9673912 -0.7301492
0.073058955 -0.5974398 -0.54978496 -0.50318134 0.00045547175 0.40400496 -1.1899964 -0.0347288
0.48659757 -1.2813066 -0.15744202 -1.0468088 -0.795934 -0.0038504424 0.530847 0.34598294
-0.07869037 -0.38762498 0.75185335 -1.6420022 -1.7072778 -0.8533723 -0.002377717 -1.0023386
-0.45274493 -0.27442384 -1.8808734 1.5592272 0.016457444 -0.7107589 1.0563827 -0.0084724575
-0.9834866 -0.911262 -0.018587325 0.6937817 -1.956843 -0.3169448 -0.18734685 0.3012473
0.00029429526 -1.0244027 -0.9821327 -0.40641505 -0.79167163 -1.2676629 1.1105602 0.5827291
-0.62085056 0.00079605303 -1.0438523 1.6292216 -0.9047072 1.1267709 0.09598623 0.055441402
0.18253057 -0.94719887 0.04873564 -0.5507255 1.0495275 1.473551 -0.08706141 -0.4381193
0.6986571 -0.9796628 -0.655796 -0.0014006932 0.58371115 -1.3974416 -0.19368926 -0.15086782
-0.41427374 -0.07468456 1.1822706 0.32747275 -0.013692203 0.92038125 -1.6931423 0.10065915
0.42416954 0.023612417 -1.6046538 -0.43931454 -1.4874038 0.0010868432 0.045788605 -0.888245
0.00911262 0.58258206 -1.7633917 0.056901105 -1.1521695 0.39706826 0.023846343 -0.70003676
-0.367752 -1.5955228 -0.25081784 -2.3718493 1.3129745 -0.5539583 0.69243586 -0.005178303
-0.28299344 -1.1462609 0.24584846 -0.7176192 -0.14813109 -1.0984503 0.16690183 -1.1710187
-0.0045986576 -0.5767579 -1.6428789 -0.39938238 2.1303408 -0.13177727 -0.72791225 -0.4155732
1.1316478 0.00080154 -0.1846634 -0.8180822 0.020755617 -0.775391 -1.1308818 -0.5390815
-0.8160377 0.5092693 -0.002643425 0.39048266 -0.9708846 -0.1564517 -1.9601609 -0.25979367
-0.3487824 0.9668798 0.75457424 -0.0032369543 0.6840341 0.1742197 -0.43813336 -0.038850382
1.98656 0.36211762 -2.2816727 -0.54146725 -0.012833888 0.5266026 0.7332865 1.1065546
-3.4272273 -0.86205757 0.3038799 -0.23840532 -0.33065727 0.008465477 -1.6172594 -1.1356126
0.6084376 -0.15695755 1.551324 0.94618577 0.48048553 -0.2872059 0.026967263 1.7414625
0.8706364 -0.03662844 -0.6964342 0.37158063 -2.2347465 -1.4403417 -0.7079494 0.028821208
-0.8845823 -0.3440168 2.1061466 0.26976192 0.117965795 0.7554257 -1.2039264 1.0660613
-0.003030288 -0.019244343 0.39947307 0.067351155 -2.9995048 -0.55378187 -0.59573203 0.36289158
-1.2232785 -0.00036177217 1.4848998 -1.5406102 0.051270623 -1.6214465 -0.6721917 0.0010966525
0.879401 -0.0999876 -0.07052782 -1.3372428 -1.3514653 -2.087667 1.0762839 1.3659818
-0.051152267 -0.2904473 0.8856785 -0.0017258007 -0.590304 0.98082274 -0.17948774 -0.39621252
-0.41562477 -0.2011628 -0.5359208 -1.1935127 0.0031286385 -0.11655915 -0.8210451 -0.47439447

l1.bias f4 [189]
00000000: 17af 84bf 3213 4b3f 00d1 cebe b79e a0bd
00000010: fbb3 353f f437 ce3e c118 463f 7dcb 243f
00000020: 15ad a53e 5937 0dbf f4a3 80bf 4a05 0b3f
00000030: c018 233e d076 fc3e efd7 2b3f c965 813e
00000040: 9c65 fbbe 413d 263f 44fe b93e 36aa cb3e
00000050: a5b2 7ebe b005 6abe df5d 13be f8cc 95bf
00000060: a960 973e c3db 163f a2a1 1cbd 0ec2 edbe
00000070: ede0 603e e33d 9cbe cf40 5b3e 4ee6 383e
00000080: 6c7c 423f ab05 603e afcb 89bc 43fa 9bbc
00000090: a0bf 793e cff3 49bf 21dd 8cbf 0441 12bf
000000a0: 7af9 853f 7853 ed3e 96fc 12bf 79d8 4a3d
000000b0: 0b54 223f e19d 753e 24ff c93e 687c 063e
000000c0: 9c7a dfbb 2a05 73bf 726c ce3d 4a64 323e
000000d0: ed25 b6be 9236 59bf ca03 a0bf d98b 9e3e
000000e0: d744 7b3e 3199 473e f6fd 4d3d c0b7 323f
000000f0: faea 58bf 47ca 0b3f 69c6 40be d628 32bf
00000100: 0716 36be 14bb 813d 17a8 23bf f801 353d
00000110: a0b1 e3be cc51 493e faed 54bf 4ed1 7bbe
00000120: 0fcd 95be 43ff 083f 1c04 33be 1fdb d0bd
00000130: beb2 8c3e 5f9a 0f3f b991 a4bd 313a e0be
00000140: 3d92 903d aba7 2cbf 945e d7bd 224b ee3e
00000150: 987c c03e 4828 183f 153f 6a3f af3e 2b3e
00000160: 4603 18bc 0349 33be d365 b03e 1d33 54bf
00000170: dc92 9bbd ae34 76bf 27d5 d33e be01 17bf
00000180: e944 a2be 0b55 143f d8c4 93bf 2a88 8b3d
00000190: ff09 27be 2d63 cb3e 4950 a53e 1e1e 71be
000001a0: 57e4 07bf 7d86 ddbe 170c fdbd e9ce b43e
000001b0: 5580 9f3e 6002 9a3e 5713 92be f91f cf3e
000001c0: 5903 1bbf d78e 80be d809 513e 9640 2e3e
000001d0: 2129 083f 13b6 f03e ed8f cc3e ee7f 58bf
000001e0: 7061 9d3c 7df4 23bf 44e4 81be b380 a83d
000001f0: c598 213f 2925 e73e 98d5 e53e d46f 823d
00000200: b117 813e 19a0 833e 43eb 7dbe 3db8 133d
00000210: 8aee 083e 6ce7 423e b10f 4e3e eb55 1fbd
00000220: dbb7 f5bd 4f5b 1cbf c858 24bf 39fc b4be
00000230: 537b ea3e 4ebd a2bd 6acb bbbe 6f68 7b3e
00000240: a6e9 fb3e 4aa8 37bd a3d5 2f3e 43a2 5fbf
00000250: 2d3e 1e3e c627 7fbf 075f 073f fc7c 553f
00000260: 623e 06be e6db d13e 1924 bf3e adc6 c2be
00000270: 6e34 d13e ce39 d5bd ecfd 11bf 14ff 38be
00000280: 6c96 4f3f e771 75bd cbcf fabd be5d 52bf
00000290: 1acc e8be f709 1b3f ca8b 163f 4b99 a73e
000002a0: 1e06 373f 46fa 78bf b95f 183e 28f2 083f
000002b0: f81d 88be 41c1 f23d 95c3 293e 69e7 12bf
000002c0: 4eb9 173d d9b2 4fbf 4c38 ad3e f5ad c63e
000002d0: 5f3a 2d3d 3e4b 04bf 3902 15bf 288a f13d
000002e0: ba6b c83e 5ea1 2c3f 0aa6 5ebf f5a3 2fbf
000002f0: e334 fb3b
-1.0365933 0.79326165 -0.4039383 -0.078427725 0.70977753 0.40277064 0.7738152 0.64373
0.32358614 -0.5516258 -1.0050035 0.54304945 0.1592741 0.49309397 0.67126364 0.25272968
-0.4910096 0.64937216 0.36326802 0.39778298 -0.24872835 -0.22853732 -0.14391278 -1.1703176
0.29565933 0.5892908 -0.038240083 -0.46437114 0.21960802 -0.30515966 0.21411441 0.18056604
0.759711 0.21877162 -0.016820757 -0.019040233 0.24389505 -0.7888765 -1.1004983 -0.57130456
1.0466759 0.46352744 -0.57416666 0.04952285 0.6340949 0.23986007 0.3945247 0.13133395
-0.006820036 -0.94929755 0.10079278 0.1742107 -0.3557581 -0.8484889 -1.2501156 0.3096607
0.24537979 0.19492032 0.050291024 0.6981163 -0.84733546 0.54605526 -0.18825687 -0.6959356
-0.1778184 0.063345104 -0.6392836 0.04419133 -0.44471455 0.1966011 -0.83175623 -0.24591562
-0.2925801 0.535145 -0.17482036 -0.10198044 0.2748012 0.56094927 -0.08035607 -0.43794397
0.07059143 -0.6744334 -0.10516086 0.46541697 0.37595057 0.59436464 0.91502506 0.1672313
-0.009278124 -0.1750832 0.34452686 -0.8289049 -0.075963706 -0.9617413 0.4137356 -0.58987033
-0.316932 0.57942265 -1.1544447 0.068130806 -0.16312407 0.39724103 0.32287815 -0.23546645
-0.53082794 -0.4326667 -0.123558216 0.3531411 0.31152597 0.30079937 -0.2853038 0.4045408
-0.60551983 -0.25108978 0.20413911 0.17016825 0.5318776 0.47013912 0.39953557 -0.84570205
0.0192115 -0.64044935 -0.25369465 0.082276724 0.6312373 0.45145538 0.44889522 0.06368986
0.25213388 0.25708082 -0.24796776 0.036064375 0.13372245 0.19033593 0.20123173 -0.038900297
-0.11997958 -0.61076826 -0.6419797 -0.3534868 0.45797214 -0.07946263 -0.3667863 0.24551557
0.49201697 -0.044838227 0.1717134 -0.87356967 0.15453406 -0.99670064 0.52879375 0.83393836
-0.13109735 0.40988082 0.37332228 -0.38042203 0.40860313 -0.10411416 -0.5702808 -0.18066055
0.810889 -0.05992308 -0.122466646 -0.8217429 -0.45468217 0.6056208 0.5880705 0.3273414
0.7149371 -0.97256887 0.14880265 0.534945 -0.26585364 0.118532665 0.16578515 -0.57384354
0.037041955 -0.81132275 0.33832014 0.38804594 0.042291995 -0.5167731 -0.58206517 0.11793929
0.3914469 0.67433727 -0.86972106 -0.68609554 0.0076662167

l2.weight f4 [119, 189]
00000000: c737 9b3d 9e77 dbbd 165c c1bc 5ad1 88be
00000010: 7132 82be 3fb4 32bf a6a2 36bf a513 c2be
00000020: 445c 5dbe 6448 32be 1ec5 26bd ea09 a13e
00000030: b65b 863d fb01 c1be 5a85 4ebd 9b9c 09be
00000040: a702 23bd fc7c ccbe 0c0d 1bbd 876e b0be
00000050: 5981 263e 0518 79be 410c 91be e991 14bc
00000060: 61ca 4abe a569 373e 8fe4 873d 71eb 81be
00000070: 2c54 1e3a e6f3 52be 4bfd 0dbe add2 0bbf
00000080: 3132 e3be aacd 0fbf 05ac 66be e44e d0bd
00000090: 245d cebe b0ea e73d 5b0b 62be 5557 e0be
000000a0: ab4e 2bbf 0b0a 64bd a82b 61be da2d 3b3e
000000b0: 2481 7ebd 251e 463e d129 cb3d 666b 523e
000000c0: 6b15 1fbe 8860 7e3e 6e8f b4bb f7ae a13e
000000d0: ca56 b3bd b7e4 adbe ade7 74be 5b2f d03d
000000e0: 1177 90be d588 023e d551 d0be c99a bebe
000000f0: cf3e 3abe 8652 e5be f073 ddbe e087 d63c
00000100: f6d6 f63e 24ab 95be 4c18 6abe 8bb2 443e
00000110: a5d2 01be 0836 6f3e 0c6e b3bd 337c 96bd
00000120: 413c 9b3d 883e 9bbd 5ec2 b6be 615c 7b3d
00000130: beae 00bf 8cdd 383b 7fd9 97be 539d e83c
00000140: 1594 543d 7ffd f0be 5716 1c3e 8c7e 9abd
00000150: 46f6 0ebf 3843 33bd 6556 16bf 5dfc 973c
00000160: 940a bfbd 238e ce3c 7e58 bcbd cf28 033d
00000170: 515d 8a3e f5e1 51be 4a67 c2be c14b a03c
00000180: 2d1d 633d e8d4 1bbe 516f 28bc 7e75 cfbd
00000190: 38a8 99be ca13 2cbf 46a8 e6bd e83a 2fbf
000001a0: 8abe e2bb 75a9 bb3e e512 b0bd 2e56 47bc
000001b0: c0ff a3be a1ed c5be d478 143e b637 d1be
000001c0: 1b97 823e 92d4 e6bc cf7e 0bbe 4902 61be
000001d0: be23 05bf c7be 26bf 4de8 a9be 8746 4ebd
000001e0: fbe7 1dbd e0fa b23d 4ed6 62be 5596 e0bb
000001f0: 7822 373e 7e2b 09bf 313d 01be 5b68 243e
00000200: 966b f3bd de61 86be 8538 e23d 5c97 24bf
00000210: 26ee 0b3d 4556 e73d 10f4 50bc c200 d43d
00000220: 442a c63d 9ce9 55be 5183 3ebe bc16 e6be
00000230: ffa5 e63e b0c0 523c 78ce fcbc 9075 1f3e
00000240: ed96 1cbf 0bbd 233d cf46 bebd aa27 93bc
00000250: 4537 b5be 00e9 b1be 72d8 a03d 8c65 20be
00000260: df5c 9f3e 6e2f 02bf 3e3e c4be 3934 e93d
00000270: b78e 23bf 5787 a0bd d788 f6bd 0076 a9be
00000280: 49ff 57bf 7910 a73e 3f3e 6c3e c0cd 073e
00000290: 2a3c 82be 0a5e 85be 93ec a7be 3d5a 4dbd
000002a0: 3f03 ecbe b8d7 163d 4be1 0e3e bb49 123e
000002b0: f5dd 35be 50f8 eb3d ef0c 08be 2f3e aebe
000002c0: 3746 813d c212 2bbe 45ee e5bb 9475 07bf
000002d0: c834 e13d c257 aabe a35d 92bd fe3a c5be
000002e0: 846d bcbd 242f abbe 518f 623c 719e edbc
000002f0: 27a1 493e 446f 09be 1a45 d0be c298 19bd
00000300: ea86 2abf 505c c1be 3c53 0fbf 6a16 f9be
00000310: 3aa1 afbe ed8d 4abe 7222 043e a4cb d2bb
00000320: fa6b 603e c47a 27be dd4e 03bf 4e19 5dbe
00000330: 28ef 90be a6e2 b7bd e792 2fbf 3c72 f5bd
00000340: 3c19 e8bc 1c3b f5bd ee69 5d3e 5cab 8b3e
00000350: b018 bc3c 16f4 b7be a53e 99bd aa46 37bd
00000360: 2099 3bbe 1977 ab3d d6f4 8ebd 6073 77be
00000370: 6a2e 94be aeb3 18bf c0aa f3be 76d6 a8be
00000380: 0d0f dbbd b8c5 a5be 3c76 6cbc 39db eebd
00000390: e8a5 803b 5e12 2fbf e1b1 9abe 64fc 20be
000003a0: bbab 2fbe 158a aebe 37fe e0bd 6c69 033d
000003b0: 6e47 58be 9c9d b23d 569b eebe eb36 b1be
000003c0: 19f5 633e 063c 4c3d 6e46 acbe ecc2 273e
000003d0: 6325 c03d f975 c0be 0604 4fbc 6f0b 59be
000003e0: 3524 bebe 90ba 103e 54e0 d1be 7714 dc3e
000003f0: 72c5 cb3e a1e2 d03e 1ce2 1fbf 9e5e 5abe
0.07578998 -0.107161745 -0.02360348 -0.26722223 -0.2542911 -0.69806284 -0.7134193 -0.37905613
-0.21617228 -0.17410427 -0.04071533 0.31452876 0.06560461 -0.37696823 -0.050420143 -0.13438646
-0.03979745 -0.39939106 -0.03785424 -0.34459326 0.1626028 -0.24325569 -0.2832966 -0.009067991
-0.19803764 0.17911394 0.06635391 -0.2537494 0.0006039764 -0.20600852 -0.13866155 -0.5461834
-0.4437423 -0.56173193 -0.22526558 -0.10171297 -0.40305436 0.1132406 -0.22074644 -0.4381663
-0.6691691 -0.05567364 -0.2198931 0.1827921 -0.062134877 0.19347437 0.09920085 0.20548782
-0.15535514 0.24841511 -0.005510262 0.315788 -0.08756788 -0.33963558 -0.23916502 0.10165282
-0.2821584 0.1274751 -0.40687433 -0.37227467 -0.18188022 -0.44789523 -0.43252516 0.026187837
0.48210877 -0.29232132 -0.22860831 0.19208734 -0.12678011 0.23360455 -0.08761224 -0.07347908
0.07579852 -0.07580286 -0.35695165 0.061367396 -0.50266635 0.0028208224 -0.29658124 0.02839533
0.051899035 -0.47068402 0.15242897 -0.07543668 -0.55844533 -0.043765277 -0.5872558 0.018552953
-0.093281895 0.02521426 -0.09196566 0.03202134 0.2702432 -0.20496352 -0.37969428 0.019567372
0.055447746 -0.15217936 -0.010280446 -0.10129832 -0.30011153 -0.67217696 -0.11262564 -0.6844926
-0.0069196867 0.36652723 -0.08597354 -0.012166543 -0.3203106 -0.3865786 0.14499217 -0.40862817
0.2550591 -0.028177533 -0.13622592 -0.21973528 -0.52007663 -0.65134853 -0.33185044 -0.05036023
-0.038551312 0.08739257 -0.22152063 -0.0068538585 0.17884243 -0.5358199 -0.12620999 0.16055433
-0.11885755 -0.26246542 0.110459365 -0.64293456 0.034162663 0.112957515 -0.012753502 0.10351707
0.0967603 -0.20889896 -0.1860478 -0.4493922 0.4504852 0.012863323 -0.03086017 0.1557219
-0.61167794 0.039975207 -0.092908494 -0.01796325 -0.3539373 -0.34748077 0.07853784 -0.15663737
0.31125543 -0.5085362 -0.38328737 0.11386914 -0.6388964 -0.07838314 -0.12037819 -0.3309784
-0.8437391 0.32629755 0.2307062 0.13262081 -0.25436527 -0.2604831 -0.3279768 -0.050134886
-0.46096227 0.03682682 0.1395313 0.14285938 -0.17760451 0.11521971 -0.13286184 -0.34031817
0.063122205 -0.16706374 -0.0070169293 -0.52913785 0.10996395 -0.3327008 -0.07146766 -0.3852157
-0.09200576 -0.33434403 0.013828115 -0.029006215 0.19690381 -0.1342135 -0.4067772 -0.037499197
-0.6661211 -0.3776574 -0.5598638 -0.48649913 -0.34302694 -0.19780703 0.12903765 -0.0064329673
0.2191619 -0.16355425 -0.5129221 -0.21591684 -0.28307462 -0.08978777 -0.6858353 -0.11984679
-0.028332345 -0.11974165 0.2162244 0.27279174 0.02296099 -0.3592841 -0.074826516 -0.044745125
-0.18320131 0.083723255 -0.069802925 -0.24165106 -0.2894166 -0.5964917 -0.4759121 -0.3297612
-0.1069623 -0.3237741 -0.014432486 -0.11662907 0.0039260276 -0.683874 -0.30213836 -0.1572128
-0.17155354 -0.34089723 -0.10985988 0.03208296 -0.21120998 0.08721468 -0.46602887 -0.34612212
0.22261466 0.04986193 -0.33647484 0.1638295 0.09382131 -0.37590006 -0.012635237 -0.21195768
-0.37137 0.14133668 -0.4099146 0.42984363 0.39799076 0.40797904 -0.6245439 -0.21325156

l2.bias f4 [119]
00000000: d479 b5be e305 2fbe 356c 6fbe cb61 2d3e
00000010: aeff 48be cf7c 943d c68d a9bd 86ea 583d
00000020: efb8 f83d f521 fe3d d9a1 f7bd 0554 2b3e
00000030: 4db8 003e 770f eb3e 7343 4a3e 0c32 b1bd
00000040: de17 f83d 96ad 563e 963a 77bd 728f 04bc
00000050: bb4c 7ebd f456 a83e 3109 dbbe 6103 233e
00000060: d371 103e 2660 873e e6b2 933e cbd4 043e
00000070: e974 38be 3c5a ff3e 43f9 7c3e fcff b53c
00000080: 73d4 9ebe 4665 c3bd 3b96 053e 8522 a73e
00000090: 303c ca3e c8ff 22be 3e5d 1d3e 3c35 8b3e
000000a0: a06e 81be 624f 6e3e f225 04be 6059 f3bc
000000b0: 4291 92be 4ab3 1dbe 8c7c 9a3d 36f4 25be
000000c0: 520a 263f 744f c03e 2c33 d73d 8f44 c1ba
000000d0: f89d 223e 8a83 bd3e d721 75be 97aa 82bd
000000e0: 91d1 7dbe 0e4c 0a3e a09e 883c 13d9 383d
000000f0: 1893 b13e 9552 e73e a197 8cbe 6ad9 0d3d
00000100: 07fd b7bd 6df7 1e3e df03 373e 5a4b 183d
00000110: cec3 373d b67a 833e ae95 9dbd d8f5 21be
00000120: 83ee ab3e 2520 993e 3cb3 aa3e 1f67 f7bd
00000130: 6431 8dbe a44d 5f3d d5a8 83bc 3a20 febc
00000140: d460 933d 17da 87bd f2fb d03d 2f07 4f3e
00000150: ee4b 9d3e a4db 323e e45c 313e 729a 263e
00000160: cd90 67be 4812 983e dc70 00be c423 6ebd
00000170: 6860 443e d961 b6bc 9724 58be 5e0f 8abe
00000180: 8b85 da3e 8aee 803e 1fd2 7f3e d63a 333e
00000190: 50e9 5c3e a0ed 06be ef1e c03d 2e2b 4f3d
000001a0: 4f62 abbd 4a5b 3b3e 7589 b7bb 313c 713e
000001b0: 5247 d93e f098 c73d 83ae f5bc 1b8c 753e
000001c0: f8d1 b8bc 8cd9 87bc 6c36 c23d b593 9e3d
000001d0: 7d58 e13d c090 a93d 1705 a03d
-0.3544451 -0.1709209 -0.23381121 0.16931836 -0.19628784 0.07250368 -0.08278994 0.052958034
0.12144648 0.124088205 -0.12091417 0.1673127 0.12570305 0.45910236 0.19752292 -0.08652124
0.12113927 0.20964655 -0.060358606 -0.008090841 -0.062084895 0.3287884 -0.4278045 0.15919258
0.1410592 0.26440543 0.28847426 0.12971799 -0.18013348 0.4987353 0.24704461 0.02221679
-0.3102146 -0.09540801 0.1304559 0.32643524 0.39499044 -0.15917885 0.153676 0.27189052
-0.25279713 0.2327247 -0.129051 -0.029705703 -0.28626448 -0.15400425 0.07543287 -0.1620644
0.648595 0.37560618 0.10507807 -0.0014745163 0.15880573 0.3701442 -0.2393869 -0.06380194
-0.24786974 0.13505575 0.0166772 0.045128893 0.34682536 0.45180193 -0.27459434 0.03463117
-0.08983808 0.15524073 0.1787257 0.037181236 0.04486447 0.2567956 -0.07694565 -0.15816438
0.33580408 0.29907337 0.3333987 -0.12080216 -0.27576745 0.054517403 -0.016071716 -0.031021226
0.07196203 -0.06633394 0.10204305 0.20217584 0.30721992 0.17466599 0.17320591 0.16269854
-0.22613831 0.29701447 -0.12543052 -0.058139578 0.19177401 -0.022263454 -0.21107708 -0.2696485
0.4268001 0.2518199 0.24982499 0.17502913 0.21573377 -0.13176584 0.093809 0.05057829
-0.0836836 0.18296543 -0.005601103 0.23558117 0.42437226 0.097459674 -0.02999044 0.23979227
-0.022561058 -0.016583227 0.094830364 0.07743017 0.11003206 0.08279562 0.07813471

l3.weight f4 [9, 119]
00000000: 12ee 2a3e cbe0 bdbe f961 38bf d61e 0d3f
00000010: 2691 b93e 34c7 ae3c 011c a23e e8e8 943e
00000020: f6a7 a3be 430b a73e 7ac2 93bc c39d 083e
00000030: 981c 8c3e 9ffa a53c f83a a83e 42fc 6dbe
00000040: bf22 b5be 940b 04bf 9860 a63e 49d3 a93e
00000050: 96e1 283e f342 4bbd a0e6 fcbd 5377 8e3e
00000060: 623d 95bd ed8a c33e 6a1f 2ebe 3e87 bdbe
00000070: 234c 3dbe 69da 103e 884f 7f3e 0319 b33e
00000080: bdce 403f 06bf 58be 5606 213f fcc1 993e
00000090: e453 183e a54c 893e 4040 82be 1383 1f3e
000000a0: bf7b 4b3e c362 8b3e b653 1e3e c5bb 9c3e
000000b0: d59f 7c3e 5bef 963e fcf8 0c3e 3cf7 443d
000000c0: 0f71 453e 1a59 7c3d 03ee e7bc 9f3d 9e3e
000000d0: af0a bebe df90 2fbd 970b a73e de13 5cbe
000000e0: 56c8 af3e c490 f03e 5ed8 1f3e 528d 923e
000000f0: 1525 4b3e 6bf6 a13e bce3 30be 29f7 a1be
00000100: 04d4 c13e 126b 9b3e 2d00 abbe a0c3 4dbd
00000110: 9fa7 e13e 91e9 823e b998 e5bd 9810 b23e
00000120: d41e 053e 3df6 913e bf36 5cbf 36a8 c53d
00000130: e7bc e9bc df81 bf3e e342 943e ba6d 26be
00000140: d02c 8c3e ce9d 923e ea4c 4abe 231f 12bf
00000150: 79c6 123d 80aa 903e 50c5 8d3e 6bcb a1be
00000160: 52f1 a53e 49ff ba3c 0ee5 b63e 1dff 833e
00000170: cccf 843e 5051 333e 3b7d 863e 894f 1d3d
00000180: b86b 5fbd d5f6 473e 9322 a03e 93f8 fdbc
00000190: 183a 7abd 0ec9 49be aadf bf3e ea23 babe
000001a0: 5592 503d 783a 4e3e 1f2f 9f3e 5402 66be
000001b0: 3502 103d fa95 8a3e 8572 14bf 7e56 9e3e
000001c0: 6054 9a3e a644 683e aaa8 9b3e 4158 7ebf
000001d0: 33ec 963e 83ff 8a3e 2075 6abe 48d0 923e
000001e0: 98ae 9e3d ae68 a43e 7bdc 46bf 4064 9e3e
000001f0: 6fbd 233e ed38 a83e 081b fcbe 9d3a a13e
00000200: b245 d23d 0a29 ba3d 72e2 61bb c81a 993e
00000210: 5d60 ed3d b864 fc3d 5c93 ccbe 7693 7a3e
00000220: cb56 213e 8d82 a43e 8020 203f f928 633e
00000230: 7392 4ebd def2 0bbd 7ee7 893e 6fa6 a2bd
00000240: 69a2 923e c079 2c3f 364d 0dbe 730c 483f
00000250: 07d8 cd3d 788c a43e f23d 063e 42a5 ab3e
00000260: 39ce 89be 1ca0 50bf 3d7c 2f3e a07d 18bc
00000270: 2042 973e e032 10be 83d2 953e 8837 9c3e
00000280: 1bfa 393e 054c 033e 74ac b13e 0bfc 9c3e
00000290: 7585 b53e 37f9 0a3f 9729 933e 9ec4 233d
000002a0: 4530 ecbd 37df d73d 148a 903e 870c b2be
000002b0: 0689 85bc 8aa0 a13e b247 993e 0b25 b63e
000002c0: faeb 513d 4ef9 933a aa9f d23e 885d 633e
000002d0: ad7a 0b3e 6a31 0dbf 16b2 5cbe 8ffc 06be
000002e0: 8e77 9d3e f506 993c a94d 203d d714 e5bd
000002f0: 3f7e 663e 6d51 17be 3427 a93e 3d7d 713e
00000300: 061c 853e 31a2 5abf 3798 a73a 0dae 6ebc
00000310: e17b 243d 6155 793e dc64 d6be fbe9 2d3e
00000320: 347a 903e c165 d8bd 9b2c 8e3e 921f ae3d
00000330: ff9c 873e 622b 803e 25b3 683e eb11 7e3e
00000340: b01a d8bd ef10 9d3e 35b1 983e 15ba 393e
00000350: 7ece a73e cebd 033e fb6f 75bd 049f 74bc
00000360: aaf1 963e 4861 b83e 86a0 56be 5dc6 0fbe
00000370: 972f d7be f5ae 993e 932d 7e3e 1dcf 30be
00000380: e21c 393e e883 813e c75d d5be 9111 193e
00000390: d8be 7a3e 1aef 77bd dfca a53e 7379 953e
000003a0: ac13 663e cfaf a03e 3a19 f13e 5cd0 bc3e
000003b0: 5c66 593d 7a23 0bbf 011d 6c3e 4bff a33e
000003c0: 3211 843e b03a 0dbe 06b4 a93e 9a0d ac3d
000003d0: 1f6c aa3e a07b 55be 7eae a73d 1ae2 b93d
000003e0: acdd 42bd 7c0d 223e 7344 873e 6f08 e13c
000003f0: 2835 843e 5f23 f83e db48 91bd c261 6c3e
0.16692379 -0.37085566 -0.72024494 0.55125177 0.36243552 0.021335222 0.3166199 0.29083943
-0.31964082 0.3262578 -0.01803707 0.13341431 0.27365565 0.020261107 0.3285749 -0.2324076
-0.35378072 -0.51580167 0.3249557 0.3316901 0.16492304 -0.049624395 -0.12348676 0.27825412
-0.072870985 0.3819193 -0.17004171 -0.37017244 -0.18486075 0.14145817 0.24932683 0.3498002
0.7531546 -0.2116662 0.6290029 0.3003081 0.14875752 0.26816288 -0.25439644 0.15577345
0.19871424 0.27223787 0.1546162 0.30612007 0.24670346 0.2947949 0.13766855 0.048087344
0.1928141 0.06160841 -0.028311735 0.30906388 -0.37117526 -0.04286277 0.3262603 -0.21491954
0.34332532 0.46985447 0.15609881 0.28623444 0.19838364 0.31633314 -0.17274374 -0.3163388
0.37857068 0.30355126 -0.33398572 -0.05023539 0.44073197 0.25568822 -0.1121077 0.34778285
0.13000041 0.28508177 -0.86021036 0.09651224 -0.028532458 0.3740377 0.2895728 -0.16252795
0.2737794 0.2863602 -0.19755903 -0.5707876 0.03583381 0.2825508 0.276896 -0.31600508
0.32410675 0.022826808 0.3572163 0.25780573 0.25939786 0.17511487 0.26267418 0.03840593
-0.054546088 0.19527753 0.31276378 -0.031002318 -0.06109056 -0.19705603 0.3747533 -0.36355525
0.050920803 0.20139492 0.31090638 -0.22461826 0.035158355 0.27067548 -0.5798724 0.30925363
0.30142498 0.22682437 0.30402118 -0.99353415 0.2947708 0.27148065 -0.22896242 0.2867453
0.07748145 0.32111114 -0.77680176 0.3093586 0.15990232 0.3285593 -0.49239373 0.3149003
0.102671996 0.09089859 -0.0034467247 0.29903245 0.115906455 0.12323898 -0.39956176 0.24470314
0.15755765 0.32130852 0.6254959 0.22183599 -0.050432634 -0.034167163 0.26934427 -0.07941901
0.28639534 0.67373276 -0.13798985 0.78143996 0.100509696 0.3213842 0.13109568 0.3352452
-0.26915148 -0.8149431 0.17137237 -0.009307295 0.29542637 -0.14081907 0.2926217 0.30511117
0.18161814 0.12821968 0.34701884 0.30661044 0.35453382 0.5428652 0.28742668 0.03998243
-0.11532644 0.10540622 0.28230345 -0.34775183 -0.01630069 0.31567794 0.29937512 0.35575137
0.051250435 0.0011289509 0.4113744 0.22203648 0.13621016 -0.55153525 -0.2155231 -0.13182281
0.30755275 0.018680075 0.039136562 -0.111856155 0.22509097 -0.14777155 0.33037722 0.23582931
0.25997943 -0.85403734 0.0012786452 -0.014567864 0.040157203 0.24348976 -0.41873825 0.16983788
0.28218234 -0.10566283 0.27768406 0.08502115 0.26486966 0.25033098 0.22724588 0.24811523
-0.10551965 0.30676982 0.29822698 0.18137391 0.3277473 0.12865373 -0.059921246 -0.01493049
0.2948125 0.3601172 -0.20959672 -0.14040513 -0.42028496 0.30016294 0.24822073 -0.17266507
0.18077424 0.2529595 -0.4167311 0.14948107 0.24486864 -0.06053076 0.3238134 0.2919422
0.22468442 0.3138413 0.4708956 0.36877716 0.053076133 -0.5435101 0.23057939 0.3203071
0.2579437 -0.13791919 0.3314516 0.08401032 0.33285615 -0.2084794 0.081875786 0.090763286
-0.047574684 0.15825456 0.2641941 0.027469842 0.25821805 0.48464486 -0.07093974 0.23084167

l3.bias f4 [9]
00000000: 7af8 073f 9cb5 883e 5179 893c 5ce3 7a3e
00000010: b52b ec3e 318b 2e3f 8929 193f 4d25 353f
00000020: c995 903e
0.5311352 0.26701057 0.016781481 0.24500793 0.46127096 0.6818114 0.59829 0.7076004
0.28239277

l4.weight f4 [53, 9]
00000000: ab7c 923e de5d b2bd 79b3 ddbd 15e2 a13f
00000010: 1763 88be f7a3 03bf e4ec 5bbd ad24 f73f
00000020: a77d 01be 2582 0d3d a4e5 ad3e 9df7 a9be
00000030: 5084 f4bd d2d7 d73e e340 8e3e 0560 493e
00000040: 300e 163f 12a9 293f 58f8 85be 29f1 dc3d
00000050: f10a 433e 12a6 9b3e 3119 c3be 0d41 a7bd
00000060: 4489 3abe c399 1440 822c a4bd d7f6 903e
00000070: f211 03be 1353 1abe c947 693e 923d 373e
00000080: 7634 9a3d d1b8 4c3e c0d4 d63f 5466 1ebe
00000090: e00c d6be 92c0 a73e 2aed 1c3e ec5e 8fbe
000000a0: 58c1 223f a738 6d3e ddca ccbd a95e 613f
000000b0: f4ec 8c3f 11ea 673d ae4d 903e 3eb8 a33c
000000c0: 5d40 193e d5e7 88bd 3f19 203e 90bc 803d
000000d0: 55fa 11c0 8e6b 0ac0 b13b 40bd 1fea a6be
000000e0: bf84 e33e 3a24 4e3e 34b5 243f 3fbf c13e
000000f0: cc58 a8bd de72 943f c6de be3e fabd 353b
00000100: 78e5 acbe bab1 bc3e e152 28be 27d6 183f
00000110: 4d2e 0d3f e476 2d3e a25f c23f a369 153d
00000120: b558 933e a55c 6cbe ed66 8b3c a240 6a3f
00000130: 7e8b 3a3d 9d9f 093e 3ccc 7c3d a767 eb3f
00000140: 4213 e7be f006 ba3e 25b7 063e edf5 dcbe
00000150: f895 c23e 61c9 173d 6b29 9b3d 4ef6 023e
00000160: 8160 0e3f a6cd 103f d2f8 c7be 4465 883d
00000170: 7dc5 c23e 514e b73c 37ea 623e 61dd abbc
00000180: 1cb7 15be 166f c93f 8f67 273f 9ce4 b7be
00000190: 80a0 0d3e db94 773e 26fd 8dbe 3321 e63d
000001a0: d3a7 2c3e 55c4 b63d fc44 d63f aa59 553f
000001b0: 4261 9a3e 0234 333d e7a1 7fbe a437 c5bc
000001c0: 7735 0c3c 63b4 92bd e325 3c3f 1d0b 37bf
000001d0: 7e6e e0be 3f82 d33e dbb3 36bd c3c5 a8be
000001e0: ebab d03d 3880 0b3f 66ef 033f 125a c3bd
000001f0: 2187 a63f 34ec 9b3e b967 95be 0075 753e
00000200: 273c c53d c352 bebe 22eb da3e 605e f3bc
00000210: 0432 cdbe 30dd 673f d31a 413f 0efd 01bd
00000220: b6a7 243e 8bbf c2bd f70c afbe 8ffd 483f
00000230: b3e0 583d 72c7 8c3c d18a 48bf 8be5 d13f
00000240: e0a6 dfbe 5e19 4c3e 3c31 863e d1dd 023f
00000250: 2e99 153e 088a 683d 3a27 683e 61e5 113f
00000260: 9859 4e3f f7d6 9a3d 1058 223e 17a4 61be
00000270: 11e4 ab3e 2863 b0be 3974 c53e 8596 123e
00000280: 8fc3 c23f 5890 a8be a683 283e 49c9 ef3d
00000290: 61a1 79be b94f eebd 266c ef3e 53e4 733e
000002a0: 6f3b 35be 9e35 d13f 9610 b03e 59e3 4dbe
000002b0: 0a16 033e 8117 f23d 2568 5d3f 33eb 783f
000002c0: 9c8f 113f f6f2 a53d 5b91 83be 0e74 9c3f
000002d0: 9e93 afbe 1972 153c a609 bd3e 44b8 0cbe
000002e0: 0e21 373f 0cf6 1f3e 3136 1abe a246 043f
000002f0: e0c6 783f 8d76 3ebe 0c99 acbe 5b8f d63e
00000300: deaf 753d 963a 3e3d 42be 4f3d 7c49 353e
00000310: fc11 3c3e 52b9 4e3f 2f18 2f3e f17c 74bd
00000320: 826b 99bd 796f 8f3e 4b0f 953d 5924 48bd
00000330: be28 13bf 58c4 1040 a96d 79be b6bc 5cbe
00000340: 1561 f23e 40e0 62be c577 303d 6b02 023f
00000350: 68af 8fbd b762 463e 5c69 573f 02a6 8d3f
00000360: 4b26 a6bd 680b 25bf 1b95 213f b66d b7be
00000370: 0d08 f3bf 4fdc 0d3e a99e b8bd 7a73 173f
00000380: d648 5ebe 0290 6ebc 27e2 d43e b769 b1be
00000390: 91a4 303e ffc3 ad3d 98d6 c139 1e8f 193d
000003a0: 1010 373a 3bfa 943f b0e9 85be 28ef 6cbc
000003b0: 7061 a73e e2e2 bfbd 350d 973e c736 9bbd
000003c0: 3962 8cbd 315a 8f3f 2044 343f 4ca6 ea3d
000003d0: cff8 96bd 1a0b 1dbd a529 bebe 4d47 033f
000003e0: 652e 263d efd2 e0bd 891f 803f 91fd 643f
000003f0: 862b 51be ae13 7bbe 0b52 083f c143 26bd
0.2861074 -0.0870931 -0.10825247 1.264712 -0.266381 -0.51422065 -0.053692713 1.9308068
-0.12645589 0.034547944 0.33964264 -0.33196726 -0.11939299 0.42156845 0.2778388 0.19665535
0.586154 0.66273606 -0.26166034 0.10788185 0.19047143 0.3040014 -0.38105157 -0.08166704
-0.18216425 2.3218849 -0.08016302 0.28313324 -0.12799814 -0.15070753 0.2278129 0.17894581
0.075295374 0.19992377 1.6783676 -0.15468723 -0.41806698 0.32764107 0.15324846 -0.28002107
0.6357627 0.23166142 -0.099996306 0.88035065 1.1009812 0.056619707 0.28184265 0.019985314
0.14965959 -0.066848435 0.1563463 0.062859654 -2.280904 -2.1628146 -0.046931926 -0.32600495
0.44437215 0.20131007 0.64338994 0.37841222 -0.08220062 1.1597555 0.37279338 0.0027731643
-0.3376882 0.36854345 -0.16437866 0.5970177 0.55148774 0.16939884 1.5185435 0.036477696
0.28778616 -0.23082216 0.017016852 0.9150487 0.045543186 0.13439794 0.06171821 1.8391007
-0.4513188 0.36333418 0.13155802 -0.43156376 0.38005042 0.037057284 0.07576259 0.1278927
0.55616003 0.56563795 -0.39057022 0.0665994 0.38041297 0.022376211 0.22159658 -0.020979585
-0.14620632 1.5737026 0.6539239 -0.35916603 0.13830757 0.24177878 -0.277322 0.11236801
0.16860895 0.08924166 1.6739802 0.8333994 0.30152327 0.04375077 -0.24964105 -0.024074383
0.008557669 -0.07163312 0.7349531 -0.7150133 -0.438343 0.41310307 -0.044605117 -0.3296338
0.10189041 0.5449252 0.5153717 -0.09538664 1.3009988 0.30453646 -0.29180697 0.23970413
0.09630614 -0.37172517 0.42757517 -0.029708087 -0.4007722 0.9057188 0.75431556 -0.031735472
0.16079602 -0.0950919 -0.3418958 0.785119 0.052948665 0.017184947 -0.7833682 1.6398176
-0.43682003 0.19931552 0.26209438 0.51119715 0.14609215 0.05677226 0.22671214 0.5699063
0.8060546 0.075605325 0.15853906 -0.22035252 0.33572438 -0.3445065 0.38565233 0.14315231
1.521593 -0.32922626 0.1645647 0.11708314 -0.24377967 -0.116363 0.46762198 0.23817568
-0.17698453 1.6344488 0.34387654 -0.20106257 0.12801376 0.11820889 0.86487037 0.97233886
0.56859756 0.08102982 -0.25696835 1.2222917 -0.3429231 0.009121441 0.36921424 -0.13742167
0.7153481 0.15621203 -0.15059735 0.5167028 0.9717846 -0.18599911 -0.33710515 0.41906247
0.059982173 0.04644259 0.050718553 0.17703813 0.18366235 0.80751526 0.17099069 -0.059689466
-0.074912086 0.28014734 0.072783075 -0.04886279 -0.5748404 2.2619839 -0.24358238 -0.21556363
0.47339693 -0.22155857 0.04308297 0.5078494 -0.07015878 0.19373594 0.8414514 1.1066287
-0.081127726 -0.6447053 0.6311814 -0.3582589 -1.8986832 0.13853572 -0.09014637 0.5916058
-0.21707472 -0.014560701 0.4157879 -0.34650967 0.17250277 0.08484649 0.00036971713 0.037490003
0.00069832895 1.1638864 -0.26154852 -0.014461316 0.32691526 -0.09369446 0.29502264 -0.07578807
-0.06854672 1.1199399 0.7041645 0.114575 -0.07371675 -0.038340665 -0.37141147 0.5128067
0.04057159 -0.109777324 1.0009624 0.8944941 -0.20426759 -0.24519226 0.5325019 -0.04059196

l4.bias f4 [53]
00000000: a4f4 4dbf 6ba8 0a40 6a60 ef3f 7328 f33f
00000010: f8cb d93f 942e ddbf ed5e 8d3f e23a 7e3f
00000020: 2e20 af3d 130f 683f 48f2 963f a3ca d63f
00000030: c036 0abf 5efd 873f d19f 0b40 820b 773f
00000040: 07a8 b53f 3eed c33f 32d2 1540 1c40 5cbf
00000050: 2550 763f 9983 bb3e c99d 4d3f b7d3 1340
00000060: aa65 21bf d435 b43f 8421 e83f d44a 1f40
00000070: 48be 763e 03df f63c d5b6 9d3f be57 803e
00000080: 90db 15bf 8e74 263f 173f 1f40 752c 23bf
00000090: be73 b43f 12c4 a0bf 1d27 893f f29e a03f
000000a0: a111 0440 364e d33f 2500 1d40 3243 7abf
000000b0: 6b67 ae3e f672 2140 630a 3e3f 7ea9 b83f
000000c0: dca9 6d3f 9140 053f 8882 f23f 8bb4 983f
000000d0: 0ebc c23e
-0.80451417 2.1665294 1.8701298 1.8996719 1.7015371 -1.727984 1.1044594 0.993086
0.0855106 0.90648 1.1792688 1.678059 -0.5398979 1.0624197 2.1816294 0.96501935
1.4191903 1.5306776 2.3409543 -0.86035323 0.9621604 0.3662384 0.80318886 2.309797
-0.6304575 1.4078927 1.8135228 2.4889421 0.24096024 0.030135637 1.2321421 0.25066942
-0.5853815 0.650216 2.4882257 -0.6373971 1.4097822 -1.2559836 1.0715061 1.2548506
2.063576 1.6508243 2.4531338 -0.9775878 0.34063277 2.5226417 0.742346 1.4426725
0.9283731 0.52051646 1.8946085 1.1930097 0.380341

l5.weight f4 [85, 53]
00000000: 84af dd3e 2f2f af3e 1168 89be cc9b 693f
00000010: 3d58 04bf f6b9 f33d 74f6 68be f5a5 113e
00000020: ab2f 0f3f cf31 6a3f 243c e8be b01b b4be
00000030: 7a78 ab3e 146c 573f 3557 eebd 086f aabd
00000040: 9e0c 8abe be45 1b3d d498 c63e d031 3fbe
00000050: 5fb6 dabe 444d 023e 229f b03d 3958 e83d
00000060: 110a 773f 9ea4 5c3d b09e f9be c422 ba3d
00000070: 135e 7fbe 8c4a d93e dbe3 183f 00c8 d23e
00000080: b7c8 b23e 37e3 603f 5468 cb3e 6bbd 07be
00000090: 040d df3e a62b 943b 97dd 3d3d b8ce 363c
000000a0: 1469 653e d0ee 363f 137d 153e 41fb e73e
000000b0: fe9b 41be 0986 723e 89fd 043e 33ed 4d3f
000000c0: 596c 673e 62e6 063e 8cf2 3d3f c649 ae3d
000000d0: 03a8 fd3d 2c5d 203c 8a97 943f 27cb 373e
000000e0: 9905 923e 732a a73e aae3 90be 5ce4 e0be
000000f0: 74ec abbe a5ce 45bd 8c21 5d3f 384d abbd
00000100: 5a3c 7e3e bf71 44bd db5d c73e 5e89 b03e
00000110: bad2 f03c 4478 e43d 860e 863e 1aa9 343f
00000120: 4a3b 74be 7948 4dbd 1c0e 8fbe 1565 443e
00000130: d4ac 8b3f 17cd 90be fe79 3f3f 627b 87bd
00000140: e19d d83d bee5 c2be 25e6 293e aac1 2b3f
00000150: 2115 88be bdbd 8cbf f67e 18bd 4d59 b13e
00000160: 6f17 ddbe 6d90 2c3e 7699 86bd 34e3 0b3f
00000170: e4be cf3d 03ac 983f db53 d93e 6e45 dd3e
00000180: d72e a6bf 6765 4f3e 87c0 8c3e c568 1b3e
00000190: ca00 903e 142c 36bd fd71 71be da6d fb3e
000001a0: 43b1 7dbc e24e 45bf 2cc8 143d 526d 9c3f
000001b0: 3818 593e 58c8 b83e c7ee d53d cf37 55bd
000001c0: f0b7 11bf c430 d5be 45a2 263d edd5 4c3f
000001d0: 8f34 83bc b867 863d 7c9f 323e 24fa 023f
000001e0: 89e3 bc3e 5d4b 283e 9d45 6a3c 5323 283e
000001f0: c0eb 1f3f 69f6 c9be 7e7c afbe 58e6 95be
00000200: 0a1a 203e 4125 823f 24cb 5c3e 0f15 3e3f
00000210: 6078 3abd ca30 f63d 176d d1be 2509 8f3d
00000220: f41f 383f 0faa a2bd fd29 67bf 1e96 7b3e
00000230: d2ef 6e3e bc2f d3be 040c b63e 95ff 3dbc
00000240: b7b7 563f 38c4 b63d 8e7f a43f efc8 c23e
00000250: 1c18 f03e af11 8abf c7a0 793b 7c6e 893e
00000260: d79d 943e 4179 253e c2a7 23be 8f38 9dbe
00000270: f72f e23e ca7a f03d 8afa 3dbf 99b9 213e
00000280: e06a ec3e 1aa4 ac3e b746 2d3f 0ef5 a3bd
00000290: e2d7 8abe b3d9 003e ebd2 803e a1d8 4b3e
000002a0: e03e cd3e 2cec 5f3e a3a0 293e 6b98 a2bd
000002b0: 7f90 bc3e 7a1f 5a3e 9845 69be 0130 033e
000002c0: 1bef 8f3e 785e c53e b1fb 25bf 19d3 15be
000002d0: 89e8 0fbe 649a 143e ad91 1e3f 6634 51bf
000002e0: 78fe 643e 0ff7 773e 4e6b 27bd 4b00 013e
000002f0: 53ab 883e 6215 3d3e 70c9 6b3d da3d e5bf
00000300: dd20 f23e 2ef9 7f3e edfb 7abf d585 dc3d
00000310: de5e aebd ec9c 443d f7a3 153f 56cb 9b3e
00000320: d2be c13e c875 bf3e 7d31 b8bf e777 403d
00000330: 1bbf a63e 475a 0c3e 6d40 0a3e 5bce b7bd
00000340: 291b 27be 4e22 fd3e 134a 203e d11e 893d
00000350: 06b9 6cbe 640c df3e be77 cb3e 93d6 c03d
00000360: 57c6 cf3e 4ab8 9ebe 1259 d83e 9365 ba3e
00000370: d4de dabc d12a a1be 7a9a d13e 43f7 353f
00000380: 65c6 bdbe 576b 9abe 045c c03e 22ef f63d
00000390: 3806 c13e 2528 1e3e 5cda c63e df3e acbe
000003a0: acb6 fe3e 1033 0abe 491d d03c 8a34 283f
000003b0: a0d8 acbf 771f 373e dc41 6c3f c405 743c
000003c0: 2223 8a3e 9498 2abd fbf1 d9bd 1829 f2bd
000003d0: ca24 eebf f7ca a0be e7b9 843e 9269 aabe
000003e0: eb1c 9ebd c7a7 46be 7b4a 0e3e 435b ac3e
000003f0: 9d52 be3e 12f3 843d 5458 4c3e b668 cdbf
0.4329797 0.34215686 -0.2683721 0.9125335 -0.5169714 0.119007036 -0.22750264 0.14223464
0.5593211 0.9148225 -0.45358384 -0.35177374 0.33490354 0.8414929 -0.11637727 -0.08321959
-0.2696275 0.03790831 0.38788474 -0.18671346 -0.42717263 0.12724787 0.08624102 0.11344952
0.96499735 0.05386793 -0.4875388 0.09088662 -0.2493823 0.42439687 0.5972268 0.41168213
0.34918758 0.878467 0.39728034 -0.13255851 0.43564618 0.004521805 0.046353903 0.011157684
0.22403365 0.7145815 0.14598493 0.4530888 -0.18907163 0.23683943 0.12987341 0.8044006
0.22599925 0.13173822 0.7419822 0.08510165 0.12385561 0.009787839 1.1608746 0.1794859
0.28519896 0.32649574 -0.28298694 -0.43924224 -0.33578837 -0.048292775 0.86379313 -0.08364338
0.2482771 -0.04796004 0.38938794 0.34479803 0.029397357 0.11155751 0.26182956 0.7057053
-0.23850742 -0.050117943 -0.27940452 0.19179185 1.0912118 -0.2828147 0.7479552 -0.0661533
0.10576988 -0.38065904 0.165917 0.6709238 -0.2657862 -1.0995404 -0.037230454 0.34638444
-0.4318194 0.16851969 -0.06572239 0.5464356 0.10143831 1.1927494 0.4244679 0.43217033
-1.2983044 0.20253526 0.27490637 0.15176685 0.28125602 -0.04447563 -0.2357864 0.49107248
-0.015484157 -0.7707349 0.03632371 1.2220862 0.21200645 0.3609035 0.10445934 -0.052055176
-0.5692129 -0.41638768 0.040682096 0.80013925 -0.016016273 0.065627515 0.17443651 0.51162934
0.36892346 0.16434999 0.014298824 0.16419725 0.624691 -0.3944581 -0.34274668 -0.292773
0.15634933 1.0167619 0.21561867 0.7425088 -0.045524955 0.120210245 -0.4090354 0.06984166
0.71923757 -0.07942592 -0.90298444 0.24568984 0.23333672 -0.41247356 0.35556042 -0.01159658
0.83874077 0.089241445 1.2851427 0.38043925 0.46893394 -1.0786647 0.0038090216 0.26842105
0.29026672 0.16159536 -0.15981963 -0.30707213 0.4417722 0.1174217 -0.7421042 0.15793456
0.4617529 0.3371895 0.6768603 -0.08005725 -0.2711783 0.12583046 0.25160918 0.19906856
0.40087032 0.21867436 0.16565184 -0.07939228 0.36828992 0.2130107 -0.22780454 0.12811281
0.2811211 0.38548636 -0.64837176 -0.14631309 -0.14053549 0.1451202 0.61941034 -0.8172058
0.22362697 0.24215339 -0.040873818 0.12597768 0.2669321 0.18465188 0.057565153 -1.7909501
0.47290698 0.24997398 -0.9804066 0.10767714 -0.08514188 0.048001215 0.58453315 0.3042857
0.37840897 0.37394547 -1.4390103 0.046989348 0.32567677 0.13706313 0.13501139 -0.08974906
-0.16318955 0.49440235 0.15653257 0.06695331 -0.23117456 0.4356414 0.39739794 0.09415927
0.4058101 -0.30999976 0.42255455 0.3640562 -0.02671758 -0.3147798 0.4093817 0.71080416
-0.37065426 -0.3016002 0.37570202 0.1205733 0.37700057 0.15445001 0.3883847 -0.33641717
0.49748743 -0.13496041 0.02540459 0.6570517 -1.3503609 0.17883097 0.92287993 0.014893953
0.2697993 -0.041649416 -0.10641857 -0.11824244 -1.8604977 -0.3140485 0.25923082 -0.3328367
-0.077203594 -0.1939994 0.138956 0.33663377 0.37172404 0.064916745 0.1995557 -1.604758

l5.bias f4 [85]
00000000: dd3f f9be 0453 c53f c667 c33f 9f4d dc3f
00000010: ea6f 0b40 4318 eabe af8d 083f 29f8 1140
00000020: 201c b1bf d7ce 793f f6e5 e03f 6048 0d3f
00000030: b8bc 3cbf c66d b23f a77d e43f b9ad bf3e
00000040: dc0b 133f f25a da3f c048 0640 f811 163e
00000050: 2245 1140 ed65 bf3f d94b d73f 184c c43f
00000060: 5219 0440 74a1 d8be 9f00 aabe 0a04 ec3f
00000070: e13a 9c3f 4af0 193e 2c35 c0be 9eb8 c13e
00000080: 3e7e c83f 3245 c23f a28c 9f3e 6f5c a83f
00000090: b203 903e 6948 a73f 0e44 e33e 2a18 1b40
000000a0: 2335 1c40 7c4b 273f 3eae 96bf 4076 da3f
000000b0: 812b 00bf 017d 0740 0ad3 1a3f 2433 843f
000000c0: 70d3 4d3f 41c9 3f3f a1ef f13f 86f7 ae3f
000000d0: c471 5f3f 0d8b 8cbf bed4 fd3e ed52 ae3d
000000e0: c7b1 f33f 39af 663f cbb5 0f40 dab9 4fbd
000000f0: ec27 7c3f fd87 2cbd 55b7 1040 aa6e 14bf
00000100: caf1 2e3f 5376 8f3f d882 313f 05b2 eebe
00000110: a96d 963c a070 583f 6f1c 7fbf dba5 8fbf
00000120: 1ba4 6a3f 1671 863e 6339 bb3f cf84 2140
00000130: 6400 a93f 68d9 a23f a04f b83e facf 823f
00000140: 5dce 02bf f38c a7be d556 d23f b5d5 b43f
00000150: 2e37 943f
-0.48681536 1.5415959 1.5266044 1.7211188 2.1787057 -0.45721635 0.5334119 2.2807715
-1.3836708 0.9758124 1.7570179 0.5518856 -0.7372546 1.393975 1.7850846 0.37437227
0.5743997 1.7059004 2.0981903 0.14655292 2.2698445 1.495298 1.6820022 1.5335722
2.0640454 -0.4231068 -0.332036 1.8438733 1.2205468 0.15033069 -0.37540567 0.37836164
1.5663526 1.5177367 0.31161982 1.3153208 0.2812782 1.3068973 0.4438786 2.4233499
2.4407432 0.65349555 -1.1771924 1.7067337 -0.5006638 2.1170046 0.6047827 1.0328107
0.80400753 0.74916464 1.8901254 1.3669288 0.8728297 -1.0979935 0.49576372 0.085119106
1.9038628 0.9011112 2.2454708 -0.05071435 0.98498416 -0.042121876 2.2611897 -0.5798136
0.6833769 1.1207985 0.69340277 -0.46620193 0.018362837 0.8454685 -0.9965276 -1.122249
0.91656655 0.26258153 1.4626888 2.523731 1.3203244 1.2722597 0.3599825 1.021972
-0.51096135 -0.32724723 1.6432749 1.4127718 1.157934

l6.weight f4 [3, 85]
00000000: 837a 773f 2183 c4be ccdf adbe 8793 dfbe
00000010: bd56 1bbf e963 683f 475e 3fbd 2e66 30bf
00000020: 7afd 8a3f 6ba1 e33e 6d43 c5be 7154 61bd
00000030: 5ac7 993f 07ad b3be 41e3 f8be d14d d33f
00000040: d065 8cbc ce5c ddbe 4f17 11bf 3e34 0340
00000050: db0b 16bf 1a99 f43e e8fe e8be af3c 8bbe
00000060: 84ef 0ebf deca b43f bba8 31bf 8261 38bf
00000070: 91db 80be d3db 9dbf 07f9 f53f 07df 5d3b
00000080: e8fe babe fb38 9bbe 8220 893f dc55 95bf
00000090: c789 b13e 7e20 29be efeb 683d 3c78 3cbf
000000a0: cddd 1fbf d7b1 43bf e929 f23f 88be d6be
000000b0: 2c8e 0d40 2b40 06bf f2a4 16c0 e6cc 29be
000000c0: 200c 06be 0312 d4bc 40d7 edbe 26a6 a0be
000000d0: a2a4 61bd 1646 3e3f b66e bb3f 2253 d93e
000000e0: 8006 eabe 62b4 573f 8252 35bf 8c8c f63d
000000f0: c78e ee3f 9e4c b9bc 8593 13bf b2bf ffbe
00000100: 251b e1bd 4610 4dbe ecb9 febc e89b bc3f
00000110: 6cb3 40bf 1989 3b3e 025e c83f 166c b53f
00000120: 1f1c 0ec0 39c6 8ebf 281c a5be 990b 40bf
00000130: 582c 5cbe b893 b9be dd40 eb3f a7ff 07be
00000140: 0c8d 7f3f afe4 1ebf 6624 a6be d0fa 8dbe
00000150: 2d06 8bbe 9419 81bf 51cc ccbe b018 04bf
00000160: f114 cebe 085c b83d 409a 7dbf c5e2 1f3f
00000170: 37af 283e 813c 8a3f b916 723f 2e61 12bf
00000180: 2896 9cbe 4a4a 7fbe ccf6 8dbe 40de 843d
00000190: 51d3 80bf c0b6 de3e d36c ecbe 74e4 70be
000001a0: 9fe9 0bbf 3ad1 9abe 5e9c 8e3f 64a9 fabe
000001b0: cb3e a7be 1c03 e5be 7fc2 0a3f b3f0 ac3e
000001c0: 4945 933f f659 803f 0628 58bf 6395 5d3e
000001d0: cf6d d93e 7aa8 0dbf c99e 95be 7c42 a93e
000001e0: 73d3 8c3f c3ce 0940 62f6 84be e5ad 2b3d
000001f0: 4d6e 3b3d 3467 b4bd cf44 8c3f 104f 84bf
00000200: dd04 dbbe 45dc 453f 9556 8fbe b818 6b3f
00000210: c95d 973e 0cf3 2dbf 8fbf 91be 4189 e7be
00000220: 01d3 d53e 84a6 eebe 7b7e ebbe ef3d 9d3f
00000230: 21fa 67bf 6295 e2be 6ff2 bf3f 836e 09be
00000240: 67a5 47be 07e6 d63f 8bc4 d73f 5c37 76be
00000250: 5955 8abe 85a7 8b3d 8dd7 1abf aae1 be3e
00000260: c061 97bf 0f50 87be 1930 023f 365c 05bf
00000270: debe 1440 4dd2 d33e bc48 6bbe 5778 0abf
00000280: ae6a 9fbe f444 f8be 26ce 1dbf 6749 b8be
00000290: 757d 84be 0eb6 95bf 4c5a 19bf 1502 003e
000002a0: d219 17bf 9dc7 2bbf 76a7 60bd b481 c73e
000002b0: 943d 013f 5e57 80be 9f43 48be 88ec a43d
000002c0: 3560 5dbf cacd e8be d946 bbbf 5b87 883f
000002d0: c23c 8b3d 856b 04bf c2d6 5d3f 8128 d5be
000002e0: 79fc febe b13f 4cbf e205 43bf a4fb 983e
000002f0: 3cbe bebe 6042 e5bf 6424 9d3d 4389 893f
00000300: 6dd6 f13e d27f 01bf e34c 533e 95df 15bf
00000310: 3fe4 c33e 733b aa3f 0bde d23f 7af6 49bf
00000320: 90ac 02be 3b55 52bf 08fa 033e b41e 00bf
00000330: f042 da3f 651b 0e3f a3d9 1440 785a 07bf
00000340: 3b5c 35bf 4ac3 babc b786 5dbe c9cd 863f
00000350: c92b 693e 5a56 cc3e 999c 443f 1bd4 dd3d
00000360: c490 5cbe e7e0 27bf f612 85be 9dcd 03bf
00000370: 7247 1c3e ad9e 30bf 50c1 efbe 1d63 95be
00000380: fe29 be3f 5137 13bd 2db4 f93c ac9e 273f
00000390: aee8 eebc 5528 0fbf c564 fb3f 08e4 20bf
000003a0: a168 7a3d e0c1 a43e d443 25bf 7207 4bbd
000003b0: fa71 41bf 9913 8a3e 6e1a 1940 b843 0c40
000003c0: 07be 933e df03 30c0 f940 1a3e 89ed c53c
000003d0: fbae c83e 21dc c8bd d15c cfbe 1c6a c33d
000003e0: 0323 ecbe 091a 0abf 636c b2bc 43b9 b83e
000003f0: a977 fabe 42dc ea3e 0ae5 e53c
0.96671313 -0.38381293 -0.33959806 -0.43667242 -0.6067923 0.9077745 -0.04672077 -0.68905914
1.0858605 0.4445909 -0.38528004 -0.05501217 1.2013962 -0.35092947 -0.4861088 1.6508123
-0.017138392 -0.43234867 -0.5667619 2.0500636 -0.5861184 0.47773057 -0.45506978 -0.27194735
-0.5583422 1.412441 -0.6939809 -0.72023785 -0.25167516 -1.233271 1.9216622 0.0033854858
-0.36522603 -0.3031691 1.0713046 -1.1666827 0.34675428 -0.16516301 0.05686563 -0.73620963
-0.62447816 -0.7644324 1.891904 -0.4194224 2.2118025 -0.5244166 -2.3538175 -0.16582069
-0.13090563 -0.025887495 -0.46453285 -0.3137676 -0.055088647 0.7432569 1.4643161 0.42446238
-0.45708084 0.8425962 -0.7082902 0.12038526 1.8637322 -0.022619542 -0.5764697 -0.4995094
-0.109915055 -0.20025739 -0.031094514 1.4735079 -0.75273776 0.18314017 1.5653689 1.417361
-2.2204664 -1.1154243 -0.32248044 -0.75017697 -0.21501291 -0.36245513 1.837917 -0.13281117
0.99824595 -0.62067693 -0.32449645 -0.27730417 -0.2715315 -1.0085931 -0.3999963 -0.5160017
-0.40250352 0.090019286 -0.9906349 0.624554 0.16473089 1.0799714 0.9456592 -0.57179534
-0.3058331 -0.24930683 -0.27727354 0.06487703 -1.0064489 0.43498802 -0.46176776 -0.23524648
-0.5465335 -0.30237752 1.114147 -0.4895736 -0.32665095 -0.44728935 0.5420303 0.3377739
1.1505519 1.0027454 -0.8443607 0.21639018 0.4246659 -0.553352 -0.29222706 0.33058536
1.1002029 2.1532447 -0.25969225 0.041913886 0.045759488 -0.08808747 1.0958499 -1.0336628
-0.42777148 0.7728923 -0.27995744 0.9183459 0.2956374 -0.67948985 -0.2846646 -0.45221904
0.41762546 -0.46611416 -0.45994934 1.2284526 -0.9061604 -0.44254595 1.499586 -0.13421063
-0.1949669 1.6788949 1.6856855 -0.24044555 -0.2701824 0.06819061 -0.60485154 0.37281543
-1.1826706 -0.26428267 0.5085464 -0.5209383 2.3241496 0.41371384 -0.22976965 -0.54089874
-0.31136078 -0.48490107 -0.6164268 -0.35993502 -0.25876966 -1.1696184 -0.5990341 0.12500794
-0.59023774 -0.6710146 -0.054847203 0.38966143 0.50484586 -0.25066656 -0.19557045 0.08052927
-0.86474925 -0.45469505 -1.4630996 1.0666307 0.06798698 -0.5172656 0.8665582 -0.41632465
-0.49801996 -0.79784685 -0.7618085 0.29879487 -0.37254512 -1.7910881 0.076729566 1.0745014
0.47233906 -0.50585663 0.20634799 -0.58544284 0.38260075 1.3299392 1.6474012 -0.7889172
-0.1276114 -0.821613 0.12888348 -0.5004685 1.7051678 0.5551055 2.3257835 -0.5287242
-0.7084386 -0.0227982 -0.21633421 1.0531551 0.22770609 0.3990963 0.7680145 0.108314715
-0.21539599 -0.6557755 -0.2599103 -0.51485616 0.15261629 -0.6899212 -0.46827173 -0.2917718
1.4856565 -0.035941426 0.030481422 0.6547649 -0.029163685 -0.55920917 1.9640127 -0.6284795
0.06113494 0.32179165 -0.6455662 -0.049567647 -0.7556454 0.26968077 2.3922381 2.1916332
0.28855917 -2.7502363 0.15063848 0.024161117 0.39196 -0.09807611 -0.405005 0.09541723
-0.46120462 -0.53945976 -0.021780198 0.36078843 -0.48919418 0.45871168 0.028063316

l6.bias f4 [3]
00000000: 522e 14c0 bccc 70be ace5 8cbe
-2.3153272 -0.235156 -0.27518976
