models/Others/model_PGNN_500_1e-3.pt (torch, 127233 bytes, 12 tensors)

l1.weight f4 [189, 9]
0	0xbb86d891	-0.004115172
1	0x3dac65da	0.08417864
2	0x3f410e89	0.75412804
3	0x3e87dc67	0.2653534
4	0xc0167e22	-2.3514485
5	0x3f81fc4c	1.015512
6	0xbed3d88e	-0.41376156
7	0x3e1052b1	0.14094044
8	0x3da0e2cb	0.07855757
9	0xbbc5d6ea	-0.0060375826
10	0x3f8b8804	1.0900884
11	0xbf4ea6f8	-0.80723524
12	0xbd98401e	-0.074341044
13	0xbf8fb4bf	-1.1227034
14	0xbf73f323	-0.9529287
15	0x3e7a1a07	0.24423991
16	0xbf13f929	-0.57802063
17	0xbccaab3f	-0.02473986
18	0xb9bb08c6	-0.00035673956
19	0x3e35a2af	0.1773784
20	0xbf408b6f	-0.7521276
21	0xbe366e51	-0.1781552
22	0xbf105949	-0.5638624
23	0xbf494be8	-0.7863145
24	0x3e0af64e	0.1357052
25	0xbf907725	-1.128636
26	0xbf5f9e6d	-0.87351114
27	0xb92bd59e	-0.0001638741
28	0x3d84be54	0.06481615
29	0x3fd56916	1.6672695
30	0xbf51fccf	-0.8202638
31	0xbe31bac1	-0.17356397
32	0x3eb923d7	0.36160156
33	0xbe88116e	-0.26575798
34	0xbe3a8d7a	-0.18218032
35	0xbf028744	-0.5098765
36	0x3819c3e0	3.6660465e-05
37	0x3f1157ad	0.5677441
38	0xbf8354dc	-1.0260272
39	0xbe024037	-0.12719809
40	0x3dbe212d	0.092836715
41	0x3cfc99fa	0.03083514
42	0xbf79ab0f	-0.9752664
43	0xbf9e1b38	-1.2352057
44	0xbe894168	-0.26807714
45	0x3b0a4b74	0.0021102102
46	0xbbccdb0a	-0.0062516974
47	0x3f9b83ba	1.2149575
48	0xbe4af596	-0.19820246
49	0xbf1deec2	-0.6169244
50	0xbfabad82	-1.3412325
51	0xbec20568	-0.3789475
52	0xbf05f714	-0.52330136
53	0xbf30ab07	-0.69010967
54	0xbb44d476	-0.0030033863
55	0xbf7af63a	-0.9803196
56	0xbf102366	-0.56304014
57	0xbe532412	-0.20619228
58	0xbef1bb46	-0.4721319
59	0x3f870344	1.0547872
60	0xbdb9a7da	-0.09065218
61	0xbec80897	-0.39069054
62	0x3f054332	0.52055657
63	0xbae1ce5a	-0.0017227635
64	0xbcd730b4	-0.02626834
65	0x3f8b8154	1.0898843
66	0xbf8ee9be	-1.1165082
67	0x3f79ef7c	0.9763105
68	0xbf8acae9	-1.0843173
69	0x3ed80805	0.42193618
70	0xbe57158c	-0.21004313
71	0xbf07b778	-0.53014326
72	0x3b8f28e4	0.004368888
73	0xbea29803	-0.317566
74	0xbf881840	-1.06324
75	0xbe53946e	-0.2066209
76	0xbedbb754	-0.42913306
77	0xbf3da324	-0.7407706
78	0x3f7729fd	0.96548444
79	0x3f645540	0.8919258
80	0xbdc41a6f	-0.09575354
81	0x3b334b2d	0.002735804
82	0xbd1ca7c5	-0.038245935
83	0x3faa21f7	1.3291615
84	0xbe9d9e9e	-0.30785078
85	0x3fc8d6fa	1.5690606
86	0x3efc9b20	0.493371
87	0x3e5640a0	0.2092309
88	0x3f549f39	0.83055454
89	0xbf0ef037	-0.5583529
90	0x3c1c379c	0.009534743
91	0xbf1c9fe9	-0.61181504
92	0x3fa290fb	1.2700495
93	0x3eb13291	0.34608892
94	0xbe82cf32	-0.25548702
95	0xbeb52b9c	-0.35384834
96	0x3eb93602	0.36174017
97	0xbf7e67b1	-0.9937697
98	0xbec0b165	-0.3763534
99	0xba55e02c	-0.00081587094
100	0x3ed9bfe8	0.42529225
101	0xbf881fff	-1.0634764
102	0xbe249762	-0.16073373
103	0x3d8753ee	0.06607805
104	0xbebb3aee	-0.36568397
105	0xbd945c65	-0.07244185
106	0x3ee77304	0.45204937
107	0x3dbfb0b9	0.09359879
108	0x3ccc268d	0.024920726
109	0x3fa70f32	1.3051512
110	0xbeec8daf	-0.46201846
111	0x3e59f7f0	0.21285987
112	0x3ec222b1	0.37917092
113	0x3e20cb76	0.15702614
114	0xbf75d6b0	-0.9603071
115	0xbf8aac5f	-1.0833853
116	0x3bbb0709	0.0057076258
117	0x3a879037	0.0010342662
118	0x3d63ec43	0.05564524
119	0xbf170e7e	-0.5900649
120	0x3cf0a1fc	0.029374115
121	0x3f278e86	0.6545185
122	0xbf930244	-1.1485066
123	0x3e359057	0.17730843
124	0xbf513a3a	-0.8172947
125	0x3ebefa5c	0.37300384
126	0x3b68489e	0.0035443674
127	0xbea7b63d	-0.32756224
128	0x3f4974eb	0.7869403
129	0xbf08556e	-0.53255355
130	0xbeb2bff5	-0.34912077
131	0xbfb84c03	-1.4398197
132	0xbe9de330	-0.30837393
133	0xbf05e055	-0.5229543
134	0xbedbdae5	-0.4294044
135	0xbaa82c8a	-0.0012830656
136	0xbf055b35	-0.52092296
137	0xbf094804	-0.5362551
138	0x3c1da223	0.009621176
139	0xbf56b0e5	-0.8386367
140	0xbf08f541	-0.5349923
141	0xbf3d9fed	-0.7407215
142	0xbece4560	-0.40287304
143	0xbe998546	-0.29984492
144	0xbbf66a42	-0.007519991
145	0xbf77a792	-0.96740067
146	0xbf6c82a7	-0.9238686
147	0xbe6f21f9	-0.23352803
148	0x3f280ca4	0.6564429
149	0x3e2629af	0.16226839
150	0xbee2278b	-0.44170794
151	0xbecb1a10	-0.39668322
152	0x3edc6c10	0.43051195
153	0x3bac8481	0.005264819
154	0x3eaaa278	0.3332708
155	0x3ed70120	0.41993046
156	0x3c8361b8	0.016037807
157	0x3eec358e	0.4613461
158	0xbf7acc0f	-0.9796762
159	0xbf99b8de	-1.2009542
160	0xbf8e439d	-1.1114384
161	0xbee95972	-0.45576054
162	0xbb09da08	-0.0021034498
163	0x3f11bf9a	0.56932986
164	0xbf8e4dec	-1.111753
165	0xbbdebdc8	-0.006797526
166	0x3e428599	0.18996276
167	0xbf6b013a	-0.91798747
168	0xbe8180c0	-0.2529354
169	0x3f0f118f	0.5588617
170	0xbe781d20	-0.2422986
171	0xbafe0f95	-0.0019383306
172	0xbea76906	-0.32697314
173	0xbd7121d3	-0.058870148
174	0xbe3d2a54	-0.18473178
175	0xbf555f48	-0.8334851
176	0x3fc7fcf9	1.5624076
177	0x3d50bd21	0.050961617
178	0xbf1948f4	-0.5987694
179	0x3d627871	0.055290643
180	0xbb23db9b	-0.0025002721
181	0x3dea7f73	0.1145009
182	0xbf3d8669	-0.7403322
183	0x3d52946d	0.05141108
184	0xbf1817c3	-0.5941126
185	0xbff39ce9	-1.903226
186	0x3e2ba4a1	0.1676202
187	0xbe25699c	-0.16153568
188	0x3dc09b36	0.09404604
189	0x3ba689a8	0.005082328
190	0xbed374ef	-0.4130015
191	0x3f41806c	0.7558658
192	0x3f1bf7a5	0.6092475
193	0xbeb0ad36	-0.3450715
194	0x3f82a066	1.02052
195	0x3f50131a	0.81279147
196	0xbeb43501	-0.3519669
197	0xbe8c0065	-0.2734405
198	0x3b813044	0.0039425213
199	0xbf1c8c47	-0.61151546
200	0xbeae19fe	-0.34004205
201	0xbd5e46bd	-0.05426668
202	0xbfeb9112	-1.8403647
203	0x3f0a293f	0.53969187
204	0x3ea0a548	0.313761
205	0x3d9e5fb8	0.07733101
206	0x3ebf04c4	0.37308323
207	0x3c526fdb	0.012844051
208	0xbf069bbb	-0.52581376
209	0xbf53baba	-0.827068
210	0x3e14b1a2	0.14520887
211	0x3fa6404e	1.2988374
212	0xbdd3bb49	-0.10338456
213	0x3fef5c3d	1.8700024
214	0x3ef8f056	0.48620862
215	0x3f9c2e65	1.2201658
216	0xba8745a9	-0.0010320443
217	0xbed97f6d	-0.4248003
218	0x3e29fcda	0.16600361
219	0x3ea5c8ab	0.3237966
220	0x3e640d1a	0.22270623
221	0xbf96e932	-1.1789916
222	0xbe7c1a19	-0.2461933
223	0xbf0250b9	-0.50904423
224	0xbf8b0b92	-1.0862906
225	0xb92e8855	-0.00016644721
226	0x3f4fd232	0.8118011
227	0xbf668e80	-0.9006119
228	0xbd61e60c	-0.05515103
229	0xbfa7fbc5	-1.3123709
230	0xbd870185	-0.06592087
231	0x3e9c14bb	0.30484566
232	0x3ee72b99	0.4515045
233	0x3d8d18a8	0.068894684
234	0x3a833404	0.0010010009
235	0xbf09a654	-0.5376942
236	0x3f9b3d6e	1.2128122
237	0xbf01ab61	-0.5065213
238	0xbfdf13ef	-1.7427958
239	0x3f51c27c	0.81937385
240	0x3f1fb90b	0.6239173
241	0xbed357c5	-0.412779
242	0xbdcb23ad	-0.09918914
243	0x3d73e5a3	0.05954517
244	0xbf177611	-0.5916453
245	0x3f60e5a2	0.8785039
246	0xbf27d87e	-0.65564716
247	0x3e7c1afb	0.24619667
248	0xbd9d45b1	-0.07679308
249	0xbeb0d337	-0.34536144
250	0xbdda8b3a	-0.106710866
251	0xbf48c6fd	-0.7842863
252	0x3af483e0	0.0018655024
253	0x3eda52c9	0.42641285
254	0x3f8e1a30	1.1101742
255	0xbe8da0b4	-0.2766167

l1.bias f4 [189]
0	0xbedebbe9	-0.4350274
1	0x3ec7a1cc	0.3899063
2	0xbea6bd72	-0.3256641
3	0xbdd7b2d5	-0.105321564
4	0x3db65a66	0.08903961
5	0x3ec90d4d	0.3926796
6	0x3eaf7c62	0.34274584
7	0x3e0b731f	0.13618134
8	0x3d235b90	0.039882243
9	0xbea054eb	-0.31314787
10	0xbf18bc3e	-0.59662235
11	0x3ebab459	0.3646572
12	0x3cd4bd06	0.02596904
13	0x3e9bb6bc	0.30412853
14	0xbe2009eb	-0.15628783
15	0xbd9c36bf	-0.076276295
16	0xbd472b4e	-0.048625283
17	0x3d1daa25	0.03849234
18	0x3dc4e8cf	0.09614717
19	0x3ecb4fd0	0.3970933
20	0x3e07a014	0.13244659
21	0xbdb03c74	-0.086052805
22	0x3e898af6	0.2686383
23	0xbddb1b89	-0.10698611
24	0xbe8d2a47	-0.27571318
25	0x3ed148b7	0.4087579
26	0x3d5ce622	0.05393041
27	0xbe8142f5	-0.25246397
28	0xbedb46a0	-0.4282732
29	0x3c9bd471	0.019022198
30	0xbe029646	-0.12752637
31	0x3ef18754	0.4717356
32	0x3ef48e73	0.4776493
33	0xbdb1e015	-0.086853184
34	0xbdb22b3f	-0.08699655
35	0xbdd5adf5	-0.1043357
36	0xbdcb9e98	-0.09942359
37	0xbeee1840	-0.46502876
38	0xbeced8be	-0.40399736
39	0xbed74444	-0.4204427
40	0x3f22efe1	0.63647276
41	0x3dcfcc61	0.10146404
42	0x3cbdb2e9	0.0231566
43	0x3d4e1065	0.050308604
44	0x3ee08d94	0.43858016
45	0x3e080827	0.1328436
46	0x3e0f7313	0.14008741
47	0x3e1b8e18	0.15190923
48	0xbe04298e	-0.12906477
49	0x3dcab11a	0.09897061
50	0xbeb4b970	-0.35297728
51	0x3dbbd3df	0.091712706
52	0xbd7707dd	-0.060310233
53	0xbf223176	-0.6335672
54	0xbefc5847	-0.492861
55	0x3e5dc89f	0.21658562
56	0x3ddb0496	0.10694234
57	0xbe508ea0	-0.20366907
58	0xbe4ddc74	-0.20103627
59	0x3f187b10	0.5956278
60	0xbe8ec7aa	-0.27886707
61	0x3c5614e3	0.013066503
62	0x3d3c69e4	0.045999423
63	0xbe602871	-0.21890427
64	0xbdd7e208	-0.10541159
65	0x3e2fe337	0.1717652
66	0xbea20d43	-0.31650743
67	0xbc94dae3	-0.01817078
68	0x3eb8ae0d	0.3607029
69	0x3e405684	0.18783003
70	0xbf261b8b	-0.6488578
71	0xbdba380f	-0.090927236
72	0xbe260b27	-0.16215192
73	0xbda4de3c	-0.080502
74	0xbe1d18fa	-0.15341559
75	0x3e003c1a	0.12522927
76	0x3e79289c	0.24331897
77	0x3ec052ca	0.37563163
78	0xbc9c754b	-0.019098898
79	0xbc8c05ac	-0.017092548
80	0x3dd9d673	0.10636606
81	0xbdaddd0d	-0.08489428
82	0xbd8f26fb	-0.06989857
83	0x3ea96c3d	0.33090392
84	0x3e2d41eb	0.16919677
85	0x3db16d47	0.08663421
86	0x3eeead9a	0.46616822
87	0xbe04b427	-0.12959348
88	0x3e5561a4	0.20838028
89	0xbd793646	-0.060842775
90	0x3e768fdf	0.2407832
91	0xbe587d56	-0.21141562
92	0xbcfb0cd8	-0.030645773
93	0xbe9fdfb5	-0.31225362
94	0xbe6f13b4	-0.2334736
95	0xbe2a6b2c	-0.16642445
96	0xbe3f3ab7	-0.18674742
97	0x3ec7a4eb	0.3899301
98	0xbe82e1d8	-0.2556293
99	0x3e8b9771	0.27263978
100	0xbd7db0fe	-0.06193637
101	0x3e8a8855	0.27057138
102	0x3e3cabcf	0.18424915
103	0xbe96adbc	-0.29429424
104	0xbdc82543	-0.09772732
105	0x3c4f172d	0.012639803
106	0xbed07adb	-0.4071873
107	0x3e896472	0.26834446
108	0x3b8c5a64	0.0042832363
109	0x3d9d9901	0.07695199
110	0xbdbb29f5	-0.09138862
111	0x3d91c01c	0.0711672
112	0xbed9952c	-0.42496622
113	0xbea663ea	-0.32498103
114	0x3e9fa58d	0.31180993
115	0x3e94f271	0.29091218
116	0x3e763bd5	0.24046262
117	0x3ea97aef	0.33101603
118	0x3e1cd986	0.15317354
119	0xbe90282c	-0.2815565
120	0x3d39467a	0.045233227
121	0xbf5e733b	-0.8689458
122	0xbea75774	-0.3268391
123	0x3f263018	0.64917135
124	0x3e947c30	0.29000998
125	0xbd243e53	-0.0400985
126	0x3e4dd97f	0.201025
127	0x3d1e7de6	0.038694285
128	0x3e5c1bf7	0.21495043
129	0x3e407ed8	0.18798387
130	0xbe1f95b9	-0.15584458
131	0x3d28cc53	0.041210484
132	0x3e67b2a7	0.22626744
133	0x3e974171	0.29542115
134	0xbc35da32	-0.011099385
135	0x3e97372a	0.29534274
136	0x3d048d72	0.032361455
137	0xbed476bf	-0.41496846
138	0xbe913ced	-0.28366795
139	0xbea44fb0	-0.32092047
140	0xbd897cce	-0.06713258
141	0x3e43affb	0.191101
142	0xbe2d6eef	-0.16936849
143	0xbc86eb6d	-0.016469682
144	0x3e25c396	0.16187891
145	0x3c355f06	0.011070019
146	0xbc94f06f	-0.018181054
147	0xbe23143d	-0.15925689
148	0xbdbca911	-0.09211934
149	0xbf00d5b6	-0.50326097
150	0x3ea96fab	0.33093008
151	0x3f012027	0.50439686
152	0x3e795ce0	0.24351835
153	0x3dc6fda7	0.09716349
154	0x3e0d6ae3	0.13810305
155	0xbe379461	-0.17927696
156	0x3eaebe1b	0.34129414
157	0x3d91578f	0.070967786
158	0xbdf3af06	-0.118986174
159	0xbeb9d10b	-0.362923
160	0x3f0ac9ef	0.54214376
161	0xbddb8edf	-0.1072061
162	0xbda9db46	-0.08293776
163	0xbf24b93d	-0.6434515
164	0xbeaa10d7	-0.33215973
165	0x3eed674d	0.46367875
166	0x3ec3465b	0.38139614
167	0x3e9fcb8b	0.31209978
168	0x3f0eea0f	0.55825895
169	0xbf49e322	-0.788622
170	0x3e0dec18	0.13859594
171	0x3eef68cc	0.4675964
172	0xbe1dddd6	-0.15416655
173	0x3ce6615c	0.028122596
174	0x3bc6ed99	0.0060708043
175	0xbe59afce	-0.2125847
176	0xbdb0cf40	-0.0863328
177	0xbf39a2fe	-0.7251433
178	0x3e866f1a	0.2625664
179	0xbd29d213	-0.041460108
180	0x3deaf395	0.11472241
181	0xbf10a0a2	-0.56495106
182	0xbed26c8b	-0.41098437
183	0xbdc79889	-0.09745891
184	0x3eddc4e7	0.43314287
185	0x3f18310d	0.59449846
186	0xbf16967f	-0.5882339
187	0xbec4c21b	-0.3842934
188	0x3d9ede59	0.07757253

l2.weight f4 [119, 189]
0	0xbd21365f	-0.039358493
1	0xbb1affcd	-0.0023651004
2	0xbc618330	-0.013764188
3	0xbdb0614c	-0.08612308
4	0x3d66cffd	0.056350697
5	0x3d9048fb	0.0704517
6	0x3e64d01d	0.22345014
7	0xbe6582ae	-0.22413132
8	0xbe0f81e0	-0.14014387
9	0xbe946028	-0.2897961
10	0x3d1300a0	0.035889268
11	0x3db14ddf	0.08657431
12	0x3c65dd27	0.014029778
13	0x3eb64ca4	0.35605347
14	0xbd4f94ce	-0.05067902
15	0x3d800f4c	0.06252918
16	0x3e0d5224	0.13800865
17	0x3d6dc59f	0.058049794
18	0xbbce7909	-0.0063010496
19	0x3e6b5439	0.22981347
20	0xbc0f39e4	-0.00874183
21	0xbd4f7c53	-0.050655674
22	0x3d95393d	0.07286308
23	0xbd583516	-0.052785
24	0x3ceb609d	0.028732592
25	0x3cad0189	0.021118896
26	0x3e2dddc7	0.16979133
27	0xbdde924e	-0.10867749
28	0xbc9f93de	-0.019479688
29	0xbd046b18	-0.032328695
30	0xbe1e9f65	-0.15490492
31	0xbe8049a2	-0.25056177
32	0x3eb034d2	0.344153
33	0xbda03a0f	-0.07823574
34	0x3eb868bb	0.36017403
35	0xbdcd4bf5	-0.10024253
36	0x3ddc2377	0.10748952
37	0xbd97257e	-0.07380198
38	0xbd7008fa	-0.05860231
39	0x3ca8d9bf	0.020611642
40	0x3eaee9c4	0.34162724
41	0x3dec8c0d	0.1155015
42	0x3e4510ad	0.19244643
43	0xbe6dc23c	-0.23218626
44	0x3e87f6e3	0.26555547
45	0x3d15b64f	0.036550816
46	0x3def1488	0.11673838
47	0x3d010702	0.031500824
48	0x3c81c031	0.015838714
49	0x3db99e40	0.09063387
50	0xbe7caaf6	-0.24674591
51	0x3e335cce	0.17515871
52	0x3c211479	0.009831541
53	0x3cb7b2ac	0.022424065
54	0xbdf4527e	-0.11929797
55	0x3e93167c	0.28728092
56	0x3e54dc02	0.20787051
57	0x3c8e570a	0.017375488
58	0xbc8a52fb	-0.016885271
59	0x3e05525d	0.130197
60	0xbde87e9b	-0.11352273
61	0xbc836a06	-0.016041767
62	0x3d8c011e	0.068361506
63	0xbcdd5ade	-0.027020868
64	0x3cac96d5	0.021068016
65	0x3dc2e954	0.0951716
66	0x3dd7a6c1	0.10529853
67	0x3e28d7dc	0.16488594
68	0xbe8d5fd1	-0.27612165
69	0x3e56ea3a	0.20987788
70	0xbdfe8fc1	-0.12429763
71	0xbdcf6e35	-0.10128442
72	0xbd0c151b	-0.034199815
73	0xbe054e8d	-0.13018246
74	0x3cfaac50	0.030599743
75	0x3e247744	0.16061121
76	0xbe169ba4	-0.1470781
77	0x3e80fbc7	0.2519209
78	0xbde28470	-0.11060417
79	0x3db881b3	0.09009113
80	0xbc3dcc5d	-0.011584369
81	0x3d885c8a	0.066582754
82	0xbda8cc76	-0.08242123
83	0x3df2103e	0.11819504
84	0xbd0585d0	-0.032598317
85	0xbdfbed17	-0.12301081
86	0x3d618850	0.05506164
87	0xbda236d3	-0.07920613
88	0xbd207f54	-0.03918393
89	0xbd6eefcb	-0.058334153
90	0x3e561611	0.20906855
91	0x3caefe05	0.02136136
92	0x3caea21a	0.02131753
93	0xbdf6c188	-0.12048632
94	0x3c3e9b9d	0.011633781
95	0xbd205124	-0.03913988
96	0xbd6e19f4	-0.05813022
97	0x3ecd28b5	0.4007012
98	0xbe36f0c2	-0.1786528
99	0x3ca3ca6b	0.019993981
100	0xbd1bc54c	-0.038029954
101	0x3d28d300	0.04121685
102	0x3c8855ee	0.016642537
103	0xbe05665d	-0.1302733
104	0xbc7f7865	-0.015592669
105	0xbe28e2fa	-0.16492835
106	0xbdb37500	-0.0876255
107	0xbca401bd	-0.02002036
108	0xbce47ecf	-0.027892498
109	0x3ece466c	0.40288103
110	0x3e44ce1a	0.19219247
111	0x3ebf69d2	0.37385422
112	0xbd127ba4	-0.035762444
113	0x3cc9efc8	0.02465047
114	0x3d395f8e	0.045257144
115	0xbd6f3fb3	-0.058410358
116	0x3eb0b390	0.34511995
117	0x3e737b7e	0.23777577
118	0xbd822311	-0.06354345
119	0x3cb84ae3	0.022496646
120	0x3e1b3e06	0.15160379
121	0xbdbbeb72	-0.09175767
122	0xba845511	-0.0010096153
123	0x3d027ea5	0.03185906
124	0x3eb466e1	0.3523474
125	0x3ae99b5d	0.0017822791
126	0x3d2e69f0	0.0425815
127	0x3e4facae	0.20280716
128	0x3e5d8cf1	0.21635796
129	0xbd7a9c0d	-0.061183978
130	0x3e9a9fb6	0.30199975
131	0x3d57d66d	0.052694727
132	0x3d5850e6	0.052811526
133	0xbe0f1640	-0.13973331
134	0x3d475567	0.04866543
135	0x3df4c403	0.11951449
136	0xbd01dc46	-0.03170421
137	0xbd97dbf3	-0.07414999
138	0xbe2b7e1e	-0.16747329
139	0xbe3cae0e	-0.18425772
140	0x3ea20511	0.3164449
141	0x3d62fc0b	0.05541615
142	0x3c13ea50	0.009028032
143	0x3c860c4e	0.01636329
144	0x3e3bc105	0.1833535
145	0x3d6f42df	0.058413383
146	0xbcdf2d37	-0.02724324
147	0x3d03007a	0.031982876
148	0xbd4af714	-0.04955204
149	0xbc0e6b07	-0.0086925095
150	0x3d72505b	0.059158664
151	0x3e88eaf4	0.26741755
152	0x3dd58f89	0.10427768
153	0xbd91e7f6	-0.07124321
154	0x3ec814a1	0.3907824
155	0xbd1033a9	-0.035205517
156	0xbd1b603b	-0.03793357
157	0x3e2b1f05	0.16711052
158	0x3e9c4da6	0.3052799
159	0x3c2d0325	0.010559832
160	0x3d57a133	0.052643966
161	0xbd6d5883	-0.05794574
162	0x3d68226c	0.056673452
163	0x3c33e41c	0.0109796785
164	0x3d056c1d	0.032573808
165	0x3d9a4765	0.07533149
166	0x3ec131cb	0.37733302
167	0x3d9013fe	0.07035063
168	0x3e9023c7	0.28152296
169	0xbe055d06	-0.13023767
170	0x3e1141db	0.14185278
171	0x3e3c965c	0.18416733
172	0xbd8cf3ce	-0.068824396
173	0xba147978	-0.0005663852
174	0x3df38388	0.11890322
175	0x3dab5b40	0.08367014
176	0x3de86a75	0.1134843
177	0xbc997fe4	-0.01873774
178	0x3dd2c262	0.10290982
179	0x3e9055f6	0.28190583
180	0x3d880bca	0.066428736
181	0xbdb7a8f7	-0.08967774
182	0xbd60bdf6	-0.05486866
183	0x3cac963b	0.02106773
184	0x3ca705b0	0.020388454
185	0x3c18cd3a	0.009326274
186	0xbd1d8103	-0.038453113
187	0xbd6f5d3a	-0.058438517
188	0xbd3f880a	-0.046760596
189	0x3da877a4	0.08225945
190	0xbea6e42b	-0.32595953
191	0xbe722f31	-0.23650815
192	0xbe80ff84	-0.25194943
193	0x3ccc5d8f	0.024946956
194	0xbecdd75d	-0.40203372
195	0xbe066c4f	-0.13127254
196	0xbe520ab1	-0.20511891
197	0xbec4bb29	-0.38424042
198	0xbce2edb6	-0.02770124
199	0x3d4d8ae3	0.05018128
200	0xbddea16b	-0.10870632
201	0x3e019c4e	0.12657282
202	0xbeb06369	-0.34450844
203	0xbeed3dfe	-0.4633636
204	0xbe8259dc	-0.25459182
205	0xbdca2977	-0.0987119
206	0xbbf48892	-0.0074625695
207	0xbe38d626	-0.18050441
208	0x3d59002b	0.052978676
209	0xbed93644	-0.42424214
210	0x3e8417b0	0.25799322
211	0xbece1ccc	-0.40256345
212	0xbdd6b07b	-0.1048288
213	0xbe3df88b	-0.18551843
214	0xbe933f87	-0.28759405
215	0xbec49bd7	-0.38400146
216	0x3d8b222b	0.067936264
217	0x3d63f2f5	0.055651624
218	0x3da1b008	0.078949034
219	0x3e1fffb0	0.15624881
220	0xbdc0ac70	-0.0940789
221	0xbebced2c	-0.36899698
222	0xbc21aa60	-0.009867281
223	0x3d56ac49	0.052410398
224	0x3d34a0b8	0.044098586
225	0x3d8b5b2b	0.06804498
226	0x3d97230d	0.07379732
227	0xbcf60a49	-0.030034201
228	0xbe78ca59	-0.2429594
229	0xbec24530	-0.3794341
230	0x3db9c90c	0.0907155
231	0xbf04e963	-0.5191862
232	0xbd210d3e	-0.03931927
233	0xbe3710d7	-0.17877518
234	0xbda59a23	-0.0808604
235	0xbddffeaf	-0.10937249
236	0xbe833bcb	-0.25631556
237	0x3e599c72	0.21251085
238	0xbe4dd55a	-0.20100918
239	0x3db7b6ca	0.08970411
240	0x3ccfac4f	0.025350718
241	0xbedacd02	-0.42734534
242	0xbc7f3b04	-0.015578035
243	0x3e4f8736	0.20266423
244	0x3d9b769d	0.07590983
245	0xbdd6f8b2	-0.104966536
246	0xbb026363	-0.0019895665
247	0x3ea80a11	0.3282018
248	0xbec8765e	-0.39152807
249	0x3e2a18af	0.16610979
250	0xbe9fe14a	-0.3122657
251	0x3e7cfffb	0.24707024
252	0x3e3d310e	0.18475744
253	0x3d9cfc3e	0.07665299
254	0xbe95b1d7	-0.29237244
255	0xbe42ec15	-0.1903537

l2.bias f4 [119]
0	0x3e3a0c81	0.18168832
1	0xbdba113f	-0.09085321
2	0xbe3f39ec	-0.18674439
3	0xbe1e0f3f	-0.15435503
4	0xbcdb3837	-0.026760204
5	0xbe2149ab	-0.15750758
6	0xbe362833	-0.17788772
7	0x3d5224ca	0.051304616
8	0x3db382f5	0.087652124
9	0x3e1dd775	0.15414222
10	0x3e5ae375	0.2137583
11	0xbe321960	-0.17392492
12	0xbaa0f17c	-0.0012278999
13	0x3dbdda26	0.09270124
14	0x3de4ce16	0.1117212
15	0xbdaeb699	-0.085309215
16	0x3c2e6b5a	0.010645712
17	0x3dbf55ae	0.09342514
18	0xbda94b6f	-0.08266341
19	0xbd8ee8fa	-0.069780305
20	0xbd9a0655	-0.07520739
21	0x3dffa10e	0.124818906
22	0x3e01afce	0.1266472
23	0xbba6a0d4	-0.00508509
24	0x3dc6246e	0.09674917
25	0x3e3e8a6e	0.18607494
26	0x3e13778e	0.14401075
27	0x3d5a4a7d	0.053293694
28	0xbd464d1a	-0.048413374
29	0x3ddd0e7a	0.10793777
30	0x3e2ef177	0.17084299
31	0x3cca4b1f	0.024694024
32	0x3d191f83	0.037383568
33	0xbe2d0577	-0.16896616
34	0x3d9d6302	0.076849
35	0x3c90ccaf	0.017675726
36	0xbd2c4c4d	-0.042064954
37	0xbe143987	-0.1447507
38	0x3dd49499	0.10379905
39	0x3e041d83	0.12901883
40	0xbce7d46a	-0.02829953
41	0x3e27b81f	0.1637883
42	0x3cf294c4	0.029611953
43	0x3e11bc09	0.14231886
44	0x3cf806a2	0.0302766
45	0x3e1088ea	0.14114729
46	0xbd602bd6	-0.054729305
47	0x3ce6e68b	0.028186103
48	0x3dc65b07	0.09685331
49	0x3d5e6995	0.05429991
50	0x3e4a3084	0.1974507
51	0xbcbe96c3	-0.023265248
52	0x3ccaf4f1	0.024775
53	0xbc5eb7ba	-0.0135936085
54	0xbe0c46a7	-0.13698827
55	0xbdd7d5b4	-0.105388075
56	0xbdf27206	-0.118381545
57	0x3bafa25e	0.005359932
58	0x3e31349c	0.17305225
59	0x3da1017b	0.078616105
60	0x3da37f1b	0.07983228
61	0x3e658e5b	0.22417586
62	0x3d78e756	0.060767494
63	0x3c2f39ae	0.010694904
64	0xbc9a07ac	-0.018802486
65	0x3e56369d	0.20919271
66	0x3d93f9ae	0.07225357
67	0x3af2fe3b	0.0018538901
68	0xbe383461	-0.17988731
69	0x3e1286d9	0.14309253
70	0x3e3acefa	0.18243018
71	0x3c1e134f	0.009648158
72	0x3d4775c4	0.048696294
73	0x3df0ea8a	0.11763485
74	0x3b848d89	0.0040451926
75	0x3d9bbf5e	0.0760486
76	0xbdc2dfce	-0.095153436
77	0xbc804b5e	-0.015660938
78	0x3d0a62af	0.03378552
79	0x3d7ec76f	0.062201913
80	0x3cfdb85d	0.0309717
81	0x3d8eb20c	0.069675535
82	0x3b5de3aa	0.0033857622
83	0x3d8f6c98	0.070031345
84	0x3dc42fe3	0.09579446
85	0x3e0e9e23	0.13927512
86	0x3e133ad3	0.14377908
87	0x3ea18906	0.31549853
88	0x3c38d1c9	0.011280485
89	0x3db322f8	0.08746904
90	0xbe0b0d25	-0.13579233
91	0x3e19772d	0.14986868
92	0x3c60549a	0.013692046
93	0x3d5de3f6	0.05417248
94	0x3dc3f375	0.0956792
95	0x3d8c19ea	0.0684088
96	0xbd25f246	-0.040514253
97	0x3e374e4c	0.17900962
98	0x3e1ab9ef	0.1510999
99	0x3e11552e	0.1419265
100	0x3e19c365	0.15015943
101	0xbd20c710	-0.03925234
102	0xbd8367e4	-0.064163
103	0x3e20c447	0.15699874
104	0xbdbf0ef2	-0.093290225
105	0x3d8fcda9	0.070216484
106	0x3ba8fa18	0.0051567666
107	0x3c6794c5	0.0141345905
108	0x3d31d8e9	0.043419752
109	0xbc47a192	-0.012184517
110	0x3cbf2092	0.02333096
111	0x3dbcb684	0.092144996
112	0xbcf9265b	-0.030413797
113	0x3d771a0f	0.060327586
114	0x3e66a008	0.22521985
115	0x3c4faacf	0.012675001
116	0x3d8fa63e	0.0701413
117	0xbcbe0086	-0.023193609
118	0x3c3bf416	0.011471769

l3.weight f4 [9, 119]
0	0xbe484dbd	-0.19560905
1	0x3e73f7d6	0.2382501
2	0xbd98b272	-0.07455911
3	0x3f06d51f	0.52668947
4	0x3e52932c	0.20563954
5	0xbe1f1d3a	-0.15538493
6	0x3e661b46	0.22471341
7	0x3e928119	0.2861412
8	0x3e45e861	0.19326927
9	0xbe5de2ea	-0.21668592
10	0x3e3275ed	0.17427798
11	0x3f0cac31	0.54950243
12	0xbe6b8356	-0.2299932
13	0x3ee17844	0.44037068
14	0xbee66d6f	-0.45005366
15	0xbe570f90	-0.2100203
16	0x3dbc1cf7	0.09185212
17	0xbe9c68e7	-0.30548784
18	0xba147836	-0.0005663665
19	0x3f22b50a	0.63557494
20	0x3cefe86c	0.029285632
21	0x3df21e8e	0.11822234
22	0x3e88c79d	0.26714793
23	0x3d4bcf61	0.04975832
24	0x3eb53714	0.35393584
25	0xbe033cf3	-0.12816219
26	0xbe5713c1	-0.2100363
27	0xbe135bde	-0.14390513
28	0x3d319b64	0.043361083
29	0x3dced288	0.100987494
30	0xbe1ced43	-0.15324883
31	0x3e05710e	0.13031408
32	0x3dadafb3	0.084807776
33	0x3ec77b8d	0.3896145
34	0xbc518f16	-0.012790462
35	0x3e1bcfcb	0.15215985
36	0x3da52526	0.08063726
37	0xbdec5160	-0.115389585
38	0xbe968369	-0.29397133
39	0xbd5672fe	-0.05235576
40	0x3e91c005	0.28466812
41	0x3e5ab008	0.21356213
42	0xbd4db092	-0.05021722
43	0x3e189364	0.14899975
44	0xbeb31810	-0.34979296
45	0x3e090c42	0.13383582
46	0x3df24eca	0.11831434
47	0x3dd7d3bb	0.10538431
48	0x3e058093	0.13037328
49	0x3e97cff5	0.29650846
50	0x3e210493	0.15724401
51	0x3dca8697	0.09888952
52	0xbd99cb71	-0.075095065
53	0xbd8e3a8b	-0.0694476
54	0x3e311d62	0.17296365
55	0x3e3d0df1	0.1846235
56	0x3e754762	0.23953012
57	0x3dd9f11c	0.10641691
58	0x3d66d041	0.05635095
59	0x3db7c991	0.089739926
60	0xbdfe26aa	-0.12409718
61	0x3df37aba	0.118886426
62	0xbd24b89a	-0.040215112
63	0x3dc7a34e	0.09747945
64	0x3f2618f0	0.648818
65	0xbd7f95fd	-0.0623989
66	0xbe51f9f5	-0.20505507
67	0xbdc72ece	-0.09725724
68	0x3dad4ec9	0.08462293
69	0x3d41de68	0.047331244
70	0x3e0e0359	0.13868465
71	0x3e62caa6	0.22147617
72	0x3e0e87c7	0.13918982
73	0xbdb5d8fe	-0.088792786
74	0x3f1402a2	0.5781652
75	0x3e1e6e51	0.1547177
76	0xbe16caba	-0.14725772
77	0xbe33a3ed	-0.17543001
78	0xbe32f1ca	-0.17475048
79	0xbe26f19f	-0.16303109
80	0x3d9606f1	0.07325543
81	0x3e897559	0.26847342
82	0xbe4e628b	-0.20154779
83	0x3e154d81	0.14580347
84	0xbe364541	-0.17799856
85	0xbd850cbc	-0.064965695
86	0xbe2baaf3	-0.1676443
87	0xbea0518b	-0.31312212
88	0x3d33e7f3	0.043922376
89	0x3e877a98	0.2646072
90	0x3e6ace7a	0.22930327
91	0x3db64d1b	0.089014255
92	0x3df1b3f4	0.118019015
93	0x3e217d31	0.15770413
94	0xbe3101a5	-0.17285784
95	0x3da2c8b4	0.07948437
96	0xbe0a9e48	-0.13536942
97	0xbef7fbff	-0.48434445
98	0xbe665e0d	-0.22496815
99	0x3ea53067	0.3226349
100	0xbe0c546a	-0.13704076
101	0x3d9998fa	0.07499881
102	0x3e09aa52	0.13443878
103	0xbeafb85c	-0.34320343
104	0xbd985c6d	-0.07439504
105	0x3df0ba16	0.11754243
106	0x3e0d72ca	0.1381332
107	0x3f17192f	0.590228
108	0xbe2eabcd	-0.17057724
109	0xbe354330	-0.17701411
110	0x3f153991	0.58290964
111	0xbe1414d7	-0.14461075
112	0x3e59e48c	0.2127859
113	0xbe77500f	-0.24151634
114	0xbd76d7c2	-0.060264356
115	0x3ec25969	0.3795884
116	0xbdb4d9e8	-0.08830625
117	0xbd971ed4	-0.07378927
118	0xbbfdaf2f	-0.007741831
119	0x3c355135	0.011066725
120	0xbec0ede8	-0.37681508
121	0xbe57f0a0	-0.21087885
122	0x3b900ccd	0.004396057
123	0x3e1899b9	0.1490239
124	0xbea8c59a	-0.32963258
125	0x3e61ff18	0.22069967
126	0xbe3c1f34	-0.18371278
127	0x3ef2d1fa	0.47425824
128	0x3e1c6a38	0.15274894
129	0x3e28e6c9	0.16494288
130	0x3f02c1ca	0.5107695
131	0x3e84a229	0.25904968
132	0xbac64013	-0.0015125297
133	0x3e98199c	0.29707038
134	0xbe515d14	-0.20445663
135	0xbdc76869	-0.097367115
136	0xbd58168f	-0.05275589
137	0x3e17e197	0.1483215
138	0x3db16b4e	0.08663045
139	0x3df58010	0.119873166
140	0x3ed9f407	0.4256899
141	0xbe8fb029	-0.28064087
142	0x3e24aad4	0.16080791
143	0xbe6791ea	-0.22614256
144	0x3daec736	0.0853409
145	0xbe4d687c	-0.20059389
146	0x3e53aba8	0.2067095
147	0x3f06a8f5	0.5260156
148	0x3d953710	0.07285893
149	0x3c874980	0.01651454
150	0x3dc5fd55	0.0966746
151	0x3dd214f1	0.102579005
152	0xbe510f30	-0.2041595
153	0xbe9a47f5	-0.30133024
154	0x3bd912de	0.0066245636
155	0x3e94c8d2	0.29059464
156	0x3e30b8da	0.17258015
157	0xbea83aea	-0.32857448
158	0x3e717660	0.23580313
159	0xbc43b929	-0.011946001
160	0x3e81e0e8	0.25366902
161	0x3e207af6	0.15671906
162	0x3c8d7632	0.017268274
163	0x3ecab257	0.39589188
164	0x3d8baa3e	0.068195805
165	0xbe41462f	-0.18874429
166	0x3ea268bd	0.31720534
167	0xbeedb296	-0.46425313
168	0xbd5438e8	-0.051812083
169	0x3e0e97e7	0.13925134
170	0x3e537618	0.20650518
171	0xbe000cde	-0.12504908
172	0xbe2da641	-0.16957952
173	0x3e65d131	0.22443081
174	0xbeb1ebd4	-0.34750235
175	0x3e73d280	0.23810768
176	0x3e5228dc	0.20523399
177	0x3e62fd4e	0.2216694
178	0x3e096b18	0.1341976
179	0x3d9b88a4	0.075944215
180	0x3e33cfbe	0.17559716
181	0xbdc879d2	-0.097888604
182	0x3eb1c2ca	0.34718925
183	0x3e29e76b	0.16592185
184	0x3da6c8ca	0.08143766
185	0xbe9989e8	-0.29988027
186	0x3de9574a	0.11393602
187	0xbe588d10	-0.21147561
188	0x3dd85c04	0.105644256
189	0x3d6de340	0.05807805
190	0x3e5c8d37	0.21538244
191	0x3e93c605	0.28862014
192	0xbc7c2d41	-0.015391649
193	0x3ed6ba38	0.4193895
194	0xbe645e06	-0.22301492
195	0x3cc07ee7	0.023498012
196	0x3ec2ff95	0.3808562
197	0x3d6ff11a	0.05857954
198	0x3ca2f03a	0.01988994
199	0x3e81da84	0.25362027
200	0xbea6bf6b	-0.32567915
201	0xbe2da7ed	-0.1695859
202	0x3d322ab2	0.04349775
203	0x3e181e12	0.14855221
204	0x3dbc4508	0.09192854
205	0x3d992b26	0.07478933
206	0xbe9d0543	-0.30668077
207	0xbc5990d6	-0.0132791605
208	0x3e83e3af	0.25759646
209	0x3e467a75	0.19382651
210	0x3e3e0ada	0.18558827
211	0x3e0fbf15	0.14037736
212	0x3e794778	0.2434367
213	0xbd2a00b2	-0.04150457
214	0xbe2542a1	-0.16138698
215	0xbdf16e81	-0.11788655
216	0xbe9610bf	-0.2930965
217	0x3f1fcd34	0.6242249
218	0xbdc98281	-0.09839345
219	0xbe927d70	-0.28611326
220	0xbdb949b6	-0.09047262
221	0x3e4743bb	0.19459431
222	0xbebf8282	-0.37404257
223	0x3be5d8b2	0.0070143575
224	0x3e0ab5be	0.13545892
225	0xbd83026e	-0.06396948
226	0x3ee5adc9	0.4485915
227	0x3e039ffd	0.12854
228	0x3de0bb87	0.10973268
229	0x3e2370ed	0.15961047
230	0x3e88eb74	0.26742136
231	0x3e4426d1	0.19155432
232	0x3e13c10c	0.1442911
233	0x3da841a0	0.08215642
234	0xbe618160	-0.22022009
235	0x3ea9ebb4	0.3318764
236	0x3e12c493	0.143328
237	0x3e197c83	0.14988904
238	0x3d2880ae	0.041138344
239	0x3e774596	0.24147639
240	0x3ec07e59	0.37596396
241	0xbe1ad225	-0.15119226
242	0x3e54a702	0.20766833
243	0xbe307262	-0.17231134
244	0x3e55f6b3	0.2089489
245	0x3e324239	0.17408074
246	0x3bcb8126	0.006210464
247	0x3cb1607f	0.021652458
248	0x3da7f6d3	0.08201375
249	0xbecdd76c	-0.40203416
250	0x3e698dd0	0.22808003
251	0xbd1cd215	-0.038286287
252	0x3e2a6c19	0.16642798
253	0x3ee2a01f	0.44262788
254	0xbd5653bc	-0.05232595
255	0xbe3516a9	-0.17684425

l3.bias f4 [9]
0	0x3d1bfa49	0.038080487
1	0x3e89574a	0.2682441
2	0x3e5ab08b	0.21356408
3	0x3d9dbabd	0.07701633
4	0x3e3b6404	0.18299872
5	0x3e1a2171	0.1505182
6	0x3e2426e2	0.16030458
7	0x3e7c23f1	0.24623086
8	0x3ded5f01	0.11590386

l4.weight f4 [53, 9]
0	0xbda4a8f0	-0.08040035
1	0x3ef400d4	0.47656882
2	0x3f067882	0.5252763
3	0x3e3357e2	0.17513993
4	0x3f953f11	1.1659871
5	0xbdfd5ff4	-0.12371817
6	0xbf65696d	-0.8961399
7	0x3faf1987	1.3679665
8	0x3ec06ede	0.37584585
9	0x3dc9d05d	0.09854195
10	0x3f195447	0.5989422
11	0xbee245d7	-0.4419391
12	0x3f4314b7	0.76203483
13	0x3f7a902b	0.9787623
14	0x3f321f1c	0.6957872
15	0x3f61822a	0.8808924
16	0x3d3fa99d	0.046792615
17	0x3f1095a7	0.5647835
18	0xbf02650a	-0.50935423
19	0x3ecb1e0d	0.39671364
20	0x3ed7763b	0.4208239
21	0x3efe8979	0.49714258
22	0x3fabf4d7	1.3434094
23	0x3ebb2a3c	0.3655566
24	0xbe5c0b02	-0.21488574
25	0x3fbed4d4	1.49087
26	0x3f13f647	0.57797664
27	0x3f1c10e6	0.60963285
28	0xbda2c72b	-0.079481445
29	0xbdeef874	-0.116684824
30	0x3f943040	1.1577225
31	0xbd973534	-0.073831946
32	0x3f4c44c0	0.79792404
33	0x3fe8c438	1.8184881
34	0x3e5f2d2c	0.21794575
35	0x3f5a4eaa	0.8527628
36	0xbf07fb9a	-0.5311829
37	0x3f322ed5	0.6960271
38	0x3e3d88dd	0.1850924
39	0x3f1bf164	0.6091521
40	0x3ff5b980	1.9197235
41	0x3f2e1df0	0.6801443
42	0xbe979e5b	-0.29613003
43	0x3f949363	1.1607479
44	0x3f08ea46	0.5348247
45	0x3ef28c4b	0.4737266
46	0x3f5fc962	0.8741666
47	0x3ec66947	0.38752195
48	0xbf940a3e	-1.1565626
49	0xbf043755	-0.5164693
50	0xbf335e47	-0.7006573
51	0xbca03f37	-0.019561393
52	0xbde0ebc1	-0.109824665
53	0xbf926a66	-1.143872
54	0x3e1d7f38	0.15380561
55	0xbee7b2ad	-0.45253506
56	0x3f407366	0.75176084
57	0x3f2fce24	0.6867392
58	0x3ea27468	0.31729436
59	0x3f755fd3	0.9584934
60	0x3ebe2af7	0.37142155
61	0x3f6b53cc	0.9192474
62	0x3f2c4a32	0.67300713
63	0x3e3bb59c	0.18330997
64	0xbece75da	-0.4032429
65	0x3f26ae71	0.65109926
66	0x3e2f4184	0.17114836
67	0x3e487ed6	0.19579634
68	0x3f71a9c6	0.9439968
69	0x3f214d69	0.63008744
70	0x3f920ff3	1.1411117
71	0x3ed36049	0.41284397
72	0x3f14d186	0.5813221
73	0xbd8d175e	-0.068892226
74	0x3e69f4ae	0.22847244
75	0x3f6beb51	0.9215594
76	0xbddfd0af	-0.10928475
77	0x3f2146d9	0.6299873
78	0x3fbcd319	1.4751922
79	0x3ea36401	0.31912234
80	0x3eed226b	0.4631532
81	0x3ef86ecf	0.4852204
82	0x3ed65958	0.4186504
83	0xbee8618f	-0.4538693
84	0x3f7e6d4f	0.9938554
85	0x3ea956a7	0.33073923
86	0x3ed2878c	0.4111904
87	0x3f874939	1.0569221
88	0xbd5e6148	-0.054291993
89	0x3f47b241	0.7800637
90	0xbef38439	-0.47561815
91	0x3e64f884	0.22360426
92	0x3f29c2ed	0.6631306
93	0x3e25594c	0.16147345
94	0x3f9e5651	1.2370092
95	0x3e7aafb6	0.24481091
96	0xbf07fa6a	-0.53116477
97	0x3fb6218e	1.422899
98	0x3f5f70f5	0.87281734
99	0xbeed61bf	-0.46363637
100	0x3ebfbfa4	0.37450898
101	0x3e9f4bd2	0.31112534
102	0x3eebcfdb	0.4605702
103	0x3fa74aac	1.3069663
104	0x3f31138d	0.6917046
105	0xbcd94e88	-0.026526704
106	0x3fa90fc2	1.3207934
107	0x3f88dff2	1.0693343
108	0x3f622e6c	0.88352084
109	0x3f277237	0.65408653
110	0x3e9afeef	0.30272624
111	0xbfa087f3	-1.2541488
112	0xbf7e63d9	-0.99371105
113	0xbf218f5a	-0.6310936
114	0x3e5c5825	0.21518
115	0xbe010515	-0.12599595
116	0xbf9f2c39	-1.2435371
117	0x3f0c49c5	0.54800063
118	0x3e1d6326	0.15369853
119	0xbea447c2	-0.32085997
120	0x3f8f0c0b	1.117555
121	0x3f2574a3	0.646311
122	0x3f8a3ba3	1.079945
123	0x3fa321fa	1.2744744
124	0x3e6df605	0.2323838
125	0x3f55f1c3	0.83572024
126	0xbee32bea	-0.4436944
127	0x3f08f0f3	0.5349266
128	0x3e130de6	0.1436077
129	0x3f35d162	0.7102262
130	0x3fe7118d	1.8052231
131	0x3f1a3281	0.6023331
132	0xbe6d7f69	-0.23193134
133	0x3f8a6379	1.0811607
134	0x3f2cb631	0.674655
135	0xbe85dc07	-0.2614443
136	0x3ee9e147	0.45679685
137	0x3ddb6948	0.1071344
138	0x3e6f4973	0.23367862
139	0x3ff5e842	1.9211504
140	0x3ed05a91	0.40694097
141	0xbee68330	-0.45021963
142	0x3f4bf22c	0.796664
143	0x3f6736d4	0.90318036
144	0xbef984e8	-0.48734212
145	0x3efd2389	0.49441174
146	0x3e381802	0.17977908
147	0x3f94c453	1.1622413
148	0x3f9a0448	1.2032557
149	0x3f0a379b	0.539911
150	0x3e76ca3c	0.24100584
151	0x3f3379f3	0.70107955
152	0x3f42ef6d	0.76146585
153	0xbdeedfc7	-0.11663776
154	0x3f1552ed	0.5832966
155	0xbcd174bc	-0.025568359
156	0x3f49340d	0.7859505
157	0x3fba8692	1.4572318
158	0x3f5efe5c	0.8710687
159	0x3e518dbf	0.20464228
160	0x3f225273	0.6340706
161	0x3f604b2c	0.87614703
162	0x3e505dd8	0.20348299
163	0x3eae1783	0.34002313
164	0xbeb404e5	-0.35159984
165	0x3f91fc1e	1.1405065
166	0x3f7a1da5	0.97701484
167	0x3f64343c	0.89142203
168	0x3f11129f	0.5666904
169	0x3ebb9945	0.36640373
170	0x3f25df2c	0.6479366
171	0xbe738532	-0.23781279
172	0x3ed85028	0.42248654
173	0xbd228d68	-0.039685637
174	0x3fa11fa3	1.258778
175	0x3fe066b2	1.753134
176	0x3f4e68e1	0.8062878
177	0x3d9b100b	0.07571419
178	0x3eed64e2	0.4636603
179	0x3f8daf4a	1.1069119
180	0xbebdf51f	-0.37101075
181	0x3dd81929	0.10551674
182	0x3f0f86db	0.5606515
183	0x3f32774f	0.697133
184	0x3fb5578b	1.4167341
185	0x3f1b2133	0.60597533
186	0xbe92c23c	-0.28663814
187	0x3f7c2fae	0.98510253
188	0x3f5762d1	0.84135157
189	0xbe5133d2	-0.20429924
190	0x3e3a70dc	0.18207115
191	0x3f456245	0.7710307
192	0xbe9c7c3c	-0.30563533
193	0x3f5af91c	0.8553636
194	0x3de06e1a	0.109585
195	0xbed6cdf1	-0.41953996
196	0x3f635895	0.8880704
197	0x3ee49dca	0.44651634
198	0xbe748df1	-0.23882271
199	0x3eb687e4	0.3565055
200	0x3dfe79c2	0.12425567
201	0x3f559744	0.8343394
202	0x3fdb4ecb	1.7133421
203	0x3ee617f1	0.4494014
204	0xbeff8d78	-0.4991262
205	0x3f907edd	1.1288716
206	0x3f4de21d	0.80423146
207	0xbe2c4c99	-0.16826095
208	0x3f3a5a28	0.7279382
209	0xbeb581fa	-0.35450727
210	0x3f69b623	0.91293544
211	0x3fad04c3	1.3517078
212	0x3ea93f58	0.3305614
213	0x3f422520	0.758379
214	0x3e86929d	0.26283732
215	0x3f57422a	0.84085333
216	0x3d722666	0.05911865
217	0xbec771b9	-0.3895395
218	0x3f3eaf38	0.7448611
219	0x3eb27b17	0.34859535
220	0x3e0995ac	0.13436002
221	0x3f846beb	1.0345434
222	0x3ed80398	0.42190242
223	0x3f87c282	1.0606234
224	0x3f52e75d	0.8238428
225	0xbb3a1fcb	-0.0028400298
226	0x3f3880d8	0.720716
227	0xbec7e328	-0.39040494
228	0x3edfdae1	0.4372168
229	0x3f423119	0.7585617
230	0x3e4250a3	0.18976073
231	0x3e9b7b9c	0.30367744
232	0x3e155a38	0.14585197
233	0x3f4d4dd4	0.8019688
234	0xbe8e439f	-0.27785966
235	0xbc936008	-0.017990127
236	0x3f02c704	0.51084924
237	0x3f074f51	0.528554
238	0x3f5619f5	0.8363336
239	0x3ef14a07	0.4712679
240	0x3a267f1f	0.000635134
241	0x3f82c867	1.0217408
242	0x3f82183b	1.0163645
243	0x3e9f1965	0.31074062
244	0xbe365fc9	-0.17809977
245	0x3d659735	0.056052405
246	0x3fa9b9f3	1.3259872
247	0x3f57647c	0.841377
248	0x3f9fa88c	1.2473311
249	0x3f3c566b	0.73569363
250	0x3e9ee49b	0.31033787
251	0x3fbed5fd	1.4909054
252	0xbdb8752f	-0.09006726
253	0xbe35a43a	-0.17738429
254	0x3f6502cf	0.8945741
255	0xbe213c64	-0.15745693

l4.bias f4 [53]
0	0x3f1996a0	0.5999546
1	0x3ee8c797	0.45464775
2	0x3f22caa8	0.6359048
3	0x3e04d203	0.12970738
4	0x3edf62e7	0.43630144
5	0x3fbcc7ae	1.4748437
6	0xbc48fe21	-0.01226762
7	0x3eb8d0a0	0.36096668
8	0xbe59abdf	-0.2125697
9	0xbc9ee704	-0.019397266
10	0x3f0e8b82	0.5568162
11	0x3eda6bc0	0.42660332
12	0x3ffba7ca	1.966058
13	0xbeaada15	-0.33369508
14	0x3f15aee5	0.5846999
15	0x3ec531d9	0.38514593
16	0x3f10de45	0.56589156
17	0x3e616ce0	0.22014189
18	0x3e7cccd5	0.24687512
19	0x3ec6b60c	0.38810766
20	0x3e02f2a9	0.1278788
21	0x3f3669ab	0.71254987
22	0xbc72c60d	-0.014817727
23	0x3f017f33	0.50584716
24	0x3e026fc1	0.12737943
25	0x3f38827c	0.72074103
26	0x3e7f96fb	0.24959938
27	0xbb810b06	-0.0039380817
28	0x3f06a3e6	0.5259384
29	0x3e8f35b5	0.27970663
30	0x3f29d0dd	0.66334325
31	0xbe72485c	-0.23660415
32	0x3db0cfb6	0.08633368
33	0xbf02e66d	-0.5113285
34	0xbe6f23fe	-0.23353574
35	0x3d9bf040	0.076141834
36	0xbc8923b5	-0.01674066
37	0x3dc2e42e	0.09516178
38	0x3e29f542	0.16597465
39	0x3f35f67a	0.7107922
40	0x3f06aaf1	0.52604586
41	0xbd3dd301	-0.046343807
42	0xbcc8bd70	-0.024504393
43	0x3e5e8cea	0.21733442
44	0x3dd302b0	0.10303247
45	0xbd32efb1	-0.04368562
46	0x3ebb716d	0.36609975
47	0xbdb53f4d	-0.08849964
48	0xbee62928	-0.44953275
49	0x3e163031	0.14666821
50	0xbe9de671	-0.30839875
51	0x3e8c9df8	0.2746427
52	0xbe862ea4	-0.2620746

l5.weight f4 [85, 53]
0	0xbdae5d95	-0.08513943
1	0x3f733356	0.9500021
2	0xbdcc3e38	-0.09972805
3	0x3ef60371	0.480495
4	0x3d7afdb4	0.061277106
5	0x3e1a4f55	0.15069325
6	0xbf2cfc6f	-0.67572683
7	0xbe93ce9a	-0.28868562
8	0x3e699489	0.22810568
9	0x3f7cf0d6	0.98804986
10	0xbe4b69b0	-0.19864535
11	0x3c675022	0.014118226
12	0x3e1a5cc5	0.15074451
13	0x3f106cb4	0.5641587
14	0x3e544523	0.20729499
15	0x3db2762c	0.08713946
16	0x3e96e0c6	0.29468364
17	0x3e78d2e5	0.242992
18	0x3f1c2583	0.6099474
19	0x3ee8c39f	0.45461747
20	0xbe2d89bc	-0.16947073
21	0xbdf97e2c	-0.121822685
22	0xbc54885f	-0.0129719665
23	0x3f86b254	1.0523171
24	0xbf15f03d	-0.585697
25	0x3f37302c	0.7155788
26	0xbeb5a011	-0.35473683
27	0x3e0dc613	0.1384509
28	0xbf0c9fd6	-0.5493139
29	0x3ec994e1	0.39371398
30	0x3f5a5dbd	0.85299283
31	0xbd20ff17	-0.039305773
32	0x3f36db74	0.7142861
33	0x3cee01b6	0.02905355
34	0x3e8e1d14	0.2775656
35	0x3ee24730	0.44194937
36	0x3f01efcd	0.5075653
37	0x3c74af15	0.014934321
38	0x3f4f7828	0.8104272
39	0xbe234da7	-0.15947591
40	0x3f62ba00	0.88565063
41	0x3f173802	0.59069836
42	0x3eb5f51c	0.35538566
43	0xbeca6316	-0.39528722
44	0xbdea8473	-0.11451044
45	0x3dd0071d	0.10157607
46	0x3ebcb36d	0.3685564
47	0x3f04b182	0.51833355
48	0xbd1046b4	-0.035223678
49	0xbeb9be25	-0.3627788
50	0x3e7c5aec	0.24644059
51	0x3d9686a7	0.07349902
52	0xbb961a25	-0.0045807534
53	0xbd2faee7	-0.04289141
54	0x3f4405b8	0.76571226
55	0xbdc69298	-0.09695929
56	0x3ef8e9d6	0.48615903
57	0x3e643f75	0.22289832
58	0xbf530323	-0.8242666
59	0xbe60c796	-0.21951136
60	0xbdc8266f	-0.097729556
61	0x3e107b2c	0.14109486
62	0x3f3811b7	0.7190203
63	0xbe8e869e	-0.2783708
64	0x3e55d6f9	0.20882787
65	0xbf5dd297	-0.8664946
66	0x3f25ac02	0.6471559
67	0x3e86e8d3	0.26349506
68	0x3cd49c9e	0.025953587
69	0x3eb6777d	0.35638037
70	0x3e895ac3	0.26827058
71	0x3f3098b3	0.68983
72	0x3f34e5bc	0.70663047
73	0x3db321c8	0.08746678
74	0xbe867211	-0.262589
75	0x3e828fca	0.25500327
76	0x3f3a1173	0.72682875
77	0xbe377d60	-0.1791892
78	0x3edc24bb	0.42996773
79	0xbdbdfa1f	-0.092762224
80	0x3f0b4225	0.54397804
81	0xbed84e5b	-0.4224728
82	0x3e0325f7	0.12807451
83	0x3eee867d	0.4658698
84	0xbdc859ea	-0.09782775
85	0x3f677042	0.90405667
86	0x3f01bf22	0.5068227
87	0x3f0a99d8	0.54140997
88	0x3f4d4f10	0.80198765
89	0x3f5b1108	0.8557286
90	0xbd5441b8	-0.051820487
91	0x3eb3c812	0.3511358
92	0xbdc43b35	-0.09581605
93	0x3f3f3de6	0.74703825
94	0x3f5509b7	0.8321795
95	0x3f67a9e2	0.90493596
96	0xbc96bbb8	-0.018400058
97	0x3cb2c5ce	0.021822836
98	0x3ed0e40d	0.4079899
99	0x3e57dd2f	0.21080469
100	0x3f54e22a	0.831576
101	0x3e83ca9c	0.25740516
102	0xbd70a316	-0.05874928
103	0x3f1ebb41	0.62004477
104	0xbd034d4b	-0.032056134
105	0x3ebb3319	0.36562422
106	0xbda5c265	-0.080937184
107	0x3f33f7ef	0.7030019
108	0xbdb21a79	-0.086964555
109	0x3f112e7b	0.5671155
110	0xbcd25375	-0.025674561
111	0xbf2a1aff	-0.6644744
112	0xbe673dcd	-0.22582169
113	0xbd778475	-0.060429055
114	0x3e75b50b	0.23994844
115	0x3f04dad0	0.5189638
116	0xbe3b7c1e	-0.18309066
117	0x3d235063	0.039871585
118	0xbf4ade72	-0.79245675
119	0x3f3d32c9	0.73905617
120	0x3e71ab82	0.23600581
121	0x3dd5da03	0.10441973
122	0x3e95aa54	0.29231513
123	0x3e1f1ac2	0.15537551
124	0x3f0e01d3	0.55471534
125	0x3ef2922e	0.4737715
126	0xbe1d12ed	-0.15339251
127	0xbea65fa1	-0.32494834
128	0x3e266713	0.16250257
129	0x3f115e05	0.5678409
130	0xbe370a42	-0.17875007
131	0x3eaccd1d	0.3375024
132	0xbc5e2bd7	-0.013560257
133	0x3f0ca852	0.54944336
134	0xbec27dca	-0.37986594
135	0x3b3339c6	0.0027347668
136	0x3ec9bc14	0.39401305
137	0x3e01870a	0.1264917
138	0x3f43a5fd	0.76425153
139	0x3f4448a6	0.7667335
140	0x3ed6dbf4	0.41964686
141	0x3f55662d	0.8335903
142	0x3f73a516	0.95173776
143	0xbd83d52d	-0.064371444
144	0x3f0c4af5	0.54801875
145	0xbd49066e	-0.049078397
146	0x3f35234a	0.7075697
147	0x3f4580a7	0.7714943
148	0x3f72f86f	0.9491033
149	0x3ddfdc41	0.10930682
150	0xbe58da42	-0.21177009
151	0x3ed2b510	0.41153765
152	0x3e9e1a07	0.30879232
153	0x3f3be469	0.733954
154	0x3e22923d	0.15876098
155	0xbdd5008a	-0.104004934
156	0x3f0f0f43	0.5588266
157	0x3da03f4c	0.07824573
158	0x3ea92fe0	0.33044338
159	0x3d08e720	0.033423543
160	0x3e9ba324	0.30397904
161	0x3eda53ae	0.42641968
162	0xbdb4cf22	-0.0882857
163	0x3efd9333	0.49526367
164	0xbf34fb37	-0.70695823
165	0x3e171800	0.14755249
166	0x3dd4f7c9	0.10398824
167	0xbda1324d	-0.07870922
168	0x3dbf71e4	0.09347895
169	0x3f06cd0a	0.52656615
170	0x3f071842	0.5277139
171	0xbf84919b	-1.0356935
172	0x3e3031d7	0.17206512
173	0x3f38a982	0.7213365
174	0x3e960fca	0.2930892
175	0x3f30f347	0.6912121
176	0x3e714fbf	0.23565577
177	0x3e82b561	0.25529006
178	0x3f41f57a	0.7576519
179	0x3f0edc28	0.5580468
180	0x3e05afbb	0.13055317
181	0x3eda5441	0.42642406
182	0x3f2f81ef	0.6855764
183	0x3da50b18	0.080587566
184	0x3ead3049	0.338259
185	0x3f03c44b	0.51471394
186	0x3eb74edb	0.3580235
187	0x3d52e4c0	0.051487684
188	0x3d0c9665	0.034323115
189	0xbe8f9c9e	-0.28049177
190	0xbdb579f1	-0.08861149
191	0x3f563535	0.8367494
192	0x3e3b1189	0.18268408
193	0x3e99525a	0.29945642
194	0x3ec463b9	0.38357332
195	0x3f16a29d	0.5884188
196	0x3d5ba38f	0.05362278
197	0x3f01e09c	0.5073335
198	0x3d1e44ba	0.03863976
199	0x3e95a623	0.29228315
200	0x3e9d4d28	0.30722928
201	0x3f2c35b3	0.6726944
202	0x3f0a906d	0.54126626
203	0x3ec95c39	0.39328173
204	0x3ecdbfe4	0.40185463
205	0x3d4ad970	0.04952377
206	0x3e119e01	0.1422043
207	0x3d33d678	0.043905705
208	0xbd36f941	-0.0446713
209	0x3d52b27d	0.05143975
210	0x3ea51fc3	0.32250795
211	0x3e5dd9eb	0.2166516
212	0xbe0f4905	-0.13992698
213	0x3eab7ab9	0.33492067
214	0xbe2b31ed	-0.16718264
215	0x3f2651ae	0.64968383
216	0xbdacd3f6	-0.08438866
217	0xbf8299f6	-1.0203235
218	0x3ec9f962	0.39448076
219	0x3ec6e558	0.3884685
220	0x3e98ae0d	0.2982029
221	0x3e9165c0	0.28397942
222	0xbe232888	-0.1593343
223	0x3e75463e	0.23952577
224	0xbf8d4475	-1.1036516
225	0x3ed76867	0.4207184
226	0x3d07e381	0.03317595
227	0x3e0bb6a9	0.13643898
228	0xba4ddda3	-0.0007853156
229	0x3e098e88	0.13433278
230	0x3f122552	0.57088196
231	0x3ead1a9d	0.33809367
232	0x3e8c0f93	0.27355632
233	0xbdb89b06	-0.090139434
234	0x3da8b83d	0.08238266
235	0x3e78ef1f	0.24309967
236	0x3ea9d0c9	0.33167103
237	0x3cd3288e	0.025776174
238	0x3ea89ed3	0.32933673
239	0x3f4a588a	0.7904135
240	0xbda45a68	-0.08025056
241	0x3c7f9b31	0.015600965
242	0x3e508096	0.20361552
243	0x3e51f736	0.2050446
244	0x3eda423b	0.42628655
245	0x3f6ef1b5	0.93337566
246	0x3f162212	0.5864574
247	0x3f793eb8	0.97361326
248	0x3f5ae572	0.85506356
249	0xbe31d951	-0.17368056
250	0x3c772409	0.015084275
251	0x3bfeb221	0.0077726995
252	0x3eade297	0.33961937
253	0x3f61cb63	0.8820097
254	0x3f467305	0.77519256
255	0x3f1f2900	0.62171936

l5.bias f4 [85]
0	0x3e66012c	0.22461385
1	0xbf5d28da	-0.8639046
2	0xbf1cdbc1	-0.6127282
3	0xbf5022e5	-0.81303245
4	0xbf475f36	-0.77879655
5	0x3ea033f5	0.3128964
6	0xbf1dbc29	-0.61615235
7	0xbf171aaa	-0.5902506
8	0x3e412c01	0.18864442
9	0x3f30fff3	0.6914055
10	0xbf3004bd	-0.6875723
11	0xbf1b63d8	-0.60699224
12	0x3f9c73cf	1.2222842
13	0xbf408555	-0.7520345
14	0xbf409790	-0.75231266
15	0x3f85cc9b	1.0453066
16	0xbf14cb3c	-0.5812261
17	0xbf5fa1cc	-0.8735626
18	0xbf76ab16	-0.96354806
19	0x3f33e501	0.7027131
20	0xbf5d04c1	-0.8633538
21	0x3f9310a5	1.1489455
22	0xbf394e0f	-0.7238473
23	0xbf0da259	-0.5532585
24	0xbf4c6dc0	-0.79854965
25	0x3ea328a6	0.3186695
26	0x3f0ced96	0.5505003
27	0x3f0628b1	0.5240584
28	0x3e46f265	0.19428404
29	0x3f5640a9	0.83692414
30	0x3e8d4553	0.27591953
31	0xbee26559	-0.44217947
32	0xbf0f7963	-0.56044596
33	0xbf118501	-0.5684357
34	0x3eaf06ef	0.34184977
35	0xbe4a1257	-0.19733559
36	0x3e2b895f	0.16751622
37	0xbf0d2d44	-0.55147195
38	0xbf0a1a49	-0.5394636
39	0xbe9f64f0	-0.31131697
40	0xbf31ac4e	-0.6940354
41	0x3e6bd091	0.2302878
42	0x3e5efea5	0.21776827
43	0xbf514835	-0.81750804
44	0x3d90c75f	0.07069277
45	0xbf4887a2	-0.7833196
46	0x3ec2631c	0.3796624
47	0xbf3a1f9b	-0.72704476
48	0xbf177e25	-0.59176856
49	0xbf0aaf54	-0.5417378
50	0xbf2c9f57	-0.67430633
51	0xbf31cd49	-0.69453865
52	0xbedf5b22	-0.43624216
53	0x3e8fa332	0.28054196
54	0x3e9d0bc8	0.3067305
55	0xbf1845dd	-0.594816
56	0xbf45ed4d	-0.7731522
57	0x3e3bdcf3	0.18346004
58	0xbf67c0ad	-0.90528375
59	0xbee637cc	-0.44964445
60	0x3f4763eb	0.7788684
61	0x3f6cf739	0.9256473
62	0xbf461177	-0.773704
63	0x3f87a94b	1.0598539
64	0xbf30e037	-0.69092125
65	0xbed332be	-0.4124965
66	0xbee4c76b	-0.44683394
67	0x400c426c	2.191554
68	0x3fbf8246	1.4961631
69	0x3f11ad32	0.569049
70	0x3ed79970	0.4210925
71	0x3dd5bd62	0.104365125
72	0x3f458fd4	0.7717259
73	0x3f48bbae	0.78411376
74	0xbf240c31	-0.640811
75	0xbf1688c0	-0.58802414
76	0xbf46d18b	-0.7766349
77	0xbf424532	-0.75886834
78	0x3f8d0679	1.10176
79	0xbeedc562	-0.46439654
80	0x3e21cfee	0.15801975
81	0x3eb4239f	0.35183427
82	0xbf39e766	-0.7261871
83	0xbf158565	-0.5840667
84	0xbf01cc48	-0.50702333
