models/Others/model_PGNN_100000_1e-3.pt (torch, 127233 bytes, 12 tensors)

l1.weight f4 [189, 9]
0	0xbd84bf3c	-0.064817876
1	0xbde380f1	-0.11108578
2	0x3ee19e1d	0.44065943
3	0x3e4ef5ce	0.20210955
4	0xbfdfc4d9	-1.7481948
5	0x3ef4b924	0.477975
6	0xbe3831c3	-0.17987733
7	0x3dc21a97	0.09477728
8	0xbe16c0e6	-0.14722022
9	0xbbc56650	-0.0060241595
10	0x3fab227c	1.3369899
11	0xbf52312d	-0.82106286
12	0xbe182de6	-0.14861259
13	0xbf4a84ec	-0.7910907
14	0xbfb27b13	-1.3943809
15	0x3f8f4a21	1.1194497
16	0xbf6f958d	-0.9358757
17	0x3e3106c9	0.17287745
18	0xbf988984	-1.1916966
19	0x3d7edb5a	0.06222091
20	0xbe2b2f0b	-0.16717164
21	0xbcf71beb	-0.03016468
22	0x3e66e63a	0.22548762
23	0x3eb1196e	0.34589714
24	0x3eb3f21b	0.3514565
25	0x3d6a0b32	0.057139583
26	0x3e8c519c	0.27406013
27	0x3cc7f159	0.024407076
28	0x3ef2eec3	0.47447786
29	0x3f7e83ab	0.9941966
30	0xbf5f239f	-0.8716373
31	0xbee90bed	-0.4551691
32	0xbea2f29e	-0.31825727
33	0xbf67dfde	-0.9057597
34	0xbf051c0f	-0.5199594
35	0xbf1fdd63	-0.62447184
36	0x3d916fb9	0.071013875
37	0x3d16ceb1	0.03681821
38	0xbfc998fa	-1.574981
39	0xbe15520b	-0.14582078
40	0x3e6887dc	0.22708076
41	0xbe519e67	-0.20470582
42	0xbf5c2743	-0.8599741
43	0xbf0f4137	-0.55958885
44	0x3d719469	0.058979426
45	0x3cc4badd	0.024014885
46	0xbfab8db3	-1.3402618
47	0x3d8f4475	0.06995479
48	0xbf1acf3c	-0.60472465
49	0xbed5ef93	-0.41784343
50	0xbfab73b1	-1.3394681
51	0x3ddc027e	0.10742663
52	0x3e853830	0.2601943
53	0xbebec93a	-0.372629
54	0x3be832e4	0.0070861448
55	0xbe3d58ed	-0.18490954
56	0x3f8c9858	1.0983992
57	0xbf731257	-0.9494986
58	0xbf4acc12	-0.79217637
59	0x3f573969	0.84071976
60	0xbed4837c	-0.41506565
61	0xbe9a9a70	-0.3019595
62	0xbe140374	-0.14454442
63	0xbc108786	-0.008821374
64	0xbe3b90d2	-0.18316963
65	0xbf39899c	-0.724756
66	0xbf65a940	-0.8971138
67	0x3ceb3b03	0.028714662
68	0xbf618fba	-0.88109934
69	0x3daae8ec	0.083452076
70	0xbdff7265	-0.12472991
71	0x3c4685c4	0.012116853
72	0x3cb03674	0.02151034
73	0xbf75014f	-0.9570512
74	0xbf94e804	-1.1633306
75	0xbea8206a	-0.3283723
76	0xbe3bdfab	-0.18347041
77	0xbf50a4db	-0.8150155
78	0x3fb28e89	1.3949748
79	0x3f68e181	0.9096909
80	0x3e0a0ea8	0.13482153
81	0x3cb30789	0.021854179
82	0xba82fae4	-0.0009992984
83	0x3f1a49b6	0.60268724
84	0xbf9d2b3a	-1.2278817
85	0x3f830f56	1.0239055
86	0x3f83263d	1.0246044
87	0xbf149ace	-0.58048713
88	0x3e8f7a25	0.28022876
89	0xbeece91b	-0.46271595
90	0x3d3d05b6	0.046148024
91	0xbe0c8412	-0.13722256
92	0x3f8855d8	1.0651197
93	0x3e5ae8c6	0.21377859
94	0xbfde7f6a	-1.7382634
95	0xbf3e6ff2	-0.74389565
96	0x3f17d6a5	0.59311897
97	0xbf128271	-0.5723029
98	0xbeaf41fe	-0.34230036
99	0x3be0890d	0.006852275
100	0x3e6ca53f	0.23109911
101	0xbfbbbc16	-1.4666774
102	0xbe62a6be	-0.2213392
103	0xbd8b4f25	-0.06802205
104	0xbeaae6da	-0.3337925
105	0x3eb584ab	0.3545278
106	0x3e954bca	0.29159385
107	0x3ecb33f9	0.3968809
108	0x3e188716	0.14895281
109	0x3ea3748f	0.31924865
110	0xbeb830e5	-0.35974804
111	0x3f497647	0.786961
112	0x3ea99a98	0.33125758
113	0xbe3999f5	-0.18125136
114	0x3b65f9aa	0.0035091438
115	0xbee306e0	-0.44341183
116	0xbcb84d8a	-0.022497911
117	0x3b4eea2b	0.003157268
118	0x3f102b36	0.56315935
119	0xbf3d3b05	-0.7391818
120	0xbb40cc1b	-0.0029418531
121	0x3f24a41b	0.64312905
122	0xbfe80431	-1.8126279
123	0x3f3aa885	0.7291339
124	0xbf500016	-0.8125013
125	0x3f0fab6d	0.5612095
126	0x3ba601a1	0.005066112
127	0xbdd62b59	-0.10457487
128	0xbe1c7881	-0.15280344
129	0xbf660801	-0.89855963
130	0x3d7ba8ae	0.061440162
131	0xbfb0216c	-1.37602
132	0xbcf4f84d	-0.029903555
133	0xbee8db7a	-0.45479947
134	0x3bd2a63c	0.006428508
135	0x3debd0f5	0.11514465
136	0x3dcd37e4	0.10020426
137	0xbf03a5b2	-0.51424706
138	0x3efe26e0	0.49639034
139	0x3eb59c58	0.35470843
140	0xbc7e2891	-0.0155126015
141	0xbf17b756	-0.59264123
142	0xbd938349	-0.07202775
143	0xbe07c899	-0.13260116
144	0xbca64434	-0.020296194
145	0xbf4a63da	-0.7905861
146	0xbf764493	-0.96198386
147	0xbf03f6c9	-0.5154844
148	0x3d875f2f	0.06609952
149	0x3ee76e85	0.45201507
150	0xbf8c782a	-1.0974171
151	0x3ea204f4	0.31644404
152	0x3eeae4d4	0.45877707
153	0x3ce15805	0.027507791
154	0x3fa99caa	1.3250935
155	0x3e8586fa	0.2607954
156	0x3d503feb	0.050842207
157	0xbcc06a65	-0.023488233
158	0xbfb66c28	-1.4251757
159	0xbfd967b6	-1.6984775
160	0xbfb31a81	-1.3992463
161	0xbec4e49e	-0.3845567
162	0xbcc2c4be	-0.023775455
163	0xbdb35bd3	-0.087577485
164	0xbf423054	-0.7585499
165	0x3f22ec25	0.6364158
166	0x3f2bdf02	0.6713716
167	0xbf6cef5d	-0.9255274
168	0xbe039806	-0.12850961
169	0x3e2d6878	0.16934383
170	0x3de051f9	0.10953135
171	0xbc1ab18f	-0.009441747
172	0x3edf70db	0.4364079
173	0x3ff4b01f	1.9116248
174	0xbf13b2d9	-0.57694775
175	0x3c3fc5d2	0.011704879
176	0x3f6e7845	0.93152267
177	0x3ec594a3	0.38589963
178	0xbd532a51	-0.051554028
179	0xbf1142bb	-0.5674245
180	0x3c1c022b	0.009522001
181	0xbf74563b	-0.9544408
182	0x3dc2c819	0.09510822
183	0x3db4b8da	0.0882432
184	0xbf85a75a	-1.0441697
185	0xbf3c8d25	-0.7365287
186	0x3efd6b96	0.49496144
187	0x3f235881	0.6380692
188	0xbd63fed1	-0.055662934
189	0x3c91cb89	0.017797248
190	0xbf718e5f	-0.94357866
191	0xbf259934	-0.64686894
192	0x3f336ca8	0.7008767
193	0x3ec6806f	0.38769862
194	0x3ed72553	0.42020664
195	0x3f2b34c1	0.6687737
196	0xbbfcb6ac	-0.007712206
197	0xbe762e8b	-0.24041192
198	0x3d641a7b	0.055689316
199	0xbf37a716	-0.7173933
200	0xbfc00fd9	-1.5004836
201	0xbe5fb773	-0.21847324
202	0xbee9de79	-0.45677546
203	0xbf14d9ef	-0.5814504
204	0x3d061858	0.03273806
205	0xbd42cc5b	-0.04755817
206	0x3eb7017f	0.3574333
207	0xbc4c1161	-0.012455315
208	0xbf0c2bbb	-0.5475423
209	0xbf0252d0	-0.5090761
210	0x3f161804	0.58630395
211	0x3f297120	0.6618824
212	0xbf3c0b7c	-0.73455024
213	0x3f3d0c89	0.7384725
214	0xbeebc1d6	-0.46046323
215	0x3f043792	0.51647294
216	0xbb3d65db	-0.0028899822
217	0xbe91ce43	-0.28477678
218	0x3cf263a9	0.029588537
219	0xba9b300b	-0.001183988
220	0xbecfbc5a	-0.40573388
221	0xbec7cc82	-0.39023215
222	0xbeb324e6	-0.3498909
223	0x3e1dbbac	0.15403622
224	0xbf341a05	-0.703522
225	0x3c52e24c	0.012871336
226	0x3ecd7ad5	0.40132776
227	0xbf990dc4	-1.1957326
228	0xbe78c46c	-0.24293679
229	0xbf9e8821	-1.2385293
230	0xbe77aec0	-0.24187756
231	0x3eac0343	0.33596238
232	0x3edf5b54	0.43624365
233	0x3e1a0540	0.15041065
234	0xbd33dbe7	-0.043910887
235	0xbe292c46	-0.16520795
236	0xbf5edc73	-0.8705513
237	0xbf8dd023	-1.1079143
238	0x3d4f6893	0.05063684
239	0x3d84796f	0.06468474
240	0xbd9ffc35	-0.078117765
241	0xbea54115	-0.32276216
242	0x3ecbb3cf	0.3978562
243	0x3e8da517	0.27665016
244	0xbeecac0d	-0.46225014
245	0x3f4a0794	0.78917813
246	0xbe9fb6f8	-0.31194282
247	0xbd98fdfd	-0.074703194
248	0xbed44a9a	-0.41463166
249	0xbe2ec174	-0.17065984
250	0xbb9e4620	-0.004830137
251	0xbf099a26	-0.53750837
252	0x3c6815b3	0.01416533
253	0x3ec34dfb	0.38145432
254	0x3f547ef5	0.8300622
255	0xbf48c6f4	-0.7842858

l1.bias f4 [189]
0	0xbf384607	-0.71981853
1	0x3eeab438	0.4584062
2	0x3db1c497	0.08680075
3	0xbde122b3	-0.109929465
4	0xbb584667	-0.0033000947
5	0xbdbfca5f	-0.09364771
6	0x3e19d4d1	0.1502259
7	0x3e85ef33	0.26159057
8	0x3cfb278d	0.030658508
9	0xbe9bed43	-0.30454454
10	0xbf07c2b9	-0.530315
11	0x3f0036b3	0.50083464
12	0xbbbea5bd	-0.0058180974
13	0x3ef10525	0.47074237
14	0xbd78013a	-0.060548045
15	0xbea89838	-0.32928634
16	0x3d952a8b	0.07283505
17	0x3e257eff	0.16161726
18	0x3daab28e	0.08334838
19	0x3ea9386f	0.33050868
20	0xbe9b7f8b	-0.30370745
21	0xbe4edfbc	-0.20202535
22	0xbe870103	-0.2636796
23	0xbe84a4b9	-0.25906923
24	0xbeb9cfe5	-0.36291423
25	0x3ea6b2ec	0.32558382
26	0x3c7faaa8	0.015604652
27	0x3d665294	0.056231096
28	0xbe92c5b5	-0.28666463
29	0xbe92bcc9	-0.28659657
30	0xbea2ee36	-0.31822366
31	0x3ebd7bf0	0.3700862
32	0x3edadf15	0.42748323
33	0xbe3a008a	-0.18164268
34	0xbde5f941	-0.11229182
35	0xbd682ff2	-0.05668635
36	0xbeb705cc	-0.3574661
37	0xbeb9956e	-0.36246818
38	0xbe0dad5c	-0.13835663
39	0xbeb6a193	-0.35670146
40	0x3f538aa3	0.8263342
41	0xbe1a17de	-0.15048167
42	0xbe0121a2	-0.12610486
43	0x3e50ae6f	0.20379041
44	0x3f0cb16c	0.54958224
45	0x3ebfaa11	0.37434438
46	0x3df84aab	0.12123617
47	0xbe2c86ab	-0.16848247
48	0xbeb2ccb2	-0.34921795
49	0x3e16dc9d	0.14732595
50	0x3baa24ea	0.005192389
51	0x3e4ecf72	0.20196322
52	0xbcecc72f	-0.028903572
53	0xbec009c5	-0.37507454
54	0xbf22958c	-0.6350944
55	0x3e9ead6f	0.30991694
56	0x3d54cc3c	0.051952586
57	0xbf0a3527	-0.53987354
58	0xbeddcfe8	-0.43322682
59	0x3edcc17f	0.43116376
60	0xbf003765	-0.50084525
61	0xbde61e27	-0.1123622
62	0xbe174352	-0.14771774
63	0xbe83f6ac	-0.25774133
64	0xbe1cd765	-0.15316541
65	0x3d44262a	0.04788796
66	0xbe75479d	-0.239531
67	0x3d059b4b	0.032618802
68	0xbd629821	-0.055320863
69	0x3ea6b73b	0.3256167
70	0xbed8d396	-0.42348927
71	0x3cab1d8f	0.020888118
72	0xbe96a04c	-0.29419172
73	0xbd5b4532	-0.053532787
74	0x3e46e861	0.19424583
75	0xbe4e33ff	-0.20137022
76	0xbe3e728e	-0.18598387
77	0x3ec63dda	0.38719064
78	0x3ce18532	0.027529333
79	0x3e46865e	0.19387195
80	0x3d834639	0.06409878
81	0xbe3da5e2	-0.1852031
82	0xbe84001c	-0.25781333
83	0x3ebf5dbf	0.3737621
84	0x3e762dff	0.24040984
85	0x3e8e09da	0.2774189
86	0x3eabe396	0.33572072
87	0xbe17a061	-0.14807273
88	0x3de2a0f1	0.110658534
89	0x3ccd2e08	0.025046363
90	0x3eb85031	0.3599868
91	0xbe6d3877	-0.23166071
92	0xbe1927de	-0.14956614
93	0xbe8dfcbd	-0.27731887
94	0xbeada398	-0.33913875
95	0xbea08973	-0.31354865
96	0xbe78785a	-0.2426466
97	0x3ea4257d	0.3205985
98	0xbe8d6b4f	-0.27620932
99	0x3da89819	0.08232135
100	0xbe212e76	-0.1574038
101	0x3e1b11e1	0.15143539
102	0x3e08a564	0.13344342
103	0xbee73b9d	-0.4516267
104	0x3ea8ae5d	0.3294553
105	0xbe8d3bb8	-0.27584624
106	0xbdbd531c	-0.092443675
107	0x3bf0ba42	0.0073464224
108	0xbe1f7fe4	-0.1557613
109	0x3d67f64b	0.056631368
110	0xbe8d19f7	-0.27558872
111	0x3e88e3cd	0.26736298
112	0xbe554dbd	-0.20830436
113	0xbe867982	-0.26264578
114	0xbe41717c	-0.18890947
115	0x3eb58b71	0.35457948
116	0x3c6e82ee	0.014557583
117	0x3ecbacd8	0.39780307
118	0x3e4f7d9f	0.20262764
119	0xbedd4352	-0.43215424
120	0x3c8bf0f7	0.017082674
121	0xbee8ffe7	-0.45507738
122	0xbdae5fa1	-0.085143335
123	0x3e3a1d0a	0.1817514
124	0xbd62a941	-0.055337194
125	0x3c8a2e5e	0.016867813
126	0x3e24660d	0.16054554
127	0x3d090e0a	0.033460654
128	0x3eb31e18	0.34983897
129	0x3e3179e0	0.17331648
130	0xbe716b6a	-0.23576131
131	0xbec73412	-0.38906914
132	0x3e7dcfe0	0.2478633
133	0x3d89080b	0.06690987
134	0xbe77391d	-0.2414288
135	0xbbfe2b41	-0.007756621
136	0xbe415ffb	-0.1888427
137	0xbeabf697	-0.3358657
138	0xbec7bf97	-0.3901336
139	0xbe2f1fa7	-0.17101918
140	0xbcf6dd62	-0.03013486
141	0xbe61162c	-0.21981114
142	0xbc28809f	-0.010284572
143	0x3e09d54b	0.13460271
144	0x3dddac9a	0.10823937
145	0x3cd437b5	0.02590547
146	0x3d6c2fe6	0.057662867
147	0xbe398f66	-0.18121108
148	0xbe67e672	-0.22646502
149	0xbf04c242	-0.51858914
150	0x3f0212b5	0.50809795
151	0x3f1ca3fb	0.61187714
152	0xbe00e99f	-0.1258912
153	0x3da096a1	0.0784123
154	0x3d1e22f6	0.03860756
155	0xbe96b003	-0.2943116
156	0x3ea8f4c1	0.32999232
157	0xbe1b90e6	-0.15191993
158	0xbe982bf4	-0.29721034
159	0xbe906406	-0.28201312
160	0x3d527000	0.051376343
161	0xbe2e41a7	-0.17017232
162	0xbe39e76e	-0.1815469
163	0xbf03e5a9	-0.5152231
164	0xbef0ec0c	-0.4705509
165	0x3f0f6397	0.5601134
166	0x3eeca0b8	0.4621637
167	0x3e428ab1	0.18998219
168	0x3f2a68ee	0.6656636
169	0xbf153a77	-0.58292335
170	0x3e3af6c5	0.18258198
171	0x3ea2f45e	0.31827062
172	0x3d51cddc	0.051221713
173	0xbc902b3c	-0.01759874
174	0xbe6aa768	-0.22915423
175	0x3e72f7ea	0.23727384
176	0x3e045f5d	0.12927003
177	0xbeccd6b1	-0.40007547
178	0x3ec7dfe5	0.39038005
179	0xbe8284ac	-0.25491846
180	0x3e788f76	0.24273476
181	0xbe70bb3c	-0.23508924
182	0xbe322fe4	-0.17401081
183	0xbd9112f5	-0.07083694
184	0x3e90e208	0.28297448
185	0x3edb15f4	0.42790186
186	0xbf0bcff2	-0.54614174
187	0xbf0691a0	-0.52565956
188	0xbd168e48	-0.036756784

l2.weight f4 [119, 189]
0	0xbdda9c0a	-0.10674293
1	0xbea19f55	-0.31566873
2	0xbfb04fc6	-1.3774345
3	0x3eda6149	0.42652348
4	0x3c876ed7	0.016532345
5	0xbded24ba	-0.11579271
6	0x3e25af95	0.1618026
7	0xbe852a42	-0.26008803
8	0xbedb7611	-0.42863515
9	0x3ea5d988	0.32392526
10	0x3dba1e54	0.09087816
11	0xbeb1a9cb	-0.34699854
12	0x3d5aea1d	0.053445924
13	0x3ec93b37	0.3930299
14	0xbd7b257a	-0.061315037
15	0x3d8ae368	0.067816556
16	0x3ed5eaef	0.41780803
17	0x3ef33d88	0.47507882
18	0x3e160afa	0.14652625
19	0xbe7cfa7a	-0.24704924
20	0xbec14700	-0.3774948
21	0xbe1982d5	-0.14991315
22	0xbdd6d641	-0.104900844
23	0x3dc9edc9	0.09859807
24	0xbe5e1787	-0.21688662
25	0xbe49ba82	-0.19700053
26	0x3e19ec49	0.15031542
27	0xbd51c8c0	-0.05121684
28	0x3db7fbb9	0.08983559
29	0x3d9015cf	0.0703541
30	0xbe9e33b8	-0.30898833
31	0x3d3016dc	0.04299055
32	0x3eae53cc	0.34048307
33	0x3de99d33	0.114069365
34	0x3e9cf6a7	0.3065693
35	0x3e4720b3	0.19446068
36	0xbd978508	-0.073984206
37	0x3de05683	0.10954001
38	0xbe0be82a	-0.13662782
39	0x3e9ca102	0.3059159
40	0x3ebb7c92	0.36618477
41	0xbd81226c	-0.063053936
42	0x3d984492	0.07434954
43	0x3f0431e0	0.51638603
44	0xbc2fa21c	-0.010719802
45	0xbd8defcf	-0.069305055
46	0xbf5a314f	-0.8523149
47	0xbdad6a55	-0.08467547
48	0xbdaa09a2	-0.083026186
49	0xbeb51b62	-0.35372454
50	0x3ebcd23d	0.3687915
51	0xbd3daea9	-0.046309147
52	0xbe9d48f2	-0.30719715
53	0xbcbab23c	-0.022790067
54	0xbe9fb408	-0.3119204
55	0xbe76bcf8	-0.24095523
56	0x3d056855	0.032570202
57	0x3ec67fcf	0.38769385
58	0x3e2c121c	0.16803783
59	0x3e029b7f	0.1275463
60	0x3d3ae308	0.04562667
61	0xbdf4f555	-0.11960856
62	0xbe1e7555	-0.15474446
63	0x3dd58e02	0.104274765
64	0xbd854b17	-0.06508463
65	0xba65ad17	-0.0008761449
66	0x3d9f47fb	0.07777401
67	0xbf0fce21	-0.561739
68	0x3b061307	0.0020458119
69	0xbec8707e	-0.39148325
70	0xbf75031f	-0.9570789
71	0xbca576b8	-0.020198211
72	0xbc5f4ce3	-0.013629171
73	0x3e3524b3	0.17689781
74	0x3e97568c	0.29558218
75	0x3d0cc08c	0.034363315
76	0x3d1ba749	0.038001332
77	0x3e3f2b25	0.18668802
78	0xbdc97629	-0.098369904
79	0x3e43a0b0	0.19104266
80	0x3c329ce9	0.010901668
81	0x3cc78066	0.024353217
82	0x3db1a5b6	0.08674185
83	0x3ec83776	0.39104813
84	0xbca86f32	-0.020560835
85	0xbd246435	-0.040134627
86	0xbe02cdad	-0.12773772
87	0xbc40db5b	-0.011771048
88	0xbe91d9ea	-0.28486568
89	0x3de1e3ac	0.11029753
90	0xbea94a05	-0.33064285
91	0xbbce45e2	-0.006294952
92	0xbe3a14ee	-0.18172047
93	0x3e2ca2da	0.16858998
94	0xbe06571b	-0.13119166
95	0x3d9ca9fc	0.076496094
96	0x3dd0fc84	0.102044135
97	0x3e878431	0.26468042
98	0x3e5ff410	0.21870446
99	0x3de55c11	0.11199201
100	0xbe89b125	-0.26892963
101	0x3e28f433	0.16499405
102	0x3db5a5d1	0.088695176
103	0x3de678d0	0.11253512
104	0xbfc4ea61	-1.5384027
105	0xbcbcb866	-0.023037147
106	0xbd80a990	-0.062823415
107	0xbf087ead	-0.5331829
108	0x3d720b66	0.0590929
109	0xbdf86357	-0.121283226
110	0x3e15a7ef	0.14614843
111	0x3e9040f9	0.2817457
112	0xbc8cc87b	-0.01718544
113	0xbea1704a	-0.31530982
114	0x3eaae88d	0.33380547
115	0x3ee1a154	0.44068396
116	0xbc6301e7	-0.013855434
117	0x3eebbee8	0.46044087
118	0xbddfaaf1	-0.10921276
119	0xbcc023d1	-0.023454579
120	0x3d899326	0.067175195
121	0xbf57ac60	-0.842474
122	0xbd3aeb73	-0.045634698
123	0xbdec28e2	-0.11531235
124	0x3cd80e77	0.026374085
125	0xbcaea09e	-0.021316823
126	0x3dc59350	0.09647238
127	0xbdd85174	-0.10562411
128	0x3dfa7fb8	0.12231392
129	0x3e3ee184	0.18640715
130	0x3ee6c30e	0.4507069
131	0x3e416f17	0.18890034
132	0x3ddad4ed	0.106851436
133	0x3d76bcde	0.06023871
134	0x3e9f5535	0.31119695
135	0x3d7bca9f	0.06147253
136	0x3ccbf123	0.024895256
137	0x3e4b8ad3	0.19877176
138	0x3d1e4f11	0.038649622
139	0xbe05fdbd	-0.13085075
140	0xbf9ad2dc	-1.2095599
141	0x3b13f893	0.0022578582
142	0x3e8a2b06	0.2698595
143	0xbeb4503e	-0.3521747
144	0xbbfbaac1	-0.0076802676
145	0xbef7bf65	-0.4838821
146	0xbee53223	-0.44764814
147	0xbf1ff5cd	-0.6248444
148	0xbf4633db	-0.77422875
149	0xbd48fb7a	-0.04906795
150	0x3da96663	0.08271482
151	0x3e03cd15	0.12871201
152	0x3ddd6344	0.10809949
153	0x3e031071	0.1279924
154	0xbe9f7961	-0.31147292
155	0xbdb0c8bd	-0.08632038
156	0xbd5b6c97	-0.053570356
157	0x3dd79b59	0.10527677
158	0x3ec6d14b	0.38831553
159	0x3d181993	0.037133764
160	0xbdb21843	-0.08696034
161	0xbf4dfb62	-0.80461705
162	0x3e9a955a	0.3019207
163	0xbecdb9ef	-0.4018092
164	0xbc0cd744	-0.008596245
165	0xbd3f2735	-0.04666825
166	0xbd6366be	-0.055517904
167	0xbdb75b5b	-0.089529715
168	0x3f3c9dd3	0.7367832
169	0xbc882de6	-0.016623449
170	0x3edfd1cc	0.4371475
171	0x3e4fce3c	0.20293516
172	0x3c14c6c6	0.009080594
173	0x3d4ec13b	0.050477248
174	0xbe92d8d9	-0.28681067
175	0x3ee52437	0.44754192
176	0xbb04925c	-0.0020228839
177	0x3cceadfc	0.025229447
178	0xbe837004	-0.256714
179	0x3cdca8bd	0.02693593
180	0xbeb7df80	-0.35912704
181	0xbf78f839	-0.9725376
182	0xbded6a41	-0.11592532
183	0x3d686646	0.05673816
184	0xbf88265e	-1.0636709
185	0x3e339fc4	0.17541414
186	0xbe49c298	-0.19703138
187	0x3c81f88f	0.015865592
188	0x3e70921a	0.23493233
189	0xbde2f5a8	-0.110820115
190	0x3dba92e4	0.091100484
191	0xbe8f51b9	-0.27992037
192	0xbd22b7a5	-0.03972592
193	0xbe4ac5ab	-0.19801967
194	0xbe876369	-0.2644303
195	0xbe8b430d	-0.27199593
196	0xbd47416e	-0.048646383
197	0x3cb6948a	0.022287626
198	0xbec4f99d	-0.3847169
199	0x3e17151d	0.14754148
200	0x3d38dfda	0.045135356
201	0x3e220bd5	0.15824826
202	0x3e62a7b9	0.22134294
203	0xbe782c25	-0.2423559
204	0x3e07ef51	0.13274886
205	0xbc655ae7	-0.013998724
206	0x3e7b9ebc	0.24572271
207	0x3e44398e	0.1916258
208	0xbe5dc46b	-0.21656959
209	0xbdd3b8f9	-0.10338015
210	0x3de83ed8	0.113401115
211	0xbee14187	-0.43995306
212	0x3ddafe16	0.10692994
213	0xbd44afec	-0.048019335
214	0xbe2c94df	-0.16853665
215	0xbe1e9691	-0.15487124
216	0xbf0a541b	-0.54034585
217	0xbe605bb1	-0.21909977
218	0xbd9c82cc	-0.07642135
219	0xbd20774e	-0.039176278
220	0x3e409034	0.18805009
221	0x3d6f75f0	0.058462083
222	0xbcdcc51c	-0.026949458
223	0x3e7bd5f0	0.2459333
224	0x3dfcf54c	0.12351474
225	0x3c88962d	0.016673172
226	0x3e19981d	0.14999433
227	0xbd97496d	-0.07387052
228	0x3deb89a3	0.115008615
229	0x3e876e0f	0.26451156
230	0x3d3f9a84	0.046778217
231	0x3db2361f	0.08701729
232	0xbe339b65	-0.17539747
233	0x3de154f1	0.110025294
234	0x3d9453d5	0.07242552
235	0xbd80fb10	-0.06297886
236	0x3b9aa693	0.004719564
237	0x3d62984f	0.055321034
238	0xbd92e00d	-0.071716405
239	0xbe956780	-0.29180527
240	0x3e26e740	0.16299152
241	0xbe9bb44f	-0.30411002
242	0xbe968f21	-0.29406074
243	0xbd85cda1	-0.06533361
244	0x3e3f1b30	0.18662715
245	0x3d0652d1	0.032793824
246	0xbd65f109	-0.056138072
247	0x3dbbbfdb	0.09167453
248	0x3ccf7de5	0.025328586
249	0xba69904f	-0.0008909748
250	0x3cec7506	0.028864395
251	0x3d2b7892	0.04186303
252	0x3e49392d	0.19650717
253	0x3da8c127	0.08239966
254	0x3d4d9d3f	0.05019879
255	0x3df893b0	0.12137544

l2.bias f4 [119]
0	0xbc88bf41	-0.01669276
1	0x3dfb4740	0.12269449
2	0xbea444df	-0.32083794
3	0x3e32242e	0.17396614
4	0xbc8ec23a	-0.017426599
5	0x3d8511f0	0.06497562
6	0xbd5da1e2	-0.05410946
7	0x3e3a5226	0.181954
8	0x3d7292e4	0.059222117
9	0x3e1617c8	0.1465751
10	0x3eaa4fc8	0.33263993
11	0x3e529d41	0.205678
12	0xbd89602f	-0.06707799
13	0x3c4abcf1	0.012374149
14	0x3e3ea6b0	0.18618274
15	0xbc2f54e8	-0.010701396
16	0xbd17ecef	-0.03709119
17	0x3e0ce9f2	0.13761118
18	0xbd4b5d85	-0.049649734
19	0x3d9c8acf	0.07643663
20	0xbd8f255b	-0.06989547
21	0x3e01f86e	0.12692425
22	0x3e643125	0.22284372
23	0x3e0fced3	0.14043741
24	0xbd561854	-0.052269295
25	0x3c6f4c01	0.014605523
26	0x3ca9a746	0.020709645
27	0xbc63dffb	-0.013908382
28	0xbd2d637a	-0.042331196
29	0xbe06beef	-0.13158773
30	0xbc4ab956	-0.012373289
31	0x3be55d05	0.006999614
32	0x3e1f1471	0.15535142
33	0xbd9bf088	-0.07614237
34	0x3da4bd3a	0.080439046
35	0x3e12c571	0.1433313
36	0x3c6e46af	0.0145432195
37	0xbe164c18	-0.14677465
38	0xbc869050	-0.016426235
39	0x3e287cd8	0.16453874
40	0xbcc9fc27	-0.024656368
41	0xbdd6d701	-0.104902275
42	0xbdeb149d	-0.11478541
43	0x3d09fec5	0.033690233
44	0xbbde8a17	-0.006791364
45	0x3d834c54	0.06411043
46	0xbc17486b	-0.009233574
47	0xbcfe7ddd	-0.031065876
48	0xbd242c23	-0.040081155
49	0x3e6ba087	0.23010455
50	0x3db0a2f6	0.08624832
51	0x3e003477	0.12520014
52	0x3cfd297b	0.030903568
53	0xbd3bd498	-0.045857042
54	0xbb81ac49	-0.0039573056
55	0x3d3558b8	0.044274062
56	0x3d5bc96a	0.05365888
57	0x3d8583be	0.065192685
58	0x3d514175	0.051087815
59	0xbe347b02	-0.17625049
60	0x3cf486d6	0.029849451
61	0x3dc86776	0.097853586
62	0x3e050cbd	0.1299314
63	0xbdce9e21	-0.100887544
64	0x3dd18e87	0.10232263
65	0x3d89c83e	0.06727646
66	0x3d42b4e5	0.047535796
67	0x3db4c288	0.088261664
68	0xbde5aeb4	-0.112149626
69	0x3de6eab7	0.11275237
70	0x3e729f04	0.23693472
71	0x3e563f6b	0.2092263
72	0x3daec69d	0.08533976
73	0x3d3e2ee0	0.046431422
74	0x3dac7160	0.08420062
75	0x3c9703c9	0.018434422
76	0x3d671d0e	0.056424193
77	0xbc6b3610	-0.014356151
78	0x3c3a953f	0.011388122
79	0xbd8bf59a	-0.06833954
80	0xbe46ad60	-0.19402075
81	0x3dae8a78	0.085225046
82	0x3e51483e	0.20437714
83	0xbde9fda5	-0.11425332
84	0x3d9b09be	0.075702175
85	0xbd9005a6	-0.07032327
86	0x3dc62053	0.09674134
87	0x3e8e48fc	0.27790058
88	0xbd0a5561	-0.03377283
89	0xbb09b6ea	-0.0021013566
90	0x3cd8aa4e	0.026448395
91	0x3d3ecf09	0.046584163
92	0x3d22d2e9	0.03975192
93	0x3d25845a	0.040409423
94	0xbd0dc97e	-0.034615986
95	0x3e6e61fb	0.23279564
96	0x3dcd9559	0.100382514
97	0x3e62ce21	0.22148944
98	0x3dbfad2c	0.09359202
99	0x3d599abb	0.053126078
100	0x3de2fa94	0.1108295
101	0x3d97afc2	0.0740657
102	0xbda337ac	-0.07969603
103	0x3d305a3e	0.04305481
104	0x3d266795	0.040626127
105	0x3e7bb062	0.24579003
106	0xbc6cc8b9	-0.014452153
107	0xbd2e4ef5	-0.042555768
108	0x3e0ede19	0.13951911
109	0x3ca8e470	0.02061674
110	0xbdab9d3a	-0.08379598
111	0x3d39be94	0.045347765
112	0x3cb9b5d8	0.022669718
113	0x3db5825c	0.08862755
114	0x3d463fc3	0.04840065
115	0x3d78bc29	0.06072632
116	0x3be9ec57	0.0071387696
117	0x3d343fd8	0.0440062
118	0xbd4537f4	-0.048149064

l3.weight f4 [9, 119]
0	0x3c01fa50	0.007933214
1	0xbdb623ee	-0.08893572
2	0x3df81e66	0.12115173
3	0xbe07f01d	-0.1327519
4	0x3e542ae5	0.20719488
5	0xbdcb1d37	-0.09917682
6	0x3e3a6587	0.18202792
7	0xbcd48c5f	-0.02594584
8	0xbdc0a843	-0.094070934
9	0x3d6f1959	0.058373783
10	0x3da73e33	0.081661604
11	0xbcbc13e3	-0.022958701
12	0xbe27c283	-0.16382794
13	0xbd6e93de	-0.058246486
14	0xbdc713dd	-0.097205855
15	0xbdf7d337	-0.12100833
16	0xbe3dfcaf	-0.18553422
17	0x3e055995	0.13022454
18	0xbe783cd9	-0.24241962
19	0x3de612ae	0.112340316
20	0xbbaf7d7b	-0.0053555346
21	0xbda33f79	-0.07971091
22	0xbd507b1b	-0.050898653
23	0xbdb58aa1	-0.08864332
24	0x3ccedc07	0.025251402
25	0x3e051e5e	0.12999865
26	0xbd3cd252	-0.046099015
27	0xbdfec1c6	-0.12439303
28	0x3cfb24bd	0.030657167
29	0xba9f4580	-0.001215145
30	0xbda6a107	-0.08136182
31	0xbe724336	-0.23658451
32	0x3ccc960d	0.024973894
33	0x3e22af1c	0.15887111
34	0xbe626b6e	-0.22111294
35	0x3bffecdb	0.007810218
36	0xbdb3e272	-0.087834254
37	0x3e53b78f	0.20675491
38	0xbd8c67a3	-0.06855705
39	0x3a8473ac	0.0010105274
40	0x3c408515	0.011750479
41	0x3db8a8f0	0.09016597
42	0x3b8fd8f8	0.0043898784
43	0x3e24a08b	0.16076867
44	0xbde74f55	-0.11294428
45	0xbd1ea9eb	-0.038736265
46	0xbe9a1f2a	-0.301019
47	0xbd2ec70a	-0.042670287
48	0xbdac92ee	-0.08426462
49	0x3dfdad73	0.123865984
50	0xbde5d442	-0.112221256
51	0xbc23153b	-0.009953792
52	0xbdb79022	-0.08963038
53	0xbde0791e	-0.10960601
54	0x3e3f3581	0.18672754
55	0xbe958a68	-0.29207158
56	0x3e44491c	0.19168514
57	0x3e6cc324	0.23121315
58	0x3dacc396	0.084357426
59	0xbd4cc407	-0.049991634
60	0xbc70d2d5	-0.014698704
61	0xbde6bc68	-0.112664044
62	0x3ddd5740	0.10807657
63	0xbd881f52	-0.06646599
64	0x3d5365a7	0.051610615
65	0x3ccdf55d	0.025141412
66	0xbd8ac2c3	-0.06775429
67	0x3d395476	0.045246564
68	0x3bcab5f1	0.00618624
69	0x3d32bac2	0.043635137
70	0x3ae52f93	0.0017485492
71	0x3d8362e3	0.064153455
72	0x3cc2553b	0.023722282
73	0xbd0f3b91	-0.034968916
74	0xbe098490	-0.13429475
75	0x3dfc12fb	0.12308308
76	0xbe8bafe7	-0.2728264
77	0xbd4154dd	-0.047200073
78	0x3d56acba	0.05241082
79	0x3cb0c94a	0.021580357
80	0xbddd370f	-0.10801517
81	0xbca26541	-0.019823672
82	0x3cf6e506	0.030138504
83	0x3d0cb7a6	0.03435483
84	0x3ab452fa	0.0013757639
85	0xbdd3fd94	-0.103511006
86	0x3c9bf584	0.01903797
87	0x3cfd9c76	0.030958395
88	0x3df8eabe	0.121541485
89	0xbdaee632	-0.0854
90	0xbca7b5a5	-0.020472357
91	0x3d0b7f23	0.034056794
92	0x3dde7341	0.10861827
93	0x3e11e091	0.14245822
94	0xbe1d2551	-0.15346266
95	0xbdd58b36	-0.10426943
96	0x3da7858a	0.081797674
97	0x3c909507	0.017649187
98	0xbb901773	-0.0043973266
99	0xbdb3bbc4	-0.08776048
100	0xbea71ddf	-0.32639977
101	0xbbf7c2bd	-0.0075610564
102	0xbd5f348b	-0.05449347
103	0xbd7e21e8	-0.062044054
104	0xbe876e1b	-0.2645119
105	0x3e142318	0.14466512
106	0x3de92fd8	0.113860786
107	0xbd274fe5	-0.040847678
108	0x3d8874ad	0.06662879
109	0xbcb29367	-0.021798803
110	0x3de08109	0.109621115
111	0xbe706e0a	-0.23479477
112	0x3bc20b49	0.0059217555
113	0x3d544ff1	0.05183405
114	0xbcee060d	-0.02905562
115	0xbcff61cf	-0.031174568
116	0x3d2a01e0	0.041505694
117	0xbe576612	-0.2103503
118	0x3ccd64b4	0.025072433
119	0x3d2b3f96	0.041808687
120	0xbd669922	-0.056298383
121	0xbe09dbc2	-0.13462737
122	0xbd70f594	-0.05882795
123	0x3e206f6f	0.15667509
124	0x3d2c4191	0.042054716
125	0x3e4b9cee	0.19884083
126	0xbdb797c8	-0.08964497
127	0xbde0c222	-0.10974528
128	0x3d794743	0.060858976
129	0xbb243920	-0.0025058463
130	0x3c15762e	0.0091224145
131	0xbddbcdcb	-0.10732611
132	0x3da0e930	0.07856977
133	0xbd6df80d	-0.058097888
134	0x3c454291	0.012039796
135	0xbe64823a	-0.22315302
136	0x3d8acb73	0.06777086
137	0x3b28fe24	0.0025786245
138	0x3d94809c	0.07251093
139	0x3e124c8d	0.14287014
140	0xbbda403b	-0.006660489
141	0x3d52d56a	0.05147306
142	0x3e3ba052	0.18322876
143	0xbd9d1f0b	-0.076719366
144	0xbd9a238b	-0.075263105
145	0x3dc78c22	0.09743525
146	0xbde67f43	-0.11254742
147	0x3d0fe4ab	0.035130184
148	0xbdeab5d9	-0.11460466
149	0x3e643922	0.2228742
150	0xbe502bed	-0.20329256
151	0xbc99f76a	-0.018794734
152	0xbd0f5acc	-0.0349987
153	0xbe1e6d82	-0.15471461
154	0xbc0cbc32	-0.008589791
155	0xbe76725e	-0.24067065
156	0x3eac0e6b	0.3360475
157	0xbdd43181	-0.103610046
158	0x3d134af6	0.03596016
159	0x3c24ebc5	0.010065977
160	0x3d4d2394	0.050082758
161	0xbd353f5a	-0.04424987
162	0x3e30b952	0.17258194
163	0x3cde1e6d	0.027114118
164	0x3d23aebd	0.039961565
165	0x3b93bfa7	0.0045089307
166	0xbe198b63	-0.14994578
167	0xbda01920	-0.07817292
168	0x3e1a16f2	0.15047815
169	0xbda317d1	-0.07963527
170	0xbdb04dde	-0.08608602
171	0xbcb508be	-0.022098895
172	0xbeb3b64c	-0.3510002
173	0x3e45dcf1	0.19322564
174	0xbeeda984	-0.46418393
175	0x3e4f2c88	0.20231831
176	0x3e1baeb3	0.15203361
177	0x3d95857d	0.073008515
178	0x3e1ca223	0.15296225
179	0xbbc2af18	-0.005941283
180	0xbd459af9	-0.048243497
181	0x3def9f59	0.11700315
182	0x3da18b92	0.07887949
183	0x3dec10ef	0.11526667
184	0x3e93dea1	0.2888079
185	0xbde8f337	-0.113745145
186	0x3d2b61e5	0.041841406
187	0xbd865a13	-0.06560149
188	0x3cca32c6	0.024682414
189	0xbd14989f	-0.036278363
190	0x39939f8f	0.00028156905
191	0x3e617871	0.22018601
192	0xbe01a4bc	-0.12660497
193	0xbdcdd670	-0.10050666
194	0xbc8303a8	-0.015992954
195	0xbeb8150a	-0.35953552
196	0x3e0797f1	0.13241555
197	0xbdc969e5	-0.09834651
198	0x3d47c6e2	0.048773654
199	0xbdfa742c	-0.12229189
200	0x3e1ef300	0.15522385
201	0x3d89ba86	0.0672503
202	0x3c2e3d69	0.0106347585
203	0xbca98b2a	-0.020696241
204	0xbdcdc1cd	-0.1004673
205	0x3da09df2	0.07842626
206	0x3cc32cf7	0.023825152
207	0x3e4e7885	0.20163162
208	0xbe22abec	-0.15885895
209	0x3da4d305	0.08048061
210	0xbb93db6a	-0.00451224
211	0xbdd58af1	-0.104268916
212	0x3e30da88	0.17270863
213	0x3d6a24f8	0.057164162
214	0xbdaf95b1	-0.08573473
215	0x3d0e6236	0.03476163
216	0x3d5b568a	0.053549327
217	0x3e6cf45c	0.2314009
218	0xbba4fb90	-0.0050348714
219	0xbeb2435d	-0.3481702
220	0xbce4cace	-0.027928736
221	0x3d7f1ec0	0.062285185
222	0xbcd7566a	-0.026286323
223	0xbe212e35	-0.15740283
224	0xbc311347	-0.010807819
225	0x3de1ddf9	0.11028666
226	0xbc9b3900	-0.018948078
227	0xbd407f02	-0.046996124
228	0xbca78249	-0.020447867
229	0x3dc68db7	0.09694999
230	0xbe9ba7ca	-0.3040145
231	0xbcd2e49e	-0.025743779
232	0xbe4eeec4	-0.2020827
233	0x3dbcecc6	0.092248484
234	0xbd2efca8	-0.04272142
235	0x3d39ebe4	0.04539098
236	0xbe801db5	-0.25022665
237	0x3d838112	0.064211026
238	0xbd3cafae	-0.04606598
239	0xbe085211	-0.13312556
240	0x3e0b989e	0.13632438
241	0xbd8c063d	-0.06837127
242	0x3e4d0e46	0.20024976
243	0xbdc9c805	-0.09852604
244	0x3e4ec910	0.20193887
245	0xbd6d8ae3	-0.05799378
246	0xbe0044de	-0.12526271
247	0x3d03eb80	0.032207012
248	0xbce326cb	-0.027728459
249	0xbda6a636	-0.08137171
250	0xbdbbc0ac	-0.091676086
251	0x3d6e1a4c	0.058130547
252	0x3aae6663	0.001330566
253	0xbd4c54c4	-0.049885526
254	0x3dd69399	0.10477371
255	0x3e0b3536	0.13594517

l3.bias f4 [9]
0	0x3e727540	0.2367754
1	0x3dd6ae95	0.10482518
2	0x3dbeebcf	0.09322321
3	0x3e16eb15	0.14738114
4	0xbe10a937	-0.1412705
5	0x3dd197ff	0.10234069
6	0xbe4c34e0	-0.19942045
7	0x3c0656d8	0.008199416
8	0xbce5962b	-0.028025707

l4.weight f4 [53, 9]
0	0x3f88605b	1.0654405
1	0x3f54fa1f	0.83194155
2	0x3f6d96f2	0.9280845
3	0x3f8d23cb	1.1026548
4	0xbf7d5bf6	-0.98968446
5	0x3f0d3188	0.55153704
6	0xbf75ca53	-0.9601185
7	0x3e86611c	0.26245964
8	0x3ed1852b	0.40921912
9	0x3e309a82	0.1724644
10	0x3f29bcd5	0.6630376
11	0xbf0fd9e6	-0.5619186
12	0x3f826181	1.0186006
13	0xbf8ffada	-1.1248429
14	0x3e475314	0.19465286
15	0x3f70618d	0.9389885
16	0x3f8b909a	1.0903504
17	0x3fc09052	1.5044043
18	0xbe174487	-0.14772235
19	0x3c503625	0.012708222
20	0x3e2e233c	0.17005628
21	0x3f32f7c8	0.69909334
22	0xbfd19c93	-1.6375908
23	0x3f70f62f	0.94125646
24	0xbf30b0e2	-0.690199
25	0x3f86a2bf	1.0518416
26	0x3f98b176	1.1929157
27	0x3ea1c137	0.31592724
28	0xbcb259d2	-0.021771345
29	0xbe14b52f	-0.14522241
30	0x3f72ab0d	0.9479225
31	0xbfdb5126	-1.713414
32	0x3f03e4f5	0.51521236
33	0x3d8d9ed7	0.06915062
34	0x3f9b2d85	1.2123266
35	0x3fd3ff6c	1.6562324
36	0xbdca720a	-0.098850325
37	0x3f03ae8e	0.51438224
38	0x3ef283aa	0.47366077
39	0xbe8df7eb	-0.2772821
40	0x3ff1a06c	1.8877082
41	0xbe8f1f93	-0.27953777
42	0x400c15f9	2.188841
43	0x3fba81e6	1.4570892
44	0x3f326bea	0.69695914
45	0x3d885f07	0.0665875
46	0x3ef5fad3	0.48042926
47	0xbe9f546f	-0.31119105
48	0x3f8e715a	1.1128342
49	0xbfd30ba2	-1.6487925
50	0x3f3f54ac	0.74738574
51	0xbee45a2e	-0.44600052
52	0x3f50025e	0.8125361
53	0x3f8f8f0f	1.1215533
54	0x3da821cd	0.08209572
55	0xbf141dcd	-0.5785797
56	0x3f409d38	0.75239897
57	0x3d85f263	0.06540372
58	0xbf885fd5	-1.0654246
59	0x3f9a7b8c	1.2068954
60	0xbe0d29e0	-0.13785505
61	0x3f9a619a	1.2061036
62	0x3fe4e1f5	1.7881457
63	0x3dd0d0f6	0.10196106
64	0xbf0bf802	-0.54675305
65	0x3f32fa57	0.6991324
66	0xbeb1e30c	-0.34743536
67	0xbf7161c5	-0.9428981
68	0x3fa375f0	1.2770367
69	0x3edd1053	0.43176517
70	0x3fbb23fd	1.4620358
71	0x3fdac14a	1.7090237
72	0x3e84d372	0.2594257
73	0xbe9a087a	-0.30084592
74	0x3e28aaac	0.16471356
75	0x3f81104d	1.00831
76	0xbfe06859	-1.7531844
77	0x3f9a6aae	1.2063806
78	0xbef23f97	-0.4731414
79	0x3ed1641b	0.40896687
80	0x3f4f8885	0.8106769
81	0x3ed2522a	0.4107831
82	0x3e9b0039	0.30273607
83	0xbf01b527	-0.5066704
84	0x3fc42158	1.5322676
85	0xbfe601dc	-1.7969317
86	0x3efba838	0.49151778
87	0xbe6f8898	-0.2339195
88	0x3f52fa2e	0.82412994
89	0x3fc66834	1.550055
90	0xbe628a3a	-0.22123042
91	0xbe271b58	-0.16319025
92	0x3f273b8d	0.6532524
93	0xbdf7d4f7	-0.12101167
94	0xbf4aaa24	-0.79165864
95	0x3f50ce69	0.81564957
96	0x3c45a9a7	0.012064374
97	0x3fb8584a	1.4401944
98	0x40108b84	2.2585154
99	0xbe01b65a	-0.12667218
100	0x3e6f2468	0.23353732
101	0x3def2ee0	0.116788626
102	0x3ee6062f	0.44926593
103	0xbfbedd25	-1.4911238
104	0x3f21c2df	0.63187975
105	0xbeb82b5a	-0.35970575
106	0x3fd975e0	1.6989098
107	0x40122ef1	2.284115
108	0x3e9bab9c	0.30404365
109	0x3e3a4ad1	0.18192603
110	0xbeb2f8a4	-0.34955323
111	0x3f569197	0.838159
112	0xbfe66d4c	-1.8002105
113	0x3f7036b2	0.9383346
114	0xbea23c83	-0.31686792
115	0x3f9ee630	1.2413998
116	0x3fb9b305	1.4507757
117	0x3edf2930	0.4358611
118	0x3e27d09e	0.16388175
119	0xbed7f549	-0.42179325
120	0x3f950f6b	1.164533
121	0xbfc5c301	-1.5450135
122	0x3f3a293a	0.72719157
123	0xbec7b005	-0.3900148
124	0x3f7ff5f0	0.99984646
125	0x3fafe772	1.3742507
126	0xbfa4ccf6	-1.2875049
127	0xbf6b683c	-0.91955924
128	0xbf487bc7	-0.7831387
129	0x3d859f32	0.06524505
130	0x3eda901c	0.42688072
131	0x3e5f2652	0.21791962
132	0x3ff33acc	1.9002318
133	0x3fe3ae72	1.7787611
134	0x3fd5bb8a	1.6697857
135	0x3e91a44a	0.28445655
136	0x3ecb1aad	0.3966879
137	0x3e963f86	0.2934534
138	0xbefa0890	-0.48834658
139	0x3f9a3544	1.2047505
140	0xbf0b1598	-0.54329824
141	0x4002235a	2.0334077
142	0x3f4902d4	0.7851994
143	0x3f80de86	1.0067909
144	0xbe481e0d	-0.19542713
145	0x3e91867a	0.2842291
146	0x3c9bc51b	0.019014886
147	0x3f9fd691	1.2487355
148	0xbfe0cda8	-1.7562761
149	0x3ee48016	0.44628972
150	0xbe814a0e	-0.25251812
151	0x3f7bcb3a	0.98356974
152	0x3fad4e38	1.3539495
153	0x3f2a0e82	0.6642839
154	0x3f67fea2	0.90622914
155	0xbdab37c7	-0.08360248
156	0x3fa7dea6	1.3114822
157	0xbfd2deca	-1.647424
158	0x3f8f17ba	1.1179116
159	0xbf838425	-1.0274702
160	0xbe90a8ea	-0.2825387
161	0x3cefadcb	0.029257676
162	0x3e839291	0.2569776
163	0x3ecd8212	0.40138298
164	0xbee188f3	-0.44049796
165	0x3f914784	1.134995
166	0xbf9d97c5	-1.2311941
167	0x3e89d55f	0.26920602
168	0xbc2130b8	-0.009838276
169	0x3fbeb291	1.4898244
170	0x3fb8eeaf	1.444784
171	0xbd81d82f	-0.06340062
172	0x3f16d571	0.58919436
173	0xbdcac192	-0.09900202
174	0x3e147782	0.14498714
175	0x3e970572	0.29496342
176	0xbf58f9cf	-0.8475618
177	0x40066eee	2.1005206
178	0x3fd46875	1.6594378
179	0x3ff6cbc5	1.9280936
180	0xbe3cae75	-0.18425925
181	0xbe99e7af	-0.30059573
182	0x3f5983af	0.8496656
183	0xbecc6789	-0.3992274
184	0x3f16221e	0.5864581
185	0x3e73a440	0.23793125
186	0x3ffb3a5f	1.9627188
187	0x3fc30982	1.5237277
188	0x3fddc00a	1.7324231
189	0x3f0a9cd9	0.5414558
190	0x3e7df154	0.2479909
191	0x3f952840	1.1652908
192	0x3e3817b8	0.17977798
193	0xbfa36f60	-1.2768364
194	0x3f8cf108	1.1011057
195	0xbf82ef3a	-1.0229256
196	0xbea918b0	-0.33026648
197	0x3e049395	0.12946923
198	0x3ea130ea	0.3148263
199	0x3e038c29	0.12846436
200	0xbd6a744e	-0.057239823
201	0x3fa27abe	1.2693708
202	0xbfd6cde0	-1.6781578
203	0x3f85053d	1.0392224
204	0xc017aaf9	-2.3698103
205	0xbea3c4a4	-0.31985962
206	0x3e371b2e	0.17881462
207	0xbd7b2c01	-0.061321262
208	0x3f60803d	0.87695676
209	0xbeffb6d4	-0.49944174
210	0x3f46ce45	0.7765849
211	0xbe94cd6d	-0.29062977
212	0xbf2c0791	-0.67199045
213	0x4010ce5f	2.262596
214	0x3fd1ce0b	1.6391004
215	0x3ff49b35	1.9109865
216	0x3ca7abbe	0.020467635
217	0xbee5ae2a	-0.4485944
218	0x3f23822e	0.63870513
219	0xbc073c7c	-0.008254167
220	0xbfb31fad	-1.3994042
221	0x3fb8c879	1.4436179
222	0xbe7dc031	-0.24780346
223	0x3fa512b2	1.289633
224	0x3ff16a38	1.886054
225	0x3e1026b3	0.14077263
226	0x3f30f919	0.6913009
227	0xbf0a8fca	-0.54125655
228	0x3fae4783	1.3615574
229	0xbfc92a23	-1.5715984
230	0x3eba0acf	0.3633637
231	0xbee0c989	-0.4390376
232	0x3f1f6d7f	0.6227645
233	0x3fb0f0ab	1.3823446
234	0xbdac37c9	-0.08409078
235	0xbe122691	-0.14272524
236	0x3edd2bd5	0.43197504
237	0x3e6b97a2	0.23007062
238	0xbfa4df88	-1.2880716
239	0x3f4f7305	0.8103488
240	0xbe826c39	-0.25473192
241	0x3f96e516	1.1788661
242	0x40019de0	2.025261
243	0x3e664dea	0.2249066
244	0xbe6d19e0	-0.23154402
245	0x3e371dc3	0.17882447
246	0x3e079fe9	0.13244595
247	0xbf85af0c	-1.0444045
248	0x3f392ccb	0.72333974
249	0xbec559c8	-0.3854506
250	0x3fa2e850	1.2727146
251	0x401df14d	2.4678528
252	0xbd94a23a	-0.07257505
253	0xbede4bcb	-0.434172
254	0x3f4ea694	0.8072293
255	0xbd406a9d	-0.046976674

l4.bias f4 [53]
0	0x40084647	2.1292894
1	0x3cc18b08	0.023625866
2	0x3f051277	0.519813
3	0x3b8d32e3	0.0043090447
4	0x3f074611	0.5284129
5	0x3e11de05	0.1424485
6	0xbd894f62	-0.06704594
7	0x3d6509a3	0.055917393
8	0x3f023d55	0.50874835
9	0x3d08d298	0.033403963
10	0xbe934cb7	-0.28769466
11	0xbeabac9a	-0.33530122
12	0x3f089897	0.53357834
13	0xbd93ed23	-0.072229646
14	0xbe3a76fe	-0.18209454
15	0x3e84ea33	0.2595993
16	0x3e50fe64	0.20409542
17	0x3ff6fa2c	1.9295096
18	0x3e08ce9a	0.13360062
19	0xbf4a144e	-0.7893723
20	0xbf223f29	-0.63377625
21	0x40015afb	2.021178
22	0x3faac713	1.3342003
23	0xbeee55ff	-0.46549985
24	0x3dc57818	0.09642047
25	0x3f1ee27b	0.6206433
26	0xb8f7e0f0	-0.00011819776
27	0x3e3d97d4	0.18514949
28	0x3d8e87e0	0.0695951
29	0x3fc7854e	1.5587556
30	0x3e888a0a	0.26667815
31	0x3e9e6f35	0.3094422
32	0x3e645a33	0.22300033
33	0xbe416210	-0.18885064
34	0xbf821c07	-1.0164803
35	0xbf80c1bb	-1.0059122
36	0x3eb58150	0.3545022
37	0x3ff50f6a	1.9145329
38	0x3e30de97	0.17272411
39	0x400244ed	2.035457
40	0xbdb9a120	-0.09063935
41	0x3e46c108	0.19409573
42	0x3eb6262a	0.35575992
43	0x3ebb9997	0.36640617
44	0x3fbd7eda	1.4804337
45	0xbea12dc7	-0.31480238
46	0x3fb7f591	1.4371816
47	0x3dad103b	0.08450361
48	0x3d5b2274	0.053499654
49	0x3e177538	0.14790809
50	0xbe32c5a9	-0.17458214
51	0x3f812105	1.0088202
52	0xbd9487b2	-0.07252444

l5.weight f4 [85, 53]
0	0xc03e37b2	-2.9721494
1	0x3f31ec1c	0.695009
2	0x3e1b7487	0.1518117
3	0x3ef43bd8	0.47701907
4	0x3f2f618f	0.6850824
5	0xbc1605e8	-0.009156682
6	0x3e91348b	0.283604
7	0x3f2b9fc5	0.67040664
8	0xbe4aa27b	-0.19788544
9	0x3e596214	0.2122882
10	0x3f194748	0.5987439
11	0x3f15ec3c	0.5856359
12	0x3ea014c9	0.31265858
13	0x3ecaf619	0.39640883
14	0x3fa0d4dc	1.256496
15	0x3eb90924	0.36139786
16	0x3ee0d575	0.43912855
17	0xbfe9e017	-1.8271512
18	0x3eeb0ecf	0.45909736
19	0x3f8e6017	1.1123074
20	0x3f7e7312	0.99394333
21	0xc00f49cf	-2.23888
22	0xbf5a7bf5	-0.85345393
23	0x3f9c2fb1	1.2202054
24	0x3ea811f6	0.32826203
25	0xbe39d8b3	-0.1814907
26	0x3eee31e1	0.4652243
27	0x3f35028d	0.7070702
28	0x3e801468	0.2501557
29	0xc00f7883	-2.2417305
30	0x3e9446b5	0.28960195
31	0xbe05d948	-0.13071167
32	0x3eb64c87	0.3560526
33	0x3f03e3cd	0.5151947
34	0x3f5cd3b4	0.86260533
35	0x3f7659c7	0.9623074
36	0x3f2ffce2	0.68745244
37	0xc0312c12	-2.7683148
38	0x3e48ad84	0.19597441
39	0xc01a1612	-2.407597
40	0x3f914b5c	1.1351123
41	0x3f22b8dd	0.6356333
42	0x3f08dbe6	0.5346054
43	0x3eff08bc	0.4981135
44	0xc01ccb88	-2.4499226
45	0x3f5853d6	0.84502923
46	0xbfd8013e	-1.6875379
47	0x3f317252	0.69315064
48	0x3e91604a	0.28393775
49	0x3e29bde9	0.16576351
50	0x3f0c87eb	0.54894894
51	0xbe8efb7f	-0.2792625
52	0x3f26e4de	0.65192974
53	0xbbefa972	-0.0073139006
54	0x3fa093de	1.2545125
55	0x3e1b281c	0.1515202
56	0x3f4e0bcb	0.80486745
57	0xbe701e0c	-0.23448962
58	0x3f8689c8	1.0510798
59	0xbeaad3e8	-0.33364797
60	0xbe46d76c	-0.19418114
61	0x3cca7aa4	0.024716683
62	0x3fbc9177	1.4731892
63	0xbda78465	-0.08179549
64	0x3f255653	0.64584845
65	0x3fa7efdc	1.3120074
66	0x3f687e66	0.9081787
67	0xbf215cfd	-0.63032514
68	0xbe61a911	-0.2203715
69	0x3f2cf4b6	0.675609
70	0x3e4520a1	0.19250728
71	0x3f890c27	1.0706834
72	0x3eee6586	0.4656183
73	0xbed92acb	-0.4241546
74	0xbe4a32f6	-0.19746003
75	0x3e373d06	0.17894372
76	0x3f51bb3e	0.81926334
77	0x3d95e2a4	0.07318619
78	0x3fb3c113	1.4043297
79	0x3e7b990b	0.245701
80	0x3e974760	0.29546642
81	0xbeb99284	-0.36244595
82	0x3df42981	0.11921979
83	0x3f9c7688	1.2223673
84	0xbe993f5f	-0.2993116
85	0x3fd691e1	1.6763269
86	0x3f3a853d	0.72859555
87	0x3e9dc5cc	0.3081497
88	0x3eb937db	0.36175427
89	0x3f8729f1	1.0559675
90	0xbe3894e2	-0.18025544
91	0x3f802176	1.0010211
92	0xbe05d35d	-0.1306891
93	0x3f0eafe6	0.5573715
94	0x3f884604	1.0646367
95	0x3fa49789	1.2858745
96	0xbc86b759	-0.016444849
97	0xbdec0f82	-0.115263954
98	0x3eba7771	0.36419252
99	0x3e8c1ed5	0.27367273
100	0x3f6fb97e	0.93642414
101	0x3eb21a9f	0.34785935
102	0xbef4cb2e	-0.47811264
103	0x3f3f07bf	0.74621195
104	0xbe1164e0	-0.14198637
105	0x3f425e6d	0.7592533
106	0xbd06c494	-0.032902315
107	0x3f8de691	1.1085988
108	0x3e72af9c	0.23699802
109	0x3f48a664	0.7837889
110	0xbefe4932	-0.4966522
111	0x3f97ed1c	1.1869235
112	0xbebcd474	-0.3688084
113	0xbe618ba6	-0.22025928
114	0x3e35c89f	0.17752312
115	0x3f9de7be	1.2336347
116	0xbba6a0c9	-0.005085085
117	0x3ef6a23e	0.48170656
118	0x3fb4b410	1.4117451
119	0x3f777412	0.96661484
120	0xbf140778	-0.57823896
121	0xbe46c4df	-0.19411038
122	0x3f271843	0.65271395
123	0x3dec9542	0.11551906
124	0x3f656a8b	0.89615697
125	0x3e079c43	0.13243203
126	0xbf3d7b31	-0.740161
127	0xbe6fe08f	-0.23425506
128	0x3e90457f	0.2817802
129	0x3f0d7daf	0.552699
130	0x3d51e5eb	0.051244657
131	0x3faa03fd	1.3282467
132	0x3ea58aef	0.3233256
133	0x3e88c5e9	0.26713493
134	0xbeb57432	-0.35440212
135	0xbbaaa389	-0.005207483
136	0x3f882cdb	1.0638689
137	0xbd27ce43	-0.04096819
138	0x3fc52dfc	1.5404658
139	0x3f6c095a	0.9220177
140	0x3d88453b	0.0665383
141	0x3e84f9a5	0.25971714
142	0x3f8f0630	1.1173763
143	0xbe38cf82	-0.18047908
144	0x3f9d7e02	1.230408
145	0xbda1c04a	-0.07898004
146	0x3ec31bc6	0.38107127
147	0x3f7398ed	0.9515522
148	0x3fa6d93b	1.3035043
149	0x3df418c6	0.11918788
150	0xbea5839f	-0.3232698
151	0x3e9c6748	0.30547547
152	0x3edfc4a1	0.43704703
153	0x3f43f3bf	0.765438
154	0x3e78ce71	0.24297501
155	0xbf0db51c	-0.55354476
156	0x3f1f31f5	0.62185603
157	0x3db46ad0	0.08809435
158	0x3f296221	0.6616536
159	0xbdb20601	-0.086925514
160	0x3d96be0f	0.073604695
161	0x3ed73353	0.42031345
162	0x3f34a829	0.7056909
163	0xbf680c4f	-0.9064378
164	0x3f338134	0.70119023
165	0x3ee85385	0.4537622
166	0x3e6caf7b	0.23113815
167	0x3f1fb7e3	0.62389964
168	0x3f657ea2	0.8964635
169	0x3e549120	0.20758486
170	0x3e61992f	0.22031091
171	0x3f6baf58	0.9206443
172	0x3f2824f0	0.6568136
173	0xbf10dde5	-0.56588584
174	0xbf2fa193	-0.6860592
175	0x3ee8d12e	0.4547209
176	0x3e133db9	0.14379014
177	0x3e926b3b	0.28597435
178	0xbf1136d9	-0.56724316
179	0xbf22dd1b	-0.6361863
180	0x3d9edffe	0.07757567
181	0x3f3f5b6a	0.7474886
182	0xbe9d7aa6	-0.30757636
183	0x3f18265b	0.59433526
184	0x3f357778	0.7088542
185	0x3f026ecd	0.5095032
186	0x3ed23241	0.41053966
187	0x3e48fbb9	0.19627275
188	0x3c9847de	0.018588956
189	0x3e4c0936	0.19925389
190	0x3f0a0901	0.5391999
191	0x3f80d8eb	1.0066198
192	0x3f35423b	0.70804185
193	0xbe15f2d1	-0.14643408
194	0xbe4cba52	-0.1999295
195	0x3f6bb64c	0.9207504
196	0xbe969a34	-0.29414523
197	0x3f1e77ff	0.6190185
198	0x3ce2901f	0.027656613
199	0xbf5e8bb8	-0.86931944
200	0x3f659ace	0.8968934
201	0x3f7c2165	0.98488456
202	0x3f5f51e1	0.8723431
203	0xbe0fefea	-0.14056364
204	0x3e72cb3a	0.23710337
205	0x3edbe50d	0.4294819
206	0x3f499508	0.7874303
207	0x3ed8744a	0.42276222
208	0x3e5ea529	0.21742691
209	0x3f39a95d	0.7252405
210	0x3f1bb97d	0.6082991
211	0x3f120b58	0.5704856
212	0xbdfb7eda	-0.122800544
213	0x3de598aa	0.11210759
214	0x3e58ef30	0.21184993
215	0x3f257781	0.64635473
216	0xbef9d3f3	-0.48794517
217	0x3eb7e172	0.3591419
218	0x3f5fd43f	0.87433237
219	0x3f426813	0.75940055
220	0x3eda5f66	0.42650908
221	0x3edf33aa	0.43594104
222	0x3eb97ac3	0.36226472
223	0x3f14275a	0.57872546
224	0x3f51fa9f	0.8202304
225	0x3e587105	0.21136864
226	0xbf48e98e	-0.78481376
227	0xbe28deb2	-0.16491202
228	0x3e55c202	0.2087479
229	0xbd3d86d9	-0.04627118
230	0x3ed7f0ca	0.42175895
231	0xbe3d7c42	-0.18504432
232	0x3dc1b076	0.094574854
233	0x3d1f5c37	0.038906302
234	0x3ddee04b	0.10882624
235	0xbe465198	-0.19367063
236	0x3f7a2274	0.9770882
237	0x3e363cb8	0.177966
238	0x3f5ee6ca	0.87070906
239	0x3f152281	0.58255774
240	0x3f1178aa	0.56824744
241	0xbdc49e61	-0.09600521
242	0x3e85b6f1	0.26116136
243	0x3f0b4e78	0.5441661
244	0x3f0ae069	0.5424867
245	0x3f7c0ef7	0.98460335
246	0x3ebd8090	0.37012148
247	0x3ee3d688	0.44499612
248	0x3f4f79dc	0.8104532
249	0xbe9b3a03	-0.30317697
250	0x3e2a5050	0.166322
251	0xbc71c905	-0.014757399
252	0xbec7fb46	-0.39058894
253	0x3f558f15	0.8342145
254	0x3f58d956	0.8470663
255	0x3f90eedc	1.1322894

l5.bias f4 [85]
0	0xbea1372e	-0.3148741
1	0xbf8cad82	-1.099045
2	0xbf26d595	-0.6516965
3	0xbeef07a3	-0.46685514
4	0xbf6452eb	-0.8918902
5	0x3ea0c417	0.31399605
6	0xbef65dee	-0.48118538
7	0xbf13064c	-0.57431483
8	0x3e938aa3	0.2881671
9	0x402edd5a	2.7322602
10	0xbee167e6	-0.4402458
11	0xbe8fa4b1	-0.28055337
12	0x3dc8a54b	0.09797152
13	0xbf010d29	-0.50410706
14	0xbf18afb5	-0.5964311
15	0xbe6de70b	-0.23232667
16	0xbefc7ccc	-0.49313962
17	0xbf56fec6	-0.83982503
18	0xbef8f967	-0.4862778
19	0x3f10e523	0.56599635
20	0xbf1b0fc7	-0.6057095
21	0xbec5945b	-0.3858975
22	0xbf6fba31	-0.9364348
23	0xbe8f6ac9	-0.28011158
24	0xbf5605f8	-0.8360286
25	0x3d3e540a	0.046466865
26	0x3fff4f33	1.9946045
27	0x4017ca52	2.3717237
28	0x3e951385	0.29116455
29	0xbef09fd8	-0.4699695
30	0xbec0b897	-0.3764083
31	0xbe534f09	-0.20635618
32	0xbf067533	-0.5252258
33	0xbea850f4	-0.32874262
34	0xbf06a5c6	-0.525967
35	0xbf0bae16	-0.5456251
36	0xbf762d84	-0.961632
37	0xbe8491ab	-0.25892386
38	0xbe507524	-0.20357186
39	0xbf46b72b	-0.7762324
40	0xbecce8d6	-0.4002139
41	0x3f18f944	0.5975535
42	0xbe414c63	-0.18876795
43	0xbf5f7d2b	-0.87300366
44	0xbcfb0bf6	-0.030645352
45	0xbf041b22	-0.516039
46	0xbf2f7027	-0.68530506
47	0xbf06f626	-0.5271934
48	0xbe8cb5df	-0.27482507
49	0xbe0c0712	-0.13674572
50	0xbf2a671e	-0.66563594
51	0xbf14c6a5	-0.5811561
52	0xbde2661d	-0.11054633
53	0xbf2353e6	-0.63799894
54	0x3f324309	0.6963354
55	0xbf370c21	-0.7150288
56	0xbf259dc0	-0.6469383
57	0xbf33f907	-0.7030186
58	0xbf3c39a6	-0.73525465
59	0xbdd8b13b	-0.10580679
60	0xbe345906	-0.17612085
61	0xbf0f550b	-0.5598914
62	0xbf27a3ac	-0.6548412
63	0xbed1eece	-0.41002506
64	0xbedd95a5	-0.43278232
65	0xbdb21720	-0.08695817
66	0xbea5a5a8	-0.32352948
67	0xbe0d12cd	-0.13776703
68	0x3f038336	0.51372087
69	0x4013b84e	2.308124
70	0xbebdcd49	-0.37070683
71	0xbf4ce39b	-0.800348
72	0x3f0a5ecd	0.54050905
73	0xbe7a5bef	-0.24449132
74	0xbf4aea3a	-0.7926365
75	0xbf21e41e	-0.63238704
76	0xbead5ec7	-0.33861372
77	0xbf372ceb	-0.71552914
78	0x3fdfbb8a	1.7479107
79	0xbea05b08	-0.3131945
80	0x3d39d0eb	0.045365255
81	0x3d99d52a	0.07511361
82	0xbdb61034	-0.08889809
83	0xbec15fd2	-0.37768418
84	0xbeb5f64c	-0.35539472
