models/Others/model_PGNN_1_1e-3_1.pt (torch, 127233 bytes, 12 tensors)

l1.weight f4 [189, 9]
00000000: 6d42 f3ba 92e3 403f 2e36 953e 392f d83e
00000010: 25bb 8abf 2067 b73f a652 01bf 1bbb 533f
00000020: cce1 adbd b5a7 98bc 935d 0940 d9c3 60bf
00000030: acee 11bd 2a1d 6dbf 570d 09c0 beeb 95be
00000040: 14aa 85bf acce 14be 77f3 1abc 8f8c f93d
00000050: f80a 793f 2958 e5bd dbfb c03e 7194 5a3e
00000060: ae43 8cbd 3dc2 43bf 696b 86bf 0a83 793b
00000070: 6504 123e 5fd4 0640 62b0 04bf 06a4 0b3f
00000080: d3a0 a93e 6b5b 04bf ae0c f63d b3d9 cfbe
00000090: 7927 d63b abba c93e dacb 383f e52c 883e
000000a0: 1445 02be a9c5 1bbf e94f c8bf 1e95 d9bf
000000b0: bc8d 7bbf 2616 f3ba ec82 203f afb0 1e3f
000000c0: a02a 9fbf 9bb8 fb3e fb6f 53c0 6669 f23d
000000d0: e50a dfbe 50b0 b5be fb58 833b ecb5 81bf
000000e0: e8de 41bf c2d2 73bc b11d 88bf 4e45 533f
000000f0: b988 c73e 62f4 a1bf dadf 523f 345c 26bb
00000100: 9016 9cbf ccd8 8d3c 384f a23d 0f25 ebbf
00000110: a4f9 7fbf 3517 f1be b29e 3a3f 5918 e1be
00000120: 1abc 1f3b da2b 89bf f008 a0bf 9766 25be
00000130: 4699 31bf 5037 82bf 82a8 063f 1a67 3e3f
00000140: 2fb8 30bf d095 84ba 40fe 403e ba1f e33e
00000150: 4801 a9bf 37a1 b43f 42c1 0a40 ed9b a1bf
00000160: 3563 5f3e 63ab 5bbe 3c27 db3b 8045 72bf
00000170: 460c a23f 6609 093f 32f0 113f 89ec 32bc
00000180: a804 00bf e58c 61bf d1ba 72bf 0e7d 143b
00000190: e4e7 193f 26fe 91bf 79ff 80bd f626 9cbe
000001a0: 476f c7be a89d e6bd 9395 2c3f 2a78 8d3e
000001b0: 1ed6 be3c b786 db3e 41c1 ccbf c5e3 7d3e
000001c0: 31bd 9a3f 59b6 433e fcec 86bf 2855 28c0
000001d0: 6044 5bbe 1dce 1dbb c6aa cdbe 86b4 acbe
000001e0: cb3e c4bd e15e ea3f 5f61 43c0 d0bf 563d
000001f0: 4324 15bf d32a 173f 8389 843c e97f e8be
00000200: 6a4a c2be e218 84bf d0b1 3dbf 73ef 4bc0
00000210: cb6f 163e 6167 d0bd 2022 903e 2e42 90b9
00000220: 9015 a2be 5020 013f aba7 09be fd2d 91bf
00000230: f979 3f3f df38 83bf 2c92 e0bf b3fb 8cbe
00000240: 2fef 7bbb 1495 81bf 66b9 a6bf f6d0 98bd
00000250: b45a 8c3e abe3 2fbf ae26 2fbf cd44 73bf
00000260: 2f8e 983e 4bb3 c93c 030f febd d123 35bf
00000270: 5076 68be 5211 9c3f ea92 00c0 c6e4 d8be
00000280: b078 ecbf 307e 663e ba77 953a 580f 803f
00000290: 7190 72bf a630 c83d be0b 50bf ff36 b6bf
000002a0: c190 e1be 8648 fd3e 03bf 0cbe 4693 81bb
000002b0: d7b2 91be 4fc1 71bf 361d bcbe 01a4 01bf
000002c0: 375a da3f 2413 1abe 3d70 75bf 538c bd3d
000002d0: 64f8 d7b9 0499 833d 6da2 633f fc00 143f
000002e0: c7f8 30c0 ad95 9b3e 81fc 503f 13c0 38be
000002f0: 10da 49be a9cd 4a3a af7a 3abf a9ac abbf
00000300: 636b e63d 4f91 4d3f 3397 5f3f ab58 453f
00000310: da64 303f e0ff cdbd 5507 c3b9 961a 06bd
00000320: 0e43 b83e a58b c33d 2034 ccbf fc9b 26bf
00000330: 2179 8ebf e6d0 d5bf 60d9 39bf 4e20 663c
00000340: fda0 53bf 2cd2 56bf dffb 153e bb1c bd3f
00000350: cb73 94be ae31 0640 3fa0 c73d 5db4 863f
00000360: a635 2bb9 7aef b4bc ceb2 853e 06fa 7abd
00000370: 4ad9 2bc0 09f3 d73f 198e 923e fdd5 11bf
00000380: 08c2 eebe 1cc7 5e3b 8c12 993f c865 d0bf
00000390: df3b b1bd 55d7 7ebf e0f7 35be e95b 223d
000003a0: 9d14 5e3f a427 9cbe cc51 77bb 4003 dbbf
000003b0: b6a9 efbf aaaa a4bd d771 f6bd 2c72 bcbd
000003c0: 035c a3be b44e 28bf d50c 0dbf b2ca 3ab9
000003d0: 90df ecbf cd4b d03f 4bd7 a6be bf7f 8cbe
000003e0: 195a 88be c05a 8cbf a290 28bd 7ffb c9bf
000003f0: c70d 0a3c e033 a93f 6658 61bf 74d6 cd3d
-0.0018559225 0.75347245 0.29142898 0.42223528 -1.0838362 1.4328346 -0.50516737 0.82707375
-0.08490333 -0.018634656 2.1463363 -0.8779884 -0.035628006 -0.92622626 -2.1414392 -0.2928142
-1.0442529 -0.14531964 -0.009457461 0.121850125 0.9728236 -0.11198456 0.3769215 0.21345688
-0.068488464 -0.7646826 -1.0501529 0.003807249 0.14259489 2.106712 -0.5183164 0.54547155
0.33130512 -0.5170199 0.12014137 -0.4059578 0.006535467 0.3940023 0.7218605 0.26596752
-0.12721664 -0.6084848 -1.5649387 -1.6998632 -0.98263144 -0.001854603 0.6269977 0.6198835
-1.2434883 0.4916428 -3.3037097 0.118365094 -0.43563 -0.35486078 0.00400841 -1.0133643
-0.7573075 -0.014881792 -1.0634061 0.82527626 0.389715 -1.2652705 0.8237282 -0.0025384547
-1.2194386 0.01731529 0.07925266 -1.8370684 -0.99990296 -0.47088018 0.728984 -0.43963888
0.0024373592 -1.0716507 -1.2502728 -0.16152416 -0.693745 -1.017313 0.5260087 0.7437607
-0.6903104 -0.0010115448 0.18846989 0.44360143 -1.3203516 1.4111699 2.1680455 -1.262571
0.21815188 -0.21452098 0.0066880267 -0.946373 1.2659996 0.53529966 0.57007134 -0.010920652
-0.50007105 -0.88105613 -0.9481631 0.0022657546 0.6011946 -1.1405685 -0.062987275 -0.30498475
-0.38952085 -0.11260539 0.6741573 0.2763074 0.023295458 0.42876217 -1.5996476 0.24793918
1.2088987 0.19112529 -1.0541072 -2.6301975 -0.21412802 -0.0024079152 -0.40169352 -0.33731478
-0.09582289 1.8310205 -3.052818 0.05242902 -0.58258456 0.5904972 0.016178852 -0.45410088
-0.37947398 -1.0320094 -0.74099445 -3.1864898 0.14691083 -0.10175968 0.28151035 -0.00027515128
-0.31657076 0.5043993 -0.13442867 -1.134216 0.7479549 -1.0251731 -1.7544608 -0.2753578
-0.0038442125 -1.012362 -1.3025329 -0.07461731 0.2741295 -0.6870677 -0.68418396 -0.95026857
0.29795977 0.024621626 -0.12405207 -0.70757776 -0.22701383 1.2192786 -2.008967 -0.4236204
-1.8474331 0.22509074 0.0011403479 1.0004683 -0.9475165 0.09774904 -0.8126792 -1.4235533
-0.4405575 0.49469393 -0.1374474 -0.003954324 -0.28456756 -0.9443559 -0.36741036 -0.50640875
1.7058781 -0.15046364 -0.9587439 0.0925528 -0.0004119306 0.0642567 0.8891972 0.57814
-2.7651842 0.3038763 0.8163529 -0.1804202 -0.1971209 0.0007736334 -0.7284345 -1.3412067
0.11250951 0.8029985 0.87340087 0.7708842 0.6890389 -0.1005857 -0.0003719876 -0.032740198
0.3598866 0.095481195 -1.5953407 -0.65081763 -1.1130716 -1.6704376 -0.7259731 0.014045788
-0.82667524 -0.83914447 0.14646862 1.4774393 -0.28994593 2.0967822 0.097473614 1.0523793
-0.00016327816 -0.022086848 0.2611298 -0.061273597 -2.6851373 1.6871043 0.28624037 -0.56967145
-0.4663241 0.003399319 1.1958785 -1.6281061 -0.08653998 -0.9954732 -0.17770338 0.039638434
0.86750203 -0.30498993 -0.0037737964 -1.7110367 -1.8723667 -0.08040364 -0.12033432 -0.09201464
-0.31906137 -0.6574509 -0.55097705 -0.00017813852 -1.8505726 1.6273133 -0.3258613 -0.27441213
-0.2663124 -1.0965195 -0.041153558 -1.5779876 0.008426136 1.3218956 -0.8802551 0.10050669

l1.bias f4 [189]
00000000: ff65 9fbf 7304 9f3e 8cfb 69bf f4d9 08be
00000010: fdd8 81bd cb5c 033f cca0 2d3f 4eaf 273f
00000020: 0dea 43be c9aa 1abf ec96 87bf acee 173f
00000030: 84ff 24bf cffc f93e 73ef db3d 2c98 a6bd
00000040: 8753 7e3d d98a a23e b7a7 7d3e 29ee f33e
00000050: e77c 9dbe ec5c a9be a5eb 18bd 74e1 acbe
00000060: d46a 6cbe c033 b23d 1a54 dfbe 3c7e f2be
00000070: 19a8 993e e740 e2be 259c 9a3d 1ec7 5ebe
00000080: 2bb9 983f 9c94 13bf a40d d63c 6c22 bb3e
00000090: 9a58 05bf 61a6 c4be 9527 40bf 2afd 09bf
000000a0: 01b4 593f d968 37be 4b0e f9be a91e 4ebf
000000b0: 6f1a 193f e8d8 a53e 42d2 7a3e 04c3 94bc
000000c0: 86b4 0abe a128 85bf 7434 323e 016e 273e
000000d0: 17eb 0bba 91cf 98be 6de4 64bf 7183 a33e
000000e0: 860d b03e 50a8 803e b015 d93e 6a56 da3e
000000f0: b8f7 64bf d2d4 82bd d1c7 793e 5e11 77be
00000100: 5363 efbd 67de 703e 19d1 c6bd 18f8 243d
00000110: 9891 b43e 9fe1 523e b966 4bbf 8592 413d
00000120: e790 c1be 84be 09be 9b2a bf3d 7553 ba3d
00000130: 59c5 c3bd 4aa8 183f 93b6 8abc 592f 3d3e
00000140: 461b 203e 05e6 efbe 38da 423d da83 083f
00000150: bc1d d63d ed28 b73e 3343 6a3f d842 43bf
00000160: e941 02bf 2009 bc3e fb2d 9a3e db33 47bf
00000170: f07e e33c cc5a 46bf 05cb f7be 6ea4 e8be
00000180: 8c7f 9abf 746a 0a3f 554b 08bf e22e 93be
00000190: 1710 1fbf fdaf b2be 554f fa3e 9979 973e
000001a0: d0c1 50be b4b0 2dbe 615f febe 0043 ae3e
000001b0: 8dec 893e e2ea 7b3e dd0c 28be 87e5 643e
000001c0: 6bd5 44bf 3cf6 d5be fd19 d4be a89d 753e
000001d0: e929 133f c750 0f3f 388f 94bd 3a0b 6fbf
000001e0: 8be6 8bbe cad2 ccbf 6591 bbbd 019a 7b3e
000001f0: 85ea 20bf 49f6 6e3e 9bca cb3e 9b52 c23d
00000200: 5aab d03e 2b83 313f 7b6e 06be 10b4 73be
00000210: 4745 7c3e e50a 243f af5d ea3d 0927 c03d
00000220: e19f 93be aff7 17bf 215b cebe 2192 01bd
00000230: 465e 57bf 2dd2 ca3c 67a5 973e c561 1b3e
00000240: 21cc 933e 2b71 3cbf b157 8d3e aca2 a63c
00000250: 93e4 613e d100 3ebf bf4a 303f 2bc8 253f
00000260: fac8 683e cc3a 4cbe b620 973d 2334 d0be
00000270: 85da 1f3f 1508 99be a867 66bd c6b9 5ebe
00000280: 81d8 753f c633 20bd 2fc5 68be a9e9 9fbf
00000290: 412c 16bf a1e0 e83e 2a01 0a3f 88cb ed3e
000002a0: 7f77 473f 37d1 4fbf aad4 883e 4b6c 263f
000002b0: 8353 b9be 9acf b6be 636c a83e 95d8 ee3e
000002c0: 5e3a 053e 5497 f7be 54f2 d63e d9c8 a43c
000002d0: 85f0 353e d4f9 07bf 9898 64bf 0213 86bf
000002e0: abea 16bf f917 273e 01f7 47bf e2f9 46bf
000002f0: 9226 4d3d
-1.2453002 0.31058082 -0.91399455 -0.13364393 -0.06340215 0.51313466 0.6782348 0.6550187
-0.19132252 -0.6041685 -1.0592933 0.5934856 -0.64452386 0.4882569 0.10739031 -0.08134493
0.062091377 0.31746557 0.2477101 0.4764264 -0.30759355 -0.33078706 -0.037334103 -0.33765757
-0.23087627 0.08701277 -0.43618852 -0.47361934 0.3001106 -0.44190142 0.075493135 -0.21755645
1.1931509 -0.57648635 0.026129551 0.365497 -0.5208832 -0.38408187 -0.750604 -0.5390192
0.8504029 -0.1791109 -0.48643717 -0.80515534 0.5980596 0.3239205 0.2449427 -0.018159397
-0.13545427 -1.0403024 0.17402822 0.16350557 -0.00053374603 -0.2984586 -0.8941105 0.3193622
0.34385318 0.25128412 0.4239936 0.42644054 -0.8944049 -0.063882485 0.2439263 -0.24127719
-0.116888665 0.2352234 -0.09707851 0.040275663 0.3526733 0.2059388 -0.7945362 0.047258873
-0.37805864 -0.13451582 0.09334298 0.090979494 -0.095591255 0.5963179 -0.016932761 0.18475093
0.15635404 -0.46855178 0.04757139 0.5332619 0.1045489 0.3577341 0.9150879 -0.7627387
-0.5088182 0.36725712 0.30113205 -0.778135 0.02777049 -0.77482295 -0.4839708 -0.4543795
-1.2070174 0.54068685 -0.5323995 -0.28746706 -0.62133926 -0.34899893 0.4888865 0.2958496
-0.20386434 -0.16961938 -0.49682143 0.34035492 0.26938286 0.2460132 -0.16411157 0.22353183
-0.7688815 -0.41789424 -0.41426077 0.23985922 0.57485825 0.5598263 -0.07253879 -0.93376505
-0.27324328 -1.6001828 -0.09158591 0.24570467 -0.6285785 0.23336138 0.39803013 0.09488412
0.4075573 0.6934077 -0.13128082 -0.23799157 0.24635802 0.64079124 0.1144365 0.09382445
-0.28832915 -0.5936231 -0.403039 -0.0316335 -0.84128225 0.024758423 0.2961838 0.15174015
0.28866675 -0.7361018 0.27605966 0.02034124 0.2205985 -0.74219996 0.68864053 0.6475856
0.22732916 -0.19944304 0.07379286 -0.40664777 0.6244281 -0.2988898 -0.056251198 -0.21750554
0.96033484 -0.039111875 -0.2273147 -1.2493182 -0.58661276 0.45483878 0.53908026 0.46444345
0.7791671 -0.8117861 0.2672475 0.6500899 -0.36196527 -0.35705262 0.32895193 0.46649614
0.13010547 -0.48357642 0.41981757 0.020115303 0.17767532 -0.5311558 -0.8929534 -1.0474551
-0.58951825 0.16317739 -0.78111273 -0.7772504 0.05008561

l2.weight f4 [119, 189]
00000000: 78b6 993d ffb5 47be 4d38 533e aa12 963e
00000010: 508e 953e 3f14 1abf 2773 a5be 4b4d 48be
00000020: 7fd8 debc db45 c63e 80ee 4f3e a50e b13d
00000030: d7a2 b3be ef17 8a3d 1706 e9be bee6 66be
00000040: ded7 b43d 4f30 c9be 2094 a13d 67d1 fabd
00000050: f779 dfbd 87ca 5a3d cb46 83bd b786 e3bc
00000060: edc4 76be 11eb ee3c 61d0 673e fb6a 42be
00000070: 585a 8abe 02ee 28bd c448 c5be 2c60 c73d
00000080: b291 61bd a122 dcbd 92df c4bd 59af 8f3e
00000090: e6d9 c43d 0e66 65bd b22e 603e ede8 fdbd
000000a0: 8a0d 9ebd 3f5c cdbe ad76 d6bb a39d 1fbe
000000b0: be67 abbc 804a a3bc 68a9 0b3f f85d 13be
000000c0: 895f 2abe 8052 0f3d 9f9a 073c a930 053d
000000d0: 650f 13be c77e 73bd e97b 933c 5b7d 773d
000000e0: 7ebe 203d ccda a93f b8e5 6ebe 521a 87bd
000000f0: 2c28 0abf fdec 78be f3db 7d3c 6cca 80bd
00000100: dd34 523e 751f 86bc 6f53 9bbd 92fa 073d
00000110: 91ad c7bd edf1 c23d b687 30bf 9801 4abe
00000120: ac45 1b3f d287 4fbe 97be 76bd 97fc b3bd
00000130: ae52 71be 9df5 04be 3cf8 573d c368 f73b
00000140: cd8a 483e d8d8 6fbd dc43 633e 71d4 153e
00000150: 02b2 8abe 965c d3be 8c54 8dbd 09fb 7eb9
00000160: a9e9 223e b9d4 893e 0eb7 b0bd f949 34bd
00000170: a867 d3bc faaf 5c3e 212a 4f3e c588 053e
00000180: fdf8 23be ba49 043d b2d9 743b bf51 023f
00000190: 02cf 023e 95b6 fabd 4107 78be 227b 82be
000001a0: b177 393e 1357 1d3e e863 a53e 3f9e e23e
000001b0: 021d 40be c8b4 8ebd 57ef 603c ad90 603d
000001c0: 8154 0c3f 3b75 dc3d 2a01 b0bd 2af4 383c
000001d0: 7257 61bd 1f08 893c f1be c9bc 6178 42be
000001e0: 3524 41be 9bb1 913e 2c14 c2bd 2991 0abe
000001f0: c155 4c3e eb52 aebe 38d8 02bf cc2d bd3d
00000200: e846 a53b 66e1 a2bd f880 243a dd08 58be
00000210: 09c5 943d e098 103e dcc8 333e b208 193f
00000220: 4395 f53d 7605 93bd 728d 3e3e ed39 803d
00000230: 76c0 893e 6f6f 473e dcc2 d7bd d366 963e
00000240: d54a f5bd 44f5 913e eea2 87be f0a1 41be
00000250: e424 b5be 8a57 ffbe b064 3dbe ccd3 a5bc
00000260: bb5d cabe 881a dabe dcbb f23d 7597 243d
00000270: bc68 78be c929 29be 58cc 8b3e 7130 0fbd
00000280: 0973 37be 653c 5d3c 9749 57be 076a 8f3d
00000290: 55ee 7f3e 0a3c 67be 8b5d 22bd 40a1 bf3e
000002a0: f9e3 b23d 7ffd 0dbd 29c3 9e3e be31 87be
000002b0: 6849 893e 13f2 1b3d a91d 27bd 4733 0a3d
000002c0: 84b1 babd 00a6 993e d762 a0bd 5070 b63d
000002d0: 9edf 883d efc1 17bf cfaa 863e 68e6 a3bd
000002e0: b6d0 6c3e 0f9e 88be 1d20 473e 1b83 a3be
000002f0: 2537 e33c 21b7 733c 775c 743c d2d6 b73c
00000300: d695 f3bd 4690 03bd 29cb dfbe e227 573e
00000310: 7db5 223e ca0b 3e3e a7e6 a73c 7985 e83c
00000320: 013c 9f3e 7829 633c 1ca2 8d3d 6813 0dbe
00000330: d992 0c3d 81c0 373e aa52 92bd 2d13 113e
00000340: 77cf 663e 67d8 05be 1108 173e 409c 67bd
00000350: 2da0 d43c 84b2 04be 220c 243d ce22 003e
00000360: af5a 423c ceff b93d 28fb 0c3d df31 9abd
00000370: 935c 083e c29b e03d 87fb edbc f221 843e
00000380: 4279 1f3e 6550 9bbd 2b10 d3bb 900f 55bd
00000390: 249a 4fbe de3d 8a3e a44f e6bc 4bc1 f5bc
000003a0: 140e 99be 65b6 983e e714 cd3e eea9 f63d
000003b0: 85ac 42bb 710a 1c3e 7fca 9c3d 0b08 ad3e
000003c0: b25e 6a3e e020 a2be 2a7a 61bc 1639 9c3d
000003d0: 8fd6 ac3e 79d6 823d 1cc1 583e e353 3c3e
000003e0: e83a 303e 05bb afbd 1649 85bd 9520 1e3e
000003f0: f1d1 1f3e ce4c fc3d 29a2 383d 32b8 acbd
0.07505506 -0.1950302 0.20626946 0.29311115 0.29210138 -0.60187143 -0.32314417 -0.19560735
-0.027202843 0.3872517 0.20305824 0.08645371 -0.35085174 0.06742846 -0.4551246 -0.22548959
0.08830236 -0.3929467 0.07889581 -0.122469716 -0.10911935 0.0534158 -0.06409987 -0.027774198
-0.24098559 0.029164823 0.22638084 -0.18986122 -0.27022052 -0.041242607 -0.38532078 0.0973514
-0.055070587 -0.107487924 -0.09612955 0.28063467 0.09611873 -0.05600553 0.21892813 -0.12397943
-0.07717426 -0.4010944 -0.006544909 -0.15587477 -0.020923492 -0.019932985 0.5455537 -0.14391315
-0.16638006 0.034990788 0.008276611 0.03251711 -0.14361341 -0.059447076 0.01800342 0.060422283
0.039244168 1.3269897 -0.23329818 -0.06596817 -0.5396755 -0.24309154 0.0154943345 -0.06288609
0.20527978 -0.016372422 -0.07584273 0.033197947 -0.09749902 0.095188 -0.6895708 -0.1972717
0.60653186 -0.20266655 -0.060240354 -0.08788412 -0.23566696 -0.12984319 0.05272697 0.0075503304
0.19584198 -0.058556408 0.22193855 0.14631821 -0.27088934 -0.41281575 -0.06900892 -0.00024316846
0.15909447 0.26920107 -0.08628665 -0.04401586 -0.025806263 0.21551505 0.20230915 0.13040455
-0.1601295 0.032296874 0.0037361202 0.50905985 0.1277428 -0.12241856 -0.24221517 -0.25484568
0.18112065 0.15365247 0.32302785 0.44261357 -0.18761066 -0.06968075 0.013728938 0.054825474
0.5481644 0.107645474 -0.08593972 0.011288682 -0.055015035 0.016727505 -0.02462718 -0.18991233
-0.18861468 0.28455815 -0.09476504 -0.13531937 0.19954588 -0.34047636 -0.51111174 0.09237251
0.005043853 -0.079531476 0.00062753214 -0.21097131 0.07264144 0.14120817 0.1755709 0.59778893
0.1199136 -0.07178776 0.18608645 0.062610485 0.2690465 0.19476102 -0.10535213 0.29375324
-0.11977164 0.28507435 -0.26491493 -0.1890943 -0.35379708 -0.49871475 -0.1849544 -0.020242594
-0.39524636 -0.42598367 0.118522376 0.040183503 -0.24258703 -0.16519846 0.2730434 -0.034958307
-0.17914976 0.013503169 -0.21024166 0.07002645 0.2499326 -0.22581497 -0.03963999 0.3742771
0.087348886 -0.03466558 0.3100827 -0.26405138 0.26813817 0.038072657 -0.04079977 0.033740308
-0.0911589 0.3000946 -0.07831352 0.08908141 0.066832766 -0.59280294 0.26302192 -0.08002931
0.23126492 -0.2668309 0.19445844 -0.31935963 0.027736256 0.014875204 0.014914623 0.022441301
-0.11893813 -0.03212001 -0.43709686 0.21011308 0.15889545 0.18559185 0.020495726 0.028383957
0.31100467 0.013864867 0.069156855 -0.13776934 0.034319732 0.17944528 -0.07144673 0.14167471
0.22540079 -0.13070832 0.14749171 -0.056545496 0.025955284 -0.12958723 0.040050633 0.12513277
0.011862441 0.09081994 0.03441921 -0.075290434 0.13316564 0.109672084 -0.029050602 0.25807148
0.155736 -0.075836934 -0.0064411364 -0.052016795 -0.20273644 0.27000326 -0.028114147 -0.029999396
-0.29893553 0.29826656 0.4005501 0.1204413 -0.002970488 0.15238358 0.076558106 0.337952
0.22887686 -0.31665707 -0.013762036 0.07628076 0.33757445 0.06388564 0.21167415 0.18391375
0.17209971 -0.08580593 -0.06508081 0.15442117 0.1560743 0.12319337 0.045076523 -0.0843357

l2.bias f4 [119]
00000000: 2da9 fe3d 8473 ff3e f089 99bd 2723 0d3f
00000010: e523 22bd dc42 ba3e 7bfa e2be 9cf1 9a3e
00000020: e533 863e d323 bebd b9f4 c63e ec25 3c3e
00000030: cb42 b13d 8d01 8c3e 084c 993e cf67 5b3e
00000040: 18b8 533e 7a3f 993a 19a0 7dbe aa5d 143d
00000050: 2850 01bf a124 8e3e 040c 203d 9031 1d3e
00000060: dda4 d93d 62e3 293e dc03 a83e 2725 023f
00000070: 1814 5cbe 01b3 74bc ed75 f3bd 4b2a ec3d
00000080: 3325 493e 428e b33e 7b68 af3c 689a f63e
00000090: bd67 083d 3a3d b5be 406d d03e fa45 bb3e
000000a0: f362 adbe d79b db3d 2cb2 133e 3d5c 433e
000000b0: 0613 abbd e714 d63d 4050 a93e 4cd3 4cb8
000000c0: fa66 ab3d ce29 063f 793a c23d f39e 63be
000000d0: aa65 9d3e 2e88 de3e ab47 efbe f7de 0d3e
000000e0: eda1 a5be 25c6 a53e b19e 873e b3ca 843e
000000f0: 33fe 8c3d 63be cc3e c8c6 cebe ae6d 723e
00000100: 0794 adbc 57c7 513e 7d50 f33e 422d 8bbe
00000110: 22ae 2a3e 2a41 1d3d 9483 993e d4db d2be
00000120: 8b1d 853e aec1 423e 6ce6 ef3e 8794 cd3e
00000130: a0de 183d f25f 97bc 5ef5 713e 80ee b43e
00000140: 0a14 bbbe 7a24 373e 4a04 8e3e e64d 2e3e
00000150: f48a c93d 8a50 bb3d 5579 7e3e d586 113f
00000160: a1f7 bcbe 24ab 0e3e ea1b 29bf b4a7 adbe
00000170: bf84 8ebd 73df 9e3d 5d42 85be 0da6 763b
00000180: 36c3 993e 70e0 d7bb 9183 fe3d c83b 043f
00000190: f766 053f 1f47 edbd 73de 163e 7397 d43e
000001a0: 6294 403e 2bd7 b03e 0d02 c7be 65a5 1cbe
000001b0: 0c11 af3e a54b 583e 5af4 673e 84ca 6d3e
000001c0: 1b18 51be a8d4 3fbc 6d24 1bbe 701b 45be
000001d0: 02fe bf3d 07aa cb3d 1638 f73d
0.124346115 0.4989282 -0.074970126 0.55131763 -0.039585013 0.36379135 -0.44331726 0.30262458
0.26211467 -0.09284177 0.38858584 0.18373841 0.08655318 0.27344933 0.2994082 0.21426319
0.20675695 0.0011691891 -0.24768104 0.036222138 -0.50512934 0.2776232 0.03907396 0.15350938
0.10627148 0.16590646 0.32815444 0.5083794 -0.2149204 -0.014935256 -0.11887727 0.11531504
0.19643097 0.35069472 0.021412125 0.48164678 0.033302058 -0.35398275 0.4070835 0.36576825
-0.33864555 0.107230835 0.14423436 0.19078155 -0.08353238 0.104532056 0.33069038 -4.8834176e-05
0.083692506 0.5240754 0.09483809 -0.22228603 0.30741626 0.43463272 -0.46734366 0.13854586
-0.32350102 0.32377735 0.2648826 0.25935897 0.06884422 0.39989004 -0.40386033 0.23674652
-0.021188749 0.20486198 0.47522345 -0.27182966 0.16667989 0.038392223 0.299832 -0.4118334
0.25999102 0.19019195 0.46855485 0.4015238 0.037321687 -0.018478367 0.23628756 0.3533821
-0.36538726 0.17885008 0.27737647 0.17021903 0.09840956 0.09146221 0.24850972 0.5684636
-0.36907676 0.13932472 -0.6605822 -0.3391701 -0.06958913 0.07757463 -0.26027194 0.0037635595
0.30031747 -0.0065880343 0.12427438 0.5165372 0.52110237 -0.11585831 0.14733295 0.41521797
0.18806604 0.3453916 -0.38868752 -0.15297468 0.34192693 0.21122606 0.22651806 0.23221785
-0.20419352 -0.011708416 -0.15150614 -0.19248748 0.0937462 0.099445395 0.120712444

l3.weight f4 [9, 119]
00000000: 0593 af3e 09d2 e33e 2ebf 653f 0b26 32bf
00000010: 4a6f ec3e 4400 88bc c7af d13e f816 52bd
00000020: aad1 493d 12c2 e7bd 3821 2c3e 8423 b83e
00000030: bfe3 cb3e c712 c5bd 38ed 02be b6dc 9ebf
00000040: 9177 643e 2ddd eabe 6c03 013f 6df4 d83e
00000050: e292 a43e 85cc d6be f416 63be 5685 3ebd
00000060: 4186 a03c a376 99be d8c9 babd dbb8 113f
00000070: c4aa fcbd 8476 bf3d 52f7 c3be 9d38 4cbe
00000080: be2f 70bb 6cbe e93e 0328 87be 61de b33e
00000090: cca1 993e 6387 893e 4b1e 973e f6fe e93e
000000a0: 63c2 db3e 53d5 2e3e 6a82 21bf 723a e93e
000000b0: 2125 cf3d 451f df3e 6bca 55be 0280 c83e
000000c0: 5bd1 5bbe 5791 ec3e e501 86bf f2e0 a73e
000000d0: 7bbb c93e da2f 783e 8b70 ae3e 374d d43e
000000e0: 05cb e33e 6830 2a3d 866e b73e e1ca c93e
000000f0: 6f6f b93e 9e86 43be 2c24 973e e5b8 21bf
00000100: 573b 203f dcdf e13e b1fa 923e 7ee0 1a3f
00000110: 7208 d83e b54d 13be 91a6 e33e dcec f33e
00000120: 202c c93e b7ae 573d c0eb ca3e f0e8 c13e
00000130: f077 203e bbb9 b33e bf28 bb3e c4ff c0bc
00000140: f886 973e 0a64 d93e 133a 583e 5912 5abf
00000150: daae f63e ead8 b93d 7fc2 bf3e 27e2 653e
00000160: 2d71 803e fbe9 703f 1d2d f63e e84b 863e
00000170: 7e14 633e 03fa 163f 6fdd 26be 03c3 24be
00000180: 48ed a93e e5d3 30bf 3c9e d43e 24c6 b13f
00000190: 838a b53e 7dc9 d9bf 2d9c d33e f3fb 933e
000001a0: 998d a63e ae5b 893e 8aec c43e a990 6abe
000001b0: 7815 f2be c809 29bc d9f5 9e3e aa61 da3e
000001c0: 0e8a e33e f454 323e 77d4 ad3e 1555 d33d
000001d0: dbfe 743d b9d2 e0bf 9102 653e 1117 f13e
000001e0: b024 683e 9cc9 d73e 09e8 55bf 2185 b83e
000001f0: bdc4 6b3f 8f21 d53e 2c87 8ebd 0a91 433f
00000200: 40de b4be 54e9 963e b6cb e03e 8096 d23e
00000210: 9235 66be 366e 4e3e e5bf c03d 256d 873e
00000220: fa6d 0abf 5aa3 ef3e 027f f63e c6b9 d23e
00000230: 2267 403f 2b33 72bf ddea 863e 6f1b 033e
00000240: 315d c93e e005 853c c7e7 073f e8e8 9f3e
00000250: 99dc abbd 2cb6 05bf 9c23 ccbe 1b58 8abd
00000260: ae0a 4e3e cdfe db3d 6049 0b3e 5d0c 483e
00000270: 72cd e83e d203 4a3e 5618 b93e 1e31 993e
00000280: 2673 743e 5fb9 283d a21a cf3e 9761 e23d
00000290: bb69 e63e 6ab1 233c 05d3 b03e d934 d63e
000002a0: 8b04 8b3e df65 383f 1a5f 783e b71a c1bd
000002b0: 93d2 963e 2da3 bf3e 1abd 3e3e b93a f93e
000002c0: cdd3 993f 936c cd3e cde4 d93e 3ec0 ddbe
000002d0: d764 acbc 7a98 31be 5395 a1bf d979 8cbe
000002e0: f1d1 ca3e 7b36 273e fb15 b4bd 28b4 893e
000002f0: b323 9b3e 1d66 04be 6758 e13e 6313 e03e
00000300: bdd5 2f3c 7ab1 933e 4d3b 253e 90cd a23d
00000310: e8ab ca3e a1f3 123f 7b8c 18bd 78e8 c33e
00000320: 47a2 e13e 8383 233e 5a44 c43e a03a a9be
00000330: c2b4 743e 476a b33e a5f1 1b3e 6068 fb3d
00000340: 47e7 dd3f baf6 d43e 539f d73e 70dc 0b3e
00000350: ec90 f73e 3025 0fbe 8118 babe 7fef 303e
00000360: 1a80 183d 6e54 be3e ab9e 42bf 7324 593e
00000370: 5101 19bf 0a7c b23e 14cc 303e 6be5 c93e
00000380: 46f4 fd3e 4505 873e 7880 04be 6884 b93e
00000390: 24af 2e3e 16cd a3bd 6d73 c33e 45f3 e13e
000003a0: 1743 97be 8f5b c93e 3922 a43e ffd5 013f
000003b0: e448 d03f a746 78be cec7 b13e 53a7 823e
000003c0: 9359 86bf 3855 29bf 014d ee3e 66ab 05bf
000003d0: 09c7 e43e a638 2fbd 1fa1 8dbe 7244 f23e
000003e0: e530 55be 2617 8b3e 0a2d ad3e 4712 13bf
000003f0: 343b bc3d 4f55 d03d db83 0dbe d470 40bd
0.34291855 0.44496182 0.8974484 -0.695893 0.46178657 -0.01660169 0.4095442 -0.051291436
0.049272217 -0.11316313 0.16809547 0.35964596 0.39822194 -0.09622722 -0.12785804 -1.2411106
0.22311236 -0.4587187 0.50395846 0.42373982 0.32143313 -0.4195291 -0.22176725 -0.046513878
0.019595267 -0.29973325 -0.0912053 0.5692269 -0.123372585 0.09348777 -0.38274628 -0.19943471
-0.003664955 0.45653093 -0.26397714 0.351306 0.30006254 0.26861104 0.295153 0.45702332
0.42921743 0.17073564 -0.6308962 0.45552403 0.10114504 0.43578544 -0.20877998 0.39160162
-0.21466582 0.46204636 -1.0469328 0.32788807 0.3940085 0.24237004 0.34070238 0.4146516
0.4449083 0.04155007 0.3582651 0.39412597 0.3621783 -0.19094321 0.29519784 -0.6317275
0.62590545 0.44116104 0.28706887 0.604988 0.42193943 -0.14385112 0.44463018 0.47641647
0.39291477 0.052656855 0.39632988 0.3787303 0.15670753 0.3510264 0.36554524 -0.023559459
0.2959516 0.42459136 0.21115904 -0.85184246 0.48180276 0.09074576 0.37453076 0.22449552
0.25086346 0.94107026 0.48081294 0.26229787 0.22175786 0.5897524 -0.16295408 -0.16090016
0.33188844 -0.69073325 0.41526973 1.3888593 0.3545724 -1.7014614 0.4133009 0.2890316
0.32529905 0.2682776 0.38461715 -0.22906746 -0.47282004 -0.010317273 0.31046942 0.42652637
0.44441265 0.1741522 0.3395116 0.103189625 0.05981336 -1.7564307 0.2236426 0.4708791
0.22670245 0.42146003 -0.8355718 0.3603907 0.92097074 0.41627166 -0.06959376 0.7639319
-0.35325813 0.2947489 0.4390542 0.41130447 -0.22481373 0.2015923 0.09411601 0.26450458
-0.5407406 0.46804315 0.48143774 0.4115736 0.7515737 -0.94609326 0.2635106 0.12803434
0.39328912 0.016238153 0.5308804 0.3123238 -0.08391685 -0.522311 -0.39870918 -0.06755086
0.20121261 0.10741959 0.13602209 0.19535966 0.45469242 0.1972802 0.3615138 0.29920286
0.2387205 0.04119241 0.40450007 0.1105377 0.4500254 0.009991029 0.34535995 0.41837195
0.27151904 0.7203044 0.24255028 -0.094289236 0.2945753 0.3742918 0.18626824 0.48677614
1.2017761 0.40121898 0.42557374 -0.43310732 -0.021044178 -0.17343321 -1.2623695 -0.27436712
0.39613298 0.16329376 -0.08793255 0.2689526 0.30300674 -0.12929578 0.44012758 0.4376479
0.0107321115 0.2884634 0.16135903 0.07949364 0.3958428 0.57403 -0.037243348 0.38263297
0.4406912 0.15968136 0.38333398 -0.3305254 0.23897079 0.3504202 0.15228899 0.12275767
1.7336205 0.41594487 0.42113742 0.13658309 0.48352754 -0.1397903 -0.3634682 0.1727886
0.037231542 0.3717379 -0.7602336 0.2120531 -0.59767634 0.3486026 0.1726535 0.39432845
0.49600428 0.26371208 -0.12939632 0.3623383 0.17058998 -0.079981014 0.38174 0.44130912
-0.29543373 0.39327666 0.3205736 0.5071716 1.6272244 -0.24245702 0.3472275 0.25518283
-1.0496086 -0.6614566 0.46543124 -0.5221466 0.44683102 -0.042778634 -0.27661988 0.47317845
-0.20819433 0.27166098 0.33823425 -0.57449764 0.091909796 0.10172521 -0.1381983 -0.0469826

l3.bias f4 [9]
00000000: d33c a53e 47fb cf3e 6db6 10bd 01f7 b33e
00000010: 4def e63e 8ada bc3e c43b 133f be2d 123f
00000020: f3c0 d13e
0.32272968 0.40621397 -0.035330225 0.35149387 0.45104447 0.36885482 0.5751307 0.5710105
0.4096752

l4.weight f4 [53, 9]
00000000: 496b bf3d 2eb9 de3c 3672 16be 087c 573f
00000010: b897 4bbf 1bf9 90bf 84c0 233e 6e06 ea3e
00000020: e3f6 3dbc 437f 573d a0d1 cc3e 1dbe babe
00000030: 5c13 d4bd b89f 45bf 8230 20bf ee74 1cbd
00000040: c349 5bbf 4a01 68bf 8e0a 7ebe ed78 133e
00000050: e5c4 273e 7d9b 173e c536 443d 4fb2 cb3c
00000060: 6427 643f d6a4 8c3f 740b 99be fdab d13d
00000070: 6a3b 8c3d b255 16bf fbd1 b63e ba70 9abc
00000080: 819e 68be 6e9b 473f 81d9 923e 2ae4 9d3d
00000090: 10bf abbe 8c28 8b3e 4890 113e 20a9 0abd
000000a0: 4eeb fa3e 9ad6 d13e 3ac5 e43e 65fa 763f
000000b0: c53a 12bf 6f63 84be bbe6 a43e f754 8dbd
000000c0: b200 aebf f589 f7bf 071d 52bf a331 bfbf
000000d0: 0db0 babf e926 96bc d860 1fbd 7647 aabe
000000e0: 4109 0f3f 19dd 3b3e d266 56bd 1dfd 213f
000000f0: d7b5 c5be 2de9 f83d 36f0 1ebd 420f 5e3d
00000100: b0ca 8dbe 9831 a63e fc2d 5fbd 2b10 ff3e
00000110: 49de 843f c0b6 123f 156e 6f3f 3979 d8bc
00000120: a264 1a3e eac4 eabd 0020 a93c 1aab 2b3f
00000130: a194 46be b487 b7bd 7b8f 8e3f 50e2 2f3f
00000140: dd11 afbe efac c93e 23ed 2e3e 3828 a4be
00000150: c19c 0f3f e87d 0dbe 0d2a 923d 8a5e d53e
00000160: 2ba6 623e 6535 943e cc2c bebe 9b18 613d
00000170: fa51 b53e 6444 34be 4e8f d83d 18f8 1dbd
00000180: 2e93 3d3e e587 563f 1cd7 083e 814b 9cbe
00000190: 3625 a93d cf32 463e 8c0f 64be acfc b73d
000001a0: ca7b ff3e 2982 293f f739 783f 42ed 623e
000001b0: e7d1 fd3d 6373 0abd bc62 a2bd 0385 02bf
000001c0: 2124 8bbf 490e 7f3f 56b0 e5be 479f a13e
000001d0: eeb8 4f3e eaa3 c53e 5e48 4bbd 9ccf 88be
000001e0: 5f1d 223f ba7a 213f 5335 153f c4e0 453f
000001f0: b432 213f 19ce 91bd 0618 4fbe ac9b 373e
00000200: 6374 8b3d 6741 a13e e242 fe3e 0ff6 fa3d
00000210: 260b 133f 107f 643f 98de b3be a281 073e
00000220: e251 293c 13dd d3bd 6550 debd 0554 2d3f
00000230: c75e 943d 790f 16bf a96b d3be 1842 f13e
00000240: 42f5 a6be 055a 383e b11a 503e b9af 1f3f
00000250: 31d0 ecbd fd7e 08be 82bd 873f 9f88 303f
00000260: 1cc2 3bbe 4fa1 f33c d8d2 0e3e aeec 22be
00000270: 1777 393e 9f9a 8ebd 0c57 043f cfa9 583f
00000280: ba96 e63e f44c 8abe d73f fabc c27f 6d3e
00000290: 0aa8 5dbe ae9d ae3e 464d 08bf 9281 0abf
000002a0: 7800 203f 48d8 5c3f 1036 29bf 9b60 6bbe
000002b0: e355 5b3e eb58 4d3d 0739 0c3e 88b0 263f
000002c0: 782c 92bd bf56 34bf 3841 3bbf c1ac 5a3e
000002d0: f5e0 63be e24a 8ebd a5d4 9b3e a512 9b3e
000002e0: fa4f 573f 2007 f63e 2242 17bc 9f2d d13e
000002f0: faa1 0b3e 2839 3bbe 85b4 3b3c 24b6 9f3e
00000300: b6df 37bf e701 febe 7969 3ebe 5d13 ae3e
00000310: 3770 133e e29a f9be b5d5 003e 955a 9abc
00000320: 794a abbd 3d7b 053f 4215 f13e 1713 15bd
00000330: edec 7f3e dd5e 313f 0d55 bdbd 096a 16be
00000340: 39d4 b33e 64bc 3bbe 3679 053f f033 493f
00000350: fe30 a5bd bc5d 803f 76f4 183f 5fa2 6c3e
00000360: a375 c5bd 3670 8cbe c54a 283f b0eb 84be
00000370: be85 92be a8fb 6b3f a47c abbd 5ec6 c93e
00000380: 29ab 6c3e cba3 053b 9135 b73e 0829 9cbe
00000390: 4490 283e b225 8cbe cc9e 12be a3b1 633e
000003a0: 150b 6f3e d008 ae3e 85bd 9abe ac5f 8b3d
000003b0: 2d48 7a3e 716f a8bd 1d2a 10bf 5b9d 5ebf
000003c0: 23f4 113f b082 f53e dbc1 343e 2a65 553e
000003d0: 4128 1cbe 1a54 2e3c 696d f43e 9bdd 603f
000003e0: 6bc5 4d3f 27e7 05bd 54c5 773e 6faf 443f
000003f0: 9506 35be 3133 0dbe 4b46 353f 6af7 f7be
0.09346635 0.02718791 -0.14692006 0.8417363 -0.7952838 -1.1326021 0.15991408 0.4570803
-0.011594507 0.0526116 0.4000368 -0.3647317 -0.10355255 -0.77196836 -0.6257402 -0.03819745
-0.85659426 -0.90626967 -0.24808714 0.14401598 0.16383703 0.14805408 0.047903795 0.024865298
0.89122605 1.0987804 -0.2989155 0.10237882 0.0684727 -0.5872451 0.35707077 -0.01885258
-0.22716714 0.7797154 0.28681567 0.077095345 -0.33544207 0.27179372 0.14215195 -0.033852696
0.49007648 0.4098404 0.44681722 0.9647582 -0.57120925 -0.25857112 0.32207283 -0.069009714
-1.3593962 -1.9338976 -0.8207554 -1.4937023 -1.4584976 -0.0183291 -0.038910717 -0.33257645
0.55873495 0.18346061 -0.05234415 0.63276845 -0.38615295 0.1215385 -0.0388033 0.05421377
-0.276937 0.32459712 -0.054487213 0.49817023 1.0380336 0.57310104 0.93527347 -0.026424991
0.15077451 -0.114633396 0.020645142 0.67057955 -0.19392635 -0.0896143 1.1137537 0.687047
-0.34193316 0.3938975 0.17082648 -0.32061934 0.5609856 -0.1381756 0.07136927 0.4167369
0.221337 0.28946987 -0.37143552 0.054955106 0.35414106 -0.17604214 0.10574208 -0.03856668
0.18513176 0.8380111 0.13363308 -0.30526355 0.082590505 0.1935532 -0.22271556 0.0898374
0.4989913 0.66214234 0.9696345 0.22160819 0.12393551 -0.033801448 -0.07928988 -0.5098421
-1.0870401 0.9963117 -0.44861096 0.3156683 0.20285389 0.3860162 -0.04962956 -0.26720893
0.63326067 0.6307789 0.5828449 0.7729609 0.6296799 -0.07119388 -0.20224008 0.17930478
0.068093084 0.3149521 0.49660403 0.12253963 0.57438886 0.8925638 -0.35130763 0.13233045
0.010334464 -0.10344901 -0.10855178 0.6770633 0.0724464 -0.5861736 -0.41293076 0.47120738
-0.32608992 0.1800309 0.20322682 0.62377506 -0.11563147 -0.13329692 1.0604708 0.6895847
-0.18335766 0.029740004 0.13947618 -0.15910599 0.18111835 -0.069630854 0.51695323 0.8463411
0.4503687 -0.27011836 -0.03054802 0.23193267 -0.21646133 0.34104675 -0.5324291 -0.5410396
0.62500715 0.8626752 -0.6609812 -0.22986071 0.21419482 0.050133627 0.13693629 0.65113115
-0.07137388 -0.70444864 -0.7314639 0.21354963 -0.22253783 -0.069478765 0.30435672 0.30287662
0.8410641 0.4805231 -0.009232076 0.4085512 0.13636008 -0.18283522 0.011456613 0.3119365
-0.7182573 -0.49610826 -0.18594922 0.33999148 0.14398275 -0.4875098 0.12581523 -0.018842021
-0.08363814 0.5214117 0.4708653 -0.03639516 0.24992724 0.69285375 -0.09244738 -0.14688887
0.3512285 -0.18333584 0.5213808 0.78594875 -0.08065985 1.0028605 0.5974802 0.23108815
-0.09641578 -0.2742936 0.6573909 -0.25961065 -0.28617662 0.9218087 -0.08373383 0.39409155
0.23112167 0.0020391818 0.35783055 -0.30500054 0.16461283 -0.2737251 -0.14318389 0.22235732
0.23344071 0.33991098 -0.30222717 0.06805357 0.24441595 -0.08224381 -0.5631426 -0.86958855
0.5701315 0.4795127 0.17652075 0.20839372 -0.1524973 0.010640169 0.47739723 0.87838143
0.8037936 -0.032691147 0.24196368 0.7683019 -0.17678292 -0.13789059 0.70810384 -0.4843095

l4.bias f4 [53]
00000000: 4b55 0ebd f7c4 d33f 585e 5c3f aa5a 08bd
00000010: 29a8 303f 737b 0e40 20ac 0cbe 40dd 533f
00000020: 7761 993e e909 663e 946f 083e ee72 5e3f
00000030: 7f67 863f e6e6 e03e 4183 6d3f 8bac 143f
00000040: 9c9f 4a3f 5278 7a3f 489d 973f 00fa de3f
00000050: 46c3 173f fa89 e63d 5fd4 093e 3e3c 913f
00000060: a573 b33d 46c1 463f d4b3 2c3f 5792 b13f
00000070: 4b96 adbc 8dd5 a13e bc96 263f f7a6 873e
00000080: 70d1 b73f cfcf 153f 756e 77be 0bdc f43e
00000090: b6fc e03e da11 86be e4f7 803f 63ed 8a3f
000000a0: ae2b 6c3f d8e0 173f 11d4 2c3f 133b 5e3f
000000b0: dd56 553e 1fd6 993f 377a 1e3f 1590 203c
000000c0: 3329 153f 86b1 4a3f a678 333f 810f 683f
000000d0: fa84 373f
-0.03474931 1.6544484 0.8608146 -0.03328959 0.6900659 2.2262847 -0.13737535 0.82759476
0.29957172 0.22464718 0.13323814 0.8689412 1.0500335 0.43926162 0.927784 0.5807578
0.79149795 0.97839844 1.1844873 1.7420044 0.5928234 0.11256786 0.1345992 1.134651
0.08762292 0.7763866 0.67461896 1.3872784 -0.02118983 0.3160824 0.6507375 0.26494572
1.436079 0.58520216 -0.2416323 0.4782413 0.43942803 -0.26185495 1.007565 1.0853695
0.9225415 0.5932746 0.6751109 0.8680889 0.20833917 1.201847 0.61905235 0.009799977
0.5826599 0.7917713 0.7010597 0.9064866 0.7168728

l5.weight f4 [85, 53]
00000000: 5e07 b13e e595 9ebe 45ea 7d3e 80d7 5fbf
00000010: 6dce 05be c648 7c3f 0162 52be 3e3f 7cbd
00000020: b3d3 033f ce9f aa3d 1054 603e 0628 ae3d
00000030: d4f9 f3be d3f5 61be f1e8 0b3e 0eff d4bf
00000040: cacc 193f 5fe8 cabd 0b77 233e 4234 05c0
00000050: de72 40be db2f a43e 02a5 ad3d add9 393e
00000060: 15eb 9dbd 0c11 6dbb c16a d03f 2206 5dbf
00000070: cc86 f73d ad09 303e 29b0 af3d ef39 ac3e
00000080: 8890 0dbf b378 edbe def5 debe 1b47 8cbd
00000090: 7d34 b7be 638f 043f b08c e4be 90e5 b2be
000000a0: e5f1 a3be 5e0d 52be e73c 0cbe 3494 843b
000000b0: ed37 55bd 7428 06bf 3b9f 43be 11fd 603f
000000c0: 374b 603e 1ab1 63be 6b5a 21bf ca97 ff3d
000000d0: 6edf a2bd d26f 3e3e eab1 793c b7d7 b6bc
000000e0: ce8e 293f df3a 063e f439 96bf 7311 a2be
000000f0: 1b18 483e c91c 4c3e 464e f43e 7a7a 36be
00000100: 6b50 7a3d dc81 13be 80e3 ee3e 9fe5 4e3e
00000110: 5708 7d3c edea f93d 3cc5 513e bb25 933d
00000120: e0f0 043e 9a49 233e f732 02be 195e 893e
00000130: 207c a43e 48fb a8be ce71 4d3e f678 4ebf
00000140: 2bb4 953e 714e 02bf 6681 403e 1ae8 ca3e
00000150: f89c 533d cb53 733e b5f9 a23e 7a89 673e
00000160: 2ed9 423e ca08 013f 9334 d73d f591 dd3d
00000170: 7ef5 fc3c e2c8 cf3e 64e9 1a3f d632 dc3e
00000180: 0eb9 10bf 7613 c33d 579c 9a3e 5f72 173e
00000190: b17e 423f 2d6f 7a3e e393 483e b350 e93e
000001a0: 6ae5 2f3c 4b96 f5bd 3a83 123e 1958 793d
000001b0: 46b2 203d e06b 313f 3611 0cbd 7d7d 20bf
000001c0: 8635 b4be c26b 2e3e cb8c 883e d0db a13e
000001d0: 9d85 f03a 70b1 e4bc 128c 123e 5f11 003f
000001e0: 9875 7d3e 011c 2c3e 6e2c fa3d e09a 153e
000001f0: ddbc 87bc 2f1e 5ebd e2e3 c6bc 28b1 eebd
00000200: 2544 663e 5d2d 553e 0851 cabe 1c19 4b3e
00000210: ad74 3dbf df9e 743e 232b f9be a281 a03d
00000220: 8e54 dd3e 7049 763e b4e6 3b3e 4ec4 f83e
00000230: e766 563d e048 213e b809 2b3f eb04 3f3e
00000240: aaca 173f 7dca 153e 1f02 de3e 3fb2 003f
00000250: fce3 e23e 61aa b3be 2caf 92bd 2b71 833e
00000260: 8667 963e 5bcd 223f c815 043e e2ca dd3d
00000270: 373f 943e 15ef 253e 0a8a 84bd 61c7 84ba
00000280: 8e06 bfbd 8019 673e 24d9 b63e 9b57 df3d
00000290: 8563 9ebf 48d9 65bd 114f c03e 1e24 473e
000002a0: a501 123e c8d1 123e 17e8 d23d 2d57 13bf
000002b0: 7ccd cf3e 8d8b ac3e cf6c 8bbd 9a5f aa3e
000002c0: c5b6 c33d ddb9 a03d 62d0 b4bd d522 173e
000002d0: 03d6 89bd 4bf6 fe3d fc45 d43e 7b47 03be
000002e0: 2e8f 583d 7ffd dbbd b6b5 293e 386f 52bd
000002f0: c051 013e 606a 21be dc7f 113e 4933 183e
00000300: 0585 383e 5389 cbbc d285 41bd 3a34 893c
00000310: 5137 09be 12fc 89be 5120 0fbd 3378 fb3c
00000320: 7376 093d 8592 9a3c 5666 a0be dad7 033e
00000330: a587 803e a255 123d 0579 6dbe eced a33d
00000340: df6c 283e f88c a73e 0aa4 403e 81dd c5be
00000350: 4f46 2b3d 71ac 59be 1d76 eabd d68e 4fbe
00000360: 303a bbb8 dc8c e2be 10af 463e 9886 1a3f
00000370: b35b 7f3d c885 81be bdd4 77bd 0850 863e
00000380: e050 413f 7245 b63d 4e31 553d 0f9a 243e
00000390: 002d 60be 23ab cabc 3732 58bd c58c 23bd
000003a0: 5821 d13e 7392 00be 6ce0 293d d6ef 52bb
000003b0: 3b11 6e3e 9cd4 44be 5c7d 34bf 30fe d33e
000003c0: b0cc 253d cccc 79bd 29ef babe b6e2 303e
000003d0: c06c 9dbd a8a4 f83e 724b b53d 358c 8c3e
000003e0: 3ddb 533b d714 a7be d7d4 013d 0d59 e8bb
000003f0: 6f50 57bc b41b 873e a3ed a03e 0da7 f5bc
0.34575933 -0.30973735 0.24796398 -0.874382 -0.13067026 0.98548543 -0.20545198 -0.06158375
0.514949 0.083312616 0.21907067 0.085037276 -0.4765154 -0.22066431 0.13663079 -1.6640337
0.6007811 -0.099076025 0.1596338 -2.0813146 -0.18793818 0.3206776 0.08478738 0.18149443
-0.07710854 -0.003617349 1.6282579 -0.8633748 0.12086257 0.17191191 0.08578522 0.3363795
-0.5529866 -0.4638115 -0.43546957 -0.068495 -0.35782233 0.5178129 -0.44638586 -0.34940767
-0.32020488 -0.20512912 -0.13695107 0.0040459875 -0.052055288 -0.52405477 -0.1910371 0.8788615
0.21903692 -0.22235528 -0.6302859 0.12480123 -0.07952772 0.18597344 0.015240172 -0.022319658
0.6623353 0.13108395 -1.1736436 -0.31653938 0.19540446 0.19932856 0.47715968 -0.17820159
0.06111185 -0.14405006 0.46657944 0.20204781 0.015443883 0.12203012 0.20485395 0.07184931
0.12982512 0.15946046 -0.12714754 0.26829603 0.3212595 -0.33004212 0.20062944 -0.8065332
0.2923902 -0.5090094 0.18799362 0.39630204 0.05166337 0.23762433 0.31831136 0.22611037
0.1902816 0.50404036 0.105080746 0.10818855 0.030878779 0.4058295 0.60512376 0.43007535
-0.5653237 0.09525196 0.30197403 0.14789723 0.75974566 0.24456473 0.19587664 0.4556938
0.010735849 -0.11991557 0.14307871 0.060875032 0.039232515 0.6930523 -0.0341961 -0.6269148
-0.35197085 0.17033294 0.26669917 0.31613016 0.0018350367 -0.02791664 0.14311245 0.50026506
0.2475189 0.16807558 0.122155055 0.14609861 -0.01656955 -0.054228004 -0.024278585 -0.116548836
0.22486933 0.20818086 -0.39514947 0.19833797 -0.7400616 0.2388873 -0.48665723 0.078372255
0.43228573 0.24051452 0.18349725 0.4858727 0.05234423 0.15750456 0.66811705 0.1865422
0.59293616 0.14628024 0.43360993 0.5027198 0.44314563 -0.35090926 -0.07162318 0.25672278
0.29375857 0.635946 0.12898934 0.108297125 0.2895448 0.16204484 -0.06471641 -0.001013022
-0.09327422 0.22568321 0.3571254 0.10905381 -1.2374121 -0.05611542 0.37560323 0.19447371
0.1425844 0.14337838 0.10298174 -0.57554895 0.4058646 0.3370022 -0.06807863 0.33276063
0.09556345 0.078479506 -0.08828808 0.14759381 -0.067302726 0.124493204 0.41459644 -0.12820236
0.05287092 -0.1074171 0.16573223 -0.051375598 0.12628841 -0.15763235 0.1420893 0.14863314
0.18019493 -0.024845755 -0.04724676 0.016748536 -0.13400008 -0.26950127 -0.03494293 0.030696964
0.033560228 0.018868694 -0.31328076 0.1287531 0.2510349 0.035726197 -0.23190697 0.08004364
0.16447781 0.32724738 0.18812576 -0.38645557 0.0418151 -0.21257187 -0.114483096 -0.20269331
-8.927693e-05 -0.44248092 0.19402719 0.60361624 0.06234331 -0.2529738 -0.060505617 0.26232934
0.7551403 0.088999644 0.052048974 0.16074394 -0.21892166 -0.024739807 -0.052782264 -0.03992917
0.40845752 -0.12555866 0.04147379 -0.003218641 0.2324876 -0.19221729 -0.70503783 0.41404867
0.04047841 -0.060986325 -0.3651059 0.17273983 -0.07686758 0.48563123 0.08852281 0.2745072
0.003232672 -0.32633087 0.03169712 -0.007090694 -0.013141735 0.26388323 0.31431302 -0.029986883

l5.bias f4 [85]
00000000: 6315 c6bf 64df 133f 9ff9 423f a20e f83e
00000010: eb05 5b3f 70ad 983f e980 ac3e afd5 513e
00000020: 769c 8abf 73cc 2b3e 5428 433f f3d0 9bba
00000030: ab66 213f 6e19 293f b24e 2b3f d9d0 b63e
00000040: 145a 063f 0aa0 223f 0904 613f 7467 853e
00000050: 6edf 8a3f dcc3 91bf a438 343f db8d fe3e
00000060: dd4c 4d3f 44a9 f2bd 3235 19bf c01f 1f3e
00000070: 16e1 013f d3bd 2abe 6acb 803c e12d 153e
00000080: e779 ce3e ecfc b03e 7858 023e b54d 683c
00000090: 65f6 eb3f fd6d 233f bc0e be3e d41d 963f
000000a0: 5a32 8c3f 6197 4abe 47ab 953e cb58 2a3f
000000b0: ad71 333f 71cf 813f 4a55 d53f d9b1 3c3f
000000c0: ac3e 47bd 7a37 a7be 08a5 493f 308f 463f
000000d0: 05c2 543e 4031 243f 6d6a 803f eebf 233f
000000e0: 1dc9 353f 5054 f53e 0f9c 833f a793 b7be
000000f0: 6270 753f cc16 003f ae11 813f 2a9f 09bf
00000100: 34f8 d63e ca0a d23e 970e 223f ca60 083e
00000110: ef53 603f be41 603f 73cc 2f3e 06df 0e3d
00000120: c29a f83f 7962 973d 7e47 1a3f adbe f43f
00000130: ef79 123f b957 b13e b67d 583f f3ac f53e
00000140: 868c 8f3d e495 49be de61 683f f0f9 c1bd
00000150: a231 893e
-1.5475277 0.5776274 0.7616214 0.48448664 0.85555905 1.1927929 0.336921 0.2049167
-1.0828998 0.1677721 0.7623341 -0.0011887833 0.63047284 0.6605443 0.66916955 0.35706213
0.524812 0.6352545 0.8789678 0.2605549 1.0849435 -1.1387897 0.70398927 0.49717602
0.8019541 -0.11848691 -0.59846795 0.15539455 0.5073408 -0.16673975 0.015721995 0.14568283
0.4032738 0.34567964 0.1272906 0.014178683 1.8434569 0.63839704 0.37120616 1.1727853
1.0952866 -0.19784309 0.29232237 0.6654174 0.7009533 1.0141431 1.6666653 0.73708874
-0.048643753 -0.32659513 0.7876744 0.77562237 0.20777138 0.6413765 1.0032479 0.63964736
0.7101 0.47915888 1.0282 -0.35854837 0.9587461 0.50034785 1.008352 -0.5375849
0.4198624 0.41023856 0.6330351 0.13318172 0.8762807 0.87600315 0.17167835 0.03488066
1.9422228 0.07391829 0.6026534 1.912069 0.57217306 0.3463724 0.8456682 0.47983512
0.070092246 -0.19686085 0.90774333 -0.094715 0.2679568

l6.weight f4 [3, 85]
00000000: b0b8 c73f 28a1 7fbe b7d2 63be 039a 3abe
00000010: 2d68 c1be b423 333f 4021 2ebe b188 9fbe
00000020: 2d36 893f 4304 6f3f c09b 1fbe 5e54 10bd
00000030: 255e 593f 2adc 36be e372 80be 3b6a 333f
00000040: d523 7cbe caab 4fbe 66bc c8be 921b b4bc
00000050: 23c4 98be 9128 0040 6003 9ebe a488 abbd
00000060: e1cf 9fbe f8a4 c8bf 0d13 7d3f 8a52 18bf
00000070: c635 093f 3ee2 99bd 3e10 1ebe 5b63 bbbc
00000080: 2019 40bc 1c01 83bd 129c 36be 6fef 7c3e
00000090: 3d7e 863f b26e 47be 2458 26be b48e 00bf
000000a0: b739 8dbe df26 8b3e a393 88be b0b3 82be
000000b0: 34ab 0fbf 8d4e a2be 43b0 633f 85cc a1be
000000c0: b8e3 b33d 0936 8c3e 0ac4 76be 2788 bbbe
000000d0: 4bb1 0dbd ef32 88bf 25e3 74be c523 07bd
000000e0: c04e 91be 278c cdbe 1587 bebe 1b73 223d
000000f0: 0e31 f43e ac2a bc3f 69c2 95be 4fa7 fa3e
00000100: 3066 6fbe 023f 55bd 78bb 5bbe ce21 ee3e
00000110: d842 2dbf d57a 43be 56b5 25be 20d1 0abe
00000120: 8cf0 c73f ef88 3a3f 625a 0bbe 78f9 943f
00000130: 4bfb 4dbe 5e39 a8bd c78c d83e 09ce c3bd
00000140: 1a5e 1b3f fbe2 02c0 195d a5be eb7c c3bf
00000150: 9dbc 7e3b 38de 20bf fc1d adbe 4bf4 abbe
00000160: f658 a3be 401b a63a 2e00 01bf 960a 753e
00000170: 9076 753e 7b1d 593f ae24 953e b14d c5be
00000180: df72 4fbe 3033 643f 060e 27be c04d aebd
00000190: f852 063f 5b19 453e f489 b7be 22cc 3fbe
000001a0: be9e e13e 577c 14be b3be 24bf 46df a8be
000001b0: cd33 86be 00db babe 4dbf 053f 6426 76bf
000001c0: 267d a53e db7a 0cbf d5ee b33f ec9f 7b3f
000001d0: e69b 6c3e df8c d9be ea88 62be ba27 303e
000001e0: 2353 4ebe 72a8 1d3f b9a7 25be b71f 883c
000001f0: 2e40 a1bc 5d8e 1bbd 6ee3 8dbd 37b6 1a3e
00000200: 97b7 9cbe 113f e33e e7c2 5dbe 7329 8b3f
00000210: 1693 d63d 5182 d3be 6bc9 53be ea5a babe
00000220: 1eaf 053e 9f42 8dbe abcf 053f d6c4 4dbd
00000230: 25e1 8fbe e9d7 a8be f455 a53e d60c 09be
00000240: 8f4b 22be a870 9b3e 11bb 973f 202a 48be
00000250: d182 343f 2cca 0e3d e8d2 bfbe c4b1 ff3d
00000260: 2723 73be 9854 a73d 15da 1940 c327 e4be
00000270: fb2a 053e 0980 943f 508c f8be 1986 e1be
00000280: 3c3c a83f 9ae3 8fbe 780f d2be 7d93 9a3f
00000290: 6259 67be 44fe 35bf 0324 843e c463 973d
000002a0: ada9 3b3f 4b78 e3be a7b9 09be e628 d63d
000002b0: 0fc5 343e 5d14 44be e161 8fbe 5ba7 933e
000002c0: cc38 e8be 5a47 60bd d4d1 fdbf eba8 08bf
000002d0: 4a8a 38bc 29e4 62be d245 9cbe f616 41be
000002e0: f0d9 9bbe 6323 5bbf 90b0 d3be 0dcf cd3d
000002f0: c10d 93be 047f e5be 6741 4ebd 4c4e babe
00000300: 7db5 443e 14c8 6ebe 0a04 c93c b87f 283f
00000310: 7b03 2b3f d9c7 c43f 966d 633f f349 ec3f
00000320: dd47 eebe b3b8 02bf e697 be3d 1945 87be
00000330: c1d2 953d c1d6 813e 6ba2 6a3f 635e 7abe
00000340: d74e b8be 755b 21be a88a 99be 5223 ba3e
00000350: 69c6 123e a127 fc3d f51a 993e d9ef 8cbd
00000360: 5254 be3f 7ffb b8be 0af5 22be 4019 5ebe
00000370: 6f91 89bc 204c cfbe cbc2 adbd 65e8 ff3e
00000380: bb4c 603f 49a0 423f 8fe3 71bd 42a1 ce3d
00000390: f42d 73be 7a85 80be f449 6bbf c4b9 843f
000003a0: cd7c 7bbd 7143 523f e659 c1be 7c44 5bbb
000003b0: 0dda d5be 7bbd 3abf c44a 113f 48b3 123e
000003c0: 68e7 823f 9b11 3dbd 5085 433f d181 32bf
000003d0: 6758 0c3e 0ec4 7c3f a546 27be 1d2d 1d3d
000003e0: 022e 633f 1cbb 76be fe84 70be 76b6 aabe
000003f0: 7251 8bbe 215f cb3f afdd d43d
1.5603237 -0.2496382 -0.2224835 -0.18222813 -0.37774792 0.69976354 -0.17004871 -0.31158975
1.0719658 0.9336588 -0.15586758 -0.03523671 0.8490928 -0.17857423 -0.25087652 0.7008397
-0.24623044 -0.20280376 -0.39206237 -0.021985803 -0.2983714 2.002476 -0.3086195 -0.083756715
-0.31213287 -1.5675344 0.98857194 -0.59500945 0.53597677 -0.075138554 -0.15435883 -0.022874525
-0.01172474 -0.06396696 -0.17832974 0.24700712 1.0507275 -0.1947582 -0.1624456 -0.5021775
-0.27583095 0.27178094 -0.26675138 -0.25527716 -0.5612061 -0.31700554 0.8894083 -0.3160135
0.08783668 0.27384976 -0.2409822 -0.36627313 -0.034592908 -1.0640544 -0.23914774 -0.032993097
-0.28380394 -0.4014599 -0.37212434 0.039660554 0.47693676 1.4700522 -0.29249886 0.4895577
-0.23378825 -0.052062042 -0.21458232 0.46510166 -0.6768012 -0.19089825 -0.16182455 -0.13556337
1.5620284 0.72865194 -0.13608697 1.1638632 -0.20115392 -0.08214067 0.42294905 -0.095607825
0.6069046 -2.0451038 -0.3229759 -1.5272497 0.0038869746 -0.6283908 -0.3381194 -0.33584818
-0.3190381 0.0012672916 -0.503909 0.2392982 0.23971009 0.8481061 0.29129547 -0.38535836
-0.20258664 0.89140606 -0.16313943 -0.085109234 0.5247035 0.19247954 -0.35847437 -0.18730214
0.44066423 -0.14500557 -0.64353484 -0.32982844 -0.26211396 -0.3649521 0.52245027 -0.9615233
0.32322043 -0.5487496 1.4057261 0.98290896 0.23106346 -0.4249029 -0.22122541 0.17202654
-0.20148902 0.6158515 -0.16177262 0.016616685 -0.019683924 -0.037977565 -0.069281444 0.15108572
-0.30608818 0.44384053 -0.2165638 1.0872024 0.10477273 -0.4131036 -0.20682304 -0.36397487
0.13055083 -0.2758989 0.5227 -0.050236546 -0.2810146 -0.32977226 0.3229214 -0.13383803
-0.15849136 0.30359387 1.1853963 -0.1954732 0.7051211 0.034860775 -0.37465596 0.12485078
-0.23743878 0.08170432 2.4039357 -0.44561586 0.13004677 1.1601573 -0.4854455 -0.4404762
1.3143382 -0.28103334 -0.41027427 1.207626 -0.2259269 -0.71091104 0.25808725 0.07392076
0.7330578 -0.44427714 -0.13449727 0.104570195 0.17653297 -0.19148393 -0.28004363 0.2883862
-0.45355833 -0.054755546 -1.982966 -0.5338275 -0.011263439 -0.22157349 -0.3052202 -0.18856415
-0.3043971 -0.8560087 -0.41345644 0.100492574 -0.2872143 -0.44823468 -0.05035534 -0.3638786
0.19209857 -0.23318511 0.024538059 0.65819883 0.66802186 1.5373489 0.8883909 1.8460068
-0.46539202 -0.5106308 0.09306316 -0.26419905 0.07315589 0.25359157 0.9165408 -0.24450068
-0.3599765 -0.15757544 -0.299886 0.36355072 0.143335 0.12312246 0.2990338 -0.06881685
1.4869483 -0.36129376 -0.15913787 -0.2168932 -0.016792981 -0.40487766 -0.084844194 0.4998199
0.8761708 0.76025826 -0.059054907 0.10089351 -0.23747998 -0.25101835 -0.9190972 1.0369191
-0.061398316 0.8213416 -0.377639 -0.0033457568 -0.41767922 -0.72945374 0.5675471 0.14326203
1.022687 -0.046159368 0.76375294 -0.69729334 0.13705598 0.98736656 -0.16335543 0.0383731
0.8874208 -0.24094814 -0.23488232 -0.33342332 -0.27210575 1.5888406 0.10393845

l6.bias f4 [3]
00000000: 681d 89bf d782 613d 2b82 5dbc
-1.0712099 0.05505642 -0.013519804
