ONNX/PGNN_noisefree_softplus_matlab.onnx (onnx, 125260 bytes, 12 tensors)

l1.bias f4 [189]
00000000: b20a c0be f720 ca3e 88fa 2fbf 4ea3 25bf
00000010: ecbe 733e ba73 7e3e 0125 d63e fb71 f83e
00000020: fa40 2a3b e58b 4ebf af98 8bbf 8abb acbe
00000030: f9cd c0bd 0491 983e ae1d 9b3e b8d9 8dbe
00000040: c7d8 b2be b3b9 a53e 8033 c43e 108a 8d3e
00000050: 5599 02bf 7878 34bf 7f79 d43e d758 cdbe
00000060: d38f e2be 697f a93d 9498 5dbe 824c 3bbe
00000070: f0bd bdbe 8ab7 833e bbea 27bf bcd2 743e
00000080: 4b10 ff3e 3369 6bbe 6bf0 9cbe a940 58bf
00000090: 193c 7dbf 59a5 9ebf 602e fabf 1e77 25bf
000000a0: 4e56 333f 97b5 2abc 7e29 78bf c84f 39bf
000000b0: 68f6 8f3e 764e 9dbe 3347 ba3d e8b3 bfbf
000000c0: 98e7 08bf d527 433e 859e 31be 668f 0bbf
000000d0: 9896 26bf e902 20bf 8731 32c0 1969 60be
000000e0: 9a21 cfbd fc13 39bf aeb2 9fbf 8149 7a3f
000000f0: c5d9 babf 110d 78be 961b 19c0 6503 37bf
00000100: adb3 28bf b6c3 bd3e 8832 d8be 4906 5dbf
00000110: 4694 723e 839b 31bf 0666 95bf 6ca8 95be
00000120: ae84 9e3d 5f8d eabe 7784 54bd e249 87be
00000130: ee7e cb3d 49ad 803e 74f9 98be ab39 043f
00000140: 993c 48be ab85 01bf 38dd d0be c49d ec3e
00000150: d75f 34be cdcf da3e e280 3d3f aa52 24bf
00000160: b64e e3bc 031a 07bf cd69 8ebe 116d a6be
00000170: 41e8 45bf 886b ddbf 7ba2 bb3d 5c15 7ebf
00000180: 4e00 47bf d99d 813e 52fc 8cbf 191d 973d
00000190: 47be 7abf 2a62 4b3e c75c c43e aba2 67bf
000001a0: c71c 843d 6bc9 8abe 68ba 07bf 0c6d 0d3f
000001b0: d13f 29bf 1d3f 2fbe c2d3 25bf 3a6d bebd
000001c0: 4ee6 e7be 5ad0 72bf 9c51 52bd 0c76 a03d
000001d0: 42da 3b3d af59 603e 9cd4 273f 1708 10bf
000001e0: d0e8 3dbe f650 5dbf 57f2 953d 5d64 d93e
000001f0: c37b abbe c158 1abe f391 743e 4ff5 1fbf
00000200: 76a2 c1bd 4530 c7be 7a45 29bf f5f5 3fbf
00000210: 9c14 0e3e a362 71be 7e48 c7be bb34 d5bd
00000220: 62d8 953e 12f6 aabf 31dd 02c0 0440 e4bf
00000230: 25d9 b8bf 2748 babe 2daf babe d97e 913e
00000240: 9c75 603d 0155 42bf 3c0f 01be 94a4 1dbf
00000250: edc0 19be a1e3 0bbf f7be e63e 5738 be3e
00000260: 26d2 43bd faf1 41bd d9ff f3be 09c8 e5be
00000270: 5095 6b3e b08b 193e 93bd 4ebe 20d8 a3bf
00000280: af8d 0d3f 9ce2 60bf fd80 5bbe f4b5 10bf
00000290: 2f6a 9bbe 1f95 893e 980f 953e 8df9 ac3e
000002a0: 9885 fd3e 770f 17c0 b062 95be 8c68 1a3f
000002b0: 805b c3be d941 bdbe 614b 103e c69f 2bbf
000002c0: ec5c bebe bbe5 19bf 0fde c1be 2507 c8be
000002d0: e017 11bf 7303 43bf 160a a4bf 7fb5 04bf
000002e0: 30a1 44be 5327 593e 6e56 ccbf 2cf9 78bf
000002f0: 20e5 06bf
-0.3750816 0.39478275 -0.68741655 -0.6470231 0.238033 0.24848834 0.41825107 0.4852446
0.002597867 -0.8068221 -1.090597 -0.3373683 -0.09414286 0.29798138 0.3029608 -0.2770517
-0.34931013 0.3236824 0.3832054 0.27644396 -0.51015216 -0.7049632 0.41498944 -0.40106842
-0.44250354 0.08276255 -0.21640235 -0.18290904 -0.37058973 0.25725967 -0.65592545 0.23908514
0.49817118 -0.22989349 -0.30652174 -0.84473664 -0.98919827 -1.239421 -1.9545403 -0.64634883
0.70053566 -0.010419271 -0.9693831 -0.7238736 0.2811768 -0.30723923 0.090956114 -1.4976778
-0.53478384 0.19058163 -0.17345627 -0.54515684 -0.6507354 -0.6250444 -2.784273 -0.21915092
-0.10113831 -0.7229612 -1.2476404 0.9776841 -1.4597708 -0.24223734 -2.3923087 -0.71489555
-0.65899163 0.37063378 -0.42226052 -0.86337715 0.23689374 -0.6937792 -1.167176 -0.29230058
0.077401504 -0.45810983 -0.05188414 -0.26423556 0.09936319 0.25132206 -0.29877818 0.51650494
-0.19554366 -0.50594586 -0.40793777 0.46214116 -0.17614685 0.42736664 0.74024785 -0.64188635
-0.027747493 -0.52774066 -0.27815095 -0.32505086 -0.77307516 -1.7298441 0.0916185 -0.9925134
-0.7773484 0.2531574 -1.1014502 0.07378597 -0.9794659 0.19861665 0.38352033 -0.90482587
0.06450801 -0.27106795 -0.5301881 0.5524452 -0.66113 -0.1711392 -0.6477624 -0.09298177
-0.45292896 -0.9484917 -0.05134736 0.07835016 0.045862444 0.21909212 0.6555879 -0.56262344
-0.18545842 -0.8645166 0.07321613 0.42459384 -0.3349286 -0.1507292 0.238838 -0.62483686
-0.09454815 -0.38904014 -0.6612164 -0.74984676 0.1387505 -0.23572783 -0.38922495 -0.10410448
0.2926665 -1.3356345 -2.0447505 -1.7832036 -1.4441267 -0.36383173 -0.36461774 0.2841709
0.05479966 -0.75910956 -0.12603468 -0.6157925 -0.15015002 -0.5464421 0.4506757 0.3715236
-0.047807835 -0.047349907 -0.47656134 -0.44879177 0.23006177 0.14994693 -0.20189504 -1.2800331
0.55294317 -0.8784578 -0.21435924 -0.5652764 -0.3035445 0.26871583 0.2911346 0.33784142
0.49515986 -2.360319 -0.29176855 0.60315776 -0.38155746 -0.369643 0.14091255 -0.6704067
-0.3718027 -0.60116166 -0.3786473 -0.3906795 -0.56677055 -0.7617714 -1.2815578 -0.5183944
-0.19202113 0.21206407 -1.5963876 -0.97255206 -0.52693367

l2.bias f4 [119]
00000000: 4a2e b53e 88be 21bd 2652 95bd b7d4 f33d
00000010: e8d1 843e ba67 de3b a626 b5be f0d9 01be
00000020: 937b 58bd ccfd 9a3d 7564 c33e c1e0 9cbe
00000030: 7b42 08be 9cde b03e 5571 34bb 0151 25bd
00000040: 5629 b43d eab7 08bd f1fe 3cbe c566 9cbd
00000050: 1646 2d3e 82ba af3d 8fe1 ddbc a9e6 f7bc
00000060: 40d2 a5bb 4d3e aebd 771a 423e 8a7f 003e
00000070: d765 b7bc 9d54 1f3e 78b2 1f3d 3cad 1c3d
00000080: bfe9 27bd a004 51bd a1fc 0c3e 2e27 8fbd
00000090: 6023 61be 1b95 5bbe cb90 f23e 5aa1 f63e
000000a0: 5e70 eb3d 16ac cabe 22a5 a6bd cc98 ecbc
000000b0: 1cc7 093e 5cdc 003e a049 6abd f634 a43d
000000c0: 0730 323f 96e3 a53d ad72 84bd 195f b6be
000000d0: df66 6ebd f0b0 bfbd c92b ff3d b119 6cbe
000000e0: 3332 513e 43a9 903e 4687 363e 47bc 483e
000000f0: 2abe ffbb 0c21 b33e 59c5 eabd c2ba bbbc
00000100: cfc3 a73e c9f5 3c3d b790 713d e0a4 37be
00000110: e20f 2fbd 076b 39be 3c76 5d3d afe2 233f
00000120: 9160 bc3d 97b3 24be db10 d53d 6416 233e
00000130: e139 c8be db14 2b3e 2390 0cbe df9c 493e
00000140: f31b f9bc 0a86 d73d 2144 173e 1fd7 d7bc
00000150: 633a 993d 70c5 923c 6aa7 9bbe b943 3a3f
00000160: 7dbf 43bd 813e c1bd 068d 7a3e 2810 5c3d
00000170: 7347 593d 2b93 b93d df70 fdbd 9931 2e3e
00000180: 124e 80bd 9ace 013e 0298 4d3e c085 80be
00000190: 5e87 803e 42db a0bc 4e77 9abe dd10 2a3d
000001a0: 5e4b 59be 3e53 1abe 38c2 813b 12aa f23d
000001b0: 22f9 403e fe7a aabd 2f37 973d 0814 62be
000001c0: fdcb 143d 70d8 65bd 47c9 ca3e 365d 50bd
000001d0: a75f 87bc 5d0e bf3e e493 70be
0.35386878 -0.039488345 -0.07291059 0.119058065 0.25941396 0.0067872675 -0.3538105 -0.12680793
-0.052852225 0.07567939 0.3816258 -0.30640224 -0.1330661 0.34544837 -0.0027533371 -0.040360454
0.08796947 -0.03337852 -0.18456627 -0.07636789 0.16921267 0.085804954 -0.027085094 -0.030261355
-0.005060464 -0.08507977 0.18955408 0.12548652 -0.022387428 0.15559621 0.03898856 0.038251147
-0.040994402 -0.0510298 0.13768245 -0.06989895 -0.2198615 -0.21443598 0.47376093 0.48169976
0.11496042 -0.39584416 -0.08136965 -0.028881453 0.1345486 0.1258406 -0.05719912 0.08017914
0.69604534 0.08100049 -0.06467185 -0.3561943 -0.058203574 -0.0935992 0.12459523 -0.23056675
0.20429306 0.28254136 0.1782504 0.19603072 -0.0078046517 0.3498615 -0.11463422 -0.022916202
0.32766578 0.046132836 0.0589759 -0.17933989 -0.042739756 -0.18107234 0.054067835 0.64017767
0.09198106 -0.16084133 0.104036056 0.1592651 -0.39106658 0.16707174 -0.13726859 0.19688748
-0.030408835 0.10523613 0.14772083 -0.026347695 0.074818395 0.017916411 -0.30401164 0.72759587
-0.04779004 -0.0943575 0.24467859 0.053726345 0.053046655 0.09061273 -0.12375044 0.17011108
-0.06264891 0.12676468 0.20077518 -0.25102043 0.25103277 -0.0196358 -0.30169147 0.04151999
-0.21220157 -0.15070817 0.0039599203 0.118488446 0.18845037 -0.0832424 0.07383572 -0.22077954
0.03632735 -0.056114614 0.39606687 -0.050870143 -0.016525103 0.37315646 -0.23493916

l3.bias f4 [9]
00000000: 439a 983e 6f1e e63e f4c0 a63e def8 1c3e
00000010: 1d27 db3e 7845 ea3e cb66 d4bd 11f0 ad3e
00000020: f7db d13e
0.29805192 0.44945094 0.32569087 0.1532931 0.4280328 0.45756125 -0.10371169 0.3397222
0.40988132

l4.bias f4 [53]
00000000: 98b2 713f 1fed 4e3f 071a a83f 7fd6 fb3d
00000010: ba51 9a3f 0a1f 3e3f 44f0 6f3e 9871 f23e
00000020: 6137 38be 62f6 a03e 63b6 793f ac01 983f
00000030: f478 a93f 9d0e 8e3e 2c90 b53f 33cd 9b3f
00000040: fc3e 9cbd 3641 6c3f 988f 7d3f 7d59 e43f
00000050: 5f89 5a3f 401a 773f cb85 5d3f 709c 593f
00000060: 160e 913e 3686 983f 0d11 893f f4be 883f
00000070: 2d2c d53e 070f f33e 73c6 043f 2b88 91be
00000080: f7d0 163f 0388 a93d 6982 963f 1af5 db3f
00000090: 897b de3e c050 293f b0e4 2d3f 8b69 973f
000000a0: 58a2 583f 83ba e03e 99cd 0f3f a098 4a3f
000000b0: c0ed 3c3f 42ce 9f3f ca8c 213f 0c06 5e3e
000000c0: 5f87 9c3d 9a84 b33e 0c07 fc3e 5d9f 803f
000000d0: 69fa 20bd
0.9441314 0.8083057 1.3132943 0.12296771 1.2056191 0.7426611 0.23431498 0.4735229
-0.17989875 0.31437975 0.97543925 1.187551 1.3240037 0.27745524 1.4184623 1.2171997
-0.07629201 0.92287004 0.9904723 1.783981 0.8536586 0.9652443 0.86532277 0.8500433
0.2833106 1.1915958 1.0708328 1.0683274 0.41635266 0.47472402 0.5186531 -0.284242
0.58912605 0.08277895 1.1758548 1.7184174 0.43453625 0.6613884 0.67927074 1.1829084
0.84622717 0.43892297 0.5617309 0.7913914 0.7380028 1.248482 0.6310545 0.21681994
0.076430075 0.35062104 0.49224126 1.0048634 -0.03930131

l5.bias f4 [85]
00000000: 6ef7 3b3f 784b 313e 0808 c33e 8ae1 c63e
00000010: 4ff8 8a3e ea72 a03e 603d 623e 933e 7c3e
00000020: c262 613e 2144 813e 8f7e 0c3f 151c cd3e
00000030: 66b4 363f 40f9 cb3e 33da 003f 131f dd3e
00000040: 2f32 9a3e 4fd1 bf3e fcaf c43e 4fb0 083f
00000050: 13f6 e53e f38c ef3e 02c0 983e 6997 223f
00000060: c9d4 cb3e bb95 9b3f 5e06 183f 396d 4a3f
00000070: ae13 2c3f 37e1 b23e c0a1 3c3e 47a0 183e
00000080: 5c74 063f 3f42 193f 91d6 d53c da4e 703f
00000090: 9dc1 af3e 752a 203f a4c6 d33e 9c42 af3e
000000a0: 0bed 113f e50b 803e a231 b13e 6beb 903e
000000b0: b322 343e b305 da3e a3b0 acbe 7369 9f3e
000000c0: d59c fd3e d7e5 f93e 1a6d 113f 821a ac3e
000000d0: 9fa4 2f3f f597 de3e 42f4 1e3f bd50 da3e
000000e0: 4d2a fd3e fcc6 1e3e 0a43 e43e 2d98 e83e
000000f0: 9e13 ef3f c729 e73e 16b0 0c3f a10c 733f
00000100: d53a c03e 6cce 253f 6601 fc3e 8841 4b3f
00000110: ddc5 983e 4f88 f63e e108 773e a2b6 663e
00000120: ce9b 103f e69b 503f 4fe7 e23e 4d3e d73e
00000130: db31 013f a926 c93e 8071 263f cb61 1d3f
00000140: 9dc6 6c3e 9dba 643f 2b06 ab3e e6cc 043f
00000150: f969 0a3f
0.7342442 0.17313945 0.38092065 0.38843948 0.2714257 0.31337672 0.22093725 0.24633245
0.2201033 0.2524729 0.54880613 0.40060487 0.71369016 0.398386 0.50332946 0.4318777
0.30116412 0.37464377 0.38415515 0.53394026 0.44914302 0.46787223 0.2983399 0.63512284
0.3981078 1.2155069 0.59384716 0.7907291 0.6721753 0.3493745 0.18421078 0.14904891
0.525213 0.5986671 0.02610329 0.9387032 0.34327403 0.62564784 0.41362488 0.34230506
0.57002324 0.25009075 0.3460818 0.2830461 0.17591362 0.42582473 -0.33728513 0.3113514
0.49533716 0.48808166 0.568071 0.33613974 0.68610567 0.4347531 0.6209146 0.42639723
0.49446335 0.15505594 0.44582397 0.454286 1.8677862 0.4514906 0.54956186 0.94941145
0.37544885 0.647681 0.49219817 0.7939687 0.29838458 0.4815087 0.24124481 0.22530606
0.5648774 0.8148788 0.443171 0.4203972 0.504667 0.39287308 0.6501694 0.61477345
0.2312264 0.8934725 0.33403143 0.5187515 0.5406795

l6.bias f4 [3]
00000000: 1c4d d9bd 8600 b4bd 3711 b53b
-0.106104106 -0.08789162 0.005525734

onnx::MatMul_36 f4 [9, 189]
00000000: e54f 9fbb dab5 a3bb 495b a5bb d1c0 4f3a
00000010: bf93 aab9 6321 573b d8da 263a d387 8fba
00000020: 1bcf 513b adbd d939 cc4e 913c 0d46 cfbb
00000030: 7037 b5bc b222 9539 3c11 ce3b a1d8 cebb
00000040: 8d15 a5bb fb1f 3e38 3e3a 3c3a aa26 e3ba
00000050: 0f83 513b fd5e 103a 1e29 71bb d912 e33b
00000060: 6d63 ccbc c7a0 e9b9 6f13 b0bb 9340 4d3c
00000070: c4ba 5c3b 48d5 20bc b48d b7ba 1ecb b3ba
00000080: b6ac f2ba 6981 603b 4d7e 4dbb fa22 8dbb
00000090: e025 98bb 185f 5dbb 4713 bfbb 1340 be39
000000a0: ae9e cfba 38e7 aebc ad9c c03a bbaf 94ba
000000b0: b899 72bb 7c15 77bb d7f2 dcbd 935c 2ebc
000000c0: 1a05 cbb9 ce22 36bb b897 2cbb 7c76 bebb
000000d0: 5ca1 3d3b 7879 b5bb 5f01 34bb 7c0e 7abb
000000e0: c718 a83a 2fc2 71bb 88be d8bb 50a7 52ba
000000f0: cdb4 143a b22d 17b9 f004 8cbb 0194 ee39
00000100: 70f4 17b6 470e 34bb aa31 4a3b 8bcc c8ba
00000110: d15b 99ba dae9 82bb f0d1 60bc a260 11bb
00000120: 55a9 e33d 91c2 403b 82d8 84bb 46e1 c23b
00000130: 81a0 deba cd9e f4ba 699d 00bc 7875 de3a
00000140: 440a b8bb 1206 143b e60d 2bbb 77a7 3cbb
00000150: c311 9b3b 3708 db3c f6a2 b2ba af8d 3a3b
00000160: ed78 3abc 3ef7 3e3c 7a90 ecba 88fd a83c
00000170: f0ce 22ba b995 b2bb 1301 0fbb c930 013b
00000180: 2f9d a13a 15df beba 5054 c23a bc45 c63b
00000190: 8d28 a6ba ccb5 47bb abbf af3a bcb6 9fbb
000001a0: 26e3 9abc a96f 3bba 403d 0b3c e937 f0ba
000001b0: dc5f cabb 80eb a039 c9c8 83ba 9287 46bb
000001c0: faaa cebb a9cb ab39 b5eb b73a ea78 cdbb
000001d0: bf4c a1ba 53f7 4e3b cb6b 86bb 7013 64b9
000001e0: f57b c13b 77d0 a8bc 4911 a1ba a731 3bbb
000001f0: 54be 933c 9a76 47b9 bb0e c13a 77e3 16bb
00000200: 11dd 1dbb e2ee 4abc 4c0b d8ba f63a 9939
00000210: 715f a1bb e143 9a3b 5019 8dbb fb1e 0c3c
00000220: cb10 d03a ffb1 84bc 1054 debb 20f1 1438
00000230: 3ece f3bc eef7 f937 5aec 0cbb 7c5b 88ba
00000240: c50e 61bb de23 563b 23a8 cb39 94d4 5cbb
00000250: d031 9ebc b26c a33a 7fb7 90bb d0e6 62bb
00000260: f8d3 87ba d42d 94bb 2ae4 afb8 8382 c6ba
00000270: 33f4 8dbb 1a78 163b d449 9c39 c7d5 503b
00000280: ec29 563a 5531 1d3b 7c2c f03b f4b8 8f3b
00000290: 6284 383c 311f 063b 12d1 70bb c2a9 a4bb
000002a0: 72e8 22bb d6bf aaba 8050 74bb a658 513b
000002b0: 03cc b4ba f5f7 9abb ba23 113b 35d8 e5bb
000002c0: 4ad9 a0bb 2663 323a df02 c6bb fce2 683a
000002d0: b82c 133a 57c1 14bc f95b 863b ad4e c03b
000002e0: 15f3 7d3b bfa5 e4ba 37b5 a2bb 4628 6abb
000002f0: 1634 0dbc b820 753e 21d8 cd3f 6196 a73e
00000300: b8a0 213e 69d8 ddbd 320f 41c0 01ef d8bf
00000310: 3659 e9bf 46ae 19bf a15c 3fbd ec47 77bf
00000320: 7fd0 6ebd 8682 023f 7b1d b2be 4b11 013f
00000330: 98ec efbd 0b55 efbf 3c45 9fbf c83d c73e
00000340: e6d6 5fbe 87ed fc3e 5194 bcbf 2d3f ddbf
00000350: 6c7f b1bf 0c7b 37bf 8e05 413f d367 3ec0
00000360: 2112 22c0 c5b4 19bf c2af 15c0 8cbd 9cbf
00000370: f08f 82c0 4100 32bf 7b6b babe bfa2 54bf
00000380: c31a 40be 697a 61bf 0e43 173f 6fbd 27bf
00000390: a9f2 d3bf bb87 a0bf 5c49 b7bf d5d3 74bf
000003a0: 1494 80bf f51d bebf b367 cbbf 3312 fcbe
000003b0: 66e8 08c0 0598 2d3f e5be e8bf 354e 5abe
000003c0: f0ed 96bd f0c7 1d3f 9234 2cc0 1c32 2ec0
000003d0: 6bb3 bbbf 7906 3ebf 526e 72be 2547 04bf
000003e0: 23ee 25be 13e8 23bf d134 09bf 45da abbe
000003f0: 48fe d43e aa21 193f 630a d4bf fa5a dbbf
-0.004861819 -0.0049960436 -0.0050462824 0.0007925155 -0.00032535006 0.0032826297 0.0006365008 -0.0010950513
0.0032014314 0.00041530785 0.017737769 -0.0063254894 -0.022121161 0.00028445345 0.0062886756 -0.0063124453
-0.0050379694 4.5329314e-05 0.00071803096 -0.0017330248 0.0031968986 0.00055073184 -0.003679819 0.006929737
-0.024949754 -0.00044561012 -0.0053734104 0.012527603 0.0033680657 -0.009816475 -0.0014004023 -0.001371715
-0.0018514607 0.0034256822 -0.0031355799 -0.004307148 -0.004643187 -0.0033778604 -0.0058311555 0.00036287363
-0.0015840137 -0.021350488 0.001469513 -0.0011343876 -0.0037017893 -0.0037702015 -0.107885055 -0.010642189
-0.00038722978 -0.0027791741 -0.0026335549 -0.0058124643 0.002893529 -0.005538162 -0.0027466638 -0.0038155606
0.0012824767 -0.0036889424 -0.00661451 -0.0008035796 0.00056726934 -0.00014417505 -0.0042730495 0.0004550517
-2.2643035e-06 -0.002747433 0.0030852356 -0.0015319748 -0.0011700337 -0.0039951624 -0.013721928 -0.0022182842
0.11116282 0.0029412846 -0.00405413 0.005947265 -0.001698509 -0.0018663049 -0.0078500295 0.0016972264
-0.005616458 0.0022586626 -0.0026100813 -0.002878634 0.004732342 0.026737316 -0.0013628888 0.0028465798
-0.01138137 0.011655627 -0.0018048428 0.020628706 -0.00062106457 -0.0054499772 -0.0021820709 0.0019712916
0.001233017 -0.0014562333 0.0014826152 0.0060507935 -0.001267688 -0.003047335 0.0013408562 -0.0048740786
-0.018907141 -0.00071501225 0.00849849 -0.0018327209 -0.006175978 0.0003069304 -0.0010054345 -0.0030293209
-0.006307003 0.000327674 0.0014032038 -0.0062705176 -0.0012306197 0.0031580522 -0.0041022054 -0.00021751015
0.0059046694 -0.020607216 -0.0012288477 -0.002856353 0.018035091 -0.00019022301 0.0014729121 -0.0023023763
-0.0024088065 -0.012386056 -0.0016482859 0.00029226363 -0.0049247076 0.004707799 -0.004305996 0.008552308
0.0015874145 -0.016198156 -0.0067849234 3.5510515e-05 -0.02976143 2.9798564e-05 -0.0021503181 -0.0010403241
-0.0034341079 0.0032675187 0.0003884445 -0.0033696042 -0.019310862 0.0012468307 -0.0044164057 -0.0034622438
-0.0010362854 -0.0045220647 -8.387149e-05 -0.0015145097 -0.0043320893 0.002295977 0.00029809645 0.0031865702
0.0008169699 0.0023985703 0.0073295217 0.004386062 0.011262031 0.002046537 -0.003674571 -0.0050251195
-0.0024857786 -0.0013027142 -0.0037279427 0.0031943708 -0.001379371 -0.004729266 0.0022146539 -0.0070142993
-0.0049087154 0.00068049354 -0.0060428227 0.0008883921 0.00056142686 -0.009079299 0.0041003195 0.005868754
0.0038749625 -0.0017444416 -0.00496545 -0.0035729571 -0.008618375 0.23938262 1.6081582 0.32731918
0.15783966 -0.108322926 -3.0165524 -1.6947938 -1.823035 -0.60031545 -0.046719197 -0.9659412
-0.058304306 0.5098041 -0.34788117 0.5041701 -0.117150486 -1.8697828 -1.2443004 0.38914323
-0.21859321 0.4939997 -1.4732763 -1.7284905 -1.3867011 -0.7167213 0.753991 -2.975087
-2.5323565 -0.6004146 -2.3388524 -1.2245345 -4.0800705 -0.6953164 -0.36410126 -0.8306083
-0.18760209 -0.8807741 0.5908669 -0.6552343 -1.6558429 -1.2541422 -1.4319263 -0.9563573
-1.004519 -1.4852892 -1.5891021 -0.49232635 -2.1391845 0.6781009 -1.8183256 -0.21318896
-0.07369602 0.61633205 -2.6907086 -2.7218084 -1.4664129 -0.74228626 -0.23674896 -0.5167106
-0.16204123 -0.6402599 -0.53596216 -0.33564964 0.4160025 0.5981699 -1.656567 -1.7137139

onnx::MatMul_37 f4 [189, 119]
00000000: 8792 93bd 5165 1c3e d1bf b53e 8158 dd3d
00000010: 8658 9b3d d568 503c 3a29 3f3e 4cac d53e
00000020: 5c74 733e a211 6abe 52fc 3abe 1cf3 32bb
00000030: 26ff 59bf c832 0dbd 555d 8bbf 944c 993d
00000040: 7a60 eabc a15f dbbe f943 783c 491b d4bb
00000050: caee 0d3e eb13 f43d bc54 60bf 759d bd3e
00000060: 4f25 24be 6c07 993e a0e5 a13c 4659 193e
00000070: 617a b03e d673 053e 811f 8cbf 16f0 09bc
00000080: d354 143e 14a1 e23d 2e8e a3be 2999 17bc
00000090: 4d7a 603e d766 fa3d 9f57 adbc 0d80 49be
000000a0: ae8b 55bf cee8 1d3e 1256 58bf 156e 12bd
000000b0: d7d7 d23c 80ad ab3e ac9d 823e 9f7f ff3e
000000c0: 3310 12be 70ae 903c cc4c a9bd ed24 623e
000000d0: f540 4dbe 7695 123e cb83 aabd e709 2cbe
000000e0: f2fb 18be 6caa c0bd ba3c e63d 7c77 fbbc
000000f0: 15ab 4dbe 3df3 083d 68a9 1d3e b34a a13d
00000100: a2d0 87be d609 b6bc 3c12 e0be febb debe
00000110: cc35 3a3e e924 98be 245b 0d3d 1065 b8bd
00000120: 9186 73bd 3ca9 adbe 20d7 723e 4da8 ee3d
00000130: 527c 9a3d 4e79 d0bc 7e26 b33e 4582 c83d
00000140: ca18 9b3e 63c2 e53e 16ec 5abc 8168 913c
00000150: 727c c2be bfae a4bd 03d2 f1bf 65ea edbd
00000160: c969 24be 6bc9 833e f831 de3c d7c2 9bbf
00000170: ad47 edbd 218e 8f3e 9d8a 123e f9b2 a0bd
00000180: d5cc 6dbe 8ad3 093f 917c 853e 27a1 84bf
00000190: 6b56 a33e 931f 133e 7c7e cbbe 83cd 453e
000001a0: 523f 94be ce78 143d 0c31 743e e252 6d3e
000001b0: a537 74bd 70d4 c4be 1a2f ce3c 3bd2 d5bc
000001c0: 58de aa3e 0197 65bd 5afb 43be 322e c6be
000001d0: 22f3 a9be d935 a93e efcb 8dbd e14b d9be
000001e0: fee1 c8be 02c9 51be b8ab a33d 8e24 5c3e
000001f0: 0c36 26be 145d 6fbb 948c 15be ee45 9f3d
00000200: 5cf6 58bf 8751 1abe 07a9 a7bd c1ed 6fbe
00000210: d963 ca3d 93b7 71bd 124e 5ebf 6a05 37be
00000220: f9ba ae3c e951 693b c713 42be 3cdc c9bd
00000230: a7a8 ccbe 0495 0fbe 3274 c3be 9b82 863c
00000240: 6838 c03d 48d2 533c 4efb cebe 5224 35be
00000250: 7bee 22bd 910c a6be a562 47be 399b 6dbe
00000260: 1384 23bf 488d 00be dd61 0a3e 6b66 febe
00000270: da15 12bf 585f 40be 1a11 fa3d 1433 e1bd
00000280: 3f1c eabe 95cf 86be b51d 0bbf b144 803d
00000290: 1609 a23d 0458 183e 0347 50be 005c 13be
000002a0: 87b2 e7bd bee8 49bf ba70 8ebe 992e 23be
000002b0: 3217 0b3e f118 653e 49bc 56bf 70c5 18be
000002c0: c9fe 5abe 9825 0bbd d159 e13c 0ded 62be
000002d0: ed60 73be c287 eb3c 021f edbd 9e48 89bd
000002e0: ee6a eb3d 7e9e 803e 58f1 ce3e 0bd0 2a3e
000002f0: f285 953e 614d 53be 6774 353e 8564 cfbe
00000300: 6f5c 4b3e 20fb 93bb d300 373e 1311 19bf
00000310: 3caf 3fbd 83ac bebe a8fb 643e ed7f 5fbf
00000320: f476 cabe e56f 5d3d 9154 6ebe c9df 383d
00000330: d17c 45be ff55 bbbe 0ea4 b03e 7282 6dbd
00000340: 3b4b 7ebe 17f4 94be 4cae 96be 880f 18b9
00000350: eabc bfbe 9204 183e 904f 9d3c 889c cabd
00000360: f5b6 513e a5aa 243e 843b 023f c6bb 983e
00000370: fb54 46bf e89e 68bf cdc2 453f 9793 85bf
00000380: 40ac edbe 855f 383c 249e 0abf 5c8c 26bf
00000390: 632d 65bf 87f2 0ebe 5bdd 22bf c825 fdbd
000003a0: 8d88 89bf 99ec 9ebe 9c91 343e 634a 9ebe
000003b0: 79fe 4cbf 122c b2bf 520b 1bbf cc4c 2f3e
000003c0: 99ad 93bc 5ec2 10bf 8dec c83e ea74 4cbe
000003d0: 5513 ce3c 2c77 f1bd daa5 bdbd 9968 523d
000003e0: b3f7 15bf bbe8 053e a032 d4bd a3d3 d9be
000003f0: 5182 74be 0c95 0c3e 7a5f 85be 7353 0b3f
-0.07205682 0.15273024 0.35497907 0.108078964 0.07585244 0.012720306 0.1866807 0.41733015
0.23774856 -0.22858289 -0.18260315 -0.002730555 -0.8515495 -0.034472257 -1.0887858 0.07485309
-0.028610457 -0.42846397 0.015152925 -0.006472979 0.13860622 0.119178616 -0.87629294 0.37034193
-0.16029857 0.29888475 0.019762814 0.14975461 0.34468368 0.13032469 -1.0947114 -0.008419057
0.14485483 0.110658795 -0.31944412 -0.009252825 0.21921654 0.122266464 -0.021159945 -0.19677754
-0.8341626 0.15420839 -0.8450633 -0.035749514 0.025737686 0.33530807 0.2551092 0.49902055
-0.14263992 0.017661303 -0.08266601 0.22084399 -0.2004431 0.14314827 -0.08325919 -0.16800652
-0.1493986 -0.094075054 0.112420514 -0.030696623 -0.20084794 0.033435095 0.15396655 0.07875576
-0.26526362 -0.022221487 -0.43763912 -0.43502802 0.18184584 -0.2971566 0.034510747 -0.09003651
-0.059454504 -0.33918178 0.23714876 0.116531946 0.075432435 -0.025448468 0.34990305 0.09790472
0.3029235 0.44874868 -0.013361951 0.017750027 -0.3798557 -0.08041143 -1.8892215 -0.11616973
-0.16055979 0.25739607 0.027123436 -1.2168835 -0.11585937 0.28038123 0.1431069 -0.07846636
-0.23222668 0.5383841 0.260716 -1.036168 0.3190187 0.14367513 -0.39744937 0.19316678
-0.2895456 0.03624802 0.23846835 0.23176149 -0.05962338 -0.38443327 0.025168944 -0.026101222
0.3337276 -0.05605221 -0.19138852 -0.3870712 -0.33193308 0.33048895 -0.06923663 -0.42440704
-0.39234918 -0.20486835 0.07991737 0.2149832 -0.16231555 -0.0036523985 -0.14604408 0.0777701
-0.84750915 -0.15070163 -0.08186536 -0.2343054 0.09882326 -0.05901296 -0.86837876 -0.17873159
0.02132939 0.00356018 -0.18952857 -0.098564595 -0.39972422 -0.14021689 -0.38174587 0.0164197
0.09385759 0.012928553 -0.40426105 -0.17689636 -0.039778214 -0.32431462 -0.19471224 -0.23203744
-0.63873404 -0.12553895 0.13513894 -0.49687514 -0.5706459 -0.18786371 0.12210293 -0.109960705
-0.45724675 -0.26330248 -0.54342204 0.06263102 0.07911889 0.14877325 -0.20339589 -0.14390564
-0.11313348 -0.7887076 -0.2782038 -0.15935744 0.13583067 0.22372796 -0.8388105 -0.14919066
-0.21386255 -0.0339714 0.027508648 -0.2216074 -0.23767443 0.028751258 -0.1157818 -0.06703304
0.114950046 0.2512092 0.40418506 0.16680925 0.29203755 -0.20634986 0.17720185 -0.40506378
0.1985948 -0.0045160204 0.17871408 -0.5979168 -0.046797976 -0.3724099 0.22361624 -0.87304574
-0.3954388 0.05406179 -0.23274447 0.045135293 -0.19285895 -0.36589047 0.34500164 -0.05798573
-0.24833386 -0.29092476 -0.29429853 -0.00014501635 -0.37448817 0.14845493 0.019202977 -0.09893137
0.20479949 0.1608072 0.50872064 0.2983076 -0.7747342 -0.9086747 0.7725037 -1.0435666
-0.4642048 0.011253242 -0.54147553 -0.6505792 -0.8952238 -0.13959704 -0.6361901 -0.12360722
-1.0744797 -0.31039885 0.1763367 -0.30916128 -0.80075794 -1.3919699 -0.6056415 0.1711914
-0.018027114 -0.5654658 0.39242974 -0.19966474 0.025155703 -0.11790308 -0.09260149 0.051369283
-0.58581084 0.13077061 -0.103612185 -0.42544279 -0.23877837 0.13728732 -0.26049405 0.5442421

onnx::MatMul_38 f4 [119, 9]
00000000: 2d8b d53c f73c b13d c2cb 76bd 87d0 e73e
00000010: 08d5 353e ac42 073f 0ac6 343e b945 fdbe
00000020: 112a 96be 3439 343e 2fac 71be 89e8 803e
00000030: 71e7 fbbd e8bd 2ebd 880a 22be b4c4 d83a
00000040: 4cad c13e 143d 043d a67f 8ebe e8c2 52be
00000050: 2208 8c3e 0dcc fcbe 0cc8 d4be 6e49 69be
00000060: 1dce 163f 4a91 11bf faa9 edbd da80 c43e
00000070: 5ce6 39be 45f2 713d af1b 6f3e 5339 d5bd
00000080: 34aa be3d 7e7f de3d 9595 023e b5ba eebb
00000090: 5cbc ae3e ffa2 c03e ff54 d13e 63b6 fc3d
000000a0: 2f62 333d ea2a f73a 7c03 91bb ee30 8ebd
000000b0: f0c1 11bd 8518 c33e deb0 db3d 53eb fbbd
000000c0: 1cc3 993d e6f0 123c 53b7 143d 0f4f 8c3e
000000d0: b586 c9bd 5e2b 1fbd 6a62 b53e a8d8 d73e
000000e0: 2898 cf3e f7c4 dc3a dde0 89bc ac57 08bd
000000f0: a3c8 e3bb 761c 403d f7f0 84bd dcc2 06be
00000100: eba0 0c3e 8a0c b03e bde6 96be fe8c c53d
00000110: 536e bbbd 8ec5 cbbd a627 2d3c e36e 85bd
00000120: e574 88be 05a7 65be 9dc7 753e abed 89be
00000130: 6f58 a63d 919a ebbd 60b2 50be 7f4c 353e
00000140: 46ea 1dbe 296e c2be 50bb d7be 3e55 043f
00000150: 1573 113e 400a d23d 2cc3 82be e821 7d3e
00000160: 03a8 4b3d 76c1 91bd a75d 963e 0415 8d3e
00000170: 13dc ec3d 1fe9 093e 26c5 5c3d 5c70 ba3c
00000180: 1fcd 4fbe 7251 883c 9ad6 acbc d667 433e
00000190: 3544 173f ef1e 9ebe 7e34 0e3e 9a23 973d
000001a0: 2bdf a1be b70c a83d 8b4d 833d d36f be3d
000001b0: 5268 84be 4987 f6bd 022a bc3e 8421 4ebd
000001c0: 2150 193e 2a43 95bd 0cea 723d 243d 24be
000001d0: d5f7 713c 9b88 fa3e a840 e33d 16d3 603e
000001e0: c56f d53e 0afe a33e 3804 9a3e cd47 073e
000001f0: 6333 d33e 441f d53e 5359 6fbe 90a1 d53e
00000200: b578 db3e e4f8 efbe 352c 4d3e 7f31 953c
00000210: 16c6 c3be 01f8 a3bd 4939 0abe 6bd9 033f
00000220: 3709 c8be c66e 15bd 1881 333e a150 57bd
00000230: 0da6 a7bd afc5 1a3e efda cebd 11fa 8e3d
00000240: ec75 d63e db35 61bc 34d7 3b3d b3f7 233e
00000250: 4600 25be b9cf 35bd e970 be3d 8e1a 1a3d
00000260: 7258 273d 500e a23d 6cd1 f3be 6b64 3fbd
00000270: 1622 a5bd 6fa5 f7bc 63eb a6be 65b4 3bbe
00000280: 4484 06be afa1 7f3e 912c e63e 0b77 413e
00000290: 3afa 0cbe ec34 ffbe c9da 5dbe d74d 98be
000002a0: f289 67be 00a5 fa3d f257 b63c 2a8c 723e
000002b0: 3e57 c639 1be2 0e3d e238 95be f992 d9be
000002c0: b377 4d3e 37a4 86be a382 bcbe d449 2e3d
000002d0: 4fdd 40bb 4b98 613e c536 653e c25f 0dbe
000002e0: 49f6 2f3e f1d1 1a3d bc53 16be f7f4 1abe
000002f0: b829 4ebc ca06 19bf 60b2 013f f3fc 983c
00000300: b11e 99be 7a1d b4be 5b6e 3ebe 1a44 e53e
00000310: 734b 003f c348 2b3e cd36 efbe b266 913e
00000320: b7a4 a03d cf36 2cbe 7bf8 a53b ab59 813d
00000330: 86f9 27be aaf9 c3bd 7532 893d 984e d53c
00000340: b3cb 953e 0fff 063f f610 193f e0bc e23e
00000350: 6e93 ccbc 6091 e03e 0110 b3bd d120 dbbe
00000360: f090 aabc 3b4b 44be eb01 f83e 52a2 583e
00000370: b427 d1bc 1266 853e df4f f43d 0bb8 5e3e
00000380: 1265 8cbd b16c 2abd 7e69 6f3e 2b38 183e
00000390: e335 efbc 8e84 093e 9231 0fbd 3425 123e
000003a0: ca00 a6be d6c3 1ebd dfee 4d3e 268f d93e
000003b0: 4c57 cebd 37f0 4c3e 4dbd ee3d 6d78 183e
000003c0: 39a5 553d 03c6 e6bd 3ef5 08be ae7d cbbc
000003d0: ed8c b63e 83a6 a33e 5a57 e03e a826 1e3e
000003e0: f131 2b3e 9f5e d7bc 127d 503e f294 df3d
000003f0: c4ca 87bd 3eee e13d 98e0 2b3e 6de3 5fbe
0.02606734 0.08654206 -0.060252912 0.4527628 0.17757046 0.5283611 0.17653671 -0.49467257
-0.2932897 0.17599946 -0.23600839 0.2517741 -0.12300003 -0.042661577 -0.1582433 0.0016538114
0.37827528 0.03228481 -0.27831763 -0.20582163 0.27349955 -0.49374428 -0.41558874 -0.22781917
0.58908254 -0.5686232 -0.11604686 0.38379556 -0.18154281 0.059068937 0.23350404 -0.10411324
0.093098074 0.10864161 0.12752374 -0.007285441 0.34128082 0.37624356 0.4088516 0.12339475
0.043794807 0.0018857394 -0.004425464 -0.06942926 -0.035585344 0.38104644 0.10727094 -0.12300744
0.07507917 0.0089685675 0.036307644 0.27404067 -0.098401465 -0.038859718 0.35426646 0.42157483
0.40545774 0.0016843368 -0.016830856 -0.033286735 -0.006951408 0.046902142 -0.06491273 -0.1316027
0.1373326 0.34384567 -0.29472914 0.09646033 -0.09151902 -0.0994979 0.010568535 -0.065152906
-0.26651683 -0.22426994 0.24001928 -0.2693914 0.08122336 -0.115040906 -0.20380545 0.17704962
-0.154214 -0.3797467 -0.42135096 0.5169257 0.14204057 0.10255861 -0.2553953 0.24719965
0.049720775 -0.07116978 0.29368326 0.27555096 0.11565413 0.13467835 0.053898953 0.022758655
-0.20293091 0.016640399 -0.021098424 0.19082579 0.5908845 -0.30882975 0.13887212 0.07379837
-0.31615576 0.0820555 0.064112745 0.092986725 -0.2586084 -0.12037522 0.367508 -0.05032493
0.14971973 -0.07288201 0.059305236 -0.16038948 0.01476856 0.48932347 0.110963166 0.21955523
0.41686836 0.32029754 0.30081344 0.13210984 0.41250142 0.41625416 -0.23373918 0.41724825
0.4286553 -0.46869576 0.20036395 0.018212078 -0.38237065 -0.08006287 -0.13498415 0.5150363
-0.3906953 -0.036482595 0.17529714 -0.052567128 -0.081859685 0.15114473 -0.10100352 0.0698129
0.41886842 -0.01374575 0.04585953 0.16012459 -0.16113386 -0.044387553 0.0929888 0.03762298
0.040855832 0.07912886 -0.47620714 -0.046726625 -0.08063142 -0.030230252 -0.3260146 -0.18330534
-0.13136393 0.24964021 0.44955876 0.18893068 -0.13767329 -0.49845064 -0.21665491 -0.29746887
-0.22611216 0.122385025 0.022258732 0.23686281 0.00037830503 0.0348836 -0.2914496 -0.42494944
0.20065193 -0.2629716 -0.36818418 0.042550877 -0.0029428785 0.22030751 0.22384174 -0.1380606
0.17183794 0.037797872 -0.1468038 -0.15132509 -0.012583189 -0.59775984 0.50662804 0.018675303
-0.29906228 -0.3517874 -0.18596785 0.4477852 0.50115126 0.16726975 -0.46721497 0.28398663
0.07843917 -0.16817783 0.0050650216 0.06315931 -0.1640378 -0.09569104 0.06699077 0.026038453
0.29256973 0.5273294 0.59791505 0.44284725 -0.024972644 0.43860912 -0.08743287 -0.42798474
-0.020821065 -0.19169323 0.48438963 0.2115567 -0.025531627 0.26054436 0.11929297 0.21749894
-0.06855215 -0.041607562 0.23380086 0.14865176 -0.0292005 0.13429472 -0.034959383 0.14272004
-0.32422477 -0.038760982 0.20110653 0.42492026 -0.10075244 0.2001351 0.116572 0.14889689
0.05215952 -0.112682365 -0.13374802 -0.024840202 0.35654393 0.31962976 0.43816644 0.15444434
0.1671827 -0.026290236 0.2036021 0.10917081 -0.06630471 0.11031769 0.16784894 -0.218641

onnx::MatMul_39 f4 [9, 53]
00000000: 7763 ad3d d7ec 9d3e 3663 c7be dc85 2a3f
00000010: 17f6 eabe 0d31 e1bd f19b 753d 22a4 bf3d
00000020: 990a f13e ba99 253f 142e 07bf 8cde d8be
00000030: 8b8c 6fbd 9fd2 363f 7a6b afbe 3dab e5ba
00000040: 0d91 2ebe e094 483e 6593 cc3e ef44 0fbf
00000050: d51a d5be 0903 a4be bffe 3a3d 6d0e 5b3d
00000060: dc42 19bd b374 f73d efb6 b2be e00c d43e
00000070: 6ab1 86be d0ca c03e 6bda 1a3f e4f0 cb3e
00000080: 76fb 703d 2d28 023f ecde 3f3e 4a61 8cbe
00000090: fdcc a53e 9795 c7bc c9a6 e23b 7c0e 403c
000000a0: 8c2f a83e 63dc 0e3f 5e89 963e d46a 9fba
000000b0: ac03 c1be 0eb2 4d3e a445 0a3f dc9e 1b3f
000000c0: edac 1f3e 146d 953e af0f 403f 0810 9f3c
000000d0: dd33 803e 1c34 963e 7975 033f 6b98 943e
000000e0: 7101 5abc 2557 133f f0de 643f bdff f3be
000000f0: 6177 e4be ac26 babd 833f c23e dd56 5b3e
00000100: 4e28 623e a2c8 123f c12c a03d 7b1c db3e
00000110: 0f8d dd3e 5d69 bb3e 41d5 a83e facc 853e
00000120: 379e 3f3f 2eec 273d 20c2 723e 1890 533e
00000130: 48fd 163f 7d1d c2be a621 253f 3e4e b03c
00000140: e469 5bbe 67da 88bd e816 9f3e 4ee4 d63e
00000150: f65f c8be 1021 943f 42ba b4be 7e09 da3d
00000160: a06c 253e 6355 bcbd a59d ea3e 14fd 853f
00000170: 1a3f d53c ba56 1d3f 5a24 90bd b3f8 0bbe
00000180: 6a99 a4be e339 dc3e fa76 1bbe 6b6c d53e
00000190: e10a 1ebe 2e0d adbe 047e 04bf 56f7 64be
000001a0: 1ad6 c5bb dbff b5be 83eb 8fbc 7413 1bbf
000001b0: 088a 5e3d aabf 03be 68b8 9e3d ee43 863c
000001c0: b5a7 5a3f 61fd 2e3f fd90 5bbe 92e3 05bf
000001d0: 3f6a 1f3f 08c0 d13d 9d45 04bf 78c2 edbe
000001e0: 3602 02be 25d7 cabd 15a7 6e3d f968 d3be
000001f0: b4a4 febe 2da6 67be 8713 fa3e 488c 1b3f
00000200: 0653 bebd a856 10bf d0d0 6a3f a533 13bf
00000210: 9b5c c23e 5052 bdbd 4895 7e3f 9d04 f9be
00000220: 6e0e 00bf 783a d33e 6919 c0be 3c2f 963d
00000230: 317b 5dbe d651 e43d adc6 1dbe 1632 74be
00000240: 28cd 6fbe da59 573e 7d38 1cbf 9b98 7bbe
00000250: db0c 24be dab1 b43f 8d6c ad3e bca6 5e3c
00000260: fadb 10bf d0d0 febd bee9 e23d 0f48 303f
00000270: 9a86 47be 52c0 8f3c a716 973e 7e50 8a3d
00000280: a3f5 4b3f bb18 963b 8702 bf3f a274 c83c
00000290: 4c67 58be 9bcf 953e af7d efbd fc36 ab3f
000002a0: b3af 953f ca29 12bf cf18 5fbe 1341 cfbf
000002b0: de47 903f 8afc 263e 6a85 86be 6520 ac3f
000002c0: 238a e53e 3ba7 6c3f df61 0abf 7ca6 16bd
000002d0: 8f3f 53bf 5b3d 5e3e 6846 673f fa29 c5bd
000002e0: f4c9 ca3e 385e 75be 0c5e 3c3f 8341 02bf
000002f0: a66b e03e 20a7 5f3f ad62 673f 5703 ea3e
00000300: 98ed 703f 6cb1 8d3e e7a3 bfbe 18d0 b53f
00000310: 9465 b93e ef99 8e3d a188 e3bd 140f 513f
00000320: 751e be3f 9ddb 963f 831e 683d fa4c 1bbf
00000330: c05b 9d3e 4b15 653f 11a0 bc3f e362 093f
00000340: 014f 533d 4ae5 333f 6b3c a23e fc54 533f
00000350: d282 c53f fcae ec3e 2558 e43f a9c6 3ebf
00000360: 3ad2 1540 cdb8 f43e 581c 033f f2b9 b13e
00000370: 452c edbe f111 823d 214a e53f 2fa8 d23f
00000380: f03d 60be dcd3 703e 4d1a 0940 d1e4 0d40
00000390: 734d 56bf f790 963f 19cf 313f 1648 4f3f
000003a0: af11 fb3f 535f e03f da07 e13f 3742 213f
000003b0: 1288 aa3e 670f 563f c81b c73f 24a4 183f
000003c0: a0c4 533f 4139 5d3f a2ae c2be bc4d 05bf
000003d0: 564d abbc ae84 a1be d406 ce3f 674e 99bf
000003e0: 84de 4bbf 44df c03f 8594 023f d384 ca3f
000003f0: eaa4 333f 7f68 02bf 3801 55bf e3b1 a83d
0.08466237 0.30844757 -0.3894288 0.66610503 -0.45890877 -0.10995684 0.05996317 0.09357478
0.47078398 0.64687693 -0.52804685 -0.4235729 -0.05848364 0.7141513 -0.34261686 -0.0017522346
-0.1704752 0.19588041 0.39956203 -0.5596456 -0.41622034 -0.32033566 0.0456531 0.053480554
-0.037417278 0.120828055 -0.34905192 0.41416073 -0.2630723 0.37654734 0.6048953 0.39832222
0.05883356 0.50842553 0.18737382 -0.27417976 0.32382956 -0.024363322 0.006916855 0.011722203
0.32848775 0.55805033 0.29401678 -0.0012162575 -0.37698114 0.20087454 0.54012513 0.60789275
0.1559331 0.29184783 0.7502393 0.019416824 0.2503957 0.2933663 0.51351124 0.29022536
-0.013306008 0.57554847 0.89402676 -0.4765605 -0.4462233 -0.09089407 0.3793908 0.21419854
0.22085688 0.5733739 0.07821036 0.42795166 0.43271682 0.36603823 0.329752 0.26132947
0.7485079 0.040996723 0.23706865 0.20660436 0.58980227 -0.37913123 0.6450447 0.021521684
-0.21427113 -0.06682282 0.31072164 0.41971058 -0.39135712 1.157259 -0.35298353 0.10646342
0.16154718 -0.09195974 0.45823398 1.0467858 0.026031066 0.6146046 -0.070381835 -0.1366909
-0.32148296 0.43012914 -0.15182105 0.4168428 -0.15433837 -0.33799118 -0.51754785 -0.22359976
-0.006037486 -0.35546765 -0.017568355 -0.6057656 0.054330856 -0.12866083 0.077500165 0.016389813
0.8541215 0.68355376 -0.21442027 -0.5230037 0.62271494 0.10241705 -0.5166872 -0.4643743
-0.12696156 -0.09904317 0.05826481 -0.41291025 -0.49735034 -0.22621985 0.48843023 0.6076093
-0.09293179 -0.56382227 0.9172487 -0.5750068 0.37961277 -0.092442155 0.99446535 -0.48636332
-0.5002202 0.41255546 -0.37519386 0.07333228 -0.21629025 0.111484215 -0.1540782 -0.23847231
-0.23418105 0.2103037 -0.61023694 -0.24569933 -0.16020529 1.4116776 0.3387188 0.013589557
-0.5658566 -0.124421716 0.11079739 0.6885995 -0.1948494 0.01754776 0.2950947 0.06753634
0.79671687 0.004580585 1.4922646 0.024469677 -0.21133155 0.29259953 -0.11693894 1.3376155
1.1694244 -0.57095015 -0.21786807 -1.6191734 1.1271932 0.16307274 -0.26273662 1.3447386
0.44831952 0.92442673 -0.5405559 -0.036779866 -0.8251886 0.21703093 0.90341806 -0.09627147
0.39607203 -0.23961723 0.73581004 -0.5088121 0.4383213 0.8736439 0.9038494 0.45705673
0.9411254 0.27674425 -0.37429735 1.420413 0.3621031 0.06962954 -0.11110044 0.8166363
1.4853045 1.1785771 0.056669723 -0.6066433 0.30734062 0.89485615 1.4736348 0.53666514
0.051589016 0.7027174 0.3168672 0.8255155 1.5430548 0.46227252 1.78394 -0.7452188
2.3409562 0.47797242 0.51215124 0.34712178 -0.46322837 0.06351078 1.7913247 1.6457576
-0.21898627 0.23518318 2.1422303 2.2170908 -0.8371193 1.176299 0.6945663 0.8096937
1.9614772 1.7529091 1.7580521 0.6299166 0.33306938 0.8361725 1.5555353 0.5962546
0.827219 0.8641549 -0.3802386 -0.5207174 -0.0209109 -0.3154654 1.6095834 -1.1977051
-0.79636407 1.5068135 0.5100787 1.5821785 0.70173514 -0.509407 -0.83204985 0.08237054

onnx::MatMul_40 f4 [53, 85]
00000000: 7375 84bc 252e a13e d27a 723e 6b5e bb3e
00000010: 9876 1f3e cac9 153e d086 313e 6291 f43d
00000020: 5b58 a33d ea64 453e 1ed3 b53e a345 cc3e
00000030: d53e 88be 1acc 6f3e 47eb 9d3e 8ee1 963e
00000040: 21e5 a23e 89f6 c13e e1fd 753e 3eb3 853e
00000050: 2668 7f3e 2de8 2e3d 5b73 113e a63a ca3e
00000060: 1ff7 533e 3c03 ffbd 476c 723e a2e0 433e
00000070: 1839 323e 29b4 aa3e 41a0 c93c 10ef a33e
00000080: 90d8 053f 2d1b 0a3f c940 56bd 7f62 df3d
00000090: e06b 6c3e f3d2 f73e 5cfc a83e fc47 23bd
000000a0: 211b 5d3e 32ff c6bd 435f 5bbe d1db 213e
000000b0: 116b da3d 0110 863e 9001 2bbe 8432 913e
000000c0: 9b75 df3e e786 083f 13ff 883e 8835 253e
000000d0: f582 183f a92e 863e 2a02 363c 4eef 193e
000000e0: 5a22 d73e ef04 01be 3f41 843e 9a64 233f
000000f0: 6726 53be 6bb8 bd3e 73a6 933e e61b 9c3d
00000100: f5fa 653e 2d24 d73e 0e39 3c3e 5500 433e
00000110: cc86 ecbd a1c3 a93e c4f5 8bbe 2498 123e
00000120: c78e 893e 3fb3 d73d e5fe b63e d58e c13e
00000130: 97ae f63e 5fd9 063f fce7 943e 8557 0d3f
00000140: e1af 7abd 18f8 833d 8eda 983e 28d2 873e
00000150: 1ef2 053f c3dc bc3e 25b8 4c3f 291c 463f
00000160: 3a1d ba3e 49a0 c33e 6aaa 873f c84f 3ebc
00000170: 361a af3e fdc5 f0be 3f88 80bd 067e 293f
00000180: c04c 7e3e b5bd adbd 9095 983e 5b39 7f3e
00000190: 211a dabe 4dc1 b8bd 31ca 153f 0304 e23e
000001a0: 583d 0abf b969 e53e 2b6e d4be 5ea6 293f
000001b0: cd5d b03e f441 173f a1f4 95bd 7b8b 67be
000001c0: 4a33 e33e 9925 8f3e 8969 973e 6d7e b2be
000001d0: abff 22be 440e 233f 99c3 c03e a906 163f
000001e0: 48da ba3e 7338 743f b736 253e 93ac 17bd
000001f0: da6d d53e b83b 583e e847 083f 4edc 0a3f
00000200: 1519 393f 9cd6 e9be 8bbd 173f 32d2 24bf
00000210: c6b9 3b3e 257c d13e 24f9 1c3e 1d03 293f
00000220: 3b4f d13b 85cc a83e 0d0f 803f 1da9 053f
00000230: d0af 353f b724 f73e df4f 67be 5dd0 da3e
00000240: 3bb5 d03d 6d5f c3be a918 aabe 623e b13e
00000250: a9d8 133f 7a13 acbc ffca f93e 7b3d d93d
00000260: cae4 bd3e 42cc 083f 8899 06be 2353 fa3e
00000270: 6b61 4fbe b42a 40be 0430 023f f9b8 2c3f
00000280: fab4 273f 18db 623e f28d 253f 0468 42be
00000290: 94fc 123e ac7b 0a3f 4d58 e73e 9918 f03d
000002a0: 93dd 263f 4578 dd3e ea62 773e f566 a13d
000002b0: 8d3b 073e 428d ec3e 7dbd a1bc b51e 0c3e
000002c0: 43c9 783e f918 c83d 6c34 2a3e 5873 053f
000002d0: c2fa c73e 18a1 2b3f b294 ba3e 3089 b63e
000002e0: 027d 043f 45a6 f03e 2b42 783e f1e1 8c3e
000002f0: e6e6 323e d573 113f f80f f23d a341 cc3e
00000300: 9343 8d3d c12e 213f 06a2 203e 98a0 073e
00000310: 4dfb 0f3f cf92 573e acd0 cc3e d51f 0e3f
00000320: 1ec4 483e 0255 c23e 8ca5 c83e 35e3 023f
00000330: 040b 6fbe fc43 023f d372 c83e b640 133f
00000340: 4001 ca3e 6458 953c 54b5 493e 21d4 4cbe
00000350: a04a adbd 29ff 933d 9c80 d03e 472f 803e
00000360: 8283 30ba 50bb 1a3d 15d7 433f d80e 003f
00000370: fac5 d33e d46c a83e b8e2 1b3f b93d 6c3e
00000380: 003e ba3e 7650 703e e26c 883e 386f b1bd
00000390: 6c42 b83e f9be 3e3f 6d32 ba3e d56e 1f3f
000003a0: aa6b 0b3e 274e a33e b2d1 a83e 9a51 023f
000003b0: 40d6 943e e351 c73e 83de 72be f366 123f
000003c0: 6c13 3bbe 0775 133e 3f1b 283f de24 c43e
000003d0: ce51 b93e e164 d53e c918 0b3f 61ce 003f
000003e0: f7c3 013f 1b65 ed3e 7944 91be 4bcc 053f
000003f0: 57f2 dd3d 2d0a e03e 94d0 eb3e 4924 1cbe
-0.016169285 0.31480518 0.23679665 0.36595473 0.15572584 0.14627758 0.17336583 0.11941792
0.07975837 0.19276777 0.35512632 0.3989688 -0.26610437 0.23417702 0.30843565 0.2946896
0.31815436 0.37883404 0.24022628 0.26113313 0.24942073 0.04270189 0.14204161 0.3949787
0.20699738 -0.12451789 0.23674117 0.1912866 0.17404592 0.33340576 0.024612548 0.32018328
0.52283573 0.53947717 -0.052307878 0.109074585 0.23088026 0.4840313 0.33005035 -0.03986357
0.2159238 -0.097166434 -0.21423058 0.1580651 0.106649525 0.26184085 -0.16699815 0.28358853
0.43644413 0.53330845 0.26757106 0.16133702 0.59574825 0.26207474 0.011108914 0.15032694
0.42018396 -0.12599538 0.2583103 0.6382538 -0.20620118 0.37054762 0.28837928 0.07622509
0.22459014 0.42019787 0.1838114 0.19043095 -0.11549148 0.33157066 -0.27335942 0.1431585
0.26866743 0.10532235 0.35741344 0.37804285 0.48180076 0.5267543 0.2908324 0.5521167
-0.061202887 0.064438045 0.29854244 0.26527524 0.52322567 0.36887178 0.7996848 0.7738672
0.36350423 0.38208225 1.0598881 -0.011615701 0.34199685 -0.47026053 -0.06275987 0.6620792
0.24833965 -0.08483449 0.29801607 0.24924223 -0.4259806 -0.09021244 0.58511645 0.44143686
-0.53999853 0.44807222 -0.414903 0.6626948 0.34446564 0.5908501 -0.0732205 -0.22611801
0.44375068 0.27958372 0.29572704 -0.3486208 -0.15917842 0.6369364 0.3764923 0.5860391
0.3649466 0.95398635 0.16134153 -0.037029814 0.41685373 0.21116531 0.5323472 0.5424241
0.723039 -0.45671546 0.59273595 -0.6438323 0.18332586 0.40915027 0.15329415 0.66020375
0.006387619 0.32968536 1.0004593 0.5221117 0.70971394 0.482702 -0.22589062 0.42737094
0.10190817 -0.38158742 -0.3322194 0.34617907 0.5775247 -0.02100538 0.48787686 0.106074296
0.37088615 0.5343667 -0.13144505 0.48891553 -0.20252006 -0.1876629 0.50854516 0.67469746
0.65510523 0.2215389 0.64669716 -0.18984991 0.14354163 0.5409496 0.45184556 0.11723442
0.65181845 0.4325582 0.24158826 0.078809656 0.1320631 0.4620152 -0.019743675 0.13683589
0.24295525 0.09770388 0.1662156 0.52129126 0.390585 0.67042685 0.3644157 0.3565154
0.51753247 0.47001854 0.24243991 0.2751613 0.17470893 0.5681737 0.11819452 0.39893827
0.068976544 0.62961966 0.15686807 0.13244855 0.5624283 0.21052097 0.40002954 0.5551732
0.19606063 0.3795548 0.39188802 0.5112794 -0.23344046 0.50884986 0.39150104 0.57520616
0.3945408 0.018230624 0.19698077 -0.20002796 -0.08461499 0.07226402 0.4072312 0.2503607
-0.00067334634 0.03777629 0.76500064 0.5002265 0.41361982 0.3289553 0.6089282 0.2307042
0.36375427 0.23468193 0.2664557 -0.086637914 0.35988176 0.7451015 0.36366597 0.6227849
0.1361529 0.31895563 0.32972485 0.50905764 0.2906971 0.38929662 -0.23717694 0.5718834
-0.18269128 0.14400111 0.65666574 0.38309377 0.36195225 0.41678527 0.54334694 0.5031491
0.50689644 0.463662 -0.28372553 0.5226485 0.10837238 0.43757764 0.4605757 -0.15248217

onnx::MatMul_41 f4 [85, 3]
00000000: 230e 1a3f 6383 04bf da47 183f 0347 23bf
00000010: d208 03bf 9b2b 523e 9847 2bbf 4db9 d2be
00000020: 4476 983e f50c b0be 097c 18bf 2193 e5be
00000030: 069c 44bf 5dac a83c d5ce cbbe 407e cdbd
00000040: af45 12bf fb95 913f b7c2 f2be fea8 983e
00000050: 5297 3bbf c7b5 4fbf 5c0d 623e 6870 11be
00000060: 903b 853e c73f 823f 4177 5abf 6551 6f3f
00000070: 2858 a2be 7880 99be 1492 cebe f062 3bbf
00000080: 08e1 30be 8315 debd 7bd3 00bf cf17 23bf
00000090: 2b92 1940 072a 383f bc37 4e3f cf42 e9be
000000a0: cd5a 8bbe 0224 e2be 096a afbe 48c1 e6be
000000b0: 4346 12bf 367b 5b3f 3fda f53e b8f6 86bf
000000c0: bc50 f0be c791 793e af7e 3ebf c204 0bbf
000000d0: 8902 26bf 87dc 26bc c243 25bf 98be 9bbe
000000e0: f1b0 efbe b6e7 4d3f 8f3e 003f d7de 7fbf
000000f0: 5eb3 13bf 860c 90be 31c2 99be 0ad7 553f
00000100: d8b4 e13e 22ad 22bf a34f 30bf 023e 04bf
00000110: b2bd 423e 95aa 9abe 57c7 01bf 553b 14bf
00000120: b15b 2abf 62fd 10bf 6283 3abd d42c ee3f
00000130: f543 de3e 0f0e 0740 bdba 3a3f 201c 153e
00000140: d73e 42bf 09e0 fc3e 5509 1dbf 22e3 133f
00000150: 33d7 133f 16cb 37bf 3cdd 673e f28f 413f
00000160: 39e2 22bf 7e12 edbc 2842 273d 23f6 7e3f
00000170: 950e 2cbf 9b97 76be 98bb 323d 2c5c 65bf
00000180: d019 90be 286e 41bf 70d7 40be baad 5ebe
00000190: 6f18 0cbf 2a70 1fbf 90a1 8cbd 5230 d73e
000001a0: fa28 8c3f 7d7a 093f 4c4e 54bf 2c31 c43e
000001b0: d6ae 653e 2a84 73bf 8bf1 8c3f 034f 9ebe
000001c0: 761c d8be a73f 13bf 1417 7bbe 9096 55be
000001d0: cc25 47bf bbd8 6cbf be8a a43e 1528 273d
000001e0: a4f8 09bf 497d 5cbe f7f5 f4be ca9c 63bf
000001f0: 5c2c 273f b1d4 673f 7f5d 61bf 2d34 363f
00000200: 153e 523f 07e5 35bf d0da c5be 15c9 db3d
00000210: f6bb 183f f81d 313f 34ff 63bf 7666 2dbf
00000220: f436 adbe 3543 33be bc95 bd3f 9ed0 453f
00000230: d2ba 38bf c96c 1dbf 1646 1e3e 5ca7 12bf
00000240: e7b7 dfbc be49 38bf 1f22 02bf 651f 86be
00000250: ce89 c8be b0ac 0dbf cfcb f8be 71ca 28bf
00000260: 0082 2ebe d1cd 25bf fd71 1d3e 6841 1ebf
00000270: e795 fabd 34aa 21bf 5794 20bf 3272 853c
00000280: ef2f 45bf a5dc 8c3f ce87 0c3f c973 16bf
00000290: 2215 073f 7962 06bf 4789 16bf cabc e13e
000002a0: b4cd dfbe e5b8 24bf ec4f 98be 2263 a1be
000002b0: 658b 913f 27cb cdbe e491 1fbf 7e64 c2be
000002c0: 25a2 b2be 6ebd 8b3d 315c 07bf 943b 29bf
000002d0: b8cf d43f 51d1 033f f3a7 13bf 6712 5b3f
000002e0: 9683 533c 6a9f 11bf e57f 15bf af58 b4be
000002f0: 384a 9cbe 6143 123f df32 81bf a4cd 083f
00000300: 431f adbe 1bf8 40be 74bf 40bf 8215 e2bd
00000310: 5c02 4bbf f8fe 9dbe 488b e0be 1169 e83d
00000320: ddf5 41bf edcf f73e 11cd 19bf 57ac be3e
00000330: 96c9 49bf cc59 3b3f 4f90 3b3f 82a8 313f
00000340: 8b91 47be 4605 0dbf 6950 6bbf 5ae5 383f
00000350: e55a 4c3f afcb 91be d304 8a3f a13f 2bbf
00000360: 3bd0 2d3f a959 253d c474 2fbf 875e 403f
00000370: e7d3 2bbf 49ad f03e c046 b6be 29e8 50bf
00000380: dc74 a63d 71d0 68be 253d 46bf cdd5 9a3d
00000390: 261b dabe 7789 e3be 03b8 03bf efb4 b1be
000003a0: 30f0 44bf 4856 40be 4303 263f bbe7 9cbd
000003b0: 0b48 06bf 8cb1 02be fc1a 05bf e3bf 16bf
000003c0: 1f63 54bf 6803 2e3f 7bca 5f3f b6eb 2e3f
000003d0: cc47 4abf 50b1 ca3e 105b 28bf fc57 483d
000003e0: 9416 b0be e7eb c0be 49ed 30bf 633d 96bd
000003f0: c100 0cbe 38db 50bf 52bf 74be
0.6017782 -0.5176298 0.59484637 -0.6378023 -0.51185334 0.20524447 -0.6690612 -0.41156998
0.2977773 -0.34384885 -0.5956426 -0.44838813 -0.7680057 0.020590002 -0.39806238 -0.10033846
-0.5713758 1.1373895 -0.4741418 0.2981643 -0.7327777 -0.81136745 0.22075409 -0.14203036
0.26022005 1.0175713 -0.8533822 0.93483573 -0.31707883 -0.29980826 -0.40345824 -0.7319784
-0.17273343 -0.10843947 -0.50322694 -0.63708204 2.3995464 0.7193913 0.80553794 -0.45558783
-0.27217713 -0.44168097 -0.34260586 -0.45069337 -0.5713846 0.8573488 0.4801807 -1.0544043
-0.46936595 0.24372016 -0.74412054 -0.54304135 -0.6484762 -0.010184414 -0.64556515 -0.3041885
-0.46814683 0.8043169 0.50095457 -0.999494 -0.5769557 -0.28134555 -0.3003097 0.8353125
0.44083285 -0.6354543 -0.68871516 -0.51657116 0.19017676 -0.3020827 -0.50694793 -0.57903033
-0.6654616 -0.5663663 -0.045535453 1.860743 0.43411222 2.110233 0.7294119 0.1456151
-0.75877136 0.49389675 -0.61342365 0.5776845 0.5775024 -0.7179426 0.22642988 0.7561027
-0.6362644 -0.028939482 0.040834576 0.99594325 -0.6720975 -0.2408127 0.043635935 -0.8959377
-0.28144693 -0.7555871 -0.18832183 -0.21745959 -0.5472478 -0.62280524 -0.06866753 0.42029053
1.0950005 0.5370253 -0.8293197 0.38318765 0.22429976 -0.9512354 1.1011213 -0.30919656
-0.42209214 -0.57519 -0.24520522 -0.20858216 -0.7779205 -0.92518204 0.32137102 0.04080971
-0.5389502 -0.21532167 -0.47843906 -0.88911116 0.6530206 0.90558916 -0.8803329 0.71173364
0.8212598 -0.71052593 -0.38643503 0.10731713 0.59661806 0.69186354 -0.89061284 -0.6773447
-0.33830988 -0.17506106 1.481132 0.7727145 -0.72160065 -0.6149412 0.15456423 -0.5728662
-0.027309371 -0.7198752 -0.50833315 -0.26195827 -0.39167637 -0.55341625 -0.48592994 -0.659339
-0.17041779 -0.64767176 0.15375514 -0.6181855 -0.12235623 -0.63150334 -0.6272635 0.016289804
-0.77026266 1.1004835 0.5489472 -0.58770424 0.5276662 -0.5249401 -0.5880322 0.44089347
-0.43711627 -0.64344627 -0.29748476 -0.31520945 1.1370665 -0.40194055 -0.62331986 -0.37967294
-0.3488933 0.0682324 -0.5287505 -0.66106534 1.6625891 0.51491266 -0.57678145 0.85574955
0.0129097905 -0.5688387 -0.58398277 -0.3522391 -0.30525374 0.5713406 -1.009365 0.5343878
-0.33812913 -0.18844645 -0.75292134 -0.110392585 -0.79300475 -0.30858588 -0.43856263 0.11348165
-0.7576578 0.48400822 -0.6007853 0.3724086 -0.7882322 0.73183894 0.7326707 0.6939775
-0.19489114 -0.5508617 -0.9191957 0.7222496 0.79826194 -0.2847571 1.0782722 -0.66893965
0.6789586 0.04036871 -0.68537545 0.7514424 -0.6712021 0.47007206 -0.35600853 -0.8160425
0.08127758 -0.22735764 -0.7743705 0.075603105 -0.42598838 -0.44440815 -0.51452655 -0.34708354
-0.76929 -0.18782914 0.64848727 -0.076613866 -0.5245368 -0.12763041 -0.519943 -0.58886546
-0.82963747 0.6797395 0.87418336 0.68328416 -0.79015803 0.39588404 -0.6576395 0.048912033
-0.34392226 -0.3767998 -0.6911207 -0.07335927 -0.13672163 -0.815845 -0.23901108
