models/model_DDNN_noised.pt (torch, 127233 bytes, 12 tensors)

l1.weight f4 [189, 9]
00000000: c1c5 393a be6b 15bf 4074 ce3f 4849 983f
00000010: 3c96 84c0 aae3 b0be 5e6f e5be ae3f 99bf
00000020: ddb9 94bf c5a9 9abc 8417 da3f 5ffe 9fbf
00000030: 53b7 5ebf 9c64 bfbe 117a 79c0 9470 dabe
00000040: f6cf 33bf 2d94 3abf c594 2fbd 631f b3bf
00000050: 79fa e13f 20f3 f8be e76d 163f c662 643f
00000060: 3bc7 f13e 74f2 02c0 185c 81bf cd74 f539
00000070: c876 613e 8c81 3a40 351d b8bf 5a4a 1cbe
00000080: c662 87be 12d3 65bf 4f73 08bf bb83 6ebf
00000090: dcf4 acbb c3bf 813f 9227 933f 3807 923f
000000a0: de7b 4a3e 413e 2ac0 92f8 10c0 00c0 83bf
000000b0: 2f44 57bf 956b 13bc b1d4 0dbf 1df4 7e3e
000000c0: 0e7b 0fbf 0a07 78bf 7f7e a63e f416 4fc0
000000d0: 78c2 0bc0 81b9 b3bc b2f8 3039 c223 00c0
000000e0: db67 79bf d7e8 babd b870 afbf 0f9d 503f
000000f0: 3090 9cbe 0ed6 05c0 1d33 b53e 3995 c4ba
00000100: f839 c6bf ac9e 00bf f68f 3fbd 681c 48bf
00000110: bf7b 10c0 abd9 19bf 8d05 11bf 2cfc 823e
00000120: 1d17 4e3b afbe bbbf a541 03c0 f716 6fbd
00000130: 1318 acbf 8356 f3bf e2e1 433f 8d2b 243f
00000140: 03de a9bf 4db5 8fbb 3459 bebe 22b1 eabd
00000150: 246c b6bf 4973 423f 33fd 8240 6ab8 e0bf
00000160: 4179 76bd d829 30bd b73a a83b db5e c1bf
00000170: 9bca d23f abbe 923e e8d5 63c0 cfc3 02c0
00000180: ce1b 8ebe ed8b 03c0 6cf8 91bf 4b20 613a
00000190: 7796 923e 4171 d9bf 9fe1 4dbe a93f bbbe
000001a0: c585 6fbe 7ef0 c3be bd9f be3f b991 ff3e
000001b0: 86df ba3c e627 4140 1259 073f 7450 12bf
000001c0: 6a39 c3be bab8 c8be 3cfd 41c0 9259 b3bf
000001d0: ef6b b0bf 161f 36ba 4493 16bf f4f6 55bf
000001e0: f797 2b3d 02e7 ec3f b874 47c0 bc3e adbe
000001f0: bbc8 b3bf 367a 013f e69c 403b 9e93 6bbf
00000200: feb7 4bbf 413c c7bc 122f 523e 6fd0 36c0
00000210: 3326 a73e 03c5 f8bf 3b10 893d 921c 51bb
00000220: c303 503e a4e0 0640 de50 b33b f6bd 70c0
00000230: 0d7c f9bf baed 9cbe 33ec 933f 5516 afbe
00000240: 3133 9abb 705f a3bf e5f0 b0bf 2d14 03be
00000250: 93c4 62be 4fda bfbe d83a afbf 939b b7bf
00000260: d678 f13e e90d fabb 518a 2140 26a5 613f
00000270: b336 4bbe db55 99be 0d6e 01bf 985a 3dc0
00000280: 5947 edbf f8d6 32c0 1487 053a d954 f33e
00000290: 43a7 e1bf 5532 05bd 0403 7bbf bb6e f2bf
000002a0: d70f edbe 06b5 bcbe b2dd 77bf 1218 54bb
000002b0: 7663 a3bf ec15 96bf 9fa2 f4bd b2f3 cfbf
000002c0: ad9a c73f 587b 4dbf 6881 e8bf 5072 c0bc
000002d0: 853b ba3b 4147 78bf a201 0b3f b6d2 a13e
000002e0: f062 8ac0 e7c5 983f 9a67 aa3f 26c0 89bf
000002f0: 896b 08bf e488 033b 6b80 14c0 2f88 10c0
00000300: 8c90 233d 99ee 403e 6ed9 a33f e4e4 d13d
00000310: 7758 fcbf faf2 97bf fb52 2b39 27bf ee3e
00000320: 72dd 463f 5462 063f ea85 39c0 b66b 51c0
00000330: 278a e1bd 3e08 f6bf 6ce9 3dbe 4405 6b3c
00000340: 8532 a2bf 1eaa e7bf 7202 96be 13dc 843f
00000350: 1366 9fbf b676 2a40 bc48 98bf b68f 633f
00000360: 766f 69ba a1b8 a23f 3d82 413f c721 2b3f
00000370: 1412 2a40 464f db3d 6b27 0ac0 9efe e6bf
00000380: dcc3 7fc0 507e e039 7b86 913f 1f0b 4ac0
00000390: d6aa 6cbd 27ca 3fc0 d91a 8d3e fd46 523f
000003a0: feed 96bd e9ea afbf 2938 dfbc f478 24c0
000003b0: 27d6 eebf 88f9 27be bfa1 60bd afe2 4a3e
000003c0: 1ab8 c6bf 4006 28bf 3986 cd3f 2ebb 863c
000003d0: 478a 31c0 ada1 3d40 c6a7 81bf fb57 a7bf
000003e0: 0f72 74bf 1822 3cc0 1c5c a33f 0667 0ac0
000003f0: 8a39 93bb ac64 19bf 7a64 75bf 95df b6bd
0.00070866576 -0.58367527 1.6129227 1.1897364 -4.143339 -0.34548694 -0.4481153 -1.1972558
-1.1619221 -0.01887978 1.7038426 -1.2499503 -0.8699848 -0.37381446 -3.8980753 -0.42664015
-0.702392 -0.7288235 -0.042866487 -1.3993953 1.7654563 -0.4862299 0.5876145 0.89213216
0.47222313 -2.0460482 -1.010623 0.00046817065 0.22017968 2.914157 -1.4383913 -0.15262738
-0.26442546 -0.8977519 -0.53300947 -0.93169755 -0.005278213 1.0136646 1.1496451 1.1408453
0.19773814 -2.6600497 -2.2651715 -1.0292969 -0.84088415 -0.0089978175 -0.55402666 0.2489781
-0.5604714 -0.9688574 0.32518384 -3.235776 -2.1837444 -0.021939041 0.00016877314 -2.0021825
-0.97424096 -0.09126442 -1.3706274 0.8148965 -0.30578756 -2.0911899 0.3539056 -0.0014998085
-1.5486441 -0.50242114 -0.04676815 -0.78168344 -2.2575529 -0.6009776 -0.56649095 0.25583017
0.0031446882 -1.4667567 -2.0508816 -0.05837151 -1.3444847 -1.9010776 0.76516545 0.64128953
-1.3270878 -0.0043856264 -0.37177432 -0.11459567 -1.4251752 0.7595716 4.093408 -1.7556279
-0.06017423 -0.043008655 0.0051339525 -1.5107073 1.646808 0.28661093 -3.5599308 -2.0432012
-0.27755588 -2.0554154 -1.1403937 0.0008587881 0.2863042 -1.6987687 -0.20105599 -0.36572006
-0.23390873 -0.38269418 1.4892498 0.49915865 0.022811662 3.0180602 0.52870286 -0.5715401
-0.3812974 -0.39203435 -3.0310812 -1.401171 -1.3782939 -0.0006947381 -0.5881846 -0.83579946
0.04189297 1.8507998 -3.116499 -0.33836925 -1.4045633 0.50577104 0.0029390394 -0.9202212
-0.79577625 -0.024320723 0.20525768 -2.8564718 0.3264633 -1.9435123 0.06692549 -0.0031907898
0.20313935 2.107461 0.0054722866 -3.7615943 -1.9490982 -0.3065012 1.1556457 -0.34196725
-0.0047058095 -1.27635 -1.3823515 -0.12800665 -0.221453 -0.37471244 -1.3689833 -1.4344352
0.47162503 -0.0076310528 2.5240672 0.8814262 -0.19845085 -0.29948315 -0.5055855 -2.9586544
-1.8537399 -2.7943707 0.00050936756 0.4752567 -1.7629169 -0.032518703 -0.98051476 -1.8940042
-0.46301147 -0.3685686 -0.96822655 -0.003236298 -1.2764728 -1.172544 -0.1194508 -1.6246245
1.5594078 -0.8026633 -1.8164492 -0.023492008 0.005683365 -0.96983725 0.54299366 0.31606072
-4.3245773 1.1935395 1.3312867 -1.0761764 -0.53289086 0.0020070607 -2.320338 -2.258312
0.039932773 0.18841018 1.2800729 0.102487355 -1.9714497 -1.1871026 0.00016338743 0.46630213
0.7768165 0.52493787 -2.8987985 -3.2721992 -0.110126786 -1.9221265 -0.18546075 0.014344517
-1.2671667 -1.8098791 -0.2929874 1.0379661 -1.2453026 2.6634955 -1.1897197 0.8889116
-0.00089048536 1.2712594 0.7558935 0.66848415 2.6573534 0.107084796 -2.158656 -1.8046453
-3.9963293 0.0004281872 1.1369165 -3.1569288 -0.05778011 -2.9967134 0.27559546 0.8213957
-0.07369612 -1.3743564 -0.027248459 -2.5698824 -1.8659104 -0.16403782 -0.054841753 0.19813035
-1.5524933 -0.65634537 1.6056587 0.016446676 -2.7740648 2.962993 -1.0129325 -1.3073725
-0.9548654 -2.939581 1.2762485 -2.162538 -0.004492943 -0.5991924 -0.9585644 -0.08929364

l1.bias f4 [189]
00000000: 7b29 b4bf 4db3 0e3f d7c6 aabf 1f6e 1dbf
00000010: 2972 be3c be37 713e 2f60 083f 5d82 8b3f
00000020: 60a7 4d3e 4688 73bf 54fe 87bf 5584 203f
00000030: 060b 41be af1e 0f3f 2c7e d63e 6a3b 313e
00000040: e8a4 df3e f898 f73c b85b 1e3f 26b1 1a3f
00000050: 8b0b 6bbf 4b4b 17bf cd93 e4bd 9fb1 dabe
00000060: 1fee ecbf cbd1 fc3e 3cea 293e 4bff 8c3d
00000070: 86bd ec3e 91f6 1cbe e999 92bf 5f85 2d3f
00000080: 99d5 563f fa8c 98bf a833 773e 196d 803e
00000090: f21d 4f3f 6573 8fbf af49 fdbf 72c8 78bf
000000a0: 7250 703f ac64 2ebf 8334 79bf 9bf3 4abf
000000b0: 815a 283f 9afa c03e 5dcd 353f 6a20 22bf
000000c0: f3be 203e 69d1 61be fed3 943e 0599 0dbd
000000d0: e732 31bd d1ab 5e3c 96c9 dcbf e544 bdbd
000000e0: 385d aa3e cd38 b3be 5579 bc3e 4042 763f
000000f0: 34db 93be bff2 353e 2ea2 ee3e 2d1f 4abf
00000100: 327e 53be 781a 9b3e d04c bdbf 7675 f93c
00000110: 86c4 22be a14d 87be 5343 60bf 6bd0 623e
00000120: b6e5 2abf 6fc2 4cbe 4288 0a3e 19fe f03d
00000130: 253b c53e 8193 263f cac7 b9be 6144 11be
00000140: 0993 663e e0ac f4bf d06d 9ebe a0da 723f
00000150: bb3e 133e 5768 7d3e 02ba 123f a36d 4c3e
00000160: 0e05 5a3e 52ea 8b3e 5b77 bf3e 81de 43bd
00000170: eed5 3c3d cc0b d5bf fffe 983f aea6 3d3e
00000180: 2467 bebf a3c8 273f a7cc c73e ec67 39be
00000190: 97e5 e73b b6f9 8dbe 6a05 943f 61fe 0a3f
000001a0: 06b3 1fbe c29a 95bf e1d0 953d dcd2 26bf
000001b0: 80b6 933f fb23 6d3e 2e03 0cbf 2a96 db3e
000001c0: 851b 4dbe a9a7 9c3e 7237 23c0 b40b 4d3f
000001d0: cdc1 c03e f642 28bf d204 483f 93e4 873e
000001e0: 29ce ce3e 001f 71bf d576 c33e 8fbb 183f
000001f0: e675 6dbe 8235 023f aa78 883f 72bc a8be
00000200: 6490 b43e 9ab3 403f 086b 7f3d fd6f 9a3d
00000210: 5ca1 ad3e 1f85 3d3f c380 3a3e eae2 743f
00000220: 704a 87bf 92de debf 1cce 32bf 8618 3fbf
00000230: beed 25bf 2453 df3c 2bb2 c83e fbcb 6e3f
00000240: b4f1 9d3e b831 bc3d 2499 aebe ff76 193f
00000250: 3797 8b3c 7c5e 65bf 23b3 3f3f b509 123f
00000260: f663 a3be 7615 21bf 157f 7c3e eb8f a33e
00000270: ccae 4d3f 8c0a 4c3d 7f02 d13d d62d 6cbf
00000280: 8ef7 753f c118 bd3d dbcd 52be b178 8abf
00000290: 7923 e4be dd69 1f3e 6bb8 343f 6f59 a23f
000002a0: a35c 473f 80e6 86bf 1a99 cc3e afd2 363f
000002b0: e024 11bf 770c 4a3f ce21 b9bf f99c 883e
000002c0: 62ab 8cbd 775b 67bf 7a5a 47be 821c 0e3e
000002d0: 794b 6ebf b9ff c2be d717 6e3d a9cf 47bd
000002e0: 6f7a 92be 290a 85bf 58a7 b03e d179 2abf
000002f0: a5b9 4b3e
-1.4075159 0.5574234 -1.3341931 -0.61496156 0.023247795 0.2355642 0.53271765 1.0899159
0.2008338 -0.9512981 -1.062449 0.6270192 -0.18851861 0.55906194 0.41893137 0.17307821
0.436805 0.030224308 0.618587 0.6042656 -0.9181449 -0.5909926 -0.11161003 -0.4271364
-1.8510169 0.4937881 0.1659326 0.06884631 0.46238345 -0.15328433 -1.145322 0.67781633
0.83919674 -1.1918023 0.24140799 0.25083235 0.8090507 -1.1207091 -1.9788111 -0.97180855
0.9387275 -0.68122363 -0.9734575 -0.7927796 0.657631 0.37691194 0.71016484 -0.6333071
0.15697841 -0.2205254 0.29067987 -0.03456976 -0.043261435 0.013590769 -1.7249019 -0.09241656
0.33274245 -0.35004273 0.3681132 0.9619484 -0.28878176 0.17768382 0.46608108 -0.7895382
-0.20653608 0.30293632 -1.4789066 0.030451518 -0.1589528 -0.26426414 -0.8760273 0.22149818
-0.6675676 -0.19996046 0.1352854 0.11767215 0.38521686 0.65068823 -0.3628524 -0.1418624
0.22517027 -1.9115257 -0.30943155 0.94864845 0.14379399 0.24746834 0.57315075 0.19963698
0.2129099 0.2732721 0.37395748 -0.047819618 0.046102457 -1.6644225 1.1952819 0.18520615
-1.4875226 0.6554052 0.39023325 -0.1810605 0.00707693 -0.27729577 1.1564152 0.542944
-0.15595636 -1.1687853 0.07315231 -0.65165496 1.154007 0.23158257 -0.5469235 0.42888004
-0.20030029 0.30596665 -2.550259 0.8009598 0.37647858 -0.65727174 0.78132355 0.26541576
0.40391663 -0.9418793 0.381766 0.5966119 -0.23189506 0.50862896 1.0661824 -0.32956272
0.3526641 0.7527405 0.062357932 0.07540891 0.3391217 0.7403125 0.18213181 0.95658743
-1.0569592 -1.7411673 -0.6984575 -0.74646795 -0.6481589 0.027261324 0.3919843 0.9328
0.30848467 0.091891706 -0.34101212 0.599472 0.017039878 -0.89597297 0.74882716 0.5704606
-0.31912202 -0.6292337 0.24657853 0.31945738 0.80344844 0.049814746 0.10205554 -0.9225744
0.96080863 0.09233237 -0.2058634 -1.0818082 -0.44558313 0.15567727 0.705939 1.2683543
0.7787573 -1.0539093 0.39960557 0.7141523 -0.5669689 0.7892527 -1.4463441 0.2668226
-0.06868626 -0.9037394 -0.19468108 0.13878062 -0.9308391 -0.38085726 0.058128204 -0.048782025
-0.28609034 -1.0393726 0.34502673 -0.6659213 0.19895037

l2.weight f4 [119, 189]
00000000: c1bd 87bf 99cc 7cbe 1fef c0bd 1876 88be
00000010: 58cf a1be 315f f4be 86a0 763e 2c18 6c3e
00000020: e09a 763f 5640 2bbf 128e 03bf 931d 443e
00000030: 88a2 f83d dd1e ff3d b4d2 053d 2346 62bf
00000040: 7dfb 003f 9558 243b dba8 093f 4cec 933e
00000050: 3209 4abf 1ead e53e 3fbd 39bd e9c1 083e
00000060: 7380 74be 6426 5c3f be14 153f 9fce 573f
00000070: 3509 69bb e047 283e 891f f8be da45 80be
00000080: 92fd d53e 1c45 4ebe bbe3 b23e 415e 26be
00000090: 9198 ffbe 53e2 8fbf fe8a 19bf a1b8 a5bf
000000a0: dbc2 a53e 988a ec3d c592 0fbf 09df 963e
000000b0: 706d d83e 859b 92bb ada4 ad3e e467 733e
000000c0: 2414 a53e 141d 1bbc 62e2 893e 13b4 303f
000000d0: af63 f0be 6278 bebf cb69 10be d322 153f
000000e0: 4012 493d 86bd e2be 53c9 3fbe 2b18 1e3e
000000f0: e8eb 9d3d 1807 bf3e e721 e0bc 3913 9f3e
00000100: b5bf 9bbc d8ff f23d 290f 5ebd 16eb e63e
00000110: e822 e33d 5a83 1a3f eceb 17bf 4da5 89bf
00000120: 109c 3d3f 5752 c33e d806 24bf 5b2c a93e
00000130: ae85 503e 37aa 293f f1d1 1b3f 4c86 e0be
00000140: 2b59 4c3e 8b41 e6be f029 243e ba6c 3c3e
00000150: 3cc3 233e 678c 0d3f 693e d83e ceb3 683f
00000160: 8b31 353f 99f0 c63e 9097 9a3e 2a37 c7bf
00000170: a885 29bc 95be c3be ba4d fabd d1fb 053e
00000180: bccd 66be 4eaa 1e3f 7dad 3a3e ae1a 8fbe
00000190: a1b4 7d3f e82a 42be ec29 c23e 8055 f33d
000001a0: 0274 f4be 9cc3 a43e 0f3b 83bf d4a2 b53e
000001b0: 24d1 7bbb 5df4 d03e b2b2 d83e 75eb b23e
000001c0: 771e e7bf 0250 903f 10e3 8cbe 8364 cb3e
000001d0: 4cbd 823e 594b 94be 03b6 9f3e b42a 773f
000001e0: d01c 2cbf 43be d7bd 42e1 15bf 1edf 0f3f
000001f0: 3e01 8e3d f3ce afbf ef6d e23e 33bb 353f
00000200: 62f2 8a3e a211 823e acfa bb3e 05f2 c7bf
00000210: 3d21 523e cad1 003e 969c c9bd c700 233e
00000220: 9160 6f3f ce5a 0fbf fa15 8bbf b79a 553d
00000230: 9d9c 1bbf ecf2 00bf 8804 853e 51a6 273f
00000240: 438a e43e a644 463f 136b 873e ef1c 353f
00000250: ce4e 3dbf 2d50 9b3e f755 003e 338c 1d3f
00000260: a105 00bf d0e5 58bf 82ee 953d d767 043f
00000270: cef5 7c3e 7978 173f 73a6 3fbe ae65 03be
00000280: 0462 c63e 45e0 a4bc 518c 3b3e fd4c 743e
00000290: 302d 9fbe 6060 183f ca74 eb3e ee53 e03b
000002a0: cae2 683e 304b 5cbf a9af e83e edcb 92be
000002b0: ab11 64bf 6ef8 453e edd0 8f3e 7feb 5bbf
000002c0: 54a8 503e 03cf 73bf ae30 b73e 91d1 78bf
000002d0: a543 ba3e f61c 6bbf afab 89bf 7bae 433e
000002e0: 616d 62bf eeb1 ecbe 86fc 813f fe8e 5ebf
000002f0: 9531 8e3e 3ddc 873e d2ec 0fbf 9711 68bd
00000300: 79f7 14be 4e8f afbd 138d 053e e763 813d
00000310: 2612 083e 8244 8cbe 314d f93e 3eac d43e
00000320: 057d 233e 6e0f 74be f492 acbe c1ef 02bc
00000330: 8975 d53d bba3 323e 668a 82be 19ad 473d
00000340: 14ac 26be 423b 7bbe 0ab0 48be c574 d93e
00000350: 967b 30be a6b0 3abf f4bc d4be 28c8 45bd
00000360: 88c5 683d 4bd8 cfbd 8085 0ebf cec2 a1be
00000370: f2e5 95be d799 efbd 8b97 07be aac5 193e
00000380: 2cf3 9f3d a15e 36bd e8e6 2abe 277a a7be
00000390: 32a1 c9bd 7117 e83d b4bf a7be d98d c7bf
000003a0: 0540 f1be 98cb e7bd 74a6 313e 6450 503e
000003b0: 4665 d7bd dbe3 c83d c89b 04bf c7f1 d73c
000003c0: 5d67 fabd 9cd6 4d3c ce81 fb3c 816b 903d
000003d0: ef5f 623c 06f6 d1bd a58a cbbe 08dc a7be
000003e0: 0258 ae3e 6d63 ddbe 26ea e0bd af86 71be
000003f0: 3135 19bd 7c29 5e3e d616 20bf 292d e93c
-1.0604783 -0.24687423 -0.09420609 -0.26652598 -0.31603503 -0.47728875 0.24084672 0.23056096
0.9633007 -0.66895044 -0.5138866 0.19151907 0.121403754 0.124570586 0.032671645 -0.8838827
0.5038374 0.0025077213 0.5377328 0.28891218 -0.7892028 0.4485864 -0.045346495 0.13355221
-0.23877124 0.8599608 0.58234775 0.84299654 -0.0035558466 0.16433668 -0.4846156 -0.25053293
0.4179502 -0.2014355 0.3493937 -0.16246893 -0.49921086 -1.1240944 -0.5997771 -1.2946969
0.32375225 0.11549872 -0.5608333 0.29467037 0.42270994 -0.004474106 0.339147 0.237701
0.3224193 -0.009467382 0.2693053 0.6902477 -0.46951053 -1.4880488 -0.14102857 0.5825626
0.04908967 -0.4428522 -0.18729143 0.15438907 0.07711011 0.373101 -0.027359916 0.31069353
-0.019012311 0.118652046 -0.054213677 0.4510123 0.11090642 0.60356677 -0.59344363 -1.0753571
0.7406626 0.38148758 -0.6407294 0.33041653 0.20363495 0.6627535 0.6086722 -0.4385246
0.1995589 -0.4497188 0.16031623 0.18400851 0.15992445 0.5529236 0.42235115 0.9089936
0.7077872 0.38855436 0.30193758 -1.556371 -0.010346808 -0.3823134 -0.122218564 0.13084342
-0.22539419 0.61978614 0.18230243 -0.27950042 0.9910374 -0.1896168 0.3792261 0.11881542
-0.47744757 0.32180488 -1.0252398 0.3547579 -0.0038424218 0.40811434 0.42323834 0.34945264
-1.8056172 1.1274416 -0.27516985 0.39725122 0.25535047 -0.28963736 0.3119355 0.96549535
-0.67231464 -0.105343364 -0.5854684 0.56199825 0.06933831 -1.3735031 0.44224498 0.7098877
0.27138048 0.25404078 0.36714685 -1.5620733 0.20520492 0.12580028 -0.098443195 0.15918265
0.93506724 -0.5599793 -1.0866082 0.0521495 -0.6078585 -0.5037067 0.2598002 0.65488154
0.44636735 0.774485 0.2644888 0.70747274 -0.7394837 0.30334607 0.12532793 0.6154205
-0.5000859 -0.84725666 0.073208824 0.5172095 0.24703142 0.591682 -0.18715839 -0.12831756
0.38746655 -0.020126471 0.18315245 0.23857494 -0.31089163 0.59522057 0.4598754 0.0068459427
0.22742763 -0.8605223 0.45446518 -0.28671208 -0.8908946 0.1933305 0.28089085 -0.85906214
0.20376712 -0.9523775 0.35779327 -0.9719477 0.36379734 -0.91841066 -1.0755519 0.19109528
-0.8844815 -0.462295 1.0155189 -0.8693694 0.27772203 0.26535216 -0.56220734 -0.0566574
-0.14547528 -0.08572255 0.13042097 0.06317883 0.13288173 -0.27396017 0.48691705 0.4153766
0.1596566 -0.23834011 -0.33705866 -0.007991732 0.10422809 0.1744527 -0.25496215 0.048749063
-0.1627658 -0.24534324 -0.19598404 0.424719 -0.17234644 -0.72925794 -0.4155041 -0.048286587
0.056829005 -0.101486765 -0.55672455 -0.31593937 -0.29276997 -0.116992645 -0.13241403 0.15016809
0.07810053 -0.04452384 -0.16689646 -0.32710382 -0.09845199 0.11332596 -0.32763445 -1.5590163
-0.47119156 -0.11318129 0.17348653 0.20343167 -0.10517363 0.09809085 -0.51800203 0.026360406
-0.12226746 0.012563374 0.030701544 0.07051755 0.013816818 -0.10252003 -0.39754215 -0.32785058
0.3405152 -0.43239918 -0.1098216 -0.23586534 -0.037404243 0.21695513 -0.62534845 0.028463917

l2.bias f4 [119]
00000000: ddc6 e3be 7766 843f a47e 81be 549c 333e
00000010: 6d69 d2be 5b71 493f bd80 d8bd 48e6 053f
00000020: 167c fe3e c443 a53d c45d 253f 5510 5a3f
00000030: 23e6 c03e f850 3b3f 9af2 123f b05c febe
00000040: 59c9 393f 24ee fb3e abcc 323f 7bae 443f
00000050: c440 453f c043 2d3f baf0 903e 8da5 4c3f
00000060: bd84 6d3f 0aa3 4a3e 7309 033e 3bed 163e
00000070: 7650 26bd 739a 853f a7cd 553e e751 2c3e
00000080: 125b bb3e b0e7 813f 7704 9f3f bda8 613f
00000090: e9b8 f23e 6df9 f3bd f64f 8b3f 9d0e 253f
000000a0: 42ae ba3e 0c36 043e b27b c33e 9817 1ebe
000000b0: d8cb 993e 8878 9a3e b990 af3d a072 e73e
000000c0: 9544 a33f 3062 9d3f 8d86 503f 04e9 c73e
000000d0: 293c 7d3f 2086 033f 445d 7a3c af70 393f
000000e0: b150 823e 40b4 4f3f 5bd9 493f 7e8e 003f
000000f0: 94d4 b33e a79f 553f 9673 7b3e 3cd1 bf3e
00000100: f4da 0cbd baf6 263f aa61 633f 2f53 9cbe
00000110: e203 223f 9df3 973e 64f1 b83e 56c9 3f3e
00000120: 87c8 9c3f 7362 bf3e b277 8f3f 86b7 953e
00000130: 814d 913f dc23 783e 42ea 73bf 2e81 493e
00000140: 7e8d e8bd d30d 183f effe 03bf dffb c43c
00000150: d45d 2a3f 20a2 41bc aacf 71bb a723 833f
00000160: b74b 243f 41b2 ab3d 1692 2b3f 18f1 633f
00000170: b5a4 053e 6ed1 0f3b c36b 1fbe 66eb 303f
00000180: 694e a83e b8d4 cbbe 48d4 5a3f 85af 133f
00000190: 4698 2f3f 01a6 f03d 783f 3f3e 0de7 a83d
000001a0: ad6d 6a3e 47c7 303f 7c06 703f 9d62 27bd
000001b0: f284 303f b39a bf3c 3d0b 603f 0f7d 513f
000001c0: 5b3e d33d 0f33 753f 83cd 00bd 32c5 4d3e
000001d0: 7dea 453d 977b be3e 8821 cb3e
-0.44487658 1.034377 -0.25291932 0.17540103 -0.41096058 0.7868859 -0.1057143 0.52304506
0.49704045 0.08069566 0.645962 0.8518117 0.3767558 0.73170424 0.5740143 -0.4968009
0.7257286 0.49205124 0.6984355 0.76828736 0.7705195 0.67681503 0.2830866 0.7994011
0.9278067 0.19788757 0.12796573 0.14738934 -0.040604077 1.0437759 0.20879231 0.16828118
0.3659292 1.014883 1.2423238 0.881481 0.474067 -0.119128086 1.0883777 0.64475423
0.36461073 0.12911242 0.3818031 -0.15438688 0.30038333 0.30170083 0.085725255 0.4520464
1.2755305 1.229559 0.8145531 0.39044964 0.9891992 0.51376534 0.015281025 0.72437567
0.25452188 0.81134415 0.78847283 0.50217426 0.35123122 0.83446735 0.24555811 0.3746432
-0.034388497 0.65220225 0.888209 -0.30532214 0.63287175 0.2967805 0.36121666 0.18729147
1.2248696 0.37379798 1.1208403 0.2924158 1.1351777 0.2423243 -0.95279324 0.19678184
-0.113551125 0.59396094 -0.5156087 0.024045883 0.6654942 -0.011818439 -0.003689746 1.0245255
0.6417803 0.083836086 0.67019784 0.89039755 0.13051112 0.0021944898 -0.15568452 0.6910919
0.32872322 -0.3981073 0.85480165 0.57689697 0.68591726 0.11750413 0.18676555 0.082471944
0.228934 0.69054073 0.93759894 -0.04086553 0.6895286 0.023389196 0.8751715 0.8183145
0.10314628 0.95781034 -0.03144599 0.20094755 0.04831933 0.37203667 0.3967402

l3.weight f4 [9, 119]
00000000: 72d4 82bf 1c6f 2d3f fb52 8a3e c77a ac3f
00000010: cce7 f33b 2e37 db3c f59a 1a3f 88a6 75bd
00000020: 3149 ae3e b3a7 8cbe 2b28 463f 7e8f 9f3d
00000030: 433b 5ebd 4dfe 3d3e 9217 c5bd 2db7 7bbe
00000040: 1d74 5bbd 3601 3dbf 8366 f43d daf2 263d
00000050: 8175 ac3e c524 3abc b3df 4fbf 24f2 1b3e
00000060: 3fb9 193d 5763 003f eb95 0cbe 4484 6dbf
00000070: 0909 0c3b 0ffc 7bbb 0f2e 23be 2602 973e
00000080: 49d4 3f3e 2390 b83d da43 163e 4d2a b33d
00000090: 5ddc 89bd 9030 3bbf 80e6 5abd 98e1 093f
000000a0: 4133 66be 7a5e 0c3e a08a af3d 70c5 92bf
000000b0: 5543 dfbe 3710 58bf 0364 1ebe 7dfc 46bd
000000c0: fd28 b23d d832 d33d 417c 65be 8bac b53e
000000d0: af76 87bd 831b 873e 8ad0 e23e cc77 113e
000000e0: 5c4d ecbd 7a5d 563e 58c9 eb3b 5167 0bbd
000000f0: 3739 23bd 697d 2cbc 3bde 26bf 29ad abbe
00000100: 3ca0 dfbf 03b4 523e 9d0e d33c 39b8 bebe
00000110: 2d13 abbe fda7 a1be ca3b 123d 07ce f03e
00000120: 299f 853d 96a7 563e f1bc d5bd f8be 033f
00000130: 945c 7c3d 6097 16c0 c224 d0bf 1e7a c73d
00000140: 24f3 b23e d401 0e3f 7452 94bf 33cb 7e3d
00000150: 383b 40bc 9666 853e 415e c9bd 6a49 5fbe
00000160: e677 f13e 9237 853e ba63 5e3c fb5d 163f
00000170: da42 5d3d 6708 cfbe 2f51 98bf e292 43bc
00000180: b345 b23d 2449 83bf a954 b73e 45f3 53be
00000190: d823 41bf 675b 373f 8fe5 c43e 17b8 013f
000001a0: e02b 183f ccca 5c3e 74b0 c23d 0a0b 3cbd
000001b0: 4a61 e4bd cc7a 71be ece1 d4bc e5fa 833e
000001c0: 2c0b 853e 0f5d 913d b765 61bf 50a8 8e3f
000001d0: fde1 b6bc 4657 013e 7b01 9cbc 89b5 8c3e
000001e0: 4c08 213e fd81 6ebf 4a34 5cbf 1354 59bf
000001f0: f6cc 923e 9fa6 d53f 8756 33be d75e a13e
00000200: f6f3 a03e 3330 1c3e 054e 9a3e bf6c fd3e
00000210: 186f e13e 4864 72bf 6036 37bf 7df6 6e3e
00000220: 2992 0fbd 1366 6e3e 8205 a83e 2551 fe3e
00000230: 370c 143f 10d6 3d3d e2a1 053f 699c 153e
00000240: f4ca a6be 3a41 6d3e 59e7 38be 43e3 a03e
00000250: 2f3d 413e bfbd cfbd 903c c1be ee24 783d
00000260: 2835 223e cae6 623e 0d09 72bd e521 003f
00000270: 90ec 303e 6e37 493e 88d8 5b3e d824 97bf
00000280: d7b0 723d 2f50 3e3d 0cd3 e33e ea94 f3bd
00000290: be19 733f 3996 c73e 30c4 033f 2fb0 753e
000002a0: 0c5a 823e 7ed6 c1bc b8e5 4bbe 7014 833e
000002b0: 0bdf f3be 6c64 0abf b4d4 babd 6aac 4c3e
000002c0: 14c0 a83e edb1 043f 314e 6d3e 1f05 4a3e
000002d0: 07e3 8a3e 7819 1bbf 573f d63e e697 9b3f
000002e0: 0e7a 903e a46c b53d f606 07c0 9246 2e3f
000002f0: d0c1 5cbf 0cd3 443e 4ce3 063e 1bca d33e
00000300: b2cc 903e 56e9 433e 2412 1dbf 1679 693e
00000310: 2db0 0e3f 2348 5abf cd81 313e ad43 15be
00000320: 5e19 293f d76a 60bf 20c9 f33c 893e d7be
00000330: ebb6 10be 99a0 acbe 3593 4b3e 20e6 6bbe
00000340: b3fd 22be b819 a0ba 9fd5 163e ac2f 02bf
00000350: bcb6 8abf a75b 243f 7eb7 203d 5265 7bbd
00000360: b0b9 36bb 8c68 973e ff0d 8d3f 3085 73be
00000370: b4a1 913e 72e4 d83c fe7b 0dbf 494d eb3e
00000380: 9742 bf3d 5ab0 a43d daf2 b03e d66f eb3e
00000390: fe56 c0bd afbf b3bb 8050 a63e 82e4 8cbe
000003a0: 8b36 fd3d f436 30bf 7f83 963f 9e9e 873f
000003b0: 70ec f33c 1338 e3bd 1deb 71bf 5595 533e
000003c0: 7dbc 40be dfeb 3bbe 1bd8 403f d039 7c3e
000003d0: 3ae5 71bf 14c2 e2bd 9cc9 953d b2c5 883d
000003e0: b146 1d3e 6d0d 443e 94ef 733e 42ac f6ba
000003f0: e403 833f b480 42bc 6f50 a63d 8dcb a03e
-1.0221083 0.67747664 0.27016434 1.3474969 0.007443404 0.02675971 0.60392696 -0.05997327
0.34040216 -0.27471694 0.7740504 0.07791041 -0.054255735 0.1855404 -0.09623636 -0.24581595
-0.05357753 -0.7382997 0.11933615 0.040758945 0.33683398 -0.011361306 -0.8120071 0.15229088
0.03753018 0.5015158 -0.13729064 -0.92779946 0.002136769 -0.00384498 -0.15935539 0.29493827
0.18733324 0.09011867 0.14674321 0.087483026 -0.06731484 -0.73120975 -0.05344248 0.53859854
-0.2248049 0.13707915 0.085713625 -1.1466503 -0.43606058 -0.8439974 -0.15467839 -0.048580635
0.08699224 0.10312432 -0.2241068 0.35483202 -0.06614434 0.26388177 0.44299728 0.14205855
-0.11538193 0.20934096 0.007195633 -0.034034077 -0.039849486 -0.010527947 -0.65182847 -0.33530548
-1.7470775 0.20576482 0.025763804 -0.37249926 -0.33413067 -0.31573477 0.03570155 0.47032186
0.06524498 0.20962366 -0.10436428 0.5146327 0.061611727 -2.3529892 -1.6261218 0.09740089
0.34951127 0.5547154 -1.1587663 0.062205505 -0.011732869 0.2605483 -0.09832431 -0.21805349
0.47161788 0.2601896 0.013573581 0.5873715 0.054018833 -0.40436098 -1.1899775 -0.011936875
0.087047 -1.0256696 0.35806778 -0.20698269 -0.7544532 0.71623844 0.3845639 0.50671524
0.5944195 0.21561736 0.09506312 -0.045908965 -0.11151369 -0.23582 -0.025986634 0.25777355
0.25985086 0.07097828 -0.8804583 1.1145115 -0.022324556 0.12630948 -0.019043675 0.2748225
0.15725821 -0.93167096 -0.86017287 -0.8489391 0.28671998 1.6691474 -0.17513476 0.3151767
0.31436127 0.15252762 0.3013765 0.4949703 0.4403007 -0.9468427 -0.71567345 0.23336215
-0.0350515 0.23281126 0.32816702 0.49671283 0.5783114 0.046346724 0.5220014 0.14610447
-0.32576716 0.23169413 -0.18057002 0.31423387 0.18870996 -0.10143613 -0.37741518 0.060582094
0.1584059 0.22158352 -0.059090663 0.5005172 0.17277741 0.19650051 0.21469319 -1.1808119
0.05925068 0.046463188 0.44496953 -0.118936375 0.94961154 0.38981798 0.51471233 0.2399299
0.25459325 -0.023661848 -0.1991185 0.2560153 -0.47631106 -0.5405948 -0.09122601 0.19987646
0.32959044 0.51833993 0.23174359 0.19728516 0.27126333 -0.6058574 0.418452 1.2155731
0.2821812 0.08858612 -2.1097999 0.6807643 -0.86233234 0.19221133 0.13172644 0.41365132
0.2828117 0.1913198 -0.61355805 0.22800097 0.5573757 -0.8526632 0.17334671 -0.14576598
0.6605433 -0.87663025 0.02975899 -0.42039898 -0.14132278 -0.33716276 0.19880374 -0.23037004
-0.15917091 -0.0012214696 0.14729927 -0.5085399 -1.0837016 0.6420235 0.03923749 -0.061375923
-0.0027881674 0.2957195 1.1019896 -0.23781276 0.28443682 0.026476119 -0.5526732 0.459574
0.09338873 0.08041449 0.3456028 0.45983762 -0.093915924 -0.005485497 0.32483292 -0.27518088
0.12363919 -0.6883385 1.175888 1.0595281 0.029775828 -0.1109468 -0.9449938 0.20662434
-0.18821903 -0.18351696 0.7532975 0.24631429 -0.94490397 -0.11072174 0.073138446 0.066783324
0.15358998 0.19145747 0.2382186 -0.0018819647 1.0235562 -0.0118715055 0.0812081 0.31405297

l3.bias f4 [9]
00000000: 7459 293f 008b 2c3f 59fb 383f 3db9 2b3f
00000010: 915d b8be fbdb 383e c447 61be 91f4 153f
00000020: e7ed 673f
0.6615212 0.673996 0.72258526 0.67079526 -0.36008886 0.18052666 -0.22000033 0.58576304
0.90597385

l4.weight f4 [53, 9]
00000000: 0228 5a3e 4885 0a3e 3bc4 e5bc 4761 ef3e
00000010: 42b0 603c 6233 c4be 200a aebe 409e cc3e
00000020: 0fbb e43d 488f a6be 3e8e a23e fbdb 2ebf
00000030: ffad 95bf afc2 c73d 28b0 e03e e638 fa3e
00000040: 9dcb 1e3f 2269 06be 6866 88be a8a9 ed3b
00000050: 802b a63e 63b7 dabd f7f8 9bbe 752d a2be
00000060: 8291 69be b6ad fb3e 1208 37be e34b 35be
00000070: 5701 40be 54dd cabe 7e03 d63d e7bc 9bbd
00000080: 5a3b a03d be85 713f f57f 90be 062a e1be
00000090: 854c 11be 7de9 023f d17f a83e 3eb2 b83e
000000a0: 43ab bc3e b739 8f3e 485b 3dbe bfa3 ed3e
000000b0: 6614 a8be 95fe 06be a007 b53e bae3 7f3e
000000c0: 796f 17bf 6396 3dbd 5c03 19bf 71f2 8abf
000000d0: f341 fc3c a014 9d3d afd1 953e c849 e6be
000000e0: 34da d13e 442d 913e d0b7 953d 0f74 2f3f
000000f0: c77b f1bd 3548 2a3f b3a1 813e 9b68 353e
00000100: 1c9d afbe 264d 333e 791e b5be 5f75 393e
00000110: 4d4c 133f 6410 1f3f 1ecf b93e 4d04 fabc
00000120: 09bd 293e 1ff6 57bd 270a be3e a4b5 2a3f
00000130: 243f b3be 62d3 cd3c 3189 f03e 0fdf cbbe
00000140: f951 58bd 4cb8 cc3d fc8c 953e b68e a2be
00000150: a9ff e93e 2209 813e 0203 a4bd 8451 54be
00000160: f0ef 023e 9c5c 903c 87b3 26be 9d08 af3e
00000170: 4219 903e 0bb8 cabd 19d4 a9be 7da3 1abe
00000180: 8479 3ebe d5e8 c33e 4c2c bc3e c7d3 603e
00000190: 5501 173e b701 f3bc 2398 a0be a097 50bf
000001a0: c133 ce3d 063b 2f3e a725 193f 75be 1c3e
000001b0: bd35 6c3e 1130 cc3e 1015 cbbf 5d02 6ebf
000001c0: 78ab 44c0 3bfb 273f 2273 0b3e ecd3 df3c
000001d0: 8a06 d4be 5243 5a3e e73a 30bd f63c 43be
000001e0: 3bf5 e03e a01a 313e f1fd 023f e5ca 1c3f
000001f0: 6ae9 a73d 58a8 70be 1087 0dbc 50ac 9e3e
00000200: bcba 673e 5cd1 8d3e f6e1 bbbc 10d8 1a3e
00000210: b663 98be fb3c b23e f184 54be e950 963e
00000220: e0f7 c33e cd34 fb3d 3f19 33be 797a bb3e
00000230: 23e6 bbbd 0f84 bfbd a051 0abe b82c ba3e
00000240: a5f6 a6be f9c4 c5bc 66c7 9d3e c41f c23e
00000250: 977e 053e 6c1c b0be 5070 ca3e 7c30 0cbf
00000260: be45 87be 65b3 fe3e 19ad ae3e be4d 42be
00000270: 59e7 d83b 4cbe b7bf 6b9f a53e 9889 b8bd
00000280: 9bc4 f03d 0a5a d0be b607 343d 63ad b63e
00000290: d1ea b9bd fe15 153f f21e 0f3e 6d21 bf3e
000002a0: 1102 b33e 8779 b63e d29c b3be 6290 adbe
000002b0: a0bf 3c3e 7296 cc3d 53db 9b3e 4da4 dd3e
000002c0: 19ad 5c3d 3099 8b3d fe5e 7d3d 37b7 d7bd
000002d0: f23e 3fbf 3b39 6a3b ef43 ab3e 230b 0b3e
000002e0: b1d9 7c3e 0b37 0ebe 7745 e5bd 2360 ed3c
000002f0: 1e09 f0bc 275d 3f3e 3016 4b3e ac73 a43e
00000300: fa82 b3be 6733 9a3e c154 653c b92e 1f3e
00000310: fdba abbe 245e 373e c14c 923d 7e30 463d
00000320: 7a5b eb3d 897c b33e 517c 2abc c892 0dbe
00000330: bff4 f7be 9183 c93e 4c4f 87bc 01a9 a2be
00000340: ed8e fa3e 9b72 c2bd d409 8d3e ed90 14be
00000350: 018b c9bd 5e1a e63d 17b0 a83e d31c 96bd
00000360: 7413 cebe 1030 05be ed16 f13e e096 78be
00000370: fdda 8a3d 0010 ae3e 715e 743e 401e fb3e
00000380: 1b93 9e3e 5154 3a3e 8d72 1d3f ebab 18be
00000390: 0f08 223d 72e6 34be f58b fabd fe0f 90be
000003a0: 818a 043e ecf6 df3e f277 96bc b189 6d3d
000003b0: ba5c 983e de8b 4cbe c8f3 e7be 11e5 85be
000003c0: d333 203e 669a 78bd 0c1b c23e aada 463e
000003d0: c4e1 e7bd 2f62 f3be 6298 fe3d 5008 173f
000003e0: 32ce 213e 11ab cbbe f00a dcbd 50f3 f33e
000003f0: 5d3d 003e f9cb 343e 177a 0bbe eabc 37bf
0.21304324 0.13527405 -0.028047672 0.46753904 0.013713898 -0.38320452 -0.339921 0.39964485
0.11168491 -0.3253119 0.31749147 -0.68304414 -1.1693724 0.0975393 0.43884397 0.48871535
0.6202944 -0.13126042 -0.2664063 0.0072528906 0.32455063 -0.106795095 -0.30463383 -0.31675306
-0.22809413 0.49155968 -0.17874172 -0.1770473 -0.18750511 -0.39621985 0.10449885 -0.0760439
0.078238204 0.943447 -0.28222623 -0.43977374 -0.14189346 0.51137525 0.32910016 0.36073488
0.36849412 0.2797372 -0.18491852 0.4641399 -0.32828063 -0.13183053 0.3535738 0.24989215
-0.5915447 -0.046285998 -0.5977075 -1.0855237 0.030793166 0.076699495 0.29261538 -0.44978166
0.40986788 0.28354847 0.0731045 0.68536466 -0.11791187 0.6651643 0.2531868 0.17715685
-0.34299552 0.17509899 -0.3537481 0.1811118 0.575383 0.62134385 0.3629083 -0.030519629
0.16576017 -0.052724954 0.3711712 0.6668341 -0.3500911 0.02512521 0.4697967 -0.39818618
-0.05281255 0.09996089 0.29209125 -0.31749505 0.45702866 0.2520228 -0.08008386 -0.2073422
0.12786841 0.017622285 -0.16279422 0.3418626 0.2814427 -0.09898385 -0.3316963 -0.15101428
-0.18601042 0.38263574 0.36752546 0.21955787 0.14746602 -0.029663904 -0.3136607 -0.8148136
0.10068465 0.1711236 0.5982308 0.15307029 0.23067375 0.39880422 -1.5865803 -0.92972356
-3.0729656 0.6561772 0.13618138 0.027322732 -0.4141124 0.21314743 -0.043024924 -0.19066224
0.43937096 0.17295313 0.51168734 0.6124709 0.08198817 -0.23501718 -0.008638158 0.3099084
0.22629827 0.2769879 -0.022934895 0.15121484 -0.29763573 0.3481215 -0.20753838 0.29358605
0.3827505 0.1226593 -0.174901 0.36616877 -0.091747545 -0.0935136 -0.135077 0.36362243
-0.3261005 -0.024141775 0.3081619 0.3791486 0.13036571 -0.34396684 0.39538813 -0.5476148
-0.26420397 0.49746242 0.34116438 -0.18974969 0.0066193757 -1.4354949 0.3234819 -0.09010619
0.117562495 -0.40693694 0.043952666 0.3567916 -0.09077991 0.5823668 0.13976648 0.3733019
0.34962514 0.35639593 -0.35080582 -0.33899218 0.18432474 0.09989633 0.3044077 0.43289414
0.053876016 0.068163276 0.06185817 -0.10532992 -0.7470542 0.0035739678 0.33450267 0.13578467
0.24692418 -0.13888185 -0.1119489 0.028976506 -0.029301222 0.18687879 0.19832683 0.321195
-0.35060865 0.30117342 0.013997258 0.15545167 -0.33541098 0.17907006 0.07143546 0.04838609
0.11492057 0.3505595 -0.010405616 -0.13825524 -0.48428914 0.3935819 -0.016517304 -0.31769565
0.4893717 -0.094945155 0.2754656 -0.1450841 -0.09840966 0.11235498 0.32946846 -0.073297165
-0.40249217 -0.13006616 0.47087803 -0.24276304 0.0678005 0.33996582 0.23864152 0.49046516
0.30971608 0.18196227 0.61502916 -0.14909332 0.039558467 -0.17666033 -0.12233726 -0.281372
0.1294346 0.43743074 -0.018367741 0.05799264 0.29758245 -0.1997523 -0.45303178 -0.26151326
0.1564477 -0.06069412 0.3791126 0.19419351 -0.11322358 -0.47535846 0.124314085 0.5899706
0.15801314 -0.3977895 -0.10744274 0.4764657 0.12523408 0.17655934 -0.13620792 -0.71772635

l4.bias f4 [53]
00000000: b2b1 8c3f ce14 dd3e c377 7e3f ba1a f3bd
00000010: 5e4c 023f c67e e8bd cc7e c2bd 833c 783e
00000020: 3280 1e3f 4d87 383e 14aa ae3f 963f aa3f
00000030: 8c46 b23e 10e3 5a3b 308c 8a3f fe1b b33f
00000040: 88cb 383f 4bc5 903f 404d 193f 9d2e 1d3f
00000050: 5c1a 8f3f 1375 b53f 0ca9 6d3f 58ef 533f
00000060: 230a a9bf 8315 c83f c1d2 ad3f 5e7b a13f
00000070: 8212 853e 5358 7abd b33b fd3e 432c ff3e
00000080: b60b 893f 20fa da3d 7d8b 90be 8eb5 0e3f
00000090: f159 9e3f 4723 843f 04e2 723f 4c19 743f
000000a0: c10f 753f fc18 343f 32c0 b83f c1d4 c73f
000000b0: 8a17 403f 7887 fe3f b25b 4a3f 8c0d 453e
000000c0: 16a2 813e ec24 bd3f e4af 503e 262a 833f
000000d0: bc92 b03f
1.0991728 0.43179935 0.9940149 -0.11870332 0.5089778 -0.11352305 -0.09496841 0.24241833
0.6191436 0.18020363 1.3645654 1.3300655 0.34819448 0.00333995 1.0824032 1.3992918
0.72185564 1.1310209 0.598835 0.6139925 1.1179919 1.4176353 0.9283607 0.82787085
-1.3206218 1.5631565 1.3579942 1.2615774 0.25990683 -0.06111939 0.4945961 0.49838457
1.0706699 0.10692239 -0.2823142 0.5574578 1.2371198 1.0323266 0.9487612 0.953511
0.95727164 0.70350623 1.4433653 1.5611802 0.7503592 1.9885092 0.79046166 0.19243449
0.25318974 1.4776893 0.20379597 1.0247238 1.379478

l5.weight f4 [85, 53]
00000000: 4934 3cc0 d716 dfbe 20d4 1cbf 4c92 023f
00000010: 284e 6ebe aad2 45be 99d2 2f3d 3352 253f
00000020: 6f68 b9bd b584 4abf 08f5 4a3d c7f5 a1be
00000030: 37bd ccbf 605c c7bb fbcd 7cbe 1cb0 0dbf
00000040: 2fb9 b03d 906e 64be 8f74 6fbe 8117 86bb
00000050: e378 da3d f260 1e3d 6136 a5bf dcc8 1bbe
00000060: 0bef f43e ac2c 64bf d663 47bd d0bb 153f
00000070: ec9c f63e 7de2 193d 2fe7 fe3d 83ce a13d
00000080: 02b7 0ebf 4bd2 3e3e 8325 6c3e dbbc 983e
00000090: 0f67 a93e 414e 04c0 7ea6 383d f966 c43e
000000a0: f9dc 97bf 4109 833e f465 91be b836 cf3d
000000b0: 63c5 8a3f 85d0 9fbe 8219 53bf 6168 7f3e
000000c0: cb5e 533e 8e95 04bd 803e f03e ed9e b43e
000000d0: 32f6 c33e 8918 8c3e 6a07 4cbd 81f5 dc3a
000000e0: a176 893e 765c e43d 4eec 863d 8368 1d3e
000000f0: 629e 6fbd fa5c ba3d 14b6 193e bd86 3d3e
00000100: 07ea fe3d 1736 2fbd 3768 75be 6ecd 343e
00000110: 0486 4a3e 3786 583e 7291 823d 8df2 84be
00000120: a924 9b3d 5037 853e ae6d 323e 8545 663e
00000130: 3ab9 753d df8e 393e 2633 a83e d56a 463e
00000140: d39e 0cbe bb3c 3bbe d522 d1bc c061 e0bd
00000150: c534 a7bd a938 b93d 153f 7a3e 3703 95be
00000160: 5500 0abe ab2d 1ebe 5760 3c3e ec5d 863b
00000170: 37a0 8bbe 6cf0 8fbe 3eed 7d3d 5e10 533e
00000180: 88fa a03e 27b7 433e 80ca 903e 1715 c8bd
00000190: 04b9 87be 32e2 3d3d 56a9 043f e9aa 8ebc
000001a0: e616 083f a42f a03e 2cd7 423e 9e31 cabc
000001b0: 69b6 0a3e cc63 123f f0d6 3dbe 0b68 623e
000001c0: d638 8b3e 6729 5a3e 6f7d e83d dfcd aabd
000001d0: fd8d 9b3e 34e2 1d3e a8c3 89be d12b 0fbe
000001e0: 8c6f 143e 55e4 843e a881 2e3e cb38 443d
000001f0: bd08 e2be 01fb c9bd f63a 91bc 5ebf c93d
00000200: 4198 d13d fd9d 8ebd a6c5 8a3e 52c5 343e
00000210: ed1f b53e a79a dfbc 7240 f43c 5726 2abe
00000220: acda 34be 8f13 cf3d dd21 e6bc f130 5c3f
00000230: 4129 54bd 4a90 11bd fa5e 5e3d 170d 0a3e
00000240: 9a49 8c3d 2545 7abe 6a5f acbd 416c 0e3e
00000250: cb22 c83e 5d54 e43e 71c1 79bd 8f01 9f3e
00000260: 000a a73c 6132 67bd 3b66 b63d 295c ff3e
00000270: 928a 733e 23c5 9a3e 941c a63e 8284 733e
00000280: 3275 bbbd f7c7 7fbb f955 5d3d 2302 2f3e
00000290: d9ea 003d 8c3f 2cbe 64b2 53be edaf 453e
000002a0: 721e 893e dd08 d43e b1fc ef3b 83a1 ccbe
000002b0: cdef 1b3c 1e5a b23e f1c3 673e ad20 7e3d
000002c0: e72e dfbd 3484 a9bb c28e 963d 59bd 623e
000002d0: 644e 433e c33a 633e c45e b43e 8724 a2be
000002e0: 24bb fe3e 4330 363e a4da 60be 0767 183e
000002f0: 4c4a bb3d 1e1d 2fbe 9dd3 d73c 2e14 9e3e
00000300: 2c1f 06bf 8d36 58bf 8c08 57be 74e1 213d
00000310: fac2 2c3e a3a6 d23e 548d 6abe 3960 b3be
00000320: 294e a73c 18f9 0d3e 6f23 ce3e 8c72 353e
00000330: ecdc 493e d8da 31bd 9bb0 cabe a3a5 8dbe
00000340: c698 7e3e 6533 413d 2ea6 9b3e 0c3a 60ba
00000350: c1fa d23d 63b8 373f fcea 633e 1ee8 bcbe
00000360: dcba 993d 9da4 173e 2bd0 4d3f a342 1c3f
00000370: cbb7 133f ed13 18bd 8dfd 223b a59d 693e
00000380: 6fe3 863e e21f 413e bfd9 2d3e f64d 293e
00000390: 3c81 8f3d aef4 28bd 9359 223e 0bbc 973d
000003a0: 6239 a83e 6c2f c23d 75c6 133e 9138 7c3b
000003b0: 55fc 073e ee17 8a3c af22 5d3e 6057 c3bd
000003c0: 5031 f8bd 3c53 233d 293a c2be a14e ba3e
000003d0: 0973 d4bd 1062 153f 0656 733f 8db1 f3bd
000003e0: cda1 37be 64d2 543b f406 5dbf e5ef fe3c
000003f0: 2934 b03e 2f5d e33e 0a1a 8abd a3ae 1e3f
-2.9406912 -0.43572113 -0.6126118 0.5100448 -0.23272002 -0.19318643 0.04292545 0.6457855
-0.09053122 -0.79108745 0.049550086 -0.31632826 -1.5995244 -0.00608401 -0.2468795 -0.55346847
0.08629071 -0.22307801 -0.23384307 -0.0040921574 0.106675886 0.038666673 -1.290722 -0.1521334
0.47838625 -0.89130664 -0.048679195 0.58489704 0.48166597 0.03756951 0.124464385 0.07900717
-0.55748 0.18634908 0.23061185 0.29831585 0.3308644 -2.0672762 0.045080654 0.38359812
-1.186431 0.25592998 -0.28398097 0.10117859 1.0841488 -0.31213775 -0.82460797 0.24942161
0.2064163 -0.03236919 0.46922684 0.352775 0.3827377 0.2736247 -0.049811758 0.0016857834
0.2684832 0.11150448 0.0658804 0.153719 -0.058500655 0.09099765 0.15010864 0.1850843
0.12446981 -0.042776193 -0.23965536 0.1765649 0.19777685 0.21144949 0.06375398 -0.25966302
0.07575352 0.26018763 0.17424652 0.22487457 0.0599911 0.18120907 0.32851523 0.1937669
-0.13732462 -0.18284886 -0.025529305 -0.10956144 -0.08164362 0.0904401 0.24438126 -0.29104015
-0.13476689 -0.15447108 0.18396126 0.004100552 -0.27270672 -0.28113115 0.06199383 0.20611712
0.3144114 0.19112836 0.28279495 -0.097696476 -0.26508343 0.046358295 0.51820886 -0.01741548
0.5315994 0.31286347 0.19027394 -0.024681862 0.13546146 0.5718353 -0.18539023 0.22110002
0.271918 0.21304856 0.113520496 -0.08340048 0.30381766 0.15418321 -0.26907086 -0.13981558
0.14495677 0.25955454 0.17041647 0.047905724 -0.44147292 -0.09862328 -0.01772831 0.098509535
0.10234118 -0.069637276 0.2710392 0.17653397 0.3537592 -0.027295424 0.029815886 -0.16616188
-0.17661542 0.101111524 -0.02809232 0.8601218 -0.051797155 -0.035537995 0.054289795 0.13481556
0.06849976 -0.24440439 -0.08416636 0.13908483 0.39089045 0.44595614 -0.060975496 0.31055877
0.02039051 -0.05644453 0.08906218 0.49875 0.23783329 0.30228528 0.32443678 0.23781016
-0.091532126 -0.00390291 0.054037068 0.17090659 0.03147397 -0.16821116 -0.2067352 0.19305392
0.2678104 0.41413012 0.0073238243 -0.39966974 0.009517622 0.3483438 0.2263334 0.06204288
-0.10897618 -0.0051732305 0.07351448 0.22142543 0.19072872 0.22190385 0.3522855 -0.31668493
0.49752152 0.17791848 -0.21958405 0.14883052 0.091450304 -0.17100951 0.026346022 0.3087477
-0.52391315 -0.8445824 -0.20999354 0.03952165 0.16871253 0.4114276 -0.22905475 -0.3503435
0.020423012 0.13864553 0.4026141 0.17719477 0.19713181 -0.043421596 -0.39587864 -0.27665433
0.24862966 0.047168154 0.30400223 -0.00085535715 0.10301734 0.71765727 0.22257608 -0.3689584
0.07506344 0.14808889 0.80395764 0.6103918 0.5770232 -0.037128378 0.0024870366 0.22814043
0.26345393 0.18859819 0.16977595 0.16533646 0.070070714 -0.04124897 0.15854482 0.07408913
0.3285628 0.09481701 0.14431174 0.0038485865 0.13279851 0.016857114 0.21595262 -0.0953815
-0.121187806 0.0398743 -0.37934998 0.36388114 -0.10373504 0.58352757 0.95053136 -0.118990995
-0.17932816 0.0032474035 -0.86338735 0.03112025 0.34414795 0.4440703 -0.06743248 0.61985224

l5.bias f4 [85]
00000000: c7d1 a8bc c70c b33f 4063 b13f 3d17 c13f
00000010: e131 353f 74b9 b83e a2b9 573e 17f2 153f
00000020: 7c8b 59bd 82f8 e9be a2d0 cd3f d7ab 5d3f
00000030: 47a9 0c3f ac83 7d3f 329f 2b3f 1bd8 fe3d
00000040: b8b3 213f 51a8 be3f 3c4f af3f 9f46 f43e
00000050: c4aa a13f cb7c 0cbe 169f b03f cb5f a13f
00000060: 4600 d93f f216 0ebe babb 8abd a7eb 473c
00000070: cc0f ea3e 9a12 bc3e 4282 d93d db55 3f3e
00000080: 6f8e 983f 9204 903f 34ea 0ebe eb1b 463d
00000090: d134 a9bd c8f5 de3f 496b 123f 3f36 933f
000000a0: da9b 9f3f 63ce 8a3e 4113 a7bc e86c a93f
000000b0: be1b 993c ab0e c83f e5e8 8ebe 1cbf 743f
000000c0: 1feb 1b3f 0737 11bd 7d40 d73f fba8 813f
000000d0: 05d2 813f cb88 e4bb ee03 3cbe 06e4 bb3f
000000e0: 8cac dc3f 76fc aa3e de2a a13f b958 c13e
000000f0: 59b7 f23e f41b 773d c0c4 d43f 4111 08be
00000100: 2378 563f 6abf 983f d739 503f 55fa bd3d
00000110: 8484 98bd c060 b3be e250 f73e 9017 9fbe
00000120: cada 04bd af95 d23d a13d ae3f dcb1 c13e
00000130: 69f4 b83f c813 b13f ce8c 46bd 57dc b23f
00000140: daac d7bd ac8a b93d c400 0c3f 54c0 833f
00000150: f1e3 8d3f
-0.020607842 1.3988274 1.3858414 1.5085217 0.70779234 0.3607899 0.21066907 0.58572525
-0.05311154 -0.4569741 1.6079295 0.8659033 0.54945797 0.9902904 0.6703979 0.124435626
0.63164854 1.4895116 1.3696055 0.4771013 1.2630239 -0.1371948 1.3798549 1.2607359
1.6953208 -0.1387594 -0.06774087 0.01220218 0.45715177 0.36732942 0.10620548 0.18685095
1.1918467 1.1251395 -0.13956529 0.04836647 -0.08262027 1.7418756 0.57194954 1.150093
1.2469437 0.27110586 -0.020394923 1.323636 0.018689986 1.5629476 -0.2791206 0.9560411
0.6090564 -0.03545287 1.6816555 1.0129694 1.0142218 -0.006974315 -0.18360874 1.4678962
1.7240157 0.33395737 1.2591207 0.37763003 0.47405508 0.060329393 1.6622543 -0.13287832
0.83777064 1.1933415 0.81338257 0.09276263 -0.0744715 -0.35034752 0.48303896 -0.31072664
-0.032435216 0.10282456 1.3612558 0.37831008 1.4449588 1.3834162 -0.048474126 1.3973492
-0.10531016 0.09059653 0.5468867 1.0293069 1.1085187

l6.weight f4 [3, 85]
00000000: 8b04 e53e 74d5 8cbe 9d3d a0be 549b 44be
00000010: 3b4f b3be 9aaa c53e 053c 9cbd 3ece 153f
00000020: 3f4e c4bd ee98 393f 2cd1 7cbd d0af 1ebd
00000030: bb97 b13e a7f2 d2bd f54f 1bbf 19ca 843e
00000040: c5ed 7bbe da42 8dbe b502 bbbe 2032 2cbf
00000050: 6eff cfbe c53c a63d 687a 9dbe b738 b6bd
00000060: 8c1e a3be 6781 073f 2a2d 8b3d efba 083d
00000070: 0662 8fbf 0437 f83d c8b4 193f d042 803d
00000080: 492f a2bd 39b8 90bd fe38 a23b 6472 e93e
00000090: 5ecc 2abd b0bb 49be 77b9 d5bc 74df 11bf
000000a0: 21f5 97be 33c2 5bbf d1f1 883c a43d e9bd
000000b0: a6cd f1bd 377c b1be dd2c 08bd 475d 7cbe
000000c0: 2021 153e 8130 c53d e328 76be 804f 9bbe
000000d0: 7e16 8d3d 6498 8f3d 34b9 17bd 8b05 9abe
000000e0: de23 88be 0663 a03e 328c dfbe cacd 2d3e
000000f0: 8a06 3d3f 90b8 7a3c 3ce8 e4bd 6c80 75bd
00000100: dda9 45bd ef9a 02bd fc64 35be 99b6 253c
00000110: ea9b 513d a620 e73e 45e7 37bf 1389 3cbe
00000120: 4c66 e93c 59b4 d33d ccca 54be 7f38 8d3f
00000130: d623 2dbe 9bbf 1cbe a1d1 753d 6487 e6bd
00000140: 684f f4bc 9254 273d ad40 50be 8c7c a3bd
00000150: 9448 70bd 9092 643f 3972 7dbe fbc4 14be
00000160: c810 bebe 9315 cf3d 7933 1b3f 8993 513e
00000170: 113d 24be 1dba 413f acb0 1e3f 8b86 86be
00000180: 4615 6fbe ae5f 27bf f045 b6bd 9a23 123f
00000190: df64 583f 3e08 d43d 8b19 a7be 4822 0dbe
000001a0: 01e9 ab3e 0d02 a7bd 16d4 183c b88e 9cbe
000001b0: 7785 6abe 0e82 b0be 1c6d c73e 61af ee3c
000001c0: 0bd7 eb3c 9193 9e3e 7ee1 92be ae5e e23e
000001d0: c6ea 7c3d 5899 c9be cae6 23be 303b 823d
000001e0: 3b38 89be 1697 17bd 3b16 53be 664c 4bbd
000001f0: f5c5 fd3c 479a 87bd c810 3f3e 3203 073d
00000200: 3c75 d0bd 7c32 2c3f c938 31be 696b a03c
00000210: 0c2d 39bc b40b c8be 9008 d43c 25f3 c4be
00000220: 289f 34bd 0429 cfbe aecb 3d3c a118 5c3d
00000230: 8892 b7be 276c 9fbe f8ef 41be 94d6 a2bd
00000240: 89f9 8ebe 0caf ee3d ed81 ce3c 1c02 01be
00000250: 6ac6 81bd 3835 9dbd d369 febe 98d3 743d
00000260: 63b5 cebb 22f8 9b3d 5490 7e3f f529 6b3e
00000270: 19dc bc3e 6bbd 9a3d 9887 96bd 1fa2 cebe
00000280: 4ecf d13d 89e0 38be 5250 dcbe d4a6 183d
00000290: 32e6 7abe 8c56 593c bc6b 75bd 40e3 323e
000002a0: 0cc2 d2be 366a f8be 31f0 a43e d1f8 c5bd
000002b0: 1f32 89bc 9147 58be 4442 a2be 2e79 593f
000002c0: 0699 08bf 6765 2d3f a93a 703e c650 7cbf
000002d0: f036 cbbe 89da a2be e5c3 1a3b 6a77 71be
000002e0: 6656 03bf a6c3 8f3e d45b eabe 7b12 95bd
000002f0: 1d3a 9fbe 22ac 233f ca51 80bd ba8f f33d
00000300: f089 a7bc 89d4 8fbe 99f2 0abe fb76 c6be
00000310: 6ff5 0a3b 5afc 133d 25df 293f 5e10 393c
00000320: f170 d5be 0a3a dbbe 6691 9cbd cd9d 93be
00000330: 5bc1 443d e789 3e3f 8d74 4c3d 05df 57be
00000340: 730a b9be 0815 aebd 833b 82be a46d 433f
00000350: 52be 65bd 1898 1abd 8ed9 133e ee01 efbd
00000360: d255 ad3d ec3e adbe ecf5 bbbe deb5 d9bd
00000370: bb83 e6bd 7058 a5be b26b 91be 7931 b93c
00000380: 46ac c63a b29b bc3c f378 41be ab5d 8b3f
00000390: 7860 3cbe 4e36 a7be bfc5 0fbf 0204 0ebd
000003a0: 3c58 a8bd 2d36 14bd b758 ebbd 8469 e8bd
000003b0: 8c25 c9be 7e7a 003d 3e24 2bbc 8acb 833f
000003c0: 4bc6 093f df0b b2be 5e85 b5bd e502 4a3d
000003d0: f53d 653c 4cea 003c 7cd1 69be 72b2 22be
000003e0: fbd1 a03b 6e5b 95be c9d4 9c3d f75d a73d
000003f0: 497d f6be 584e 1c3e 43b6 adbd
0.4473003 -0.27506602 -0.31297007 -0.19199878 -0.35021386 0.3860672 -0.07628635 0.58517826
-0.09585237 0.7249898 -0.06172292 -0.038741887 0.34686074 -0.103001885 -0.6066888 0.25935438
-0.2460242 -0.27590066 -0.36525503 -0.67263985 -0.40624565 0.081170596 -0.3075745 -0.08897536
-0.31859243 0.5293183 0.06795724 0.0333814 -1.1201789 0.121198684 0.60041475 0.062627435
-0.07919175 -0.07066388 0.0049506417 0.45595086 -0.041698806 -0.19700503 -0.026089413 -0.5698159
-0.29679206 -0.858432 0.01671687 -0.1138871 -0.118068025 -0.3466508 -0.03324591 -0.24644957
0.14563417 0.09628392 -0.24039035 -0.3033409 0.06889056 0.07011488 -0.037041858 -0.30082354
-0.26589864 0.3132555 -0.43661648 0.16973034 0.738381 0.015302792 -0.11177108 -0.059936926
-0.048257697 -0.031886037 -0.17714304 0.010114335 0.05117408 0.45142096 -0.71837264 -0.18411665
0.028491162 0.10337133 -0.20780486 1.1032866 -0.16908202 -0.15307467 0.06001437 -0.112562925
-0.02982302 0.040852137 -0.20337172 -0.0798274 -0.058662966 0.89286137 -0.24750604 -0.14528267
-0.37122178 0.10111537 0.60625416 0.20466436 -0.1603892 0.7567461 0.6198833 -0.26274523
-0.23347959 -0.6538037 -0.08900058 0.57085574 0.8452892 0.103531346 -0.32636675 -0.13782609
0.33576205 -0.08154688 0.009327909 -0.30577636 -0.22902475 -0.34474224 0.3895043 0.029136362
0.028789064 0.3097196 -0.28687662 0.4421286 0.061747335 -0.39374804 -0.16006008 0.06358945
-0.26800713 -0.03700932 -0.20613949 -0.049633406 0.030978182 -0.06621223 0.18658745 0.03296203
-0.10178611 0.67264533 -0.17306818 0.019582467 -0.011302244 -0.3907143 0.02588299 -0.38466755
-0.044097096 -0.4046098 0.011584206 0.053734425 -0.35853982 -0.311372 -0.18939197 -0.07951084
-0.27924755 0.11654481 0.025208438 -0.12598461 -0.063366726 -0.07676166 -0.49690112 0.059772104
-0.006308244 0.07615687 0.9943898 0.22965224 0.3688667 0.0755566 -0.07350081 -0.40358064
0.10244618 -0.18054403 -0.4303003 0.037268475 -0.24501875 0.013265263 -0.059917197 0.17469501
-0.4116367 -0.48518533 0.32214502 -0.096665986 -0.016747532 -0.2112105 -0.31691182 0.8495053
-0.53358495 0.6773285 0.23459877 -0.9856075 -0.3969035 -0.31807354 0.0023615297 -0.23580709
-0.5130371 0.28078955 -0.45773184 -0.072789155 -0.31099024 0.6393453 -0.062656 0.11892648
-0.020451516 -0.2809184 -0.13569106 -0.3876265 0.0021203419 0.036129333 0.66356117 0.011295406
-0.4168773 -0.42817718 -0.0764492 -0.2883133 0.04803596 0.7442917 0.04991584 -0.21081169
-0.36140785 -0.08500105 -0.2543603 0.76339173 -0.056089707 -0.037742704 0.1443846 -0.1167029
0.084636346 -0.33837068 -0.3671106 -0.106303915 -0.11255594 -0.32294035 -0.28402478 0.022606598
0.0015157543 0.02302346 -0.18893795 1.088796 -0.18396175 -0.3265862 -0.5616111 -0.03467179
-0.08219954 -0.03618448 -0.114915304 -0.113482505 -0.39286458 0.031366818 -0.0104456525 1.029649
0.53818196 -0.34774682 -0.088633284 0.049319167 0.0139918225 0.007868361 -0.22833818 -0.15888384
0.004907844 -0.29171318 0.07657773 0.08172219 -0.4814246 0.15264261 -0.08482029

l6.bias f4 [3]
00000000: 3e3e 68bf d98a 73bf d50c 16bf
-0.90719974 -0.9513374 -0.5861333
