models/model_PGNN_noised.pt (torch, 127233 bytes, 12 tensors)

l1.weight f4 [189, 9]
0	0xbbd4272b	-0.0064743957
1	0xbf1b0869	-0.6055971
2	0x3fde3342	1.7359393
3	0x3e15ef58	0.14642084
4	0xc09aa2a9	-4.832356
5	0x3f15b498	0.5847869
6	0xbf99e6da	-1.2023575
7	0x3f0e1e3c	0.55514884
8	0xbee54163	-0.4477645
9	0xbc36942d	-0.011143726
10	0x3fd46b77	1.6595296
11	0xbfd3b0bc	-1.653831
12	0xbf3ceee5	-0.73802024
13	0xbfdc8f63	-1.7231258
14	0xc0341c94	-2.8142443
15	0x3e33fb70	0.17576385
16	0xbf4b42c6	-0.79398763
17	0x3db93238	0.090427816
18	0x3ba9341c	0.0051636826
19	0xbed74624	-0.420457
20	0x3f3fa733	0.748645
21	0xbe80ce71	-0.25157502
22	0xbfb8cf66	-1.4438293
23	0x3f0321e6	0.512236
24	0x3f6e55d7	0.9309973
25	0xc06f60f5	-3.7402928
26	0xbfbd59ea	-1.4793065
27	0xbb44506e	-0.0029955166
28	0x3eb6d05c	0.3570584
29	0x4022cf02	2.5438848
30	0xbf8fd434	-1.1236634
31	0xbf13a1b9	-0.57668644
32	0xbf510d9e	-0.81661403
33	0xbef5483d	-0.47906676
34	0xbf8c1f1e	-1.0946996
35	0xbfb12bfa	-1.3841546
36	0xbb4e0d0a	-0.0031440877
37	0xbf03f7d7	-0.5155005
38	0xc00e46db	-2.2230747
39	0xbd47f9a2	-0.048822053
40	0x3db4703d	0.0881047
41	0xbf3617c5	-0.7113002
42	0xbfb5ce60	-1.4203606
43	0xc00fc767	-2.2465456
44	0xbf0fbe82	-0.56150067
45	0x3ba31262	0.0049765566
46	0xc038309c	-2.877967
47	0x3ef69225	0.48158374
48	0xbe8b26af	-0.2717795
49	0xbffcbb48	-1.9744654
50	0xc03cc1f0	-2.949337
51	0x3ee4cf49	0.44689396
52	0x3f913044	1.1342854
53	0xbf01fb31	-0.5077391
54	0xbb1b7af9	-0.002372442
55	0xbfebcaf5	-1.8421313
56	0xbf955d47	-1.1669091
57	0xbdca3e1a	-0.09875126
58	0xbfb3c57e	-1.4044645
59	0x3f71ca9d	0.9444979
60	0xbefd558c	-0.4947933
61	0xc031a885	-2.7759106
62	0x3f175107	0.5910801
63	0xba670c1e	-0.0008813756
64	0xc00f4813	-2.238774
65	0xbf935ae5	-1.1512114
66	0xbd943500	-0.072366714
67	0xbfb98ed3	-1.4496711
68	0xc01c80f1	-2.44537
69	0xbeb0f51e	-0.3456201
70	0x3ede177c	0.43377292
71	0xbef83dbc	-0.484846
72	0x3bcaf8f1	0.006194227
73	0xbf8a69d9	-1.0813552
74	0xc00089f9	-2.0084212
75	0xbea78303	-0.32717142
76	0xbfc167d8	-1.5109816
77	0xbfef27b1	-1.8683988
78	0x3f9d4b40	1.228859
79	0x3fa9073d	1.3205334
80	0xbec999d8	-0.39375186
81	0xbb089237	-0.0020839104
82	0xbebdb3c9	-0.37051228
83	0x40050530	2.0784416
84	0xbf4ce143	-0.8003122
85	0x3ffde303	1.9834903
86	0x3defb4fb	0.11704441
87	0x3e499463	0.19685511
88	0x3fac3412	1.3453391
89	0xbfc2e995	-1.5227534
90	0x3b777538	0.0037759077
91	0xc0048e21	-2.0711749
92	0x3f960a6c	1.172193
93	0x3e551694	0.20809394
94	0xbfbca9a1	-1.4739267
95	0xbfcf4262	-1.6192133
96	0xbe991b3a	-0.29903585
97	0xc0562845	-3.3462079
98	0xbf9e1935	-1.2351443
99	0xbb624276	-0.0034524477
100	0xbeb6f85d	-0.3573636
101	0xc02affd4	-2.6718645
102	0xbd6b4b9e	-0.05744516
103	0xbf3f8c22	-0.748232
104	0xbfcb3738	-1.5876226
105	0xbfae6bce	-1.3626649
106	0xbea87c98	-0.32907557
107	0xbf6b001f	-0.9179706
108	0xbb57c453	-0.0032923415
109	0xbf1277db	-0.57214135
110	0xbfbfe9dc	-1.4993243
111	0x3cddd73c	0.02708017
112	0xbee50daa	-0.44736987
113	0xbef09a5d	-0.4699277
114	0xbfa89c48	-1.3172693
115	0xc04d40bb	-3.2070758
116	0xbe80731d	-0.25087824
117	0x3b323cc4	0.0027196864
118	0xbea7b6f8	-0.32756782
119	0xbf9678e5	-1.1755644
120	0xbe11a350	-0.14222455
121	0x3f5a4964	0.85268235
122	0xc05799d6	-3.3687644
123	0x3e3c035e	0.1836066
124	0xbfdec85e	-1.7404897
125	0x3e434db2	0.19072607
126	0x3c3cbad7	0.011519155
127	0x3ed8fbf5	0.42379728
128	0xbf7ed908	-0.99549913
129	0xbe6a9a95	-0.22910531
130	0x3ecdc985	0.4019281
131	0xc07c4374	-3.941617
132	0xbe247b6a	-0.16062704
133	0xbfcb6acb	-1.5891966
134	0x3e86b816	0.2631232
135	0xbbfc8d64	-0.0077072848
136	0xbe5520ce	-0.20813295
137	0x3cd05ecd	0.02543583
138	0xbe0943be	-0.13404748
139	0xbfb798bd	-1.4343487
140	0x3d697396	0.056994997
141	0xc04f2247	-3.2364671
142	0xc0135bf3	-2.3024871
143	0xbf5b8c04	-0.8576052
144	0xbbca15f0	-0.006167166
145	0xbfec6ae5	-1.8470122
146	0xc015e2fb	-2.3419788
147	0x3c28c1a1	0.010300071
148	0x3f88b725	1.0680891
149	0xbfa97f1f	-1.3241919
150	0xbf9e98af	-1.2390345
151	0xbfae04d5	-1.3595225
152	0xbd81c379	-0.063361116
153	0x3a4fc52d	0.0007925805
154	0xbfa8ada9	-1.3177997
155	0xbfc5219d	-1.5400883
156	0xbd688533	-0.056767654
157	0xbea864ef	-0.32889506
158	0xbf9342fc	-1.1504817
159	0x3eb3d09e	0.351201
160	0xc03128f5	-2.7681248
161	0x3ea76efc	0.32701862
162	0xb9b17b81	-0.00033852088
163	0x3e050fae	0.12994263
164	0xbff632de	-1.9234273
165	0xbd5be35a	-0.053683616
166	0xbf8976a7	-1.0739335
167	0xc0280a13	-2.625615
168	0xbf391489	-0.7229696
169	0xbed00fa1	-0.40636924
170	0xbe4a2f83	-0.19744687
171	0xba8bf389	-0.0010677438
172	0xbe62392d	-0.22092123
173	0xbeb73619	-0.3578346
174	0xbe70f35b	-0.23530333
175	0xc00d6a6b	-2.2096202
176	0x40204125	2.503976
177	0xbe2f60df	-0.17126797
178	0xc0351645	-2.8294842
179	0x3dc517af	0.09623658
180	0x3b1ba516	0.0023749522
181	0x3b61f5c5	0.0034478765
182	0xbf8a3672	-1.0797865
183	0x3f5f789b	0.87293404
184	0x3f69fb31	0.9139891
185	0xc094f45f	-4.6548305
186	0x3e06a940	0.13150501
187	0xbf9b8ed8	-1.2152967
188	0x3eaffdd4	0.34373343
189	0x3b698ec5	0.0035638076
190	0xbfbcbedd	-1.4745747
191	0x3e7aaefb	0.24480812
192	0x3f4ea2e7	0.8071732
193	0xbf248857	-0.6427054
194	0x4011c234	2.2774782
195	0x3fecf0c6	1.8510978
196	0xbf801ec2	-1.0009387
197	0xbf4a4ed7	-0.7902655
198	0xbb6aa168	-0.0035801772
199	0xbfb617fe	-1.4226072
200	0xbf0268e9	-0.5094133
201	0xbce34daa	-0.027746994
202	0xc01d20ed	-2.4551346
203	0xbe1d8134	-0.15381318
204	0xbf972b41	-1.1810075
205	0xc0102e53	-2.2528274
206	0x3eae8352	0.34084564
207	0x3bfa4afe	0.0076383343
208	0xbfe06bcb	-1.7532896
209	0xbf977b2e	-1.1834466
210	0xbe27a7b4	-0.16372567
211	0x3f8de1db	1.1084551
212	0xbf1a05e2	-0.60165226
213	0x40537914	3.304265
214	0xbf143fea	-0.57910025
215	0x3f83b2d3	1.0288948
216	0xbcc2f946	-0.023800503
217	0xbf26bed6	-0.6513494
218	0x3f95790f	1.1677569
219	0x3f1feae5	0.62467796
220	0xbeae8c86	-0.34091586
221	0xc087f7de	-4.249007
222	0xbfa0679b	-1.2531618
223	0xbfbc0013	-1.4687523
224	0xc00ef224	-2.233529
225	0xbb071239	-0.0020610227
226	0x3f2ffb9f	0.6874332
227	0xc02e1d84	-2.7205515
228	0xbe2aaf72	-0.1666849
229	0xc010bce6	-2.2615294
230	0xbf178a2e	-0.5919522
231	0xbf21dc6b	-0.63226956
232	0x3f88d64a	1.0690396
233	0xbf8531b9	-1.0405799
234	0xbc912d28	-0.017721727
235	0xc048abbc	-3.1354818
236	0xc00a3de3	-2.1600273
237	0xbf297be8	-0.6620469
238	0x3ec45040	0.38342476
239	0x3f62e6eb	0.886336
240	0xbfbffef5	-1.4999682
241	0xbefde854	-0.49591315
242	0x3f698a95	0.91227084
243	0x3b604d82	0.0034225886
244	0xc03fcf3b	-2.9970233
245	0x3fba7a31	1.456854
246	0x3a57d653	0.0008233536
247	0xbef1312e	-0.47107834
248	0xbea3fa96	-0.3202712
249	0xbe109d95	-0.14122613
250	0xc0535bdc	-3.3024817
251	0xbf892ce2	-1.0716822
252	0x3b8fbec1	0.0043867533
253	0xbf78f406	-0.9724735
254	0xbfe004a0	-1.7501411
255	0xbe5c1c3a	-0.21495143

l1.bias f4 [189]
0	0xbee0bf29	-0.43895844
1	0x3e90ecba	0.28305608
2	0xbf5f5279	-0.8723522
3	0xbf31a99f	-0.69399446
4	0x3e8a6a3a	0.2703417
5	0x3ef5d3b7	0.48013088
6	0x3ec26149	0.37964848
7	0x3ecf9424	0.4054271
8	0xbe8b8fa3	-0.27258024
9	0xbf8ffe8e	-1.1249559
10	0xbf9e1553	-1.2350258
11	0xbef5422e	-0.47902054
12	0xbdc4cc93	-0.09609332
13	0x3e9c3a23	0.30513105
14	0x3e8a373f	0.26995274
15	0xbea0d9bb	-0.31416115
16	0xbe71cb8b	-0.23612802
17	0x3f158dba	0.5841938
18	0x3eae735d	0.3407239
19	0x3e896751	0.26836637
20	0x3ea43048	0.32068086
21	0xbf492d0e	-0.78584373
22	0x3f049c12	0.51800644
23	0xbefec770	-0.49761534
24	0xbee2ce39	-0.4429796
25	0xbe597680	-0.2123661
26	0xbece6523	-0.40311536
27	0x3e17f01c	0.14837688
28	0xbe8f8a1c	-0.28035057
29	0x3e6cce01	0.23125459
30	0xbf6efbcb	-0.93352956
31	0x3f0234d8	0.50861883
32	0x3f278a73	0.6544563
33	0xbecc1b60	-0.39864635
34	0xbe8346dd	-0.25640002
35	0xbf4c55ee	-0.7981862
36	0xbf849443	-1.0357746
37	0xbf84029d	-1.0313298
38	0xbfdc9148	-1.7231836
39	0xbf3e50fd	-0.7434233
40	0x3f52ead0	0.82389545
41	0x3e339ac1	0.17539503
42	0xbf81ae49	-1.0131313
43	0xbf7ed2f5	-0.99540645
44	0x3ea7ed2e	0.3279814
45	0xbf07828e	-0.52933586
46	0x3dcab515	0.0989782
47	0xbfbb5737	-1.4635991
48	0xbeae2a3c	-0.34016597
49	0x3e84149d	0.25796977
50	0xbe8e1e4b	-0.27757487
51	0xbf125aeb	-0.5716998
52	0xbf952085	-1.1650549
53	0xbef82d18	-0.48471904
54	0xc03002b1	-2.7501643
55	0xbeb8a564	-0.36063683
56	0xbe0c7f7b	-0.13720505
57	0xbd43234e	-0.04764109
58	0xbf428921	-0.7599049
59	0x3f89574e	1.0729768
60	0xc00d9812	-2.2124066
61	0xbd981c04	-0.074272186
62	0xbfbc1db1	-1.4696561
63	0xbfc57aa9	-1.5428058
64	0xbf530776	-0.8243326
65	0x3eeb10ad	0.4591116
66	0xbf3423bf	-0.70367044
67	0xbf8e5772	-1.1120436
68	0x3e6d05ec	0.2314679
69	0xbf2e28ca	-0.6803099
70	0xbf186a82	-0.5953752
71	0xbd9f31bd	-0.07773159
72	0x3e0c75c8	0.13716805
73	0xbf11291a	-0.5670334
74	0xbdc89db2	-0.09795703
75	0xbef39e9b	-0.47581944
76	0xbe04c4d3	-0.12965707
77	0x3deb0592	0.11475672
78	0xbf12a68b	-0.57285374
79	0x3ec70604	0.38871777
80	0xbe19e633	-0.1502922
81	0xbee60b93	-0.44930705
82	0xbf088257	-0.5332388
83	0x3f0f00b4	0.5586045
84	0xbf120dc7	-0.5705227
85	0x3d73e8dc	0.059548244
86	0x3f3103d5	0.6914647
87	0xbf7da788	-0.9908376
88	0xbdba2833	-0.09089699
89	0xbf1d7125	-0.6150077
90	0xbebac216	-0.364762
91	0xbe0bf6ef	-0.13668416
92	0xbf966051	-1.1748143
93	0xc009217e	-2.1426692
94	0x3dcade44	0.09905675
95	0xc03a05cd	-2.906604
96	0xbf80c397	-1.0059689
97	0x3e53fa36	0.20700917
98	0xbf79ee4f	-0.97629255
99	0x3c38bd47	0.011275596
100	0xbf729e9d	-0.94773275
101	0x3ecf12ac	0.40443933
102	0x3f0a1d1d	0.53950673
103	0xbfa07ff2	-1.2539046
104	0x3e60a38e	0.21937391
105	0xbe9ac7c7	-0.30230543
106	0xbf1b1ad6	-0.60587823
107	0x3ed40ed4	0.41417563
108	0xbf37b75e	-0.7176417
109	0xbe36cffa	-0.17852774
110	0xbf20c7c3	-0.6280481
111	0xbe2a01b7	-0.16602217
112	0xbfb3a8cf	-1.4035891
113	0xbf3cb503	-0.737137
114	0xbdf478ef	-0.11937129
115	0x3e47f972	0.1952875
116	0xbc7babe6	-0.015360808
117	0x3e646e0f	0.22307609
118	0x3f572e68	0.84055185
119	0xbeef72d2	-0.46767288
120	0xbcdc64eb	-0.02690359
121	0xbf83c0b9	-1.0293189
122	0x3d9bb6e4	0.07603243
123	0x3f09ba9d	0.53800374
124	0xbedab151	-0.42713407
125	0xbe8a521c	-0.2701577
126	0x3e95a94d	0.2923073
127	0xbf331366	-0.69951475
128	0xbd9629b4	-0.07332173
129	0xbeb1a31b	-0.34694752
130	0xbf30e839	-0.69104344
131	0xbf185915	-0.5951093
132	0x3e88c7e1	0.26714996
133	0x3eafd606	0.34342974
134	0xbf104aea	-0.5636431
135	0x3d8f4902	0.06996347
136	0x3f08dc16	0.53460824
137	0xbfa373a4	-1.2769666
138	0xbfd4819c	-1.6602054
139	0xbfcd072a	-1.6017811
140	0xbfbfc9d1	-1.4983464
141	0xbebc2c16	-0.36752385
142	0xbe59be05	-0.21263893
143	0x3e5f3c86	0.21800432
144	0x3e04da0d	0.12973805
145	0xbf0e940d	-0.5569466
146	0xbe0338ad	-0.12814589
147	0xbe049e93	-0.12951116
148	0x3e46fbb1	0.1943195
149	0xbf2bb20b	-0.67068547
150	0x3ee1d034	0.4410416
151	0x3ee59e34	0.44847262
152	0xbca68d9c	-0.020331196
153	0x3d6e3231	0.058153335
154	0xbf58a214	-0.8462231
155	0xbed1b165	-0.40955654
156	0x3e9f0b5b	0.3106335
157	0x3e824f3a	0.2545107
158	0xbe81350a	-0.25235778
159	0xbf8ceee7	-1.1010407
160	0x3f23746f	0.6384954
161	0xbfc6b565	-1.5524107
162	0xbebf910e	-0.37415355
163	0xbe4e5270	-0.20148635
164	0xbd89319c	-0.06698915
165	0x3e5b8f4c	0.21441382
166	0x3ebd71f6	0.37001008
167	0x3efcf5d1	0.49406293
168	0x3f0c6914	0.54847836
169	0xc037a29f	-2.8693006
170	0xbdedbde8	-0.11608487
171	0x3f25aa0e	0.6471261
172	0xbef4f7be	-0.47845262
173	0xbe54eff3	-0.20794658
174	0x3ea1e28d	0.31618157
175	0xbf0eec47	-0.5582928
176	0xbed8cb67	-0.42342684
177	0xbf8a8fd9	-1.0825149
178	0xbeb67357	-0.35634872
179	0xbe967e94	-0.29393446
180	0xbf710322	-0.94145405
181	0xbf3ef47e	-0.74591815
182	0xbf84d26b	-1.0376714
183	0xbed24c65	-0.4107391
184	0x3e60f121	0.21966983
185	0x3bf83db6	0.007575716
186	0xbfca3864	-1.5798459
187	0xbf67230e	-0.90287864
188	0xbef90c31	-0.48642114

l2.weight f4 [119, 189]
0	0x3f00a24e	0.5024766
1	0xbd2ac282	-0.041689403
2	0x3d0148c5	0.03156354
3	0xbe0309f8	-0.12796772
4	0xbf18d1f3	-0.5969536
5	0xbf7863f0	-0.9702749
6	0x3e6b460c	0.2297594
7	0xbf913172	-1.1343215
8	0xbf15d61f	-0.5852985
9	0xbe7f0638	-0.24904716
10	0xbff45180	-1.9087372
11	0xbf16db83	-0.589287
12	0xbeee4ac6	-0.46541423
13	0xbe18da8b	-0.14927118
14	0x3c8d4bd6	0.017248075
15	0x3c79e23b	0.015251691
16	0xbf7c9e8b	-0.9867942
17	0xbe9b0fd2	-0.30285507
18	0xbf04f17e	-0.5193099
19	0x3efb4fde	0.4908437
20	0xc0232957	-2.5493982
21	0x3dc905db	0.0981557
22	0x3d2cbb2f	0.0421707
23	0xbec64b2f	-0.38729236
24	0xbf87e596	-1.0616939
25	0xbe20c3a2	-0.15699628
26	0xbf596899	-0.8492523
27	0xbf469592	-0.77571976
28	0xbc89a898	-0.016804025
29	0xc004ce4e	-2.0750918
30	0xbea244d9	-0.31693152
31	0xbfc84acf	-1.564783
32	0xbedb2e67	-0.4280884
33	0x3e2d6794	0.16934043
34	0x3e52aeca	0.20574489
35	0xbf449d71	-0.76802737
36	0xbde04164	-0.10949972
37	0xbf8abde6	-1.0839202
38	0xbf5eff7a	-0.87108576
39	0xbe36562d	-0.17806311
40	0xbd8fa51c	-0.07013914
41	0xbf0dca6e	-0.5538701
42	0xbed89b69	-0.4230607
43	0xbe14845e	-0.14503619
44	0xbf20ea9c	-0.62857985
45	0xbefc9fbf	-0.49340627
46	0xbc87540c	-0.016519569
47	0xbed73853	-0.4203516
48	0x3c6f22d2	0.014595704
49	0xbed190ad	-0.4093069
50	0x3f07f750	0.53111744
51	0xbed4c33f	-0.4155521
52	0xbcaa4a77	-0.02078746
53	0xbf01c5d3	-0.5069248
54	0xbf11c0bb	-0.5693471
55	0xbec5d0d4	-0.38635886
56	0xbe825dac	-0.2546209
57	0xbe4edcf2	-0.20201471
58	0xbe3a5d5b	-0.18199675
59	0xbc6aa16f	-0.014320715
60	0xbed20fb8	-0.41027617
61	0xc019497b	-2.39511
62	0xbf0906e5	-0.53526145
63	0xbadb6f8f	-0.0016741621
64	0xbe12fd70	-0.14354491
65	0xbf9010b0	-1.1255093
66	0xbf03a550	-0.5142412
67	0xbeb62666	-0.3557617
68	0xbf82d618	-1.0221586
69	0xbe294988	-0.16531956
70	0x3c08dffc	0.008354183
71	0xbe12fa8c	-0.14353389
72	0xbf4ad45a	-0.7923027
73	0xbf4170bf	-0.7556266
74	0x3e2710a6	0.16314945
75	0x3e0a634a	0.13514438
76	0xbed95088	-0.42444253
77	0xbdb591bb	-0.088656865
78	0xbee73e7b	-0.45164856
79	0xbdd9b409	-0.10630042
80	0x3f0038e9	0.5008684
81	0x3e8b2313	0.27175197
82	0xbe4b9048	-0.19879258
83	0xbf975ab9	-1.1824561
84	0xbd6466e2	-0.05576218
85	0x3f4f4270	0.8096075
86	0xbe7eeec7	-0.24895774
87	0xbeb2e235	-0.34938207
88	0x3e887913	0.26654872
89	0xbefcbc80	-0.49362564
90	0xbe982b58	-0.2972057
91	0x3ed70fd3	0.4200426
92	0xbef1e19d	-0.47242442
93	0xbf2972d4	-0.6619084
94	0xbf5e4826	-0.8682884
95	0xbe379098	-0.17926252
96	0xbf14c717	-0.58116287
97	0xbe32b1be	-0.17450616
98	0xbe81c3db	-0.25344738
99	0xc03513ea	-2.8293405
100	0xbf3f534e	-0.7473649
101	0xbf8435ad	-1.032888
102	0xbde2785d	-0.11058114
103	0xbf951cc3	-1.1649402
104	0xbc71f8c5	-0.014768784
105	0xbe95fbab	-0.2929357
106	0xbe7ed87e	-0.24887273
107	0x3da424a0	0.08014798
108	0xbea61ad9	-0.32442358
109	0x3ea87593	0.32902202
110	0xbdc8af91	-0.09799112
111	0xbe05b67a	-0.1305789
112	0x3f941b62	1.1570857
113	0xbee133c6	-0.43984812
114	0xbcaa934e	-0.020822193
115	0xbf339d59	-0.7016197
116	0xbe65940f	-0.22419761
117	0xbf831ec1	-1.024376
118	0xbf276e7d	-0.65402967
119	0xbef6cdde	-0.4820394
120	0xbea71756	-0.3263499
121	0xbed873db	-0.4227589
122	0xbe926953	-0.2859598
123	0xbef4e7e7	-0.47833177
124	0x3e40de75	0.1883486
125	0xbd776391	-0.06039769
126	0xbf33cf6a	-0.70238364
127	0xbe546310	-0.20740914
128	0xbe84e750	-0.25957727
129	0x3e385447	0.180009
130	0x3e944c53	0.2896448
131	0xbed721ff	-0.42018124
132	0xbf961d9b	-1.1727785
133	0xbf2d923e	-0.6780127
134	0xbea6b7cf	-0.3256211
135	0xbfae9d7c	-1.364181
136	0xbf82de23	-1.0224041
137	0xbe31507e	-0.17315862
138	0xbea1a3db	-0.31570324
139	0xbfb285f1	-1.3947126
140	0xbed3c83f	-0.41363713
141	0xbdcdd226	-0.10049848
142	0xbf775bca	-0.96624434
143	0xbee972d8	-0.4559543
144	0xbf48c9a6	-0.7843269
145	0xbc559788	-0.013036616
146	0xbe80cbb6	-0.2515542
147	0xbf802474	-1.0011125
148	0x3b241b4b	0.0025040682
149	0x3e3bf00d	0.18353291
150	0xbf94ddb5	-1.163016
151	0xbf0bc5e1	-0.54598814
152	0xbfebc7e9	-1.8420383
153	0xbed3378e	-0.41253322
154	0x3eb5acee	0.35483497
155	0xbef6f59c	-0.4823426
156	0xbf79efcd	-0.9763153
157	0xbebb92e4	-0.36635506
158	0x3e71b6ff	0.23604964
159	0xc0177a07	-2.366823
160	0xbe6cdf30	-0.23132014
161	0xbedae2c0	-0.42751122
162	0xbe7c1d6a	-0.24620596
163	0x3f0f06e7	0.5586991
164	0xbf352810	-0.70764256
165	0xbf5c0a6c	-0.859534
166	0xbed2e963	-0.41193685
167	0xbf4e4661	-0.8057614
168	0xbeb2b625	-0.3490459
169	0xbf8339af	-1.0251979
170	0xbd9998de	-0.0749986
171	0xbf6cfb7b	-0.9257123
172	0xbf966d24	-1.1752057
173	0xbf64a298	-0.893106
174	0x3da0b30f	0.07846653
175	0xbfa2e13c	-1.2724986
176	0xbf873ddf	-1.0565757
177	0xbee8bbda	-0.4545582
178	0xbee49002	-0.4464112
179	0xbd8f46ab	-0.06995901
180	0xbef353b4	-0.47524798
181	0xbf962eb1	-1.1732999
182	0x3de38e1c	0.111110896
183	0xbf070c98	-0.5275359
184	0x3db768d5	0.08955542
185	0xbf154484	-0.5830767
186	0xbf2b0979	-0.6681133
187	0xbf0f52b8	-0.55985594
188	0xbdb25e51	-0.08709396
189	0xbe3b3137	-0.18280493
190	0x3d0f3fc9	0.03497294
191	0x3e412887	0.18863116
192	0xbf35f9d8	-0.71084356
193	0xbdefa049	-0.11700494
194	0x3e21e584	0.1581021
195	0x3de67d41	0.11254359
196	0xbe1132d7	-0.1417955
197	0x3d37de5d	0.044889797
198	0xbe15867c	-0.14602083
199	0xbb93ea7d	-0.004514037
200	0xbd68f8de	-0.056877963
201	0xbda23af6	-0.07921402
202	0xbcce46c4	-0.025180228
203	0xbe15d092	-0.14630345
204	0xbf50ad28	-0.81514215
205	0xbca23369	-0.019799905
206	0x3e4092d4	0.1880601
207	0xbdaec54b	-0.085337244
208	0x3e664f29	0.22491135
209	0xbeb8d829	-0.36102417
210	0x3ecf748d	0.4051861
211	0xbe46529a	-0.19367447
212	0x3ecd84dc	0.40140426
213	0xbf22ddd1	-0.63619715
214	0xbd67d06d	-0.056595255
215	0xbdc74b14	-0.09731117
216	0x3e4f4714	0.20241958
217	0x3e521ac0	0.20518017
218	0xbf3fa9ae	-0.74868286
219	0xbc9a1f66	-0.0188138
220	0xbe3d582f	-0.1849067
221	0xbe30a7a9	-0.17251457
222	0xbe05987f	-0.13046454
223	0xbbe0a21d	-0.006855263
224	0xbf4fafed	-0.81127816
225	0xbc9c782d	-0.019100273
226	0xbe928d8f	-0.28623626
227	0xbeb1d27f	-0.34730908
228	0xbd8cbe0f	-0.06872188
229	0x3dc12b3d	0.09432075
230	0xbb2f8fa5	-0.00267885
231	0x3e16347f	0.14668463
232	0xbe54fb7d	-0.2079906
233	0xbe28d091	-0.16485812
234	0xbe17c8c3	-0.14822678
235	0xbc668c94	-0.014071602
236	0xbe9c5d2c	-0.30539834
237	0x3e69b24d	0.22821923
238	0xbd5f4a65	-0.054514308
239	0xbf18b632	-0.5965301
240	0xbd847a56	-0.06468646
241	0xbda0604c	-0.07830867
242	0xbe8a0d38	-0.2696321
243	0xbde55f9c	-0.11199877
244	0x3e0f602b	0.14001529
245	0x3e174021	0.14770557
246	0xbf59578f	-0.8489923
247	0xbdb1fd3a	-0.08690877
248	0xbdde833f	-0.10864877
249	0xbb53bc17	-0.0032308155
250	0xbe92bbd1	-0.28658918
251	0xbe16fc7f	-0.14744757
252	0x3e0af04e	0.13568231
253	0x3e26e7bc	0.16299337
254	0xbe054a73	-0.13016681
255	0x3de896c5	0.11356882

l2.bias f4 [119]
0	0x3d5c1dbc	0.053739294
1	0x3e552c7f	0.20817755
2	0xbe7a0856	-0.24417242
3	0x3d791de4	0.06081952
4	0x3df2d8d9	0.11857767
5	0xbda0f103	-0.07858469
6	0x3db8ed5a	0.09029646
7	0xbdd0b81a	-0.101913646
8	0xbe25fda8	-0.16210043
9	0x3d9b9eb8	0.075986326
10	0x3f083259	0.53201824
11	0xbe82e553	-0.25565585
12	0xbecf01f5	-0.4043118
13	0x3e7b7eca	0.24560085
14	0xbe12359f	-0.14278267
15	0xbcef78e4	-0.02923245
16	0x3e049d47	0.12950622
17	0x3e072662	0.13198236
18	0xbdcfe95d	-0.101519324
19	0xbde11fab	-0.10992368
20	0x3e5aa486	0.21351823
21	0x3edfc816	0.4370734
22	0x3fa2ba3d	1.2713085
23	0xbe2c7672	-0.16842058
24	0x3e06c496	0.13160929
25	0xbda67a20	-0.08128762
26	0xbcb64442	-0.022249345
27	0x3e7da19b	0.24768679
28	0xbe158e26	-0.14605007
29	0xbe24deb1	-0.16100575
30	0xbd1d22f4	-0.038363412
31	0xbd666cbf	-0.056256052
32	0x3be48c8e	0.0069747632
33	0x3db6ffbe	0.08935498
34	0x3e31ee71	0.17376114
35	0xbda2853f	-0.07935571
36	0xbe400ac5	-0.18754108
37	0xbe99d68a	-0.30046493
38	0x3f229fa3	0.63524836
39	0x3eef921e	0.46791166
40	0x3cbccdf4	0.023047425
41	0xbeb494b4	-0.352697
42	0xbe6073e7	-0.21919213
43	0xbe4700da	-0.19433919
44	0x3ddc109c	0.107453555
45	0xbe2e7e8c	-0.17040461
46	0xbd9c4386	-0.076300666
47	0x3e5d2daf	0.21599458
48	0xbdd2624f	-0.10272657
49	0xbe4f4a6b	-0.20243232
50	0xbe7e33b1	-0.24824406
51	0xbe83dcf9	-0.25754526
52	0xbd823eeb	-0.06359657
53	0xbe9a4419	-0.3013008
54	0xbe2bb601	-0.16768648
55	0xbea1674a	-0.31524116
56	0x3e984d75	0.29746595
57	0x3f270b61	0.6525174
58	0x3ea51104	0.32239544
59	0x3e6bbf17	0.23022114
60	0x3ea3f639	0.3202379
61	0x3e90f7ae	0.28313965
62	0xbd85e756	-0.065382645
63	0xbdf850ea	-0.12124808
64	0x3ede7af8	0.43453193
65	0xbe7440cc	-0.23852843
66	0x3e86304a	0.26208717
67	0xbe887b0b	-0.26656374
68	0xbdfc9862	-0.12333752
69	0xbdbec33c	-0.09314582
70	0xbda2f5c8	-0.07957035
71	0x3f12e570	0.57381344
72	0x3b418016	0.0029525808
73	0xbcf51d3d	-0.029921168
74	0x3d93888c	0.072037786
75	0xbdbefe4d	-0.09325848
76	0xbd4333d2	-0.04765684
77	0xbd926182	-0.071475044
78	0xbe551a64	-0.20810848
79	0x3e8088eb	0.2510446
80	0x3e216623	0.15761618
81	0x3cc632c7	0.024194134
82	0xbca1b88c	-0.01974132
83	0xbe01397c	-0.12619585
84	0x3e18e0f2	0.1492956
85	0x3c0c5736	0.008565715
86	0x3f1fe5e4	0.6246016
87	0x3ce378b9	0.027767526
88	0xbb3ff567	-0.0029290558
89	0xbe15531c	-0.14582485
90	0x3e8609f6	0.26179475
91	0x3e0f95e8	0.14022028
92	0xbc8ac1cb	-0.01693811
93	0x3d897ff9	0.06713862
94	0xbe914441	-0.28372386
95	0x3cbd5c30	0.023115247
96	0xbe3c00b1	-0.18359639
97	0x3e8db0d8	0.27673984
98	0x3e7e8881	0.2485676
99	0xbe3672b9	-0.178172
100	0xbea36319	-0.31911543
101	0xbdfe5d96	-0.12420194
102	0xbe20a204	-0.15686804
103	0xbf12385e	-0.5711726
104	0xbeedc3e7	-0.46438524
105	0xbdbb39d8	-0.09141892
106	0xbdb330de	-0.08749555
107	0x3d926726	0.0714858
108	0x3dce37b1	0.10069216
109	0xbec7b1cb	-0.39002833
110	0x3d3447e7	0.044013884
111	0xbde29074	-0.110627085
112	0x3d021fd9	0.031768654
113	0xbe05d098	-0.13067853
114	0x3eaa7a25	0.33296314
115	0xbdf57641	-0.11985446
116	0xbe30cd52	-0.17265823
117	0x3ed4f1ab	0.41590628
118	0xbec693e3	-0.38784704

l3.weight f4 [9, 119]
0	0x3e15a020	0.14611864
1	0x3df50555	0.11963908
2	0xbec2656c	-0.37968004
3	0x3e5f97ec	0.21835297
4	0x3ed33165	0.41248623
5	0x3e02e248	0.12781632
6	0x3ee5d951	0.44892362
7	0xbd2d8fa5	-0.04237332
8	0xbf0c55e2	-0.54818547
9	0xbe743854	-0.23849612
10	0x3ec40dd5	0.38291803
11	0x3f01de87	0.50730175
12	0xbe6273f6	-0.22114548
13	0x3ee43070	0.44568205
14	0xbe52ca92	-0.20585087
15	0x3f277066	0.6540588
16	0x3f0389c0	0.51382065
17	0xbe3d3b3f	-0.18479632
18	0x3ea2338e	0.31679958
19	0x3e1d73fd	0.15376277
20	0x3dfd1d65	0.12359122
21	0xbe0a6a4a	-0.13517109
22	0xbf413449	-0.75470406
23	0x3e3f0fcb	0.18658368
24	0x3dd32de2	0.10311486
25	0xbe55f593	-0.2089446
26	0x3b575b9c	0.0032861
27	0x3ed0cd1f	0.40781495
28	0xbfa0ac0b	-1.2552503
29	0xbe281087	-0.16412555
30	0xbe71b017	-0.23602329
31	0x3e570eb5	0.21001704
32	0x3f32fb2f	0.69914526
33	0x3ee4a36f	0.4465594
34	0x3e566315	0.20936234
35	0x3ea17f53	0.31542453
36	0xbd88ab0e	-0.06673251
37	0x3dbec798	0.09315413
38	0xbf8137d1	-1.0095159
39	0x3f01e7cd	0.50744325
40	0xbd057905	-0.032586116
41	0x3e45d831	0.19320752
42	0xbda9866f	-0.08277594
43	0x3e8e450a	0.27787048
44	0x3c7bd053	0.015369493
45	0x3f14de76	0.5815195
46	0xbec2e9d7	-0.3806903
47	0x3f55b7f8	0.8348384
48	0x3e99ac5f	0.3001432
49	0x3f06a36b	0.52593106
50	0x3e4db93c	0.20090193
51	0x3d6c13a7	0.05763593
52	0x3ec3089a	0.380925
53	0xbe60923f	-0.21930788
54	0x3ee3c48e	0.44485897
55	0x3d81761d	0.063213564
56	0x3f056a2b	0.52115124
57	0x3df12194	0.11773983
58	0x3e719aef	0.23594259
59	0x3f136ba7	0.5758614
60	0xbf6b7d3e	-0.9198798
61	0x3e519480	0.20466805
62	0xbe94d43d	-0.29068175
63	0x3efcfc8b	0.49411425
64	0x3ea5b55b	0.32364926
65	0xbd238c4a	-0.039928712
66	0xbfa0c940	-1.2561417
67	0xbd7204cc	-0.059086606
68	0x3ed8c851	0.4234033
69	0x3d79befd	0.060973156
70	0x3e910ad1	0.28328565
71	0x3ee07a20	0.43843174
72	0x3ea0df17	0.31420204
73	0xbd05c63e	-0.03265976
74	0x3e981962	0.29706866
75	0x3f120911	0.57045084
76	0x3e038d4e	0.12846872
77	0x3e48d10f	0.19611
78	0xbeb40aae	-0.35164398
79	0x3f113368	0.56719065
80	0x3ee4e00e	0.4470219
81	0xbe4be666	-0.19912109
82	0x3e73ebc0	0.238204
83	0xbe6ec110	-0.23315835
84	0xbddf62aa	-0.109074906
85	0xbe04af49	-0.12957491
86	0xbf0df452	-0.5545093
87	0x3cfa2089	0.030533092
88	0xbce910cc	-0.028450392
89	0xbec9ef2c	-0.39440286
90	0x3ef28910	0.47370195
91	0x3cc979c4	0.024594195
92	0xbcacbfd1	-0.021087559
93	0x3e2610f1	0.162174
94	0x3e4bbe04	0.19896704
95	0x3f159911	0.58436686
96	0x3af5b965	0.0018747268
97	0x3e5f0bec	0.21781892
98	0x3cf81fa5	0.030288527
99	0xbe156ee1	-0.14593078
100	0x3bbc135e	0.0057396134
101	0xbefcf7f6	-0.4940793
102	0x3eda6f86	0.4266321
103	0xbe498e16	-0.19683108
104	0xbf1296a0	-0.57261086
105	0x3e803dc9	0.25047138
106	0x3e446619	0.19179572
107	0x3d510c9c	0.051037416
108	0xbf08ffe8	-0.5351548
109	0xbcac8529	-0.02105959
110	0x3e1d8eac	0.15386456
111	0x3eb82130	0.3596282
112	0xbd392939	-0.04520533
113	0x3f4eaa9c	0.8072908
114	0x3eff49ef	0.49861094
115	0x3ebf6f5d	0.3738965
116	0xbf4ac32f	-0.79204077
117	0xbf12d891	-0.57361704
118	0xbee8fe37	-0.4550645
119	0x3e15ba06	0.14621744
120	0xbdbb1a8c	-0.09135923
121	0xbe934ff7	-0.28771946
122	0xbebe6de9	-0.3719323
123	0x3ee80a3c	0.45320308
124	0x3dd292d7	0.10281914
125	0x3efc82b3	0.49318466
126	0x3de726b9	0.11286683
127	0xbb0aac87	-0.0021159963
128	0xbd424fd4	-0.04743941
129	0x3ec4dbc0	0.38448906
130	0x3f2276ff	0.63462824
131	0xbdacec88	-0.08443552
132	0x3d98e74f	0.074659936
133	0x3ed07d90	0.40720797
134	0xbea32253	-0.31862125
135	0x3bb17b79	0.0054163304
136	0x3ec9e9f9	0.3943632
137	0x3ea49ccd	0.3215088
138	0x3e8c758a	0.27433425
139	0x3ea84aa5	0.3286945
140	0x3e033c47	0.12815963
141	0xbf4c9329	-0.7991205
142	0xbed4a60a	-0.41532928
143	0xbe852666	-0.26005858
144	0x3e2a98e9	0.16659893
145	0x3f03a571	0.5142432
146	0x3f246c06	0.6422733
147	0x3f04dd90	0.5190058
148	0x3e4f982d	0.20272894
149	0x3f0254ab	0.50910443
150	0x3ea85a46	0.32881373
151	0x3e2cc8eb	0.16873519
152	0xbd5d29ce	-0.053994946
153	0xbe323a18	-0.17404974
154	0x3ec6e4c1	0.388464
155	0x3e356318	0.17713583
156	0x3f2dd84b	0.6790816
157	0xbf1788a1	-0.59192854
158	0x3e84b6e0	0.25920773
159	0x3e331836	0.17489704
160	0xbca56ac3	-0.02019251
161	0x39f0a0a1	0.00045896045
162	0xbe8bd3fa	-0.27310163
163	0xbe2c74d8	-0.16841447
164	0x3d0cb6fb	0.03435419
165	0xbecc0ef6	-0.39855164
166	0xbe5e25f1	-0.21694161
167	0xbf12e505	-0.57380706
168	0xbcfbc339	-0.030732738
169	0xbe860388	-0.2617457
170	0xbe916db3	-0.28404006
171	0xbcb38fa1	-0.021919074
172	0xbe59fa40	-0.21286869
173	0x3ede0b9e	0.43368238
174	0xbe2071f0	-0.15668464
175	0x3f02074c	0.50792384
176	0x3ea1806a	0.31543285
177	0x3e75bc39	0.23997582
178	0xbe134581	-0.14381982
179	0x3f5e32c4	0.8679621
180	0xbd82ffe0	-0.063964605
181	0x3ed7935e	0.4210462
182	0x3eac67d3	0.33672962
183	0x3eef0b4d	0.4668831
184	0x3ed3c2e9	0.41359642
185	0xbf554379	-0.8330608
186	0x3e481db5	0.19542582
187	0xbcc07b03	-0.023496157
188	0xbe1d5f57	-0.153684
189	0xbf3104af	-0.6914777
190	0x3eda223f	0.42604253
191	0xbe81c280	-0.25343704
192	0x3e800777	0.25005695
193	0x3e8bd2b8	0.27309203
194	0xbdfd2a1e	-0.12361549
195	0xbe8e48bc	-0.27789867
196	0x3ea8ada8	0.3294499
197	0x3f3652dd	0.7122019
198	0x3e4269ef	0.18985723
199	0x3ee67414	0.45010436
200	0x3e1d623d	0.15369506
201	0xbf0818ad	-0.5316265
202	0xbd98fba1	-0.074698694
203	0xbd570a9b	-0.05250035
204	0x3e895a84	0.2682687
205	0xbf52c291	-0.82328135
206	0xbe1d573b	-0.15365307
207	0xbdaba59c	-0.08381197
208	0x3e4e249d	0.20131154
209	0x3ed647bd	0.41851607
210	0xbdedfad1	-0.11620105
211	0x3e8875c4	0.26652348
212	0x3f088936	0.5333437
213	0xbe05f59c	-0.13081974
214	0xbe0ac422	-0.13551381
215	0x3e578a14	0.21048766
216	0x3db89adf	0.09013914
217	0x3e9c5697	0.30534813
218	0x3e520d6b	0.20512931
219	0xbd8d48c6	-0.06898646
220	0x3da9a1c8	0.082828104
221	0x3ebdb07d	0.37048712
222	0xbd365997	-0.044519033
223	0xbe4afa40	-0.19822025
224	0x3ec49de0	0.384017
225	0xbc395f65	-0.011314248
226	0x3ebe6114	0.3718344
227	0x3ee18332	0.44045407
228	0x3e98f8a7	0.29877207
229	0xbe928b6f	-0.28622004
230	0x3c999790	0.018749028
231	0x3e3e138c	0.18562144
232	0xbe7ea010	-0.24865746
233	0x3d91624b	0.07098826
234	0x3f4b0ad5	0.79313403
235	0x3eb548df	0.3540716
236	0xbed38e45	-0.4131948
237	0x3e28a31d	0.16468473
238	0xbbfe31fe	-0.0077574244
239	0x3ebf63d3	0.37380847
240	0xbd9ffa81	-0.07811452
241	0xbe9a9696	-0.30193013
242	0x3ef36afc	0.4754256
243	0x3c86283c	0.016376607
244	0x3ef94d05	0.48691574
245	0x3eb8bba1	0.3608065
246	0xbd2b7bb7	-0.04186603
247	0xbef18259	-0.4716976
248	0x3e301006	0.17193612
249	0xbee32af0	-0.44368696
250	0x3e7cfee9	0.24706616
251	0x3ec1dc7e	0.37863535
252	0x3f07fb8c	0.53118205
253	0xbd733f48	-0.05938652
254	0x3cdb34df	0.02675861
255	0xbeca5343	-0.3951665

l3.bias f4 [9]
0	0x3ee193c1	0.4405804
1	0x3f19218a	0.598168
2	0x3e7ac457	0.2448896
3	0x3eba3210	0.3636632
4	0x3ef3291c	0.474923
5	0x3ed0a33f	0.40749547
6	0xbe195c70	-0.14976668
7	0x3ed6f964	0.41987145
8	0x3ec45e22	0.38353068

l4.weight f4 [53, 9]
0	0x3b895c76	0.0041919304
1	0x3e820954	0.25397742
2	0x3b8f7e76	0.004379089
3	0xbe2de015	-0.16980012
4	0x3fb1e938	1.3899298
5	0xbec06d40	-0.3758335
6	0xbfb11632	-1.3834898
7	0x3f8c6434	1.096808
8	0x3fb36ad2	1.4016974
9	0x3ea03de3	0.31297216
10	0x3f0d14a5	0.55109626
11	0xbf22c82a	-0.63586676
12	0x3f13e2eb	0.57768124
13	0x3ea3bc6c	0.31979692
14	0x3ea1be97	0.3159072
15	0x3f15e60d	0.58554155
16	0x3f15b4b3	0.5847885
17	0x3f4acd10	0.7921915
18	0xbed28770	-0.41118956
19	0x3eb0d646	0.34538478
20	0x3c766fe7	0.015041328
21	0x3ddc9837	0.1077122
22	0x3fd371ae	1.6519067
23	0xbdf1df25	-0.118101396
24	0xbf503810	-0.81335545
25	0x3fb92084	1.4463048
26	0x3f92ad5d	1.1459156
27	0x3f21aafa	0.63151515
28	0xbd8ccfda	-0.06875582
29	0xbe2e4bd8	-0.1702112
30	0x3f96cdd2	1.1781561
31	0xbf308215	-0.6894849
32	0x3eefbb2a	0.46822482
33	0x4018cb7d	2.38742
34	0x3f28e40f	0.6597299
35	0x3f08065e	0.53134716
36	0xbeedd3a0	-0.4645052
37	0x3f1d72b5	0.61503154
38	0x3d52b55f	0.0514425
39	0x3e25a095	0.16174538
40	0x400f30e5	2.2373593
41	0x3ed1ccee	0.4097666
42	0xbf61640d	-0.8804329
43	0x3f9e6aea	1.2376378
44	0x3f779117	0.96705765
45	0xbe4a05ed	-0.19728823
46	0x3f554846	0.83313406
47	0xbdd7e4df	-0.105417006
48	0xbdc881bf	-0.09790372
49	0x3e9d8110	0.3076253
50	0x3f4ec27e	0.8076552
51	0x3f20b59a	0.627771
52	0xbf8fde77	-1.1239766
53	0xbf9326d0	-1.149622
54	0x3d4dac90	0.050213397
55	0xbf0bd9cc	-0.54629207
56	0x3f620ae7	0.88297886
57	0x3eb53eaf	0.35399386
58	0x3f01497b	0.5050275
59	0x3f66d309	0.90165764
60	0x3f2fe2fe	0.6870574
61	0x3f51fe6f	0.8202886
62	0x3f0a6d82	0.54073346
63	0x3d8cf574	0.06882754
64	0xbf07504e	-0.5285691
65	0x3f3272b9	0.697063
66	0xbdd8d4a2	-0.105874315
67	0x3e93ae3f	0.28843877
68	0x3f6cbff1	0.9248038
69	0x3f769ebe	0.9633597
70	0x3f839594	1.0280023
71	0x3ebe462b	0.3716291
72	0x3eb5c55a	0.3550213
73	0xbe82e8bc	-0.25568187
74	0xbe8b541a	-0.27212602
75	0x3f0a8f93	0.54125327
76	0xbf5a87ff	-0.85363764
77	0xbf17a91d	-0.5924242
78	0x3fcccbda	1.599971
79	0x3f1e472e	0.6182736
80	0x3f0bed60	0.5465908
81	0x3f1c8efe	0.6115569
82	0x3ec14d7d	0.3775443
83	0xbf1560f4	-0.58351064
84	0x3f5a732e	0.85332
85	0x3c3f479a	0.011674786
86	0x3e106355	0.14100392
87	0x3ec0a2a8	0.37624097
88	0x3f390824	0.72278047
89	0x3f947ad0	1.1599979
90	0xbf060a01	-0.52359015
91	0x3e6b512f	0.22980188
92	0x3f1ad7f1	0.6048575
93	0xbeab8ca4	-0.33505738
94	0x3fea3cd7	1.8299817
95	0x3d8a0abb	0.06740328
96	0xbf31a72b	-0.69395703
97	0x3f7dc723	0.99131984
98	0x3f850c28	1.0394335
99	0xbedb53df	-0.42837426
100	0x3e3dca49	0.18534197
101	0x3d70c465	0.058781046
102	0x3df595ee	0.119914874
103	0x3fac86fc	1.3478694
104	0x3d1655af	0.036702808
105	0xbf07541c	-0.52862716
106	0x3fad6c4a	1.3548672
107	0x3fa4bf76	1.2870929
108	0xbdf16ba3	-0.11788108
109	0x3ef995d6	0.48747128
110	0xbeb77caf	-0.35837314
111	0xbf9ae741	-1.2101823
112	0xbf1071aa	-0.5642344
113	0x3f987601	1.1911012
114	0x3f1dd632	0.6165496
115	0xc027732a	-2.616404
116	0xc0059203	-2.0870368
117	0x3f2f95ff	0.6858825
118	0x3d7f8439	0.062381957
119	0xbf09fffc	-0.53906226
120	0x3f504055	0.8134816
121	0x3dbf6c2f	0.09346806
122	0x3ed54f89	0.41662243
123	0x3f391775	0.7230142
124	0x3f9681ed	1.17584
125	0x3f9e0fd6	1.2348583
126	0xbebb7577	-0.36613056
127	0x3ef322e8	0.4748757
128	0xbe1d149b	-0.15339892
129	0x3e300ac9	0.17191614
130	0x4000c3c2	2.011948
131	0x3d5ec6c1	0.054388765
132	0xbf6083fa	-0.8770138
133	0x3fa779c8	1.308404
134	0x3f990cbb	1.195701
135	0xbd5863ae	-0.052829437
136	0x3ee46f38	0.44616103
137	0xbdc74cc0	-0.09731436
138	0xbed56243	-0.4167653
139	0x40051977	2.0796793
140	0x3cd2f21f	0.025750218
141	0xbf8baaa2	-1.0911448
142	0x3f5234d5	0.82111865
143	0x3fbaf3de	1.4605672
144	0xbe6a880a	-0.22903457
145	0x3e88f950	0.2675271
146	0xbe163b27	-0.14671002
147	0x3f7aea35	0.9801362
148	0xbf6c2dd1	-0.9225741
149	0x3dde8558	0.10865277
150	0x403361f6	2.802854
151	0xbf1bf125	-0.6091483
152	0xbf3002b9	-0.68754154
153	0x3e0f9091	0.14019991
154	0x3ead954a	0.3390296
155	0xbeef569d	-0.46745768
156	0x3e123f38	0.14281929
157	0x3f73ce14	0.95236325
158	0x3e728631	0.23684002
159	0xbf09add5	-0.5378087
160	0x3f8ce2e1	1.1006738
161	0x3fc0a61c	1.5050693
162	0x3eb6f1d1	0.35731366
163	0x3ea913c3	0.3302289
164	0xbf04684e	-0.51721656
165	0x3f0b18f3	0.54334944
166	0x3f2811ee	0.6565236
167	0x3de4a245	0.11163763
168	0xbeb7cc4e	-0.3589806
169	0x3fadd298	1.3579893
170	0x3f961df4	1.1727891
171	0xbf26d582	-0.6516954
172	0x3f3eab31	0.7447997
173	0xbe1bda44	-0.1521998
174	0xbebbd56e	-0.3668627
175	0x3fa0bbef	1.2557353
176	0x3f539888	0.8265462
177	0x3f7004b9	0.93757206
178	0xbf9ddf59	-1.2333785
179	0xbf9e6b80	-1.2376556
180	0xbee80cc8	-0.4532225
181	0x3cb3f296	0.02196626
182	0x3efc5ccb	0.49289545
183	0x3dd7efb7	0.10543769
184	0x3ffbcd94	1.9672112
185	0x3e9f4c83	0.3111306
186	0xbf0d3287	-0.55155224
187	0x3f75003b	0.95703477
188	0x3f8b5d56	1.0887859
189	0xbebcd133	-0.36878356
190	0x3e356db1	0.17717625
191	0x3f1201d5	0.57034045
192	0xbf2e98c5	-0.6820186
193	0x3fdb7776	1.7145832
194	0x3e1ce607	0.15322123
195	0xbf195ce3	-0.5990736
196	0x3e959c8f	0.29221007
197	0x3f4cb44a	0.799626
198	0xbba3885c	-0.0049906205
199	0x3e860490	0.26175356
200	0xbd8604a1	-0.06543852
201	0x3cb5126a	0.022103507
202	0x3fd7eef6	1.68698
203	0xbdebe7e2	-0.115188375
204	0xbf9460e7	-1.1592072
205	0x3fb572f8	1.4175711
206	0x3fb7cbe9	1.4359103
207	0x3d8518b3	0.064988516
208	0x3f203ff9	0.62597615
209	0xbf12567b	-0.5716321
210	0x3f3423e4	0.70367265
211	0x3f1302df	0.57426256
212	0xbdc5586b	-0.09636005
213	0x3f364105	0.7119296
214	0x3f1b6b69	0.6071077
215	0x3f6e9d20	0.93208504
216	0xbd4c84cd	-0.049931336
217	0xbeece86c	-0.46271074
218	0x3f70d239	0.94070774
219	0xbc5e54b0	-0.013569996
220	0x3ea61e30	0.32444906
221	0x3f8072ed	1.0035073
222	0x3f4c7e14	0.7987988
223	0x3f5034ca	0.8133055
224	0x3f0a3194	0.539819
225	0x3e06e91a	0.13174859
226	0x3f353b50	0.7079363
227	0xbf0c7898	-0.5487151
228	0x3e44d8c4	0.19223315
229	0x3f3a40c0	0.7275505
230	0x3d584d96	0.052808367
231	0xbf128f7d	-0.57250196
232	0x3f3a2735	0.72716075
233	0x3fbadff1	1.4599591
234	0xbecfc588	-0.40580392
235	0xbcba9267	-0.022774888
236	0x3ebc7a19	0.36811903
237	0xbe79e9b9	-0.24405564
238	0x3fbef42b	1.4918264
239	0xbdc65bf6	-0.09685509
240	0xbf0da98f	-0.5533685
241	0x3f8ebbcb	1.115106
242	0x3fa92c6a	1.3216679
243	0x3ed21b9c	0.4103669
244	0xbe7646c2	-0.2405043
245	0xbdac7a1e	-0.084217295
246	0x3efba1c6	0.4914686
247	0x3ed9f9f6	0.42573518
248	0x3e2e070a	0.16994873
249	0x3da4e2c3	0.08051064
250	0x3fae27a7	1.3605851
251	0x3ff08189	1.8789531
252	0xbea9d18a	-0.33167678
253	0xbe2a7dd9	-0.1664957
254	0x3f77915b	0.9670617
255	0xbec85bd5	-0.39132562

l4.bias f4 [53]
0	0x3f81686c	1.0109992
1	0x3f49d431	0.78839403
2	0x3fb57ba0	1.4178352
3	0x3e21298e	0.15738508
4	0x3fa3fb8e	1.2811143
5	0x3f1272ce	0.5720643
6	0x3e8805bd	0.26566878
7	0x3f007cd0	0.5019045
8	0xbeaaaba2	-0.3333407
9	0x3eae1e05	0.34007278
10	0x3f8fee1a	1.1244538
11	0x3f932caa	1.1498005
12	0x3fbac9d0	1.4592838
13	0x3e918ce1	0.28427795
14	0x3fc03958	1.50175
15	0x3fa15f0b	1.260713
16	0xbe51407c	-0.20434755
17	0x3f750754	0.95714307
18	0x3f8cfb43	1.1014179
19	0x3feca4c0	1.8487778
20	0x3f7461b1	0.95461565
21	0x3f84e7e9	1.0383273
22	0x3f827fe0	1.0195274
23	0x3f602b09	0.87565666
24	0x3ea988d5	0.33112207
25	0x3f9b7cbb	1.214744
26	0x3f923b38	1.1424322
27	0x3f93e118	1.1553068
28	0x3f04dabb	0.51896256
29	0x3f1514b1	0.582347
30	0x3f1096a7	0.5647988
31	0xbe86122b	-0.26185736
32	0x3f036b5c	0.5133569
33	0x3e0e500e	0.13897726
34	0x3fac967c	1.3483424
35	0x3fb57995	1.4177729
36	0x3f0020af	0.5004987
37	0x3f1c270d	0.60997087
38	0x3f0acce9	0.5421892
39	0x3fa128ac	1.2590537
40	0x3f546fd9	0.82983166
41	0x3ef9d537	0.48795483
42	0x3f245dd2	0.6420566
43	0x3f5754d0	0.8411379
44	0x3f4ec5cf	0.8077058
45	0x3fb52c06	1.415406
46	0x3f2424da	0.6411873
47	0x3e663ba0	0.22483683
48	0x3daf2441	0.08551837
49	0x3ecca8fa	0.3997267
50	0x3f1ade0c	0.60495067
51	0x3f9682d2	1.1758673
52	0x3db8f187	0.09030443

l5.weight f4 [85, 53]
0	0xbce1c1bb	-0.027558198
1	0x3eb9efc2	0.36315733
2	0x3e99cd71	0.30039552
3	0xbe365950	-0.17807508
4	0x3ed76ddf	0.42076012
5	0x3f48157d	0.7815779
6	0xbef16a5f	-0.47151467
7	0xbcb8c04c	-0.022552632
8	0x3e852530	0.26004934
9	0x3e1b26e9	0.15151562
10	0x3ea6bb3e	0.3256473
11	0x3efcb92d	0.49360028
12	0x3ffa2db6	1.95452
13	0xbd82dd0a	-0.06389816
14	0x3f174de3	0.5910322
15	0x3e493271	0.19648148
16	0x3f326ddd	0.6969889
17	0x3e31119e	0.17291877
18	0x3db7cf23	0.08975055
19	0x404f76c1	3.2416232
20	0x3ea1f5fb	0.3163298
21	0x3e8c4981	0.2739983
22	0xbb4ea60a	-0.0031532072
23	0x3f2051b1	0.6262465
24	0xbe9cde44	-0.30638325
25	0x3ec3a53a	0.38211995
26	0x3de50eae	0.111844406
27	0xbe8bde83	-0.273182
28	0x3c56039e	0.013062386
29	0x3e6dfae9	0.23240246
30	0x3e1ab5e1	0.15108444
31	0xbd18f21c	-0.03734027
32	0x3f071cc6	0.5277828
33	0xbefba135	-0.4914643
34	0x3e2bc51e	0.16774413
35	0x3f9581ec	1.1680274
36	0x3e005e95	0.1253608
37	0x3e0029ce	0.12515947
38	0x3f54774f	0.8299455
39	0xbd3fb348	-0.046801835
40	0x3ea096e3	0.31365117
41	0x3adfa7ae	0.0017063522
42	0xbdb1d759	-0.086836524
43	0xbe95eb6d	-0.29281178
44	0x3e6b92b0	0.23005176
45	0xbd32faa5	-0.043696065
46	0x3dbf2bc0	0.093345165
47	0xbdffc14a	-0.12488039
48	0x3e6680f2	0.22510126
49	0xbe8dcc83	-0.27695093
50	0xbec2a9e3	-0.38020238
51	0x3e1ba96f	0.15201353
52	0xbdcda08a	-0.10040386
53	0x3eb05cfd	0.34445944
54	0x3f50a9e4	0.8150923
55	0x3decbe93	0.11559787
56	0x3e9b1ee5	0.30297008
57	0x3eaa409f	0.33252427
58	0xbe5dea1d	-0.21671338
59	0xbea9a6ca	-0.33135062
60	0xbd434f52	-0.047683068
61	0x3e93b2b6	0.28847283
62	0x3f60da95	0.8783353
63	0xbe1b561a	-0.15169564
64	0x3e390b8f	0.18070816
65	0xbf485b24	-0.7826407
66	0x3f41c9c1	0.7569848
67	0x3ed3d08a	0.4137004
68	0x3eaa6ec8	0.33287644
69	0x3e0365b1	0.12831761
70	0x3f0900cc	0.5351684
71	0x3f69b7c8	0.9129605
72	0xbf93dcb6	-1.1551731
73	0xbb8eae32	-0.004354262
74	0xbd4d5403	-0.050128948
75	0x3ef6caca	0.4820159
76	0x3f2bf189	0.6716543
77	0xbece5a17	-0.40303108
78	0x3f617c74	0.88080525
79	0xbd5059fe	-0.050867073
80	0x3efff580	0.4999199
81	0xbeae4820	-0.34039402
82	0x3f0bf206	0.54666173
83	0x3f27a823	0.6549093
84	0xbd8b825b	-0.06811973
85	0x3f1014d1	0.56281763
86	0x3e9fa205	0.311783
87	0x3f1db17f	0.6159896
88	0xbf8fc728	-1.1232653
89	0x3ef1a962	0.4719954
90	0x3e8f55f2	0.2799526
91	0x3dbc667a	0.09199233
92	0x3e2b3fb2	0.16723517
93	0x3f50777b	0.8143231
94	0x3f2dd98f	0.67910093
95	0x3f1d0bab	0.6134593
96	0xbfad1fa4	-1.3525281
97	0x3e1d5170	0.15363097
98	0x3ef49ae3	0.4777442
99	0x3f0f285b	0.5592095
100	0x3f0c96d4	0.54917645
101	0x3e5d465d	0.21608873
102	0x3d03f424	0.032215253
103	0x3f4536be	0.77036655
104	0x3e2adfad	0.16686888
105	0x3e439001	0.19097902
106	0x3e8aafcc	0.27087247
107	0x3f491951	0.78554255
108	0x3e45cf20	0.19317293
109	0x3ec10641	0.37700084
110	0x3dfcf9cc	0.123523325
111	0xbdfbdab3	-0.12297573
112	0xbeb4d4f0	-0.35318708
113	0xbc77f7b7	-0.015134743
114	0x3ebefc7e	0.3730201
115	0x3f24fd15	0.6444867
116	0xbd4d9266	-0.050188445
117	0x3e37fe97	0.17968212
118	0xbf11d44c	-0.56964564
119	0x3f52b353	0.8230488
120	0x3ee414e5	0.4454719
121	0x3ecb1ecf	0.39671943
122	0x3e45e75e	0.19326541
123	0x3edc8370	0.4306903
124	0x3f4521c8	0.7700467
125	0xbf9a7bc9	-1.2069026
126	0xbe3d91f8	-0.18512714
127	0xbe09aced	-0.13444872
128	0x3ec885c3	0.39164552
129	0x3f110e9e	0.5666293
130	0xbed3e293	-0.413838
131	0x3f44787f	0.7674636
132	0x3dc6e64d	0.09711895
133	0x3f00a840	0.5025673
134	0xbea11c90	-0.31467104
135	0x3ec8404a	0.3911155
136	0x3f1367be	0.57580173
137	0x3e12d0ad	0.14337416
138	0x3ebec27a	0.3725775
139	0x3f136cb7	0.5758776
140	0x3efafe1f	0.49022004
141	0xbf863708	-1.0485544
142	0x3f21c77f	0.6319503
143	0x3e80d53e	0.2516269
144	0x3ea8b143	0.3294774
145	0x3e4559f2	0.19272593
146	0x3f4b4e21	0.7941609
147	0x3f1f610e	0.6225747
148	0x3f3ad5f6	0.7298273
149	0xbfa8e86c	-1.319593
150	0xbd90856e	-0.070567
151	0x3efeb944	0.4975072
152	0x3f2072c8	0.6267514
153	0x3eeedb0a	0.4665149
154	0x3e355c2c	0.17710942
155	0xbd40c9ef	-0.04706758
156	0x3f25096d	0.6446751
157	0x3ea123f6	0.3147275
158	0x3e430e7f	0.19048499
159	0x3eba008e	0.36328548
160	0x3ec0d637	0.37663433
161	0x3f02ee3f	0.51144785
162	0xbe47d241	-0.19513799
163	0x3f0a80a8	0.54102564
164	0xbeb1fac4	-0.3476163
165	0xba8237ce	-0.0009934844
166	0x3dae9a5a	0.08525534
167	0x3c669798	0.014074229
168	0x3ecbf98a	0.3983882
169	0x3f0081f6	0.50198305
170	0x3eaf03fb	0.34182724
171	0xbf8c4cfa	-1.0960991
172	0x3ed93c85	0.42428985
173	0x3f5f83dc	0.87310576
174	0x3f17c23c	0.59280753
175	0xbbd7c346	-0.0065845577
176	0x3ee52b89	0.44759777
177	0x3f215ce1	0.63032347
178	0xbf580fa5	-0.8439887
179	0x3ed8b23d	0.42323485
180	0x3e8a9acd	0.2707123
181	0x3f1bc841	0.6085244
182	0x3f14c94a	0.5811964
183	0xbe268807	-0.16262828
184	0x3f56a10b	0.8383948
185	0x3f005424	0.5012839
186	0x3f0c253e	0.5474433
187	0xbc12029d	-0.008911756
188	0x3ee48c84	0.44638455
189	0xbd593188	-0.053025752
190	0xbe31f5dc	-0.17378944
191	0x3e0bf930	0.13669276
192	0x3d36dbf3	0.044643354
193	0x3f361f0b	0.7114112
194	0xbfdce064	-1.7255979
195	0x3e023130	0.12714076
196	0x3e9600db	0.29297528
197	0xbdbd0643	-0.0922971
198	0x3eae00f9	0.33985117
199	0x3e9a106d	0.30090657
200	0x3e77c908	0.24197781
201	0x3e8683ff	0.2627258
202	0xbee69fb7	-0.45043728
203	0x3ec8ba2d	0.3920454
204	0x3f402548	0.75056887
205	0x3eac3e57	0.33641312
206	0xbda23d7f	-0.07921886
207	0xbda1a291	-0.07892335
208	0x3d962a26	0.07332258
209	0x3f170dc3	0.59005374
210	0x3eea8789	0.4580653
211	0xbdee8cd9	-0.11647958
212	0x3e65f2a8	0.22455847
213	0x3ee192c2	0.4405728
214	0xbd020e35	-0.03175183
215	0x3ef89c5c	0.48556793
216	0xbc52d0ed	-0.012867195
217	0xbf736c6c	-0.95087314
218	0x3e9c1019	0.30481032
219	0x3edde8cb	0.4334167
220	0x3e9cabba	0.30599767
221	0x3ee4c177	0.44678852
222	0xbd0b8742	-0.03406454
223	0x3d42ca7e	0.047556393
224	0xbfb60a31	-1.422186
225	0x3ef81af3	0.4845806
226	0x3d5b9b7b	0.053615075
227	0x3ebc08c7	0.36725447
228	0xbe42846e	-0.1899583
229	0x3ea2b9bf	0.31782338
230	0x3f3eda3e	0.7455176
231	0xc03b4d8e	-2.9266086
232	0x3e31cbd9	0.17362918
233	0x3dc582e0	0.09644103
234	0x3e9adce2	0.30246645
235	0x3e9ae250	0.30250788
236	0x3e4ea706	0.20180902
237	0x3ebb3a2f	0.36567828
238	0x3e938d08	0.28818536
239	0x3f34047e	0.70319355
240	0x3c87cb05	0.0165763
241	0x3eb3ab3f	0.35091588
242	0x3ee6244b	0.44949564
243	0x3e61b86a	0.22043005
244	0xbf3a3a28	-0.7274499
245	0x3f44b7e5	0.768431
246	0x3eff450e	0.49857372
247	0xbfc6f3bc	-1.5543132
248	0x3f00a0b2	0.502452
249	0x3db2be88	0.08727747
250	0xbf558c8c	-0.8341758
251	0x3e5c9b1f	0.21543549
252	0x3eaa99a4	0.33320343
253	0x3f392e19	0.72335964
254	0x3f176fd1	0.59154993
255	0xbbab7411	-0.005232342

l5.bias f4 [85]
0	0x3f3a2f85	0.7272876
1	0x3e900744	0.28130543
2	0x3effee02	0.49986273
3	0x3f215c52	0.63031495
4	0x3edd57ca	0.4323104
5	0x3eaa350a	0.3324359
6	0x3ec68e3e	0.38780397
7	0x3ec23272	0.37929112
8	0x3e96e8b0	0.294744
9	0x3e8bafcb	0.27282557
10	0x3f34bbeb	0.7059924
11	0x3f274df7	0.6535334
12	0x3e09731f	0.13422821
13	0x3f1e42dc	0.6182077
14	0x3f3dacc2	0.7409173
15	0x3efe1d59	0.49631765
16	0x3ef86827	0.48516962
17	0x3f04efe6	0.51928556
18	0x3f12a28d	0.5727928
19	0x3f1cc4ef	0.61237997
20	0x3f23589e	0.63807094
21	0x3f0f9e94	0.56101346
22	0x3ed30076	0.4121129
23	0x3f5e7b3e	0.869068
24	0x3f10052e	0.56257904
25	0x3e2a2d7a	0.1661891
26	0x3f3687c6	0.71300924
27	0x3f45e19e	0.7729739
28	0x3f189ffb	0.5961911
29	0x3e9c9367	0.3058121
30	0x3e84d6d1	0.25945142
31	0x3f047757	0.517446
32	0x3f28cb41	0.6593514
33	0x3f5845c0	0.8448143
34	0x3efbf6a9	0.49211624
35	0x3f216976	0.63051546
36	0x3eb77844	0.35833943
37	0x3f60f8f1	0.87879854
38	0x3f12234a	0.57085097
39	0x3ed1cc0e	0.40975994
40	0x3f460e11	0.77365214
41	0x3e31125e	0.17292163
42	0x3e871dee	0.26390022
43	0x3ed749c6	0.42048472
44	0x3e74a7b1	0.23892094
45	0x3f20f55d	0.62874395
46	0x3eb52bbf	0.35384938
47	0x3efe820e	0.497086
48	0x3f26087b	0.6485669
49	0x3f3b7917	0.73231643
50	0x3f3aab26	0.729174
51	0x3f080649	0.5313459
52	0x3f65348d	0.8953331
53	0x3e6c8d60	0.23100805
54	0x3d4e348b	0.050343078
55	0x3f0037a9	0.5008493
56	0x3f321c7b	0.6957471
57	0x3e551c25	0.20811518
58	0x3f2212ed	0.6331013
59	0x3f2ba0a6	0.67042005
60	0x3f6edd39	0.9330631
61	0x3f03125a	0.5119988
62	0x3f3db96d	0.7411106
63	0x3f3ba305	0.73295623
64	0x3f119b4b	0.56877583
65	0x3f4779dd	0.77920324
66	0x3f2fd1de	0.68679607
67	0x3f413e6d	0.7548588
68	0x3e4defc6	0.20110998
69	0x3f055013	0.5207531
70	0x3e1f96bb	0.15584843
71	0x3e83456a	0.25638896
72	0x3f24b473	0.64337844
73	0x3f450cfd	0.76972944
74	0x3f098062	0.5371152
75	0x3f0130ef	0.5046529
76	0x3f3ec291	0.74515635
77	0x3f0803cb	0.5313079
78	0x3f415e6b	0.75534695
79	0x3f56242e	0.83648956
80	0x3dcff683	0.1015444
81	0x3f5965cb	0.8492095
82	0x3f05a57e	0.52205646
83	0x3f2a4cbb	0.6652333
84	0x3f2543ed	0.6455677
