models/model_DDNN.pt (torch, 127233 bytes, 12 tensors)

l1.weight f4 [189, 9]
000000 b1 5b 3d bc a5 02 cc bf 3c b3 b1 3f 0c 8c 0d 3f
       -0.0115575055 -1.5938307 1.3882823 0.5529182
000010 b2 6c 47 c0 3c a2 56 bf 25 3b 0c c0 19 f1 38 bf
       -3.1160092 -0.838413 -2.19111 -0.72242886
000020 57 06 03 bf bd f0 19 3b 8c 2b c0 3f 21 33 d5 bf
       -0.5118155 0.0023489438 1.501329 -1.6656228
000030 27 24 f7 be 4f 85 aa bf af 30 65 c0 cc bb 37 3e
       -0.4826977 -1.3321933 -3.5810964 0.17942733
000040 71 8c a2 bf 81 47 f6 be c9 9d d8 bc 95 e5 68 c0
       -1.2699109 -0.48101428 -0.026442425 -3.6390126
000050 c9 bf 48 40 5f f6 72 bf 96 fc a1 be e9 74 be 3e
       3.1367056 -0.9490718 -0.3163802 0.3719857
000060 83 9b 36 bd 0f 20 d1 bf ed 1b 31 bf 39 02 3f 3a
       -0.0445819 -1.6337909 -0.69183236 0.0007286403
000070 88 fb 1a 3e ab 4a 28 40 f1 57 70 bf 2d e0 4b be
       0.15135014 2.6295574 -0.9388419 -0.19909735
000080 2b a6 83 be 7b 76 3b bf ce f1 3d bf 94 f0 e7 bd
       -0.25712714 -0.7322766 -0.7419709 -0.113251835
000090 0f c9 08 3b 0b 06 31 3f a9 d4 27 3f d4 4b 2f 3f
       0.0020871793 0.69149846 0.6555887 0.6847508
0000a0 bc bc 50 bd e8 4c 38 c0 ea 62 e9 bf 1e 95 a7 bf
       -0.05096124 -2.879694 -1.8233311 -1.3092382
0000b0 8a 5b 53 bf 0b 99 1d bc 60 b4 ce 3d 6c 87 82 3f
       -0.8256155 -0.009619008 0.100929976 1.0197577
0000c0 80 32 7b bf d8 de e3 3e 86 67 8f bf 5e 2e 7f c0
       -0.9812393 0.44505954 -1.1203468 -3.987205
0000d0 f3 1d ac bf 94 66 02 bf 7d c0 b8 b8 82 18 ed bf
       -1.344664 -0.5093777 -8.8096574e-05 -1.8523104
0000e0 1b 92 8e bf 3e 10 07 be 2f 6c 99 bf f0 4c 3d 3f
       -1.1138338 -0.1318979 -1.198614 0.7394552
0000f0 e5 04 0c bc ff 9a dd bf 70 6c 08 3f 7d d9 45 bb
       -0.008546089 -1.7312926 0.5329046 -0.0030189448
000100 98 9f a9 bf 11 d4 c1 be 97 ed 10 3e d3 35 9c 3f
       -1.3251829 -0.37857106 0.14153133 1.2203926
000110 33 7b 4e c0 cf e9 41 bf be 19 f0 3d 8e 20 e3 3d
       -3.2262695 -0.7574739 0.1172366 0.11090194
000120 76 74 cd 3a a3 54 6a bf 55 6d 0c c0 2d 0e d5 bd
       0.0015674967 -0.91535395 -2.194173 -0.104030944
000130 0c 70 cc bf 02 50 ec bf 3b 75 30 3f 8f da 5c 3e
       -1.5971694 -1.8461916 0.6892888 0.21567748
000140 13 ea 3b bf 60 de af bb c1 80 be be e6 98 c3 bd
       -0.73404044 -0.0053670853 -0.37207606 -0.095506474
000150 8f e0 ac bf 44 8e 34 3f 75 4e 63 40 64 33 e0 bf
       -1.350603 0.7052958 3.5516636 -1.7515683
000160 69 0d 94 3e c9 64 8e 3d 25 fc 07 3b dd 0f 06 c0
       0.2891648 0.06952817 0.0020749655 -2.0947182
000170 cd 21 23 40 c7 2d 04 3e e2 df 15 c0 e9 1f 5a bd
       2.548938 0.12908088 -2.3417897 -0.05325309
000180 2b e4 79 3d 9b 18 05 c0 af 4f 17 be 0d f3 ec 39
       0.061008614 -2.0796268 -0.1477649 0.00045194515
000190 78 73 29 3e 8c 00 c6 bf 8e bc 61 be 35 1c 17 bf
       0.16547954 -1.5468917 -0.22044584 -0.59027416
0001a0 97 e9 b8 be 14 2d 5e be 75 e2 98 3f 2f 1e ef 3e
       -0.36115715 -0.21696883 1.1944109 0.46702716
0001b0 74 00 b8 3c 01 f3 3a 40 29 ca fd 3e df 1a a1 3e
       0.022461154 2.9210818 0.49568298 0.31465814
0001c0 c6 e5 24 be a7 bb a4 be cd 23 2d c0 21 c8 80 bf
       -0.16103277 -0.32174417 -2.70531 -1.0061074
0001d0 9d 6e d2 be 97 0e 0e bc 32 1a 08 bf 1b bb 48 bf
       -0.41100016 -0.008670471 -0.5316497 -0.784105
0001e0 f6 69 b6 bd f0 e7 01 40 12 a2 2e c0 cd 4e fa bd
       -0.08906929 2.0297813 -2.728642 -0.12222061
0001f0 4f 61 90 bf 38 8f 69 3f c2 96 8e 3b bc 09 9e be
       -1.1279696 0.9123416 0.004351468 -0.30866802
000200 1e 17 88 bf c8 e5 4b 37 c8 65 e4 be 9b 22 26 c0
       -1.0632055 1.2153243e-05 -0.44608903 -2.5958622
000210 87 e2 b9 3e 88 83 fc bf b7 4f c3 be 37 79 b2 ba
       0.3630564 -1.972764 -0.38146755 -0.0013616447
000220 f2 77 e6 be 38 d9 fa 3f dc 52 d0 bd ff a0 7d c0
       -0.45013386 1.959754 -0.10172054 -3.9629514
000230 d0 46 63 bf a3 e3 52 bc 27 85 48 3f dc e7 04 bf
       -0.88779926 -0.012871656 0.78328174 -0.5191629
000240 d4 55 9f bb 6f df a5 bf aa e8 96 bf c4 f4 ea bd
       -0.0048625264 -1.2958812 -1.1789753 -0.114724666
000250 64 54 3d be b6 b0 e5 be d9 b6 92 bf 3a f9 ae bf
       -0.18489224 -0.44861382 -1.1462051 -1.3669808
000260 93 75 06 3f d1 ce 6d bb cc d5 43 40 ff df 3b 3f
       0.52523154 -0.0036286602 3.0599241 0.73388666
000270 f5 95 59 be 11 d1 ab 3e 96 15 77 bf ab 3a 0a c0
       -0.2124861 0.33557943 -0.9651731 -2.1598308
000280 6e c6 d8 bf 2f 64 d0 bf 80 e3 21 3a 33 3a ef 3e
       -1.6935556 -1.6280574 0.0006175563 0.4672409
000290 17 7a dd bf 75 ee ef bd 55 52 d9 bf cf 65 06 c0
       -1.7302884 -0.11715404 -1.6978251 -2.099964
0002a0 74 4e 85 be 8c ec 56 3e 46 78 21 bf b6 66 c3 b9
       -0.26036417 0.20988673 -0.6307415 -0.00037269824
0002b0 53 a3 8e bf 2e 3b 8e bf 91 7f 03 be 23 e4 ad bf
       -1.1143593 -1.111181 -0.12841631 -1.3585247
0002c0 16 63 0f 40 e5 78 b2 be 94 f3 99 bf 37 c6 0c 3f
       2.2404227 -0.3485786 -1.2027459 0.5498995
0002d0 d3 28 09 3c 16 c6 46 bf 4d 4d bc 3f 1e 24 f9 3e
       0.00837155 -0.77646005 1.471109 0.48660368
0002e0 cb 46 7b c0 b6 2f 87 3f b9 bf 08 40 a7 4b 9d be
       -3.9261959 1.0561435 2.1367018 -0.3072178
0002f0 c4 cb 8c 3e 2d 09 c1 3a c6 cd 43 c0 9d c9 fd bf
       0.2749921 0.0014727466 -3.0594344 -1.9827152
000300 90 3e 69 be 92 3d f8 3f a2 ab 8c 3f 6e d4 52 3f
       -0.22777772 1.939379 1.0989878 0.8235539
000310 55 b8 96 bf d6 fa 32 bf cf b1 e9 bb 61 e5 47 bd
       -1.1775004 -0.69913995 -0.007131792 -0.048802737
000320 32 96 8a 3f 42 6c d2 3d 7a 90 2f c0 06 1f 53 c0
       1.0827086 0.10274555 -2.7431931 -3.2987685
000330 7d 5d f7 bd b9 83 f3 bf bc 0b 54 3f 79 0f 48 3c
       -0.12078378 -1.9024574 0.82830405 0.01221072
000340 4d b6 ae bf 9c 8f a1 bf ba 4f ca be 7c a0 96 3f
       -1.3649384 -1.2621951 -0.39513952 1.1767726
000350 c5 c5 8a bf f0 f2 0f 40 4a c1 50 bf 48 dc 50 3f
       -1.0841604 2.2492027 -0.81544936 0.8158612
000360 d4 b9 87 bc 8e 43 bd 3b c0 ef 80 3f f3 cb d1 3f
       -0.016568102 0.0057758754 1.0073166 1.6390365
000370 26 45 a6 3e ea 94 5d bd 1e e4 d9 be 86 b3 fe bf
       0.3247463 -0.054097094 -0.42556852 -1.9898536
000380 ad e5 47 c0 50 0d b0 3b 27 da 14 bf fb bb 30 c0
       -3.1233933 0.0053726807 -0.58145374 -2.7614734
000390 1a 2a 22 be 56 f4 73 c0 11 80 91 3e b8 da 40 3f
       -0.15836373 -3.811788 0.2841802 0.7533374
0003a0 f5 c3 9f 3e c8 c8 9c bf ae 8b ab bb 7a 1b 00 c0
       0.3120419 -1.2248774 -0.005235157 -2.001677
0003b0 1e 63 8c bf 2b 2d 41 be 7e dc e1 be 01 b8 27 be
       -1.0967748 -0.18864886 -0.44113535 -0.16378786
0003c0 5a b0 9f bf 06 28 b0 bf bf 78 b4 3e cc 42 10 3c
       -1.2475693 -1.3762214 0.35248372 0.008804988
0003d0 50 ef 45 c0 1b 6a 24 40 8a 8d 31 bf 07 34 65 be
       -3.0927315 2.5689762 -0.69356596 -0.22383128
0003e0 b8 b2 63 bf b7 c3 0a c0 fb 41 39 3f 2b 1a f6 bf
       -0.8894458 -2.1681955 0.72366303 -1.9226736
0003f0 4b 72 ea ba e4 54 73 bf 07 71 92 bf 3e 3f 3e be
       -0.0017886845 -0.9505141 -1.1440743 -0.18578812

l1.bias f4 [189]
000000 86 bd df bf 66 b4 b9 3e 31 6e 89 bf a7 c7 16 bf
       -1.7479713 0.36270446 -1.0736753 -0.58898395
000010 61 38 e5 bd 2f 51 ed 3e 43 40 dc 3e c0 21 2f 3f
       -0.11192394 0.46351 0.43017778 0.68410873
000020 0d f2 28 be 36 cd 75 bf 3e dc c4 be 5c c9 2e 3f
       -0.16498585 -0.9601625 -0.3844928 0.68276
000030 e0 dc 08 3e 72 ec 2d 3f 59 b9 f2 3e 8e 11 d3 3d
       0.13365507 0.6793891 0.47407034 0.10306083
000040 dd be 8f 3e de fd 5c be 2c 0f 27 3e bb bd 4a 3f
       0.28075305 -0.21581218 0.16314381 0.79195756
000050 fb 14 5f be 3d fd 3b bf bc d5 6c 3e 63 81 91 be
       -0.21785347 -0.73433286 0.23128408 -0.28419027
000060 04 2e c7 bf 00 a1 c8 bc 2e 65 f8 3d be b9 04 3d
       -1.5560918 -0.024490833 0.121286735 0.0324037
000070 3d 97 ae 3c 05 c6 0f 3e 82 25 88 bf 2d 5a 12 bf
       0.02131235 0.14040382 -1.0636446 -0.5716885
000080 61 09 5f 3f 52 31 79 bf 84 72 8b 3e 04 e2 90 3e
       0.87123686 -0.9734088 0.27235806 0.28297436
000090 e5 86 24 3f 20 02 83 bf b7 6e 2d c0 19 f1 5b bf
       0.6426833 -1.0235023 -2.7098825 -0.8591476
0000a0 8f 1c 7e 3f 1d 67 86 be 18 1b 6f bf 5f 05 68 bf
       0.99262327 -0.26250544 -0.93400717 -0.90633196
0000b0 2d 55 3c 3f c1 1a bd 3e 39 8e 3a bf a1 05 6b be
       0.7356747 0.36934474 -0.72873265 -0.22951366
0000c0 e9 63 ee 3d 56 e7 31 bf 50 09 ce 3e 54 a9 c5 3d
       0.1164015 -0.69493616 0.4024148 0.096514374
0000d0 ca f5 cc bd 79 97 77 bd 0f 60 d8 bf 3d 5b be 3d
       -0.10007818 -0.06044719 -1.6904315 0.09294746
0000e0 a0 ff 9c 3e 19 71 04 bf 60 10 9f 3e b2 17 5c 3f
       0.30663776 -0.51735073 0.3106718 0.85973656
0000f0 d5 ad 6c 3b a6 17 94 3c e0 81 17 bd ca 43 7b be
       0.0036114354 0.018077683 -0.036989093 -0.24537578
000100 d8 7f 55 bd f7 22 84 3e 19 ad c4 bf c6 1f c1 bb
       -0.052123874 0.25807926 -1.5365325 -0.0058936803
000110 09 1f 20 be a6 3d 0b bd 06 fc 41 bf 34 f3 f4 3d
       -0.15636839 -0.03399434 -0.7577518 0.1196045
000120 2d 20 8a bf c0 fb bc be c6 2a c6 bd 66 60 52 bc
       -1.0791069 -0.3691082 -0.09676127 -0.012840366
000130 b7 dd 66 bf 72 1f 2c 3f bc 96 03 bf c1 a5 dc 3d
       -0.9018206 0.6723548 -0.5140188 0.107738025
000140 0d ca 9f 3e 1a 73 fb bf ca 8a 63 be ac ab 51 3f
       0.3120884 -1.9644501 -0.22220913 0.81902575
000150 b0 77 91 3e bc b4 e7 3e 35 d9 01 3f ec bd 26 be
       0.28411627 0.45255077 0.50722057 -0.16283387
000160 f2 22 92 be 3f f2 8f be 42 3a cb 3e cc 04 8d be
       -0.28542286 -0.28114507 0.39692885 -0.27542722
000170 7d 6e 8f 3d 13 e5 ce bf 33 62 56 3f 2f a5 36 3e
       0.07003496 -1.6163658 0.8374359 0.1783645
000180 11 94 a6 bf f1 71 3a 3f 8b 49 b8 3e 5b a7 8f 3c
       -1.3013936 0.7283011 0.3599361 0.017535856
000190 64 0d 16 bf b4 9b 55 be a5 68 81 3f 70 9e da 3e
       -0.5861418 -0.20860177 1.011006 0.42699003
0001a0 24 a5 fa 3c 3e 01 a7 be 86 05 b1 bd 9c 5f 02 bf
       0.030596323 -0.32618135 -0.08643632 -0.5092714
0001b0 8b 52 34 3f f4 a5 67 3e b2 bb d5 be 9c 2d b7 3e
       0.7043845 0.226219 -0.41744763 0.35776985
0001c0 90 98 7f bf 60 2c 5c be 10 de 8e bf 96 42 49 3f
       -0.99842167 -0.21501303 -1.1161518 0.7861723
0001d0 d5 08 f4 3e fd 0e 57 be 30 3d 45 3f 6e f2 92 be
       0.47662988 -0.21001811 0.7704649 -0.28700584
0001e0 3e 9e 17 3e 78 06 d5 bf 97 be 3c bd 63 c7 bf be
       0.14806458 -1.6642599 -0.0460802 -0.37456807
0001f0 8d ff ef be 16 fd 15 3f a2 2e 69 3f b0 2f 2c be
       -0.46874657 0.58589303 0.9108678 -0.16815066
000200 a1 27 e3 3e 16 1d ee 3e fa b4 dc 3d 37 2c 91 3d
       0.44366172 0.46506566 0.10776706 0.070885114
000210 87 b5 c1 3e 4f a8 32 3f 21 8d 29 3e 95 4b 42 3f
       0.37833807 0.6978807 0.16557743 0.7589658
000220 87 21 80 bd 74 2d 84 bf 06 4a 24 bf 04 44 2f bf
       -0.06256395 -1.0326371 -0.6417545 -0.6846316
000230 84 f1 95 bf fa 66 26 be df 0f 98 3d cc d7 26 3f
       -1.171433 -0.1625022 0.07424902 0.6517303
000240 a4 13 d8 3e b7 5e 9c be 81 19 e6 3d 4c 46 87 3e
       0.42202485 -0.30541012 0.11235333 0.2642082
000250 a2 92 ee bf cb 6a be be 78 fe 54 3f c5 ed 27 3f
       -1.8638499 -0.37190852 0.8320079 0.6559718
000260 1c a7 5b be de d6 2c bf dc d5 d9 bc ea 97 80 3e
       -0.21450466 -0.6751536 -0.026591234 0.251159
000270 b5 94 4b 3f 17 fa e6 3b 4a 12 04 bd 82 89 eb be
       0.79523784 0.007048856 -0.032244004 -0.46003348
000280 68 5e 5b 3f 04 7e df 3d 60 c4 c5 be 4c 9f 6c bf
       0.8569093 0.109127074 -0.38626385 -0.9243057
000290 5a 34 07 bf 84 94 5e 3e fe b6 46 3f a7 75 92 3f
       -0.5281426 0.21736342 0.77622974 1.1442155
0002a0 fc 7e 58 3f b9 5b 86 bf e9 39 c4 3e e8 57 55 3f
       0.8456876 -1.0496742 0.38325432 0.8333726
0002b0 3d 8f c0 bf 7c d1 82 3e 8c 23 9c bf 43 42 92 3e
       -1.5043713 0.2555045 -1.2198348 0.2856618
0002c0 2d 6d ab bd ab 37 6f bf a8 7e c2 bb 82 99 bc bd
       -0.08370433 -0.9344432 -0.0059355088 -0.09208967
0002d0 42 43 32 bf 66 a9 6d bf 72 35 32 bf 37 32 68 bf
       -0.6963388 -0.92836607 -0.696128 -0.9070162
0002e0 36 09 e2 bd 79 b2 10 bf 3e 91 63 bf 98 29 84 bf
       -0.11036913 -0.5652233 -0.88893497 -1.0325193
0002f0 f3 16 75 3e
       0.23934536

l2.weight f4 [119, 189]
000000 69 f6 8d bd d9 6f 92 3e 73 2b 8b 3b a3 77 b6 be
       -0.06931765 0.28600958 0.004247123 -0.3563815
000010 0f be 37 3e 76 d8 7a 3e 11 53 91 3e 88 2a 12 3e
       0.17943595 0.24496636 0.28383687 0.14274037
000020 6f f3 a0 3e 18 0c f8 bf fc 80 1d bf 89 46 d7 3d
       0.31435725 -1.9378691 -0.6152494 0.105115004
000030 ca c6 b8 3d 43 0a f4 3e 3f 4b 85 3e f1 21 43 be
       0.09022291 0.4766408 0.2603397 -0.19055916
000040 11 a8 a8 bc 43 b3 82 3e 69 cd 73 3d c7 4b da 3e
       -0.020587953 0.2552739 0.059522066 0.4263594
000050 8d 39 0a bf 6c 27 05 bf bf 22 ba be a4 05 ab 3d
       -0.53994066 -0.5201328 -0.36354634 0.08350685
000060 73 b4 8f be 25 93 5d be bc 6e 71 be 28 ce 1e bf
       -0.2806736 -0.21638162 -0.23577398 -0.6203332
000070 1b e5 38 3e b2 3a 7b bd 83 af c7 be 8c cb b4 bd
       0.18056147 -0.061335273 -0.39001092 -0.08827886
000080 26 a2 bb bd 22 a4 b5 be b2 65 9c 3e f2 5d 23 bb
       -0.09161787 -0.35476786 0.30546337 -0.0024927822
000090 bc 36 83 3e 2b b7 41 be ce 98 91 be 01 66 3f bf
       0.25627697 -0.1891753 -0.28436893 -0.7476502
0000a0 93 4e 7e 3e 82 9e 82 3e e5 6e 00 3e a3 94 4a bf
       0.24834661 0.25511557 0.12542303 -0.7913305
0000b0 cd 20 fa bc ae ff e8 bd 31 85 99 3d 7e 80 2f 3e
       -0.030533219 -0.11376892 0.07496107 0.1713886
0000c0 43 50 ef 3e 36 72 01 be 35 d1 ed bc 9f 6a 30 3e
       0.46740922 -0.12641224 -0.029030422 0.17228173
0000d0 9d 1d 58 bd 86 c9 aa bd 69 20 c2 bd b5 3f 72 3e
       -0.052762616 -0.08339219 -0.09478838 0.23657115
0000e0 c9 fd a3 3d ad bc 2d 3c 8b 70 b2 3d 00 cf 55 be
       0.0800739 0.010604066 0.08712872 -0.20879745
0000f0 7e f1 67 3d e2 ac 2d 3f 37 f4 f9 bd aa e8 b1 3e
       0.05662679 0.67841923 -0.122047834 0.3474782
000100 5c b2 90 bd 44 85 6e 3e 6a 6c 22 bf d2 bc 19 3e
       -0.07065269 0.23293024 -0.63446677 0.15013435
000110 96 0d 31 be 44 7d 55 3e 4b 58 20 be 00 13 14 bf
       -0.17290339 0.20848566 -0.15658681 -0.5784149
000120 f4 37 df be c2 7a 61 3e 60 d7 4c 3e fd 21 c0 bb
       -0.43597376 0.22019485 0.20004034 -0.0058634267
000130 b4 13 f4 3e dd 20 88 3e 1e b7 1b be d7 90 97 bc
       0.47671282 0.26587573 -0.15206572 -0.018501682
000140 43 f1 f6 3e db 10 06 be d8 1a aa be 45 b7 39 be
       0.48230943 -0.13092367 -0.33223605 -0.18136318
000150 53 0c e8 3c 38 c9 a3 3e 23 2f 11 3e d1 21 10 bf
       0.02832619 0.31989455 0.14178137 -0.563016
000160 42 b4 10 be a2 f9 99 3e b8 67 f5 3e 99 6d 3e bf
       -0.14131263 0.30073267 0.47930694 -0.7438598
000170 2e c3 2b bd a9 f6 ca 3c 11 57 a1 3d dc 70 69 3e
       -0.041934185 0.02477582 0.07877935 0.22796959
000180 1d 08 e1 3d e7 95 a4 3e 63 b8 9d 3e 19 86 ad be
       0.109878756 0.32145616 0.30804738 -0.3389137
000190 28 59 48 bf 58 82 01 3d 6e 29 ac bd 8e c2 17 be
       -0.7826104 0.031618446 -0.084063396 -0.1482031
0001a0 1c d7 46 be 19 97 ce 3d d6 13 a9 be 1a 3d be 3e
       -0.19417995 0.10087413 -0.33022946 0.37155992
0001b0 0e 27 0e be ec a8 a6 3e 7e 71 58 3d 60 5c 48 3e
       -0.13882086 0.32550752 0.05284261 0.19566488
0001c0 52 42 04 c0 5e b6 ba bd 33 66 70 3d 41 7f c1 be
       -2.0665479 -0.09116815 0.058691215 -0.377924
0001d0 42 a1 5a 3e 24 fa 27 be 31 81 a1 bd 4f 7b 03 3f
       0.21350577 -0.16404015 -0.078859694 0.5136003
0001e0 a2 44 a5 3e 49 9b 65 be e7 7d a5 3e 6f 9d ec bd
       0.32278925 -0.22422518 0.32322618 -0.115534656
0001f0 47 70 fd 3b d0 25 fa 3d 8e 52 56 be 72 a4 65 3e
       0.007734332 0.122142434 -0.2092993 0.22426012
000200 5a da 21 3e 12 ae 21 3d d3 ae 2f 3e 5b 75 f5 bd
       0.15805951 0.039472647 0.17156534 -0.119852744
000210 0e 5a 8c 3d 27 76 8e 3c 7f 49 e6 bc 2e 81 ef bd
       0.06853114 0.017390324 -0.028111218 -0.11694561
000220 e2 32 f9 3e 80 82 9d be 6d e1 8d bf f3 13 79 bf
       0.48671633 -0.30763626 -1.108442 -0.97296065
000230 c3 54 36 bf b1 92 ba be 8b 24 60 3d 95 3c 5a be
       -0.71223086 -0.36440042 0.05472235 -0.21312173
000240 8d 02 31 be 91 91 17 3e ed e5 0e bd f7 61 14 be
       -0.1728613 0.14801623 -0.034887243 -0.14490496
000250 28 51 3c 3e 13 43 03 bf 79 e8 7e be b6 93 22 3e
       0.18390334 -0.5127422 -0.24893369 0.1587666
000260 13 c7 10 bd a9 f4 41 bf 97 7c e4 3e 6c f8 10 3f
       -0.035346102 -0.75763947 0.44626305 0.5662906
000270 c1 e5 9f bd e2 a0 c2 3e c3 4f aa 3e a3 8d 0b bf
       -0.07807494 0.3801337 0.33263978 -0.54512995
000280 db 40 9c be 88 e6 ad bd 0b 23 3a bd 92 77 3c 3f
       -0.3051823 -0.08491236 -0.045443576 0.7361995
000290 00 c7 e9 be 60 a9 b7 3e e3 96 88 3e 23 2b 79 be
       -0.45659637 0.3587141 0.26677617 -0.24332862
0002a0 98 16 dd 3d 98 af 1d bf 2c f5 51 3e 6d ba 4b be
       0.10795325 -0.6159606 0.20503682 -0.19895335
0002b0 5d 1c 82 c0 13 2b d5 bc f7 48 87 3d 3b 16 83 3e
       -4.0659623 -0.026021516 0.06605714 0.25602898
0002c0 7b a7 12 be 3b 1d 04 bf dc 72 28 3c c6 6f f1 3e
       -0.14321701 -0.516071 0.010281291 0.4715559
0002d0 1a cd 63 3c cb 56 69 bb 14 de 13 bf af 0e 1c 3f
       0.0139038805 -0.003560471 -0.5776074 0.60959905
0002e0 f0 54 af be 31 98 48 3e 5b 9c 34 bd a2 aa 25 bf
       -0.3424449 0.19589306 -0.044094425 -0.6471349
0002f0 7f da 2c 3d cd 51 cb 3d 1d 31 0f bf 93 f9 41 3e
       0.04220056 0.09927712 -0.55934316 0.18942861
000300 c3 aa 31 be 4e 23 d0 3d 2b 18 52 be 5a 09 27 3d
       -0.17350297 0.10162984 -0.20517032 0.040780403
000310 c6 17 24 be 31 cd 7d be c9 5f 9c 3e 6e 34 b2 3c
       -0.16024694 -0.24785306 0.30541828 0.021753516
000320 e3 cd c0 3d b8 4e 30 3d 5c bb cb be 7d e2 31 be
       0.0941427 0.043043822 -0.3979138 -0.17371555
000330 36 36 13 bf 2e 80 c0 3e 0b bc 01 be c6 d7 0b be
       -0.57504594 0.37597793 -0.12669389 -0.1365653
000340 ab 66 2a 3e 45 63 2b bf 44 9b 93 3e 4b db ea be
       0.16640727 -0.6694835 0.28829396 -0.45870432
000350 b7 e1 91 bd 4c 03 73 3e 64 9b 0c bf 91 5c 65 3e
       -0.0712313 0.23731726 -0.5492461 0.22398593
000360 dd 59 0e 3f 6e 6d 8e be 2b 62 8a 3b 61 8d 63 3e
       0.5560587 -0.27817863 0.0042231283 0.222219
000370 48 03 5f 3e c8 c3 73 3d 79 bb 2c 3f 9f 31 9a 3e
       0.21778595 0.059512883 0.6747356 0.30115983
000380 bb e5 6a 3b 36 5f 99 be f0 9f ea 3d 3d 42 01 3f
       0.0035842496 -0.29955453 0.11456287 0.50491697
000390 bf 60 1c bd 41 3b 99 bd f8 37 6a be 53 03 0a be
       -0.0381782 -0.07482005 -0.22872913 -0.1347783
0003a0 1d 4a 5e 3e 34 18 dc 3e 5b 2e 65 3e 86 c3 e8 3d
       0.2170796 0.42987216 0.22380964 0.11365418
0003b0 dc 3c e8 bd 6c d6 42 3d a2 61 91 be e5 84 b5 3e
       -0.11339733 0.04756777 -0.283948 0.35452953
0003c0 fb c5 97 3d 14 18 1c bf 31 05 f1 be c6 5b 62 3d
       0.07410809 -0.6097424 -0.47074273 0.055263303
0003d0 72 9f 81 3d e9 77 48 3e fb e1 de be 73 fa 66 be
       0.0632924 0.19576992 -0.43531784 -0.22556476
0003e0 eb d6 89 3e 85 44 9a bd fd f1 18 bf 0b 64 9f 3e
       0.26921782 -0.075326 -0.59744245 0.31131014
0003f0 d2 1d 64 be d9 a4 37 3d 1e 42 dd bd 35 5d 0b 3f
       -0.22277 0.044834945 -0.108036265 0.544391

l2.bias f4 [119]
000000 bf 10 ad bd 5f 58 47 3f 95 de 89 be 49 b0 e7 bd
       -0.0845046 0.7786922 -0.2692763 -0.113129206
000010 9e d7 5a 3e d7 36 35 3f be 13 e1 be 6d 9d 67 3e
       0.21371314 0.70786804 -0.43960375 0.22618647
000020 8c 4f 5f 3f 75 e8 5c 3e 99 2c e2 3e b1 67 61 3f
       0.87230754 0.2157305 0.4417465 0.88048846
000030 47 6d b0 3e 6b db 10 3f dd d1 e7 3e 1b 9d 12 bd
       0.34458372 0.56584805 0.452773 -0.03579436
000040 2e dd 0e 3f fc ad 40 3f 47 86 0a 3c 1a af 38 3f
       0.55806243 0.7526548 0.008454866 0.72142184
000050 8c 2b d0 3e 79 d0 2b 3f 96 ea 8b 3e b2 45 76 3e
       0.40658224 0.6711498 0.27327412 0.24050024
000060 14 44 4d 3f 3b 30 49 3d 04 11 8f 3e f2 5c 07 3f
       0.80182004 0.04911826 0.2794267 0.528762
000070 61 64 71 bd 65 bc 70 3f 5d fc 58 3f 7f c1 11 bf
       -0.05893362 0.9403747 0.84760076 -0.56935877
000080 a8 f4 2d 3e 94 68 70 3f cf fd 83 3f 0b f0 3c 3f
       0.1698786 0.93909574 1.0311831 0.73803777
000090 ef 31 4b 3e 3b 0e 26 be e2 81 7c 3f 2b 03 e3 3d
       0.19843267 -0.16216366 0.98635685 0.110845886
0000a0 80 a3 5c 3e 9e 0e dc 3e d5 51 99 be c1 50 d9 be
       0.21546745 0.42979902 -0.29945245 -0.42444423
0000b0 3f f1 29 3f fd 2c a1 3c 3f c5 eb 3e 4b a3 db 3e
       0.6638374 0.019674772 0.46048924 0.4289802
0000c0 77 23 8b 3f 72 c4 82 3f 5b e0 f9 3e e4 f4 34 3e
       1.0870198 1.02162 0.48803982 0.17671543
0000d0 98 53 1f 3e 81 67 31 3f 92 5d c8 3e 21 6a 61 3e
       0.15559232 0.6929856 0.39133888 0.22013141
0000e0 c2 a4 15 3f 51 17 9e 3e 0e 6a 5f 3f 66 c6 2c 3f
       0.58454525 0.30877164 0.872712 0.6749023
0000f0 d5 0b f0 3d d5 1f 4e 3f a4 e5 6e 3f c0 3e ec 3e
       0.11721007 0.8051732 0.93319154 0.46141624
000100 7a 2f 66 3e 1f 69 6b 3f 14 38 59 3f db 4a 69 3e
       0.22479048 0.9195728 0.84851193 0.22782461
000110 ea 22 21 3f 66 d9 3c 3f 30 87 4b be bb 30 06 3f
       0.629439 0.73769224 -0.19875789 0.52418107
000120 d0 b5 82 3f 8b 87 a9 3d b2 bb e4 3e b8 46 93 3a
       1.0211735 0.08277806 0.4467445 0.0011236286
000130 17 18 74 3f 36 d5 be 3e 18 66 48 3e be ee 05 3c
       0.9534926 0.37272042 0.19570196 0.008174596
000140 49 35 2f bf e6 eb 41 3e dd 90 3c 3f c2 a1 df 3e
       -0.6844068 0.18937644 0.73658544 0.436781
000150 c3 c1 3c 3f 82 aa a6 3d 06 f1 e4 3e c0 ad 44 3f
       0.73733157 0.081379905 0.44715136 0.7682762
000160 a0 6c 35 3f b6 2f 23 3e ef be b5 3d 21 e2 bf 3e
       0.70868874 0.15936169 0.08874308 0.3747721
000170 8b cd 13 3f d4 d3 cf 3e 08 06 4a be 55 8a fa 3e
       0.5773551 0.405913 -0.19728863 0.48933664
000180 b2 b8 50 3f 15 1d 2a 3f 83 47 9c 3e ed b0 48 3f
       0.8153182 0.66450626 0.3052331 0.7839497
000190 5e 81 65 3f d7 2e f8 3e 0b 85 a8 3e 59 cb 45 3f
       0.89650524 0.48473236 0.32914004 0.7726341
0001a0 91 d1 15 3f 66 75 08 3f 0d 7e 72 3f 34 5b 00 3e
       0.585229 0.53304136 0.9472359 0.12534791
0001b0 aa 23 36 3f c1 1a 4b bc a2 a3 d9 3e a3 60 53 3f
       0.7114817 -0.012396515 0.42507654 0.8256933
0001c0 d2 d9 61 3f 0b b2 6e 3f b8 29 fb 3e a9 5d 3d be
       0.8822299 0.9324042 0.49055266 -0.1849276
0001d0 72 38 e7 3e 9d 8c 9c 3e be 28 1a 3f
       0.45160252 0.3057603 0.6021842

l3.weight f4 [9, 119]
000000 57 d5 14 bf a7 cf 37 3e a2 1a c7 be 67 d0 99 be
       -0.5813803 0.17950307 -0.38887507 -0.3004181
000010 74 0c 25 3f 6b 96 88 bc 89 c5 52 bf 85 ab 98 3e
       0.64472127 -0.016673287 -0.82332665 0.2981836
000020 08 59 c1 bd 39 29 f4 3e 2a 20 20 3b fb c4 b1 3d
       -0.094408095 0.476877 0.0024433234 0.08680149
000030 ae 3d 2a bd ba fa 25 bf 6f c2 88 3d 2b 31 05 3f
       -0.04156273 -0.64835703 0.0667771 0.5202815
000040 53 37 64 3d c2 a6 a7 3d 23 db 41 3e cd 75 b1 3d
       0.055716824 0.081861034 0.1893125 0.08665047
000050 7a 5a 46 be 04 84 18 be e6 0f 33 c0 2d 64 f9 bd
       -0.19370452 -0.1489411 -2.7978454 -0.1217731
000060 56 75 00 bc 56 df 29 be 27 ee 6e 3f a2 4a 54 be
       -0.007840475 -0.16589102 0.9333214 -0.20731595
000070 26 00 a5 be 4d 43 6c be 71 62 ef be d6 43 e9 3f
       -0.32226676 -0.23072548 -0.46754792 1.8223827
000080 5c 7f 5d be 5a b4 d1 bc f7 37 1f 3e 42 47 f4 bd
       -0.21630615 -0.025598694 0.15548693 -0.11927654
000090 2c cd 94 3e 24 ce 3e 3f a4 2b 19 bc 58 8c 9f bf
       0.29062784 0.74533296 -0.009348784 -1.2464705
0000a0 da 91 f6 bd 9b 91 d6 bd ce eb 22 3f 96 c7 7f 3e
       -0.12039538 -0.10476991 0.6364106 0.2497848
0000b0 3a e0 a2 bf a0 77 53 bd b6 29 af 3e b2 a5 da 3d
       -1.2724679 -0.051627755 0.3421151 0.10676135
0000c0 05 73 dc 3c 37 02 2a bd 01 e5 80 3f f4 05 04 bf
       0.026910314 -0.04150602 1.0069886 -0.51571584
0000d0 25 ed 1e bf d7 8c b8 bd 4f 11 01 3f a6 bc 01 3e
       -0.62080604 -0.09011238 0.50417036 0.1266962
0000e0 bb 30 18 be 00 5f 17 3f 1f b1 88 3d 7a df c9 3d
       -0.14862339 0.59129333 0.06674408 0.09857078
0000f0 72 30 88 3f 4b f3 f9 3c 68 aa 1e be 58 9b d6 3e
       1.0639784 0.030511519 -0.15494692 0.41915393
000100 62 09 88 3f d3 09 ee 3e 73 22 b0 be 4d c4 94 be
       1.0627863 0.4649187 -0.34401283 -0.29056016
000110 1d 56 a5 bd d6 0e 04 3f c9 02 c7 3e 75 24 6a 3d
       -0.080730654 0.5158514 0.38869312 0.057163674
000120 4d 5b 06 bd 01 63 31 3f c5 41 08 3f 58 2e e8 be
       -0.032801915 0.6929169 0.53225356 -0.45347857
000130 0d 5b 4a bd ef 72 bd 3d 25 49 d4 be 56 70 1b be
       -0.04940324 0.092504375 -0.41462055 -0.15179572
000140 17 9d 38 3f e8 d0 11 3f be 77 da bd aa e7 38 be
       0.721147 0.5695939 -0.1066737 -0.18057123
000150 75 f5 e9 3e 76 e1 26 3e 84 ab 8e 3e 85 d2 27 3e
       0.4569508 0.16296944 0.2786523 0.163889
000160 89 4a a5 3f 3e ce 53 3d 39 e1 19 bf 1c 03 02 3f
       1.2913371 0.05171036 -0.6010929 0.50785995
000170 9b b0 14 be 76 39 df 3c 57 05 10 bf 51 ea e2 3e
       -0.14520495 0.02724908 -0.5625815 0.44319394
000180 f1 d3 ab bd ab 36 61 3e cc 76 fd 3d 46 39 ba be
       -0.08390034 0.2199351 0.12376174 -0.3637182
000190 65 99 34 be f5 0d 22 bd f1 0a b8 3d d2 98 20 be
       -0.1763664 -0.03956409 0.08986462 -0.15683296
0001a0 73 92 d9 be d3 b0 d0 3e 07 4b ed 3d c7 0a 89 3e
       -0.42494544 0.40759906 0.11586576 0.26766035
0001b0 cc 2e 7a 3e b8 3e f5 be 3f 48 a6 be 46 7a e9 be
       0.24431914 -0.47899413 -0.32476994 -0.456011
0001c0 23 4b c4 3e 2a 0e 66 be 45 49 3b 3f 2f b8 a8 3f
       0.38338575 -0.2246634 0.73158675 1.3181208
0001d0 9b b2 7b be 58 61 5b bf 15 43 dd 3e 39 81 ba bb
       -0.24579851 -0.8569541 0.43215242 -0.005691674
0001e0 cd ee b6 bd 72 e8 1b bf 4b 61 13 be 37 30 f1 bd
       -0.089322664 -0.6090156 -0.14392583 -0.117767744
0001f0 23 40 b9 3e 98 e2 12 3f a6 8b 9d be f1 cc 66 3e
       0.36181745 0.57377005 -0.30770606 0.22539116
000200 cd 37 28 3f 2d 0d 43 bc 81 a8 bc 3e 5b df f7 3e
       0.65710145 -0.011904997 0.36847308 0.48412594
000210 d9 4d 4e 3e eb e3 25 bf bd 54 44 3d 5a 05 a1 3e
       0.20146884 -0.648009 0.047932375 0.31449395
000220 3a a3 7e 3e d5 92 fd 3f f5 13 e5 3e 55 7c d9 3d
       0.24866953 1.9810435 0.44741789 0.106194176
000230 a2 6d f3 3e cd 7c 0c 3e e8 e5 73 3f 15 8b 1d 3e
       0.4754458 0.13719483 0.95272684 0.15385087
000240 e5 30 15 3e 93 c2 62 3f b6 d7 17 3e f8 00 7d 3e
       0.14569433 0.88578147 0.14828381 0.24707401
000250 16 c8 37 3e 04 b5 dd 3e 9b f6 14 c0 8e f5 e8 3e
       0.1794742 0.43302166 -2.3275516 0.45499843
000260 38 a2 2d 3e 4e 28 00 3e c3 d7 85 be 41 70 9b 3e
       0.16956413 0.12515375 -0.26141176 0.3035908
000270 4a bc 2e be 5f 2b 2d 3e d3 0c b0 bf 7e 97 6c 3e
       -0.17064014 0.16911076 -1.3753914 0.23104665
000280 51 de 8d 3d f6 d9 78 be 66 0a 32 bf aa 85 a3 be
       0.06927169 -0.24301895 -0.69547117 -0.31937915
000290 5c 0a 2c be 2d c6 39 3e f4 5d f4 3e b3 f2 3c 3e
       -0.16800827 0.18142004 0.4772793 0.18451957
0002a0 13 bf 68 3e 6f c0 9b be e7 71 95 be 12 07 8e 3e
       0.22729139 -0.30420253 -0.29188463 0.2773977
0002b0 bf 8c 74 bf 05 19 76 bf 5d e5 cf be 75 69 ed 3e
       -0.9552726 -0.96131927 -0.40604678 0.4636952
0002c0 99 63 2b 3f 92 62 0a 3f 13 cb bc 3e a9 ce f3 3e
       0.6694885 0.54056656 0.36873683 0.47618607
0002d0 48 ff 43 3f 5a 18 98 3e 9e dd ce 3d 39 1a 2b 3f
       0.76561403 0.2970608 0.10100864 0.6683689
0002e0 e9 67 df 3e e2 67 12 3b 02 ce 24 bf 8c 3d 7c 3f
       0.43633965 0.002233975 -0.6437684 0.98531413
0002f0 d4 bc b1 3e 66 68 10 bf bf 1b ca bb f8 1c 9c 3e
       0.34714377 -0.564093 -0.0061678584 0.3049085
000300 c4 bd de be 78 16 a3 be ca da 8b bd 72 0e 45 3e
       -0.43504155 -0.3185308 -0.0682884 0.19243792
000310 eb 7d 6e bf be d4 81 be f4 f2 29 3e 2a 11 07 be
       -0.93160886 -0.25357622 0.16596586 -0.13190141
000320 7f 9d ad 3f b1 7b 95 bc bc 8e ea 3d 58 11 11 bf
       1.3563689 -0.018247457 0.11453006 -0.5666709
000330 2d 8a bd 3d 9d 7a b2 3d db 20 52 be e1 d0 c1 bf
       0.092548706 0.08714793 -0.20520346 -1.514187
000340 eb 3e 2f be fe 6a 23 bf bc dc 35 3e 07 a9 89 3e
       -0.17113845 -0.6383513 0.17759985 0.2688677
000350 99 1b e1 3e 7f 71 e5 be 82 95 a1 bd 81 96 85 3e
       0.43966368 -0.44813153 -0.078898445 0.26091388
000360 8b 45 82 3e 28 6e 78 3e bd 5b 49 3f c3 b0 e6 3d
       0.25443682 0.24260771 0.78655607 0.11264183
000370 ef 88 29 3e 45 e7 00 3e 55 3b 47 be 74 d7 af be
       0.16556142 0.12588222 -0.19456227 -0.34344065
000380 47 4e 88 bd 20 3c b1 3d ee 10 69 3e 79 71 27 3e
       -0.06655555 0.08654046 0.22760364 0.1635188
000390 c2 ac f7 3c dd 62 e8 bd 8f 44 4e 3f c0 e9 ea 3e
       0.030233745 -0.11346982 0.8057336 0.45881462
0003a0 10 5f fb 3d d5 33 06 3f a9 99 2e bf 30 82 23 3f
       0.12273991 0.5242284 -0.68203217 0.63870525
0003b0 3f f4 f0 3d ae e6 9c 3d d2 bf 70 3e 8a 98 a8 3e
       0.11765336 0.07661186 0.23510674 0.32928878
0003c0 7e 3c 44 3b f7 a4 82 be 02 44 1c 3e f4 6e 00 3d
       0.0029943283 -0.25516483 0.15260318 0.031355813
0003d0 3a 74 8d bf 29 3a 3e be 57 ef 31 3e 42 81 f5 be
       -1.1051095 -0.18576874 0.17376457 -0.47950178
0003e0 86 85 09 3d 55 52 c3 3d e8 65 8d 3d fb 57 da bd
       0.033574603 0.09537188 0.06904203 -0.10661312
0003f0 42 29 0b 3f 3f 76 70 bf b6 6b 5e 3e 8e eb 45 3e
       0.5435983 -0.9393043 0.21720776 0.19328138

l3.bias f4 [9]
000000 9e c9 7a be 79 d8 59 3f 2d d4 3f 3f f4 7e 3d 3f
       -0.24490973 0.85095936 0.7493313 0.7402184
000010 65 f5 41 3e f4 4d 84 3d dd 20 84 3e e4 d2 07 bf
       0.18941267 0.06460181 0.25806323 -0.5305617
000020 0e 14 73 3f
       0.94952476

l4.weight f4 [53, 9]
000000 79 b4 30 3f d2 41 b7 3e 82 03 71 bc 06 97 c0 3e
       0.6902538 0.35792404 -0.014710309 0.37615222
000010 68 54 48 be 2e 7d 89 be 4e b7 7f be bf bc 7a bb
       -0.19563448 -0.26853317 -0.24972269 -0.0038259474
000020 c6 cd 27 3e 52 a7 58 3e 9f f3 d2 3e 66 b6 d9 be
       0.1638709 0.21157578 0.41201493 -0.4252197
000030 74 d0 0b ba 0b 7c 43 3e fb d7 2a 3f 47 2e 08 3f
       -0.0005333491 0.19090287 0.6673581 0.53195614
000040 8f ed 37 3d b1 f2 86 be b1 ed 3c be 50 e3 c6 3e
       0.044904288 -0.26357034 -0.18450047 0.388453
000050 2a 64 67 3e b8 2a 31 3e 4e eb 15 be d4 7f 79 be
       0.22596803 0.17301452 -0.14640543 -0.24365169
000060 e9 24 56 3e b5 83 90 3e 88 f5 e1 bd 02 e7 06 be
       0.20912518 0.28225484 -0.110331595 -0.1317406
000070 74 1d 8f be a9 05 2c bf 70 a4 a3 3e 00 fc 4a be
       -0.27952158 -0.67196137 0.31961393 -0.19822693
000080 d7 c4 87 3e 5e 8d 4f 3f 28 5f 10 3e b5 b4 6c be
       0.26517364 0.81075084 0.14098799 -0.2311581
000090 a7 00 34 bf f8 4d af 3e 8a 82 1b 3e 01 3d e8 3d
       -0.70313495 0.34239173 0.15186515 0.113397606
0000a0 df 10 f3 bc 50 04 06 3d 5d 60 8a be dc 85 e7 3e
       -0.02967113 0.032718956 -0.27026644 0.45219314
0000b0 34 52 b4 be 11 71 36 bf db f3 1d 3f aa de 1c be
       -0.35218966 -0.71266276 0.6170022 -0.15319315
0000c0 96 69 10 bf 0e 26 26 bf 43 e4 00 3f b8 21 4a 3e
       -0.5641111 -0.64901817 0.503483 0.19739425
0000d0 f6 36 1e c0 56 8b 97 be 4b ac 0f c0 6e 62 82 bf
       -2.4721045 -0.29598492 -2.244891 -1.0186288
0000e0 88 de d8 be 8a 14 9b 3e d7 2b be 3e cf 5b 48 3e
       -0.42357278 0.30289108 0.37142822 0.19566272
0000f0 d3 a0 98 3e 7b 47 b7 bd 40 c3 c4 bd 43 87 35 3f
       0.298102 -0.08949181 -0.096075535 0.7090952
000100 1a 38 f8 3d 59 fb 4d be 1a 2f 04 bf e9 6b fc be
       0.121200755 -0.20115413 -0.5163437 -0.4930108
000110 f6 18 4b 3f 9d 44 a2 3e 20 e9 ee bd d8 80 de be
       0.7933496 0.31692973 -0.11665559 -0.43457675
000120 48 be 17 3e 1b 60 df 3d bd 4e 01 3f 50 d7 38 3f
       0.1481868 0.109070025 0.5051077 0.7220354
000130 2e 1e a5 be 3a 86 60 3e d9 45 0e 3f 98 f0 a2 be
       -0.32249588 0.21926203 0.5557533 -0.31824183
000140 fb 94 f6 bd 64 90 7f 3e 4d 0a b5 3e 72 49 bd be
       -0.120401345 0.24957424 0.3535942 -0.36970097
000150 44 9e f9 3e ba fa 31 be 0e 08 b3 be a3 1b 6a 3e
       0.4875356 -0.17380801 -0.34967083 0.22862105
000160 e3 af e8 3d 73 cb 29 3e 5e fa 9b be 26 df c5 3e
       0.11361673 0.16581516 -0.30464453 0.3864681
000170 1f be 13 3e 10 71 9f bd bf aa 53 3e 1d f8 88 be
       0.14427994 -0.07785237 0.20670603 -0.26751795
000180 0d a1 68 bd dd 19 b9 bc a4 2b ac 3e 4e e6 05 bd
       -0.056794215 -0.02259534 0.33627045 -0.03269034
000190 94 a8 a3 3e 95 7b 48 bd 4b 68 e1 be b8 b4 b0 3e
       0.31964552 -0.048945982 -0.44024882 0.34512877
0001a0 0a dc f7 3d 44 db 48 3e ce 32 42 3e 36 7a 96 3e
       0.12102516 0.19614893 0.18964693 0.29390115
0001b0 d5 fd 9b 3d 21 49 1d be b6 8d 9b be bc e1 8b be
       0.07616774 -0.15359928 -0.30381554 -0.2732066
0001c0 60 45 be be f2 de 0b 3e 0d a0 51 be d1 75 94 3c
       -0.37162304 0.13659266 -0.20471211 0.018122585
0001d0 28 9c 63 be a6 64 5c 3d 22 2c f0 bd b2 95 87 3b
       -0.22227538 0.053806923 -0.11727168 0.004137718
0001e0 69 0b e4 3e 3f 27 23 3e d1 43 e2 3e 46 72 1b 3f
       0.44539955 0.1593294 0.44192365 0.6072124
0001f0 13 20 4b be 2f dd ff bd 08 29 af bd 0b 37 bd 3e
       -0.19836454 -0.12493359 -0.08552748 0.36956057
000200 a5 36 20 3e 5d 0a 4a 3e 67 8d 81 3d 53 03 1b be
       0.15645845 0.19730516 0.063257985 -0.15137987
000210 88 a3 ba bd 1a 4b ad 3d 52 61 2e be 5f 4f ca 3e
       -0.09113222 0.0846159 -0.17029312 0.3951368
000220 83 2b b5 3e 23 dd fb 3d f4 c3 22 be b1 d3 3c 3f
       0.3538476 0.12298038 -0.15895063 0.73760515
000230 b4 d5 1f bd 75 29 b0 bd 24 da 20 be 94 9a e3 3e
       -0.039022163 -0.08601657 -0.15708214 0.4445387
000240 38 92 b3 3e f7 46 a5 3e d7 2c d4 3e a6 1f 04 3f
       0.35072494 0.32280704 0.4144046 0.5161079
000250 84 70 e0 be 27 2d f7 bc ae 60 77 3e f0 d4 b3 be
       -0.43835843 -0.030172898 0.24157974 -0.35123396
000260 34 b3 2d be c5 82 36 be e8 ee 93 3e 1a 29 48 bd
       -0.16962892 -0.17823322 0.28893209 -0.048867323
000270 3d 02 51 3b 64 e1 2c be f8 11 1d 3e 6a 40 55 3e
       0.0031892203 -0.16882855 0.15338886 0.20825353
000280 9f 80 98 be bf cd 83 bd 4d ad b8 bd 96 7b 5c 3e
       -0.2978563 -0.06435727 -0.090174295 0.2153152
000290 a2 d8 d5 bd df 5b 19 3f cb d8 ac 3e 53 23 28 3e
       -0.1044171 0.5990581 0.3375915 0.16419725
0002a0 6a c6 ab 3e 72 18 47 3e 11 3a c9 be 5e fd 1c bf
       0.33549815 0.19442919 -0.39302114 -0.6132411
0002b0 fe 18 a0 3e a8 c0 63 3c 6c 47 a2 3e ca f2 e9 3d
       0.31269068 0.013900913 0.31695116 0.114232615
0002c0 57 b9 ab bd b9 21 49 3e a9 05 3f 3d a4 f4 13 be
       -0.0838496 0.1964177 0.046636257 -0.14448792
0002d0 ac e9 b9 be 96 e8 53 3e 8d 0a cc 3e e1 34 89 3e
       -0.3631109 0.20694193 0.398518 0.26798156
0002e0 f3 d7 0e 3e a6 c7 50 3d 30 ce 8f be 37 64 eb be
       0.13949566 0.05097165 -0.28086996 -0.45974895
0002f0 9d d5 b3 3d eb c9 b2 3d a3 ae ed 3e e2 47 c5 3e
       0.08780978 0.08729919 0.464223 0.38531405
000300 ab 32 74 be 8f b4 02 be 4a 94 57 be e6 d3 ac 3d
       -0.23847453 -0.1276419 -0.21052662 0.08438854
000310 b0 10 ef be 01 6a 47 3e b5 9c 52 3e b5 68 5d 3e
       -0.4669242 0.19474031 0.20567591 0.21621974
000320 48 f7 a8 3d ec 2c b4 3e e9 bc 39 3d d4 2f 99 bd
       0.0825029 0.35190523 0.045346174 -0.074798256
000330 56 a9 b0 be 33 60 82 bc 16 d8 0b bd 05 38 97 be
       -0.34504193 -0.015915012 -0.034141622 -0.29534927
000340 7d 0b 19 3f 9a 76 80 be e8 ce 83 3e 84 2d 9b 3e
       0.59783155 -0.25090486 0.25743794 0.30308163
000350 92 39 00 bf 5a 7b fa 3e c4 07 8f 3e 4d 9b 53 3d
       -0.50087845 0.48922235 0.27935612 0.05166178
000360 32 51 c0 3e ff 1d 97 be 8a 11 0a 3f ce 5f 25 be
       0.37561947 -0.29515073 0.5393301 -0.16149828
000370 e0 0c ef 3e d5 00 64 3f e2 33 63 3e 9d b1 9e 3e
       0.4668951 0.8906377 0.2218776 0.30994883
000380 fa 20 c2 3e b3 37 fd bc 60 8b 26 3f 45 03 c9 bd
       0.37915784 -0.030910349 0.6505642 -0.09815077
000390 69 9d f7 3d cb 55 1c 3d 39 74 98 be 39 4b d0 bd
       0.120905705 0.038167756 -0.2977617 -0.101705976
0003a0 65 0f 85 bd fe 3f ef 3e bd 6f 58 be 76 f7 04 3e
       -0.06497077 0.4672851 -0.21136375 0.12985024
0003b0 dc 04 71 3e 8d 24 92 bd 63 8f 43 3e 64 4f 0c be
       0.2353701 -0.07135878 0.19097666 -0.1370216
0003c0 48 10 85 3c 67 65 9f be 0e 20 d7 3e 6a 62 b4 bd
       0.016243115 -0.3113205 0.42016643 -0.088078335
0003d0 52 c2 54 be c4 c0 52 bd 7f 6e 00 3e 1a 30 32 3f
       -0.20777252 -0.051453367 0.12542151 0.6960465
0003e0 fc b4 a6 3e 86 90 3d be 4f 51 17 bf e2 ce 03 3f
       0.32559955 -0.18512163 -0.5910844 0.51487553
0003f0 f0 d7 82 be d6 b8 80 bc 21 5f cd 3e fc 02 c8 be
       -0.25555372 -0.015713137 0.4011164 -0.39064777

l4.bias f4 [53]
000000 bf 09 81 3f 0b e6 02 3f c9 e7 95 3f e4 55 d1 3c
       1.0081099 0.5113227 1.171136 0.025553651
000010 fb 89 ef 3e bf 2d 80 3e 19 0a 7a bf d6 48 20 be
       0.46784958 0.25034901 -0.9767166 -0.15652785
000020 3d fe 1a 3f 69 ba ad 3e 3b 98 a7 3f fa 1c 87 3f
       0.60544187 0.33931282 1.3093332 1.0555718
000030 0e 18 64 3e 6f bb 82 3d 1f 7c 9b 3f 24 d6 99 3f
       0.22274801 0.06383406 1.2147254 1.2018476
000040 64 72 56 3f 16 45 b9 3f 05 3b 02 3f da 10 57 3f
       0.83768296 1.4474208 0.50871307 0.8401009
000050 e4 de 8c 3f 2c f9 ba 3f 74 ae 67 3f 41 e0 89 3f
       1.1005521 1.4607291 0.9050057 1.0771562
000060 4e 13 64 bf 97 f5 b7 3f 1e 23 ac 3f f2 d7 bd 3f
       -0.89091957 1.4371823 1.3448217 1.4831526
000070 ee 88 1f bf f9 d8 88 3e 69 2f e4 3d 75 f9 fa 3e
       -0.62318313 0.26728037 0.11141855 0.49018446
000080 d1 09 28 3f 73 cc 42 bf 87 5c bf 3c 8e 75 27 3f
       0.6563998 -0.76093215 0.02335955 0.6541375
000090 8e ff ca 3f b5 a2 57 3f 42 ae 6c 3f ae f5 9d 3f
       1.5859239 0.84232646 0.92453396 1.23406
0000a0 e1 42 08 3f 86 78 76 3f 88 36 ae 3f 16 e2 a5 3f
       0.5322705 0.96277654 1.3610392 1.2959621
0000b0 44 f8 57 3f 0d f9 e0 3f f5 88 83 3f b0 0b 3e bd
       0.843632 1.7576004 1.0276171 -0.046397865
0000c0 dc 3a bb 3e 48 21 a7 3f 5e 0e 33 bf af 8c a7 3f
       0.36568344 1.3057032 -0.699438 1.3089808
0000d0 2c c9 95 3f
       1.1702018

l5.weight f4 [85, 53]
000000 29 2c 0e bf 11 0c c4 3e 02 f6 65 be 0c a1 02 3f
       -0.55536133 0.38290456 -0.22457126 0.5102699
000010 ea b1 fd be 69 21 40 3f 55 03 0f 3f 63 de be 3f
       -0.495498 0.7505098 0.5586446 1.4911617
000020 fa a8 48 3e 7c 6c f8 be 83 1b 09 bf 8f d4 30 bd
       0.1959571 -0.48520267 -0.53557605 -0.04317146
000030 16 ed ab bc 95 91 70 3e f3 0d 77 be 54 f7 88 be
       -0.020987075 0.23493035 -0.24126415 -0.26751196
000040 c3 c3 eb 3d 10 fd 65 3e 49 19 97 3c f4 c3 aa be
       0.11511948 0.22459817 0.018444674 -0.33352625
000050 95 40 3d be ad ac e6 3e 9a 13 0f bf 09 00 11 bf
       -0.18481667 0.45053616 -0.55889285 -0.5664068
000060 17 f1 b5 3e df 9d 78 bf 32 49 02 bf 40 16 d3 bd
       0.355355 -0.9711589 -0.5089294 -0.10306978
000070 aa 40 88 be d7 eb 5c 3e 04 34 37 bf 0a 24 8a 3e
       -0.26611835 0.21574341 -0.71563745 0.2698062
000080 7e 48 f5 3e 9a 86 85 bd b9 25 5b be e0 34 a9 3e
       0.4790687 -0.06519814 -0.21401109 0.33048153
000090 23 d7 97 be ca c8 2d bf 46 71 d1 3e 1b 3c 23 3e
       -0.29656324 -0.67884505 0.40906733 0.15940897
0000a0 b9 94 46 bf e0 a1 21 3e 57 3a fd be 7d 00 62 bd
       -0.7757068 0.15784407 -0.49458572 -0.055176247
0000b0 26 4e c2 3f b1 a4 73 be bc a7 ab 3d 86 79 39 3f
       1.5180099 -0.23793294 0.08381602 0.72451055
0000c0 f7 33 2f 3f 89 54 9e bb 7f 0c a9 bc 2a 55 c5 3d
       0.6843867 -0.0048318547 -0.020635841 0.096353844
0000d0 1e 1a 82 be 51 89 38 3e 48 03 f4 b9 21 4e 4a bd
       -0.2541055 0.18021132 -0.0004654175 -0.049390916
0000e0 c6 81 b1 bd 23 32 46 3d 33 23 f0 3d a3 81 88 be
       -0.086673304 0.048387658 0.11725464 -0.26661405
0000f0 65 b9 40 bf 24 24 19 3c a5 08 16 3e 69 15 fe 3d
       -0.7528289 0.0093469955 0.14651735 0.124064274
000100 77 c7 2a 3e 51 ce 29 bb ac d1 07 be 76 9c c6 3d
       0.16677652 -0.0025910328 -0.13263577 0.09697811
000110 e8 6c 2d 3e 7d c3 a3 3d c7 d6 c2 3d 36 e6 50 be
       0.16936076 0.07996271 0.09513622 -0.20400319
000120 c5 41 6c 3d 25 fe 97 3e 97 c8 73 3e 10 2e 24 3e
       0.05767991 0.29686084 0.23806988 0.16033196
000130 e0 96 81 3c 4d e7 79 3d d9 35 ad 3e 25 cf 3d 3e
       0.015819013 0.0610116 0.33830145 0.1853605
000140 48 1a 95 3d cc a5 13 bf aa ff df bc fd 22 c7 3e
       0.072804034 -0.5767486 -0.02734359 0.3889388
000150 7e 7e af bd eb 5b c5 3d 6e 70 30 bc f1 87 b4 3e
       -0.08569048 0.096366726 -0.010768993 0.35259965
000160 32 62 d2 be 75 a3 86 3e 86 99 0d 3e c7 85 4f 3e
       -0.41090542 0.26296583 0.13828096 0.20265876
000170 a6 54 9d 3d de 3c e8 3d 38 f8 41 3e d5 9b 8f 3e
       0.07682161 0.113397345 0.18942344 0.28048578
000180 cd b8 a8 3e 6a 65 19 3e ed c4 8e 3e e0 98 8f 3d
       0.32953492 0.14980093 0.27884617 0.070115805
000190 da cd 8b 3c 3f f4 30 3e fb bf e0 3e 63 8f 55 be
       0.017065931 0.17280672 0.4389647 -0.20855479
0001a0 7c 74 b6 3a 17 b6 b3 3e c8 5f 25 3e 5b 1a de bd
       0.0013920213 0.3509986 0.16149819 -0.10844871
0001b0 79 39 e0 3c 5a 25 ae bd aa b7 64 bd 93 63 6a 3e
       0.027371155 -0.08503218 -0.05583922 0.22889547
0001c0 37 5e 93 3d e7 fd 7a bf d4 83 c8 3d 24 2b 4d bd
       0.071957044 -0.98043674 0.09790769 -0.05008997
0001d0 5d e4 4e 3e 81 13 bd bc ca 34 57 3d 76 34 8c bc
       0.20204301 -0.02308059 0.052540578 -0.01711486
0001e0 93 d7 e4 3d cf 0f 5e 3e 25 55 db 3d 4d ed 76 bd
       0.1117393 0.21685718 0.107095994 -0.0602849
0001f0 fb df 8d be 55 66 06 be 77 d1 71 3d c8 05 bf 3d
       -0.27709946 -0.13124974 0.059037652 0.093272746
000200 87 ce e0 3d 33 d3 2b be eb 41 6c 3e f2 eb 2b 3e
       0.10976892 -0.16779785 0.2307202 0.16789225
000210 56 5f 7f 3e 8d be f0 3d 46 92 bb be 68 72 05 be
       0.24938712 0.11755095 -0.36635035 -0.13031924
000220 55 2f e9 3d 77 38 2b 3e 3b 7a 14 be 28 c5 80 be
       0.11385981 0.16720758 -0.14499752 -0.25150418
000230 15 fe db 3e cd 32 a3 be b6 29 a3 3e 33 89 da 3d
       0.42967287 -0.31874695 0.3186776 0.106707
000240 f1 65 f7 3d 20 a7 b8 3d 46 e6 99 be 0d 0f 12 3e
       0.12079991 0.090162516 -0.30058497 0.14263554
000250 04 97 95 3e 06 0b 06 3f 9e 4e 07 be a0 0f 9e 3e
       0.29216778 0.5236057 -0.13213584 0.30871296
000260 3b c3 03 3e 00 f7 b8 bd 1c 33 1d 3e 1f cc e4 3e
       0.12867443 -0.090314865 0.15351528 0.44686982
000270 9d 2e 55 3e 3a d1 06 3e ee bc ad 3e eb e4 12 3e
       0.20818563 0.13165751 0.33933204 0.14345138
000280 78 6b 80 be da ae d0 3d 53 5a 8d bd 32 c7 e2 bd
       -0.25081992 0.101896 -0.069019936 -0.1107315
000290 b8 0e 0f bd 94 d8 a2 bd 0d 9c c7 3e 3f 78 21 3e
       -0.034926146 -0.07951465 0.38986245 0.15768526
0002a0 e2 ea 6c 3e 66 73 bc 3e 13 a8 3a bc 86 40 a8 bd
       0.23136476 0.36806792 -0.011392611 -0.08215432
0002b0 83 16 10 3d e1 8f 8a 3e 7d 01 31 3e 24 d7 45 3e
       0.03517772 0.27062896 0.17285724 0.19320351
0002c0 89 eb b8 3d 33 c8 06 be a4 4e d6 3d 9f fd 81 3e
       0.090293 -0.13162307 0.10464218 0.2538881
0002d0 29 d2 bb 3e 36 81 0c 3e 67 b4 ca 3e fc 9a 10 bf
       0.36683777 0.13721165 0.3959076 -0.5648649
0002e0 c1 47 01 3f 70 40 84 3e 8b d0 9d 3b d1 3b f6 be
       0.5050011 0.25830412 0.00481612 -0.4809251
0002f0 33 3c ea 3c c7 99 ee 3d 6a 27 90 3c af 14 80 3e
       0.028593158 0.116504245 0.01759692 0.2501578
000300 4c be 84 bd 7c b5 99 3d 46 a2 aa be 70 be 8e 3e
       -0.06481609 0.075053185 -0.3332693 0.27879667
000310 4f d0 46 3e 50 9f 02 3f e6 30 cf 3d c2 74 27 3d
       0.19415401 0.5102434 0.101167485 0.040882833
000320 4e 43 56 3e 32 98 7d 3e 90 7d a8 3e f5 2d 2b 3e
       0.20924112 0.24765089 0.32908297 0.1671675
000330 ab 97 0c 3e d7 c6 29 3e 20 ba a5 be b1 0a fb bd
       0.13729732 0.16579758 -0.32368565 -0.122578986
000340 a6 63 36 3e 6b 2c 03 be 58 9e 37 3e ac a6 a0 3d
       0.1781145 -0.12809913 0.17931497 0.0784429
000350 db 0a b0 3d 22 46 f7 bd 92 dd 81 bd ed 21 24 bf
       0.085958205 -0.12073924 -0.06341089 -0.64114267
000360 69 1f 4d be 75 bc bd 3e 90 50 f9 3e e3 11 94 3f
       -0.20031513 0.37057844 0.48694277 1.1567959
000370 52 63 1c 3f 0d f9 a2 bd a4 3c ee bd 8e 94 c6 bc
       0.6108905 -0.07957659 -0.1163266 -0.024240758
000380 c3 50 80 3b 59 68 85 3e e8 28 29 3d 17 60 e1 3d
       0.0039158775 0.26056173 0.041298777 0.11004656
000390 a3 83 c8 3d d7 9c 0f bc f2 56 45 3e 01 46 30 bd
       0.09790733 -0.008765421 0.19271448 -0.04303551
0003a0 b0 9b c9 3e 08 a0 ed 3d 7b ed 1a 3e 4b b3 50 be
       0.39376593 0.11602789 0.15129654 -0.20380895
0003b0 be 21 09 3e df 82 bf bd 06 e1 40 3e 93 3d d9 3d
       0.13391778 -0.093511336 0.1883584 0.106074475
0003c0 51 93 3a bf cf 89 87 bd 1f 1b 6f bf a5 06 e8 3e
       -0.72881037 -0.06618082 -0.9340076 0.4531757
0003d0 68 3e a9 be 1c c8 3b bf e4 c2 98 3e 62 10 c7 bd
       -0.33055425 -0.7335222 0.2983619 -0.09719922
0003e0 9c 50 d3 3c 9f cb 12 bc ee 8c 78 bf 8d 81 0c 3e
       0.025795273 -0.00895968 -0.9709004 0.13721295
0003f0 0b 00 a0 3d 01 27 c1 3e 91 7a d8 bd 42 e6 21 3f
       0.07812508 0.3772507 -0.10570253 0.6324197

l5.bias f4 [85]
000000 7b af 7d be c1 6f 9b 3f 43 dc a5 3f 5e 55 a5 3f
       -0.24773972 1.214348 1.2957844 1.2916677
000010 1d 4f 01 3f 9c 64 d5 bd a3 96 04 3e 80 7a 13 3f
       0.5051134 -0.1041958 0.12948088 0.57608795
000020 2b 97 6d 3f 56 42 f0 be 84 89 b1 3f fd 0b 2a 3f
       0.9280879 -0.4692561 1.3870091 0.6642454
000030 20 77 05 3f 89 ff 5e 3f bd 21 55 3f bf 72 88 bd
       0.52134895 0.87108666 0.83254606 -0.06662511
000040 c8 b8 03 3f 17 7b a9 3f 83 83 9e 3f 85 3b 7c 3e
       0.5145383 1.3240689 1.2383884 0.2463208
000050 5b 5f 97 3f 85 f2 bf be 42 34 9a 3f da 44 85 3f
       1.1825975 -0.37489715 1.2047198 1.0411637
000060 ac 6c be 3f cd cb 34 3d d7 29 be bc a8 50 00 3f
       1.4876914 0.044139672 -0.02321331 0.5012307
000070 5b 92 ea bd 0d 7a d1 bd 6f de e7 3d 63 30 08 3e
       -0.11453696 -0.102283575 0.11321723 0.13299708
000080 b2 6b 8a 3f 3f d3 66 3f 97 f2 d6 bd 51 17 eb 3d
       1.0814116 0.90166086 -0.10495489 0.114790566
000090 a4 85 5d 3d 7a 0b be 3f 9c 52 e5 3e 39 e9 87 3f
       0.054082528 1.4847252 0.44789588 1.0618049
0000a0 27 01 8e 3f 3a 5e cc 3e 58 e6 d2 3e 77 6d 91 3f
       1.1094102 0.3991564 0.41191363 1.1361531
0000b0 12 b0 bb be 98 c0 b0 3f e1 4f 13 be 79 04 2e 3f
       -0.36657768 1.3808775 -0.1438594 0.67975575
0000c0 92 2d ff 3e 9e ea a7 3d 5e 34 c0 3f ba 83 53 3f
       0.49839455 0.081990466 1.5015981 0.82622874
0000d0 d6 a7 6b 3f d1 2c 70 be 07 6d 62 be 22 45 aa 3f
       0.9205297 -0.23454596 -0.22111903 1.3302348
0000e0 6b 17 c4 3f aa 20 0b bd 03 d6 af 3f 55 79 71 3e
       1.5319647 -0.033966698 1.3737186 0.23581441
0000f0 43 ed 19 3d fd ba 80 3d ed 52 bf 3f bf 17 cf bd
       0.037579786 0.06285665 1.4947182 -0.10111951
000100 ef 10 30 3f 68 3d 91 3f e6 f9 2f 3f 1f 2f 96 3d
       0.6877584 1.1346865 0.6874069 0.073332064
000110 f0 c8 5a bc 3a de 26 be fa 24 1e be 24 ff 90 bd
       -0.013353571 -0.1629571 -0.15443793 -0.07079914
000120 58 30 fb bc 48 5d af 3d 1d f8 9e 3f 74 6e b0 bd
       -0.0306627 0.08562714 1.2419468 -0.08614817
000130 fa 13 a0 3f f6 a4 8a 3f a2 02 6e 3e de ae 94 3f
       1.2506096 1.0831592 0.23243192 1.1615865
000140 5a f2 c5 bd a1 20 90 3f 16 35 e6 3e da 45 85 3f
       -0.096653655 1.1259958 0.44962376 1.0411942
000150 68 e8 87 3f
       1.06178
