models/model_PGNN.pt (torch, 127233 bytes, 12 tensors)

l1.weight f4 [189, 9]
000000 e5 4f 9f bb b8 20 75 3e 11 ca c2 3f 91 5c d9 3d
       -0.004861819 0.23938262 1.5217916 0.10613359
000010 99 79 8a c0 e0 59 b6 3f 04 eb c9 be ce e7 75 3f
       -4.3273435 1.4246178 -0.39437115 0.9605683
000020 10 95 ec bc da b5 a3 bb 21 d8 cd 3f df 2a c8 bf
       -0.028879672 -0.0049960436 1.6081582 -1.5638083
000030 45 18 d5 be 05 6e c9 bf f0 9f 22 c0 9b f7 d4 3e
       -0.4162008 -1.57367 -2.5410118 0.41595158
000040 7b e2 80 be 4c ba 5a 3e 49 5b a5 bb 61 96 a7 3e
       -0.2517279 0.21360129 -0.0050462824 0.32731918
000050 1e a4 73 3f e3 b3 e4 be a7 58 81 bf cd 61 28 3d
       0.951723 -0.44668493 -1.010518 0.041108895
000060 d5 82 8f 3f 97 a4 30 c0 40 53 ad bf d1 c0 4f 3a
       1.1211802 -2.7600458 -1.3541031 0.0007925155
000070 b8 a0 21 3e 0c 5e 01 40 0b 8f 7c bf 6c d8 32 bf
       0.15783966 2.0213652 -0.98655766 -0.69861484
000080 27 7e 5e bf 1a 6f 42 bf 74 0e 98 bf 0d 0f 8f bf
       -0.86911243 -0.7595078 -1.1879411 -1.1176468
000090 bf 93 aa b9 69 d8 dd bd a8 7f ed bf de 1d 51 bd
       -0.00032535006 -0.108322926 -1.8554583 -0.051053874
0000a0 07 f1 be 3c 77 c3 85 bf d2 83 a8 bf b7 2e f5 bf
       0.02330829 -1.0450276 -1.3165228 -1.9154881
0000b0 92 71 0f bf 63 21 57 3b 32 0f 41 c0 c3 02 3a 3e
       -0.5603267 0.0032826297 -3.0165524 0.18165116
0000c0 e2 7f 8c be 7a 65 9f bf 41 b5 28 c0 47 82 0e bc
       -0.27441317 -1.2452843 -2.6360629 -0.008698053
0000d0 8a 80 de 3e 8f ca 98 bf d8 da 26 3a 01 ef d8 bf
       0.43457443 -1.1936816 0.0006365008 -1.6947938
0000e0 29 4b 51 bf 21 87 08 be 9f af be bf 15 f0 23 3f
       -0.8175531 -0.13332798 -1.4897345 0.6403821
0000f0 5c 69 9e be 24 dc 06 c0 d1 89 16 3f d3 87 8f ba
       -0.30939758 -2.1071863 0.5880404 -0.0010950513
000100 36 59 e9 bf 2e 05 50 bf 75 2e 72 bd 04 eb b2 bf
       -1.823035 -0.81257904 -0.059126336 -1.3977971
000110 06 72 01 c0 67 ed 08 bf 8b 57 29 3f 75 01 06 bf
       -2.0225844 -0.5348725 0.66149205 -0.52345973
000120 1b cf 51 3b 46 ae 19 bf 18 33 c9 bf 71 65 83 be
       0.0032014314 -0.60031545 -1.5718718 -0.2566333
000130 0b 71 93 bf be 52 ce bf df 45 a8 3f b2 1c b2 3f
       -1.1518873 -1.6119001 1.3146323 1.3915007
000140 41 5f a1 be ad bd d9 39 a1 5c 3f bd a0 16 07 40
       -0.31517985 0.00041530785 -0.046719197 2.110756
000150 d9 7a 1a bf 54 7c fc 3f 06 1c 9f 3c 36 dd bf 3e
       -0.603437 1.9725442 0.019422542 0.37473458
000160 47 90 8b 3f 4e 32 a9 bf cc 4e 91 3c ec 47 77 bf
       1.0903405 -1.3218477 0.017737769 -0.9659412
000170 c5 eb 0f 40 76 71 c2 3e 00 89 10 bf 54 7d 8c bf
       2.2487652 0.3797719 -0.56459045 -1.0975747
000180 67 8f 48 3e cf 8f ed bf 18 e7 c8 bf 0d 46 cf bb
       0.19585954 -1.8559512 -1.5695524 -0.0063254894
000190 7f d0 6e bd df 44 13 c0 00 e8 bf be 78 40 46 bf
       -0.058304306 -2.3010786 -0.3748169 -0.7744212
0001a0 2f 65 bc bf 8a 01 94 bf a5 8c 01 3e 72 15 f4 be
       -1.4718379 -1.156297 0.12651308 -0.4767261
0001b0 70 37 b5 bc 86 82 02 3f 81 4c 19 c0 77 f3 5c 3f
       -0.022121161 0.5098041 -2.3952944 0.86309
0001c0 6c b8 6a be 97 ad d2 be 49 36 da bf 19 b2 2c c0
       -0.22921914 -0.41148064 -1.7047817 -2.6983702
0001d0 18 9a 06 3f b2 22 95 39 7b 1d b2 be ee 34 8d bf
       0.5257888 0.00028445345 -0.34788117 -1.1031778
0001e0 56 da f5 bc d1 0b 75 3f 29 b6 31 c0 91 44 3d 3e
       -0.030011337 0.95721155 -2.7767432 0.18483187
0001f0 3d 23 ce bf e3 b6 9b 3e 3c 11 ce 3b 4b 11 01 3f
       -1.6104504 0.3041297 0.0062886756 0.5041701
000200 0c 69 2f bf 1e 4b f2 be 9d d6 22 3f b7 25 4d c0
       -0.68519664 -0.47322935 0.63608724 -3.205427
000210 ec f2 49 bf 9d 5f d4 bf 3c 40 11 3f a1 d8 ce bb
       -0.78886294 -1.6591679 0.5673864 -0.0063124453
000220 98 ec ef bd dc 08 72 bf 2d af bc 3d bd ee 67 bf
       -0.117150486 -0.9454477 0.092131 -0.9059866
000230 73 12 d0 3e ad d5 4e c0 b7 c5 18 bf 86 9d 4c bf
       0.40639076 -3.2317917 -0.5967669 -0.7992786
000240 8d 15 a5 bb 0b 55 ef bf 77 d6 05 c0 ed 02 29 be
       -0.0050379694 -1.8697828 -2.091215 -0.16505022
000250 60 d6 33 3f e1 a9 10 bf 35 f9 7f bf 23 cc b5 bf
       0.70248985 -0.56509215 -0.99989635 -1.4202923
000260 10 1c d9 3d fb 1f 3e 38 3c 45 9f bf 43 0c e0 bf
       0.106010556 4.5329314e-05 -1.2443004 -1.7503742
000270 c7 1b cc bd 59 35 bf 3e 80 c6 5d bf 85 63 91 be
       -0.099662356 0.3734539 -0.8663101 -0.2839624
000280 ba 8a 08 c0 f1 d4 88 3e 3e 3a 3c 3a c8 3d c7 3e
       -2.1334672 0.2672496 0.00071803096 0.38914323
000290 05 10 ce bf 4a 18 21 3d 93 c6 dc be cd fd 2d c0
       -1.6098639 0.039329804 -0.4312025 -2.7186158
0002a0 2b 13 d7 be cc 1a 03 3e b5 2b 59 bd aa 26 e3 ba
       -0.42006811 0.12803191 -0.053020198 -0.0017330248
0002b0 e6 d6 5f be ef 6d d6 be 14 f9 6b be 9b 71 fc bf
       -0.21859321 -0.41880748 -0.23044235 -1.972217
0002c0 11 6a 24 40 db 5f 00 3d a0 66 0c c0 ef 8d 2a 3e
       2.5689738 0.031341415 -2.1937637 0.16655706
0002d0 0f 83 51 3b 87 ed fc 3e 1c 59 ee bf 6f cf c3 3d
       0.0031968986 0.4939997 -1.8620944 0.09561049
0002e0 2d fc aa bf dd 30 cc be 75 ad 35 3f 8d c8 29 c0
       -1.3358208 -0.3988103 0.709678 -2.6528656
0002f0 24 c8 30 bf fd 5e 10 3a 51 94 bc bf 00 32 e5 3e
       -0.6905539 0.00055073184 -1.4732763 0.4476471
000300 c1 76 ab 3e 2a a6 7a bf 56 40 cf 3f 79 33 ca 3f
       0.3348904 -0.97909796 1.6191509 1.5796958
000310 ea 0b 84 bf ee 49 6b bf 1e 29 71 bb 2d 3f dd bf
       -1.0316136 -0.9190968 -0.003679819 -1.7284905
000320 95 37 55 bf b4 32 3e be 68 36 19 c0 6b 46 0f 3f
       -0.83287936 -0.18574029 -2.3939457 0.55966824
000330 b3 01 87 bf 94 f4 69 bf 94 f2 fe 3e d9 12 e3 3b
       -1.0547394 -0.9138882 0.49794447 0.006929737
000340 6c 7f b1 bf 5a cf 6b bf 9a 04 59 bb 56 dc 7b 3f
       -1.3867011 -0.9211327 -0.0033114315 0.9838308
000350 b0 b3 ad be ae f6 32 40 13 87 fb be cc 81 88 3f
       -0.33926153 2.7963061 -0.4912649 1.0664611
000360 6d 63 cc bc 0c 7b 37 bf 8f 05 8a 3f 5b 1c 8d 3f
       -0.024949754 -0.7167213 1.0782946 1.1024278
000370 0d 0d 41 bf fc fe 61 c0 fc 51 01 bf 08 28 b9 bf
       -0.7541054 -3.531188 -0.50515723 -1.4465342
000380 2f 9f 0e c0 c7 a0 e9 b9 8e 05 41 3f 1d 40 0d c0
       -2.2284658 -0.00044561012 0.753991 -2.2070382
000390 d7 8f ee bd f6 c0 e7 bf be 29 2f bf d6 e5 47 be
       -0.11648529 -1.8105762 -0.6842307 -0.19521269
0003a0 ae 3a a4 3f 5a 22 91 be 6f 13 b0 bb d3 67 3e c0
       1.2830408 -0.2834652 -0.0053734104 -2.975087
0003b0 73 be bb bf fa b4 28 be 0e 6e 92 3e 74 f9 9b 3f
       -1.4667495 -0.16475287 0.2859959 1.2185502
0003c0 5c 68 9c bf cd c1 e8 be e5 b1 13 3f 93 40 4d 3c
       -1.2219348 -0.45460358 0.5769332 0.012527603
0003d0 21 12 22 c0 b7 de b2 3f ae 5f e4 be bb 7c 75 3f
       -2.5323565 1.3974217 -0.44604248 0.9589345
0003e0 3c 5f 55 3f 6e 07 1c bf 60 97 1b c0 c9 79 bf bf
       0.8334844 -0.60948837 -2.4311142 -1.4959041
0003f0 c4 ba 5c 3b c5 b4 19 bf 52 97 88 bf 30 c7 06 bf
       0.0033680657 -0.6004146 -1.0671179 -0.52647686

l1.bias f4 [189]
000000 b2 0a c0 be f7 20 ca 3e 88 fa 2f bf 4e a3 25 bf
       -0.3750816 0.39478275 -0.68741655 -0.6470231
000010 ec be 73 3e ba 73 7e 3e 01 25 d6 3e fb 71 f8 3e
       0.238033 0.24848834 0.41825107 0.4852446
000020 fa 40 2a 3b e5 8b 4e bf af 98 8b bf 8a bb ac be
       0.002597867 -0.8068221 -1.090597 -0.3373683
000030 f9 cd c0 bd 04 91 98 3e ae 1d 9b 3e b8 d9 8d be
       -0.09414286 0.29798138 0.3029608 -0.2770517
000040 c7 d8 b2 be b3 b9 a5 3e 80 33 c4 3e 10 8a 8d 3e
       -0.34931013 0.3236824 0.3832054 0.27644396
000050 55 99 02 bf 78 78 34 bf 7f 79 d4 3e d7 58 cd be
       -0.51015216 -0.7049632 0.41498944 -0.40106842
000060 d3 8f e2 be 69 7f a9 3d 94 98 5d be 82 4c 3b be
       -0.44250354 0.08276255 -0.21640235 -0.18290904
000070 f0 bd bd be 8a b7 83 3e bb ea 27 bf bc d2 74 3e
       -0.37058973 0.25725967 -0.65592545 0.23908514
000080 4b 10 ff 3e 33 69 6b be 6b f0 9c be a9 40 58 bf
       0.49817118 -0.22989349 -0.30652174 -0.84473664
000090 19 3c 7d bf 59 a5 9e bf 60 2e fa bf 1e 77 25 bf
       -0.98919827 -1.239421 -1.9545403 -0.64634883
0000a0 4e 56 33 3f 97 b5 2a bc 7e 29 78 bf c8 4f 39 bf
       0.70053566 -0.010419271 -0.9693831 -0.7238736
0000b0 68 f6 8f 3e 76 4e 9d be 33 47 ba 3d e8 b3 bf bf
       0.2811768 -0.30723923 0.090956114 -1.4976778
0000c0 98 e7 08 bf d5 27 43 3e 85 9e 31 be 66 8f 0b bf
       -0.53478384 0.19058163 -0.17345627 -0.54515684
0000d0 98 96 26 bf e9 02 20 bf 87 31 32 c0 19 69 60 be
       -0.6507354 -0.6250444 -2.784273 -0.21915092
0000e0 9a 21 cf bd fc 13 39 bf ae b2 9f bf 81 49 7a 3f
       -0.10113831 -0.7229612 -1.2476404 0.9776841
0000f0 c5 d9 ba bf 11 0d 78 be 96 1b 19 c0 65 03 37 bf
       -1.4597708 -0.24223734 -2.3923087 -0.71489555
000100 ad b3 28 bf b6 c3 bd 3e 88 32 d8 be 49 06 5d bf
       -0.65899163 0.37063378 -0.42226052 -0.86337715
000110 46 94 72 3e 83 9b 31 bf 06 66 95 bf 6c a8 95 be
       0.23689374 -0.6937792 -1.167176 -0.29230058
000120 ae 84 9e 3d 5f 8d ea be 77 84 54 bd e2 49 87 be
       0.077401504 -0.45810983 -0.05188414 -0.26423556
000130 ee 7e cb 3d 49 ad 80 3e 74 f9 98 be ab 39 04 3f
       0.09936319 0.25132206 -0.29877818 0.51650494
000140 99 3c 48 be ab 85 01 bf 38 dd d0 be c4 9d ec 3e
       -0.19554366 -0.50594586 -0.40793777 0.46214116
000150 d7 5f 34 be cd cf da 3e e2 80 3d 3f aa 52 24 bf
       -0.17614685 0.42736664 0.74024785 -0.64188635
000160 b6 4e e3 bc 03 1a 07 bf cd 69 8e be 11 6d a6 be
       -0.027747493 -0.52774066 -0.27815095 -0.32505086
000170 41 e8 45 bf 88 6b dd bf 7b a2 bb 3d 5c 15 7e bf
       -0.77307516 -1.7298441 0.0916185 -0.9925134
000180 4e 00 47 bf d9 9d 81 3e 52 fc 8c bf 19 1d 97 3d
       -0.7773484 0.2531574 -1.1014502 0.07378597
000190 47 be 7a bf 2a 62 4b 3e c7 5c c4 3e ab a2 67 bf
       -0.9794659 0.19861665 0.38352033 -0.90482587
0001a0 c7 1c 84 3d 6b c9 8a be 68 ba 07 bf 0c 6d 0d 3f
       0.06450801 -0.27106795 -0.5301881 0.5524452
0001b0 d1 3f 29 bf 1d 3f 2f be c2 d3 25 bf 3a 6d be bd
       -0.66113 -0.1711392 -0.6477624 -0.09298177
0001c0 4e e6 e7 be 5a d0 72 bf 9c 51 52 bd 0c 76 a0 3d
       -0.45292896 -0.9484917 -0.05134736 0.07835016
0001d0 42 da 3b 3d af 59 60 3e 9c d4 27 3f 17 08 10 bf
       0.045862444 0.21909212 0.6555879 -0.56262344
0001e0 d0 e8 3d be f6 50 5d bf 57 f2 95 3d 5d 64 d9 3e
       -0.18545842 -0.8645166 0.07321613 0.42459384
0001f0 c3 7b ab be c1 58 1a be f3 91 74 3e 4f f5 1f bf
       -0.3349286 -0.1507292 0.238838 -0.62483686
000200 76 a2 c1 bd 45 30 c7 be 7a 45 29 bf f5 f5 3f bf
       -0.09454815 -0.38904014 -0.6612164 -0.74984676
000210 9c 14 0e 3e a3 62 71 be 7e 48 c7 be bb 34 d5 bd
       0.1387505 -0.23572783 -0.38922495 -0.10410448
000220 62 d8 95 3e 12 f6 aa bf 31 dd 02 c0 04 40 e4 bf
       0.2926665 -1.3356345 -2.0447505 -1.7832036
000230 25 d9 b8 bf 27 48 ba be 2d af ba be d9 7e 91 3e
       -1.4441267 -0.36383173 -0.36461774 0.2841709
000240 9c 75 60 3d 01 55 42 bf 3c 0f 01 be 94 a4 1d bf
       0.05479966 -0.75910956 -0.12603468 -0.6157925
000250 ed c0 19 be a1 e3 0b bf f7 be e6 3e 57 38 be 3e
       -0.15015002 -0.5464421 0.4506757 0.3715236
000260 26 d2 43 bd fa f1 41 bd d9 ff f3 be 09 c8 e5 be
       -0.047807835 -0.047349907 -0.47656134 -0.44879177
000270 50 95 6b 3e b0 8b 19 3e 93 bd 4e be 20 d8 a3 bf
       0.23006177 0.14994693 -0.20189504 -1.2800331
000280 af 8d 0d 3f 9c e2 60 bf fd 80 5b be f4 b5 10 bf
       0.55294317 -0.8784578 -0.21435924 -0.5652764
000290 2f 6a 9b be 1f 95 89 3e 98 0f 95 3e 8d f9 ac 3e
       -0.3035445 0.26871583 0.2911346 0.33784142
0002a0 98 85 fd 3e 77 0f 17 c0 b0 62 95 be 8c 68 1a 3f
       0.49515986 -2.360319 -0.29176855 0.60315776
0002b0 80 5b c3 be d9 41 bd be 61 4b 10 3e c6 9f 2b bf
       -0.38155746 -0.369643 0.14091255 -0.6704067
0002c0 ec 5c be be bb e5 19 bf 0f de c1 be 25 07 c8 be
       -0.3718027 -0.60116166 -0.3786473 -0.3906795
0002d0 e0 17 11 bf 73 03 43 bf 16 0a a4 bf 7f b5 04 bf
       -0.56677055 -0.7617714 -1.2815578 -0.5183944
0002e0 30 a1 44 be 53 27 59 3e 6e 56 cc bf 2c f9 78 bf
       -0.19202113 0.21206407 -1.5963876 -0.97255206
0002f0 20 e5 06 bf
       -0.52693367

l2.weight f4 [119, 189]
000000 87 92 93 bd e1 4b d9 be 52 0b 1b bf 26 81 01 bf
       -0.07205682 -0.42440704 -0.6056415 -0.5058769
000010 f1 37 40 3d 71 b2 12 bd 25 9a 11 3e 02 60 e3 3d
       0.04692835 -0.035814706 0.14218958 0.111022964
000020 86 43 d9 bd f3 9b 4b be dd a0 22 bd 23 6d 0b be
       -0.10608582 -0.19883709 -0.039704192 -0.13615851
000030 6b c1 46 3d d2 93 96 3e 7b e0 22 be e0 11 2e be
       0.0485243 0.29409653 -0.15905945 -0.16999006
000040 93 cf af bc 4d e0 4f 3c 1c 7e 8a 3e 32 c9 39 3e
       -0.021461284 0.012687755 0.2704934 0.18143156
000050 7c 13 a8 3d 73 8d bf bd 91 b6 37 3d 8d c6 75 be
       0.08206841 -0.09353151 0.044851843 -0.24001522
000060 ac 0a 68 bf a6 70 90 3d a3 06 08 be 77 ab 5a 3d
       -0.90641284 0.07052736 -0.13283782 0.053386178
000070 90 5a 05 bf bf 43 0f 3e de 86 7b be fb b8 19 bf
       -0.5209131 0.13990687 -0.24563166 -0.6004788
000080 22 5c ee 3e 11 3d 16 be 7c 35 14 3e c6 04 08 3e
       0.46554667 -0.14671732 0.14473528 0.13283071
000090 56 4a e4 bd 9b 2e 85 3e 56 bc fb bd 0c ce 11 3e
       -0.11146991 0.2601212 -0.122917816 0.14238757
0000a0 87 28 2c 3e 25 d4 de 3d 51 52 53 3d b1 7a 63 be
       0.16812335 0.10880307 0.051592175 -0.22214772
0000b0 1c 02 39 3e bb f1 2e bc f1 4f c3 bf 4d 21 54 be
       0.18067211 -0.01067775 -1.5258771 -0.20715828
0000c0 0e 19 5e be 52 85 e1 bd dd 8b a9 3d 69 ec 88 bd
       -0.21689245 -0.11011757 0.0827863 -0.06685717
0000d0 48 bc 08 bf bc f0 bc be 28 62 94 bb 67 26 f2 3d
       -0.53412294 -0.36902416 -0.0045283027 0.11823731
0000e0 1c b6 4c 3e e4 73 4b 3e 80 cd 16 3d 37 7b a0 3e
       0.19991344 0.19868428 0.036817074 0.31344005
0000f0 32 95 1b be 41 e6 d8 3c 69 71 92 bd 55 f9 1e bd
       -0.15193632 0.026476981 -0.071505375 -0.038812
000100 f7 8a 03 bd f8 91 58 3e 8d 7a c1 3d be e8 01 3e
       -0.03211495 0.21149433 0.09447203 0.1268644
000110 57 60 64 be ab f5 86 3c 35 10 35 bf 32 34 df bd
       -0.22302376 0.016474565 -0.70727855 -0.10898627
000120 4b 20 2c be de 03 2a be 1a f7 05 3d 1c 6b da 3d
       -0.16809194 -0.16603038 0.032706358 0.10664961
000130 6d 28 3a 3e e9 3d 26 3e 2b 1f c0 bf 92 fa 42 be
       0.18179484 0.16234554 -1.5009512 -0.19040897
000140 25 62 3a 3e df 64 93 3d 8b 2f bf bd 8f 1a e1 3d
       0.18201502 0.07196974 -0.0933524 0.10991394
000150 6b 51 a2 bd 4e c4 40 bf 6d 5a c1 3d 1f ad 72 bd
       -0.079256855 -0.7529954 0.094410755 -0.059247132
000160 53 6a 69 be 44 49 0c be 86 5f 04 be 73 18 98 ba
       -0.22794466 -0.13699824 -0.12927064 -0.0011603966
000170 24 96 5b bc 6f 5d 88 3d e9 aa 38 3e 48 2b 35 be
       -0.0134024955 0.06658446 0.18033947 -0.17692292
000180 d5 54 e9 bd 07 0f 80 3e f3 f7 1e be 37 0a 2a 3d
       -0.113931336 0.25011465 -0.15524273 0.041513648
000190 de e1 cc 3d 8e 22 36 be 28 ef bf bd 0f c1 84 be
       0.10004018 -0.17786619 -0.09371787 -0.25928542
0001a0 b9 f4 c1 bf de 15 20 be 8b e6 cb 3e b9 3c b3 bd
       -1.5152808 -0.15633342 0.39824328 -0.08751816
0001b0 14 d4 4d be a1 94 c7 3d 40 29 d0 3d 5b ef d0 3e
       -0.20100433 0.097451456 0.10164118 0.40807614
0001c0 1c f3 b0 be 5b a2 d6 bd 82 c1 22 be 50 f6 df bd
       -0.34560478 -0.104801856 -0.1589413 -0.10935652
0001d0 24 72 71 3e 09 76 35 3e 26 8c 34 bd 08 0a 9a be
       0.23578697 0.17720808 -0.04407897 -0.30085778
0001e0 5d 45 7d be 3c 06 08 c0 d0 85 c3 3e 9a e5 b1 bc
       -0.24733491 -2.1253805 0.38188028 -0.021715928
0001f0 16 63 d6 3d 3f 71 29 be eb ea 0d 3e d9 0c af bb
       0.10468118 -0.16547106 0.13859145 -0.0053421077
000200 e2 b9 6d be 26 ce 95 be 0c 06 26 3e 23 ea 0f bc
       -0.2321544 -0.2925884 0.16213244 -0.00878385
000210 fc cb c6 3c 54 5a c5 3e 29 61 b4 3d 6c 8a 2b 3d
       0.02426719 0.38545477 0.08807594 0.041880056
000220 e8 fa 1f 3e 94 ee 8b bf 09 38 d5 be ff b1 28 be
       0.15623057 -1.0932183 -0.41644314 -0.1647415
000230 36 55 93 bf 9c d4 ce be 60 4b fc 3a e9 8e 80 3d
       -1.1510379 -0.40396583 0.0019248538 0.06277258
000240 d0 8b 34 3e 67 1a 2f be b8 4d db bd 8b fc 08 bd
       0.17631459 -0.17099915 -0.10708183 -0.03344397
000250 28 47 7a be 41 be 63 be 06 4b 21 3e 0a 10 40 3e
       -0.24441206 -0.22240545 0.15751275 0.18756118
000260 36 3a 88 bd c1 26 8a be 36 ae 68 3e d3 25 eb bd
       -0.06651728 -0.26982692 0.22722706 -0.11481824
000270 82 8a fd 3d 61 c1 03 3e eb 8d 76 3e c7 52 92 3e
       0.12379934 0.12866737 0.24077575 0.2857878
000280 bf c5 bc bc 53 e2 91 bd 2d a0 3c be f6 ff 1f bc
       -0.023043511 -0.07123246 -0.18420477 -0.009765616
000290 c6 61 09 3d 11 51 56 3d be c7 37 3e fa 4d 95 3b
       0.03354051 0.052323405 0.1794729 0.0045564147
0002a0 b7 5c dd 3e a3 63 0a bb 2f 9d a7 bd f9 a2 48 3e
       0.43234798 -0.0021116517 -0.08184277 0.19593419
0002b0 9e f4 ac 3d ac fb 2b bd 8e d8 a8 bd 97 0e 5b 3e
       0.084450945 -0.04198806 -0.082444295 0.21392284
0002c0 e4 de 04 3e 0f 50 66 3e 8a 32 98 bd 79 e2 8d bd
       0.12975651 0.22491477 -0.074315146 -0.06927962
0002d0 d6 3c 0a 3e 45 15 1c bf f0 ad ef bd 3a 7f 29 3e
       0.1349977 -0.60969955 -0.11703098 0.1655244
0002e0 68 c9 de 3d 64 a9 55 bf a8 bd de bc 8f 5d d2 bd
       0.10878259 -0.83461595 -0.027190045 -0.10271751
0002f0 6a e1 ab 3c 51 65 1c 3e fe e1 c8 be cc 4c 2f 3e
       0.02098151 0.15273024 -0.39234918 0.1711914
000300 8f 77 22 bf d5 c6 d9 be 31 81 8a be 70 a4 41 be
       -0.6346368 -0.4253451 -0.2705169 -0.18910384
000310 43 70 d9 be 3b b7 b2 bd 59 6e 31 bd 92 bc 20 be
       -0.4246846 -0.08726355 -0.043318126 -0.15696934
000320 2a 90 43 be b8 20 26 3e 45 69 dd be dc bb 90 bf
       -0.19097963 0.16223419 -0.43244377 -1.130733
000330 20 43 1d bd e1 67 13 be fa 6a 8d be b4 af b4 be
       -0.038394094 -0.14395095 -0.2762068 -0.352903
000340 db fe c8 3d af bc a2 bd 97 9d 60 3e 4d fc ad be
       0.09814235 -0.07946145 0.21935116 -0.33981553
000350 6b dd 03 3e da 12 93 be ef 08 64 bd a7 e2 aa 3d
       0.12877433 -0.2872532 -0.055672582 0.08344012
000360 da 5e 81 3d 90 56 5a bd 41 29 bf be 95 f3 a5 3d
       0.063169196 -0.05330521 -0.37336162 0.081031
000370 22 86 37 bd a2 68 0e bf 33 26 03 be 4e 62 41 be
       -0.044805653 -0.55628407 -0.1280754 -0.18885157
000380 c2 ba b8 be 04 54 ef 3d d4 cd c7 bc 17 96 ed be
       -0.36079985 0.116859466 -0.024390139 -0.46403572
000390 7d b4 b9 be fb f2 05 bf 8c 98 ce be 12 84 b6 be
       -0.36270514 -0.52323884 -0.4035076 -0.35647637
0003a0 87 b5 ef 3c 09 9c d6 be bd a0 2e be 72 04 f8 3c
       0.029261364 -0.4191592 -0.17053504 0.030275557
0003b0 5b 7f a2 be 8e 16 b7 3e 79 c2 b0 bd 84 f0 13 bf
       -0.3173779 0.35759395 -0.08630843 -0.5778887
0003c0 6e 0a 1d be ae f8 cb bd 39 d9 64 3d da 86 89 3d
       -0.1533601 -0.09959541 0.055871222 0.06715174
0003d0 9f 53 95 bd 20 85 27 be 92 ca 22 bf c8 50 ba 3d
       -0.0729134 -0.16359377 -0.6359035 0.09097439
0003e0 73 ef 23 bf cf 43 04 3e 25 02 12 be ab 35 22 3d
       -0.64037246 0.12916492 -0.1425863 0.039601963
0003f0 aa 22 93 3e 2a e6 36 3e 18 2f e9 be 9f 60 50 be
       0.28737384 0.17861238 -0.45543742 -0.20349358

l2.bias f4 [119]
000000 4a 2e b5 3e 88 be 21 bd 26 52 95 bd b7 d4 f3 3d
       0.35386878 -0.039488345 -0.07291059 0.119058065
000010 e8 d1 84 3e ba 67 de 3b a6 26 b5 be f0 d9 01 be
       0.25941396 0.0067872675 -0.3538105 -0.12680793
000020 93 7b 58 bd cc fd 9a 3d 75 64 c3 3e c1 e0 9c be
       -0.052852225 0.07567939 0.3816258 -0.30640224
000030 7b 42 08 be 9c de b0 3e 55 71 34 bb 01 51 25 bd
       -0.1330661 0.34544837 -0.0027533371 -0.040360454
000040 56 29 b4 3d ea b7 08 bd f1 fe 3c be c5 66 9c bd
       0.08796947 -0.03337852 -0.18456627 -0.07636789
000050 16 46 2d 3e 82 ba af 3d 8f e1 dd bc a9 e6 f7 bc
       0.16921267 0.085804954 -0.027085094 -0.030261355
000060 40 d2 a5 bb 4d 3e ae bd 77 1a 42 3e 8a 7f 00 3e
       -0.005060464 -0.08507977 0.18955408 0.12548652
000070 d7 65 b7 bc 9d 54 1f 3e 78 b2 1f 3d 3c ad 1c 3d
       -0.022387428 0.15559621 0.03898856 0.038251147
000080 bf e9 27 bd a0 04 51 bd a1 fc 0c 3e 2e 27 8f bd
       -0.040994402 -0.0510298 0.13768245 -0.06989895
000090 60 23 61 be 1b 95 5b be cb 90 f2 3e 5a a1 f6 3e
       -0.2198615 -0.21443598 0.47376093 0.48169976
0000a0 5e 70 eb 3d 16 ac ca be 22 a5 a6 bd cc 98 ec bc
       0.11496042 -0.39584416 -0.08136965 -0.028881453
0000b0 1c c7 09 3e 5c dc 00 3e a0 49 6a bd f6 34 a4 3d
       0.1345486 0.1258406 -0.05719912 0.08017914
0000c0 07 30 32 3f 96 e3 a5 3d ad 72 84 bd 19 5f b6 be
       0.69604534 0.08100049 -0.06467185 -0.3561943
0000d0 df 66 6e bd f0 b0 bf bd c9 2b ff 3d b1 19 6c be
       -0.058203574 -0.0935992 0.12459523 -0.23056675
0000e0 33 32 51 3e 43 a9 90 3e 46 87 36 3e 47 bc 48 3e
       0.20429306 0.28254136 0.1782504 0.19603072
0000f0 2a be ff bb 0c 21 b3 3e 59 c5 ea bd c2 ba bb bc
       -0.0078046517 0.3498615 -0.11463422 -0.022916202
000100 cf c3 a7 3e c9 f5 3c 3d b7 90 71 3d e0 a4 37 be
       0.32766578 0.046132836 0.0589759 -0.17933989
000110 e2 0f 2f bd 07 6b 39 be 3c 76 5d 3d af e2 23 3f
       -0.042739756 -0.18107234 0.054067835 0.64017767
000120 91 60 bc 3d 97 b3 24 be db 10 d5 3d 64 16 23 3e
       0.09198106 -0.16084133 0.104036056 0.1592651
000130 e1 39 c8 be db 14 2b 3e 23 90 0c be df 9c 49 3e
       -0.39106658 0.16707174 -0.13726859 0.19688748
000140 f3 1b f9 bc 0a 86 d7 3d 21 44 17 3e 1f d7 d7 bc
       -0.030408835 0.10523613 0.14772083 -0.026347695
000150 63 3a 99 3d 70 c5 92 3c 6a a7 9b be b9 43 3a 3f
       0.074818395 0.017916411 -0.30401164 0.72759587
000160 7d bf 43 bd 81 3e c1 bd 06 8d 7a 3e 28 10 5c 3d
       -0.04779004 -0.0943575 0.24467859 0.053726345
000170 73 47 59 3d 2b 93 b9 3d df 70 fd bd 99 31 2e 3e
       0.053046655 0.09061273 -0.12375044 0.17011108
000180 12 4e 80 bd 9a ce 01 3e 02 98 4d 3e c0 85 80 be
       -0.06264891 0.12676468 0.20077518 -0.25102043
000190 5e 87 80 3e 42 db a0 bc 4e 77 9a be dd 10 2a 3d
       0.25103277 -0.0196358 -0.30169147 0.04151999
0001a0 5e 4b 59 be 3e 53 1a be 38 c2 81 3b 12 aa f2 3d
       -0.21220157 -0.15070817 0.0039599203 0.118488446
0001b0 22 f9 40 3e fe 7a aa bd 2f 37 97 3d 08 14 62 be
       0.18845037 -0.0832424 0.07383572 -0.22077954
0001c0 fd cb 14 3d 70 d8 65 bd 47 c9 ca 3e 36 5d 50 bd
       0.03632735 -0.056114614 0.39606687 -0.050870143
0001d0 a7 5f 87 bc 5d 0e bf 3e e4 93 70 be
       -0.016525103 0.37315646 -0.23493916

l3.weight f4 [9, 119]
000000 2d 8b d5 3c 34 39 34 3e a6 7f 8e be da 80 c4 3e
       0.02606734 0.17599946 -0.27831763 0.38379556
000010 5c bc ae 3e 85 18 c3 3e 6a 62 b5 3e dc c2 06 be
       0.34128082 0.38104644 0.35426646 -0.1316027
000020 e5 74 88 be 29 6e c2 be a7 5d 96 3e d6 67 43 3e
       -0.26651683 -0.3797467 0.29368326 0.19082579
000030 52 68 84 be 9b 88 fa 3e 53 59 6f be 6b d9 03 3f
       -0.2586084 0.48932347 -0.23373918 0.5150363
000040 ec 75 d6 3e 50 0e a2 3d 91 2c e6 3e 2a 8c 72 3e
       0.41886842 0.07912886 0.44955876 0.23686281
000050 4f dd 40 bb ca 06 19 bf cd 36 ef be 98 4e d5 3c
       -0.0029428785 -0.59775984 -0.46721497 0.026038453
000060 f0 90 aa bc b1 6c 2a bd df ee 4d 3e ae 7d cb bc
       -0.020821065 -0.041607562 0.20110653 -0.024840202
000070 c4 ca 87 bd eb 79 ac bb 57 a4 8c 3c 75 bd ce bd
       -0.06630471 -0.005263557 0.017168207 -0.1009473
000080 61 bf 12 3f 45 ad a9 bc 0d 97 bb 3e bd 1b a4 3e
       0.5732327 -0.020712504 0.3663868 0.32052413
000090 d9 ff be bf 50 38 c8 3d 9f 71 39 bf 28 e6 be 3e
       -1.4921829 0.09776366 -0.72439 0.3728497
0000a0 be d6 8d bc 54 e3 e0 bc 82 71 87 be f5 04 07 3e
       -0.017314311 -0.027452148 -0.26453787 0.13185485
0000b0 56 37 7d bc 67 4d 84 3e 37 cf 13 be 00 3f 06 3f
       -0.015455088 0.25840303 -0.14434515 0.5243988
0000c0 5a c1 22 bf 27 ba b1 3e fe f0 b0 3e f5 38 ae bb
       -0.6357628 0.34712335 0.34558862 -0.0053168484
0000d0 4c 85 80 3e 4d 84 0f bd 04 12 b7 3e fa fa 4f 3e
       0.25101697 -0.03503828 0.35755932 0.20310584
0000e0 40 b7 e1 3e 32 fa fc be b9 93 55 3e e3 0e 15 3f
       0.4408512 -0.49409634 0.20857133 0.5822584
0000f0 15 09 cf be 52 48 74 bf d7 7c 53 bd 03 eb 60 bd
       -0.40436617 -0.9542285 -0.05163273 -0.054911625
000100 da d1 78 3e a7 6b 62 3e 6d ce b3 be 2c fe bd bd
       0.24298802 0.22111379 -0.35118428 -0.09276995
000110 64 94 ff 3e bf a3 27 bd 9f 46 71 3e 4e aa b3 3e
       0.499179 -0.040927645 0.23562096 0.3509087
000120 ab cf 6a be 9c 55 8e bc 96 d2 57 3e 11 73 95 3e
       -0.22930782 -0.017374806 0.21076426 0.2918935
000130 a6 59 47 3e a6 52 4e 3e 09 2e d4 be 38 04 de 3e
       0.19467792 0.20148715 -0.41441372 0.43362594
000140 8e 9c cc 3e c5 fe 2c bd 36 32 8b bd 57 e4 4b 3d
       0.39963192 -0.042235155 -0.06796686 0.04977831
000150 ac b4 5f bd 85 d4 e8 3d 0d c0 d6 be d0 38 8f bf
       -0.05461566 0.1136866 -0.41943398 -1.1189213
000160 10 5e 09 3f db 8f 8a be 91 b4 dd 3e 2a e0 0b be
       0.53659153 -0.27062878 0.43301824 -0.1365973
000170 97 e6 e0 3e c3 f1 6d 3e fc f7 af be 72 60 73 3e
       0.43925926 0.23236756 -0.34368885 0.2376726
000180 6f c1 f2 3d 32 ef 41 be 84 1e 01 3e 1c a5 54 be
       0.11853301 -0.18938902 0.12609297 -0.20766109
000190 10 61 4f 3e 32 c6 7e be 92 f8 10 3f 7b 32 1d bf
       0.2025187 -0.24880293 0.5662929 -0.6140515
0001a0 80 fc d7 be 1e f6 9f 3e 7b 80 2d 3e 05 9c e7 3d
       -0.4218483 0.3124246 0.16943543 0.11309055
0001b0 08 b0 d8 3e b2 d4 99 3e 6c 9f bd be e2 2a 29 3e
       0.423218 0.30045086 -0.37035692 0.16520265
0001c0 3d 90 98 bd 60 b8 e5 3c 9f 2a 3f 3e bb 99 7e 3c
       -0.07449386 0.028042018 0.18668602 0.015539582
0001d0 ac f5 3d 3e 00 c7 16 bf d9 1a 8e 3d f7 3c b1 3d
       0.18550748 -0.588974 0.069387145 0.08654206
0001e0 2f ac 71 be e8 c2 52 be 5c e6 39 be ff a2 c0 3e
       -0.23600839 -0.20582163 -0.18154281 0.37624356
0001f0 de b0 db 3d a8 d8 d7 3e eb a0 0c 3e 05 a7 65 be
       0.10727094 0.42157483 0.1373326 -0.22426994
000200 50 bb d7 be 04 15 8d 3e 35 44 17 3f 49 87 f6 bd
       -0.42135096 0.27555096 0.5908845 -0.12037522
000210 a8 40 e3 3d 90 a1 d5 3e 37 09 c8 be db 35 61 bc
       0.110963166 0.41724825 -0.3906953 -0.01374575
000220 6c d1 f3 be 0b 77 41 3e 3e 57 c6 39 4b 98 61 3e
       -0.47620714 0.18893068 0.00037830503 0.22030751
000230 60 b2 01 3f b2 66 91 3e b3 cb 95 3e 3b 4b 44 be
       0.50662804 0.28398663 0.29256973 -0.19169323
000240 7e 69 6f 3e 26 8f d9 3e ed 8c b6 3e 3e ee e1 3d
       0.23380086 0.42492026 0.35654393 0.11031769
000250 9d 91 e0 3d e7 fd 03 bd 8c 1c 10 3f 80 5d 9a be
       0.109652735 -0.032224562 0.5629356 -0.3014946
000260 db 99 e3 38 20 0c be 3e e2 85 93 3e e4 c0 17 3f
       0.00010852861 0.37118626 0.28813082 0.592787
000270 14 b1 02 3f 30 e7 37 bf 20 db a5 3e c9 7b c6 3d
       0.5105145 -0.7183714 0.32393742 0.09691579
000280 17 b9 3e 3e fb 1a 17 3e 47 7b 10 be 5d be 2c bd
       0.18625294 0.14756386 -0.14109527 -0.042173732
000290 0d a7 2f 3e 69 45 f3 3d 26 50 87 bd 8a d3 1f bf
       0.17153569 0.11878473 -0.06607084 -0.6243216
0002a0 cf 72 4f 3c 4e d8 ac be a8 32 f2 3d 69 32 e7 bc
       0.01266165 -0.33758777 0.11826068 -0.02822228
0002b0 bd bd 95 bc 89 3d b8 3e 51 a3 a6 be 94 36 dc 3e
       -0.01827895 0.35984448 -0.32546476 0.4301039
0002c0 ff 81 7e 3f 35 74 06 3e bb 06 c5 bd b2 51 81 3f
       0.9941711 0.13130267 -0.09620424 1.0103056
0002d0 18 80 0a bf 0a 7d 00 bf 34 de fe 3e d5 5a 9f 3e
       -0.54101706 -0.50190794 0.49778903 0.31123987
0002e0 82 e6 2b 3e 5b 87 a4 3e 46 57 fc bd 3e 82 07 3e
       0.1678715 0.32134518 -0.123213336 0.13233277
0002f0 9f 80 7b be b9 5e d7 be 6f dc bd 3e 9e a1 9d bc
       -0.24560784 -0.42064455 0.3708224 -0.019242104
000300 66 54 6b 3e 9e 8c a2 3d 46 5b 88 bd 57 22 1c bf
       0.22981414 0.07936977 -0.06658034 -0.609899
000310 07 93 55 3e 0f 72 f4 3e 62 41 75 3e bb ac 54 3e
       0.20856868 0.4774327 0.23950723 0.20769016
000320 24 d4 45 bd bd 12 bd be c6 b0 18 bd a0 c0 0c 3e
       -0.048298016 -0.3692836 -0.03727796 0.13745356
000330 03 29 90 bd bb 56 95 be b8 d7 fb be ce 72 9f be
       -0.07039072 -0.29167733 -0.49188018 -0.31142277
000340 73 5e a5 3e 82 32 b6 3e 9f a7 be 3e 87 76 22 3e
       0.32298622 0.3558541 0.3723726 0.15865527
000350 4e 79 d2 3e 28 7e 31 3e 37 7a 07 3c 01 6f 4a be
       0.41108173 0.17333281 0.008268884 -0.19768907
000360 db a7 10 3e 82 3f 5c 3e 4d f3 12 be 8b 7f 40 be
       0.14126532 0.21508601 -0.14350624 -0.18798654
000370 eb 3e a4 be 68 0f 0e bc c2 97 d6 bd b7 b6 4e 3e
       -0.32079253 -0.008670665 -0.10478164 0.20186888
000380 21 de a6 3e 85 67 5b bd 57 d8 d0 3e 7e 7a b7 3c
       0.32591346 -0.05356552 0.40790054 0.022397276
000390 29 41 07 3b 22 f4 2b 3f 36 20 a7 bd 64 ec 21 3e
       0.0020638204 0.6716939 -0.081604406 0.15812832
0003a0 de 07 52 3e c4 68 36 be 08 59 ff 3e b6 aa 89 3e
       0.20510814 -0.17813402 0.49872613 0.26888055
0003b0 a0 af 2f bf ad c9 7e 3e c2 cb 76 bd 89 e8 80 3e
       -0.6862736 0.2488162 -0.060252912 0.2517741
0003c0 22 08 8c 3e 45 f2 71 3d ff 54 d1 3e 53 eb fb bd
       0.27349955 0.059068937 0.4088516 -0.12300744
0003d0 28 98 cf 3e 8a 0c b0 3e 9d c7 75 3e 3e 55 04 3f
       0.40545774 0.34384567 0.24001928 0.5169257
0003e0 13 dc ec 3d ef 1e 9e be 02 2a bc 3e 16 d3 60 3e
       0.11565413 -0.30882975 0.367508 0.21955523
0003f0 b5 78 db 3e c6 6e 15 bd 34 d7 3b 3d 6b 64 3f bd
       0.4286553 -0.036482595 0.04585953 -0.046726625

l3.bias f4 [9]
000000 43 9a 98 3e 6f 1e e6 3e f4 c0 a6 3e de f8 1c 3e
       0.29805192 0.44945094 0.32569087 0.1532931
000010 1d 27 db 3e 78 45 ea 3e cb 66 d4 bd 11 f0 ad 3e
       0.4280328 0.45756125 -0.10371169 0.3397222
000020 f7 db d1 3e
       0.40988132

l4.weight f4 [53, 9]
000000 77 63 ad 3d 1c 34 96 3e 83 eb 8f bc 7e 50 8a 3d
       0.08466237 0.2933663 -0.017568355 0.06753634
000010 d2 82 c5 3f 2b 96 0e 3f d9 ed ba bf 62 b5 0d 3f
       1.5430548 0.5569789 -1.4603835 0.55354893
000020 e4 75 d3 3f d7 ec 9d 3e 79 75 03 3f 74 13 1b bf
       1.6520352 0.30844757 0.51351124 -0.6057656
000030 a3 f5 4b 3f fc ae ec 3e 3a fe fa 3e 3a 0d c8 3e
       0.79671687 0.46227252 0.49022084 0.3907259
000040 4e 12 bf 3d ac 8c 6e 3f 36 63 c7 be 6b 98 94 3e
       0.09329663 0.931834 -0.3894288 0.29022536
000050 08 8a 5e 3d bb 18 96 3b 25 58 e4 3f 8c 32 36 3f
       0.054330856 0.004580585 1.78394 0.7117088
000060 2e 3c 60 bf b3 f0 74 3f 67 e0 a4 3f dc 85 2a 3f
       -0.87591827 0.9567978 1.2880982 0.66610503
000070 71 01 5a bc aa bf 03 be 87 02 bf 3f a9 c6 3e bf
       -0.013306008 -0.12866083 1.4922646 -0.7452188
000080 0d 00 b6 3e 6a 60 03 40 b0 d0 2a 3f 8a 19 bb 3e
       0.35546914 2.0527596 0.6672468 0.36542922
000090 17 f6 ea be 25 57 13 3f 68 b8 9e 3d a2 74 c8 3c
       -0.45890877 0.57554847 0.077500165 0.024469677
0000a0 3a d2 15 40 f1 3a 6e 3f 90 91 62 bf 52 6e 3a 3f
       2.3409562 0.9305869 -0.8850336 0.72824585
0000b0 65 56 8b 3f 0d 31 e1 bd f0 de 64 3f ee 43 86 3c
       1.088574 -0.10995684 0.89402676 0.016389813
0000c0 4c 67 58 be cd b8 f4 3e f0 fb bd 3d d6 7d 48 3f
       -0.21133155 0.47797242 0.09276569 0.7831701
0000d0 3b 85 1b bf 8b df 73 bf f1 9b 75 3d bd ff f3 be
       -0.6075017 -0.95262975 0.05996317 -0.4765605
0000e0 b5 a7 5a 3f 9b cf 95 3e 58 1c 03 3f 19 e1 7e 3f
       0.8541215 0.29259953 0.51215124 0.9956222
0000f0 5e 24 ec 3e 74 c5 a5 3f c5 70 c6 3e 22 a4 bf 3d
       0.46121496 1.2950883 0.3875791 0.09357478
000100 61 77 e4 be 61 fd 2e 3f af 7d ef bd f2 b9 b1 3e
       -0.4462233 0.68355376 -0.11693894 0.34712178
000110 b0 95 85 3f 23 34 31 3f d0 ff c8 3f 03 4b 78 3e
       1.0436306 0.6922018 1.5703068 0.24247365
000120 99 0a f1 3e ac 26 ba bd fd 90 5b be fc 36 ab 3f
       0.47078398 -0.09089407 -0.21442027 1.3376155
000130 45 2c ed be 47 76 b5 3e 8d 43 98 3f b6 92 28 3f
       -0.46322837 0.354418 1.1895615 0.65848863
000140 a0 03 19 3f ba 99 25 3f 83 3f c2 3e 92 e3 05 bf
       0.59771156 0.64687693 0.3793908 -0.5230037
000150 b3 af 95 3f f1 11 82 3d 87 fc af 3e fd 04 82 3e
       1.1694244 0.06351078 0.3437235 0.2539443
000160 31 42 63 3e 1c 11 9e 3f 14 2e 07 bf dd 56 5b 3e
       0.22193219 1.2348971 -0.52804685 0.21419854
000170 3f 6a 1f 3f ca 29 12 bf 21 4a e5 3f 19 f8 d8 3e
       0.62271494 -0.57095015 1.7913247 0.42376783
000180 37 e6 2f bf c4 ad 65 3f c2 4b 73 3f 8c de d8 be
       -0.68710655 0.8971827 0.9503747 -0.4235729
000190 4e 28 62 3e 08 c0 d1 3d cf 18 5f be 2f a8 d2 3f
       0.22085688 0.10241705 -0.21786807 1.6457576
0001a0 df 7f 67 3f 9f 95 2f bf b6 98 85 3f 5a bd c8 3f
       0.9042949 -0.6858768 1.0437229 1.5682786
0001b0 8b 8c 6f bd a2 c8 12 3f 9d 45 04 bf 13 41 cf bf
       -0.05848364 0.5733739 -0.5166872 -1.6191734
0001c0 f0 3d 60 be a6 d9 f1 3d 69 2d b5 3c 02 29 c5 bf
       -0.21898627 0.11809091 0.02211638 -1.540314
0001d0 a6 15 09 c0 9f d2 36 3f c1 2c a0 3d 78 c2 ed be
       -2.1419463 0.7141513 0.07821036 -0.4643743
0001e0 de 47 90 3f dc d3 70 3e 3d fc 60 3f 97 9e 98 3e
       1.1271932 0.23518318 0.87884885 0.29808494
0001f0 66 21 24 3f 19 80 a6 3f 7a 6b af be 7b 1c db 3e
       0.6411346 1.3007842 -0.34261686 0.42795166
000200 36 02 02 be 8a fc 26 3e 4d 1a 09 40 d7 9f 53 3f
       -0.12696156 0.16307274 2.1422303 0.8266577
000210 91 85 6e bf 58 58 37 3f a2 ba ae 3f 3d ab e5 ba
       -0.93172556 0.71619177 1.3650706 -0.0017522346
000220 0f 8d dd 3e 25 d7 ca bd 6a 85 86 be d1 e4 0d 40
       0.43271682 -0.09904317 -0.26273662 2.2170908
000230 39 c0 40 3f b2 a4 78 bf 30 29 8d 3e 63 b5 da 3f
       0.7529331 -0.97126305 0.27570486 1.7086605
000240 0d 91 2e be 5d 69 bb 3e 15 a7 6e 3d 65 20 ac 3f
       -0.1704752 0.36603823 0.05826481 1.3447386
000250 73 4d 56 bf 69 cc 9c be 79 c6 3f 40 be d1 d8 3d
       -0.8371193 -0.30624703 2.9964888 0.1058688
000260 48 b3 5e bf e0 94 48 3e 41 d5 a8 3e f9 68 d3 be
       -0.8699231 0.19588041 0.329752 -0.41291025
000270 23 8a e5 3e f7 90 96 3f 32 94 88 3f 5f 3d 33 bf
       0.44831952 1.176299 1.0670226 -0.7001552
000280 ee 9d b8 3e 63 6e dd 3f 65 93 cc 3e fa cc 85 3e
       0.3605799 1.7299312 0.39956203 0.26132947
000290 b4 a4 fe be 3b a7 6c 3f 19 cf 31 3f 1d e2 41 3f
       -0.49735034 0.92442673 0.6945663 0.75735646
0002a0 23 c1 c3 be c3 82 18 3f 81 d4 a3 3f ef 44 0f bf
       -0.3823329 0.59574527 1.2799226 -0.5596456
0002b0 37 9e 3f 3f 2d a6 67 be df 61 0a bf 16 48 4f 3f
       0.7485079 -0.22621985 -0.5405559 0.8096937
0002c0 6d 18 5a be 66 71 8f 3f 38 e6 06 bf 07 dd 8a bf
       -0.2129838 1.1206481 -0.52695036 -1.0848702
0002d0 d5 1a d5 be 2e ec 27 3d 87 13 fa 3e 7c a6 16 bd
       -0.41622034 0.040996723 0.48843023 -0.036779866
0002e0 af 11 fb 3f cf 6a 52 3f fc 21 3b bf cb 97 34 3f
       1.9614772 0.82194227 -0.7309873 0.7054412
0002f0 ed d6 8d 3f 09 03 a4 be 20 c2 72 3e 48 8c 1b 3f
       1.1081215 -0.32033566 0.23706865 0.6076093
000300 8f 3f 53 bf 53 5f e0 3f 4e 39 f6 3e 9a 03 0e bf
       -0.8251886 1.7529091 0.48090595 -0.55474246
000310 cd dc 9a 3e 0f bf 43 3f bf fe 3a 3d 18 90 53 3e
       0.30246583 0.7646341 0.0456531 0.20660436
000320 06 53 be bd 5b 3d 5e 3e da 07 e1 3f d0 1f 4c 3f
       -0.09293179 0.21703093 1.7580521 0.7973604
000330 1e 9a aa bf cc b8 3f 3f 18 13 d2 3f 6d 0e 5b 3d
       -1.3328283 0.7489135 1.6412077 0.053480554
000340 48 fd 16 3f a8 56 10 bf 68 46 67 3f 37 42 21 3f
       0.58980227 -0.56382227 0.90341806 0.6299166
000350 88 88 c6 bc 23 92 23 3f 71 cc 12 3d 29 96 7e 3f
       -0.024235025 0.6389486 0.0358395 0.99447876
000360 dc 42 19 bd 7d 1d c2 be d0 d0 6a 3f fa 29 c5 bd
       -0.037417278 -0.37913123 0.9172487 -0.09627147
000370 12 88 aa 3e 9f ad 83 3f 1b a9 14 3f ec a5 ab 3f
       0.33306938 1.028736 0.58070534 1.341001
000380 0d 40 b7 3e b3 74 f7 3d a6 21 25 3f a5 33 13 bf
       0.35791054 0.120828055 0.6450447 -0.5750068
000390 f4 c9 ca 3e 67 0f 56 3f bd 30 8b 3e 49 c9 ea be
       0.39607203 0.8361725 0.27185622 -0.45856693
0003a0 9a 2b 04 3e 6b de cb 3f ef b6 b2 be 3e 4e b0 3c
       0.12907258 1.5927252 -0.34905192 0.021521684
0003b0 9b 5c c2 3e 38 5e 75 be c8 1b c7 3f ba 74 28 3f
       0.37961277 -0.23961723 1.5555353 0.6580311
0003c0 64 96 29 bf 2b b6 59 3f 31 0f b4 3f e0 0c d4 3e
       -0.662451 0.8504359 1.4067136 0.41416073
0003d0 e4 69 5b be 50 52 bd bd 0c 5e 3c 3f 24 a4 18 3f
       -0.21427113 -0.092442155 0.73581004 0.5962546
0003e0 16 9c 7e 3f 98 61 a8 be 0c 94 3c 3f 73 bf f3 3f
       0.9945692 -0.32886958 0.736634 1.9042801
0003f0 6a b1 86 be 67 da 88 bd 48 95 7e 3f 83 41 02 bf
       -0.2630723 -0.06682282 0.99446535 -0.5088121

l4.bias f4 [53]
000000 98 b2 71 3f 1f ed 4e 3f 07 1a a8 3f 7f d6 fb 3d
       0.9441314 0.8083057 1.3132943 0.12296771
000010 ba 51 9a 3f 0a 1f 3e 3f 44 f0 6f 3e 98 71 f2 3e
       1.2056191 0.7426611 0.23431498 0.4735229
000020 61 37 38 be 62 f6 a0 3e 63 b6 79 3f ac 01 98 3f
       -0.17989875 0.31437975 0.97543925 1.187551
000030 f4 78 a9 3f 9d 0e 8e 3e 2c 90 b5 3f 33 cd 9b 3f
       1.3240037 0.27745524 1.4184623 1.2171997
000040 fc 3e 9c bd 36 41 6c 3f 98 8f 7d 3f 7d 59 e4 3f
       -0.07629201 0.92287004 0.9904723 1.783981
000050 5f 89 5a 3f 40 1a 77 3f cb 85 5d 3f 70 9c 59 3f
       0.8536586 0.9652443 0.86532277 0.8500433
000060 16 0e 91 3e 36 86 98 3f 0d 11 89 3f f4 be 88 3f
       0.2833106 1.1915958 1.0708328 1.0683274
000070 2d 2c d5 3e 07 0f f3 3e 73 c6 04 3f 2b 88 91 be
       0.41635266 0.47472402 0.5186531 -0.284242
000080 f7 d0 16 3f 03 88 a9 3d 69 82 96 3f 1a f5 db 3f
       0.58912605 0.08277895 1.1758548 1.7184174
000090 89 7b de 3e c0 50 29 3f b0 e4 2d 3f 8b 69 97 3f
       0.43453625 0.6613884 0.67927074 1.1829084
0000a0 58 a2 58 3f 83 ba e0 3e 99 cd 0f 3f a0 98 4a 3f
       0.84622717 0.43892297 0.5617309 0.7913914
0000b0 c0 ed 3c 3f 42 ce 9f 3f ca 8c 21 3f 0c 06 5e 3e
       0.7380028 1.248482 0.6310545 0.21681994
0000c0 5f 87 9c 3d 9a 84 b3 3e 0c 07 fc 3e 5d 9f 80 3f
       0.076430075 0.35062104 0.49224126 1.0048634
0000d0 69 fa 20 bd
       -0.03930131

l5.weight f4 [85, 53]
000000 73 75 84 bc c3 dc bc 3e ea 62 77 3e 49 24 1c be
       -0.016169285 0.36887178 0.24158826 -0.15248217
000010 e7 bd b1 3e f3 47 31 3f d7 dc f5 be ee 81 95 bd
       0.34715196 0.6925041 -0.4802005 -0.07300173
000020 71 ef 0f 3e cb 1a 36 3e d6 49 93 3e ec 71 ac 3e
       0.14056183 0.17783658 0.2876727 0.33680665
000030 a9 5c 1a 40 02 96 6e bd c7 12 0b 3f a5 08 38 3e
       2.4119055 -0.058248527 0.54325527 0.17972048
000040 d0 a3 e8 3e 33 b2 14 3e a2 fe c0 3d a0 77 36 40
       0.4543748 0.14521103 0.09423567 2.8510513
000050 69 86 84 3e 3a d3 78 3e 85 95 a0 bc b1 be 34 3f
       0.25883797 0.24299327 -0.019602546 0.7060347
000060 f7 c7 a0 be b0 41 d1 3e 99 50 9b 3d 1d 74 82 be
       -0.3140256 0.40870428 0.07583732 -0.25479212
000070 4c 42 94 bc dc 7b 5d 3e 40 2f 1b 3e b7 a7 8c bd
       -0.018098019 0.2162928 0.15154743 -0.068679266
000080 95 a1 f6 3e d9 51 01 bf 45 3a 25 3e 32 1e 01 40
       0.48170152 -0.50515515 0.1613551 2.017468
000090 84 d0 c8 3d 54 33 ce 3d a5 11 4b 3f 04 7e b4 bd
       0.09805396 0.10068384 0.793238 -0.08813098
0000a0 11 0d ab 3e 45 a2 59 3c 4e f8 c2 bd 0c 02 70 be
       0.33408406 0.013283317 -0.095200166 -0.23438281
0000b0 de 6d 45 3e ab 3c 6b bd 53 3d c8 3d ed ef e4 bd
       0.19280192 -0.057430904 0.09777322 -0.11178575
0000c0 fb f6 68 3d f2 f4 91 be 86 42 b7 be b3 91 bd 3d
       0.056876164 -0.2850719 -0.3579294 0.092563055
0000d0 29 c4 1f be 25 2e a1 3e 25 b8 4c 3f f5 66 a1 3d
       -0.15602173 0.31480518 0.7996848 0.078809656
0000e0 76 fd 93 3e 59 5f 7b 3e 21 5d 9a be ae 86 b6 be
       0.28904313 0.24548091 -0.30149177 -0.35649627
0000f0 4d 88 e0 bd 0f ce 6e 3e 01 10 58 3f 6d a3 8c be
       -0.10963497 0.23320793 0.8439942 -0.27468434
000100 d1 84 5a 3e 83 3c b2 bd 87 6e 41 3f 91 fc c7 3e
       0.21339728 -0.08702948 0.75559276 0.3905988
000110 a1 7f 91 3e 1d f7 55 3c af 6f 11 3f 1a 23 60 3f
       0.28417686 0.013059405 0.5681104 0.8755356
000120 4f cf 56 bf c3 d5 87 bc ec 6e 05 be ab 9f e9 3e
       -0.8391008 -0.016581422 -0.13030595 0.4562963
000130 74 db 22 3f 1b c1 e6 be 5b 7f 57 3f e0 27 a7 bd
       0.6361611 -0.45069203 0.84178704 -0.081619024
000140 b9 c8 0e 3f 88 69 e8 be a2 ed fd 3e 85 eb 13 3f
       0.5577503 -0.45393014 0.49595362 0.5778125
000150 46 e0 b7 bd c8 7e e8 3e b4 27 98 3e 3d 4f 23 3f
       -0.08978324 0.45409226 0.2971779 0.63792783
000160 f1 bc fc bf cd c8 ee 3e 6d 27 8b 3e 78 d2 8f bc
       -1.974516 0.46637574 0.27178517 -0.017556414
000170 e0 1c 23 3e 3c 4a 41 3f 4b 39 2b 3f 86 7f 11 3f
       0.15928984 0.755039 0.668843 0.5683521
000180 ee 2d b7 bf b9 1c b4 3d ff 6d f1 3e a0 ce 04 3f
       -1.4310892 0.08794541 0.47154233 0.51877785
000190 2f 39 10 3f be cd 5d 3e aa 72 3f 3c 38 30 42 3f
       0.56337255 0.21660516 0.011685053 0.75854826
0001a0 8c b8 2f 3e 5f fe 82 3d d2 7a 72 3e 29 1c 46 3f
       0.17160243 0.06396174 0.23679665 0.7738672
0001b0 8d 3b 07 3e 01 68 c9 3e 41 99 47 3c 7a 09 53 be
       0.1320631 0.3933716 0.012182535 -0.20609084
0001c0 cd 9e c3 be 19 9d a6 bd 72 63 a3 3e 92 12 20 3f
       -0.38207093 -0.08135433 0.31911808 0.62528336
0001d0 58 8c 3a be 01 83 e5 3d ef 08 8b bd be 72 52 3f
       -0.182176 0.11206628 -0.06788813 0.8220633
0001e0 3e af c9 3e d4 c5 a7 3e c3 8d a8 3d 7d 0b e5 3e
       0.39391512 0.32768118 0.08230164 0.44735327
0001f0 8f 86 3b 3f f9 fb 82 bf f0 c5 78 be 23 96 64 be
       0.73252195 -1.0233146 -0.24294257 -0.22322898
000200 c7 75 b5 3e bb 5f 0c 3f c6 fa ec be 59 9b 39 3f
       0.3544142 0.54833573 -0.46285075 0.72502667
000210 dd 55 90 3c 44 66 07 3f 13 12 d6 be 09 e3 b0 3e
       0.017619068 0.5289042 -0.41810665 0.34548214
000220 eb 83 07 3f 5a 19 05 3e 9b 7e 8b 3e c4 3b 10 3f
       0.52935666 0.12997952 0.2724503 0.56341195
000230 c3 10 f7 3e fc d7 ec bf ad 63 24 3f e0 c6 74 3e
       0.48254976 -1.8503413 0.64214593 0.2390399
000240 99 96 6d 3e 71 67 28 3e b1 cc 3e 3f 73 79 20 3f
       0.2320198 0.1644571 0.74531084 0.62685317
000250 96 00 32 3f 8e 0e b1 bf b6 10 1d be 21 4e e8 3e
       0.69532144 -1.3832567 -0.15338406 0.45372108
000260 a4 e3 18 3f 0c 74 fd 3e 9e 29 0e 3e 45 27 92 bd
       0.5972235 0.495026 0.13883063 -0.07136396
000270 ad ae 1e 3f e6 5c 98 3e 00 9b a6 3d 6b 5e bb 3e
       0.61985284 0.29758376 0.08135033 0.36595473
000280 3a 1d ba 3e 42 8d ec 3e 8a 04 75 be bd 5c ff 3e
       0.36350423 0.4620152 -0.23927513 0.4987544
000290 9a dc a0 be 08 63 24 3d 09 05 da 3d b6 05 0f bc
       -0.31418306 0.040133506 0.10645492 -0.008729389
0002a0 16 ab b7 3e f6 ec e4 3e ad 8d fd 3e e7 57 36 bf
       0.35872716 0.44712037 0.49522153 -0.7122788
0002b0 0d 9d e1 3e 3a ae 5c 3f a0 61 19 3f d3 cd 74 be
       0.44065133 0.8620335 0.5991459 -0.2390664
0002c0 32 75 fd 3e bf e4 0c 3f 74 74 57 bf 82 99 fd 3e
       0.49503475 0.5503654 -0.8416207 0.4953118
0002d0 4a af 87 3e 55 c6 21 3f d6 57 fc 3e fc 2e 17 be
       0.26500922 0.63193256 0.49285764 -0.14764017
0002e0 fb c0 4d 3f 7c 92 06 3f ca a4 21 3f b6 c8 9f bd
       0.8037259 0.5256727 0.63142073 -0.078019544
0002f0 ef 7a c0 3e 8b 9a 1c be b0 dd 10 be a3 aa 88 3d
       0.3759379 -0.15293328 -0.14147067 0.06673171
000300 5a 01 6a 3d d1 1c 39 3f 8d 0c 13 c0 00 f3 8c 3d
       0.057130195 0.72309595 -2.297641 0.06882286
000310 91 4c 8f 3e 25 43 09 be 6c 1d ca 3e 11 ca 7d 3e
       0.27988103 -0.1340452 0.39475572 0.24784113
000320 d7 49 4a 3e 2c 32 38 3e 07 14 02 bf db 25 ca 3e
       0.1975473 0.17987889 -0.5081181 0.39482006
000330 df 89 41 3f 1d 55 9e 3e 4b a6 9c bd a4 17 fd bc
       0.75601 0.3092431 -0.07648905 -0.030895062
000340 f5 d5 eb 3d 62 7c 1e 3f ee c2 e5 3e 92 32 5f be
       0.115154184 0.61908543 0.44875282 -0.21796635
000350 98 76 1f 3e 49 a0 c3 3e 7d bd a1 bc 81 67 e2 3e
       0.15572584 0.38208225 -0.019743675 0.44219592
000360 14 8b 36 bd 6d 84 81 bf 25 fd 9c 3e 4f 13 e4 3e
       -0.04456623 -1.0118538 0.30661884 0.4454598
000370 7f a5 9f 3e 39 19 bd 3e 93 d5 df bd 7f aa 8e 3e
       0.3118095 0.36933306 -0.10929408 0.27864453
000380 8c 82 d3 bf c7 63 ef 3e ea c7 3d 3d f7 1e 9a 3e
       -1.6524215 0.46755812 0.04633323 0.3010175
000390 52 6e 37 be 3c fc ab 3e 15 1a 33 3f 63 c3 2b c0
       -0.17913178 0.33590877 0.69961673 -2.6838005
0003a0 a9 b4 5a 3e 37 b2 02 3d 28 6a 89 3e 9b c7 2c 3e
       0.21357979 0.03190824 0.26838803 0.16873018
0003b0 19 15 3b 3e a9 2a 89 3e 62 88 9c 3e 6f 60 3e 3f
       0.18269767 0.2679036 0.30572802 0.74365896
0003c0 5e 25 79 bd ec 1c 9a 3e 26 29 b3 3e ae dc 78 3e
       -0.06082665 0.3010019 0.3499233 0.24302933
0003d0 8f 29 54 bf 8e f7 4d 3f 74 2e fe 3e 3a 9a 1d c0
       -0.82875913 0.80455863 0.49644816 -2.4625382
0003e0 b0 32 06 3f 93 03 45 3d 46 39 72 bf f4 5b 70 3e
       0.52421093 0.04809911 -0.9461864 0.23472577
0003f0 e0 19 6e 3e a1 ba 35 3f 3c 80 18 3f 4e 6c 02 be
       0.23252058 0.709879 0.5957067 -0.12736627

l5.bias f4 [85]
000000 6e f7 3b 3f 78 4b 31 3e 08 08 c3 3e 8a e1 c6 3e
       0.7342442 0.17313945 0.38092065 0.38843948
000010 4f f8 8a 3e ea 72 a0 3e 60 3d 62 3e 93 3e 7c 3e
       0.2714257 0.31337672 0.22093725 0.24633245
000020 c2 62 61 3e 21 44 81 3e 8f 7e 0c 3f 15 1c cd 3e
       0.2201033 0.2524729 0.54880613 0.40060487
000030 66 b4 36 3f 40 f9 cb 3e 33 da 00 3f 13 1f dd 3e
       0.71369016 0.398386 0.50332946 0.4318777
000040 2f 32 9a 3e 4f d1 bf 3e fc af c4 3e 4f b0 08 3f
       0.30116412 0.37464377 0.38415515 0.53394026
000050 13 f6 e5 3e f3 8c ef 3e 02 c0 98 3e 69 97 22 3f
       0.44914302 0.46787223 0.2983399 0.63512284
000060 c9 d4 cb 3e bb 95 9b 3f 5e 06 18 3f 39 6d 4a 3f
       0.3981078 1.2155069 0.59384716 0.7907291
000070 ae 13 2c 3f 37 e1 b2 3e c0 a1 3c 3e 47 a0 18 3e
       0.6721753 0.3493745 0.18421078 0.14904891
000080 5c 74 06 3f 3f 42 19 3f 91 d6 d5 3c da 4e 70 3f
       0.525213 0.5986671 0.02610329 0.9387032
000090 9d c1 af 3e 75 2a 20 3f a4 c6 d3 3e 9c 42 af 3e
       0.34327403 0.62564784 0.41362488 0.34230506
0000a0 0b ed 11 3f e5 0b 80 3e a2 31 b1 3e 6b eb 90 3e
       0.57002324 0.25009075 0.3460818 0.2830461
0000b0 b3 22 34 3e b3 05 da 3e a3 b0 ac be 73 69 9f 3e
       0.17591362 0.42582473 -0.33728513 0.3113514
0000c0 d5 9c fd 3e d7 e5 f9 3e 1a 6d 11 3f 82 1a ac 3e
       0.49533716 0.48808166 0.568071 0.33613974
0000d0 9f a4 2f 3f f5 97 de 3e 42 f4 1e 3f bd 50 da 3e
       0.68610567 0.4347531 0.6209146 0.42639723
0000e0 4d 2a fd 3e fc c6 1e 3e 0a 43 e4 3e 2d 98 e8 3e
       0.49446335 0.15505594 0.44582397 0.454286
0000f0 9e 13 ef 3f c7 29 e7 3e 16 b0 0c 3f a1 0c 73 3f
       1.8677862 0.4514906 0.54956186 0.94941145
000100 d5 3a c0 3e 6c ce 25 3f 66 01 fc 3e 88 41 4b 3f
       0.37544885 0.647681 0.49219817 0.7939687
000110 dd c5 98 3e 4f 88 f6 3e e1 08 77 3e a2 b6 66 3e
       0.29838458 0.4815087 0.24124481 0.22530606
000120 ce 9b 10 3f e6 9b 50 3f 4f e7 e2 3e 4d 3e d7 3e
       0.5648774 0.8148788 0.443171 0.4203972
000130 db 31 01 3f a9 26 c9 3e 80 71 26 3f cb 61 1d 3f
       0.504667 0.39287308 0.6501694 0.61477345
000140 9d c6 6c 3e 9d ba 64 3f 2b 06 ab 3e e6 cc 04 3f
       0.2312264 0.8934725 0.33403143 0.5187515
000150 f9 69 0a 3f
       0.5406795
